models/reinforce/reinforce_wide/checkpoint_ep300.pth (torch, 904778 bytes, 18 tensors)

network.0.weight f4 [256, 26]
0.059169363 -0.04567397 0.036912765 -0.044819143 0.10412012 0.0397004 0.11454581 0.078620955
0.011923639 -0.14483498 0.17335425 -0.116082616 -0.06306725 -0.018330455 -0.08877623 0.054215588
0.14577141 0.023677193 -0.12438058 -0.011119926 -0.20283717 -0.19761182 -0.14796422 -0.18958163
0.17584987 0.027928662 -0.1220928 0.14842127 -0.071749896 0.035295803 0.10897043 0.05238909
0.023280313 -0.07329768 0.033531807 0.06347032 0.14415082 0.10784448 0.14919329 -0.03667749
0.11713224 0.15291363 0.076738045 0.016851896 -0.12883922 0.0009410812 0.15631858 -0.16270758
-0.08086134 -0.001002011 -0.027527466 -0.16443154 -0.13048047 -0.083121076 -0.1340595 0.1411597
-0.013556188 -0.08689609 0.10376992 -0.17351767 -0.03319059 -0.046256427 0.09969414 -0.132279
0.026415505 -0.15541181 0.17816374 0.054884262 -0.060286745 0.043037623 -0.06816724 -0.08630231
0.024582392 -0.16092789 0.11251435 0.15885241 -0.037186947 0.09639768 -0.022598293 0.05141279
-0.072637275 -0.039584644 0.032801535 -0.21071146 -0.04594517 0.11945138 0.12138274 -0.11654607
0.06447657 0.035615172 -0.14489576 -0.12918289 0.14273594 -0.07599269 -0.021653632 0.02053155
0.19118655 -0.10885162 0.024270803 0.11679811 -0.073388204 0.07174051 -0.11453824 -0.10201354
0.040437985 0.00017133422 -0.19879453 -0.07787775 0.027208507 -0.18016702 -0.11470982 -0.08724079
-0.063967995 -0.028669676 -0.09972024 -0.18031824 -0.17082058 0.038871948 0.06809205 -0.0972198
-0.055141367 0.15043683 0.13162272 -0.14201799 -0.067963004 -0.18646634 -0.02581888 0.15739587
-0.023318402 -0.09250579 0.041521713 -0.009690493 -0.104080535 -0.0520605 0.0055749267 -0.013924271
0.18085878 -0.160792 -0.111994 -0.07887716 0.18254565 -0.18050314 -0.004421532 0.09787066
-0.13619645 -0.11369514 0.02244921 0.011522368 -0.17251417 -0.14194947 0.0358866 -0.11146528
0.10237999 -0.020697936 -0.1301957 0.17292131 -0.12412894 -0.049018525 -0.045488894 -0.07315658
-0.17688555 -0.17376363 -0.15303503 -0.07079606 -0.1468501 -0.12107865 0.14841582 0.106606364
-0.022053238 0.17917112 0.06260026 0.02282784 0.19834402 0.08548399 0.1498122 -0.0864988
0.113941446 -0.11854739 -0.06161066 -0.120866835 -0.0030453624 0.1873787 -0.13832213 -0.10068313
0.12190224 -0.16961874 -0.19923374 -0.14662437 -0.06397546 -0.080333434 0.13138704 0.044947103
-0.19834079 0.18208519 0.1296685 0.011423105 0.18348765 -0.19027144 -0.012365249 0.042397145
0.031082088 0.08866686 0.15778592 -0.07933714 0.1634403 0.08137914 0.012986034 -0.040523656
-0.064829655 -0.14016548 -0.17596778 -0.028944662 0.020556567 0.022716694 0.1181665 0.08388721
0.123333335 0.03811262 -0.20145382 0.077292256 0.07639412 0.035960555 0.046051074 -0.024684597
0.124601334 -0.15637738 0.17999874 -0.15365963 0.040709767 0.006824929 -0.09331748 -0.02677406
-0.16270277 -0.14860748 -0.022732025 -0.10139879 0.0070957355 0.03202249 -0.17939131 -0.10701104
0.14876452 -0.02817363 -0.13827366 -0.043026175 0.14833875 -0.11364738 -0.045867696 -0.10579056
0.099905595 -0.1690555 -0.03816717 0.012991088 -0.01938021 0.11921526 0.10650007 0.124988385
00000000: 935b 723d a114 3bbd d731 173d 4794 37bd
00000010: ee3c d53d e39c 223d fe96 ea3d 0604 a13d
00000020: 5e5b 433c 9f4f 14be c783 313e b9bc edbd
00000030: 6729 81bd c029 96bc 50d0 b5bd 2a11 5e3d
00000040: 1a45 153e acf6 c13c 3fbb febd 5a30 36bc
00000050: 8cb4 4fbe c15a 4abe ef83 17be b021 42be
00000060: fd11 343e a6ca e43c ca0b fabd bffb 173e
00000070: 9cf1 92bd 5592 103d e42b df3d f195 563d
00000080: 5bb6 be3c 181d 96bd a658 093d bafc 813d
00000090: 469c 133e 91dd dc3d 20c6 183e 233b 16bd
000000a0: 07e3 ef3d 6495 1c3e d628 9d3d fd0c 8a3c
000000b0: 6eee 03be e4b2 763a fa11 203e d19c 26be
000000c0: a19a a5bd e955 83ba 4881 e1bc be60 28be
000000d0: ac9c 05be 623b aabd e546 09be 2b8c 103e
000000e0: c61a 5ebc 94f6 b1bd 5385 d43d 9eae 31be
000000f0: dbf2 07bd 6177 3dbd 712c cc3d 2574 07be
00000100: 5465 d83c 4624 1fbe 8e70 363e 52ce 603d
00000110: 3cef 76bd 3848 303d 449b 8bbd 44bf b0bd
00000120: 0361 c93c 48ca 24be ec6d e63d 35aa 223e
00000130: 5751 18bd 266c c53d 0e20 b9bc 3896 523d
00000140: dac2 94bd 8223 22bd e75a 063d bfc4 57be
00000150: 0131 3cbd eda2 f43d 8497 f83d b5af eebd
00000160: 4b0c 843d 37e1 113d 8e5f 14be 8548 04be
00000170: 5f29 123e 0ea2 9bbd f562 b1bc c831 a83c
00000180: 68c6 433e 99ed debd 90d3 c63c d933 ef3d
00000190: 8e4c 96bd b0ec 923d 0693 eabd 7aec d0bd
000001a0: 4da2 253d 2ea8 3339 cb90 4bbe 5f7e 9fbd
000001b0: 60e4 de3c b47d 38be fbec eabd 4dab b2bd
000001c0: a701 83bd abdc eabc 203a ccbd 58a5 38be
000001d0: 97eb 2ebe 3138 1f3d d873 8b3d 2d1b c7bd
000001e0: eadb 61bd 1d0c 1a3e 1bc8 063e 2a6d 11be
000001f0: 3030 8bbd 08f1 3ebe 1e82 d3bc 622c 213e
00000200: 3c06 bfbc ad73 bdbd ac12 2a3d e0c4 1ebc
00000210: 2d28 d5bd 643d 55bd e0ad b63b a022 64bc
00000220: 0b33 393e a8a6 24be 1c5d e5bd 598a a1bd
00000230: 3fed 3a3e d1d5 38be 80e2 90bb 6a70 c83d
00000240: 1577 0bbe ffd8 e8bd 68e7 b73c 50c8 3c3c
00000250: 8ea7 30be 345b 11be d4fd 123d e947 e4bd
00000260: 9aac d13d b88e a9bc 0652 05be 4912 313e
00000270: 5037 febd a6c7 48bd 9052 3abd 1ed3 95bd
00000280: 7c21 35be 18ef 31be 37b5 1cbe 86fd 90bd
00000290: df5f 16be 15f8 f7bd 51fa 173e 7054 da3d
000002a0: fea8 b4bc a278 373e 9134 803d 7301 bb3c
000002b0: b21a 4b3e 3b12 af3d 5f68 193e 4826 b1bd
000002c0: 225a e93d f9c8 f2bd 765b 7cbd 0889 f7bd
000002d0: b494 47bb 34e0 3f3e 51a4 0dbe f532 cebd
000002e0: e2a7 f93d 89b0 2dbe ee03 4cbe b324 16be
000002f0: 9105 83bd db85 a4bd 538a 063e 741a 383d
00000300: d919 4bbe 8a74 3a3e d2c7 043e fa27 3b3c
00000310: 30e4 3b3e 84d6 42be 9d97 4abc a1a8 2d3d
00000320: dd9f fe3c f896 b53d a292 213e 837b a2bd
00000330: e55c 273e 1baa a63d 60c3 543c 22fc 25bd
00000340: 69c5 84bd 8a87 0fbe e630 34be 5b1d edbc
00000350: 3f66 a83c 5c18 ba3c 4701 f23d 0fcd ab3d
00000360: 3096 fc3d fb1b 1c3d e949 4ebe 674b 9e3d
00000370: 8574 9c3d 604b 133d 0da0 3c3d 5a37 cabc
00000380: fc2e ff3d 6421 20be 9751 383e f358 1dbe
00000390: 49bf 263d a7a3 df3b 3c1d bfbd 4655 dbbc
000003a0: 8e9b 26be 8f2c 18be 8338 babc 2baa cfbd
000003b0: 5883 e83b 042a 033d 5bb2 37be 9b28 dbbd
000003c0: ba55 183e 62cc e6bc 9c97 0dbe 373c 30bd
000003d0: 1de6 173e f5bf e8bd c4df 3bbd b9a8 d8bd
000003e0: 4e9b cc3d e31c 2dbe 2e55 1cbd 93d8 543c
000003f0: 3fc3 9ebc 2127 f43d b51c da3d e9f9 ff3d

network.0.bias f4 [256]
0.091456965 0.09027961 -0.009024129 0.09614072 0.08291666 -0.19467679 -0.15482289 -0.13824053
0.14572091 -0.038070854 0.0051669595 -0.14290538 -0.13253488 0.06787948 0.13693754 0.11415266
0.06750176 -0.06041564 0.10386343 -0.025452225 0.11136655 -0.15050456 0.081187986 0.03584599
-0.0121566 0.020169254 -0.17201132 0.070722125 0.0757573 0.14551048 -0.09355694 -0.021226224
0.18548983 -0.17652108 -0.0427939 -0.12979293 -0.070260555 0.08568903 0.10268441 -0.18517572
0.12566453 -0.04972346 -0.10174503 0.04799834 0.18885598 -0.18296666 -0.19046403 0.056646783
0.0013016446 0.18570451 0.002041139 -0.11753126 -0.038754366 -0.18924338 0.06807959 -0.11001833
0.19864033 0.10193628 0.13338387 0.09977427 0.009706165 -0.05848394 0.20201822 0.1821143
-0.14736408 0.09154008 -0.12870574 0.060422663 -0.032561556 0.015761973 -0.056160927 -0.18920565
-0.13186061 -0.0524936 0.16668613 0.14220214 -0.12360202 0.023402503 0.1914988 0.17760862
0.18603042 0.1325965 0.07859888 0.0016739168 0.1624104 0.035326857 0.12699689 -0.13108723
-0.11674541 0.1615629 0.06657575 0.013729922 -0.16046956 -0.14382708 0.22758548 -0.14410612
-0.105873436 0.12105326 -0.12137264 0.19927226 0.15327942 -0.12579675 0.17109723 -0.102130905
-0.09438285 0.01964005 -0.09312373 -0.13598491 -0.09698356 -0.13549145 -0.15665369 -0.16498156
0.1505772 0.09073385 0.12899123 -0.08109952 0.0739138 -0.12132457 -0.14734297 0.18071349
0.19627254 -0.079880625 0.074308865 -0.12389346 -0.17200784 -0.010286005 0.18411067 0.07955065
0.12931171 -0.16617274 -0.038727544 -0.17325775 -0.11353087 0.022959206 -0.06128787 -0.026108023
-0.16574176 -0.0604637 0.009621322 0.049023177 0.04025771 -0.011307732 0.1880008 0.102458976
0.18777907 0.059393786 0.13145842 -0.19459991 -0.08576944 0.031000003 -0.025289454 -0.026436474
-0.03092119 -0.087156326 0.11628886 0.15315057 0.021166047 0.024319235 -0.0145050455 0.047545355
0.02508889 -0.17171362 -0.15228873 0.13337414 -0.077869095 -0.001781784 0.06092193 -0.062119614
-0.03561561 0.21104902 -0.16496736 -0.017549794 0.093530506 -0.005885328 -0.01603803 0.08540301
-0.032655593 -0.13186373 -0.05156182 -0.1359399 0.015004871 -0.046011925 0.09944068 -0.12988156
-0.19412853 0.12605712 -0.08233997 0.08807466 -0.012066809 0.010250539 0.06188123 0.022225318
0.17528996 -0.055128906 0.08425217 0.069066726 0.04108548 -0.12434346 -0.064254135 -0.055990864
0.16956264 0.14649454 0.089331076 0.15679412 -0.05297798 -0.04667362 0.16875885 0.103047185
0.09226884 0.16202772 0.0430201 0.10888567 0.15373383 -0.13865815 -0.19708215 0.047421206
0.04397358 0.11324043 -0.03350568 -0.031559914 -0.0628909 0.10206254 -0.04292775 -0.0340432
-0.12488157 -0.045861363 0.09105129 -0.09945338 -0.095938556 0.05134166 -0.07890316 -0.037997227
-0.0067869644 0.086336605 0.020880178 -0.025410742 0.006664291 0.10291419 -0.06363445 0.15050355
-0.1808011 0.12413734 0.18639791 -0.16556305 0.027581634 0.20545118 -0.1637431 0.18600424
-0.05642949 0.117558934 0.040069554 -0.13344742 0.16481121 -0.06953943 -0.09049385 -0.041006908
00000000: ca4d bb3d 84e4 b83d f1d9 13bc 6de5 c43d
00000010: 36d0 a93d 5a59 47be e489 1ebe ed8e 0dbe
00000020: dd37 153e 2ff0 1bbd 994f a93b ca55 12be
00000030: 39b7 07be 6604 8b3d 5b39 0c3e dfc8 e93d
00000040: 5d3e 8a3d 6476 77bd 5ab6 d43d 2f81 d0bc
00000050: 2514 e43d de1d 1abe e345 a63d 3fd3 123d
00000060: 7a2c 47bc fe39 a53c bc23 30be c3d6 903d
00000070: a526 9b3d b300 153e c89a bfbd 9ee2 adbc
00000080: 0cf1 3d3e f1c1 34be a848 2fbd 70e8 04be
00000090: c4e4 8fbd bb7d af3d 344c d23d b49e 3dbe
000000a0: 34ae 003e d4aa 4bbd b35f d0bd e899 443d
000000b0: 7663 413e 9d5b 3bbe 0109 43be 7506 683d
000000c0: f29b aa3a 5329 3e3e a1c4 053b 3bb4 f0bd
000000d0: e6bc 1ebd 04c9 41be 506d 8b3d 4a51 e1bd
000000e0: 5f68 4b3e f8c3 d03d c895 083e 7456 cc3d
000000f0: 9b06 1f3c db8c 6fbd dddd 4e3e 2c7c 3a3e
00000100: 9ce6 16be 5e79 bb3d 70cb 03be c17d 773d
00000110: 445f 05bd 411f 813c 0009 66bd 20bf 41be
00000120: 7806 07be 8703 57bd c5af 2a3e 709d 113e
00000130: 0e23 fdbd 9bb6 bf3c 4318 443e 09df 353e
00000140: c27e 3e3e 60c7 073e 73f8 a03d 5467 db3a
00000150: e94e 263e e5b2 103d 790b 023e bb3b 06be
00000160: 3818 efbd bf70 253e de58 883d 77f3 603c
00000170: 2252 24be 6847 13be 2b0c 693e 8e90 13be
00000180: 2cd4 d8bd c6ea f73d 3892 f8bd 070e 4c3e
00000190: 48f5 1c3e ddd0 00be 1d34 2f3e 022a d1bd
000001a0: cc4b c1bd 2ce4 a03c a7b7 bebd a13f 0bbe
000001b0: 519f c6bd 45be 0abe d369 20be edf0 28be
000001c0: e930 1a3e abd2 b93d 4716 043e 8117 a6bd
000001d0: 1e60 973d 0479 f8bd 13e1 16be f50c 393e
000001e0: abfb 483e 7498 a3bd 3f2f 983d dbbb fdbd
000001f0: d322 30be a286 28bc 8287 3c3e 74eb a23d
00000200: 4a6a 043e 3029 2abe c6a0 1ebd 7b6a 31be
00000210: df82 e8bd f214 bc3c fd08 7bbd 7ee0 d5bc
00000220: 35b8 29be c9a8 77bd c0a2 1d3c 87cc 483d
00000230: 45e5 243d 1144 39bc 4883 403e 03d6 d13d
00000240: 2849 403e e646 733d 099d 063e 3345 47be
00000250: e3a7 afbd b8f3 fd3c d42b cfbc 4e91 d8bc
00000260: 6f4e fdbc 047f b2bd db28 ee3d 81d3 1c3e
00000270: 6b64 ad3c 2239 c73c 92a6 6dbc ebbe 423d
00000280: 3787 cd3c b2d5 2fbe 94f1 1bbe 3b93 083e
00000290: d579 9fbd c08a e9ba 4689 793d 2371 7ebd
000002a0: ade1 11bd 3c1d 583e 34ed 28be 96c4 8fbc
000002b0: ec8c bf3d b6d9 c0bb 3062 83bc c6e7 ae3d
000002c0: dfc1 05bd 4907 07be 7d32 53bd d433 0bbe
000002d0: fed6 753c 0077 3cbd 8ea7 cb3d acff 04be
000002e0: a1c9 46be 1e15 013e dca1 a8bd 7d60 b43d
000002f0: deb3 45bc e0f1 273c 2c77 7d3d df11 b63c
00000300: 367f 333e d9ce 61bd 678c ac3d db72 8d3d
00000310: 4049 283d c9a7 febd ac97 83bd ad56 65bd
00000320: d4a1 2d3e aa02 163e 36f3 b63d a38e 203e
00000330: 70ff 58bd d62c 3fbd 1fcf 2c3e 670a d33d
00000340: 72f7 bc3d 98ea 253e d835 303d 73ff de3d
00000350: 676c 1d3e 67fc 0dbe e7cf 49be bd3c 423d
00000360: a41d 343d 99ea e73d 403d 09bd f844 01bd
00000370: f2cc 80bd 2a06 d13d 02d5 2fbd e270 0bbd
00000380: e9c1 ffbd 20d9 3bbd 1979 ba3d 37ae cbbd
00000390: 6f7b c4bd a24b 523d fb97 a1bd fba2 1bbd
000003a0: 2f65 debb 3fd1 b03d e80c ab3c 302a d0bc
000003b0: 2060 da3b adc4 d23d c752 82bd 9a1d 1a3e
000003c0: ec23 39be b83b fe3d 18df 3e3e 5c89 29be
000003d0: e1f2 e13c cb61 523e 45ac 27be e577 3e3e
000003e0: 9c22 67bd bdc2 f03d f91f 243d 71a6 08be
000003f0: 45c4 283e b06a 8ebd d754 b9bd dcf6 27bd

network.2.weight f4 [256, 256]
-0.0320109 0.027552601 -0.0016023113 0.0060398006 0.05656422 0.048123516 -0.004337545 -0.04714813
-0.054178216 -0.014759259 -0.019200342 0.036922917 0.05756533 0.062415842 0.04006242 0.019277861
0.0015147962 -0.014042281 0.010981356 0.042768933 -0.007780302 -0.018573178 0.03895616 -0.0063151927
-0.03600314 0.0109579535 -0.017770045 -0.048020184 0.019641243 -0.05355754 -0.032762766 0.047804862
0.055565953 -0.044519015 0.02997379 0.0035056695 -0.04395532 0.030205565 0.042902693 -0.039920717
-0.057317056 0.005942834 0.04189641 0.06358444 -0.03137928 -0.024568755 0.020717941 -0.068682425
-0.05809797 0.020656992 0.025736583 -0.023857847 0.022406729 -0.06575484 0.06532905 -0.037917368
0.019386848 -0.02973797 -0.039724562 -0.014985445 0.042146496 -0.0549632 -0.05105997 -0.06458192
0.02055923 -0.009523636 -0.032286562 0.0131671885 -0.05130109 0.009920817 0.027193027 0.0045510493
0.039643146 0.0035095578 0.020511983 -0.010094556 -0.00027319137 0.031974453 0.047093216 0.022414936
-0.059248764 0.043696813 0.05078357 0.01006183 -0.019062698 -0.040384866 0.019779122 0.0039302357
-0.004678988 0.037558492 0.022103585 -0.02747199 0.050961707 -0.039229743 -0.054007854 0.038452335
0.036781803 0.0019742623 -0.0022800565 -0.0013344978 0.009944841 0.04366893 0.03712987 0.061084352
0.039775226 -0.02888834 -0.0059602703 -0.03743444 -0.008793192 0.0052432297 0.06118823 0.012425736
0.054980658 -0.043573797 0.024238942 0.005017221 0.013645971 -0.06813024 0.05400197 0.024113543
0.04263029 0.058972664 -0.06520293 -0.056727853 0.061275534 0.035048835 0.042742677 -0.04328322
0.012595854 0.02135332 0.00032767997 0.015409516 -0.0063722194 0.036320265 -0.046878196 -0.0389853
-0.05704198 -0.01668779 -0.0021161768 -0.05061072 -0.0070997695 0.0034868685 -0.058297794 0.033970725
0.042196177 0.014547938 -0.053240057 0.0043052575 0.04677176 -0.011272107 -0.032010455 0.030556954
0.0554662 0.011947113 -0.031019252 -0.03439247 -0.0061623184 -0.00455857 -0.041649714 -0.053459816
-0.0027027968 0.02404592 -0.0012331828 0.04700153 -0.049244385 -0.047549777 -0.036072407 -0.0037276365
-0.038708095 -0.018896258 0.061639987 0.014630187 -0.012628637 -0.06301237 0.061662033 0.05706847
0.05779214 -0.060942255 -0.03424035 -0.0017044679 -0.04804178 0.026011199 -0.050587643 -0.045140155
-0.03855802 0.05258241 0.08117592 -0.027577609 -0.025696615 0.036383234 0.021139322 -0.05235093
-0.0018799749 0.0041745305 0.03567082 -0.024823695 0.0143903345 0.003913693 -0.034085415 0.038391512
0.05077893 0.053843576 0.062486842 -0.047742154 0.061663397 0.02807183 0.034640033 0.020784074
0.03262858 0.01686179 0.044621624 0.050097175 0.06356654 -0.011115551 -0.05571172 0.001701875
0.034666155 0.0049733734 -0.009192172 -0.04117553 -0.08855667 0.014184005 0.044192243 -0.028555742
0.020151874 0.022835866 0.022905003 0.06482118 0.0742253 -0.041004937 -0.05483515 -0.04532259
-0.06886112 0.038628105 0.0037299246 -0.022164933 0.04652009 -0.053388484 0.024740852 0.0146884695
-0.045398984 0.036330923 -0.06495414 0.039053548 0.05769601 -0.0061110114 0.0130326385 0.0050512133
-0.050367936 -0.045728642 0.0040464494 0.024910875 -0.06711041 0.014660321 0.022935532 -0.010873303
00000000: dd1d 03bd feb5 e13c a504 d2ba 85e9 c53b
00000010: e2af 673d 2a1d 453d f721 8ebb 661e 41bd
00000020: fae9 5dbd d2d0 71bc 094a 9dbc 7c3c 173d
00000030: a0c9 6b3d c1a7 7f3d 7e18 243d 9bec 9d3c
00000040: 208c c63a 9811 66bc 25eb 333c 7a2e 2f3d
00000050: e7f1 febb c726 98bc 7f90 1f3d adef cebb
00000060: 0778 13bd fd88 333c 7c92 91bc d0b0 44bd
00000070: ace6 a03c 275f 5bbd 4032 06bd 08cf 433d
00000080: 2099 633d 9259 36bd 988b f53c 60bf 653b
00000090: 7e0a 34bd a971 f73c bcba 2f3d e883 23bd
000000a0: 4ac5 6abd 1bbc c23b 929b 2b3d 8f38 823d
000000b0: 8f87 00bd 6a44 c9bc acb8 a93c 5fa9 8cbd
000000c0: 23f8 6dbd da38 a93c 87d5 d23c 8871 c3bc
000000d0: 518e b73c 79aa 86bd 3dcb 853d 3e4f 1bbd
000000e0: 2bd1 9e3c 0b9d f3bc 39b6 22bd 8385 75bc
000000f0: cea1 2c3d 1821 61bd 4224 51bd 8743 84bd
00000100: d56b a83c 0609 1cbc ea3e 04bd 31bb 573c
00000110: 1721 52bd ec8a 223c e9c3 de3c f820 953b
00000120: da60 223d 9c00 663b bf08 a83c a363 25bc
00000130: 203b 8fb9 a5f7 023d d1e4 403d 879f b73c
00000140: d5ae 72bd 6efb 323d 6f02 503d 60da 243c
00000150: 6029 9cbc 9a6a 25bd d307 a23c 35c9 803b
00000160: 3252 99bb efd6 193d 9412 b53c f00c e1bc
00000170: 39bd 503d 5eaf 20bd 5737 5dbd 3280 1d3d
00000180: 84a8 163d a062 013b 006d 15bb 51ea aeba
00000190: b0ef 223c 31de 323d 7e15 183d 9633 7a3d
000001a0: 59eb 223d 3da7 ecbc 5f4e c3bb db54 19bd
000001b0: 5211 10bc 66cf ab3b 82a0 7a3d 5095 4b3c
000001c0: 6633 613d 707a 32bd bf90 c63c 8067 a43b
000001d0: 5a93 5f3c de87 8bbd 2b31 5d3d c489 c53c
000001e0: 199d 2e3d 528d 713d 1d89 85bd 775b 68bd
000001f0: 0efc 7a3d 5e8f 0f3d f212 2f3d bf49 31bd
00000200: d75e 4e3c 28ed ae3c 76cc ab39 3278 7c3c
00000210: 0dce d0bb 8fc4 143d 5a03 40bd 0daf 1fbd
00000220: daa4 69bd d5b4 88bc 8eaf 0abb 304d 4fbd
00000230: 2fa5 e8bb f283 643b abc9 6ebd e324 0b3d
00000240: e6d5 2c3d 795a 6e3c 3f12 5abd 1e13 8d3b
00000250: bf93 3f3d a5ae 38bc 651d 03bd 9452 fa3c
00000260: 8730 633d d3bd 433c 161c febc 1edf 0cbd
00000270: 46ed c9bb 0f60 95bb e498 2abd aef8 5abd
00000280: 6821 31bb f3fb c43c c0a2 a1ba ad84 403d
00000290: 7bb4 49bd 8ec3 42bd a9c0 13bd 5d4b 74bb
000002a0: 618c 1ebd 53cc 9abc 367a 7c3d 74b3 6f3c
000002b0: 58e8 4ebc a10c 81bd 5491 7c3d a1c0 693d
000002c0: 73b7 6c3d 969e 79bd 9c3f 0cbd 7468 dfba
000002d0: 75c7 44bd 7015 d53c fd34 4fbd e2e4 38bd
000002e0: 04ef 1dbd a760 573d 903f a63d 70ea e1bc
000002f0: b581 d2bc 9606 153d 5f2c ad3c ee6d 56bd
00000300: 7d69 f6ba 80ca 883b 911b 123d 105b cbbc
00000310: 70c5 6b3c 703e 803b 269d 0bbd 6b40 1d3d
00000320: 91fd 4f3d 158b 5c3d 34f2 7f3d 478d 43bd
00000330: c292 7c3d e5f6 e53c b5e2 0d3d 5d43 aa3c
00000340: 8ca5 053d bd21 8a3c 2ac5 363d b232 4d3d
00000350: 2d2f 823d 001e 36bc f931 64bd 7311 df3a
00000360: 19fe 0d3d aef7 a23b c49a 16bc aca7 28bd
00000370: 335d b5bd 0764 683c ed02 353d bbed e9bc
00000380: 8b15 a53c 4812 bb3c 46a3 bb3c f8c0 843d
00000390: 6f03 983d cbf4 27bd d29a 60bd 2ea4 39bd
000003a0: 0f07 8dbd 8138 1e3d c071 743b 3c93 b5bc
000003b0: da8b 3e3d e2ad 5abd 54ad ca3c e8a7 703c
000003c0: 49f4 39bd bccf 143d ad06 85bd 9df6 1f3d
000003d0: a752 6c3d e13e c8bb d986 553c a684 a53b
000003e0: 9c4e 4ebd f54d 3bbd 1498 843b e411 cc3c
000003f0: 2f71 89bd d831 703c 4ce3 bb3c f025 32bc

network.2.bias f4 [256]
0.01801509 -0.038993746 0.018552477 -0.006813623 0.023050828 0.07783676 0.058470473 -0.06038163
0.002042227 0.0056744507 -0.06606202 -0.030373972 0.024595333 -0.017902046 -0.018398434 0.0181475
0.020595646 -0.015876785 -0.013450757 0.044913005 0.025959501 0.06643439 -0.041578382 0.035014853
0.0709312 -0.0063290833 -0.050394133 0.077829115 -0.06905802 -0.012079591 -0.026401663 -0.032034244
0.04910364 0.043148722 0.014314176 -0.0056955386 0.011524258 0.0552295 -0.002850075 -0.04768217
0.017711561 -0.04175981 -0.06001576 -0.046966895 -0.019632973 -0.03444995 -0.005426438 0.022931892
-0.057284784 0.013664865 0.046192393 0.071424 -0.023591004 0.025500499 0.06963853 0.008966839
0.029664895 0.006266855 0.04270229 -0.06728325 0.070417255 0.030713066 0.018267214 -0.0011201104
-0.011785939 0.04352695 0.027204502 0.038596783 0.0047640605 -0.06540168 -0.051241964 0.008838326
-0.022502646 0.033917997 -0.042268053 -0.008598102 0.033167873 -0.028638557 -0.06667039 0.0065430254
0.0666603 -0.025311839 0.06539793 -0.066629715 0.035260703 -0.0343718 0.035382297 -0.03659781
-0.017111933 0.033639573 0.031176696 -0.045526974 -0.029813167 -0.05836737 0.04139574 0.000864292
-0.06675861 -0.016542427 -0.03150756 -0.048169818 -0.024989054 -0.04189175 0.0110492855 0.052004546
-0.008624107 0.04580563 -0.03574237 -0.028788203 -0.05359228 -0.027594602 0.054000042 0.036351837
0.02401146 0.04214873 0.009448577 0.03367514 0.044396795 -0.07105413 0.0020671538 0.05769779
-0.013240519 0.034255326 0.05126947 0.035285383 -0.04496465 -0.0023208098 0.024474163 0.029475236
0.005397667 0.0075867306 0.02298339 -0.052474868 -0.06498721 0.028944606 -0.021405254 -0.005971419
-0.004697375 -0.008251215 0.04945211 -0.030761555 -0.020518243 0.04290975 -0.037014097 -0.040392704
-0.03508319 -0.05883777 -0.009510487 0.040928714 0.031761862 0.009272315 -0.03986651 -0.010667343
0.056538276 0.04516144 0.0024330195 0.011611022 0.015865833 0.0055287215 -0.003327978 -0.034163907
-0.011203116 0.044676226 -0.01886464 -0.006069619 -0.034428705 0.07006776 0.066524625 0.062844686
-0.012268288 0.031139214 -0.013413457 -0.028497905 0.05235077 0.019237626 -0.043168247 0.041438755
0.022515398 -0.0031634346 0.050417166 0.052163307 -0.03923572 -0.04009655 0.025688315 -0.04372164
-0.03231098 -0.04818129 -0.045912996 -0.02731073 -0.010569841 -0.047742944 -0.034977 -0.038507696
-0.006288843 0.00042865425 0.061643083 -0.052540652 -0.048541218 -0.044014648 -0.014745365 0.024916397
-0.0011172489 -0.049984906 -0.04756522 0.09219552 0.047489993 -0.02279796 -0.066677846 0.048951115
-0.047832366 -0.010885264 -0.034674346 -0.038990263 0.041917462 -0.033458196 0.042768124 0.051299416
-0.06464211 -0.022592967 -0.04262013 -0.03783977 -0.04755062 0.002931981 -0.05180441 -0.06656307
-0.019580055 -0.0005803831 -0.045338705 -0.031295 -0.02261774 -0.060759805 0.040579878 -0.004410134
-0.009906072 0.08159938 0.0704487 -0.021171056 0.023701606 0.009433227 0.018291088 0.042235225
-0.005814296 -0.02096367 0.085440874 0.012160093 -0.035046697 0.04484965 0.04647278 -0.043226358
-0.03891766 -0.016625542 -0.059044402 -0.061517563 -0.0023839 -0.0462574 -0.008436847 -0.038305912
00000000: 6294 933c e8b7 1fbd 5dfb 973c d044 dfbb
00000010: 17d5 bc3c e168 9f3d bc7e 6f3d ba52 77bd
00000020: e2d6 053b bef0 b93b 864b 87bd d6d2 f8bc
00000030: 277c c93c 50a7 92bc 50b8 96bc 11aa 943c
00000040: 33b8 a83c 0810 82bc 9060 5cbc b3f6 373d
00000050: 05a9 d43c c10e 883d 184e 2abd bc6b 0f3d
00000060: 6144 913d 3364 cfbb 146a 4ebd df64 9f3d
00000070: 4b6e 8dbd 7ae9 45bc 4d48 d8bc 5736 03bd
00000080: e620 493d b7bc 303d 0186 6a3c a4a1 babb
00000090: 3ed0 3c3c 5438 623d 53c8 3abb 614e 43bd
000000a0: d617 913c 560c 2bbd 16d3 75bd 5c60 40bd
000000b0: 54d5 a0bc 641b 0dbd 43d0 b1bb aadb bb3c
000000c0: 73a3 6abd 99e2 5f3c 3c34 3d3d bf46 923d
000000d0: ec41 c1bc 6ce6 d03c a59e 8e3d a6e9 123c
000000e0: cb03 f33c 315a cd3b 99e8 2e3d cdcb 89bd
000000f0: ec36 903d f899 fb3c 20a5 953c abd0 92ba
00000100: d019 41bc 5149 323d fadb de3c a917 1e3d
00000110: d61b 9c3b 51f1 85bd 18e3 51bd a0ce 103c
00000120: 7857 b8bc 99ed 0a3d 4421 2dbd 0edf 0cbc
00000130: 09db 073d 689b eabc 7c8a 88bd e066 d63b
00000140: 3285 883d c65a cfbc 5aef 853d 2975 88bd
00000150: 876d 103d 72c9 0cbd 07ed 103d 96e7 15bd
00000160: 532e 8cbc a6c9 093d 4566 ff3c 7e7a 3abd
00000170: be3a f4bc a012 6fbd 948e 293d a791 623a
00000180: bdb8 88bd fc83 87bc 120e 01bd b74d 45bd
00000190: d8b5 ccbc af96 2bbd 1008 353c b802 553d
000001a0: 204c 0dbc af9e 3b3d 9766 12bd 3dd5 ebbc
000001b0: 9483 5bbd 130e e2bc 262f 5d3d aae5 143d
000001c0: aeb3 c43c 26a4 2c3d 34ce 1a3c f2ee 093d
000001d0: 6ad9 353d d484 91bd 1679 073b 8554 6c3d
000001e0: c3ee 58bc 504f 0c3d f0ff 513d 6887 103d
000001f0: da2c 38bd ba18 18bb 0a7e c83c 0d76 f13c
00000200: eade b03b 1c9a f83b aa47 bc3c e3ef 56bd
00000210: 0418 85bd 3d1d ed3c 125a afbc e5ab c3bb
00000220: 70ec 99bb 1b30 07bc 4c8e 4a3d a8ff fbbc
00000230: e015 a8bc 22c2 2f3d 189c 17bd d272 25bd
00000240: 64b3 0fbd e0ff 70bd e0d1 1bbc dea4 273d
00000250: ba18 023d e8ea 173c 114b 23bd 14c6 2ebc
00000260: ae94 673d 34fb 383d 4b73 1f3b 283c 3e3c
00000270: 10f9 813c 472a b53b 351a 5abb 74ef 0bbd
00000280: 468d 37bc 6bfe 363d 048a 9abc a8e3 c6bb
00000290: 1d05 0dbd b07f 8f3d 103e 883d b7b4 803d
000002a0: ee00 49bc aa17 ff3c 1ec4 5bbc 7074 e9bc
000002b0: c36d 563d 3a98 9d3c 30d1 30bd afbb 293d
000002c0: 3672 b83c a051 4fbb 3b82 4e3d 31a9 553d
000002d0: a2b5 20bd 483c 24bd 4d70 d23c 7615 33bd
000002e0: 8558 04bd bf59 45bd 440f 3cbd c1ba dfbc
000002f0: 202d 2dbc 1b8e 43bd 0b44 0fbd 3fba 1dbd
00000300: a412 cebb 00bd e039 757d 7c3d de34 57bd
00000310: 28d3 46bd b448 34bd 8b96 71bc 791d cc3c
00000320: a770 92ba f9bc 4cbd c0d3 42bd 01d1 bc3d
00000330: de84 423d cac2 babc 658e 88bd f780 483d
00000340: dfeb 43bd 1b58 32bc b006 0ebd 41b4 1fbd
00000350: a5b1 2b3d 760b 09bd a12d 2f3d 561f 523d
00000360: 1563 84bd e314 b9bc 7292 2ebd e0fd 1abd
00000370: 70c4 42bd 7b26 403b dc30 54bd 3852 88bd
00000380: 5a66 a0bc da24 18ba 14b5 39bd 302f 00bd
00000390: d748 b9bc 46df 78bd 1637 263d e382 90bb
000003a0: 144d 22bc 931d a73d 6847 903d ec6e adbc
000003b0: df29 c23c d28d 1a3c 31d7 953c d8fe 2c3d
000003c0: da85 bebb 01bc abbc a0fb ae3d 203b 473c
000003d0: 208d 0fbd 44b4 373d 3e5a 3e3d 1f0e 31bd
000003e0: 2068 1fbd 4a32 88bc 8bd8 71bd d7f9 7bbd
000003f0: 353b 1cbb 6678 3dbd b33a 0abc a9e6 1cbd

network.4.weight f4 [8, 256]
-0.0557454 -0.05764791 -0.028613329 -0.04529751 -0.06888682 -0.00759402 0.030502127 -0.05416776
-0.005325114 0.022510024 0.03326943 -0.058615733 -0.07052814 -0.006355524 -0.05233036 0.002760597
0.026259797 -0.000808339 -0.058944203 -0.051119838 0.01809493 -0.0006513039 -0.07313156 0.0032540262
-0.06635033 0.027872432 0.011759952 -0.04052998 0.041272536 -0.05906613 0.033667117 0.0066587655
-0.050813872 0.022807622 -0.0519183 0.0027757646 0.026513938 0.03211995 -0.034823906 -0.01951082
-0.061519206 -0.0496666 0.027756939 -0.011855952 0.032448888 0.022114612 -0.058485817 -0.021729441
0.04471265 -0.031949107 0.026570167 -0.071165286 0.012122996 -0.048355944 0.035389505 -0.04534314
-0.021654462 0.030850118 0.034487043 -0.04323865 -0.07111621 0.0033764725 -0.017882794 0.008400586
-0.00074843277 -0.034972697 -0.019205883 -0.0024919596 -0.026510391 -0.02158658 -0.04909485 -0.015241539
-0.0605089 -0.04616291 0.042322066 -0.02920632 -0.08685681 0.041104488 0.015540031 0.046522684
0.0037409258 -0.023747167 -0.07790469 -0.0493768 -0.060625598 0.034703158 -0.029735135 0.043575965
-0.047921747 -0.051722467 -0.020586884 0.004915701 0.03178363 -0.011631044 0.009037491 0.039785422
0.014955448 -0.04986306 0.027185835 -0.0008229032 0.009943678 0.037140276 0.023230918 0.030354263
-0.010192923 -0.050539833 0.013670023 0.015710482 -0.06080003 0.04129298 0.0023291132 -0.026968488
-0.04617813 0.042248376 -0.05206467 0.013038185 -0.02096361 0.043013148 0.031803306 -0.0569188
-0.06113216 -0.04023365 0.047206122 -0.05999914 0.049917735 -0.032732274 0.018640537 -0.0511305
0.012585178 0.01704722 0.010072321 0.013919501 0.00018575485 -0.033444244 0.05424479 0.04923456
-0.0048125163 -0.053511053 -0.06568208 -0.058035813 -0.005185177 -0.021108717 0.011914529 0.031217039
0.03812983 0.044196382 0.033625387 0.04582618 -0.0011184195 0.053680584 -0.023030302 0.019210754
0.04493346 0.02746544 -0.014887123 -0.011245903 -0.058773357 0.040317282 -0.013212643 0.041457385
-0.06744094 -0.051851902 -0.03069101 0.026465168 -0.0124844555 0.012643951 -0.026916012 -0.009717202
0.021437094 -0.026475033 0.009427244 -0.024853423 -0.06335533 -0.034918997 0.025552392 -0.048791222
-0.052356176 -0.011078976 -0.0756241 0.045038164 -0.04763347 0.047973245 -0.016948745 -0.0958065
0.08122991 -0.013773255 -0.055347312 0.061233636 -0.019291833 0.055010676 -0.014606794 0.04438195
-0.06336351 0.0047200248 -0.045523524 0.0009985487 0.015127704 0.009147477 0.035516467 0.01235547
-0.021075431 0.020008251 -0.0040028305 0.015685255 -0.0033627388 -0.060194574 -0.013238564 0.0108516645
-0.049058724 0.055935796 0.012722716 -0.00030723494 -0.03040414 0.0054920167 0.041374758 -0.013872481
-0.0114663085 -0.05933263 0.030104967 -0.060465485 0.030764436 0.019882618 -0.08371989 0.038420048
-0.048935633 0.019631198 0.048391424 0.003812328 0.05238664 -0.04733842 -0.03326496 -0.0043279086
0.06614134 -0.07623196 0.017297719 -0.036224708 -0.025987478 -0.054246113 -0.012341265 0.02855919
-0.0836716 -0.035414934 0.015921906 -0.05986125 -0.036515724 0.025046866 -0.042009063 0.024002815
0.02164246 -0.04084583 -0.07227905 0.034799676 -0.045817163 0.025063628 -0.002517807 0.04853928
00000000: 4a55 64bd 3720 6cbd 8066 eabc e289 39bd
00000010: 8814 8dbd 42d7 f8bb 99df f93c 03df 5dbd
00000020: 4b7e aebb f166 b83c 8745 083d 0d17 70bd
00000030: 0f71 90bd 0042 d0bb 5c58 56bd 22eb 343b
00000040: c91e d73c b6e6 53ba 7a6f 71bd 0963 51bd
00000050: d23b 943c 44bc 2aba 00c6 95bd 8041 553b
00000060: afe2 87bd ba54 e43c d0ac 403c c402 26bd
00000070: 640d 293d 54ef 71bd 88e6 093d c631 da3b
00000080: 3522 50bd 0dd7 ba3c 49a8 54bd 9ae9 353b
00000090: c233 d93c 3590 033d 83a3 0ebd 28d5 9fbc
000000a0: 90fb 7bbd 346f 4bbd 8562 e33c 783f 42bc
000000b0: 20e9 043d b429 b53c d38e 6fbd f101 b2bc
000000c0: 9d24 373d 11dd 02bd aea9 d93c 1bbf 91bd
000000d0: 889f 463c e210 46bd 96f4 103d bab9 39bd
000000e0: b364 b1bc 63b9 fc3c 4942 0d3d 031b 31bd
000000f0: 60a5 91bd cf47 5d3b f07e 92bc 9da2 093c
00000100: 7932 44ba 883f 0fbd a855 9dbc 2550 23bb
00000110: 522c d9bc 57d6 b0bc ae17 49bd a6b7 79bc
00000120: 2ed8 77bd 5215 3dbd e759 2d3d 1842 efbc
00000130: fce1 b1bd 2e5d 283d 9d9b 7e3c 928e 3e3d
00000140: 522a 753b 6b89 c2bc 7e8c 9fbd 543f 4abd
00000150: 8c52 78bd e624 0e3d 1997 f3bc b67c 323d
00000160: 9849 44bd f0da 53bd d3a5 a8bc e413 a13b
00000170: 8d2f 023d 2290 3ebc fc11 143c 0af6 223d
00000180: b207 753c 353d 4cbd d4b4 de3c 19b8 57ba
00000190: cfea 223c 6720 183d c44e be3c 81a9 f83c
000001a0: 3800 27bc db02 4fbd 3bf8 5f3c 45b3 803c
000001b0: 7409 79bd d422 293d 09a4 183b 05ed dcbc
000001c0: 4725 3dbd a20c 2d3d c341 55bd 1d9e 553c
000001d0: e0bb abbc 8e2e 303d 2f44 023d b023 69bd
000001e0: b765 7abd 0acc 24bd 355b 413d a9c1 75bd
000001f0: 8a76 4c3d 4712 06bd 0ab4 983c 376e 51bd
00000200: 1032 4e3c 9da6 8b3c 6006 253c 9e0e 643c
00000210: 30c7 4239 d5fc 08bd c92f 5e3d 2eaa 493d
00000220: 50b2 9dbb 682e 5bbd 5484 86bd f6b6 6dbd
00000230: 6be8 a9bb 30ec acbc 2835 433c e0ba ff3c
00000240: 062e 1c3d 4407 353d c6ba 093d 3cb4 3b3d
00000250: ee97 92ba 2ce0 5b3d 0baa bcbc df5f 9d3c
00000260: 260c 383d 34ff e03c 1fe9 73bc bc40 38bc
00000270: 55bc 70bd bc23 253d d779 58bc 38cf 293d
00000280: 7a1e 8abd a962 54bd b76b fbbc 7bcd d83c
00000290: 9a8b 4cbc 9328 4f3c f87e dcbc e634 1fbc
000002a0: d89c af3c 2be2 d8bc ba74 1a3c 6899 cbbc
000002b0: 70c0 81bd 3907 0fbd 4053 d13c 4ed9 47bd
000002c0: 6e73 56bd 9884 35bc cfe0 9abd f079 383d
000002d0: 501b 43bd 987f 443d 18d8 8abc 3336 c4bd
000002e0: de5b a63d 38a9 61bc ddb3 62bd 1fd0 7a3d
000002f0: e809 9ebc e052 613d 5651 6fbc d9c9 353d
00000300: bac4 81bd 70aa 9a3b e076 3abd bce1 823a
00000310: 30da 773c 4ddf 153c b779 113d 996e 4a3c
00000320: 62a6 acbc 58e8 a33c 2d2a 83bb 5d7e 803c
00000330: 6561 5cbb 968e 76bd 90e6 58bc 2ecb 313c
00000340: cdf1 48bd ef1c 653d f072 503c 6014 a1b9
00000350: 1a12 f9bc 60f6 b33b 9478 293d 6749 63bc
00000360: 2fdd 3bbc c606 73bd b19e f63c a8aa 77bd
00000370: b305 fc3c dfe0 a23c 5575 abbd 575e 1d3d
00000380: bb70 48bd 9bd1 a03c 1636 463d 40d8 793b
00000390: 6093 563d eee5 41bd d740 08bd 21d1 8dbb
000003a0: 1c75 873d 801f 9cbd f2b3 8d3c 5c60 14bd
000003b0: b1e3 d4bc 2c31 5ebd 0433 4abc f6f4 e93c
000003c0: 045c abbd 400f 11bd a86e 823c 1231 75bd
000003d0: 8391 15bd 162f cd3c b211 2cbd 8da1 c43c
000003e0: 874b b13c f54d 27bd 0a07 94bd 1b8a 0e3d
000003f0: c7aa 3bbd 3d52 cd3c cb01 25bb 20d1 463d

network.4.bias f4 [8]
-0.06650327 0.046363477 -0.036721602 -0.030042317 -0.0020117539 0.03250634 0.030107772 -0.015423336
00000000: de32 88bd a1e7 3d3d 6469 16bd 4e1b f6bc
00000010: a1d7 03bb 5e25 053d 93a4 f63c 29b2 7cbc

exp_avg f4 [256, 26]
-0.00026028804 0.0002550713 -5.415764e-05 -0.00035605906 0.00034503412 -0.0015696563 -0.001075009 -0.005758821
-0.00033083162 -0.001146802 -0.0017916897 -0.002332723 0.0005933445 -0.0038661617 -0.005285803 -0.0011272153
-0.004376039 -0.0038513492 -0.0005218384 -0.004135596 -0.0032877645 -0.0021052952 -0.0018825047 -0.00079609954
-0.0023287395 -0.002211113 -4.314352e-06 -0.0046917545 -0.008457182 -0.003558835 8.757692e-06 0.0026898207
-0.0005000364 -0.005964826 -2.4902634e-05 -0.0032384656 0.002744813 -0.0040552565 -0.0015092501 -0.009468731
-0.0027813362 -0.0075973887 -0.019069597 0.0072118538 -0.01697406 -0.0013947356 0.0014408045 -0.0032386743
-0.0025205188 -0.00034632627 -0.005161208 -0.0044875024 1.678142e-12 -1.26139275e-05 0.000106121945 -1.2291867e-05
7.703338e-10 -1.05823065e-05 -5.067581e-05 0.00062599935 -2.7578331e-05 -7.77277e-06 0.0013309097 0.0006105436
5.329434e-12 0.0010164378 0.001456102 0.00016747284 0.00087864243 0.0014165875 0.0011177115 0.00058580993
0.0010106517 0.00072486216 0.00072518317 0.00033421366 0.00072602706 0.00072602706 -0.00058623764 -0.0007057615
0.00027104514 0.0020874713 0.00329142 0.002989885 0.0019640415 -0.023370352 0.010560667 0.007234214
-0.01196248 -0.0004939099 0.006773359 -0.010332227 -0.013670633 0.00738428 -0.025892803 -0.010149833
-0.0031233411 -0.022839144 -0.025212782 -0.005702055 -0.004198193 -0.0021580367 -0.0055772406 -0.005534758
7.6546823e-16 -8.365786e-06 0.0001936811 -9.331881e-17 0.0 2.8215689e-05 7.845972e-05 0.0015867002
2.9511766e-06 1.9213589e-05 0.0009812786 0.0008797217 0.0 0.001966243 0.002757027 0.0009813837
0.0017519571 0.0026859115 0.002739041 0.0012855146 0.0025886947 0.0010134535 0.0008305528 0.00034408353
0.0012223456 0.0011465056 0.0 0.0 0.0 0.0 0.0 0.0
0.0 0.0 0.0 0.0 0.0 0.0 0.0 0.0
0.0 0.0 0.0 0.0 0.0 0.0 0.0 0.0
0.0 0.0 0.0 0.0 0.0007951379 -0.00041558116 -0.0035468969 0.0019103992
0.0034646904 0.017389936 0.016432595 -0.03193537 0.02685555 0.02097664 -0.006545716 -0.0006142091
0.020712217 -0.014826749 -0.02234124 0.015197275 -0.04368641 -0.013134757 -0.008264975 -0.024798986
-0.03275092 -0.005849679 -0.0028410193 -0.0010931154 -0.007726845 -0.0070300596 0.0077294577 0.007231639
0.008133066 0.0059672813 0.007128394 0.028536746 0.025595555 0.008190675 0.034682203 0.03422317
0.007759376 0.017526392 0.023680635 0.0146574145 0.014692884 0.035720598 0.0053276457 0.011400424
0.016936865 0.011403844 0.006757385 0.011267485 0.010802422 0.004378068 0.011642689 0.01173716
0.00326148 0.0035942325 0.0035802855 0.0027728444 0.003982109 0.012481965 0.0111226775 0.008640929
0.015251346 0.012079187 0.0062355166 0.005361781 0.011797388 0.0065864823 0.01418258 0.012189482
0.007873962 0.011055885 0.008168439 0.0031491625 0.008246663 0.00561724 0.0053063454 0.0019179386
0.0053799725 0.0055363057 0.00031579132 -0.0006414666 -0.0013296604 0.0010942376 0.0009868986 0.0009129278
-0.0008573141 -0.03443396 0.0028722053 0.0037740231 -0.027146475 -0.0131341135 -0.0021672882 -0.022768546
-0.0361417 -0.00883737 -0.04330418 -0.04256262 -0.019690454 -0.0413758 -0.04102206 -0.016406408
00000000: 4577 88b9 17bb 8539 5327 63b8 70ad bab9
00000010: b2e5 b439 edbc cdba 51e7 8cba 7eb4 bcbb
00000020: 7873 adb9 4a50 96ba 21d7 eaba 99e0 18bb
00000030: ad8a 1b3a 6e5f 7dbb 8834 adbb 12bf 93ba
00000040: e064 8fbb eb66 7cbb fbcb 08ba e583 87bb
00000050: 8977 57bb fef8 09bb 60be f6ba 56b1 50ba
00000060: c49d 18bb 52e8 10bb 00c4 90b6 4abd 99bb
00000070: fe8f 0abc 583b 69bb 00ee 1237 b447 303b
00000080: e014 03ba 9674 c3bb 00e6 d0b7 703c 54bb
00000090: 52e2 333b f5e1 84bb 08d2 c5ba bc22 1bbc
000000a0: 1447 36bb 84f3 f8bb d837 9cbc 6a51 ec3b
000000b0: 2f0d 8bbc 90cf b6ba 60d9 bc3a f03f 54bb
000000c0: 4a2f 25bb 2093 b5b9 5a1f a9bb e60b 93bb
000000d0: 702d ec2b 68a0 53b7 c98d de38 2b39 4eb7
000000e0: 6cbf 5330 a98a 31b7 bd8c 54b8 1b1a 243a
000000f0: 0458 e7b7 cb67 02b7 eb71 ae3a e30c 203a
00000100: 4683 bb2c fe39 853a adda be3a a69b 2f39
00000110: b254 663a caac b93a 2d80 923a 0a91 193a
00000120: d877 843a ad04 3e3a 381a 3e3a 6639 af39
00000130: da52 3e3a da52 3e3a bead 19ba da02 39ba
00000140: 101b 8e39 f5cd 083b ddb4 573b f2f1 433b
00000150: 26b7 003b 2e73 bfbc a606 2d3c fc0c ed3b
00000160: 47fe 43bc bb79 01ba 0ef3 dd3b 8048 29bc
00000170: cafa 5fbc d5f7 f13b 251d d4bc 7c4b 26bc
00000180: f8b0 4cbb 2819 bbbc 098b cebc 4ed8 babb
00000190: ff90 89bb d96d 0dbb 49c1 b6bb ea5c b5bb
000001a0: 96a1 5c26 c75a 0cb7 e016 4b39 b42d d7a4
000001b0: 0000 0000 bbb0 ec37 be8a a438 d3f8 cf3a
000001c0: d40c 4636 de2c a137 3f9e 803a 209d 663a
000001d0: 0000 0000 15dc 003b 3daf 343b c6a1 803a
000001e0: eda1 e53a 1e06 303b 7c81 333b b67e a83a
000001f0: 17a7 293b dbd5 843a 74b9 593a 1c66 b439
00000200: 1d37 a03a 5846 963a 0000 0000 0000 0000
00000210: 0000 0000 0000 0000 0000 0000 0000 0000
00000220: 0000 0000 0000 0000 0000 0000 0000 0000
00000230: 0000 0000 0000 0000 0000 0000 0000 0000
00000240: 0000 0000 0000 0000 0000 0000 0000 0000
00000250: 0000 0000 0000 0000 0000 0000 0000 0000
00000260: 0000 0000 0000 0000 0000 0000 0000 0000
00000270: cd70 503a 5ce2 d9b9 0e73 68bb 5c66 fa3a
00000280: dc0f 633b 5775 8e3c a69d 863c aace 02bd
00000290: 2c00 dc3c 34d7 ab3c 727d d6bb e002 21ba
000002a0: abac a93c e5eb 72bc fa04 b7bc fefd 783c
000002b0: 85f0 32bd 2a33 57bc d169 07bc 3e27 cbbc
000002c0: d425 06bd aaae bfbb 6530 3abb de46 8fba
000002d0: 7931 fdbb 6a5c e6bb 6447 fd3b 63f7 ec3b
000002e0: 8d40 053c 2f89 c33b 4e95 e93b e5c5 e93c
000002f0: c5ad d13c 2e32 063c ed0e 0e3d 982d 0c3d
00000300: 5d42 fe3b 8293 8f3c e4fd c13c a725 703c
00000310: 6cba 703c c34f 123d 8893 ae3b d8c8 3a3c
00000320: 2ebf 8a3c 30d7 3a3c 0e6d dd3b 429b 383c
00000330: a4fc 303c e575 8f3b fac0 3e3c 384d 403c
00000340: 8ebe 553b 378d 6b3b 39a3 6a3b 9cb8 353b
00000350: 5a7c 823b 2881 4c3c e43b 363c af92 0d3c
00000360: c8e0 793c c8e7 453c 4e53 cc3b e1b1 af3b
00000370: d549 413c 6bd3 d73b 0d5e 683c 65b6 473c
00000380: ca01 013c be23 353c ebd4 053c 2e62 4e3b
00000390: 031d 073c d310 b83b dae0 ad3b 5763 fb3a
000003a0: 7b4a b03b e669 b53b cb90 a539 1828 28ba
000003b0: 0048 aeba 856c 8f3a d25a 813a 8c51 6f3a
000003c0: 60bd 60ba a00a 0dbd 9c3b 3c3b 9a55 773b
000003d0: 4962 debc 7730 57bc 1009 0ebb 1a85 babc
000003e0: 5209 14bd 9eca 10bc b95f 31bd 2456 2ebd
000003f0: e04d a1bc ac79 29bd bf06 28bd bb66 86bc

exp_avg_sq f4 [256, 26]
0.00018680199 0.00024559977 0.00021432362 0.00021967376 0.00025062708 0.0005852452 0.000613063 0.0010049703
0.00057576416 0.00051697606 0.00049393426 0.00033324314 0.0002609716 0.00072251214 0.0010460209 0.0005969752
0.0010761811 0.00094192306 0.00076975004 0.0009224152 0.0006939516 0.00032031164 0.00025874097 4.8226786e-05
0.00035664154 0.00034811377 0.0009137835 0.00090394897 0.00087857654 0.0007730733 0.0007666904 0.0020889763
0.0024430642 0.004940186 0.0020862233 0.0021683148 0.0026877858 0.0027249982 0.0009812479 0.004145079
0.006948168 0.002644 0.0055214833 0.005103099 0.005434623 0.0047098617 0.0047898637 0.0018756124
0.0015403227 0.00030425275 0.0020473306 0.002010833 3.0318358e-08 3.9664158e-08 1.8387583e-07 3.553135e-07
8.880023e-08 3.1289906e-07 2.4006815e-07 4.0208356e-06 2.299926e-07 2.0219834e-07 1.9389952e-05 3.6260979e-06
3.057814e-07 1.7927405e-05 3.315202e-05 4.114134e-06 8.21357e-06 1.8655039e-05 1.9231511e-05 1.0128144e-05
1.6815091e-05 7.2557427e-06 5.686517e-06 1.1423448e-06 9.083453e-06 8.652275e-06 0.00061598385 0.0006726678
0.00072764995 0.00062259036 0.0007148668 0.0015362147 0.0017760997 0.005585359 0.0016347629 0.0014833556
0.003194679 0.0026891902 0.000603637 0.0047692084 0.008475035 0.0027110912 0.0058628647 0.006185569
0.006147795 0.0055234875 0.006294927 0.0020705762 0.0016981099 0.0003333678 0.0023223325 0.002254362
7.086086e-10 2.8949312e-09 4.033032e-07 4.195153e-09 0.0 1.14638034e-07 3.7848832e-07 4.4356435e-05
6.495223e-08 1.0615028e-08 1.3270967e-05 1.1588489e-05 0.0 4.2183463e-05 6.253601e-05 6.8660893e-06
4.054835e-05 8.304319e-05 5.749051e-05 4.787388e-05 5.3178264e-05 1.0022516e-05 7.216981e-06 1.3068642e-06
1.4124919e-05 1.2612062e-05 0.0 0.0 0.0 0.0 0.0 0.0
0.0 0.0 0.0 0.0 0.0 0.0 0.0 0.0
0.0 0.0 0.0 0.0 0.0 0.0 0.0 0.0
0.0 0.0 0.0 0.0 0.00012448628 0.00011045335 0.00025441966 9.0931266e-05
0.00010055836 0.00053911377 0.0007645158 0.006093797 0.00059751887 0.00057604274 0.003628678 0.0036242558
0.00015271541 0.0057371417 0.01043339 0.0022215846 0.0075277654 0.0073993932 0.0070904098 0.0065539978
0.008532098 0.0024411804 0.0019951127 0.0003998005 0.0027565712 0.002671144 0.00011513529 0.00013973615
0.00023117955 8.8126624e-05 0.00011032683 0.00047071374 0.00061595876 0.0027301642 0.00059309835 0.00049876585
0.0017369145 0.001672027 0.00023089618 0.0025827026 0.004781716 0.0012962708 0.0031945943 0.0033423272
0.0033606112 0.0030057065 0.0035833404 0.0011298859 0.00094545813 0.00019076868 0.0012665808 0.001230009
0.000622652 0.0005498437 0.0006309698 0.0005162457 0.0005629846 0.0015167373 0.0016880438 0.0034238116
0.0014162591 0.0015364551 0.0016175152 0.0018601717 0.000692956 0.0028160524 0.0042259935 0.0017163021
0.0036374507 0.0034241318 0.0035594401 0.0032044842 0.0035792287 0.00123382 0.0010089504 0.00019638386
0.0013756979 0.0013418891 0.0001485462 9.0964066e-05 0.000372654 0.00010059259 6.023199e-05 0.00032933106
0.0005694166 0.0067468844 0.00031668838 0.00030947948 0.004552581 0.0034842081 2.7548062e-05 0.0061753127
0.0121382335 0.0020733313 0.0080337925 0.008079423 0.008385206 0.007884318 0.008659554 0.002604752
00000000: 47e0 4339 d8c3 8039 0fbc 6039 3a58 6639
00000010: 9966 8339 246b 193a f6b5 203a 35b9 833a
00000020: e1ee 163a ad85 073a 5e7b 013a 23b7 ae39
00000030: 04d3 8839 f866 3d3a a31a 893a 547e 1c3a
00000040: a50e 8d3a 63eb 763a 0dc9 493a 3cce 713a
00000050: 4eea 353a 80ef a739 a0a7 8739 1e47 4a38
00000060: 9efb ba39 0a83 b639 f98a 6f3a fdf6 6c3a
00000070: 4650 663a 12a8 4a3a b9fb 483a 35e7 083b
00000080: d11b 203b 49e1 a13b 05b9 083b 491a 0e3b
00000090: 9025 303b e295 323b 379d 803a 71d3 873b
000000a0: 75ad e33b f646 2d3b 8fed b43b e637 a73b
000000b0: ec14 b23b 2f55 9a3b 4af4 9c3b 1cd7 f53a
000000c0: a7e4 c93a 1d84 9f39 822c 063b 2ec8 033b
000000d0: 6337 0233 345b 2a33 676f 4534 eac1 be34
000000e0: 71b2 be33 85fc a734 b7e2 8034 b7ea 8636
000000f0: e2f3 7634 db1b 5934 9ba7 a237 e357 7336
00000100: 472a a434 cf62 9637 b60c 0b38 240c 8a36
00000110: 04cd 0937 647d 9c37 5b53 a137 0cec 2937
00000120: 220e 8d37 5b76 f336 cfce be36 ab52 9935
00000130: 2265 1837 3d29 1137 fa79 213a f955 303a
00000140: c3bf 3e3a 5535 233a e665 3b3a d05a c93a
00000150: 04cc e83a 6305 b73b 8a45 d63a 286d c23a
00000160: d25d 513b 203d 303b 653d 1e3a 0547 9c3b
00000170: e0da 0a3c 90ac 313b 461d c03b 50b0 ca3b
00000180: 7173 c93b 5ffe b43b ad45 ce3b 81b2 073b
00000190: 1d93 de3a dec7 ae39 4632 183b ebbd 133b
000001a0: e6c7 4230 2bf0 4631 9285 d834 f524 9031
000001b0: 0000 0000 ed2e f633 0a33 cb34 5c0b 3a38
000001c0: de7b 8b33 635d 3632 5fa6 5e37 2e6c 4237
000001d0: 0000 0000 26ee 3038 c425 8338 4263 e636
000001e0: 7612 2a38 7927 ae38 f721 7138 30cc 4838
000001f0: ba0b 5f38 6126 2837 6529 f236 8367 af35
00000200: 11fa 6c37 6598 5337 0000 0000 0000 0000
00000210: 0000 0000 0000 0000 0000 0000 0000 0000
00000220: 0000 0000 0000 0000 0000 0000 0000 0000
00000230: 0000 0000 0000 0000 0000 0000 0000 0000
00000240: 0000 0000 0000 0000 0000 0000 0000 0000
00000250: 0000 0000 0000 0000 0000 0000 0000 0000
00000260: 0000 0000 0000 0000 0000 0000 0000 0000
00000270: 8888 0239 31a3 e738 a163 8539 5ab2 be38
00000280: dce2 d238 5053 0d3a c969 483a 79ae c73b
00000290: d0a2 1c3a 9301 173a 1dcf 6d3b ec84 6d3b
000002a0: 3b22 2039 a2fe bb3b cff0 2a3c 0198 113b
000002b0: 79ab f63b 9c76 f23b ab56 e83b ebc2 d63b
000002c0: 36ca 0b3c 36fc 1f3b 70c0 023b 519c d139
000002d0: 97a7 343b 5c0e 2f3b ca74 f138 2386 1239
000002e0: ca68 7239 9fd0 b838 445f e738 21ca f639
000002f0: 4b78 213a 8eec 323b 287a 1b3a 9cbf 023a
00000300: 2ea9 e33a eb27 db3a b91c 7239 8f42 293b
00000310: f1af 9c3b a1e7 a93a 665c 513b f20a 5b3b
00000320: b33d 5c3b 63fb 443b 7ad6 6a3b ae18 943a
00000330: 9fd8 773a 1409 4839 6603 a63a 4138 a13a
00000340: 7839 233a 6323 103a ab67 253a aa54 073a
00000350: 4295 133a 42cd c63a 5a41 dd3a 0762 603b
00000360: c5a1 b93a e162 c93a ce02 d43a 01d1 f33a
00000370: 7da7 353a 858d 383b 347a 8a3b 8bf5 e03a
00000380: 4c62 6e3b 6667 603b 7f45 693b 5302 523b
00000390: 7e91 6a3b 21b8 a13a c23e 843a 64ec 4d39
000003a0: c350 b43a 54e2 af3a 11c3 1b39 f6c3 be38
000003b0: c660 c339 3cf5 d238 9ba1 7c38 11aa ac39
000003c0: e744 153a f814 dd3b 3209 a639 a241 a239
000003d0: d12d 953b 5057 643b 0317 e737 475a ca3b
000003e0: 71df 463c bae0 073b 2ba0 033c 8e5f 043c
000003f0: 1a62 093c 3a2d 013c cde0 0d3c 7db4 2a3b
