models/reinforce/reinforce_wide/checkpoint_ep700.pth (torch, 904778 bytes, 18 tensors)

network.0.weight f4 [256, 26]
0.054555755 -0.048415408 0.032156024 -0.050098278 0.09934611 0.030747974 0.10640917 0.07651663
0.0037740346 -0.15148062 0.17186867 -0.1201761 -0.063604854 -0.019480675 -0.08977896 0.05301347
0.14739752 0.020791655 -0.12576842 -0.008958415 -0.20938869 -0.19870858 -0.14942633 -0.19156136
0.17426448 0.02627736 -0.13914679 0.122001275 -0.08484679 0.018619142 0.10257138 0.047277663
0.012632031 -0.079431534 0.021036122 0.056042448 0.14241514 0.09279864 0.1403566 -0.04017126
0.11426731 0.17128843 0.080628835 0.0147269275 -0.11953936 0.0024645766 0.15179859 -0.16901791
-0.08945228 -0.008060092 -0.03226819 -0.16925517 -0.13048047 -0.08282528 -0.1393591 0.14125596
-0.013556197 -0.08680774 0.10425291 -0.18029028 -0.03292202 -0.046175707 0.09087624 -0.14117055
0.026415505 -0.16221699 0.17104577 0.051978786 -0.070424944 0.035072215 -0.07237259 -0.09178631
0.01812775 -0.16842555 0.104244195 0.14983635 -0.044012416 0.08942959 -0.029553551 0.040371027
-0.08808669 -0.056889895 0.02186545 -0.20426762 -0.040567063 0.13223632 0.110210754 -0.11731066
0.06252111 0.040724747 -0.15632644 -0.1266176 0.14549832 -0.10096217 -0.012228034 0.019732859
0.19423558 -0.10667976 0.026404804 0.11803974 -0.07289821 0.07293622 -0.11127749 -0.09955355
0.040437985 0.00049228803 -0.20139404 -0.07787775 0.027208507 -0.18109323 -0.11020541 -0.09069971
-0.064334996 -0.030743133 -0.10212415 -0.18470052 -0.17082058 0.035778537 0.06412586 -0.09977689
-0.05549843 0.14744323 0.12876192 -0.14388986 -0.070054844 -0.1900472 -0.029199297 0.15409328
-0.02742036 -0.09639123 0.041521713 -0.009690493 -0.104080535 -0.0520605 0.0055749267 -0.013924271
0.18085878 -0.160792 -0.111994 -0.07887716 0.18254565 -0.18050314 -0.004421532 0.09787066
-0.13619645 -0.11369514 0.02244921 0.011522368 -0.17251417 -0.14194947 0.0358866 -0.11146528
0.10237999 -0.020697936 -0.1301957 0.17292131 -0.13254999 -0.07481501 -0.06726257 -0.105851695
-0.2012489 -0.18016325 -0.15734713 -0.06375018 -0.1693734 -0.13212098 0.14878835 0.113409854
-0.053103633 0.18378887 0.068640836 0.011725854 0.20441037 0.074570864 0.15040204 -0.078015275
0.120137505 -0.11400547 -0.058668323 -0.11724174 0.0024483881 0.1922955 -0.16121401 -0.122049145
0.09679033 -0.20480222 -0.22785477 -0.1680173 -0.07951977 -0.08252032 0.10280342 0.014880394
-0.21401496 0.17275466 0.09941218 0.0008552398 0.17822953 -0.22492176 -0.018799795 0.024895808
0.01918789 0.08546358 0.14578098 -0.09151611 0.14957567 0.06781184 0.0028270741 -0.051545266
-0.08831334 -0.17057246 -0.1991545 -0.060679547 -0.0015027926 0.016301816 0.11088228 0.09647305
0.10467422 0.021432756 -0.20853512 0.06277691 0.04744167 0.034042757 0.043535665 -0.04483263
0.13136546 -0.15734531 0.18327232 -0.158032 0.027997198 0.00078050257 -0.10414618 -0.03772302
-0.1650193 -0.1523602 -0.019100355 -0.08873139 0.008073925 0.028778607 -0.17566885 -0.1024865
0.1647038 -0.021595016 -0.14860383 -0.035539843 0.13839291 -0.10622808 -0.048916064 -0.10491572
0.10026963 -0.19491726 -0.035606597 0.01033627 -0.025629388 0.116963014 0.105965875 0.12501171
00000000: db75 5f3d 3c4f 46bd 09b6 033d da33 4dbd
00000010: f975 cb3d 2de3 fb3c 0ded d93d c0b4 9c3d
00000020: cb55 773b bc1d 1bbe 57fe 2f3e e31e f6bd
00000030: 4343 82bd f095 9fbc 08de b7bd a724 593d
00000040: 60ef 163e 4353 aa3c 70c9 00be 51c6 12bc
00000050: fd69 56be 437a 4bbe 3703 19be a928 44be
00000060: 6372 323e 9e43 d73c 7f7c 0ebe cedb f93d
00000070: 27c4 adbd 2c87 983c f210 d23d 39a6 413d
00000080: 94f6 4e3c 00ad a2bd f253 ac3c c48c 653d
00000090: 46d5 113e 370d be3d a4b9 0f3e 9e8a 24bd
000000a0: fb04 ea3d 3c66 2f3e bb20 a53d 3649 713c
000000b0: 0dd1 f4bd bc84 213b 1771 1b3e 0813 2dbe
000000c0: c232 b7bd 7a0e 04bc a62b 04bd 3a51 2dbe
000000d0: ac9c 05be 4da0 a9bd 27b4 0ebe 67a5 103e
000000e0: d01a 5ebc 42c8 b1bd 8d82 d53d 049e 38be
000000f0: 3dd9 06bd bd22 3dbd 521d ba3d 038f 10be
00000100: 5465 d83c 361c 26be 9f26 2f3e b5e7 543d
00000110: f43a 90bd e2a7 0f3d 1538 94bd 76fa bbbd
00000120: a680 943c bf77 2cbe fb7d d53d b36e 193e
00000130: 5d46 34bd dc26 b73d 4a1a f2bc 175c 253d
00000140: cb66 b4bd 6105 69bd 2c1f b33c 882b 51be
00000150: a629 26bd f568 073e 2db6 e13d 9240 f0bd
00000160: 110b 803d fece 263d 0a14 20be 0ba8 01be
00000170: 83fd 143e 41c5 cebd 1858 48bc cea6 a13c
00000180: b1e5 463e eb7a dabd e34e d83c d2be f13d
00000190: a84b 95bd 965f 953d 74e5 e3bd bbe2 cbbd
000001a0: 4da2 253d e40c 013a 3d3a 4ebe 5f7e 9fbd
000001b0: 60e4 de3c 8170 39be 60b3 e1bd c5c0 b9bd
000001c0: 11c2 83bd 06d9 fbbc 7726 d1bd 2222 3dbe
000001d0: 97eb 2ebe 848c 123d 6b54 833d d357 ccbd
000001e0: 5252 63bd 5cfb 163e 2ada 033e dd57 13be
000001f0: ea78 8fbd bc9b 42be 5d33 efbc a1ca 1d3e
00000200: aaa0 e0bc c468 c5bd ac12 2a3d e0c4 1ebc
00000210: 2d28 d5bd 643d 55bd e0ad b63b a022 64bc
00000220: 0b33 393e a8a6 24be 1c5d e5bd 598a a1bd
00000230: 3fed 3a3e d1d5 38be 80e2 90bb 6a70 c83d
00000240: 1577 0bbe ffd8 e8bd 68e7 b73c 50c8 3c3c
00000250: 8ea7 30be 345b 11be d4fd 123d e947 e4bd
00000260: 9aac d13d b88e a9bc 0652 05be 4912 313e
00000270: 2fbb 07be 9d38 99bd f5c0 89bd c6c8 d8bd
00000280: 3114 4ebe b77c 38be 9b1f 21be 748f 82bd
00000290: 3870 2dbe b94a 07be f95b 183e 6d43 e83d
000002a0: 3283 59bd 2633 3c3e 9193 8c3d cc1d 403c
000002b0: f450 513e 9cb8 983d fe02 1a3e 79c6 9fbd
000002c0: a70a f63d b37b e9bd 324e 70bd 701c f0bd
000002d0: 2375 203b 1de9 443e 4915 25be e7f4 f9bd
000002e0: 023a c63d acb7 51be c352 69be ba0c 2cbe
000002f0: 43db a2bd 6a00 a9bd 998a d23d e5cc 733c
00000300: bd26 5bbe 99e6 303e 9d98 cb3d 2c32 603a
00000310: cd81 363e e451 66be 0702 9abc 4bf2 cb3c
00000320: ec2f 9d3c 8807 af3d 9c47 153e cc6c bbbd
00000330: 5d2a 193e efe0 8a3d 6f46 393b 2121 53bd
00000340: a0dd b4bd 8caa 2ebe 28ef 4bbe 1e8b 78bd
00000350: 5af9 c4ba 638b 853c 4016 e33d aa93 c53d
00000360: 705f d63d bf93 af3c 3b8a 55be 2e91 803d
00000370: 3252 423d 6b70 0b3d 7452 323d 6ba2 37bd
00000380: ab84 063e 211f 21be bdab 3b3e 24d3 21be
00000390: 615a e53c a49a 4c3a 984a d5bd 7483 1abd
000003a0: d2fa 28be 5004 1cbe 5978 9cbc ceb8 b5bd
000003b0: 7f48 043c 1dc1 eb3c 89e2 33be 71e4 d1bd
000003c0: 1da8 283e 08e8 b0bc 9a2b 18be 3a92 11bd
000003d0: dfb6 0d3e 1c8e d9bd 365c 48bd 0ede d6bd
000003e0: 2a5a cd3d 6498 47be 39d8 11bd 7559 293c
000003f0: b9f4 d1bc 4e8a ef3d a304 d93d 1203 003e

network.0.bias f4 [256]
0.090306796 0.08678578 -0.015829468 0.09870592 0.07982319 -0.19467679 -0.15020514 -0.14880843
0.14380296 -0.037196044 0.014195949 -0.1516357 -0.13253488 0.070862256 0.1559319 0.104455374
0.05911286 -0.06041564 0.107964434 -0.036326453 0.10884254 -0.15316367 0.08512921 0.026100082
-0.014907398 0.015521232 -0.17954703 0.057957925 0.085734196 0.14275993 -0.10200685 -0.021226224
0.18690395 -0.18582557 -0.04279429 -0.13970497 -0.080278695 0.08247305 0.08590395 -0.19242465
0.122027114 -0.032373954 -0.10174503 0.029567635 0.18985347 -0.18869561 -0.1818824 0.04311789
0.007071741 0.18964684 0.022230698 -0.12353504 -0.04411818 -0.20587958 0.08030078 -0.11468351
0.19890232 0.09664337 0.13204224 0.10151219 0.005972545 -0.05779373 0.18139142 0.17804986
-0.14687167 0.090294376 -0.09316517 0.05975418 -0.047465928 0.013462408 -0.04901193 -0.185201
-0.13186061 -0.0524936 0.16901408 0.14444195 -0.120322675 0.016198453 0.17600682 0.1655178
0.1913695 0.14536628 0.08066064 0.007588986 0.1534678 0.034848753 0.1282941 -0.13859428
-0.12710279 0.14592133 0.06657575 0.008890735 -0.12090415 -0.14382708 0.22430101 -0.12681842
-0.110700406 0.12105326 -0.12137264 0.19029011 0.15608113 -0.12898976 0.17123549 -0.11281743
-0.100243464 0.017132308 -0.08932475 -0.14386976 -0.093591206 -0.14127214 -0.15665369 -0.16498156
0.1505772 0.10010849 0.13311094 -0.07968721 0.06731274 -0.1119018 -0.13246378 0.17796206
0.18938403 -0.08071929 0.059206054 -0.1127163 -0.17200784 -0.02241627 0.1835483 0.07864969
0.13076742 -0.18644793 -0.028158663 -0.1714006 -0.11362212 0.021849027 -0.060085215 -0.02580202
-0.16574176 -0.051365092 0.036727503 0.038559143 0.03256237 -0.01214372 0.18670478 0.10404323
0.18928903 0.046608098 0.11855108 -0.20120035 -0.08928965 0.03269817 -0.013516178 -0.0116378805
-0.040776927 -0.064192966 0.11740901 0.15127496 0.02116601 0.01572128 0.0019117056 0.062543064
0.014360664 -0.1542358 -0.15228873 0.12317033 -0.06839798 -0.010283065 0.050504334 -0.06603972
-0.025199233 0.20452152 -0.16496736 -0.019888762 0.09349788 -0.00588533 -0.0247712 0.06933725
-0.023563642 -0.12493795 -0.053778857 -0.1296407 0.003423696 -0.046011925 0.09944068 -0.12988156
-0.19384928 0.114404775 -0.07408457 0.06745473 -0.018191831 0.010250539 0.05520797 0.023091305
0.17254189 -0.057332616 0.07309646 0.06501369 0.096866 -0.12434346 -0.06925073 -0.069226936
0.18045965 0.13967922 0.089331076 0.15262087 -0.052490022 -0.050924864 0.17350659 0.10247734
0.08630528 0.15994348 0.0430201 0.111074924 0.15194897 -0.13865815 -0.20008731 0.046371557
0.04315711 0.10518724 -0.036480907 -0.03332211 -0.07662667 0.10952232 -0.024281753 -0.027984126
-0.11876013 -0.04007685 0.087747276 -0.09945338 -0.056907136 0.047021445 -0.07464737 -0.043302856
-0.0057740835 0.082611874 0.020880178 -0.025410742 0.006664291 0.08050527 -0.070804514 0.13515641
-0.119606815 0.11991354 0.17962064 -0.16556305 0.017502561 0.19884829 -0.1670631 0.18234439
-0.05642949 0.11396173 0.028253173 -0.14867392 0.16015442 -0.06953943 -0.064014226 -0.041006908
00000000: c5f2 b83d bebc b13d cdac 81bc 5426 ca3d
00000010: 577a a33d 5a59 47be 60cf 19be 3d61 18be
00000020: 1541 133e e15a 18bd 2096 683c 6446 1bbe
00000030: 39b7 07be 3b20 913d 9dac 1f3e b3ec d53d
00000040: 5420 723d 6476 77bd 751c dd3d 0ccb 14bd
00000050: d6e8 de3d f0d6 1cbe 3958 ae3d d7cf d53c
00000060: 293e 74bc c44c 7e3c 2ddb 37be 4a65 6d3d
00000070: 6995 af3d a92f 123e f8e8 d0bd 9ee2 adbc
00000080: c063 3f3e 0f49 3ebe 1149 2fbd d20e 0fbe
00000090: 2869 a4bd a1e7 a83d 69ee af3d f80a 45be
000000a0: 5ae9 f93d 8d9a 04bd b35f d0bd d337 f23c
000000b0: f368 423e 6c39 41be 613f 3abe 629c 303d
000000c0: 10ba e73b c832 423e 271d b63c f0ff fcbd
000000d0: 44b5 34bd 19d2 52be bc74 a43d 30df eabd
000000e0: 0dad 4b3e f6ec c53d 1536 073e a0e5 cf3d
000000f0: 57b5 c33b 1eb9 6cbd acbe 393e b452 363e
00000100: 8765 16be 42ec b83d 61cd bebd cdc0 743d
00000110: a26b 42bd 6f91 5c3c bcc0 48bd 55a5 3dbe
00000120: 7806 07be 8703 57bd 0712 2d3e 97e8 133e
00000130: bc6b f6bd 9eb2 843c 223b 343e 807d 293e
00000140: 5ef6 433e e6da 143e 6831 a53d 07ad f83b
00000150: aa26 1d3e 91bd 0e3d 875f 033e a9eb 0dbe
00000160: 3c27 02be 676c 153e de58 883d 72aa 113c
00000170: 989c f7bd 6847 13be 2aaf 653e b0dc 01be
00000180: e5b6 e2bd c6ea f73d 3892 f8bd 69db 423e
00000190: bbd3 1f3e e415 04be 5b58 2f3e d30c e7bd
000001a0: 724c cdbd 0e59 8c3c e5ef b6bd 9852 13be
000001b0: bfac bfbd a5a9 10be d369 20be edf0 28be
000001c0: e930 1a3e ae05 cd3d 3c4e 083e 0c33 a3bd
000001d0: 43db 893d c52c e5bd 96a4 07be b03b 363e
000001e0: e3ed 413e 2850 a5bd 0c82 723d ced7 e6bd
000001f0: d322 30be 53a2 b7bc 16f4 3b3e 1713 a13d
00000200: e5e7 053e 35ec 3ebe ffac e6bc a483 2fbe
00000210: b7b2 e8bd bbfc b23c ea1b 76bd c25e d3bc
00000220: 35b8 29be 3464 52bd 946f 163d 31f0 1d3d
00000230: 1f60 053d 74f6 46bc 8a2f 3f3e 9e14 d53d
00000240: fcd4 413e 22e8 3e3d e9ca f23d 7707 4ebe
00000250: 7edd b6bd 84ee 053d f672 5dbc cfac 3ebc
00000260: b505 27bd 9a77 83bd 2374 f03d d3e7 1a3e
00000270: 5764 ad3c eac9 803c 3292 fa3a 9416 803d
00000280: fe48 6b3c fdef 1dbe 94f1 1bbe ba40 fc3d
00000290: 3d14 8cbd 4d7a 28bc a2dd 4e3d d53f 87bd
000002a0: 9f6e cebc 176e 513e 34ed 28be c2ed a2bc
000002b0: d17b bf3d bad9 c0bb f9ec cabc b000 8e3d
000002c0: 8a08 c1bc 78df ffbd 3847 5cbd 88c0 04be
000002d0: 1660 603b 0077 3cbd 8ea7 cb3d acff 04be
000002e0: 6d80 46be 0d4d ea3d a7b9 97bd b525 8a3d
000002f0: 0907 95bc e0f1 273c c121 623d fa29 bd3c
00000300: d2ae 303e 9bd5 6abd 99b3 953d e625 853d
00000310: ae61 c63d c9a7 febd 54d3 8dbd dac6 8dbd
00000320: 6aca 383e 1208 0f3e 36f3 b63d a548 1c3e
00000330: c7ff 56bd 9796 50bd b6ab 313e a4df d13d
00000340: d3c0 b03d 39c8 233e d835 303d 407b e33d
00000350: 8398 1b3e 67fc 0dbe b0e3 4cbe 1af0 3d3d
00000360: 83c5 303d 686c d73d 016d 15bd c47c 08bd
00000370: 72ee 9cbd 3d4d e03d 87ea c6bc f73e e5bc
00000380: 8338 f3bd a027 24bd d8b4 b33d 37ae cbbd
00000390: 7517 69bd 8f99 403d b8e0 98bd 565e 31bd
000003a0: 8634 bdbb 6a30 a93d e80c ab3c 302a d0bc
000003b0: 2060 da3b f2df a43d f501 91bd 7166 0a3e
000003c0: 6bf4 f4bd 3b95 f53d 79ee 373e 5c89 29be
000003d0: 8861 8f3c e39e 4b3e 9712 2bbe 7db8 3a3e
000003e0: 9c22 67bd c464 e93d 3373 e73c fa3d 18be
000003f0: 85ff 233e b06a 8ebd e419 83bd dcf6 27bd

network.2.weight f4 [256, 256]
-0.044114113 0.049162447 -0.002328605 0.008072386 0.057585053 0.048123516 -0.015313752 -0.042730726
-0.034218553 -0.027429465 0.015546264 0.05889376 0.05756533 0.06419885 0.07712341 0.020308726
0.004230836 -0.014042281 0.021647405 0.03970402 0.015291529 -0.018245436 0.07099961 -0.008025965
-0.034121107 0.031524718 -0.017030098 -0.035433438 0.016478226 -0.060847245 -0.03513977 0.047804862
0.057307824 -0.043877523 0.029973798 0.01768677 -0.045035556 0.021119568 0.029515486 -0.054197904
-0.065266974 0.027427047 0.04189641 0.06908201 -0.02139994 -0.0066146483 0.012538522 -0.05176062
-0.0577182 0.029077217 0.07239311 -0.06002444 0.026861912 -0.05510382 0.08451029 -0.048614554
0.012006677 -0.037939206 -0.054844126 -0.014925519 0.042089902 -0.05505245 -0.035964783 -0.054779246
0.02688072 -0.009137456 0.00797332 0.009468047 -0.052899644 0.039285984 0.026191492 0.0051834215
0.039643146 0.0035095578 0.02322105 -0.021056585 0.018473048 0.035397053 0.04316821 0.020876722
-0.05024968 0.035114605 0.059638016 -0.00940516 -0.008165951 -0.029760245 0.011083196 0.021616392
-0.00086592406 0.0469807 0.022103585 -0.027909061 0.10700745 -0.039229743 -0.057927247 0.08014295
0.037800014 0.0019742623 -0.0022800565 0.0061837267 0.024773188 0.04268787 0.029890675 0.064491645
0.04273113 -0.025280675 0.0022977742 -0.035004836 0.021838572 0.006675979 0.06118823 0.012425736
0.054980658 -0.037375487 0.058474954 0.0023331693 0.008284498 -0.07197922 0.07678114 0.0007990238
0.06613095 0.05713376 -0.061674573 -0.021684462 0.061275534 0.054233324 0.040327314 -0.023049477
0.005088683 0.0010786878 0.0014468319 0.01075771 -0.00639396 0.036202513 -0.046944425 -0.03955841
-0.05704198 0.009830903 0.04373672 -0.044565074 0.00492281 0.0036122794 -0.05993183 0.047491726
0.050020117 0.010020428 -0.053125042 0.001925628 0.068554476 -0.023993986 0.008314714 0.06904319
0.05717167 0.020653624 -0.03439907 -0.026408684 -0.0061623184 0.02198778 -0.0076327436 -0.05112186
0.0067911767 0.028029835 -0.0012331828 0.054624878 -0.03774039 -0.03283484 -0.028551815 -0.0062187705
-0.03138884 -0.0054148766 0.061639987 0.032545526 -0.012604105 -0.06301237 0.058002446 0.07007958
0.0636696 -0.030233812 -0.032728378 0.045427024 -0.028459754 0.026011199 -0.050587643 -0.045140155
-0.038558345 0.061533775 0.10336233 -0.025888935 -0.016382039 0.036383234 0.023617115 -0.039968114
0.018384874 0.007993729 0.034255777 -0.030441834 0.06927263 0.003913693 -0.04760564 0.045738686
0.0606884 0.06559898 0.062486842 -0.04788478 0.07100284 0.027825687 0.03426176 0.016852865
0.051919155 0.046763763 0.044621624 0.061120886 0.06343324 -0.011115551 -0.05538999 0.0042583435
0.041333362 0.011412367 -0.019763393 -0.041056383 -0.08445856 0.03673218 0.088276 -0.038573634
0.06746485 0.02551568 0.033945493 0.06482118 0.1270093 -0.038867403 -0.05483515 -0.03722996
-0.07128916 0.036819007 0.0037299246 -0.022164933 0.04652009 -0.04625377 0.03685536 0.022804484
-0.13754159 0.055145696 -0.056610063 0.039053548 0.07602963 -0.016429327 0.0061468547 -0.016961945
-0.050367936 -0.038407788 0.033443578 0.004845689 -0.06274961 0.014660321 0.048188586 -0.010873303
00000000: 00b1 34bd 905e 493d 829b 18bb 0a42 043c
00000010: 4ede 6b3d 2a1d 453d 88e6 7abc 6a06 2fbd
00000020: c128 0cbd c2b3 e0bc c2b5 7e3c 953a 713d
00000030: a0c9 6b3d b07a 833d e1f2 9d3d 7c5e a63c
00000040: d3a2 8a3b 9811 66bc e655 b13c afa0 223d
00000050: 5289 7a3c 7477 95bc 3e68 913d 567f 03bc
00000060: 93c2 0bbd 1020 013d b482 8bbc a722 11bd
00000070: 58fd 863c f63a 79bd b8ee 0fbd 08cf 433d
00000080: 9cbb 6a3d ebb8 33bd 9c8b f53c d8e3 903c
00000090: 3477 38bd f202 ad3c 76ca f13c 9ffe 5dbd
000000a0: b1aa 85bd b0ae e03c 929b 2b3d de7a 8d3d
000000b0: ed4e afbc b1bf d8bb 5f6e 4d3c f202 54bd
000000c0: eb69 6cbd 5833 ee3c d742 943d 30dc 75bd
000000d0: 830d dc3c 8bb4 61bd bb13 ad3d 0e20 47bd
000000e0: a7b7 443c 2466 1bbd 3ca4 60bd 2a8a 74bc
000000f0: 7666 2c3d ae7e 61bd cf4f 13bd 3460 60bd
00000100: f534 dc3c 45b5 15bc 87a2 023c de1f 1b3c
00000110: 4cad 58bd 57ea 203d 8a8f d63c b1d9 a93b
00000120: da60 223d 9c00 663b 123a be3c dc7e acbc
00000130: ca54 973c 80fc 103d 26d1 303d a905 ab3c
00000140: 9cd2 4dbd 55d4 0f3d fe46 743d 1a18 1abc
00000150: 7bca 05bc c2cb f3bc 4b96 353c dc14 b13c
00000160: 2eff 62ba d66e 403d 9412 b53c 8ba1 e4bc
00000170: b926 db3d 5eaf 20bd 1f45 6dbd fd21 a43d
00000180: 30d4 1a3d a062 013b 006d 15bb dca0 ca3b
00000190: 24f1 ca3c 7ad9 2e3d 4add f43c 3214 843d
000001a0: d606 2f3d 6b19 cfbc 4196 163b 3b61 0fbd
000001b0: cee6 b23c 2cc2 da3b 82a0 7a3d 5095 4b3c
000001c0: 6633 613d 0a17 19bd 6f83 6f3d 16e8 183b
000001d0: b4bb 073c d769 93bd 6e3f 9d3d 9475 513a
000001e0: aa6f 873d 1705 6a3d 7a9e 7cbd 9da3 b1bc
000001f0: 0efc 7a3d c323 5e3d 412e 253d 42d2 bcbc
00000200: f8be a63b c262 8d3a 9fa3 bd3a 1b41 303c
00000210: 6d84 d1bb 1649 143d cc48 40bd 0008 22bd
00000220: daa4 69bd cc11 213c 4625 333d de89 36bd
00000230: 864f a13b febb 6c3b 147b 75bd af86 423d
00000240: e5e1 4c3d b92c 243c a599 59bd 5b65 fc3a
00000250: 4a66 8c3d 098f c4bc 703a 083c 8466 8d3d
00000260: d72c 6a3d ca31 a93c 0ae6 0cbd 0657 d8bc
00000270: 46ed c9bb b81f b43c 181c fabb 2865 51bd
00000280: 8588 de3b d39e e53c c0a2 a1ba 56be 5f3d
00000290: ab95 1abd d37d 06bd 7fe5 e9bc d4c6 cbbb
000002a0: 9691 00bd 476f b1bb 367a 7c3d 754e 053d
000002b0: 7381 4ebc a10c 81bd f993 6d3d e285 8f3d
000002c0: 3565 823d e6ac f7bc 310e 06bd b011 3a3d
000002d0: 6e24 e9bc 7015 d53c fd34 4fbd e2e4 38bd
000002e0: 5bef 1dbd d70a 7c3d a1af d33d 0815 d4bc
000002f0: a033 86bc 9606 153d ae78 c13c 9bb5 23bd
00000300: e09b 963c 21f8 023c c94f 0c3d 2761 f9bc
00000310: cfde 8d3d 703e 803b 22fe 42bd 7d58 3b3d
00000320: 6694 783d c258 863d 34f2 7f3d d522 44bd
00000330: f069 913d b2f2 e33c 0f56 0c3d 050f 8a3c
00000340: 2ea9 543d 5c8b 3f3d 2ac5 363d e559 7a3d
00000350: 49e9 813d 001e 36bc 9de0 62bd 9389 8b3b
00000360: 2c4d 293d f0fa 3a3c d7e6 a1bc bd2a 28bd
00000370: 9cf8 acbd 7b74 163d 0cca b43d 63ff 1dbd
00000380: 032b 8a3d 4206 d13c 6e0a 0b3d f8c0 843d
00000390: ba0e 023e 6d33 1fbd d29a 60bd 717e 18bd
000003a0: 0d00 92bd 87cf 163d c071 743b 3c93 b5bc
000003b0: da8b 3e3d 9874 3dbd a5f5 163d 78d0 ba3c
000003c0: b4d7 0cbe 74e0 613d f4df 67bd 9df6 1f3d
000003d0: 6cb5 9b3d cc96 86bc 8e6b c93b c7f3 8abc
000003e0: 9c4e 4ebd 7c51 1dbd 22fc 083d 96c8 9e3b
000003f0: de82 80bd d831 703c 6561 453d f025 32bc

network.2.bias f4 [256]
0.03657946 -0.039513946 0.017759075 -0.006813623 0.023050828 0.099518545 0.0474468 -0.06038163
-0.0031278299 0.030655729 -0.06606202 0.013786605 0.034332763 -0.036631666 -0.018398434 0.017710371
0.016381351 -0.026625236 -0.013450757 0.014967015 0.025959501 0.06948425 -0.058499772 0.017307414
0.053680424 -0.01050075 -0.051862705 0.058998387 -0.06905802 -0.001435441 -0.026401663 -0.030441336
0.06530127 0.040723365 0.012095827 -0.009637336 -0.006595255 0.052813165 -0.004107578 -0.05036432
0.017711561 -0.046903513 -0.06200693 -0.063658334 -0.019632973 -0.015122004 -0.005426438 0.016218007
-0.057284784 0.018301342 0.046192393 0.054400742 -0.03945081 0.013240562 0.07278364 0.0075366944
0.03240404 0.006266855 0.037873197 -0.07075448 0.05223487 0.021588065 0.0017525695 -0.007875948
-0.011861035 0.040151756 0.020859286 0.035056975 0.0072981296 -0.06540168 -0.051241964 0.0039818394
-0.03255215 0.033917997 -0.042268053 -0.012533772 0.037682697 -0.028638557 -0.06716915 0.0065430254
0.078131594 -0.025311839 0.07358842 -0.06953228 0.035260703 -0.03990094 0.03174282 0.047137726
-0.008420921 0.031059891 0.041205566 -0.058592923 -0.029813167 -0.059695847 0.036232732 0.000864292
-0.06675861 -0.03323287 -0.03150756 -0.047475666 -0.015371946 -0.022617398 0.002110201 0.052004546
-0.008624107 0.03004818 -0.03574237 -0.036751054 -0.05359228 -0.035864867 0.050203748 0.027416602
0.02401146 0.03454154 0.0035300571 0.03367514 0.079648584 -0.07105413 0.015637098 0.08002994
-0.013138916 0.02876989 0.0578524 0.028208403 -0.04496465 -0.002574204 0.024474163 0.026899653
0.005397667 0.0075867306 0.02298339 -0.05996142 -0.06498721 0.028944606 -0.031980943 -0.005971419
-0.01940307 -0.0151388 0.037854735 -0.030761555 -0.020518243 0.04290975 -0.05731861 -0.04214742
-0.03508319 -0.078292735 -0.015015002 0.06758677 0.048244096 -0.0073532113 -0.03986651 -0.010667343
0.06623075 0.042791344 -0.01573454 0.011611022 0.028180873 0.0038376395 -0.01999743 -0.034163907
-0.026296927 0.065622225 -0.023649205 -0.006069619 -0.022513077 0.07752105 0.08721911 0.093218744
-0.012268288 0.024344474 -0.017708931 -0.03085983 0.050569568 0.019237626 -0.05979375 0.032885697
0.01959407 -0.02984719 0.062581204 0.036125585 -0.05605757 -0.04009655 0.025688315 -0.04733445
-0.020648545 -0.04818129 -0.05907255 -0.03735734 -0.010569841 -0.037429485 -0.035328697 -0.038507696
-0.025838675 0.0059432546 0.06983241 -0.052540652 -0.06171684 -0.046517078 -0.014745365 0.023233762
-0.0011172489 -0.050321884 -0.04756522 0.08832903 0.049577788 -0.023403523 -0.07493372 0.04934425
-0.047832366 -0.010885264 -0.05246416 -0.041285463 0.026292892 -0.0523274 0.042768124 0.04787286
-0.06464211 -0.028308593 -0.04262013 -0.03783977 -0.023454344 0.002931981 -0.03323072 -0.06656307
-0.019580055 -0.0005803831 -0.045338705 0.023643168 -0.02261774 -0.07328095 0.040579878 -0.004410134
-0.009906072 0.066039726 0.077384494 -0.018907676 0.020494996 0.009433227 0.016973939 0.03999835
-0.020371508 -0.023410413 0.09112678 -0.006017752 -0.035046697 0.032874346 0.04647278 -0.048569873
-0.03891766 -0.016625542 -0.06378634 -0.06257944 -0.032336745 -0.0462574 -0.02469462 -0.03376726
00000000: 58d4 153d 60d9 21bd 7b7b 913c d044 dfbb
00000010: 17d5 bc3c 61d0 cb3d 9357 423d ba52 77bd
00000020: 47fc 4cbb b921 fb3c 864b 87bd 36e1 613c
00000030: 83a0 0c3d 160b 16bd 50b8 96bc 5715 913c
00000040: 2f32 863c 2b1d dabc 9060 5cbc 3638 753c
00000050: 05a9 d43c c24d 8e3d 759d 6fbd 47c8 8d3c
00000060: 01e0 5b3d 560b 2cbc fd6d 54bd 4ba8 713d
00000070: 4b6e 8dbd 6825 bcba 4d48 d8bc 1c60 f9bc
00000080: acbc 853d 8bcd 263d 932d 463c ebe5 1dbc
00000090: 021d d8bb 9e52 583d dd98 86bb d14a 4ebd
000000a0: d617 913c e61d 40bd fbfa 7dbd 4d5f 82bd
000000b0: 54d5 a0bc 48c2 77bc 43d0 b1bb a0db 843c
000000c0: 73a3 6abd b2ec 953c 3c34 3d3d 50d3 5e3d
000000d0: 2c97 21bd f1ee 583c 970f 953d 60f6 f63b
000000e0: 19ba 043d 315a cd3b ed20 1b3d bae7 90bd
000000f0: 3bf4 553d 74d9 b03c 79b6 e53a 1f0a 01bc
00000100: c954 42bc 2b76 243d 18e1 aa3c e797 0f3d
00000110: 2625 ef3b 51f1 85bd 18e3 51bd 177a 823b
00000120: 6755 05bd 99ed 0a3d 4421 2dbd 735a 4dbc
00000130: 2c59 1a3d 689b eabc fb8f 89bd e066 d63b
00000140: 7503 a03d c65a cfbc 87b5 963d f166 8ebd
00000150: 876d 103d 2b6f 23bd c204 023d 7d13 413d
00000160: e7f7 09bc 5071 fe3c 2bc7 283d 22ff 6fbd
00000170: be3a f4bc a283 74bd c668 143d a791 623a
00000180: bdb8 88bd 311f 08bd 120e 01bd d875 42bd
00000190: 9dda 7bbc 1f48 b9bc 4c4b 0a3b b802 553d
000001a0: 204c 0dbc 9a27 f63c 9766 12bd 4688 16bd
000001b0: 9483 5bbd 0ae7 12bd 72a2 4d3d c898 e03c
000001c0: aeb3 c43c 6e7b 0d3d 8858 673b f2ee 093d
000001d0: cc1e a33d d484 91bd 5f19 803c bde6 a33d
000001e0: 9c44 57bc d5ae eb3c a3f6 6c3d 4f15 e73c
000001f0: da2c 38bd fab3 28bb 0a7e c83c a95c dc3c
00000200: eade b03b 1c9a f83b aa47 bc3c 1b9a 75bd
00000210: 0418 85bd 3d1d ed3c 73fe 02bd e5ab c3bb
00000220: 30f3 9ebc bb08 78bc 910d 1b3d a8ff fbbc
00000230: e015 a8bc 22c2 2f3d ebc6 6abd c6a2 2cbd
00000240: 64b3 0fbd f157 a0bd 7c01 76bc ef6a 8a3d
00000250: 9a9b 453d 35f3 f0bb 114b 23bd 14c6 2ebc
00000260: fda3 873d fa45 2f3d b9e5 80bc 283c 3e3c
00000270: 93db e63c e880 7b3b a6d1 a3bc 74ef 0bbd
00000280: a76c d7bc f264 863d fabb c1bc a8e3 c6bb
00000290: 586d b8bc 5bc3 9e3d ef9f b23d 78e9 be3d
000002a0: ee00 49bc 106e c73c 5212 91bc c1cd fcbc
000002b0: 0922 4f3d 3a98 9d3c 4bea 74bd 27b3 063d
000002c0: be83 a03c 1882 f4bc 932a 803d 6cf8 133d
000002d0: 9f9c 65bd 483c 24bd 4d70 d23c c5e1 41bd
000002e0: 2327 a9bc bf59 45bd 0ff6 71bd 0304 19bd
000002f0: 202d 2dbc a94f 19bd d3b4 10bd 3fba 1dbd
00000300: a1ab d3bc a2bf c23b 4b04 8f3d de34 57bd
00000310: ccca 7cbd b188 3ebd 8b96 71bc bb54 be3c
00000320: a770 92ba 521e 4ebd c0d3 42bd dae5 b43d
00000330: 1412 4b3d bfb8 bfbc da76 99bd 321d 4a3d
00000340: dfeb 43bd 1b58 32bc a9e4 56bd f21a 29bd
00000350: 3164 d73c 4155 56bd a12d 2f3d 5516 443d
00000360: 1563 84bd 6ce7 e7bc 7292 2ebd e0fd 1abd
00000370: 5323 c0bc 7b26 403b ef1c 08bd 3852 88bd
00000380: 5a66 a0bc da24 18ba 14b5 39bd 51af c13c
00000390: d748 b9bc 5314 96bd 1637 263d e382 90bb
000003a0: 144d 22bc d63f 873d c37b 9e3d 45e4 9abc
000003b0: 1fe5 a73c d28d 1a3c ee0c 8b3c 4fd5 233d
000003c0: 26e2 a6bc 32c7 bfbc ada0 ba3d 9030 c5bb
000003d0: 208d 0fbd 40a7 063d 3e5a 3e3d 34f1 46bd
000003e0: 2068 1fbd 4a32 88bc 6aa2 82bd a629 80bd
000003f0: 8973 04bd 6678 3dbd 5f4c cabc 8a4f 0abd

network.4.weight f4 [8, 256]
-0.01905216 -0.057494782 -0.028587282 -0.04529751 -0.06888682 0.028610507 0.04787866 -0.05416776
-0.005795482 0.022694815 0.03326943 -0.0039613447 -0.040554453 -0.02507991 -0.05233036 0.002595661
0.015655993 0.032942068 -0.058944203 0.0023340597 0.01809493 0.043229174 -0.04982157 0.020961463
-0.033381198 0.036436107 0.0105213355 -0.0074179224 0.041272536 -0.022560097 0.033667117 0.046737473
-0.03650512 0.02213151 -0.015993055 0.0028876094 0.024613054 0.03204125 -0.034991685 -0.01954628
-0.061519206 -0.033868365 0.02784714 0.004819729 0.032448888 0.051592167 -0.058485817 -0.01587449
0.04471265 -0.007803707 0.026570167 -0.036138818 -0.012952398 -0.029383913 0.06673876 -0.04564037
-0.0015231717 0.030850118 0.032538112 -0.01846886 -0.03445383 0.03835001 -0.034391154 0.0060475343
-0.0017401658 -0.03463437 0.016037256 -0.0027305097 0.0072780387 -0.02158658 -0.04909485 0.021604568
-0.056799743 -0.04616291 0.042322066 -0.029037053 -0.048556276 0.041104488 0.015553297 0.046522684
0.031111818 -0.023747167 -0.0395269 -0.04877322 -0.060625598 0.033420045 -0.038791858 0.025017811
-0.012906195 -0.019390214 0.01310691 0.0037395977 0.03178363 -0.011665306 0.009722382 0.039785422
0.014955448 -0.011569334 0.027185835 0.03622557 0.03129235 0.06560553 0.016976412 0.030354263
-0.010192923 -0.015709037 0.013670023 -0.020648865 -0.06080003 0.038625125 0.038463812 -0.0066492213
-0.04617813 0.0424052 -0.053249933 0.013038185 0.010459275 0.043013148 0.062403154 -0.03803711
-0.019744596 -0.0401081 0.07893984 -0.051323034 0.049917735 -0.032855127 0.018640537 -0.050765503
0.012585178 0.01704722 0.010072321 0.04287249 0.00018575485 -0.033444244 0.05088147 0.04923456
-0.005185466 -0.012084243 -0.06643247 -0.058035813 -0.005185177 -0.021108717 -0.008382991 0.031593315
0.03812983 0.024751741 0.07071332 0.07954246 0.008137396 0.037057184 -0.023030302 0.019210754
0.074904725 0.063181944 -0.03174209 -0.011245903 -0.026728328 0.041128647 0.015302414 0.041457385
-0.031562738 -0.024329593 -0.02723575 0.026465168 0.0128828 0.04876612 -0.0039646775 0.022181544
0.021437094 -0.0246365 0.007373408 -0.023476785 -0.042283136 -0.034918997 0.008933429 -0.050599847
-0.02506495 0.0040449174 -0.041365746 0.0414353 -0.06443428 0.047973245 -0.016948745 -0.08334357
0.121562816 -0.013773255 -0.020505514 0.056104474 -0.019291833 0.10275803 -0.014651839 0.04438195
-0.0361475 0.017467137 -0.006887056 0.0009985487 0.029152852 0.008787823 0.035516467 0.043922685
-0.021075431 0.02002899 -0.0040028305 0.05169075 0.02900415 -0.06096261 -0.019147849 0.010820846
-0.049058724 0.055935796 0.0016296796 -0.00023865738 -0.0034335214 0.024361243 0.041374758 -0.007922699
-0.0114663085 -0.019853355 0.030104967 -0.060465485 0.052333385 0.019882618 -0.049048916 0.038420048
-0.048935633 0.019631198 0.048391424 0.0010246793 0.05238664 -0.0334069 -0.03326496 -0.0043279086
0.06614134 -0.039836574 0.050912052 -0.001475843 -0.036734775 -0.054246113 -0.012504899 0.026327075
-0.06272146 -0.034340188 0.04960245 -0.050864477 -0.036515724 0.036976874 -0.042009063 -0.00807106
0.02164246 -0.04084583 -0.063614495 0.034738477 -0.01383315 0.025063628 0.011666958 0.081966944
00000000: 4713 9cbc a67f 6bbd e02f eabc e289 39bd
00000010: 8814 8dbd 9560 ea3c 6a1c 443d 03df 5dbd
00000020: 07e8 bdbb 7aea b93c 8745 083d 2bce 81bb
00000030: 6d1c 26bd 6274 cdbc 5c58 56bd f71b 2a3b
00000040: ff40 803c 43ee 063d 7a6f 71bd 06f7 183b
00000050: d23b 943c 1311 313d b411 4cbd 60b7 ab3c
00000060: b9ba 08bd 073e 153d ae61 2c3c 0b12 f3bb
00000070: 640d 293d f4cf b8bc 88e6 093d cb6f 3f3d
00000080: 6586 15bd 244d b53c de03 83bc 0c3e 3d3b
00000090: 51a1 c93c b03d 033d 7153 0fbd 851f a0bc
000000a0: 90fb 7bbd 8eb9 0abd af1f e43c d1ee 9d3b
000000b0: 20e9 043d 4f52 533d d38e 6fbd 380b 82bc
000000c0: 9d24 373d 3db6 ffbb aea9 d93c 4c06 14bd
000000d0: 4b36 54bc 88b6 f0bc 55ae 883d 66f1 3abd
000000e0: 29a5 c7ba 63b9 fc3c af46 053d 024c 97bc
000000f0: 761f 0dbd e614 1d3d bddd 0cbd 652a c63b
00000100: 4616 e4ba c5dc 0dbd 9060 833c 5af2 32bb
00000110: 9d7c ee3b 57d6 b0bc ae17 49bd 10fc b03c
00000120: d9a6 68bd 5215 3dbd e759 2d3d 1ddf edbc
00000130: f2e2 46bd 2e5d 283d 41d3 7e3c 928e 3e3d
00000140: 36de fe3c 6b89 c2bc f5e6 21bd 6ec6 47bd
00000150: 8c52 78bd 75e3 083d 36e4 1ebd 27f2 cc3c
00000160: 8174 53bc 3ad8 9ebc 5dbe 563c 0a14 753b
00000170: 8d2f 023d d71f 3fbc a04a 1f3c 0af6 223d
00000180: b207 753c 4e8d 3dbc d4b4 de3c 4361 143d
00000190: 682c 003d 315c 863d 1e12 8b3c 81a9 f83c
000001a0: 3800 27bc 3db0 80bc 3bf8 5f3c cf27 a9bc
000001b0: 7409 79bd 6135 1e3d 3b8c 1d3d b6e1 d9bb
000001c0: 4725 3dbd 13b1 2d3d 9a1c 5abd 1d9e 553c
000001d0: 615d 2b3c 8e2e 303d 739a 7f3d cdcc 1bbd
000001e0: 6bbf a1bc 6448 24bd 36ab a13d 1a38 52bd
000001f0: 8a76 4c3d 1993 06bd 0ab4 983c 7def 4fbd
00000200: 1032 4e3c 9da6 8b3c 6006 253c 109b 2f3d
00000210: 30c7 4239 d5fc 08bd 1769 503d 2eaa 493d
00000220: d7ea a9bb fdfc 45bc bf0d 88bd f6b6 6dbd
00000230: 6be8 a9bb 30ec acbc d058 09bc fe67 013d
00000240: 062e 1c3d 2ac4 ca3c 25d2 903d 28e7 a23d
00000250: b652 053c 46c9 173d 0baa bcbc df5f 9d3c
00000260: a667 993d 8965 813d fe03 02bd bc40 38bc
00000270: 5ef5 dabc 8376 283d fab6 7a3c 38cf 293d
00000280: ee47 01bd db4e c7bc 821d dfbc 7bcd d83c
00000290: 6112 533c fcbe 473d 20ea 81bb 12b6 b53c
000002a0: d89c af3c 7cd2 c9bc a19c f13b 6352 c0bc
000002b0: 1531 2dbd 3907 0fbd 845d 123c c941 4fbd
000002c0: 0355 cdbc 3a8b 843b 216f 29bd 10b8 293d
000002d0: 1ff6 83bd 987f 443d 18d8 8abc 09b0 aabd
000002e0: edf5 f83d 38a9 61bc 2efb a7bc cecd 653d
000002f0: e809 9ebc cd72 d23d 440e 70bc d9c9 353d
00000300: 670f 14bd 3e17 8f3c d0ac e1bb bce1 823a
00000310: f6d1 ee3c cdfa 0f3c b779 113d 46e8 333d
00000320: 62a6 acbc d613 a43c 2d2a 83bb aeb9 533d
00000330: 1c9a ed3c eeb3 79bd f3db 9cbc eb49 313c
00000340: cdf1 48bd ef1c 653d f99a d53a 1a40 7ab9
00000350: ee04 61bb 3b91 c73c 9478 293d 35ce 01bc
00000360: 2fdd 3bbc 81a3 a2bc b19e f63c a8aa 77bd
00000370: 885b 563d dfe0 a23c 84e7 48bd 575e 1d3d
00000380: bb70 48bd 9bd1 a03c 1636 463d 884e 863a
00000390: 6093 563d acd5 08bd d740 08bd 21d1 8dbb
000003a0: 1c75 873d ad2b 23bd 2889 503d 1371 c1ba
000003b0: 3477 16bd 2c31 5ebd 59e1 4cbc e1ab d73c
000003c0: 1c74 80bd 4ca8 0cbd f02b 4b3d 4557 50bd
000003d0: 8391 15bd 1075 173d b211 2cbd 7b3c 04bc
000003e0: 874b b13c f54d 27bd 5148 82bd ef49 0e3d
000003f0: 70a4 62bc 3d52 cd3c c526 3f3c 49de a73d

network.4.bias f4 [8]
-0.027993897 0.051723454 -0.024494192 -0.0227267 0.039424896 -0.006517353 0.0046547577 -0.04005119
00000000: 7553 e5bc f9db 533d 0ba8 c8bc 582d babc
00000010: 007c 213d 858f d5bb f086 983b b70c 24bd

exp_avg f4 [256, 26]
0.00077857816 0.0008607127 0.00018365393 0.00061579235 0.00062343525 0.005307265 0.006087931 0.0027665491
0.0045026853 0.0037471084 -0.00027550376 0.00064141443 0.0018767272 0.0017656217 0.00040963717 0.003564735
0.0029973108 -0.0004031165 0.0024464708 0.00022389986 0.0029965218 0.00070034404 0.00028364008 0.00012546704
0.0013537848 0.0013342915 -0.0005695671 -0.007411403 -0.0046771914 -0.0010392559 -0.0048420103 -0.009432593
-0.008544301 -0.050627768 -0.0016446245 0.0025599052 -0.0034521502 -0.009340013 -0.0024600944 -0.03677956
-0.04339767 -0.044229656 -0.027787551 -0.056188293 -0.052906457 -0.056581236 -0.024032703 -0.018971087
-0.013151496 -0.0022144192 -0.025383502 -0.023679774 8.352813e-31 -6.278469e-24 5.06494e-10 -6.1181725e-24
3.834267e-28 -5.267255e-24 -2.5223446e-23 2.3906688e-09 -1.372688e-23 -3.868832e-24 8.092915e-09 3.108006e-09
2.6526811e-30 6.204448e-09 8.8635e-09 3.4564032e-09 6.7459696e-09 8.672917e-09 3.3265992e-09 2.659043e-09
4.882498e-09 4.431747e-09 4.431747e-09 1.9112365e-09 4.431747e-09 4.431747e-09 0.00794166 0.00703471
0.007956701 0.008682247 0.0056232144 0.021303827 0.024823688 0.044890154 0.012651563 0.012565545
0.0025947439 0.022966167 0.0075372555 0.03212673 0.039138693 0.031869568 0.04183027 0.03663324
0.023893468 0.03739086 0.015800979 0.016176216 0.012905467 0.0044220146 0.02161073 0.020005474
3.8100486e-34 6.125896e-21 -7.804459e-06 -4.6448643e-35 0.0 -1.1039424e-06 -6.481694e-07 -7.527266e-05
-6.9300825e-07 -8.577292e-07 -2.4789437e-05 -9.337965e-06 0.0 -5.5706318e-05 -7.9587415e-05 -3.698367e-05
-8.5437256e-05 -8.505308e-05 -9.70258e-05 -4.292404e-05 -6.551918e-05 -2.2795757e-05 -1.8236608e-05 -7.598586e-06
-3.0392028e-05 -2.735491e-05 0.0 0.0 0.0 0.0 0.0 0.0
0.0 0.0 0.0 0.0 0.0 0.0 0.0 0.0
0.0 0.0 0.0 0.0 0.0 0.0 0.0 0.0
0.0 0.0 0.0 0.0 -0.0017645194 -0.0019308127 0.0030491685 -0.0027730553
-0.0022158055 -0.0069365343 -0.016687263 0.009954664 -0.024933536 -0.019838769 0.03689354 0.027028468
-0.0066320114 0.026449779 0.050004423 -0.0022278447 0.04942855 0.041959405 0.005639456 0.031189198
0.021166507 0.017561477 0.017203625 0.0113620665 0.019494742 0.01942282 -0.00096577755 0.00037186328
0.0012383828 -0.0003872745 -0.0012321773 -0.0063254377 -0.0054173414 0.027366769 -0.0077566584 -0.008293771
-0.008893531 0.0065326 -0.0005016456 0.019207412 0.02894178 0.015858285 0.01916222 0.032521814
0.031383973 0.0306549 0.009172501 0.009207008 0.0052428953 -0.0007886896 0.012482669 0.011435288
0.0046493313 0.0039801085 0.004187244 0.0044949926 0.0006235348 0.015548622 0.019728782 0.023459429
0.0107145 0.012263581 0.0010829706 0.019359302 0.0043246797 0.01821941 0.02236319 0.009530871
0.038046844 0.018527487 0.008405013 0.016605025 0.018264385 0.01015771 0.008020586 0.0035023806
0.012153104 0.011136257 0.000103950966 0.0003266809 0.00047345553 0.00028953896 -0.00087638147 -0.007953362
-0.0040037646 0.027787507 -0.0069214683 -0.009624692 -0.0145404795 0.0013745464 -0.0022424976 0.015227728
0.027916882 0.01682064 0.01121868 0.025214555 0.018701093 0.028231395 -0.0013269223 0.0061806627
00000000: 7f19 4c3a 74a1 613a 3a93 4039 206d 213a
00000010: 086e 233a 91e8 ad3b 447d c73b fe4e 353b
00000020: 438b 933b 0c92 753b 7d71 90b9 9824 283a
00000030: 84fc f53a 6f6c e73a 92c4 d639 549e 693b
00000040: 886e 443b 6159 d3b9 f854 203b a9c6 6a39
00000050: 4b61 443b 4b97 373a 87b5 9439 cd8f 0339
00000060: 7b71 b13a 65e3 ae3a 004f 15ba 5bdb f2bb
00000070: 2043 99bb a437 88ba baa9 9ebb 2a8b 1abc
00000080: 65fd 0bbc 105f 4fbd 7190 d7ba 15c4 273b
00000090: 783d 62bb db06 19bc 8939 21bb 2aa6 16bd
000000a0: c1c1 31bd 282a 35bd b8a2 e3bc b225 66bd
000000b0: 71b4 58bd bac1 67bd 3be0 c4bc 4169 9bbc
000000c0: 5f79 57bc ca1f 11bb 10f1 cfbc 16fc c1bc
000000d0: 3a88 870d f2e2 f298 5939 0b30 72af ec98
000000e0: 8a06 f311 5ec4 cb98 3af2 f399 1749 2431
000000f0: 1cc2 8499 0eab 9598 0409 0b32 9f94 5531
00000100: 0836 570e e72e d531 1646 1832 b085 6d31
00000110: 2dca e731 e4ff 1432 279a 6431 61ba 3631
00000120: e8c2 a731 0f46 9831 0f46 9831 d456 0331
00000130: 0f46 9831 0f46 9831 bc1d 023c 6d83 e63b
00000140: d35c 023c fc3f 0e3c f142 b83b 5d85 ae3c
00000150: 0c5b cb3c bdde 373d 8048 4f3c b7df 4d3c
00000160: 940c 2a3b 8b23 bc3c 15fb f63b 5197 033d
00000170: e54f 203d aa89 023d 3856 2b3d bc0c 163d
00000180: 3cbc c33c 2927 193d 0e71 813c fc83 843c
00000190: 7471 533c 8ce6 903b fc08 b13c 85e2 a33c
000001a0: 9e38 fd07 086e e71d e5ef 02b7 9ef6 7686
000001b0: 0000 0000 2c2b 94b5 ddfd 2db5 b4db 9db8
000001c0: 2a07 3ab5 b43e 66b5 e9f2 cfb7 41aa 1cb7
000001d0: 0000 0000 34a6 69b8 2be8 a6b8 ea1e 1bb8
000001e0: c72c b3b8 865e b2b8 547a cbb8 5609 34b8
000001f0: 5867 89b8 8439 bfb7 d1fa 98b7 5bf7 feb6
00000200: 62f2 feb7 3978 e5b7 0000 0000 0000 0000
00000210: 0000 0000 0000 0000 0000 0000 0000 0000
00000220: 0000 0000 0000 0000 0000 0000 0000 0000
00000230: 0000 0000 0000 0000 0000 0000 0000 0000
00000240: 0000 0000 0000 0000 0000 0000 0000 0000
00000250: 0000 0000 0000 0000 0000 0000 0000 0000
00000260: 0000 0000 0000 0000 0000 0000 0000 0000
00000270: 7247 e7ba 5313 fdba 8fd4 473b 26bc 35bb
00000280: 0c37 11bb de4b e3bb bab3 88bc e318 233c
00000290: 6a41 ccbc ea84 a2bc ae1d 173d ce6a dd3c
000002a0: 5851 d9bb 35ad d83c 70d1 4c3d 0801 12bb
000002b0: 9775 4a3d a0dd 2b3d 30cb b83b 7d80 ff3c
000002c0: 6265 ad3c 16dd 8f3c 9eee 8c3c f627 3a3c
000002d0: 70b3 9f3c 9b1c 9f3c 3c2c 7dba a5f6 c239
000002e0: 3b51 a23a 1a0b cbb9 0281 a1ba 9e45 cfbb
000002f0: f483 b1bb 4630 e03c 912b febb 99e2 07bc
00000300: 2cb6 11bc 6c0f d63b de80 03ba dd58 9d3c
00000310: 5017 ed3c 3ce9 813c 17fa 9c3c 9835 053d
00000320: 7b8c 003d fc1f fb3c 4248 163c fed8 163c
00000330: 98cc ab3b 10c0 4eba 1c84 4c3c 135b 3b3c
00000340: 6b59 983b 926b 823b 2635 893b bb4a 933b
00000350: b674 233a a6bf 7e3c 419e a13c fd2d c03c
00000360: df8b 2f3c 30ed 483c 77f2 8d3a 6697 9e3c
00000370: 0bb6 8d3b df40 953c 0233 b73c 5f27 1c3c
00000380: 02d7 1b3d f5c6 973c 2eb5 093c 4307 883c
00000390: 319f 953c 866c 263c c768 033c 3288 653b
000003a0: d01d 473c d974 363c 4000 da38 5e46 ab39
000003b0: 203a f839 43cd 9739 f7bc 65ba d14e 02bc
000003c0: 0332 83bb a0a2 e33c 7ccd e2bb e2b0 1dbc
000003d0: 313b 6ebc 202a b43a def6 12bb b87d 793c
000003e0: f2b1 e43c 70cb 893c 8ece 373c c18e ce3c
000003f0: 0933 993c 8745 e73c 20ec adba 2887 ca3b

exp_avg_sq f4 [256, 26]
0.00013956106 0.00018020968 0.00015838743 0.00015936776 0.00018604103 0.0004831887 0.0005090855 0.0009447339
0.0004643108 0.00040130323 0.00046790918 0.00027826268 0.00019335799 0.0006747039 0.0009629822 0.00051181065
0.0010573714 0.0009012834 0.0006752953 0.0008542535 0.0005957256 0.00028732122 0.0002280882 4.2636828e-05
0.00032891025 0.000318495 0.002102043 0.0021463993 0.0019196445 0.0020957252 0.0018326453 0.0060199937
0.006532397 0.01478222 0.005933091 0.0059047067 0.0086038625 0.008330307 0.0028410605 0.012763767
0.020042032 0.008168811 0.015730327 0.0158151 0.017698944 0.015312493 0.015111665 0.0057970854
0.004830941 0.0009640153 0.006306744 0.0061981175 2.0319055e-08 2.6582494e-08 1.3822454e-07 2.3812741e-07
5.9513003e-08 2.0970148e-07 1.6089112e-07 3.049954e-06 1.541385e-07 1.3551126e-07 1.7004393e-05 3.3738136e-06
2.0493135e-07 1.4156075e-05 2.633166e-05 3.3709198e-06 8.396713e-06 1.6038035e-05 1.3836358e-05 7.611687e-06
1.3270304e-05 5.9552326e-06 4.9035552e-06 1.0320477e-06 7.180143e-06 6.8911813e-06 0.0006003865 0.0006810001
0.0007495195 0.00065169216 0.00065165426 0.0026269231 0.0031006825 0.0112769315 0.0026954683 0.002489971
0.0066870255 0.0061975312 0.0008121984 0.009659218 0.016536938 0.0049752346 0.012286655 0.011964482
0.012746712 0.011292554 0.0118194865 0.0042709983 0.0035310357 0.00071367173 0.0047487738 0.004625336
4.749021e-10 1.9411386e-09 2.8186525e-07 2.8115457e-09 0.0 7.742026e-08 2.7111352e-07 3.390061e-05
4.3609866e-08 7.328967e-09 9.183623e-06 7.946695e-06 0.0 3.0815794e-05 4.6787925e-05 5.3867543e-06
2.8716066e-05 5.9268586e-05 4.3835422e-05 3.3820263e-05 3.6617905e-05 7.0695614e-06 5.063653e-06 9.152409e-07
1.0037354e-05 8.931677e-06 0.0 0.0 0.0 0.0 0.0 0.0
0.0 0.0 0.0 0.0 0.0 0.0 0.0 0.0
0.0 0.0 0.0 0.0 0.0 0.0 0.0 0.0
0.0 0.0 0.0 0.0 0.00026292526 0.00033815703 0.0004950469 0.000261475
0.00024727327 0.004579969 0.0054833754 0.022997085 0.004438804 0.0042998353 0.015113635 0.015038809
0.001206426 0.021761855 0.035339743 0.0116332425 0.027219625 0.026606008 0.028090632 0.025192812
0.026557796 0.009935643 0.008275308 0.0016797357 0.010804852 0.010601305 0.00021484485 0.00024583208
0.00039770044 0.00022600181 0.00019741665 0.0017310566 0.0019300552 0.010869449 0.001859306 0.0017874566
0.007164356 0.0076599084 0.00065069925 0.010677808 0.019125687 0.004438484 0.013733066 0.013182312
0.014006329 0.012989429 0.013556974 0.00475635 0.0040324954 0.00083533284 0.0051911385 0.0050704908
0.000808089 0.00074468786 0.00077885477 0.0007771639 0.0007571368 0.002667469 0.0029054221 0.0059875934
0.00249922 0.0025763095 0.002411052 0.0032678086 0.0012148615 0.0046821474 0.0075427853 0.0028877154
0.0064747147 0.004923958 0.0060556033 0.0049998295 0.006003011 0.002027553 0.0016112296 0.00030444187
0.0022953658 0.0022315632 0.000117701115 8.1681595e-05 0.00034593474 8.8392546e-05 5.696277e-05 0.0008479954
0.0011919216 0.014342039 0.00079801766 0.00078193424 0.010713048 0.008975228 0.000102865415 0.014207618
0.026044969 0.004687263 0.01829507 0.017967625 0.019250154 0.018426007 0.019162556 0.0062726075
00000000: 2357 1239 abf6 3c39 cd14 2639 f51b 2739
00000010: 0214 4339 7d54 fd39 2674 053a 05a8 773a
00000020: be6e f339 0266 d239 b551 f539 c9e3 9139
00000030: 24c0 4a39 9dde 303a a470 7c3a 082b 063a
00000040: 7f97 8a3a 1b44 6c3a 4d06 313a fbef 5f3a
00000050: 782a 1c3a 9aa3 9639 f62a 6f39 f2d4 3238
00000060: 9671 ac39 adfb a639 6ec2 093b 9baa 0c3b
00000070: 959c fb3a 6f58 093b 5f35 f03a 5e43 c53b
00000080: b80d d63b 2031 723c 606a c23b 457c c13b
00000090: 37f7 0c3c d77b 083c 1631 3a3b 1e1f 513c
000000a0: 302f a43c 7ad6 053c e3dc 803c ab8e 813c
000000b0: 60fd 903c 40e1 7a3c eb96 773c 7af5 bd3b
000000c0: df4c 9e3b f9b5 7c3a cea8 ce3b 9419 cb3b
000000d0: 138a ae32 8657 e432 df6a 1434 f7af 7f34
000000e0: 3d9b 7f33 4e2a 6134 6ac1 2c34 d0ad 4c36
000000f0: 4581 2534 0d81 1134 a8a4 8e37 ad69 6236
00000100: 1a0b 5c34 e17f 6d37 cfe2 dc37 f637 6236
00000110: 9cdf 0c37 6b89 8637 b522 6837 e567 ff36
00000120: 86a3 5e37 0fd3 c736 3889 a436 e484 8a35
00000130: f5ec f036 cc3a e736 4263 1d3a 2585 323a
00000140: 677b 443a 52d6 2a3a c7d3 2a3a 7528 2c3b
00000150: d234 4b3b e1c2 383c 74a6 303b c82e 233b
00000160: d61e db3b a914 cb3b b6e9 543a b241 1e3c
00000170: 7978 873c 4b07 a33b f74d 493c ad06 443c
00000180: 96d7 503c 6804 393c 85a6 413c bbf3 8b3b
00000190: f368 673b b315 3b3a 9a9b 9b3b 2190 973b
000001a0: 448a 0230 df64 0531 4453 9734 3c35 4131
000001b0: 0000 0000 3d42 a633 8f8d 9134 8130 0e38
000001c0: 8e4d 3b33 47d2 fb31 5c13 1a37 cc52 0537
000001d0: 0000 0000 3540 0138 273e 4438 debf b436
000001e0: 48e3 f037 2997 7838 eddb 3738 3bda 0d38
000001f0: 2d96 1938 1237 ed36 73e8 a936 e0ae 7535
00000200: 1b66 2837 43d9 1537 0000 0000 0000 0000
00000210: 0000 0000 0000 0000 0000 0000 0000 0000
00000220: 0000 0000 0000 0000 0000 0000 0000 0000
00000230: 0000 0000 0000 0000 0000 0000 0000 0000
00000240: 0000 0000 0000 0000 0000 0000 0000 0000
00000250: 0000 0000 0000 0000 0000 0000 0000 0000
00000260: 0000 0000 0000 0000 0000 0000 0000 0000
00000270: 3bd9 8939 ab4a b139 09c6 013a 9516 8939
00000280: 75a4 8139 9113 963b e3ad b33b 6264 bc3c
00000290: 6373 913b a2e5 8c3b 2e9f 773c 5665 763c
000002a0: f020 9e3a eb45 b23c 68c0 103d 5b99 3e3c
000002b0: b1fb de3c d8f4 d93c 531e e63c 2861 ce3c
000002c0: bc8f d93c 1bc9 223c 2895 073c 942a dc3a
000002d0: d506 313c 19b1 2d3c fa47 6139 06e3 8039
000002e0: 7382 d039 e6fa 6c39 a101 4f39 9fe4 e23a
000002f0: e8f9 fc3a c615 323c f5b3 f33a 1749 ea3a
00000300: f9c2 ea3b f8ff fa3b b093 2a3a f9f1 2e3c
00000310: 79ad 9c3c b470 913b a700 613c a0fa 573c
00000320: cd7a 653c 9dd1 543c 121e 5e3c 28db 9b3b
00000330: 0623 843b 3dfa 5a3a 6d1a aa3b 5c26 a63b
00000340: efd5 533a 2837 433a 0f2c 4c3a 96ba 4b3a
00000350: 977a 463a b4d0 2e3b e568 3e3b 9333 c43b
00000360: f4c9 233b 4dd7 283b bd02 1e3b bb28 563b
00000370: fd3b 9f3a b36c 993b 7829 f73b d33f 3d3b
00000380: d829 d43b 2759 a13b 156e c63b 9cd5 a33b
00000390: e8b4 c43b b2e0 043b e52f d33a 7f9d 9f39
000003a0: d96d 163b 6b3f 123b 4ed6 f638 794c ab38
000003b0: 935e b539 635f b938 4feb 6e38 024c 5e3a
000003c0: 413a 9c3a dffa 6a3c 0f32 513a b8fa 4c3a
000003d0: c885 2f3c d60c 133c 73b9 d738 12c7 683c
000003e0: 425c d53c 9d97 993b 8bdf 953c d730 933c
000003f0: 80b2 9d3c 23f2 963c cbfa 9c3c 728a cd3b
