models/reinforce/reinforce_baseline/checkpoint_ep900.pth (torch, 259594 bytes, 18 tensors)

network.0.weight f4 [128, 26]
00000000: d2aa 973d 1738 0a3e f380 abbd 5015 96bc
00000010: 40ca bf3c 7b6d 133e 988d cdbc 86ba 83bd
00000020: e439 16be 61a9 2abe 70c6 d93c 282a 0d3d
00000030: b0a2 e23c d40d 29be fbff 0fbe 2078 623c
00000040: 382c 13bd 909c 06bc 662d 97bd 0228 863d
00000050: 8054 f9bb c012 c2bd 9a61 f63d f775 2b3e
00000060: e02c 0ebd b4ed e9bd 7245 03be afb4 1fbe
00000070: 5e84 b5bd b1c1 3abe b683 acbd 02f9 313e
00000080: 48ac ecbd 38ce 113e 2c60 a1bd 63d4 4dbe
00000090: 9285 9e3d cec9 f93d 3974 e9bd c686 663d
000000a0: 9e12 363e 0f7b d7bd 0588 ef3d 262f 05be
000000b0: 863b 363e 89b2 93bd 10c1 9cbd 895d 323e
000000c0: 5819 0e3e 38c5 e13d ce08 5b3e 195c 97bc
000000d0: 6abe 1bbe f842 19be 6834 c53c 0f68 c9bc
000000e0: 2162 143e 4206 283e 0428 f3bb 4633 fe3d
000000f0: 03fd 113e affc f9bd b151 4f3e b044 b8bd
00000100: 1b36 29be dfee 393e 788c 773e 54b9 053d
00000110: 5ced de3d 0eff 8bbd 5566 8cbc c5d2 323e
00000120: 4f23 423e 949d d5bc fea3 fc3d e2d1 ae3d
00000130: 9125 0e3e e65f 6abd 42ad fbbc b75a fd3d
00000140: 84c7 5ebe f22f 84be 0f41 cfbd 5153 8d3c
00000150: 5398 6ebe 9299 83bd 340c 87be 4e06 5dbd
00000160: 6d00 123e 4c8c 253e 045b 8fbe 1684 413d
00000170: 65a1 573d 6bad 95bd e312 c4bd efa8 2c3e
00000180: f442 383e 8600 113e c116 aa3c 655e f23d
00000190: 00a0 74bd f611 223d 1195 8f3d 7102 b43d
000001a0: cf24 a13d 43a8 373e 8171 b5bd 293f 123e
000001b0: 77e9 fabd 8050 35be 8a66 1cbe f509 75bd
000001c0: 06f9 9e3d 2784 5abd 6429 5ebe e1a2 acbc
000001d0: 75bf 2b3e 6406 943c ffe1 273e 7fff 49be
000001e0: f44c 22be c826 883d b41a 1c3e 8d52 80bd
000001f0: 55f8 37be f2f5 edbd 7da2 43be 0608 00bd
00000200: 793a aabc 8bd0 b0bd e49f 39be 9659 c03d
00000210: 2e8d 84bd 923c 38be fc81 c1bd 1308 213e
00000220: aec0 b33d 40c2 7e3c 1625 e83c 6494 473d
00000230: 5fa9 963d 9aa3 143e 5eca 413c 492e 0f3e
00000240: 19d3 1b3e e06a 14bd aecd 133d 100e 253d
00000250: f468 2cbe 2c0d f83d e182 eb3d 3cc4 ffbb
00000260: b668 1ebe e2fb febd c634 41bd bcdb 1dbe
00000270: f2a9 ec3d bdf6 9cbd 7126 de3d 162d f13d
00000280: c299 87bd ac6c 29be d515 e2bd f49b 50be
00000290: cab9 efbd 2757 34be 470a 283d 0c06 0e3e
000002a0: 735f 033e 48f0 04be 619e 2fbe 35ce 06be
000002b0: dcc6 4fbe 610d 2c3e a014 2cbd a07f 373d
000002c0: 0a4a 92bc 5254 ff3d 0a5a 78bd b82e 82bc
000002d0: 4cfa 843c b652 123e 7c02 3cbe 5f5a 1e3e
000002e0: f053 483d 9857 a8bd 3ede 3dbe d852 4d3d
000002f0: d635 b4bd 49ad ec3d b292 5cbe 9fa7 cc3d
00000300: ba0e ddbd 2312 1f3d e1ba 2ebe 4bd1 183e
00000310: f1d5 a2bc 406c 8bbe c39a 193d 60f4 c4bd
00000320: c2e9 653e c522 e9bd ecae 433e f757 fa3d
00000330: 4694 9c3d a9c1 7e3e 0b7d 373e d5ea 063e
00000340: 8a7c 25be 9659 38be 72c3 fdbd 52ce dcbc
00000350: 84fc 153e dd89 92bc 868e 1d3e ced5 54bd
00000360: 63bd 093e e7b2 babd 1d67 e33d 55ab 17be
00000370: 0d67 32bc cd4c 4cbe 5dde d43d d59e 45be
00000380: a554 42bd 3503 09be fe86 333e 49d4 c53d
00000390: a47a 41be ec6d ee3d 9685 eb3d 7a99 bf3b
000003a0: b48c 41bd efd9 b7bd dd7e 963d 0bad 633d
000003b0: b0d0 f83b e31c 0bbe 221f 97bd c883 a43d
000003c0: 9902 3cbe d533 343e b315 11be c44e 80bd
000003d0: d884 3c3c 07c1 f73c 2d8c 5cbc f199 8a3d
000003e0: 3ca9 02bd e4c0 32be 1715 a6bd b888 163e
000003f0: b2f6 d2bd 0d76 373d 5e33 063e 36c4 793d
0.07405628 0.13497959 -0.083742045 -0.01832071 0.02341187 0.14397232 -0.025091931 -0.06432061
-0.14670521 -0.16666175 0.02658388 0.03446403 0.027665466 -0.16509181 -0.14062493 0.013822585
-0.035930842 -0.008216038 -0.07381706 0.065506 -0.00760895 -0.094762325 0.12030335 0.16744219
-0.034710765 -0.114222914 -0.1281946 -0.15596269 -0.08863138 -0.1823795 -0.08423559 0.17380145
-0.115562975 0.14238822 -0.078796715 -0.2010055 0.0774032 0.12196694 -0.11399121 0.056280874
0.1778054 -0.105215184 0.116958655 -0.13006267 0.17796144 -0.07211787 -0.07654011 0.17418493
0.13876855 0.110239446 0.21390077 -0.018476533 -0.15209356 -0.14966953 0.02407284 -0.024585752
0.14490558 0.16408637 -0.0074205417 0.124121234 0.14256673 -0.12206399 0.20246007 -0.08997476
-0.16524546 0.18157528 0.24174678 0.032647446 0.108851165 -0.06835757 -0.01713864 0.17463215
0.18958782 -0.026076116 0.123359665 0.08536126 0.13881518 -0.057220362 -0.030722264 0.12370818
-0.21755797 -0.2581783 -0.10119831 0.017251642 -0.23300295 -0.064257756 -0.26376498 -0.05396109
0.14257975 0.161668 -0.27999127 0.047245108 0.052644152 -0.073084675 -0.09573915 0.16861318
0.1799429 0.14160356 0.020762803 0.118344106 -0.0597229 0.03956791 0.07010854 0.08789528
0.07868349 0.1793528 -0.0885954 0.14281906 -0.12251561 -0.1770649 -0.1527349 -0.05982395
0.07762341 -0.053348687 -0.21695477 -0.02107376 0.16772254 0.018069454 0.16394804 -0.1972637
-0.15849668 0.06648022 0.15244561 -0.06265745 -0.17965825 -0.11619176 -0.19104953 -0.03125765
-0.020779835 -0.086335264 -0.181274 0.09392087 -0.064722404 -0.17991856 -0.09448621 0.15725736
0.08776985 0.0155492425 0.028337996 0.0487255 0.07356524 0.14515534 0.011828033 0.139825
0.15217246 -0.036234736 0.036084823 0.040296614 -0.16836911 0.12111887 0.114995725 -0.0078053754
-0.15469632 -0.124503866 -0.04716947 -0.15415853 0.11555852 -0.07664249 0.10847176 0.117761776
-0.06621124 -0.16545361 -0.110393204 -0.20371991 -0.11705358 -0.17611371 0.041025426 0.13869494
0.1282938 -0.12982285 -0.1715026 -0.13164599 -0.20290703 0.16801979 -0.042011857 0.044799447
-0.01785757 0.12467255 -0.060632743 -0.015891418 0.016232632 0.14289364 -0.18360323 0.15464161
0.048908174 -0.08219832 -0.1854181 0.050127834 -0.08799331 0.11556489 -0.21540335 0.09992909
-0.107938245 0.038835656 -0.17063476 0.14923589 -0.019877406 -0.27231026 0.037501108 -0.09616923
0.22452453 -0.11383585 0.19109696 0.12223809 0.076454684 0.24878563 0.17918794 0.13175519
-0.16160789 -0.18002924 -0.12390794 -0.02695385 0.14647108 -0.017888004 0.153864 -0.051961713
0.13451152 -0.09116154 0.11103652 -0.14811452 -0.010888827 -0.19951172 0.10393975 -0.19298871
-0.047444005 -0.1338013 0.17531964 0.09659631 -0.1889444 0.1164206 0.11500089 0.0058471533
-0.047253326 -0.089771144 0.07348416 0.05558495 0.007593237 -0.13585238 -0.07378985 0.08032948
-0.18360366 0.17597897 -0.14168434 -0.06265023 0.011506282 0.03024341 -0.013461155 0.06767643
-0.031899676 -0.17456394 -0.08109491 0.14700592 -0.1030096 0.044790316 0.13105533 0.060978137

network.0.bias f4 [128]
00000000: 00d7 993c 5a9c 3d3e 47f7 be3d f2c1 cc3d
00000010: d3a6 473d 1be7 543e 8142 49be 1b0b 573d
00000020: e3a4 11be 911a b1bc f57d 2c3e 3c14 96bd
00000030: d03e 593c 68b9 b3bd 3de4 153e 3b48 353d
00000040: 6bec 4d3e a670 4d3d b753 833d 8a99 d13c
00000050: 7fb3 3dbe d8f8 35be 4671 403d 8c4d 33be
00000060: 0eea 15be e45e c83c 7a03 413e c6f6 de3d
00000070: d9c7 f7bc b9fa 903c 194b 823e af24 2e3e
00000080: 6d2f 1b3e c02a b9bc 5972 e23d 43d8 483e
00000090: 126d 0f3e 4926 163c 7569 0f3e c3fc 2f3e
000000a0: 7cbc d1bc d3f7 763d fb9c 23bc 41ca 24be
000000b0: eedf 913d 25b4 babd 50f7 f1bc cac7 2b3e
000000c0: f675 383e 90c4 34bd 1761 cf3d 10ed f63d
000000d0: ceff 333e e257 e4bd 5eea 02be 3502 b83b
000000e0: 153d c03d 3f8b d13d f1c1 803c b11c 01bd
000000f0: 8264 80bc 5785 da3d 4035 c23d 3e1d 663e
00000100: a6a2 913d f7fe 6e3b e5b1 e33d 2736 113e
00000110: b020 4cbe 023b ecbd c5d7 323e 8dfb 18be
00000120: c4f0 0ebe 7149 f7bd 6146 423e df26 2d3e
00000130: 4204 3ebe fba9 3b3e 8c88 293e eb83 bfbd
00000140: 7bd2 b7bd b69a 3dbc 5047 c8bc b85b 30be
00000150: d36e 283e 8898 08bd 04df 003e 2d8a 2ebe
00000160: 4583 20be 440f 4b3e 9173 313e 4c5a 65bc
00000170: ace6 0dbd 04b1 40be 9996 debd 2433 c0bd
00000180: 5a1e 10be c5cd ffba 0fb2 efbc 9e14 643d
00000190: fce9 3dbe ec86 c5bd 83e4 4d3e b70c 29be
000001a0: bf1d b6bd b386 a0bd 94ee 9abb 97dd 95bc
000001b0: 412e 173d 89f3 4c3e 02ed b5bd ec9f 0bbe
000001c0: 1278 053e 9a80 0ebe 495e 2c3e 4a90 42be
000001d0: fa83 103e c25c 313e 3088 4d3d cbf5 07be
000001e0: 01e5 ffbd dcb0 72bd d5e8 9bbd 873f 18be
000001f0: 4532 12be a00d 203e 218a 2ebc 4a28 d03d
0.018779278 0.18516675 0.09324508 0.0999793 0.04874308 0.20791285 -0.19654275 0.052500825
-0.14223056 -0.021619113 0.16844924 -0.07328078 0.013259605 -0.08775598 0.14637847 0.044258337
0.20109718 0.050156258 0.06412452 0.025585908 -0.18525504 -0.17770708 0.046983026 -0.1751005
-0.14640066 0.02445931 0.18848982 0.10886912 -0.030246662 0.017697679 0.2544792 0.17006181
0.1515481 -0.022603393 0.11056966 0.19613747 0.14006451 0.009164401 0.14005072 0.17186265
-0.025602572 0.060294937 -0.0099861575 -0.16092779 0.07122789 -0.09116391 -0.029536873 0.16775432
0.18013749 -0.04413277 0.1012594 0.12056935 0.1757805 -0.11149575 -0.12784716 0.0056154975
0.093866505 0.10231637 0.015717478 -0.031521503 -0.015672926 0.10669964 0.09482813 0.22472093
0.07111101 0.003646789 0.11117915 0.14180814 -0.19934344 -0.11534692 0.17465122 -0.14939709
-0.13959032 -0.12074555 0.1897216 0.1690936 -0.18556312 0.18326561 0.16555995 -0.09351333
-0.08975693 -0.0115725305 -0.024448067 -0.17222488 0.16448526 -0.03334859 0.12585074 -0.17044897
-0.15675075 0.19830042 0.17329241 -0.013998579 -0.034643814 -0.18817526 -0.10868568 -0.09384754
-0.14074078 -0.001951628 -0.02925971 0.055683725 -0.18546289 -0.09644875 0.20106702 -0.16508757
-0.08892392 -0.07838192 -0.0047281478 -0.018294139 0.036909346 0.20014776 -0.08883096 -0.13635224
0.13034084 -0.13916245 0.16832842 -0.19000354 0.14112845 0.1732054 0.050178707 -0.13277356
-0.12494851 -0.059250697 -0.076127686 -0.14867984 -0.14276989 0.15630198 -0.01065305 0.101639345

network.2.weight f4 [128, 128]
00000000: 3a3a 713d fc87 7b3d ece5 a43b 9b4b 5f3c
00000010: a82d 87bd 1584 b53d ebaf 193d 016e 6bbd
00000020: 67b0 8cbd 66b8 04bd 7de0 e3bb 07c6 753c
00000030: 4c34 96bd 9250 9b3d 462b 793d c32f 46bc
00000040: efc5 4a3d aaac 143d aa68 07bd 5f52 973d
00000050: 52a9 3bbd 15d2 a6bd 1d84 023c 0066 18ba
00000060: f6f6 f13c 3cf7 a43c 178f 19bd cad5 9dbd
00000070: e8a9 a03d c241 8e3d 324e c93c d91b 833d
00000080: 5668 373d a8b7 bd3c 6f7a 6e3d 0f13 583d
00000090: ecf3 8e3d 09f6 a93c 985e 133b a81c ff3d
000000a0: 8875 21bd 765a ed3d 6b0d 1fbc b52c 8d3d
000000b0: bb0f 373c f37b d2bd 43ac dfbc 4062 5f3d
000000c0: 8fee bfbc 25d0 a8bc 54cc 8d3d 0f94 493d
000000d0: dd8a 00bc c367 c73c 2a66 b13d 1020 46bc
000000e0: 0682 853d 45b5 5e3d 6bbc 903d cb79 da3b
000000f0: dc00 2fbd d307 653d c0b0 36bc 3939 cf3c
00000100: ff6f 8ebc 1a8b 92bd 13b5 18bc e862 1cbc
00000110: a90c 8e3b 9abb 303d da30 693b 68bb f4bd
00000120: c84e a2bc 2315 b3ba 9770 ff3d 28a5 f93d
00000130: e5b8 813d b77d 5fbd 87b3 1bbc 7e04 7e3d
00000140: 009e 743d 110f a33d ccd9 aabd 027f b03d
00000150: addd 86bd e3e1 1b3d 7d12 883d ad23 4f3c
00000160: 6e63 af3c 10d4 c93d 35e2 ccbc be61 5ebd
00000170: 1bd3 66bd 703a ca3c ce64 3f3d 1bd4 8c3d
00000180: 96aa 083d 92f0 e2bc b066 cabc d516 e63d
00000190: d1ab 663d 25a3 5fbc ece0 c13d 2cbf 8b3d
000001a0: eb92 763d 57fd 353d d690 2bbd 387a a93c
000001b0: 37eb 243d deab 57bd 91a2 be3c d1d3 583d
000001c0: 5537 733d ecbe c43c 4a50 65bc 7575 a33d
000001d0: 94b1 563d 1581 fabb b9d0 3abd 5094 f83c
000001e0: 0893 0e3d 47a4 513c e690 b33d 6f82 d73c
000001f0: 272e 8abc 8cf7 193d da32 203c 8b4c 873c
00000200: 0cb5 9b3c b815 9fbc 6aa3 abbd b4b4 fabc
00000210: 41d9 a9bd 52f7 2bbd 40bb d1bc 5892 4ebc
00000220: 18db 97bc ec2d 54bd 1dc1 b33d 22e0 443d
00000230: b839 96bc 831b 92bd c425 8f3c 206f f9bb
00000240: 7e9b 6fbd 0c8e acbd e5ca a33d 986d c33c
00000250: e06a 95bc ec96 abbd ce54 95bd 3c07 cc3c
00000260: ad44 82bd dc5c eabc ef03 813d 3eff 663d
00000270: c4c0 69bd e006 ac3c 1bd0 a83d aaa5 693d
00000280: 66f3 1d3d eea4 203d b7c1 8dbd c47d e5bc
00000290: ecf4 9fbc ecef 103d 3c32 9a3c 20bc 17bc
000002a0: 7460 d23c 78b1 74bc 259a b23d 9326 adbd
000002b0: 63aa 843d 2c90 78bd eaa0 32bd 30ed 8fbb
000002c0: 5c0c acbd 006f 99bd e396 1cbd 2074 e33b
000002d0: e83a dcbc 4b5d 983d 14a5 8fbd b084 3e3c
000002e0: f45a b4bc b2b7 683d 0749 3abd b74d 5bbd
000002f0: 7e24 3b3d 40f2 0dbd 2001 4e3b 86ae 613d
00000300: be22 5cbd 882f 80bd cc1f b1bd 20f0 9b3c
00000310: 10ed ec3b 78d7 923c eb94 af3d 23b7 a73d
00000320: 81f6 aa3d 5f1c 09bd 6172 38bd 10f8 69bd
00000330: c0b9 a7bc 09e0 1fbd 38fa cb3c 2ea3 213d
00000340: 310e 75bd eaf7 0cbd b22c 223d f450 133d
00000350: d215 293d b058 42bc a347 42bd 4105 27bd
00000360: 2854 6dbc 0306 ae3d 2247 133d 07c2 aebd
00000370: adf5 8cbd ea9d 4c3d 00b4 22bc d802 213c
00000380: fcb0 87bd c0b6 423c 67ca 9fbd dd1d 44bd
00000390: 1682 003d f145 a53d 7cd9 a8bc bc98 88bc
000003a0: d80a 8ebd 1085 b4bd 713b 13bd 0f0f 9bbd
000003b0: f0e0 66bc 8807 adbd 2698 1ebd 3b52 ae3d
000003c0: 6850 45bc 3019 47bc 44b7 ee3c f0dd edbb
000003d0: a8a9 023d 984c 08bc a8a0 533c fe72 1abd
000003e0: ffe8 833d 338b 9dbd 4ea0 2f3d c285 463d
000003f0: bc0e ccbc 8cdf eebc 5ce4 a7bc e0d8 94bd
0.05889342 0.06140898 0.0050322916 0.013628866 -0.06600505 0.08863083 0.037521284 -0.057477955
-0.068695836 -0.03240242 -0.0069542513 0.015000827 -0.073341936 0.07583727 0.060832284 -0.012096348
0.04950517 0.036297478 -0.0330588 0.07388758 -0.045815773 -0.08145539 0.007966069 -0.0005813539
0.029536705 0.020137422 -0.037489977 -0.07706793 0.07844907 0.06946136 0.02457342 0.06401796
0.044777237 0.023158863 0.05822223 0.05275255 0.06980118 0.020747202 0.0022486802 0.124566376
-0.039418727 0.1158952 -0.009707789 0.06893293 0.011173184 -0.10277548 -0.02730382 0.054537058
-0.023429183 -0.020607064 0.06923738 0.049213465 -0.007845608 0.02434147 0.086620644 -0.012092605
0.06518941 0.05437209 0.07067188 0.006667351 -0.04272543 0.055915665 -0.011150539 0.02529584
-0.017387388 -0.07155438 -0.009320515 -0.009545065 0.0043350053 0.04314766 0.0035582096 -0.119498074
-0.019812956 -0.0013662915 0.12472647 0.12189704 0.06334094 -0.05456325 -0.009503252 0.062016003
0.059720993 0.07961858 -0.08342323 0.08617975 -0.0658525 0.03805722 0.06644151 0.012642783
0.021409716 0.09854901 -0.025010208 -0.054292433 -0.05635367 0.024686068 0.046726994 0.068763934
0.03336581 -0.027702603 -0.024707168 0.112348236 0.0563162 -0.0136497365 0.094667286 0.068235725
0.060198706 0.044431057 -0.041886173 0.020688161 0.04026338 -0.05265414 0.023270877 0.05293638
0.05937894 0.02401682 -0.013996193 0.079813875 0.052415445 -0.0076447823 -0.04560921 0.030344158
0.03480819 0.012795514 0.087678716 0.026307313 -0.01686771 0.037589595 0.009777749 0.01651599
0.019007228 -0.019419536 -0.08380778 -0.030603744 -0.08293391 -0.04198391 -0.025601983 -0.012608133
-0.01853709 -0.051801607 0.08777068 0.048065312 -0.01833807 -0.07134154 0.017474063 -0.007612124
-0.0584979 -0.08425531 0.079976834 0.02385597 -0.018239439 -0.083783954 -0.07291566 0.024905793
-0.06360755 -0.028608732 0.062995784 0.05639576 -0.0570686 0.020999372 0.08242818 0.057042755
0.0385622 0.03921979 -0.06921714 -0.028014071 -0.019525968 0.035385057 0.018822782 -0.009261161
0.025680758 -0.01493489 0.08720807 -0.08454623 0.06477811 -0.060684368 -0.04361049 -0.0043922886
-0.08400795 -0.07491875 -0.038229834 0.0069413334 -0.026883557 0.07439669 -0.07013908 0.011628315
-0.022016026 0.05681581 -0.0454798 -0.05354091 0.0456891 -0.034654856 0.0031433776 0.05509808
-0.05374407 -0.06259066 -0.08648643 0.019035399 0.0072304085 0.01792501 0.08573326 0.081892274
0.08347798 -0.033474322 -0.045030955 -0.057121336 -0.020474315 -0.039032016 0.024899587 0.03946226
-0.059827987 -0.034416117 0.039593406 0.035965875 0.041280575 -0.011861965 -0.0474316 -0.040776495
-0.014485396 0.084972404 0.03595651 -0.085331015 -0.068827964 0.049955286 -0.009930611 0.009827338
-0.06625554 0.011884391 -0.07802277 -0.047880042 0.03137406 0.08069981 -0.020611517 -0.016674392
-0.06935662 -0.08814442 -0.03594536 -0.075712316 -0.014091715 -0.08448702 -0.03871932 0.08511778
-0.012043096 -0.012152001 0.029140122 -0.007259123 0.031900078 -0.008319043 0.012916721 -0.03770732
0.06440925 -0.07692566 0.042877488 0.048467405 -0.02490937 -0.02915933 -0.020494632 -0.07267928

network.2.bias f4 [128]
00000000: b005 ae3d a33e 8a3d 6e37 11bd 009f 4cbd
00000010: 9786 d63d fa75 4b3d 6a71 c0bc 05a2 b4bc
00000020: c91e 283d c421 173d 9301 543d 7e84 a43d
00000030: 709a 0bbd 2aa6 633d d229 01bd 9c6a c93d
00000040: cd59 25bd 8346 073d 6609 a8bd c0df a7bd
00000050: f695 3bbd 0b0e b63c 2fb6 b03c 4d46 febc
00000060: e6cc a43b 005c 0cbd 1bf8 a83c e835 f4bc
00000070: fc15 b5bc 609d 14bd a2f7 913d 04bf b53d
00000080: 912d 82bd b676 6a3d f927 e13d aefa 2f3d
00000090: 5bb8 a4bd 950a 293d ca84 8bbd 2d43 86bd
000000a0: e260 723c 00f0 a73d 6e0d 3c3d 17f1 dcbc
000000b0: 5e95 753c 63f4 c43d dbd8 233a dfc2 76bd
000000c0: 6a0c 663d 9f0e 8e3d ae33 84bc f141 2f3d
000000d0: fed7 99bd 48b0 80bd dc7c b3bd 03a5 563d
000000e0: 9052 26bc 5a48 28bd 0c99 3c3c 4909 41bd
000000f0: 4560 a73c 58db 973c 469b be3d d3ee a83d
00000100: 487c dc3d b1ea 693d e97f 833b 79d1 b83c
00000110: d6c2 aa3d 95d0 0fbd 67b8 913d b86c 91bd
00000120: ef8e 473b 93dd b53c 347a edbc 32bd 7ebd
00000130: 859d dd3d 4e3d d4bc 6618 e03c 687e 7fbd
00000140: e06f 003d 58b8 4dbc cdd6 943d ea9e b2b9
00000150: 09ab a2bd 634d 2d3d f197 26bd 49af 033d
00000160: e49c 503d c4a2 a7bc bd27 8f3d 2537 54bd
00000170: a57d 533d 0a65 ac3c 0f1d 903c b740 97bc
00000180: bb46 59ba 3f92 fb39 6b33 8f3d c103 c2bc
00000190: 2b9d de3d 482d 0e3d 0761 8a3d fcd6 4bbd
000001a0: 1876 34bd 781b 71bd 6ca1 953d 2e5d 843c
000001b0: c2d5 823b 1fa4 68bd 8938 24bd 3a80 6dbd
000001c0: 33d3 e4bb d0a6 04bd 9dfc dfbd 96f5 123b
000001d0: f3be 97bd c223 a03d a8f7 503d e9db 09bd
000001e0: 0f82 5a3d df79 a23c 1834 79bc 4c87 75bd
000001f0: 620a 853d 7e49 5bbd 8a2e 1b3c 7fcf 6e3d
0.084971786 0.06750228 -0.035453252 -0.04995632 0.1047489 0.049673058 -0.02349158 -0.022049913
0.041044984 0.036897436 0.051759314 0.080330834 -0.03408283 0.05557839 -0.031534024 0.09834787
-0.040368844 0.03302623 -0.082049176 -0.08196974 -0.04579731 0.022223493 0.021571247 -0.031039381
0.0050293086 -0.034267426 0.020626118 -0.02981086 -0.02210521 -0.036282897 0.0712731 0.08874324
-0.06356347 0.057242118 0.10993952 0.042963676 -0.080429755 0.041269857 -0.06812437 -0.065557815
0.0147936065 0.08200073 0.045911245 -0.02697043 0.014989225 0.096169256 0.00062502705 -0.060244437
0.056164183 0.069363825 -0.016137924 0.042787496 -0.075119 -0.06283623 -0.087640494 0.05240346
-0.01015152 -0.041084625 0.011511099 -0.047127996 0.020431647 0.018537208 0.0930696 0.08248677
0.10765892 0.057108585 0.004013051 0.022560822 0.08337943 -0.03511103 0.0711525 -0.071008146
0.0030450185 0.022200381 -0.028988935 -0.06219215 0.1082106 -0.025908139 0.027355384 -0.06237641
0.031356692 -0.012556158 0.072675325 -0.00034069206 -0.079427786 0.04231013 -0.040672246 0.032149587
0.050930873 -0.020463355 0.06990001 -0.051810402 0.051633496 0.021044273 0.017591981 -0.018463476
-0.0008288433 0.00047983413 0.06992229 -0.02368343 0.10869821 0.034711152 0.06756788 -0.049765572
-0.044057935 -0.058864087 0.073061794 0.016157713 0.003992767 -0.056797143 -0.04009298 -0.057983615
-0.0069831847 -0.032385647 -0.10936854 0.0022424213 -0.074094675 0.0781932 0.051017433 -0.03365699
0.05334669 0.019833503 -0.015210174 -0.059943482 0.06496121 -0.053536884 0.009471545 0.058303352

network.4.weight f4 [8, 128]
00000000: 8fac a4bd 2095 81bc 6f6e 813b db91 8f3d
00000010: e54f 09bd eb7e a03d cccf 02bc 9080 0cbd
00000020: 9bed ff3c a111 95bc 490a 78bd 091e e2bc
00000030: f8c5 12bc d2fe 95bd ed24 1b3d 8acb ebbc
00000040: eead 143d c5c5 2d3d 6017 b93c 00c8 7fbb
00000050: aea7 8fbd 224d bf3d 55e5 eabc 519d a9bd
00000060: 4cc5 883d 21c7 5fbb 8606 7fbc 8ac1 ae3d
00000070: 9540 58bc 51e3 813d 072c 62bd 3ec3 a33b
00000080: c731 333d 6471 a1bd af5a f7bd 4028 f73a
00000090: d1dd 6abd a804 e0bc 17f4 82bd 45c4 463d
000000a0: 8b93 653d e325 e63c 4e15 babd de0d 533c
000000b0: 9175 ae3c 1b7a b83c 284c 023d 8ecb 793d
000000c0: 9b42 9d3c f065 d73c f998 7cbb 89ea c9bd
000000d0: 70b0 463c dcf0 65bd f46f a7bc fa2a 563d
000000e0: 2881 fcbc 558d c4bd 225b e9bd 0a91 b4ba
000000f0: b342 4c3d ba24 7d3d df5c da3b ec11 e8b9
00000100: fa8f 7dbd f67f 8e3c a923 68bd 6e6d 653d
00000110: b0df 5a3d be3f eabd 20b9 6bbc 8f03 54bd
00000120: 6017 7ebd 5f53 1cbd 7f1c 74bd c811 a9bd
00000130: 5afe 9cbd c141 cfbd 265b 98bd 7f9f 24bd
00000140: 7394 7dbd 3814 c43c 6200 6a3d 42b1 5e3d
00000150: 1cf6 f2bc 77a2 263c 7be4 883d 7e3c b43c
00000160: cd07 1dbd a31b 07bd a10b 80bc b9bf 3d3d
00000170: 11d7 a3bd 35f0 133d ddae 4a3b 4176 99bd
00000180: aaac 32bd 5dbb 073d bf4e 06bd d24e f9bc
00000190: 7d7a 66bd b6fe 6c3d 5536 083d e1d2 093d
000001a0: c004 5e3c 00c0 7e3c 8efb a23b 5d14 90bc
000001b0: 1b3a a0bc 486a 9cbd cdf1 e93a 5e9d 3b3d
000001c0: 9ab4 693d 0885 52bd b196 babd 4970 74bd
000001d0: 54df 833c e98f e5bd 4836 b1bc 233e 9f3d
000001e0: d031 1b3d a986 aabd 9fa3 00bd 3783 36bd
000001f0: ec22 183c 1e4e b0bd 7124 cebd 64a5 8abd
00000200: 8a0d cb3d f24f 333d 84ce 373c dcce a1bd
00000210: 9dfa ad3d befe 39bd ec4c a73d 9b53 a6bb
00000220: bae6 c53d 0fd4 9fbc 8826 6bbc 1690 9dbd
00000230: 1046 d9bc dae4 463d 0f2b ce3c af0d 2c3d
00000240: 3035 a13d a83d 6bbd 2247 663d 733f 8d3d
00000250: 043b fe3c 1197 323d c48f 903c 7fe6 823d
00000260: 48c0 91bd e3f2 a73b a743 da3d 3832 1abd
00000270: e107 ad3d 22f0 bdbc d8ab 26bd 5a0e 753c
00000280: 240a ba3d ee47 523d e293 8e3d 3c26 c43c
00000290: 9af1 a0bd 1db8 443d d0ca 5ebd a03a 8aba
000002a0: 954f 863d e53f 91bc f0db c63c fa63 9d3d
000002b0: 48b9 84bc 5da4 3e3d fef2 85bd f7d2 663d
000002c0: dacc 6c3d 8c99 e83c 04cc 1fbd 5ba0 d03c
000002d0: f132 01bd f539 933d 6039 6bbc 8be2 d83d
000002e0: 2a8c 1e3d 834b bd3b 0fc9 983c 3a76 913d
000002f0: 70bc 7a3d df45 15bd 84a9 47bb 15f4 643d
00000300: 2fc0 ef3d 4746 023d 69dc 893d 7eff 473d
00000310: fedf 363d 2034 bebc 338e 58bd 2031 773b
00000320: e0f4 39bd 6b10 e73d 7e67 12bd 3558 95bd
00000330: 1e77 8ebb dd89 0f3d 87d7 37bb cd29 a1bd
00000340: 8091 59bd 3e40 063d 7615 883d 0a45 20bd
00000350: 2e2a 783d 4536 5bbd 3685 d93c 425f 123d
00000360: 7574 363d 4e1a 3e3d 9325 ce3d 1614 963d
00000370: 1e30 a03d 7014 b1bc 1b64 9d3d c5b7 a9bc
00000380: caad 263d a766 773d 40bb e03a d091 27bd
00000390: 1f4d 963d 7ef4 653d bc71 0aba 1e5c 5cbd
000003a0: cd11 72bd 0a0c 27bd 443c c13b 015b fd3d
000003b0: 149a 9b3d ca92 233d 0234 69bd 04b9 18bc
000003c0: aa19 383d 7003 d83d ad47 50bb 0229 5e3d
000003d0: 14e9 3ebd e311 063e 503c 6f3d aeb1 173d
000003e0: 53f0 163d 15a0 e03d 4f9f 07bd c5fe a83d
000003f0: 43ef 623d 9312 3b3c 2aca 80bc 8c35 f43d
-0.080407254 -0.015818179 0.0039499323 0.070102416 -0.03352346 0.07836708 -0.007984113 -0.034302294
0.031241229 -0.018196883 -0.060556684 -0.027602213 -0.008958332 -0.07323994 0.037877012 -0.028783578
0.036298685 0.042424936 0.022594154 -0.0039029121 -0.07014404 0.09340884 -0.028673807 -0.08281959
0.066782564 -0.003414579 -0.01556552 0.085330084 -0.013198991 0.06342185 -0.05521777 0.00499764
0.043748643 -0.07882956 -0.120778434 0.00188566 -0.057340447 -0.02734597 -0.06394213 0.04852702
0.05604891 0.028094238 -0.09086095 0.012881724 0.021296294 0.022519162 0.03181091 0.06098514
0.019196799 0.026293725 -0.0038543327 -0.09859187 0.012127027 -0.056137905 -0.020439126 0.05228708
-0.030823305 -0.095972694 -0.11394335 -0.0013776135 0.049868297 0.061802603 0.006663903 -0.0004426384
-0.061904885 0.017395 -0.056674633 0.056012563 0.05343598 -0.11437939 -0.014387399 -0.051761206
-0.06203401 -0.038165446 -0.05959749 -0.08255345 -0.07665701 -0.101199634 -0.0743926 -0.04019117
-0.06190915 0.023935422 0.05712927 0.054368265 -0.02965837 0.010170571 0.06684204 0.022001501
-0.038337518 -0.03298534 -0.015630545 0.04632542 -0.08000005 0.03611775 0.003092698 -0.07493258
-0.043621697 0.033137668 -0.032789942 -0.030433092 -0.056269158 0.0578601 0.03325494 0.033648375
0.013550937 0.015548706 0.0049738353 -0.017587835 -0.019558957 -0.07637459 0.0017848552 0.045804374
0.057057 -0.0513964 -0.09110773 -0.059677396 0.016097702 -0.11209089 -0.021632329 0.077755235
0.0378893 -0.08326466 -0.03140604 -0.04455873 0.00928567 -0.0860865 -0.100655444 -0.06769827
0.09914692 0.043777414 0.011218671 -0.079007834 0.08495066 -0.045408957 0.081689686 -0.0050758845
0.09663148 -0.019510297 -0.014352448 -0.07693498 -0.026522666 0.048558094 0.025167016 0.042005237
0.07871473 -0.057431847 0.05622018 0.068968676 0.031034 0.0436011 0.017646678 0.0639162
-0.07116753 0.00512539 0.10657435 -0.03764555 0.084487684 -0.023185793 -0.040691227 0.014957035
0.090839654 0.05133813 0.069618 0.023944013 -0.07858582 0.048027147 -0.054392636 -0.0010546036
0.06558148 -0.017730663 0.024274796 0.07685085 -0.01620163 0.046543468 -0.06540488 0.056353536
0.05781255 0.02839353 -0.039012924 0.025467088 -0.031542722 0.07188789 -0.014356941 0.10590085
0.03870789 0.005776824 0.01865056 0.07102628 0.061214864 -0.036443587 -0.003046603 0.055896837
0.11706578 0.031805303 0.06731493 0.04882764 0.04464721 -0.023218215 -0.052869987 0.003771849
-0.045399547 0.11282428 -0.03574323 -0.07292215 -0.004347696 0.035043586 -0.0028052048 -0.07869301
-0.053117275 0.03277611 0.06644718 -0.03912834 0.0605871 -0.053518552 0.026552778 0.035735376
0.044544656 0.046411805 0.100657605 0.0732805 0.078216776 -0.02161619 0.07685109 -0.020717511
0.040693082 0.06040063 0.0017145649 -0.040910542 0.073389284 0.05614137 -0.000528123 -0.053798787
-0.059099007 -0.040782966 0.005897077 0.12370873 0.075977474 0.03993491 -0.056934364 -0.009321455
0.04494635 0.10547531 -0.0031781003 0.054238327 -0.046609 0.1309276 0.058407128 0.037034683
0.036850285 0.10968033 -0.033110913 0.082517184 0.05540396 0.011418003 -0.0157214 0.11924276

network.4.bias f4 [8]
00000000: b703 4a3d 6495 3abc 8dd4 1cbd de36 cd3b
00000010: 5e03 6cbd 1cb7 133b c872 a43b 03a2 cebd
0.04931995 -0.011388157 -0.03828864 0.006262644 -0.0576204 0.0022539562 0.005018566 -0.10089495

exp_avg f4 [128, 26]
00000000: 0000 0000 0000 0000 0000 0000 0000 0000
00000010: 0000 0000 0000 0000 0000 0000 0000 0000
00000020: 0000 0000 0000 0000 0000 0000 0000 0000
00000030: 0000 0000 0000 0000 0000 0000 0000 0000
00000040: 0000 0000 0000 0000 0000 0000 0000 0000
00000050: 0000 0000 0000 0000 0000 0000 0000 0000
00000060: 0000 0000 0000 0000 203b 9939 f230 833c
00000070: 3495 ee3c 3c03 cc3c 1efb 143d c485 8e3d
00000080: daf2 943d 2f35 423e 881a 963d 1248 943d
00000090: f13f ee3d 9108 f73d 93c8 be3d 083c 2b3e
000000a0: 96f2 403e 052d 003e 978e 3d3e 02db 493e
000000b0: 1c88 1d3e b9de 203e 62fb 1f3e 2bf7 e43d
000000c0: d493 c83d e40e 2b3d 6e43 f03d a531 f03d
000000d0: 7d8d 10bc 2255 a33a f049 8439 7727 613b
000000e0: 386a 273c 98e5 103c be4c 2a3c aab5 313d
000000f0: 87cb 003c ce0a 7f3c cb4f 2a3d 6ca9 613d
00000100: cc80 0c3d d05d 363d 9d0a 5c3d 742b d73c
00000110: 31b1 813d 1dca 343d bced 3d3d 3876 363d
00000120: 003b a33d 8f4d 073d bfbc 0b3d 7e6c 8a3c
00000130: 72ad fe3c 0eb7 003d 1e1c 103c 6851 4e3c
00000140: 77e9 943c ab99 373c 6f03 3e3c 4402 1f3d
00000150: 6433 223d 3248 d53d 7a36 263d 5662 3c3d
00000160: 9f8a ac3d fbfc ca3d d2ec 1c3d 9e6c db3d
00000170: 91f1 073e 0e51 913d e530 ec3d 71fc d83d
00000180: ba6c e73d e215 e13d 65ca e03d b6a7 983d
00000190: 605a 903d 78c5 023d 0dd1 993d 0030 9a3d
000001a0: 5f27 af20 eaa1 6f38 d1d7 7ab9 338c ab20
000001b0: 566a 9c20 4352 0f38 47a2 c139 b10f 15bb
000001c0: 0d71 8fb7 354c a4b6 9f76 c5b8 a4c1 64ba
000001d0: 0000 0000 9079 f4ba f89f 2ebb 9f83 c3ba
000001e0: 4a70 83ba 3a7c 43bb b1f2 57bb 0774 2dbb
000001f0: e0d8 c9ba fd56 27ba 30df 05ba a81e 5fb9
00000200: a81e 5fba cace 48ba 90e7 77bc 00fa 8bb7
00000210: aa5c 143b 9af5 4a3b 3dc3 273b ce83 7ebb
00000220: 386a 94bb af44 193d ad25 b7bb 8a8e d7ba
00000230: 046b 303d be8b 373d 10f8 af3c d481 273d
00000240: 58da 5e3d dd2f 3f3c ff27 543d 4ddc 0a3d
00000250: a144 003d 3d0f 2b3d b393 8c3d 63c5 ee3c
00000260: 12bb ff3c 9ce7 7f3c d3a0 e83c 8d86 eb3c
00000270: 0000 0000 0000 0000 032f 2100 0000 0000
00000280: 0000 0000 0000 0000 0000 0000 b745 9000
00000290: 0000 0000 0000 0000 9668 8901 784b a201
000002a0: 0000 0000 00ec 6201 4816 a201 afb9 1500
000002b0: 8a54 3601 1781 c201 bf29 8f01 8aee a401
000002c0: 1ee3 c300 4816 2201 4816 2201 0187 da00
000002d0: 4816 2201 4816 2201 a4a4 ccbb d4bf 523b
000002e0: 6423 393c 2024 13bb fc49 093b 4d18 2a3d
000002f0: 371a 433d d6b1 383e 8f6c 403d 12f0 503d
00000300: 3467 bd3d 4257 a33d 2ade 4d3d 966a 213e
00000310: 564d 2d3e d0e5 fa3d 489c 273e 7956 543e
00000320: 9694 183e 3fef 173e 0877 9a3d 8991 cd3d
00000330: 347c a33d 4402 fa3c 9c39 e23d 0a6a e13d
00000340: 598c 88a3 4772 bba3 40b6 1c2f 343e d9a3
00000350: 4024 a2a3 cc99 8da5 d135 ad2a 786c 4a30
00000360: 7b58 8da5 bff2 6aa5 3fb5 6e30 6d80 4b2f
00000370: fac2 c8a4 bbbb 2930 e579 7230 d2da c52e
00000380: 79fb ae2f 4caa 872f 28ec 8830 b0b2 7530
00000390: dcb5 b92f e579 f22f 06e9 d92f af9d 3d2f
000003a0: e579 f22f e579 f22f 2954 df3b 4ba7 803c
000003b0: 06b5 0e3d de77 c43c 8e96 2c3d 72ad b13d
000003c0: 69eb bb3d b7a2 723e 1118 c03d 0beb af3d
000003d0: e18f 0a3e 9cfc 0c3e d213 d13d 95c0 553e
000003e0: cdd9 733e fc58 233e 4d70 633e 48fc 803e
000003f0: f88b 433e 980f 483e b705 223e be1a 0d3e
0.0 0.0 0.0 0.0 0.0 0.0 0.0 0.0
0.0 0.0 0.0 0.0 0.0 0.0 0.0 0.0
0.0 0.0 0.0 0.0 0.0 0.0 0.0 0.0
0.0 0.0 0.00029226486 0.01601455 0.02912388 0.024903886 0.036372297 0.069591075
0.07272883 0.189656 0.07329279 0.07240309 0.116332896 0.12062181 0.093156 0.16722119
0.18842539 0.12517174 0.18511425 0.19712451 0.15383953 0.15709962 0.15623239 0.11179956
0.09793821 0.041762248 0.11731611 0.11728219 -0.008822796 0.0012461285 0.0002523209 0.0034355798
0.010218196 0.008843802 0.010394273 0.04338614 0.007861025 0.015566541 0.041580003 0.055093214
0.034302518 0.04452306 0.05372106 0.026265837 0.06332625 0.044138063 0.0463693 0.044546336
0.07970238 0.03303295 0.03411555 0.016897436 0.031088565 0.031424575 0.008795766 0.012592651
0.018177731 0.011206071 0.011597498 0.03882052 0.03959979 0.10414161 0.040579297 0.045992218
0.084248774 0.099115334 0.038311787 0.107140765 0.13275744 0.07095538 0.115327634 0.105950244
0.11300035 0.10990502 0.10976104 0.07453863 0.07048488 0.031926602 0.075105764 0.075286865
2.9672207e-19 5.7132835e-05 -0.00023922256 2.9061303e-19 2.6497795e-19 3.417047e-05 0.00036932735 -0.0022744949
-1.7099572e-05 -4.8964525e-06 -9.415787e-05 -0.00087263645 0.0 -0.0018651951 -0.0026645642 -0.0014916545
-0.0010027972 -0.0029828683 -0.0032951052 -0.0026466863 -0.0015399717 -0.00063835067 -0.0005106805 -0.00021278358
-0.0008511343 -0.00076602085 -0.015130892 -1.6686507e-05 0.002263824 0.0030969144 0.0025598549 -0.0038835886
-0.004529264 0.037419017 -0.005589208 -0.0016445678 0.043070808 0.044811003 0.02148059 0.040895298
0.054407448 0.011669126 0.051795956 0.0339015 0.03131545 0.04176258 0.06864109 0.029146856
0.031217132 0.015619185 0.028397 0.028750682 0.0 0.0 3.047436e-39 0.0
0.0 0.0 0.0 1.324932e-38 0.0 0.0 5.0475925e-38 5.9617694e-38
0.0 4.1678966e-38 5.9541374e-38 1.995156e-39 3.3488774e-38 7.144958e-38 5.2589807e-38 6.058637e-38
1.7989396e-38 2.9770687e-38 2.9770687e-38 2.0068568e-38 2.9770687e-38 2.9770687e-38 -0.0062452126 0.0032157796
0.011299942 -0.0022451952 0.002094864 0.04152708 0.047632422 0.18036589 0.04697853 0.0510102
0.092482 0.079756275 0.0502607 0.15763316 0.16924033 0.122508645 0.1636821 0.20736112
0.14900431 0.14837359 0.07542235 0.10037524 0.07982674 0.030518658 0.11046144 0.110065535
-1.4804589e-17 -2.0322979e-17 1.4252866e-10 -2.3553531e-17 -1.7579428e-17 -2.4563818e-16 3.0768316e-13 7.3641315e-10
-2.4519558e-16 -2.037851e-16 8.684146e-10 1.8508368e-10 -8.706648e-17 6.1748623e-10 8.821231e-10 8.997393e-11
3.1829098e-10 2.467736e-10 9.962422e-10 8.938441e-10 3.3780523e-10 4.4106155e-10 3.9637643e-10 1.724547e-10
4.4106155e-10 4.4106155e-10 0.0068154526 0.015704772 0.034840606 0.023982938 0.042135768 0.0867566
0.0917576 0.23694883 0.0937959 0.08589753 0.13531448 0.13768238 0.102088585 0.20874245
0.23813553 0.15951914 0.22210808 0.25192475 0.19096363 0.19537199 0.15822493 0.13779733

exp_avg_sq f4 [128, 26]
00000000: 0000 0000 0000 0000 0000 0000 0000 0000
00000010: 0000 0000 0000 0000 0000 0000 0000 0000
00000020: 0000 0000 0000 0000 0000 0000 0000 0000
00000030: 0000 0000 0000 0000 0000 0000 0000 0000
00000040: 0000 0000 0000 0000 0000 0000 0000 0000
00000050: 0000 0000 0000 0000 0000 0000 0000 0000
00000060: 0000 0000 0000 0000 ae31 d43b f098 cb3b
00000070: 7668 fd3b 50b7 d03b 6494 d83b d224 ed3c
00000080: 2f7a ff3c 1820 8d3d b572 e23c 11aa eb3c
00000090: e7a1 1b3d f221 193d 68ec 403c 08e3 673d
000000a0: 1492 a23d 2c3b 253d ca6b 913d a2da 983d
000000b0: 2118 903d 0aff 8b3d be73 863d 70fb d23c
000000c0: c202 b03c 5349 8c3b 96bb e63c 41b5 e13c
000000d0: 8659 df3b 9d91 b03b 18c5 cf3b 0ba9 c83b
000000e0: 52fc d73b 1727 a73c 0a42 b23c fe05 083d
000000f0: 2eb6 9f3c c813 a33c b209 933c f830 943c
00000100: c480 203c f583 db3c 6e92 173d a3b7 ba3c
00000110: 4883 0a3d e735 063d 3281 0a3d 8cf8 fd3c
00000120: 518b 003d f7c7 4a3c 4e37 293c fabe 073b
00000130: 387e 5b3c 4dee 573c e080 303b 838a 393b
00000140: abc6 3e3b d223 193b d114 243b 16de 6a3c
00000150: c65f 813c fa14 093d dee7 603c 761b 6c3c
00000160: de55 983c 3c41 9a3c 47ef b23b 175b e43c
00000170: 3068 1a3d 2ca0 a83c d3e5 103d 3256 1c3d
00000180: 65ba 0f3d f813 0b3d db5e 073d 9fe1 4f3c
00000190: 91f6 2d3c 7641 0b3b 0eee 623c 1228 5e3c
000001a0: d8e1 0636 d5ef ce36 0b0b a936 b5a4 5034
000001b0: 861b 1533 b35d 5f35 474f 3037 b560 413a
000001c0: ccac 0934 0391 c333 8458 7338 19b5 0e39
000001d0: 0000 0000 2704 d939 fb15 533a 5d4c 2938
000001e0: 0ba8 183a 5376 803a 7206 383a c6c1 d139
000001f0: aca1 9e39 e539 a938 2f06 6f38 a905 2837
00000200: 7f48 ee38 3e94 cf38 dabe af3b 59c9 9c3b
00000210: ede7 b13b a330 a93b 1cd7 ae3b f159 853c
00000220: 8c89 8a3c dfe9 f73c 10a0 803c 0896 7e3c
00000230: 2660 8b3c ac9a 873c 919e ee3b 1632 cb3c
00000240: 0d4d 133d 9fe7 963c 1f5e 023d c09c 013d
00000250: 6901 003d fc00 f73c f6a2 ef3c cec2 3b3c
00000260: f466 1c3c 9a49 fa3a 0e20 4b3c c0cc 473c
00000270: 0000 0000 0000 0000 5346 402e 0000 0000
00000280: 0000 0000 0000 0000 0000 0000 4727 6330
00000290: 0000 0000 0000 0000 dd0d 4e32 afb9 8f32
000002a0: 0000 0000 897d 0c32 895b 8f32 90d4 a42d
000002b0: bd66 b531 426f ce32 83ac 5f32 146f 9432
000002c0: 6761 d130 895b 8f31 895b 8f31 db49 0231
000002d0: 895b 8f31 895b 8f31 2bb4 b73b 46cc b53b
000002e0: 5398 f03b 6386 ac3b 9e8c 943b dd2f d83c
000002f0: 363f e93c c4fb bc3d 2b96 c93c f3a8 da3c
00000300: 9f53 543d f3e4 533d 783d 043c d29c 9f3d
00000310: be46 f83d ce8e 3c3d cdf5 c93d 29ee d83d
00000320: b6c5 d03d 9c77 c03d 3fa8 c63d ba78 0f3d
00000330: 9822 ee3c 3da4 be3b a631 1e3d e27b 1a3d
00000340: ca56 8f32 a1d4 8732 e8f7 ff32 1b42 6332
00000350: 8ce6 4132 2d0c e635 3cc2 0236 4fbe b036
00000360: f774 d835 8251 c935 db88 b436 bfa0 1736
00000370: 6a57 d934 3802 af36 97d7 1c37 3b5d 6935
00000380: c959 d136 b891 dc36 92e8 4537 df17 1437
00000390: cf79 4836 7489 1636 8f88 0436 33e0 ca34
000003a0: 4fa0 2436 7389 2036 b5fc c43b f805 c93b
000003b0: 442c fc3b d845 b73b f11b c83b 9033 d73c
000003c0: f41e e73c e01f a23d cd8b c83c c0d3 da3c
000003d0: 6383 363d 7d50 2a3d 55d6 233c b5f4 843d
000003e0: 9f80 c03d b32b 2a3d ad7e aa3d 896f b63d
000003f0: 39f1 a73d ac3f a13d 3459 9e3d 9f9a f03c
0.0 0.0 0.0 0.0 0.0 0.0 0.0 0.0
0.0 0.0 0.0 0.0 0.0 0.0 0.0 0.0
0.0 0.0 0.0 0.0 0.0 0.0 0.0 0.0
0.0 0.0 0.006475649 0.0062133 0.0077334 0.006369509 0.0066094864 0.028948221
0.031186191 0.06890887 0.027642587 0.028767617 0.0379962 0.03738589 0.011775114 0.056613
0.079380184 0.040339634 0.07100637 0.07463576 0.07035852 0.06835754 0.06565045 0.02575466
0.02148569 0.004281202 0.02816562 0.027552249 0.006816092 0.005388452 0.006340634 0.006123667
0.006591358 0.020404382 0.021760006 0.03320884 0.01949605 0.019906893 0.017948959 0.018089756
0.009796325 0.02679632 0.03700488 0.022792643 0.033816606 0.03276625 0.033814617 0.031002305
0.031382862 0.012376777 0.010328127 0.0020713196 0.013396792 0.013179374 0.0026932284 0.002831132
0.0029110115 0.0023367298 0.0025036822 0.014335176 0.015792739 0.03346727 0.013727156 0.014410844
0.018595632 0.018829934 0.005460653 0.027875466 0.037697017 0.020584188 0.035375427 0.03816814
0.03508987 0.03395459 0.033049446 0.01268807 0.010617868 0.0021248735 0.013850702 0.013559358
2.0099014e-06 6.1671985e-06 5.037878e-06 1.943143e-07 3.47168e-08 8.3210324e-07 1.0508876e-05 0.0007376776
1.2821982e-07 9.1067726e-08 5.801815e-05 0.0001360964 0.0 0.0004139256 0.00080522866 4.036386e-05
0.000582338 0.0009800888 0.00070200034 0.0004000796 0.00030256563 8.069332e-05 5.69878e-05 1.0014898e-05
0.00011362228 9.8981414e-05 0.0053633275 0.0047847447 0.005429259 0.0051632687 0.0053357016 0.016278239
0.01691129 0.030262886 0.015701324 0.0155387 0.01701362 0.016553245 0.007282086 0.024804156
0.035962153 0.018420992 0.031828042 0.03164363 0.031251345 0.030151837 0.02925251 0.011460019
0.00954603 0.0019095421 0.012397779 0.012194812 0.0 0.0 4.3718206e-11 0.0
0.0 0.0 0.0 8.2637935e-10 0.0 0.0 1.199393e-08 1.673183e-08
0.0 8.177616e-09 1.6689016e-08 1.8739038e-11 5.2794733e-09 2.403215e-08 1.3019533e-08 1.727998e-08
1.5234435e-09 4.172254e-09 4.172254e-09 1.8959472e-09 4.172254e-09 4.172254e-09 0.0056061945 0.005548033
0.007342377 0.0052650436 0.0045333644 0.02639001 0.028472524 0.09227708 0.024607738 0.02669189
0.05183756 0.051732015 0.008071296 0.07793583 0.12122868 0.046034627 0.09861336 0.105923004
0.1019396 0.09397814 0.09700059 0.035027243 0.02906923 0.0058179186 0.038621567 0.0377158
1.6686858e-08 1.581276e-08 2.9798642e-08 1.322817e-08 1.1286499e-08 1.7139879e-06 1.9484569e-06 5.2673636e-06
1.6127295e-06 1.4999389e-06 5.38035e-06 2.259432e-06 4.0483002e-07 5.2156647e-06 9.3485205e-06 8.693493e-07
6.2391377e-06 6.573475e-06 1.17962645e-05 8.827045e-06 2.9873224e-06 2.243175e-06 1.974902e-06 3.7788558e-07
2.4531216e-06 2.3921864e-06 0.0060115703 0.0061347447 0.0076957066 0.005593043 0.0061068465 0.026269704
0.028213002 0.07916236 0.024480725 0.026712298 0.044558894 0.041580666 0.009999831 0.06491987
0.093995325 0.04154558 0.08324943 0.089079924 0.082003064 0.078734726 0.07731858 0.029370604

exp_avg f4 [128]
00000000: 0000 0000 ea9e 743e 0343 823d 4cbb 1c3e
00000010: f89f 2ebb c64b 6f3d 4816 a201 4298 663e
00000020: e579 7230 21ae 983e 8a17 50bd 3410 193e
00000030: 0000 0000 3f15 1b3e f4d4 443e 0b87 863e
00000040: f01f bcbb 0c80 4e34 8dd9 953d b04b adbb
00000050: f799 852f 0000 0000 dc33 413d 0000 0000
00000060: 7ea5 88bb cc12 0dbe 513e 393e 0000 0000
00000070: a5f2 113d 9872 013e ef25 723e 10d8 78be
00000080: a9fc 89b9 0000 0000 1679 eabc 5f87 f73d
00000090: 016c d4b9 8d27 6039 8970 19bc ca35 9d3d
000000a0: 81ab ca3d 1668 163e 9a60 183e 3e89 75be
000000b0: ff37 500b 1dab 2839 b10e 1e0d e84d 863b
000000c0: dd16 01be 6e5d 813e eb01 3e3e c026 0e3e
000000d0: fe76 323e 7e4d 543e 29ce 9b3e 7bd5 b93d
000000e0: e3f7 9f3d 665a 3e3d 2fb1 ac3e 407c 083b
000000f0: 9a5e ee3a 0649 8a3e 98e5 613e e142 933e
00000100: efa4 0a3e 8918 0000 eed7 373e 7ed4 4f3d
00000110: 60ee 1fbe 0000 0000 7eca 473e e555 1515
00000120: 0000 0000 ddba a530 f5b2 0f3e 1360 d4bd
00000130: 0ae4 d3bd 60f9 a83e 3a02 81bd 0000 0000
00000140: a05e 333e 6cd2 d73c 0000 0000 9192 0bbd
00000150: 0000 0000 f0ef 63ba fd84 473e 8844 98bd
00000160: e046 08b9 f2b3 96be 7fc5 0bba e019 a830
00000170: 53d1 a63e 28cc dcb6 0000 0000 d76e a32f
00000180: 8f4b 5d3e 47db b22c 3e9c 6b3e 5956 c7bd
00000190: 66f9 7dbd f86b 68ba 8a6d 97be 1696 443e
000001a0: 6847 683c 7610 a622 a154 b73e cc52 e339
000001b0: 3267 163e 9bcc 8d39 6ec0 bd3d ebff be0e
000001c0: 0e79 073e 7b68 34be da82 ad3e 0000 0000
000001d0: 2a66 e43d 0c37 3c3e 0000 0000 cddd 0a12
000001e0: 0000 0000 e89a 04ac bc61 1f3e 7cd6 923c
000001f0: 20a7 713e 3add c7bc b89f 903d c273 d6bd
0.0 0.23888746 0.06360438 0.15305823 -0.0026645642 0.058421873 5.9541374e-38 0.22519019
8.821231e-10 0.2982035 -0.0508037 0.14947587 0.0 0.15144823 0.1922186 0.26274905
-0.005741112 1.9231828e-07 0.07316885 -0.0052885637 2.4301958e-10 0.0 0.047168598 0.0
-0.004170119 -0.13776702 0.18090178 0.0 0.035631794 0.1264137 0.23647283 -0.24301171
-0.00026318923 0.0 -0.028622191 0.12086367 -0.0004051626 0.00021377039 -0.009365209 0.07676275
0.09895993 0.14688143 0.148806 -0.23978135 4.010147e-32 0.00016085473 4.8705193e-31 0.0040986426
-0.12606378 0.25266594 0.18555419 0.1388197 0.17428204 0.20732686 0.30430725 0.09073921
0.078109525 0.04647293 0.3372893 0.0020826012 0.0018186152 0.27008837 0.2206024 0.28761962
0.1353948 8.802e-42 0.17953464 0.050739758 -0.15618277 0.0 0.19510838 3.015807e-26
0.0 1.205844e-09 0.1403311 -0.10369887 -0.103462294 0.33002758 -0.06299253 0.0
0.17516565 0.026345454 0.0 -0.034075323 0.0 -0.0008695116 0.19484325 -0.07434946
-0.00012996374 -0.29434162 -0.00053318584 1.2230963e-09 0.32581577 -6.580278e-06 0.0 2.9728284e-10
0.21610855 5.083409e-12 0.2300882 -0.097332664 -0.062005423 -0.0008866186 -0.2957576 0.19197878
0.014177181 4.501182e-18 0.35806754 0.00043358502 0.14687803 0.0002704606 0.09265219 4.7085056e-30
0.13229772 -0.17617981 0.33888894 0.0 0.11152299 0.18380374 0.0 4.3818513e-28
0.0 -1.8844318e-12 0.15564626 0.01792454 0.2359891 -0.024397481 0.07061714 -0.10471298

exp_avg_sq f4 [128]
00000000: 0000 0000 909e ec3d c8fe 5f3d 2304 693d
00000010: eb71 5d3a aa57 4f3d 895b 8f32 c2de 223e
00000020: 7b94 3237 4eab 073e 05b9 143c 23e9 c53d
00000030: 0000 0000 3793 843d 0aab c63d 5ca0 953d
00000040: daae 703d b145 9f39 f3e6 013d 5ab3 9a3d
00000050: dadf c237 0000 0000 1fce b83b 0000 0000
00000060: 261b 693c 3d66 7d3d 237c 3d3d 0000 0000
00000070: d02b b93c 637e cc3d ad96 a43d 1469 843e
00000080: fe6b 5435 0000 0000 dad3 3e3d 1951 333d
00000090: 2035 8d38 5db8 5939 4dda 853c 5cd3 563d
000000a0: 179b 423d da9d 833d 59a0 073e 5699 fb3d
000000b0: d160 a136 93e9 4939 99b0 de36 9c85 853d
000000c0: a4f7 9a3d c607 2f3e 7cef e73d af17 643d
000000d0: f26f dc3d 8e79 e83c 245f 103e 41c4 033d
000000e0: 7468 2c3d add4 6c3d 93f0 7c3e 0759 843b
000000f0: ea2a 4439 3f87 023e d529 003e 357b d63d
00000100: 8e59 5d3d c1ee 1337 bc54 0a3e 6452 d03c
00000110: 21d8 133e 0000 0000 e51a 8a3d eb84 8b38
00000120: 0000 0000 3a01 0f39 47bc 643d 92dc ad3d
00000130: ebd9 4f3d 1e7c 0b3e fb3b 963d 0000 0000
00000140: ed7f bc3d 748c 0c3d 0000 0000 ef14 913d
00000150: 0000 0000 ff38 8e39 876c 193e d0e4 0b3d
00000160: aae7 eb37 8dc4 9b3e 292a 3f39 3ba9 6037
00000170: 1ab8 353e bae3 3939 0000 0000 89e0 2637
00000180: 0325 c03d 9eaa 2339 c1d3 e03d 9454 b73d
00000190: 9b8a 223d 09d0 2038 aa3e 7d3e 7000 a73d
000001a0: aad2 9d3c c9fc f336 1f9d 103e e45e 5838
000001b0: a7c3 853d 6d60 cd38 2863 b63d 0d59 2539
000001c0: e224 653d bc6a e03d 54f9 3b3e 0000 0000
000001d0: 60ea 923d da6e df3d 0000 0000 11c9 8637
000001e0: 0000 0000 1637 9737 2698 813d 514c f23c
000001f0: d078 c83d ff3c 583c 9340 c43c e7e4 bf3d
0.0 0.11553681 0.054686338 0.05688871 0.0008447456 0.050620712 1.6689016e-08 0.15905288
1.0644198e-05 0.13248941 0.009077315 0.09663608 0.0 0.064733915 0.09700592 0.07305977
0.0587605 0.00030378767 0.03171439 0.0755374 2.3230841e-05 0.0 0.005639806 0.0
0.014227664 0.06186508 0.046260964 0.0 0.0226039 0.09985044 0.080365516 0.25861418
7.9133304e-07 0.0 0.046588756 0.043778513 6.733299e-05 0.00020763413 0.016339445 0.05244766
0.047511186 0.06426592 0.13244762 0.12285106 4.809445e-06 0.00019255867 6.6366742e-06 0.065196246
0.07566765 0.17092809 0.11324975 0.05568665 0.107635394 0.028378274 0.14098793 0.032169584
0.0420918 0.05782001 0.24701147 0.004038933 0.00018708003 0.12746905 0.12515958 0.104727186
0.054040484 8.817472e-06 0.13508886 0.025429912 0.14437915 0.0 0.06743411 6.6527944e-05
0.0 0.00013638 0.055843618 0.08489336 0.050744932 0.13621566 0.07335659 0.0
0.092040874 0.034313634 0.0 0.07084071 0.0 0.00027126816 0.14982806 0.03415376
2.812206e-05 0.30423394 0.00018230885 1.33908425e-05 0.1774601 0.0001772781 0.0 9.94665e-06
0.093820594 0.00015608451 0.10977889 0.08951679 0.039682966 3.834072e-05 0.24730936 0.0815438
0.019265492 7.2713924e-06 0.14122437 5.1586787e-05 0.06531458 9.7931224e-05 0.08905631 0.000157688
0.055943377 0.10957858 0.1835683 0.0 0.0717361 0.10909815 0.0 1.6067674e-05
0.0 1.8026254e-05 0.06327848 0.029577406 0.09788668 0.013198136 0.023956573 0.093698315

exp_avg f4 [128, 128]
00000000: 0000 0000 fc8a 9cbb 111c 2ebd a4f2 6d3c
00000010: d3b4 3438 4ac7 aebc 52c5 3680 d085 033c
00000020: 8b2e a72f 8e00 90bb bf1e 94bc 1f37 803c
00000030: 0000 0000 3f94 98bc e0be ebbb a1c8 44bc
00000040: 930e f8bc 042a a0ad 5791 b2bc 52dc 96bd
00000050: 0559 d92d 0000 0000 e82a 60ba 0000 0000
00000060: a97f 8bbc 3cd8 48bd fd64 27bc 0000 0000
00000070: 3225 983a 8e7d 16bd 3e10 93bc 6a50 68bd
00000080: bfc3 12b6 0000 0000 e7c3 07bd d085 67bb
00000090: 2916 ee39 b045 c538 72c9 fcbb c444 54bd
000000a0: c8c9 7dbc 683e 793b 87c6 603c aa1b 07bd
000000b0: 2689 0188 0e41 df36 2e1e c988 a8de 19bd
000000c0: f429 e5bc d4b7 46bc 59b4 5f3c 9432 ccbb
000000d0: 2084 eaba 6851 d0bc b0de 62bb 2f37 783b
000000e0: 945a 003c dabe 3abd eb5e 863c 01dc c8ba
000000f0: f3b8 20b9 86d1 ab3c a0d4 493b 32e5 debc
00000100: d636 c9bc 3700 0080 9ba5 4fbc 3bc8 9abc
00000110: 0f4d 38bd 0000 0000 981e e5bc 588b 4292
00000120: 0000 0000 9076 8930 063b b6bc 50bd b6bd
00000130: 03ab 20bd a234 d3bc d0c6 3abd 0000 0000
00000140: 1f58 76bc 226a 88bb 0000 0000 fd31 f0bb
00000150: 0000 0000 ed9a 4db7 24c2 c1bb b986 96bc
00000160: 12ec 76b7 6475 8ebd 5afb adb7 aa99 d42d
00000170: 58a5 62bc 44f0 9735 0000 0000 f0fd 0ead
00000180: c0e8 8f3c 3ccf 47a9 9ce6 663c cef2 c8bd
00000190: 2903 76bc 6e5b ff39 b9f0 7fbd 3271 4c3c
000001a0: 18d3 dabc 0d60 081f 60b4 523b d2af 9db6
000001b0: cc2b 90bb 528b 073a 95de d2bc 8ed4 be8b
000001c0: 2d8a 6c3c 0e7f 8fbd 7230 57bc 0000 0000
000001d0: f0a9 7dbc eebd e33b 0000 0000 03ed 758e
000001e0: 0000 0000 8055 44a8 8c53 9e3c 0024 5437
000001f0: 8069 1a39 1727 18bd 0616 5e3c c545 76bd
00000200: 0000 0000 0000 0000 0000 0000 0000 0000
00000210: 0000 0000 0000 0000 0000 0000 0000 0000
00000220: 0000 0000 0000 0000 0000 0000 0000 0000
00000230: 0000 0000 0000 0000 0000 0000 0000 0000
00000240: 0000 0000 0000 0000 0000 0000 0000 0000
00000250: 0000 0000 0000 0000 0000 0000 0000 0000
00000260: 0000 0000 0000 0000 0000 0000 0000 0000
00000270: 0000 0000 0000 0000 0000 0000 0000 0000
00000280: 0000 0000 0000 0000 0000 0000 0000 0000
00000290: 0000 0000 0000 0000 0000 0000 0000 0000
000002a0: 0000 0000 0000 0000 0000 0000 0000 0000
000002b0: 0000 0000 0000 0000 0000 0000 0000 0000
000002c0: 0000 0000 0000 0000 0000 0000 0000 0000
000002d0: 0000 0000 0000 0000 0000 0000 0000 0000
000002e0: 0000 0000 0000 0000 0000 0000 0000 0000
000002f0: 0000 0000 0000 0000 0000 0000 0000 0000
00000300: 0000 0000 0000 0000 0000 0000 0000 0000
00000310: 0000 0000 0000 0000 0000 0000 0000 0000
00000320: 0000 0000 0000 0000 0000 0000 0000 0000
00000330: 0000 0000 0000 0000 0000 0000 0000 0000
00000340: 0000 0000 0000 0000 0000 0000 0000 0000
00000350: 0000 0000 0000 0000 0000 0000 0000 0000
00000360: 0000 0000 0000 0000 0000 0000 0000 0000
00000370: 0000 0000 0000 0000 0000 0000 0000 0000
00000380: 0000 0000 0000 0000 0000 0000 0000 0000
00000390: 0000 0000 0000 0000 0000 0000 0000 0000
000003a0: 0000 0000 0000 0000 0000 0000 0000 0000
000003b0: 0000 0000 0000 0000 0000 0000 0000 0000
000003c0: 0000 0000 0000 0000 0000 0000 0000 0000
000003d0: 0000 0000 0000 0000 0000 0000 0000 0000
000003e0: 0000 0000 0000 0000 0000 0000 0000 0000
000003f0: 0000 0000 0000 0000 0000 0000 0000 0000
0.0 -0.0047773104 -0.042507235 0.014523182 4.308375e-05 -0.021335263 -5.029902e-39 0.008027509
3.0410194e-10 -0.0043945974 -0.018081067 0.015651284 0.0 -0.018625377 -0.007194385 -0.012010724
-0.030280387 -1.8208553e-11 -0.021797819 -0.073662415 2.4709576e-11 0.0 -0.00085513154 0.0
-0.017028647 -0.049034342 -0.010216949 0.0 0.0011607765 -0.036740832 -0.01795208 -0.056717314
-2.1869635e-06 0.0 -0.03314581 -0.0035327561 0.00045411408 9.406672e-05 -0.007714444 -0.051823393
-0.015490003 0.0038031582 0.013719208 -0.032985367 -3.8980743e-34 6.6534913e-06 -1.2104343e-33 -0.037565857
-0.027974106 -0.012128789 0.013653838 -0.0062316153 -0.001789216 -0.025429443 -0.0034617595 0.003787469
0.0078340955 -0.045592166 0.016402682 -0.0015324355 -0.00015327688 0.020973932 0.00307969 -0.027208898
-0.02456228 -7.7e-44 -0.012673761 -0.018894305 -0.044995364 0.0 -0.02796869 -6.138736e-28
0.0 1.0001759e-09 -0.022244941 -0.08922827 -0.03922559 -0.025781933 -0.04559976 0.0
-0.015035658 -0.0041630426 0.0 -0.007330178 0.0 -1.2255024e-05 -0.005913036 -0.018374788
-1.4717707e-05 -0.06955984 -2.0740252e-05 2.416985e-11 -0.013833366 1.1320303e-06 0.0 -8.128151e-12
0.017567039 -4.4366624e-14 0.0140930675 -0.09811936 -0.015015402 0.0004870551 -0.06248543 0.01247816
-0.026711985 2.887857e-20 0.003215097 -4.699433e-06 -0.0043997522 0.00051706017 -0.025740901 -7.3505155e-32
0.014437241 -0.07006656 -0.013134109 0.0 -0.015482411 0.0069501316 0.0 -3.0312699e-30
0.0 -1.08987255e-14 0.019326948 1.2644567e-05 0.00014725886 -0.037146654 0.0135550555 -0.06012513
0.0 0.0 0.0 0.0 0.0 0.0 0.0 0.0
0.0 0.0 0.0 0.0 0.0 0.0 0.0 0.0
0.0 0.0 0.0 0.0 0.0 0.0 0.0 0.0
0.0 0.0 0.0 0.0 0.0 0.0 0.0 0.0
0.0 0.0 0.0 0.0 0.0 0.0 0.0 0.0
0.0 0.0 0.0 0.0 0.0 0.0 0.0 0.0
0.0 0.0 0.0 0.0 0.0 0.0 0.0 0.0
0.0 0.0 0.0 0.0 0.0 0.0 0.0 0.0
0.0 0.0 0.0 0.0 0.0 0.0 0.0 0.0
0.0 0.0 0.0 0.0 0.0 0.0 0.0 0.0
0.0 0.0 0.0 0.0 0.0 0.0 0.0 0.0
0.0 0.0 0.0 0.0 0.0 0.0 0.0 0.0
0.0 0.0 0.0 0.0 0.0 0.0 0.0 0.0
0.0 0.0 0.0 0.0 0.0 0.0 0.0 0.0
0.0 0.0 0.0 0.0 0.0 0.0 0.0 0.0
0.0 0.0 0.0 0.0 0.0 0.0 0.0 0.0
