models/reinforce/reinforce_baseline/checkpoint_ep300.pth (torch, 259594 bytes, 18 tensors)

network.0.weight f4 [128, 26]
000000 d2 aa 97 3d 17 38 0a 3e f3 80 ab bd 50 15 96 bc
       0.07405628 0.13497959 -0.083742045 -0.01832071
000010 40 ca bf 3c 7b 6d 13 3e 98 8d cd bc 86 ba 83 bd
       0.02341187 0.14397232 -0.025091931 -0.06432061
000020 e4 39 16 be 61 a9 2a be 70 c6 d9 3c 28 2a 0d 3d
       -0.14670521 -0.16666175 0.02658388 0.03446403
000030 b0 a2 e2 3c d4 0d 29 be fb ff 0f be 20 78 62 3c
       0.027665466 -0.16509181 -0.14062493 0.013822585
000040 38 2c 13 bd 90 9c 06 bc 66 2d 97 bd 02 28 86 3d
       -0.035930842 -0.008216038 -0.07381706 0.065506
000050 80 54 f9 bb c0 12 c2 bd 9a 61 f6 3d f7 75 2b 3e
       -0.00760895 -0.094762325 0.12030335 0.16744219
000060 e0 2c 0e bd b4 ed e9 bd 8d d6 0a be 40 27 1e be
       -0.034710765 -0.114222914 -0.13558407 -0.1544466
000070 e5 36 be bd 9a 6f 33 be 38 67 bd bd 17 5c 35 3e
       -0.09287814 -0.17523041 -0.09248203 0.1771091
000080 0d d6 e2 bd 0a ab 02 3e 8e 50 7e bd 09 64 44 be
       -0.11075983 0.12760559 -0.06208854 -0.19178785
000090 2a 21 5a 3d 69 2f 09 3e 56 3f bd bd 6a 2d 4e 3d
       0.053254284 0.13396992 -0.09240596 0.05033628
0000a0 7f 05 37 3e a7 6e 8d bd 6e 30 e9 3d 76 8f fc bd
       0.1787319 -0.06905871 0.1138619 -0.123320505
0000b0 bf 38 3f 3e c3 86 89 bd 09 b2 bb bd 9d 2a 2d 3e
       0.1867399 -0.06715157 -0.09164817 0.16910787
0000c0 c0 a7 09 3e 33 79 d3 3d 36 ae 53 3e db 6c cc bc
       0.13442898 0.10325851 0.20671925 -0.02495425
0000d0 08 62 0d be a4 58 05 be ac 82 c8 3c 84 05 ca bb
       -0.13806927 -0.13022095 0.024476372 -0.0061652083
0000e0 63 2d 1d 3e 1d 90 2f 3e ee e2 f0 3b 58 a1 12 3e
       0.15349345 0.17144819 0.007351271 0.1431936
0000f0 bc b4 21 3e 4c 85 ec bd e0 18 4a 3e 7a bc cf bd
       0.15791601 -0.11548862 0.19736052 -0.10143371
000100 e9 9e 0a be 18 ea 3f 3e 59 4a 77 3e f0 bb 52 3d
       -0.13537182 0.18741643 0.24149455 0.051448762
000110 e7 89 f9 3d 15 47 87 bd c2 a1 4b bc 6e ef 41 3e
       0.12184506 -0.06605355 -0.012428703 0.18938991
000120 3e 57 40 3e 93 03 cb bc ac 0b f6 3d 62 81 9e 3d
       0.1878328 -0.024781978 0.12013945 0.077395216
000130 43 7f 12 3e d3 4b 5a bd 3e d2 65 bc 6b 60 1b 3e
       0.14306359 -0.053294968 -0.014027176 0.151735
000140 21 f3 49 be 69 38 6f be b3 4e 9c bd 23 a0 4b 3d
       -0.19721653 -0.23361363 -0.07632198 0.049713265
000150 c5 4a 4a be ff a5 33 bd 49 3e 62 be ea 3d 82 bc
       -0.19755085 -0.043859478 -0.22094072 -0.015898664
000160 ee 80 12 3e 4c 9a 42 3e 05 ec 64 be 75 63 8c 3d
       0.14306995 0.19004172 -0.2235566 0.068549074
000170 e4 ad 92 3d 6a 3b 71 bc 39 8d 87 bd 19 66 4a 3e
       0.07162073 -0.014723638 -0.06618733 0.1976551
000180 c4 8e 53 3e 27 25 2f 3e 06 4e 05 3d ae 5d 0e 3e
       0.2065993 0.17104016 0.032545112 0.13902923
000190 26 53 25 bd a0 12 5d 3d 69 e4 b7 3d 36 4f dd 3d
       -0.0403625 0.05397284 0.08979113 0.10806124
0001a0 dd 5c a6 3d 4a f0 2f 3e a9 48 a9 bd 39 c3 18 3e
       0.08123181 0.17181507 -0.08265812 0.14918222
0001b0 fe f7 cf bd 0a d1 2e be da 8c 30 be c1 13 73 bd
       -0.10154723 -0.1707193 -0.1724123 -0.05934501
0001c0 88 2c ba 3d 46 7c 3f bd 8f d5 45 be b4 d7 a3 bc
       0.09090525 -0.046749376 -0.19319747 -0.020000316
0001d0 75 bf 2b 3e 00 92 a9 3c b2 05 2b 3e d3 59 48 be
       0.16772254 0.020699501 0.16701391 -0.19565515
0001e0 ff a2 1e be 63 0c 96 3d ee b9 1c 3e ef 76 6e bd
       -0.15491866 0.07326581 0.15305302 -0.058218893
0001f0 13 19 2b be 13 df df bd 5d fa 3a be 1b 84 b7 bc
       -0.16708784 -0.1093122 -0.18259569 -0.02240186
000200 8a 2e 82 bc aa 91 a4 bd db 87 2d be 90 b1 e5 3d
       -0.015891332 -0.08035596 -0.16946356 0.11215508
000210 99 88 60 bd 9e 0d 25 be a5 75 b8 bd 9d ba 28 3e
       -0.05481777 -0.16118476 -0.09006814 0.16477437
000220 b6 c6 d0 3d d0 ed 1c 3d 00 aa 24 3d 2c 90 61 3d
       0.10194151 0.038312733 0.040201187 0.055069134
000230 ff c7 89 3d 7b de 17 3e d7 eb d4 3c cf 54 18 3e
       0.06727599 0.14830963 0.025991363 0.14876102
000240 6f 96 24 3e f7 f8 16 bd 49 3d 4a 3d 3f f5 48 3d
       0.16073011 -0.036858525 0.049374852 0.04906201
000250 f2 8a 22 be 3e 7d 0d 3e fc 35 eb 3d cc 22 57 bb
       -0.15873316 0.13817307 0.11484906 -0.0032827137
000260 83 c5 1c be e4 4d 01 be a0 14 26 bd 5e 60 17 be
       -0.1530972 -0.12627369 -0.040547013 -0.14782855
000270 f2 a9 ec 3d bd f6 9c bd 71 26 de 3d 16 2d f1 3d
       0.11555852 -0.07664249 0.10847176 0.117761776
000280 c2 99 87 bd ac 6c 29 be d5 15 e2 bd f4 9b 50 be
       -0.06621124 -0.16545361 -0.110393204 -0.20371991
000290 ca b9 ef bd 27 57 34 be 47 0a 28 3d 0c 06 0e 3e
       -0.11705358 -0.17611371 0.041025426 0.13869494
0002a0 73 5f 03 3e 48 f0 04 be 61 9e 2f be 35 ce 06 be
       0.1282938 -0.12982285 -0.1715026 -0.13164599
0002b0 dc c6 4f be 61 0d 2c 3e a0 14 2c bd a0 7f 37 3d
       -0.20290703 0.16801979 -0.042011857 0.044799447
0002c0 0a 4a 92 bc 52 54 ff 3d 0a 5a 78 bd b8 2e 82 bc
       -0.01785757 0.12467255 -0.060632743 -0.015891418
0002d0 4c fa 84 3c b6 52 12 3e 8e 4f 4f be 1b e3 13 3e
       0.016232632 0.14289364 -0.20245191 0.14442103
0002e0 2b 35 10 3d 35 60 b5 bd 4f 74 55 be e3 63 38 3d
       0.035206955 -0.08856241 -0.2084515 0.045017134
0002f0 99 e8 d7 bd 32 b9 71 3d a9 e0 4e be 76 a4 dd 3d
       -0.10542411 0.059014507 -0.20202889 0.10822384
000300 38 74 0b be 47 0a 78 3d e8 2f 1c be 28 17 09 3e
       -0.13618553 0.060556676 -0.1525265 0.1338774
000310 2e 7d 05 bd 8d 2e 42 be eb 38 e2 3c ea 0d b9 bd
       -0.032590084 -0.1896307 0.027615031 -0.09035857
000320 42 dc 61 3e f3 98 06 be 0b 97 2c 3e ec 56 e9 3d
       0.22056678 -0.13144283 0.16854493 0.11393532
000330 ae c1 93 3d a9 7f 7a 3e e3 92 28 3e 80 79 f3 3d
       0.07214676 0.24462761 0.16462283 0.11888409
000340 ab fe 25 be 13 11 39 be af 21 fe bd 7e 12 e4 bc
       -0.1621043 -0.1807292 -0.124087684 -0.027840849
000350 a7 40 15 3e 38 32 99 bc 9a cb 1c 3e c0 2b 56 bd
       0.14575444 -0.018700704 0.15312043 -0.052287817
000360 27 e2 08 3e c6 2c bc bd cc 00 e3 3d 15 cd 17 be
       0.1336752 -0.09188227 0.11084136 -0.14824326
000370 1b 1d 3c bc 69 83 4c be 6a ae d4 3d b7 be 45 be
       -0.011481549 -0.19972004 0.10384829 -0.19311033
000380 9a e6 42 bd 4a 43 09 be 69 68 33 3e 20 63 c5 3d
       -0.0475832 -0.13404575 0.17520298 0.09638047
000390 af 91 41 be 89 ee ed 3d 5b 1e eb 3d 0c 95 b9 3b
       -0.1890323 0.116177626 0.11480399 0.0056635197
0003a0 34 70 42 bd 23 4d b8 bd e7 91 85 3d 0f 7d 5b 3d
       -0.047470286 -0.08999088 0.06521969 0.053586062
0003b0 53 95 4e bc 2b 16 0b be a1 55 a8 bd 43 fc 95 3d
       -0.012608844 -0.13582675 -0.082194574 0.07323506
0003c0 9e e0 47 be 94 93 04 3e be eb ff bd 6f 05 60 bd
       -0.19519278 0.12946922 -0.12496136 -0.054692682
0003d0 9f cf c9 bc 2c e9 4e 3d 6d c2 59 3c 39 70 4a 3d
       -0.024635134 0.05051534 0.013290984 0.04942343
0003e0 6e f3 1e bd 8d 80 fc bd f1 14 c8 bd bd e4 18 3e
       -0.03880637 -0.123292066 -0.09769619 0.14931007
0003f0 39 47 dc bd 70 53 fd 3c 87 7f ca 3d 19 c4 3f 3d
       -0.10755772 0.030923575 0.09887605 0.046817873

network.0.bias f4 [128]
000000 00 d7 99 3c 02 86 37 3e ba ed ca 3d 6c 63 f8 3d
       0.018779278 0.17922214 0.09908624 0.12128338
000010 8d 6c 52 3d 9d 0d 5e 3e 81 42 49 be 62 22 18 3d
       0.051373053 0.2168488 -0.19654275 0.037142165
000020 7f db 11 be fb 50 23 bd 75 b6 16 3e e6 e4 96 bd
       -0.14243887 -0.03987215 0.1471804 -0.07367878
000030 d0 3e 59 3c d7 07 a2 bd 0c 36 26 3e 48 24 1d 3c
       0.013259605 -0.079116516 0.16231555 0.00959117
000040 61 90 5e 3e 1d db 7a 3d cf 7f 93 3d 3d 88 05 3d
       0.21734764 0.06124412 0.07202112 0.03260063
000050 60 87 38 be d8 f8 35 be b4 1b 89 3d 8c 4d 33 be
       -0.18020391 -0.17770708 0.06694737 -0.1751005
000060 d2 a0 fe bd 29 e6 d0 3c aa e6 39 3e c6 f6 de 3d
       -0.12433018 0.025500374 0.18154398 0.10886912
000070 2d 16 ce bb 37 31 a6 3c 97 e6 50 3e 10 d7 2f 3e
       -0.0062892647 0.02028714 0.20400463 0.17171884
000080 7d 76 1b 3e c0 2a b9 bc a9 80 fa 3d a1 ab 4d 3e
       0.15181918 -0.022603393 0.12231571 0.20085002
000090 7f be 11 3e 1c 9a 4b 3c 8e 72 13 3e 66 ca 42 3e
       0.14232825 0.012426879 0.14399168 0.19022521
0000a0 aa 5a 58 bb 0c 78 8e 3d da ec ca bc a9 02 21 be
       -0.0033013024 0.06956491 -0.024771143 -0.15723671
0000b0 5d 3e 92 3d 3b 88 a9 bd 3f b5 e2 bc 14 51 31 3e
       0.07140801 -0.08277937 -0.027674315 0.17316085
0000c0 c4 81 3a 3e b1 8e 1e bd 19 b4 a8 3d 91 ab 11 3e
       0.18213564 -0.0387103 0.08237476 0.14225604
0000d0 a0 81 4a 3e e5 48 18 be a1 28 23 be 82 c2 84 3c
       0.1977601 -0.14871557 -0.15933467 0.01620603
0000e0 45 a0 ef 3d 92 d5 e5 3d 34 6a ed bb 2e 31 bd bb
       0.11700491 0.11222376 -0.0072453264 -0.005773685
0000f0 e7 65 b6 bc b5 87 ef 3d 39 d5 c6 3d 20 1e 4b 3e
       -0.022265388 0.11695806 0.09708638 0.1983571
000100 49 5e aa 3d f7 fe 6e 3b f4 4c f0 3d 0f ab 24 3e
       0.08318765 0.003646789 0.11733428 0.16080879
000110 74 1d 54 be 02 3b ec bd 67 92 06 3e f6 79 0b be
       -0.2071436 -0.11534692 0.13141786 -0.13620743
000120 c4 f0 0e be bf 08 f0 bd 88 38 12 3e 68 c8 2e 3e
       -0.13959032 -0.11720418 0.14279377 0.17068636
000130 1e 08 26 be 44 e6 25 3e eb ca 30 3e eb 83 bf bd
       -0.16214034 0.1620112 0.17264907 -0.09351333
000140 fa aa 9f bd 43 4d 0f 3c 50 47 c8 bc c6 93 2d be
       -0.07796283 0.008746448 -0.024448067 -0.16950902
000150 d3 6e 28 3e 42 e6 db bc 56 24 04 3e 7f a6 18 be
       0.16448526 -0.026843194 0.12904486 -0.14907263
000160 57 16 27 be 21 b6 3c 3e f1 34 3a 3e 8d cb 38 bc
       -0.16317116 0.18428852 0.18184258 -0.011278999
000170 3e e7 70 bd 40 18 3f be 99 96 de bd b4 cd b0 bd
       -0.05881428 -0.18661594 -0.10868568 -0.08632985
000180 a1 60 01 be bc b5 00 3c b8 5c db bc 4c 1b 61 3d
       -0.12634517 0.007855829 -0.02677761 0.054957673
000190 d4 04 26 be 80 cd d7 bd 5f d7 4a 3e 40 bd 22 be
       -0.1621278 -0.10537243 0.1980872 -0.15892506
0001a0 fb 71 a9 bd ce f1 95 bd b7 52 82 bc 54 fa 40 bc
       -0.08273693 -0.07321511 -0.015908582 -0.011778433
0001b0 2e d0 44 3d 51 f5 43 3e 9b bf ae bd a6 05 0b be
       0.048050098 0.1913655 -0.085326396 -0.13576373
0001c0 e0 3b 0e 3e ef 0f 11 be 1e f9 17 3e 4a 90 42 be
       0.13890028 -0.14166234 0.14841124 -0.19000354
0001d0 c4 49 1e 3e 2c 45 2f 3e 30 88 4d 3d 01 a5 01 be
       0.15457827 0.1711623 0.050178707 -0.126606
0001e0 01 e5 ff bd f4 a9 66 bd e5 3f 83 bd 16 4a 06 be
       -0.12494851 -0.056314424 -0.06408671 -0.13114199
0001f0 fc 82 10 be 23 b1 4c 3e 0a d7 e8 ba ec 85 d9 3d
       -0.14112467 0.19989447 -0.0017764282 0.10621247

network.2.weight f4 [128, 128]
000000 3a 3a 71 3d c6 71 91 3d c6 3e e9 ba 03 65 1a 3c
       0.05889342 0.07101779 -0.0017795197 0.009423497
000010 8e 8c 8b bd e0 fb ac 3d eb af 19 3d ba 53 14 bd
       -0.06813918 0.08446479 0.037521284 -0.03621266
000020 5c 42 8d bd 44 fb 49 bc 9f 45 7d bd 1b d0 2e 3b
       -0.06897423 -0.012327973 -0.061833974 0.0026674333
000030 4c 34 96 bd 3c 1b b4 3d 0b 43 8d 3d 3d ec 33 bc
       -0.073341936 0.08794257 0.06897553 -0.010981617
000040 7b a1 10 3d a7 8b 1b 3d c5 21 ba bc 92 2f 72 3d
       0.03531025 0.03797498 -0.02272118 0.059127398
000050 e5 b5 36 bd 15 d2 a6 bd 81 1c cd 3c 00 66 18 ba
       -0.044607062 -0.08145539 0.025038006 -0.0005813539
000060 92 d9 e8 3c ed d9 15 3c e1 86 be bc ca d5 9d bd
       0.028424058 0.009146196 -0.023257675 -0.07706793
000070 92 2b 8b 3d 04 7f 83 3d 99 03 87 3a 47 42 33 3d
       0.0679542 0.06420711 0.0010300755 0.04376438
000080 22 a6 40 3d a8 b7 bd 3c b8 34 2f 3d cf 51 5f 3d
       0.047033437 0.023158863 0.042774886 0.054521378
000090 95 7f 8e 3d 92 64 10 3d 81 58 8a bc 26 a6 f6 3d
       0.06957928 0.03525216 -0.016887905 0.12043409
0000a0 54 2e 27 bd 42 54 d9 3d df 6d e9 3b 45 92 67 3d
       -0.040815666 0.10611774 0.0071236934 0.056535978
0000b0 41 f4 36 3c c9 49 df bd df 23 e4 bc d7 40 33 3d
       0.011166633 -0.10902745 -0.027849136 0.043763008
0000c0 e5 9e 34 bd 60 79 da bb 45 16 82 3d ea 04 62 3d
       -0.044096846 -0.006667301 0.06351904 0.055180468
0000d0 12 91 05 3c 89 93 b6 3c bb 88 8d 3d 31 e6 fb bc
       0.008152263 0.022287147 0.06910845 -0.030749412
0000e0 af 48 75 3d 5b 6e 5b 3d 72 2a 99 3d 8a 77 ba 3c
       0.05988377 0.05357204 0.07478799 0.022762079
0000f0 7d fc 5b bd 3f e7 6c 3d ec 17 08 bc d2 25 5b 3d
       -0.05370759 0.05783772 -0.008306485 0.053502865
000100 db 18 4f bc 1a 8b 92 bd 54 90 d3 bb 30 38 5e bc
       -0.012640203 -0.07155438 -0.0064564142 -0.013563201
000110 16 ac 0f bd 9a bb 30 3d 9c 75 2e bc 03 71 f6 bd
       -0.035076223 0.04314766 -0.010648157 -0.12033274
000120 c8 4e a2 bc 21 06 f7 3a 4e 4f ad 3d ff bf d0 3d
       -0.019812956 0.0018846431 0.08462392 0.1019287
000130 1c 89 1c 3d 7a 8c 0b bd 39 1c d6 bc 7e 04 7e 3d
       0.038216695 -0.034069516 -0.026136504 0.062016003
000140 bf 01 82 3d 21 70 a1 3d cc d9 aa bd 79 75 36 3d
       0.06347989 0.07882715 -0.08342323 0.044545624
000150 ad dd 86 bd bb f2 ef 3c 9a 5c 51 3d 4c ad 16 bc
       -0.0658525 0.029290548 0.051113702 -0.009196591
000160 63 b6 b5 3c 36 47 79 3d 9b 03 13 bd b3 0f 5b bd
       0.022181695 0.060858928 -0.03589211 -0.05348177
000170 29 81 5f bd 89 05 a7 3c ce 64 3f 3d 7f 9c 07 3d
       -0.054566536 0.020388382 0.046726994 0.03310823
000180 aa 41 4f 3d a5 20 e7 bc 8c 02 c4 bc 9d 27 c5 3d
       0.05059973 -0.028213808 -0.023926996 0.09626696
000190 37 4b b8 3c e9 37 08 bb 56 af 8c 3d ea c6 ba 3d
       0.022496803 -0.0020785278 0.0686938 0.09119971
0001a0 a5 0d 3d 3d ec 74 34 3d c6 cc c0 3c d3 a6 a5 3c
       0.04615559 0.044056818 0.023535144 0.02022115
0001b0 2e e1 36 3d dc 1a 3d bd a4 91 a1 3c 2c aa 58 3d
       0.04464834 -0.046168193 0.019722767 0.052896664
0001c0 f0 e2 7d 3d e1 d0 70 3b fb 08 2d 3b 75 75 a3 3d
       0.061984003 0.0036745595 0.0026403058 0.079813875
0001d0 38 fa 31 3d 7e 7d 07 3d b9 d0 3a bd 74 e3 ed 3c
       0.043451518 0.033078663 -0.04560921 0.029039122
0001e0 08 93 0e 3d a9 2f 4a 3c 0e ee a9 3d 04 13 17 3d
       0.03480819 0.012340465 0.082973585 0.03688337
0001f0 ff bf 77 bc 30 ac 08 3d 5e 39 b3 bc fd e3 eb ba
       -0.015121459 0.033367336 -0.02187794 -0.0017997023
000200 0c b5 9b 3c b8 15 9f bc 6a a3 ab bd b4 b4 fa bc
       0.019007228 -0.019419536 -0.08380778 -0.030603744
000210 41 d9 a9 bd 52 f7 2b bd 40 bb d1 bc 58 92 4e bc
       -0.08293391 -0.04198391 -0.025601983 -0.012608133
000220 18 db 97 bc ec 2d 54 bd 1d c1 b3 3d 22 e0 44 3d
       -0.01853709 -0.051801607 0.08777068 0.048065312
000230 b8 39 96 bc 83 1b 92 bd c4 25 8f 3c 20 6f f9 bb
       -0.01833807 -0.07134154 0.017474063 -0.007612124
000240 7e 9b 6f bd 0c 8e ac bd e5 ca a3 3d 98 6d c3 3c
       -0.0584979 -0.08425531 0.079976834 0.02385597
000250 e0 6a 95 bc ec 96 ab bd ce 54 95 bd 3c 07 cc 3c
       -0.018239439 -0.083783954 -0.07291566 0.024905793
000260 ad 44 82 bd dc 5c ea bc ef 03 81 3d 3e ff 66 3d
       -0.06360755 -0.028608732 0.062995784 0.05639576
000270 c4 c0 69 bd e0 06 ac 3c 1b d0 a8 3d aa a5 69 3d
       -0.0570686 0.020999372 0.08242818 0.057042755
000280 66 f3 1d 3d ee a4 20 3d b7 c1 8d bd c4 7d e5 bc
       0.0385622 0.03921979 -0.06921714 -0.028014071
000290 ec f4 9f bc ec ef 10 3d 3c 32 9a 3c 20 bc 17 bc
       -0.019525968 0.035385057 0.018822782 -0.009261161
0002a0 74 60 d2 3c 78 b1 74 bc 25 9a b2 3d 93 26 ad bd
       0.025680758 -0.01493489 0.08720807 -0.08454623
0002b0 63 aa 84 3d 2c 90 78 bd ea a0 32 bd 30 ed 8f bb
       0.06477811 -0.060684368 -0.04361049 -0.0043922886
0002c0 5c 0c ac bd 00 6f 99 bd e3 96 1c bd 20 74 e3 3b
       -0.08400795 -0.07491875 -0.038229834 0.0069413334
0002d0 e8 3a dc bc 4b 5d 98 3d 14 a5 8f bd b0 84 3e 3c
       -0.026883557 0.07439669 -0.07013908 0.011628315
0002e0 f4 5a b4 bc b2 b7 68 3d 07 49 3a bd b7 4d 5b bd
       -0.022016026 0.05681581 -0.0454798 -0.05354091
0002f0 7e 24 3b 3d 40 f2 0d bd 20 01 4e 3b 86 ae 61 3d
       0.0456891 -0.034654856 0.0031433776 0.05509808
000300 be 22 5c bd 88 2f 80 bd cc 1f b1 bd 20 f0 9b 3c
       -0.05374407 -0.06259066 -0.08648643 0.019035399
000310 10 ed ec 3b 78 d7 92 3c eb 94 af 3d 23 b7 a7 3d
       0.0072304085 0.01792501 0.08573326 0.081892274
000320 81 f6 aa 3d 5f 1c 09 bd 61 72 38 bd 10 f8 69 bd
       0.08347798 -0.033474322 -0.045030955 -0.057121336
000330 c0 b9 a7 bc 09 e0 1f bd 38 fa cb 3c 2e a3 21 3d
       -0.020474315 -0.039032016 0.024899587 0.03946226
000340 31 0e 75 bd ea f7 0c bd b2 2c 22 3d f4 50 13 3d
       -0.059827987 -0.034416117 0.039593406 0.035965875
000350 d2 15 29 3d b0 58 42 bc a3 47 42 bd 41 05 27 bd
       0.041280575 -0.011861965 -0.0474316 -0.040776495
000360 28 54 6d bc 03 06 ae 3d 22 47 13 3d 07 c2 ae bd
       -0.014485396 0.084972404 0.03595651 -0.085331015
000370 ad f5 8c bd ea 9d 4c 3d 00 b4 22 bc d8 02 21 3c
       -0.068827964 0.049955286 -0.009930611 0.009827338
000380 fc b0 87 bd c0 b6 42 3c 67 ca 9f bd dd 1d 44 bd
       -0.06625554 0.011884391 -0.07802277 -0.047880042
000390 16 82 00 3d f1 45 a5 3d 7c d9 a8 bc bc 98 88 bc
       0.03137406 0.08069981 -0.020611517 -0.016674392
0003a0 d8 0a 8e bd 10 85 b4 bd 71 3b 13 bd 0f 0f 9b bd
       -0.06935662 -0.08814442 -0.03594536 -0.075712316
0003b0 f0 e0 66 bc 88 07 ad bd 26 98 1e bd 3b 52 ae 3d
       -0.014091715 -0.08448702 -0.03871932 0.08511778
0003c0 68 50 45 bc 30 19 47 bc 44 b7 ee 3c f0 dd ed bb
       -0.012043096 -0.012152001 0.029140122 -0.007259123
0003d0 a8 a9 02 3d 98 4c 08 bc a8 a0 53 3c fe 72 1a bd
       0.031900078 -0.008319043 0.012916721 -0.03770732
0003e0 ff e8 83 3d 33 8b 9d bd 4e a0 2f 3d c2 85 46 3d
       0.06440925 -0.07692566 0.042877488 0.048467405
0003f0 bc 0e cc bc 8c df ee bc 5c e4 a7 bc e0 d8 94 bd
       -0.02490937 -0.02915933 -0.020494632 -0.07267928

network.2.bias f4 [128]
000000 48 4f 94 3d a3 3e 8a 3d 1f 7a bc bd 00 9f 4c bd
       0.07241684 0.06750228 -0.0920298 -0.04995632
000010 5e 1d d0 3d fa 75 4b 3d cf c2 15 bd 78 98 2f bc
       0.10161851 0.049673058 -0.036562737 -0.010717504
000020 c2 3d 4e 3d 44 94 55 3d d3 2b 8e 3d 7e 84 a4 3d
       0.050351866 0.05214335 0.069419526 0.080330834
000030 70 9a 0b bd 2a a6 63 3d 2e 8a 04 bd 9e 19 9a 3d
       -0.03408283 0.05557839 -0.03235834 0.07524417
000040 43 0a 1a bd 83 46 07 3d 66 09 a8 bd c0 df a7 bd
       -0.037607443 0.03302623 -0.082049176 -0.08196974
000050 19 da 2b bd 0b 0e b6 3c 2f b6 b0 3c 4d 46 fe bc
       -0.04195604 0.022223493 0.021571247 -0.031039381
000060 0e db ca 3a c3 59 02 bd 9d 1c 57 3c e8 35 f4 bc
       0.001547666 -0.031823885 0.0131293805 -0.02981086
000070 01 71 03 bd 60 9d 14 bd 15 b9 98 3d b2 32 a5 3d
       -0.03209019 -0.036282897 0.074571766 0.0806631
000080 91 2d 82 bd b6 76 6a 3d 91 05 e8 3d ae fa 2f 3d
       -0.06356347 0.057242118 0.11329187 0.042963676
000090 dc 4e 92 bd 36 e4 3a 3d 3c 4f 49 bd 30 cb 4b bd
       -0.071439475 0.045627795 -0.04914783 -0.04975432
0000a0 eb 60 72 3c 00 f0 a7 3d 8e da 6d 3d 55 59 0f bd
       0.014793615 0.08200073 0.058069758 -0.034997303
0000b0 00 a5 15 3d 9e 08 b0 3d 6e 30 dd 3b c4 90 2e bd
       0.03653431 0.085953936 0.006750158 -0.042618528
0000c0 bb 35 2b 3d 9f 0e 8e 3d ae 33 84 bc 62 f7 1b 3d
       0.04179929 0.069363825 -0.016137924 0.03807772
0000d0 68 19 98 bd 48 b0 80 bd dc 7c b3 bd df 80 24 3d
       -0.07426721 -0.06283623 -0.087640494 0.040161964
0000e0 90 52 26 bc d4 58 8c bd f0 8d 63 3c 49 09 41 bd
       -0.01015152 -0.0685288 0.013888821 -0.047127996
0000f0 66 33 09 3d 58 db 97 3c 88 ee c6 3d 41 20 a3 3d
       0.033496283 0.018537208 0.09713465 0.07965136
000100 e7 bc e9 3d b1 ea 69 3d 56 ec e2 bc 13 65 1c 3d
       0.114129834 0.057108585 -0.027700584 0.03818233
000110 a7 d4 a5 3d 22 2f b5 bc 67 b8 91 3d b8 6c 91 bd
       0.08097201 -0.022117201 0.0711525 -0.071008146
000120 a0 3d 16 3c 78 e2 0e 3d 34 7a ed bc c9 93 41 bd
       0.009169966 0.034883946 -0.028988935 -0.04726008
000130 c1 93 b1 3d 94 a6 27 bc 66 18 e0 3c 68 7e 7f bd
       0.0867076 -0.010232586 0.027355384 -0.06237641
000140 e0 6f 00 3d 18 48 ea ba 2f 73 bf 3d ea 9e b2 b9
       0.031356692 -0.0017874269 0.093481414 -0.00034069206
000150 09 ab a2 bd f2 db 60 3d 06 48 d1 bc 61 ef 13 3d
       -0.079427786 0.054897256 -0.025547039 0.03611696
000160 e4 9c 50 3d 1f 23 a3 bc 6b e8 90 3d 25 37 54 bd
       0.050930873 -0.019914208 0.0707558 -0.051810402
000170 df b2 4d 3d 0a 65 ac 3c 77 40 be 3c c2 0f a5 bd
       0.050219413 0.021044273 0.023224099 -0.08059646
000180 bb 46 59 ba df d2 c4 3a 6b 33 8f 3d 38 d4 52 bc
       -0.0008288433 0.0015016458 0.06992229 -0.01286798
000190 1c d9 c9 3d 48 2d 0e 3d 8e 4d 89 3d 91 f4 45 bd
       0.098558635 0.034711152 0.067042455 -0.04832894
0001a0 18 76 34 bd 78 1b 71 bd 68 8b 9f 3d 52 c1 d8 3c
       -0.044057935 -0.058864087 0.077902615 0.02645937
0001b0 c3 d5 82 3b 1f a4 68 bd e2 75 ec bc 69 1d 1c bd
       0.0039927675 -0.056797143 -0.028864805 -0.038113985
0001c0 ba b7 e4 bb 97 10 12 bd 24 aa af bd 58 80 78 3c
       -0.0069799097 -0.035660353 -0.085773736 0.015167318
0001d0 f3 be 97 bd df dc 9d 3d 89 69 64 3d e9 db 09 bd
       -0.074094675 0.077081434 0.05576471 -0.03365699
0001e0 0f 82 5a 3d 80 2b 46 3b 18 34 79 bc 51 12 2e bd
       0.05334669 0.003023833 -0.015210174 -0.042497937
0001f0 f6 dc 8c 3d 44 b0 15 bd 06 28 11 bc bf 4a 5c 3d
       0.068780825 -0.036545053 -0.00885964 0.05378222

network.4.weight f4 [8, 128]
000000 86 d8 6c bd 20 95 81 bc b6 21 b7 3d db 91 8f 3d
       -0.05782368 -0.015818179 0.08941977 0.070102416
000010 25 6c e0 bc eb 7e a0 3d a3 1b 69 3c ff 8f 07 ba
       -0.027395317 0.07836708 0.0142277805 -0.00051712984
000020 6c 11 3d 3d d8 95 79 bc d7 85 52 bd 09 1e e2 bc
       0.046159193 -0.015233479 -0.05139717 -0.027602213
000030 f8 c5 12 bc d2 fe 95 bd 76 8d 1d 3d 74 50 0e bc
       -0.008958332 -0.07323994 0.038464986 -0.008686174
000040 2d bf 76 3d c5 c5 2d 3d 60 17 b9 3c 00 c8 7f bb
       0.060240913 0.042424936 0.022594154 -0.0039029121
000050 16 87 59 bd 22 4d bf 3d 55 e5 ea bc 51 9d a9 bd
       -0.053107344 0.09340884 -0.028673807 -0.08281959
000060 01 d9 55 3d c2 37 1e 3d 8e 03 87 3a 8a c1 ae 3d
       0.052208904 0.038627394 0.0010300742 0.085330084
000070 de 41 2c 3c 51 e3 81 3d ac 95 61 bd ce 0b bf 3c
       0.010513751 0.06342185 -0.05507438 0.023321059
000080 c7 31 33 3d 64 71 a1 bd f5 ab ca bd 40 28 f7 3a
       0.043748643 -0.07882956 -0.098960795 0.00188566
000090 8c fc 50 bd 4f f5 2d bc d0 2d 55 bd a0 db 86 3d
       -0.051022097 -0.010617568 -0.052045643 0.06584859
0000a0 8b 93 65 3d e3 25 e6 3c fe fd 96 bd 44 79 e3 3c
       0.05604891 0.028094238 -0.07372664 0.027767785
0000b0 ff b0 a5 3c 0f 73 04 3d d1 5c 00 3d 45 9e 7b 3d
       0.020226 0.03233629 0.031338517 0.061430234
0000c0 72 49 2d 3d f0 65 d7 3c f9 98 7c bb 61 74 98 bd
       0.04230637 0.026293725 -0.0038543327 -0.074440725
0000d0 3f 91 46 3c dc f0 65 bd f4 6f a7 bc 3d dd 90 3d
       0.01211959 -0.056137905 -0.020439126 0.07073448
0000e0 28 81 fc bc c3 94 8e bd aa 00 96 bd 0a 91 b4 ba
       -0.030823305 -0.06961968 -0.073243454 -0.0013776135
0000f0 1d c7 a1 3d ba 24 7d 3d ce 26 a7 3c 7f 7d 7d 3c
       0.07899306 0.061802603 0.020404246 0.015471815
000100 08 56 3b bd f6 7f 8e 3c 83 a0 15 bd 54 66 91 3d
       -0.045736343 0.017395 -0.03653003 0.07099596
000110 b3 42 87 3d 61 63 74 bd 20 b9 6b bc 8f 03 54 bd
       0.06604519 -0.059665088 -0.014387399 -0.051761206
000120 3b 5e 83 bd ec c8 a9 bc 7f 1c 74 bd ea f9 84 bd
       -0.064144574 -0.02072569 -0.05959749 -0.0649298
000130 87 fa 50 bd 81 56 be bd 26 5b 98 bd 7f 9f 24 bd
       -0.05102017 -0.09293843 -0.0743926 -0.04019117
000140 73 94 7d bd 74 af fc 3c b9 84 73 3d 42 b1 5e 3d
       -0.06190915 0.030845381 0.059452746 0.054368265
000150 1c f6 f2 bc 30 12 b9 3c 3b 6e 89 3d 82 86 1c 3d
       -0.02965837 0.02259168 0.06710478 0.038214214
000160 cd 07 1d bd 21 96 91 bc 1a a0 0c 3a b9 bf 3d 3d
       -0.038337518 -0.017771782 0.0005364433 0.04632542
000170 ab 34 95 bd 35 f0 13 3d 44 83 cc 3c e3 b5 ef bc
       -0.07285436 0.03611775 0.024964936 -0.029261535
000180 aa ac 32 bd 91 d2 5a 3d bf 4e 06 bd b4 40 6e bd
       -0.043621697 0.053423468 -0.032789942 -0.058167174
000190 55 5c 19 bd b6 fe 6c 3d c1 c3 46 3d 6f b0 09 3d
       -0.03744157 0.0578601 0.04852653 0.033615526
0001a0 c0 04 5e 3c 00 c0 7e 3c ea 2c a7 3b ea a1 1d 3b
       0.013550937 0.015548706 0.0051017897 0.0024052807
0001b0 1b 3a a0 bc 48 6a 9c bd 30 27 9f bc d1 4b 86 3d
       -0.019558957 -0.07637459 -0.019427866 0.065574296
0001c0 df b3 69 3d ea 64 11 bd 11 59 8a bd ef f5 8c bd
       0.057056304 -0.03549663 -0.06755269 -0.068828456
0001d0 54 df 83 3c e4 4f bb bd 77 d5 ae ba 23 3e 9f 3d
       0.016097702 -0.09146097 -0.0013338764 0.077755235
0001e0 d0 31 1b 3d 46 34 7f bd 9f a3 00 bd 4f b6 3a bd
       0.0378893 -0.06230571 -0.03140604 -0.04558402
0001f0 d9 4b 0b 3c 64 76 88 bd 14 e4 a3 bd 27 9f 35 bd
       0.00850197 -0.06663206 -0.08002487 -0.044341233
000200 66 89 ca 3d f2 4f 33 3d c6 db 2f 3d dc ce a1 bd
       0.09889488 0.043777414 0.0429342 -0.079007834
000210 75 eb a4 3d be fe 39 bd 4f cf aa 3d f9 75 a6 bc
       0.08052722 -0.045408957 0.08340322 -0.020319926
000220 98 d8 ba 3d 61 83 b8 bc f3 cd 81 3a 16 90 9d bd
       0.09123343 -0.022523584 0.0009903297 -0.07693498
000230 10 46 d9 bc da e4 46 3d 5a 92 1d 3d 4b 95 5d 3d
       -0.026522666 0.048558094 0.03846965 0.054097455
000240 cd 61 94 3d a8 3d 6b bd 22 47 66 3d 73 3f 8d 3d
       0.072452165 -0.057431847 0.05622018 0.068968676
000250 d1 d0 09 3d 11 97 32 3d c4 8f 90 3c 7f e6 82 3d
       0.03364641 0.0436011 0.017646678 0.0639162
000260 f8 f7 0a bd 5c 0b 07 3d dc 00 f1 3d 38 32 1a bd
       -0.033927888 0.032969818 0.11767742 -0.03764555
000270 15 f5 a0 3d 22 f0 bd bc 69 ff 2b bd e6 f6 b7 3b
       0.07859246 -0.023185793 -0.041991625 0.0056141494
000280 24 0a ba 3d ee 47 52 3d ab 28 7c 3d 3c 26 c4 3c
       0.090839654 0.05133813 0.06156222 0.023944013
000290 1e a1 99 bd cb 05 21 3d 75 5a 16 bd 33 3d 09 bc
       -0.07501434 0.039312165 -0.03670736 -0.008376407
0002a0 95 4f 86 3d e5 3f 91 bc 64 6f 80 3c 90 43 bb 3d
       0.06558148 -0.017730663 0.015678115 0.09143746
0002b0 5c 11 01 bd bd 88 46 3d 1c 44 88 bd a4 ef 7d 3d
       -0.031510696 0.048470248 -0.06653616 0.061996117
0002c0 8f 74 71 3d 8c 99 e8 3c 04 cc 1f bd 10 57 ba 3c
       0.05894905 0.02839353 -0.039012924 0.022746593
0002d0 03 39 03 bd f5 39 93 3d 60 39 6b bc 73 6f e1 3d
       -0.032036792 0.07188789 -0.014356941 0.110075854
0002e0 2a 8c 1e 3d af 2a 31 3d dd c3 c6 bc 3a 76 91 3d
       0.03870789 0.043253597 -0.024263317 0.07102628
0002f0 19 b0 ae 3d df 45 15 bd ea d9 72 bb 81 aa 76 3d
       0.08529682 -0.036443587 -0.0037056156 0.0602212
000300 40 bf df 3d 47 46 02 3d 40 e4 a2 3d 11 76 24 3d
       0.1092515 0.031805303 0.079536915 0.04015166
000310 94 dd 5e 3d 4f 77 60 3c 33 8e 58 bd 20 31 77 3b
       0.054410532 0.01370032 -0.052869987 0.003771849
000320 d0 db 35 bd db e8 d8 3d 7e 67 12 bd 3d 48 5e bd
       -0.044399083 0.10591289 -0.03574323 -0.05426811
000330 88 9b eb bb e8 43 f5 3c 87 d7 37 bb cd 29 a1 bd
       -0.0071901716 0.029939607 -0.0028052048 -0.07869301
000340 80 91 59 bd 21 f1 0c 3d 2c 21 93 3d 0a 45 20 bd
       -0.053117275 0.034409646 0.071840614 -0.03912834
000350 2e 2a 78 3d 1b d8 9a bd 65 49 03 3d 7b 7c 34 3d
       0.0605871 -0.0756075 0.032052416 0.044064026
000360 75 74 36 3d b2 8a 21 3d b7 e8 c0 3d 16 14 96 3d
       0.044544656 0.03943891 0.09419387 0.0732805
000370 28 af c0 3d 70 14 b1 bc 9c 20 84 3d 72 70 a4 bc
       0.094084084 -0.02161619 0.06451532 -0.02007315
000380 ca ad 26 3d 8d 7a 53 3d 40 bb e0 3a 8b ce 48 bd
       0.040693082 0.051630545 0.0017145649 -0.0490251
000390 a7 68 7f 3d 7e f4 65 3d ac 9f f8 bb e1 bb 5d bd
       0.062355664 0.05614137 -0.0075873937 -0.054134253
0003a0 cd 11 72 bd 0a 0c 27 bd 7c bc cb 3b d0 7c fa 3d
       -0.059099007 -0.040782966 0.0062175374 0.12230837
0003b0 14 9a 9b 3d ca 92 23 3d 85 65 25 bd f3 a5 98 bc
       0.075977474 0.03993491 -0.04038002 -0.018633818
0003c0 8d 21 38 3d dc b6 e9 3d d4 3f a7 3c 82 e9 7b 3d
       0.04495387 0.11411831 0.020416178 0.061501987
0003d0 14 e9 3e bd f2 ec 01 3e 15 0c 4e 3d ae b1 17 3d
       -0.046609 0.12688044 0.05030449 0.037034683
0003e0 53 f0 16 3d 35 3c e2 3d 4f 9f 07 bd 1c 0d ab 3d
       0.036850285 0.1104664 -0.033110913 0.0835211
0003f0 3e f9 69 3d 5d 31 b4 ba a1 64 8b bc 3a b3 e4 3d
       0.05712246 -0.0013747622 -0.017015757 0.11166997

network.4.bias f4 [8]
000000 79 f0 7f 3d e9 4e 72 bc 91 45 a4 bd 50 da 88 3b
       0.062485192 -0.014789321 -0.08021081 0.0041764155
000010 ca 86 a6 bd 05 53 03 3d 0e d2 db 3c 80 22 b2 bd
       -0.08131178 0.032061595 0.02683356 -0.086979866

exp_avg f4 [128, 26]
000000 00 00 00 00 00 00 00 00 00 00 00 00 00 00 00 00
       0.0 0.0 0.0 0.0
000010 00 00 00 00 00 00 00 00 00 00 00 00 00 00 00 00
       0.0 0.0 0.0 0.0
000020 00 00 00 00 00 00 00 00 00 00 00 00 00 00 00 00
       0.0 0.0 0.0 0.0
000030 00 00 00 00 00 00 00 00 00 00 00 00 00 00 00 00
       0.0 0.0 0.0 0.0
000040 00 00 00 00 00 00 00 00 00 00 00 00 00 00 00 00
       0.0 0.0 0.0 0.0
000050 00 00 00 00 00 00 00 00 00 00 00 00 00 00 00 00
       0.0 0.0 0.0 0.0
000060 00 00 00 00 00 00 00 00 37 ff f3 3c e5 a8 34 3d
       0.0 0.0 0.029784782 0.044106383
000070 5a d4 2e 3d c0 ee 15 3d 3d 25 e2 3c 0e cd 26 3d
       0.042682983 0.036604643 0.027605647 0.0407229
000080 da 62 2d 3d 71 d6 1a 3d 9a 66 2b 3d a6 f6 1b 3d
       0.0423306 0.037802164 0.041845895 0.03807702
000090 d5 a3 66 3d 95 db 2a 3d b3 78 9d 3c 09 3d 2f 3d
       0.056308586 0.041713316 0.019222593 0.042782817
0000a0 97 90 66 3d 92 d8 35 3d 44 ea 30 3d 2d 1d 56 3d
       0.056290235 0.04439599 0.043192163 0.052273918
0000b0 a7 18 49 3d 6d de 53 3d 81 c0 6e 3d 50 69 0b 3d
       0.049095776 0.051725794 0.058289055 0.03403598
0000c0 4c 74 0e 3d 44 16 88 3c 7c 7e 04 3d e2 fd 08 3d
       0.034778878 0.01661218 0.032347187 0.033445247
0000d0 49 38 be 3b 93 ba 94 3c 6a 36 60 3c 78 87 26 3c
       0.0058050496 0.018155372 0.013684848 0.010164134
0000e0 67 c5 3d 3c a7 e9 58 3c 54 c1 78 3c 88 62 9b ba
       0.011582709 0.013239301 0.015182812 -0.0011854926
0000f0 f2 39 81 3c 4a 08 2d 3c b7 5d 92 3c 91 86 b4 3b
       0.0157747 0.010561058 0.017866952 0.0055092056
000100 8c 2e 1d ba a8 a5 38 3b 6c fb 58 3b e0 10 45 ba
       -0.0005996011 0.002817491 0.0033108843 -0.0007517468
000110 c5 66 14 3c ef 6d 5b 3c b8 a7 f3 3b 48 df 52 3c
       0.009057705 0.013392909 0.007435765 0.012870617
000120 81 ac 0c 3c 3f f4 9c 3b df 41 05 3c aa 1a 84 3b
       0.00858605 0.0047898586 0.008133381 0.004031499
000130 8e fe 49 3b 6a 78 5a 3b 1a 9b fb 3c 5e 1a 32 3d
       0.0030821892 0.0033335933 0.030713607 0.043482177
000140 89 a5 27 3d 76 fb 14 3d cc f6 e5 3c e3 12 28 3d
       0.04092935 0.036372624 0.028071783 0.041033637
000150 80 5c 33 3d dd be 26 3d 18 69 2d 3d 72 8e 1f 3d
       0.043789387 0.040709365 0.042336553 0.038954206
000160 ee c6 5f 3d ac 23 26 3d b8 72 a6 3c 83 63 31 3d
       0.054633074 0.040561363 0.020318374 0.043307792
000170 dd a0 66 3d 5a 99 40 3d ce 05 3a 3d a4 c0 4c 3d
       0.056305755 0.047021247 0.045415692 0.049988404
000180 7d 86 55 3d 70 7f 4d 3d c1 43 65 3d 93 c8 09 3d
       0.05213021 0.050170362 0.05597282 0.033638548
000190 01 2c 0c 3d cd 26 85 3c 91 c4 05 3d da e7 08 3d
       0.034221653 0.016253853 0.032658163 0.033424236
0001a0 81 23 14 38 11 92 bf b8 a4 26 cc 39 15 04 64 b9
       3.5319015e-05 -9.134797e-05 0.00038938702 -0.00021745295
0001b0 00 00 00 00 ca fc 64 38 7a 4e c9 39 17 15 bc 3b
       0.0 5.4594864e-05 0.00038396177 0.005739819
0001c0 4a 13 9b b7 11 cd 0a 38 a4 d4 bd b9 71 51 19 3b
       -1.8486422e-05 3.3092747e-05 -0.0003620732 0.002339449
0001d0 00 00 00 00 72 b2 84 3b 7d 96 bd 3b aa f9 a0 3a
       0.0 0.0040495927 0.005785762 0.0012281437
0001e0 19 d9 7d 3b 35 9c db 3b 38 14 57 3b 07 c3 6b 3b
       0.0038734137 0.006701971 0.0032818448 0.00359744
0001f0 f5 6d 6e 3b c7 1d 9b 3a d0 c6 77 3a cc 96 ce 39
       0.0036381457 0.0011834436 0.00094519276 0.00039403734
000200 4b d6 ea 3a 76 a1 ca 3a d8 dd 3a 3a a0 80 45 3c
       0.0017916647 0.0015459496 0.0007128394 0.012054592
000210 ca 5c 33 3c a3 13 4a 3b 24 85 be 3b fe 8c 8e 3b
       0.010947416 0.0030834458 0.0058142114 0.0043503037
000220 5d f5 05 3c d9 e9 c3 bb 61 58 f3 3b 30 f9 40 3b
       0.008176175 -0.0059788045 0.007426307 0.0029445402
000230 e4 8f 4e 3c 9e 16 3f 3b 4d b7 a5 bb 30 5a 34 bb
       0.012607548 0.0029157768 -0.0050572515 -0.0027519576
000240 a0 17 17 bb 01 7c 53 bc 60 b7 c4 b9 ec b2 36 3c
       -0.0023054853 -0.012907983 -0.00037520658 0.011151057
000250 c0 c6 16 3a af 53 90 3b 34 d6 02 3b a0 71 5c 3a
       0.0005751662 0.004404507 0.00199641 0.00084092654
000260 a7 22 91 3b ff 60 2f 3b 18 57 59 ba 20 80 17 ba
       0.0044291797 0.0026760695 -0.0008290871 -0.0005779285
000270 00 00 00 00 00 00 00 00 13 ab 18 2d 00 00 00 00
       0.0 0.0 8.678186e-12 0.0
000280 00 00 00 00 00 00 00 00 00 00 00 00 4d f0 25 2e
       0.0 0.0 0.0 3.7730086e-11
000290 00 00 00 00 00 00 00 00 4f 0b 1e 2f f6 aa 3a 2f
       0.0 0.0 1.4374034e-10 1.6977339e-10
0002a0 00 00 00 00 05 80 02 2f c3 6d 3a 2f 6a e7 c7 2c
       0.0 1.1868913e-10 1.6955597e-10 5.6816123e-12
0002b0 3d b6 d1 2e eb b6 5f 2f b3 a9 24 2f 63 b3 3d 2f
       9.536592e-11 2.0346717e-10 1.4976002e-10 1.7253181e-10
0002c0 20 4e 61 2e c3 6d ba 2e c3 6d ba 2e 65 58 7b 2e
       5.1228466e-11 8.477798e-11 8.477798e-11 5.7149303e-11
0002d0 c3 6d ba 2e c3 6d ba 2e 7f 31 73 3d 53 53 8e 3d
       8.477798e-11 8.477798e-11 0.059373375 0.069494866
0002e0 5f b7 8d 3d dc 44 87 3d aa a6 36 3d fc 16 95 3d
       0.06919741 0.06604931 0.044592537 0.072797745
0002f0 ff c1 97 3d 45 cc b0 3d 90 a1 90 3d 22 07 92 3d
       0.07410049 0.08632711 0.070620656 0.07130267
000300 5f f7 bc 3d 8b 74 a1 3d 50 05 41 3d 5c 9d b4 3d
       0.0922687 0.07883557 0.047124207 0.088190764
000310 aa 69 ea 3d 25 68 d7 3d 5b 13 b0 3d a4 60 af 3d
       0.11445935 0.10517911 0.08597442 0.085633546
000320 16 70 ca 3d 9c 15 c1 3d e0 c4 e0 3d ec db 85 3d
       0.0988466 0.0942795 0.10975051 0.065360874
000330 4c 5d 7d 3d 51 34 ee 3c 91 73 85 3d 64 8d 88 3d
       0.061856553 0.02907768 0.06516183 0.06667593
000340 ca 16 b2 26 20 9a f3 26 0e 5d 5e 2c 7c 7b 89 26
       1.2357408e-15 1.6903288e-15 3.1599753e-12 9.539755e-16
000350 6b fb e5 25 b3 f5 b5 2a fd 0b 7d 2b 6a c7 8c 2e
       3.9895535e-16 3.2322547e-13 8.9900293e-13 6.401886e-11
000360 d3 9a 19 28 a6 d1 4a 28 5e 3e 94 2e 94 41 18 2d
       8.526778e-15 1.1258713e-14 6.7413394e-11 8.654761e-12
000370 29 33 93 a6 88 a0 56 2e af 4d 99 2e 11 22 33 2d
       -1.0214041e-15 4.8800547e-11 6.971434e-11 1.0182536e-11
000380 9f fa 51 2e 59 07 9a 2e 64 78 b4 2e d4 b9 97 2e
       4.7743694e-11 7.0044144e-11 8.206838e-11 6.899695e-11
000390 10 b2 e2 2d e7 2b 14 2e 5f d7 ff 2d d4 53 55 2d
       2.5772301e-11 3.3690297e-11 2.9085788e-11 1.2126262e-11
0003a0 d3 4a 19 2e 96 4a 19 2e e4 d6 22 3d a8 a6 4b 3d
       3.485463e-11 3.4854418e-11 0.039755717 0.049719483
0003b0 95 41 4c 3d b5 fb 37 3d 4a 7d fd 3c 17 5b 47 3d
       0.04986723 0.04491778 0.030943532 0.048670854
0003c0 22 13 50 3d f5 4a 4e 3d 96 f9 44 3d 94 30 42 3d
       0.050799496 0.050364453 0.048089586 0.04740961
0003d0 bc 24 84 3d 76 e0 55 3d c1 df f4 3c 64 c9 5d 3d
       0.06452319 0.052216016 0.02989185 0.05414714
0003e0 0f 09 91 3d 6d 7f 7e 3d 8c ed 56 3d 1d 31 70 3d
       0.07081806 0.06213324 0.052472636 0.058640588
0003f0 2c d6 72 3d bc d7 77 3d 2d 71 92 3d ad e5 2b 3d
       0.05928628 0.060508475 0.07150493 0.041967083

exp_avg_sq f4 [128, 26]
000000 00 00 00 00 00 00 00 00 00 00 00 00 00 00 00 00
       0.0 0.0 0.0 0.0
000010 00 00 00 00 00 00 00 00 00 00 00 00 00 00 00 00
       0.0 0.0 0.0 0.0
000020 00 00 00 00 00 00 00 00 00 00 00 00 00 00 00 00
       0.0 0.0 0.0 0.0
000030 00 00 00 00 00 00 00 00 00 00 00 00 00 00 00 00
       0.0 0.0 0.0 0.0
000040 00 00 00 00 00 00 00 00 00 00 00 00 00 00 00 00
       0.0 0.0 0.0 0.0
000050 00 00 00 00 00 00 00 00 00 00 00 00 00 00 00 00
       0.0 0.0 0.0 0.0
000060 00 00 00 00 00 00 00 00 3b 95 41 3b ce 2d 3f 3b
       0.0 0.0 0.0029538411 0.0029171589
000070 4a 77 44 3b 62 6c 3f 3b 00 3f 1e 3b c2 99 f1 3b
       0.0029978328 0.0029208888 0.0024146438 0.0073730657
000080 88 80 00 3c 94 09 7d 3c ec 4c e9 3b c1 be de 3b
       0.007843144 0.015444178 0.0071197655 0.006797642
000090 0b cc 09 3c 19 09 fc 3b c8 a6 4d 3b be ba 45 3c
       0.008410464 0.007691514 0.0031379927 0.012068449
0000a0 fd 57 a3 3c 30 54 02 3c c6 be 6a 3c a5 0a 7c 3c
       0.019939417 0.007954642 0.0143277105 0.015383397
0000b0 fa 86 7e 3c f9 d4 60 3c ee 67 6e 3c 86 82 ae 3b
       0.015535111 0.013722652 0.014551146 0.005325618
0000c0 65 78 91 3b 89 68 6d 3a c5 4b c3 3b a7 21 bf 3b
       0.004439401 0.00090564095 0.00595996 0.005832869
0000d0 c2 89 31 3b f5 ca 20 3b ee e5 2a 3b 9b df 2f 3b
       0.0027090167 0.0024535034 0.002607699 0.002683616
0000e0 71 d6 0b 3b 00 f4 e3 3b f2 fa ee 3b d2 1d 5b 3c
       0.0021337534 0.0069565773 0.0072930986 0.013373809
0000f0 aa a3 de 3b c9 55 d5 3b 7c 40 f1 3b 3e cc ec 3b
       0.0067944126 0.0065104705 0.0073624235 0.007226496
000100 03 33 54 3b 70 f2 33 3c 74 d8 8e 3c d0 10 e5 3b
       0.0032379038 0.010983095 0.017437197 0.0069905296
000110 e9 ed 63 3c 2f 46 53 3c 50 2b 65 3c 8a 1a 54 3c
       0.013911703 0.012895151 0.013987377 0.0129457805
000120 b5 26 59 3c ee 01 a2 3b 21 5e 87 3b de b6 59 3a
       0.013253857 0.0049440777 0.004131094 0.00083051424
000130 df 4a b3 3b 88 d1 af 3b 0c 8a da 3a ba b2 db 3a
       0.005471572 0.0053655542 0.0016673221 0.0016761639
000140 7a 88 ce 3a 85 c1 d0 3a c9 4a b8 3a 79 45 77 3b
       0.0015757226 0.0015926814 0.0014060374 0.0037730618
000150 d8 49 83 3b 96 f4 f8 3b f0 cf 71 3b bc ef 65 3b
       0.0040066056 0.0075975163 0.0036897622 0.003508552
000160 e9 64 98 3b a1 68 7f 3b 3d 11 e1 3a 45 7f cc 3b
       0.0046507013 0.0038972276 0.0017171275 0.0062407576
000170 33 9f 2b 3c a9 25 8a 3b cd da 02 3c b0 98 09 3c
       0.010474968 0.004215915 0.0079867365 0.00839822
000180 42 2f fc 3b 05 23 ef 3b cf d2 fb 3b a5 47 38 3b
       0.0076960633 0.007297876 0.0076850425 0.0028118875
000190 3c 59 1a 3b a7 7c fc 39 b1 54 4a 3b 66 ae 46 3b
       0.0023551723 0.0004815806 0.0030873234 0.0030316352
0001a0 36 13 73 36 b3 96 25 37 a3 7c c6 36 5e 24 a5 34
       3.6221004e-06 9.869854e-06 5.9153695e-06 3.0760106e-07
0001b0 00 00 00 00 02 dc 6e 35 b6 57 83 36 65 99 42 39
       0.0 8.898206e-07 3.914315e-06 0.00018558426
0001c0 8a 45 2b 34 e0 50 b0 33 8b 9a af 36 c7 94 b3 38
       1.5950914e-07 8.21035e-08 5.2333976e-06 8.563097e-05
0001d0 00 00 00 00 3e 8b d3 38 76 55 51 39 63 be d0 37
       0.0 0.000100872 0.0001996363 2.4884188e-05
0001e0 2c 31 8f 38 b9 1b 31 39 9e 9c 28 39 17 31 f9 38
       6.82793e-05 0.00016890363 0.00016080073 0.00011882389
0001f0 ee 38 61 38 28 73 c2 37 aa e4 83 37 43 a5 38 36
       5.36972e-05 2.3180226e-05 1.5722897e-05 2.7514332e-06
000200 cf 21 15 38 5e db fa 37 35 56 46 3b 83 fa 47 3b
       3.5555855e-05 2.9904473e-05 0.0030263786 0.0030514307
000210 78 60 53 3b 82 6d 5a 3b 39 40 2f 3b 3b 42 08 3c
       0.0032253545 0.0033329432 0.002674116 0.008316572
000220 91 ec 05 3c e1 f0 8c 3c ab 33 03 3c 35 4c f5 3b
       0.008174078 0.017204704 0.008007924 0.007485891
000230 0b d5 2e 3c 47 c3 15 3c 60 17 68 3b 23 5c 69 3c
       0.010670911 0.009140796 0.0035414323 0.0142431585
000240 21 71 bc 3c 4b 6a 17 3c e1 5d 94 3c f4 53 91 3c
       0.023003163 0.009241651 0.018111171 0.017740227
000250 2d 07 9a 3c e0 7a 87 3c b1 62 8e 3c c3 89 d6 3b
       0.01880225 0.016538084 0.017381044 0.006547184
000260 91 7a b4 3b 44 8a 92 3a ee fb e9 3b 17 57 e6 3b
       0.005507775 0.0011180122 0.007140628 0.007029425
000270 00 00 00 00 00 00 00 00 98 39 af 2e 00 00 00 00
       0.0 0.0 7.968309e-11 0.0
000280 00 00 00 00 00 00 00 00 00 00 00 00 cd 02 cf 30
       0.0 0.0 0.0 1.5062028e-09
000290 00 00 00 00 00 00 00 00 4e c8 bb 32 03 fb 02 33
       0.0 0.0 2.1860753e-08 3.0496278e-08
0002a0 00 00 00 00 50 08 80 32 3a a5 02 33 db 36 16 2e
       0.0 1.4904941e-08 3.0418256e-08 3.4154773e-11
0002b0 d5 50 25 32 1a 21 3c 33 09 d7 cb 32 86 45 07 33
       9.622643e-09 4.3802267e-08 2.3730097e-08 3.1495368e-08
0002c0 5e d0 3e 31 3a a5 02 32 3a a5 02 32 73 78 6d 31
       2.7767082e-09 7.604564e-09 7.604564e-09 3.4556507e-09
0002d0 3a a5 02 32 3a a5 02 32 03 01 63 3a a5 48 9d 3a
       7.604564e-09 7.604564e-09 0.00086595136 0.0011999799
0002e0 0b 32 bf 3a 68 7a 81 3a ac 0a 29 3a 15 d6 0d 3b
       0.0014587058 0.0009878399 0.00064484286 0.0021642495
0002f0 8a 6c 17 3b b1 61 e8 3b 5b fb ef 3a 37 fc f6 3a
       0.0023105466 0.007091724 0.0018309163 0.0018843476
000300 58 82 8d 3b 1c 06 79 3b 8c 5d 45 3a 52 12 c6 3b
       0.0043185167 0.0037998026 0.0007528893 0.0060446644
000310 6f 6f 37 3c 68 b5 56 3b e0 7e ec 3b 6e 52 05 3c
       0.011196001 0.0032761935 0.007217273 0.008137329
000320 d8 51 eb 3b 15 4d dc 3b a0 7b fa 3b 1a 68 2c 3b
       0.0071813874 0.006723056 0.007644132 0.0026307167
000330 ac ce 0c 3b 16 bc ec 39 e7 24 43 3b 69 93 3e 3b
       0.002148549 0.00045153563 0.0029776634 0.0029079563
000340 d7 8f 02 33 fd 51 f7 32 01 24 69 33 bd c4 ce 32
       3.0398805e-08 2.8791868e-08 5.4282285e-08 2.4071023e-08
000350 ab 84 b0 32 8e 5c 51 36 03 0e 6e 36 60 01 21 37
       2.0549427e-08 3.11973e-06 3.547292e-06 9.596668e-06
000360 12 fa 44 36 e5 44 37 36 90 7c 24 37 7e 2c 8a 36
       2.9351836e-06 2.7309227e-06 9.804164e-06 4.1179e-06
000370 af ec 45 35 53 75 1f 37 f1 eb 8e 37 f9 a8 d4 35
       7.373264e-07 9.504455e-06 1.7037588e-05 1.5844408e-06
000380 ea c5 3e 37 6c fa 48 37 de 56 b4 37 54 ee 86 37
       1.1370963e-05 1.1979235e-05 2.1498123e-05 1.6085025e-05
000390 44 b0 b6 36 34 27 89 36 32 84 71 36 97 da 38 35
       5.4445427e-06 4.087482e-06 3.5988746e-06 6.886343e-07
0003a0 f8 fe 95 36 e5 44 92 36 d2 01 6d 3a e3 0c a1 3a
       4.4702283e-06 4.3591594e-06 0.0009041104 0.0012287166
0003b0 5d 3d a1 3a 84 dd 68 3a 38 2c 43 3a f8 04 11 3b
       0.0012301613 0.0008883106 0.0007445249 0.0022128206
0003c0 38 55 1a 3b 67 27 dd 3b 5d 6e 00 3b 25 51 04 3b
       0.002354933 0.006749082 0.0019597032 0.0020189967
0003d0 6b 95 8d 3b d0 1e 5f 3b a9 36 55 3a 0d e5 b9 3b
       0.0043207905 0.0034045465 0.000813345 0.005673057
0003e0 71 63 23 3c 5c a0 4d 3b 57 f0 ea 3b 19 28 02 3c
       0.009972439 0.00313761 0.007169764 0.00794413
0003f0 16 01 e0 3b f1 04 d3 3b aa 25 e7 3b b8 13 26 3b
       0.006836067 0.006439798 0.0070540505 0.0025341343

exp_avg f4 [128]
000000 00 00 00 00 2e 57 7a 3d 1a e4 83 3b 95 69 7d 3d
       0.0 0.061118297 0.0040249946 0.06186827
000010 36 91 bd 3b d0 d2 80 bb c3 6d 3a 2f ae 02 01 3e
       0.0057851328 -0.003931381 1.6955597e-10 0.12598678
000020 1f 4e 99 2e 46 6b 9e 3d 1a 91 67 39 ce 7b 89 3d
       6.9715116e-11 0.077353045 0.00022083931 0.06713067
000030 00 00 00 00 68 da 11 3d d6 1a 42 3d 3c 8a 62 3d
       0.0 0.03560868 0.047388874 0.05530761
000040 0e c9 2a 3d 68 d2 04 3a 80 b1 50 3d 95 bf 52 bc
       0.041695647 0.00050667534 0.050950527 -0.0128630595
000050 51 e5 3c bb 00 00 00 00 de ee bd 3b 00 00 00 00
       -0.0028823207 0.0 0.0057962975 0.0
000060 9f b8 e7 3c ba 4b fa bb 67 04 1a 3d 00 00 00 00
       0.028286276 -0.007638422 0.037601855 0.0
000070 74 46 34 3d e0 55 46 bc b3 63 9f bc c4 e5 f2 bd
       0.0440125 -0.012105435 -0.01945672 -0.118602306
000080 0b 2c 0c 2c 00 00 00 00 d9 16 1c 3c 14 d9 96 3c
       1.9919645e-12 0.0 0.009526932 0.018414058
000090 bf 6b 72 36 54 c7 29 3b 86 5a 44 ba 90 60 29 3c
       3.6123527e-06 0.0025906162 -0.00074902957 0.010337964
0000a0 80 99 5c 3d 88 86 52 3d 9a ac 63 3d 22 b5 28 bd
       0.053857327 0.05139783 0.055584528 -0.041188367
0000b0 07 7d ef 38 f0 5c 61 3c 52 cb b5 3a 2c c0 da 3b
       0.00011419696 0.013755068 0.0013869798 0.0066757407
0000c0 dd 3e d0 bc 9a 10 99 3d 20 c7 9f 3b 53 71 70 3d
       -0.0254206 0.074738696 0.0048760325 0.058701824
0000d0 cb bb 98 3d 50 13 8c 3a d6 41 cf 3d f8 71 45 3d
       0.07457694 0.0010686908 0.10119979 0.048204392
0000e0 ca 8c f2 3c 60 23 14 bb 1f 5a b5 3d 1d 82 a7 3c
       0.02960815 -0.0022604093 0.0885508 0.020447785
0000f0 4f c6 d4 35 78 d1 50 3d ec 7f 21 3d d9 a6 3f 3d
       1.5852946e-06 0.050981015 0.039428636 0.046789978
000100 1a e4 36 3d 3e d3 e1 28 be de f4 3c 80 a7 9d 3c
       0.04465113 2.507163e-14 0.029891368 0.01924491
000110 38 7b eb bc 00 00 00 00 e8 c0 5d 3a 56 5c f5 39
       -0.028745279 0.0 0.0008459226 0.00046798837
000120 00 00 00 00 82 8d 01 b8 77 46 c5 b9 3c 45 38 bd
       0.0 -3.0887786e-05 -0.00037627268 -0.044987902
000130 ce f3 79 bd f2 86 7c 3d cc e6 36 bd 00 00 00 00
       -0.061023526 0.06165213 -0.0446537 0.0
000140 76 a3 01 3d ca 4d ad 3c 00 00 00 00 08 1d 6e bb
       0.03165003 0.021155257 0.0 -0.0036333222
000150 00 00 00 00 f3 b2 16 3c 24 2e 6e 3c 38 ab c0 3a
       0.0 0.009197938 0.014537368 0.0014699465
000160 d8 8f 2b 37 9b 80 1d be d5 c4 1d b9 cb c2 2c ba
       1.02258855e-05 -0.1538109 -0.00015046012 -0.0006590306
000170 ac 26 8f 3d aa 79 9a 35 00 00 00 00 d7 03 61 2d
       0.06989798 1.1509303e-06 0.0 1.2790622e-11
000180 d1 73 b1 3d 98 b4 09 36 0d 89 5e 3d 9c bb 6e bc
       0.08664668 2.051971e-06 0.05432992 -0.014571097
000190 08 79 fe bb d3 a4 a2 38 27 0f 03 be b4 82 51 3d
       -0.007765893 7.755463e-05 -0.12798749 0.05115004
0001a0 62 29 16 bb 46 ee a3 39 70 d7 bb 3d 3d f8 b9 3a
       -0.002291285 0.0003126731 0.09171951 0.0014188361
0001b0 7a 2f 21 3d c6 58 fa 39 7d b3 61 3d 98 dc 9e 39
       0.039351918 0.00047749857 0.055102814 0.00030300464
0001c0 10 af 51 3d 9a d0 30 bd ec 7b 88 3d 00 00 00 00
       0.051192343 -0.043167688 0.06664261 0.0
0001d0 c0 d5 b2 bb 47 9c cd 3d 00 00 00 00 5e f3 e0 37
       -0.00545761 0.10039573 0.0 2.6816208e-05
0001e0 00 00 00 00 5e e2 8d b4 57 ee 5b 3d 42 9e c1 3c
       0.0 -2.6428e-07 0.053694095 0.023635034
0001f0 e6 94 99 3d 86 d9 3f 3c 60 c0 a5 3d 91 c5 33 bd
       0.07499103 0.0117095765 0.08093333 -0.043889586

exp_avg_sq f4 [128]
000000 00 00 00 00 c3 c3 c9 3c 90 9e b7 3c a2 ab 50 3c
       0.0 0.02462948 0.022414476 0.012736233
000010 73 dc 57 39 53 1f ee 3c 3a a5 02 33 27 1d 4a 3c
       0.00020586122 0.02906767 3.0418256e-08 0.012336052
000020 62 b6 a2 37 3b b0 3d 3c 6e 9f a3 39 fe 57 9f 3c
       1.9396834e-05 0.011577661 0.00031208567 0.019451138
000030 00 00 00 00 69 1e ba 3c 57 d1 d6 3c 8c e5 6e 3b
       0.0 0.022719579 0.026222868 0.0036452739
000040 5f 72 c3 3c ce ff ff 39 52 76 0c 3c 9d 66 04 3d
       0.023858247 0.0004882798 0.008573132 0.032324422
000050 ed 69 22 38 00 00 00 00 2a cf 9b 3b 00 00 00 00
       3.872246e-05 0.0 0.0047549205 0.0
000060 fc a3 0a 3c 2d 56 cd 3b 13 48 ab 3b 00 00 00 00
       0.0084619485 0.0062663765 0.005227098 0.0
000070 92 0b 99 3b de 9e 34 3d 71 e4 47 3b 63 3d 86 3c
       0.0046705687 0.04409682 0.0030501152 0.016386693
000080 0f 9e 77 35 00 00 00 00 b3 65 74 3c 42 6c 64 3c
       9.2244676e-07 0.0 0.014916825 0.013941826
000090 fd 66 ed 38 fa 55 e9 38 2c 6b 3a 3b e5 3d f5 3c
       0.00011320224 0.0001112632 0.0028445227 0.02993674
0000a0 19 5f 78 3c 26 1d 7d 3c c1 15 2e 3c 8c 16 f2 3b
       0.015159392 0.015448844 0.010625304 0.0073879417
0000b0 73 11 13 37 5f 7c 03 39 6e f1 4a 37 6d 2d ee 3c
       8.7659455e-06 0.00012539465 1.20963505e-05 0.029074395
0000c0 3a 26 40 3c 58 a4 38 3d 34 b5 f7 3b f5 60 42 3c
       0.011727864 0.045078605 0.007559443 0.011863937
0000d0 48 ca c8 3c be 7e e2 3a 5c 55 ee 3b 47 03 1b 3c
       0.024510518 0.0017280204 0.007273359 0.009461231
0000e0 ae 14 93 3c 05 96 ea 3c 62 54 c5 3c 13 bd 68 3b
       0.017954197 0.028635988 0.024088088 0.0035513088
0000f0 cd 42 90 39 fe 64 0c 3d a6 4d 09 3d 6a b8 38 3c
       0.0002751559 0.034276 0.033521317 0.0112744365
000100 5f e8 9e 3c 90 d0 86 37 02 fc 5f 3d 19 06 39 3c
       0.019397913 1.6071164e-05 0.054683693 0.011292958
000110 87 75 d7 3b 00 00 00 00 41 56 5d 3a cb d9 2b 35
       0.0065752896 0.0 0.0008443334 6.4019395e-07
000120 00 00 00 00 5e 8b 53 39 c2 16 60 37 3a e1 87 3c
       0.0 0.00020174446 1.3356739e-05 0.016586889
000130 06 f3 75 3b ca 45 1b 3c e5 37 ac 3c 00 00 00 00
       0.0037528886 0.009477088 0.021022746 0.0
000140 dd 30 1f 3d 2e 90 73 3c 00 00 00 00 07 aa 42 3c
       0.03886496 0.014865918 0.0 0.011881358
000150 00 00 00 00 4e 4e d4 39 5a ca 2f 3d 7b 32 d6 3a
       0.0 0.00040494133 0.042917587 0.0016341949
000160 72 b7 2f 38 db e0 8f 3c 0c 53 85 39 87 fe c7 37
       4.1894098e-05 0.017563274 0.00025429612 2.3841172e-05
000170 1f 62 af 3c 84 a3 8b 39 00 00 00 00 7b c6 14 34
       0.021409092 0.00026633975 0.0 1.3855781e-07
000180 8f 59 9a 3c f1 87 87 39 3a a0 af 3c 72 76 a2 3c
       0.018841533 0.0002585049 0.021438707 0.01983187
000190 eb bd e4 3b 1a d0 57 38 6e d5 07 3c c9 97 ac 3c
       0.006980648 5.1453804e-05 0.008290632 0.02106847
0001a0 1d 61 1d 3c 1f 40 49 37 d8 59 5f 3c 2c 1d bd 38
       0.009605673 1.1995463e-05 0.01363226 9.017656e-05
0001b0 ca 60 9b 3c 91 63 21 39 4a ef 1a 3d cb 8c 96 39
       0.018967051 0.00015391248 0.03782586 0.00028715128
0001c0 e4 18 24 3c b7 0b 04 3c 37 b9 bf 3c 00 00 00 00
       0.0100157 0.008059434 0.023403747 0.0
0001d0 59 ab df 3c 6e 27 c9 3b 00 00 00 00 80 31 d1 37
       0.027303385 0.0061387336 0.0 2.4937792e-05
0001e0 00 00 00 00 d8 89 06 38 6a f7 85 3c ee 12 89 3c
       0.0 3.2076467e-05 0.016353328 0.01673266
0001f0 5d d2 84 3c b2 95 81 3b b9 58 00 3c b4 d3 d8 3c
       0.01621359 0.0039546126 0.007833653 0.026468135
