models/reinforce/reinforce_baseline/checkpoint_ep500.pth (torch, 259594 bytes, 18 tensors)

network.0.weight f4 [128, 26]
00000000: d2aa 973d 1738 0a3e f380 abbd 5015 96bc
00000010: 40ca bf3c 7b6d 133e 988d cdbc 86ba 83bd
00000020: e439 16be 61a9 2abe 70c6 d93c 282a 0d3d
00000030: b0a2 e23c d40d 29be fbff 0fbe 2078 623c
00000040: 382c 13bd 909c 06bc 662d 97bd 0228 863d
00000050: 8054 f9bb c012 c2bd 9a61 f63d f775 2b3e
00000060: e02c 0ebd b4ed e9bd 9dec 19be 74ed 31be
00000070: 78e9 e3bd feb6 49be d699 ddbd aa8a 223e
00000080: a0fc 04be e1ba e23d 3cc1 aebd 0ddc 58be
00000090: 75f2 3b3d bd05 f33d 2af8 e8bd 3ee8 123d
000000a0: b7fe 283e 3b01 c5bd 5472 ce3d 3647 18be
000000b0: b6a5 2d3e 2f8e b9bd 7895 d9bd f14e 1e3e
000000c0: 2481 f63d 0131 bd3d 7dc8 443e b511 22bd
000000d0: 2b18 23be 8807 27be 1052 80bb c71b 17bd
000000e0: 2972 033e 3d38 1c3e a0c5 84bc a237 013e
000000f0: 57a1 063e cee4 0bbe 6b1b 3e3e fe09 e0bd
00000100: 9ea8 2ebe d4cb 313e 2efc 6b3e 506a d83c
00000110: 4f8f dd3d 4635 adbd adc9 d3bc 99bb 2c3e
00000120: 180a 353e 0440 1bbd 9bbc dc3d 9be6 893d
00000130: f820 043e 5896 89bd 376e fcbc 840e f93d
00000140: c27a 5fbe ccc0 86be 75bc cbbd aa61 b43c
00000150: 507e 67be 54a8 8abd bdbc 82be fa79 3dbd
00000160: eaef 033e 87b5 2d3e 402a 86be 4082 403d
00000170: fe21 5c3d 5830 54bd 607b b1bd e4e3 283e
00000180: ce81 3b3e 78e9 0f3e 9e29 563c 8e70 ef3d
00000190: 9269 7bbd 7cc2 173d 2878 8a3d ebce af3d
000001a0: 6f2f a63d ed2d 313e cc14 a7bd 42a3 1a3e
000001b0: fef7 cfbd 5191 2cbe bb6e 2dbe 59c0 6dbd
000001c0: ba8d be3d bab9 33bd f794 4abe 11d1 98bc
000001d0: 75bf 2b3e 0695 b23c 8af6 2b3e 0673 47be
000001e0: c23f 1cbe 2af4 983d d826 1f3e c7f1 63bd
000001f0: c7f2 2bbe 999f dfbd 1adb 3abe 1d8c b6bc
00000200: 6b7b 82bc cd86 a4bd 130b 48be 50f9 a73d
00000210: 3f98 acbd 8c3f 46be 0777 e7bd ae98 123e
00000220: b0ed 9b3d bb43 483c dc06 693c 3c96 f53c
00000230: fbe3 5d3d 548d 023e 679e b9bb d6bb 023e
00000240: 1b78 123e 8be1 79bd 90ad f13c d517 ba3c
00000250: 755f 38be dd4e e33d 490e c73d c1bd bcbc
00000260: c234 30be 64bd 12be 21d7 7abd c447 2cbe
00000270: f2a9 ec3d bdf6 9cbd 7126 de3d 162d f13d
00000280: c299 87bd ac6c 29be d515 e2bd f49b 50be
00000290: cab9 efbd 2757 34be 470a 283d 0c06 0e3e
000002a0: 735f 033e 48f0 04be 619e 2fbe 35ce 06be
000002b0: dcc6 4fbe 610d 2c3e a014 2cbd a07f 373d
000002c0: 0a4a 92bc 5254 ff3d 0a5a 78bd b82e 82bc
000002d0: 4cfa 843c b652 123e c41a 60be 50f4 083e
000002e0: 0cfc c93c 3b93 cfbd 6028 61be 0927 003d
000002f0: d6d3 ebbd 6b56 803d d466 64be e275 bd3d
00000300: 6dce 08be ec11 643d 1ffd 2ebe bd61 073e
00000310: c8dd 0cbd 416f 61be 6525 fc3c 3256 d7bd
00000320: 98ab 5e3e b40f 0bbe 28b5 283e 6e3c e13d
00000330: 23f7 8c3d 873a 7a3e 8209 263e 152f ed3d
00000340: abfe 25be 1311 39be af21 febd 7e12 e4bc
00000350: a740 153e 3832 99bc 9acb 1c3e c02b 56bd
00000360: 27e2 083e c62c bcbd cc00 e33d 15cd 17be
00000370: 1b1d 3cbc 6983 4cbe 6aae d43d b7be 45be
00000380: 9ae6 42bd 4a43 09be 6968 333e 2063 c53d
00000390: af91 41be 89ee ed3d 5b1e eb3d 0c95 b93b
000003a0: 3470 42bd 234d b8bd b97e 313d d1cf 113d
000003b0: 6416 d5bc 3b30 20be 0c0c c6bd 978e 653d
000003c0: 35fe 59be e881 ef3d 9c81 1abe 2b0d 9cbd
000003d0: 7d91 fcbc 81fb 0a3d 40fc e0bb 7149 143d
000003e0: e012 4fbd c5da 20be 3a57 d8bd 49b1 fa3d
000003f0: ec54 f4bd c2d7 333c 80ef b43d a20b 053d
0.07405628 0.13497959 -0.083742045 -0.01832071 0.02341187 0.14397232 -0.025091931 -0.06432061
-0.14670521 -0.16666175 0.02658388 0.03446403 0.027665466 -0.16509181 -0.14062493 0.013822585
-0.035930842 -0.008216038 -0.07381706 0.065506 -0.00760895 -0.094762325 0.12030335 0.16744219
-0.034710765 -0.114222914 -0.15031667 -0.17375737 -0.11128515 -0.19698712 -0.108203575 0.15873209
-0.12986994 0.110708006 -0.0853295 -0.21177693 0.045885522 0.11866329 -0.113754585 0.035866015
0.16503416 -0.09619375 0.100804 -0.14870915 0.16957745 -0.090603225 -0.10624212 0.15459801
0.1203635 0.092378624 0.19217105 -0.039567668 -0.15927188 -0.16311467 -0.0039160326 -0.036891725
0.12836517 0.15255828 -0.016207516 0.12618878 0.13147484 -0.13661501 0.18565147 -0.10939406
-0.1705651 0.1736291 0.23045418 0.026417881 0.108183496 -0.08457427 -0.025853002 0.16868438
0.17679632 -0.037902847 0.10778161 0.06733438 0.12903202 -0.06718129 -0.030814273 0.12160972
-0.21824172 -0.26318967 -0.09948055 0.022019226 -0.22606778 -0.06770387 -0.2553462 -0.046258904
0.12884489 0.16963778 -0.2620411 0.046999216 0.053743355 -0.051803917 -0.0866611 0.16493183
0.18311235 0.14053905 0.013071446 0.1169139 -0.061379977 0.03705071 0.06761199 0.08584388
0.08114516 0.17302676 -0.081582636 0.1510134 -0.10154723 -0.16852309 -0.16936772 -0.058044765
0.09304376 -0.043878295 -0.19783388 -0.018654378 0.16772254 0.021799576 0.16793266 -0.19477472
-0.15258697 0.074684456 0.15542161 -0.0556505 -0.16791831 -0.10919113 -0.18247643 -0.022283608
-0.01592799 -0.08033524 -0.19535474 0.082018495 -0.08427476 -0.19360179 -0.113019995 0.14316055
0.07613695 0.012223179 0.014222827 0.029978864 0.054172497 0.12749225 -0.005664635 0.12766966
0.14303629 -0.06100611 0.029501706 0.022716442 -0.18005164 0.11099026 0.097195216 -0.0230397
-0.17207626 -0.1433006 -0.06124032 -0.16824251 0.11555852 -0.07664249 0.10847176 0.117761776
-0.06621124 -0.16545361 -0.110393204 -0.20371991 -0.11705358 -0.17611371 0.041025426 0.13869494
0.1282938 -0.12982285 -0.1715026 -0.13164599 -0.20290703 0.16801979 -0.042011857 0.044799447
-0.01785757 0.12467255 -0.060632743 -0.015891418 0.016232632 0.14289364 -0.2188521 0.13374448
0.024656318 -0.10135504 -0.21988058 0.031287227 -0.11515014 0.06266483 -0.22304851 0.09251
-0.13359995 0.055681154 -0.17088746 0.13220878 -0.034391195 -0.22015096 0.03077955 -0.10514487
0.21745145 -0.13580209 0.16475356 0.10997854 0.06883075 0.24436389 0.16214564 0.11581246
-0.1621043 -0.1807292 -0.124087684 -0.027840849 0.14575444 -0.018700704 0.15312043 -0.052287817
0.1336752 -0.09188227 0.11084136 -0.14824326 -0.011481549 -0.19972004 0.10384829 -0.19311033
-0.0475832 -0.13404575 0.17520298 0.09638047 -0.1890323 0.116177626 0.11480399 0.0056635197
-0.047470286 -0.08999088 0.043333743 0.03559858 -0.026011653 -0.15643398 -0.096702665 0.056044187
-0.21288379 0.116946995 -0.15088505 -0.07619699 -0.030831093 0.03393126 -0.006866008 0.03620285
-0.05055511 -0.15708454 -0.10563512 0.12240846 -0.1193026 0.010976734 0.088347435 0.032481797

network.0.bias f4 [128]
00000000: 00d7 993c bab4 283e 2bb1 ae3d 1241 cc3d
00000010: 15ee 563d a574 483e 8142 49be d94c 113d
00000020: 7fdb 11be c477 59bd 2aa7 163e 64da b5bd
00000030: d03e 593c f4fa d5bd da28 0d3e a0db 54bb
00000040: 4ae1 463e 71ab 543d 9b8f 433d 6098 333c
00000050: 64c5 3ebe d8f8 35be d77d 753d 8c4d 33be
00000060: 259c 0abe 858a f43c 2a88 2b3e c6f6 de3d
00000070: ff49 b4bc d24f 8c3b 2576 4e3e 7fd1 303e
00000080: 7d76 1b3e c02a b9bc 4357 d63d 0377 3e3e
00000090: 778e 0d3e b942 153c 2352 133e 9caa 2c3e
000000a0: 4e9e fdbc 1ab7 353d 037e babc a9ee 12be
000000b0: eedf 913d 6d10 b2bd 50f7 f1bc 464f 1f3e
000000c0: eb70 553e f3b9 5fbd e212 953d f0c0 f43d
000000d0: 41ae 343e 9adb 1ebe b62b 33be 13e8 cc3b
000000e0: baea c03d a6ef c23d ed44 a0bc 5363 b0bc
000000f0: 46d8 91bc 02c4 c73d 79b2 a43d 1375 493e
00000100: 0307 803d f7fe 6e3b bc40 c93d 1e6d 123e
00000110: 8eee 3abe 023b ecbd e048 0a3e 8dfb 18be
00000120: c4f0 0ebe 37ae f8bd a0df 133e 1f4b 233e
00000130: 764f 21be bdd8 143e 92ec 293e eb83 bfbd
00000140: bf56 d0bd 3a27 3ebc 5047 c8bc 45f1 37be
00000150: d36e 283e 1400 03bd 8d55 db3d 3591 24be
00000160: 4418 27be 2454 4c3e 8a95 363e 8056 53bc
00000170: a92c 8cbd 0558 3cbe 9996 debd b4cd b0bd
00000180: 0305 18be 3fb3 003c 49fb 16bd 6fcf 2a3d
00000190: 5274 39be 46d7 d2bd 8a5f 5b3e c804 35be
000001a0: 64cd ccbd b7d9 96bd a08b d2bc 3aa4 72bc
000001b0: e676 b73c 19fc 413e d140 debd ec9f 0bbe
000001c0: 204a fb3d 3838 13be d422 043e 4a90 42be
000001d0: 53f1 073e 7533 253e 3088 4d3d cbf5 07be
000001e0: 01e5 ffbd 9bfb 74bd 10ae babd 8e19 17be
000001f0: 9c06 1dbe e1c9 2e3e d22a 96bc ae1a cd3d
0.018779278 0.16475192 0.08529886 0.09973349 0.052473146 0.19575746 -0.19654275 0.03547368
-0.14243887 -0.053092733 0.14712206 -0.08879545 0.013259605 -0.10448256 0.13785115 -0.003247954
0.19421878 0.05192131 0.047744375 0.010961622 -0.18629986 -0.17770708 0.059934463 -0.1751005
-0.13536127 0.029851208 0.16751161 0.10886912 -0.02200794 0.0042819763 0.20162256 0.17267416
0.15181918 -0.022603393 0.104658626 0.18600087 0.13823877 0.009110146 0.14386801 0.16861957
-0.030959275 0.044364072 -0.022765165 -0.14348854 0.07122789 -0.08694539 -0.029536873 0.15557584
0.20843856 -0.054620694 0.07278992 0.119508624 0.17644598 -0.15513459 -0.17497143 0.0062532513
0.094197705 0.095183656 -0.019564116 -0.021531736 -0.017803323 0.097541824 0.080418535 0.19673567
0.062513374 0.003646789 0.098268 0.14299437 -0.18255064 -0.11534692 0.13504362 -0.14939709
-0.13959032 -0.12142604 0.14440775 0.15946625 -0.15752968 0.14535804 0.1659415 -0.09351333
-0.101727955 -0.011606032 -0.024448067 -0.17963131 0.16448526 -0.031982496 0.10709677 -0.16071017
-0.1631785 0.19953972 0.17830482 -0.012899041 -0.06844456 -0.18392952 -0.10868568 -0.08632985
-0.14845662 0.007855236 -0.036860738 0.04170173 -0.18110779 -0.102949664 0.21423164 -0.17677605
-0.10000113 -0.073657446 -0.025701344 -0.0148096625 0.022395562 0.18943824 -0.108522065 -0.13635224
0.122699976 -0.14376915 0.12903911 -0.19000354 0.13275652 0.1613291 0.050178707 -0.13277356
-0.12494851 -0.059810262 -0.09115231 -0.14755842 -0.15334553 0.17069198 -0.018330965 0.10014854

network.2.weight f4 [128, 128]
00000000: 3a3a 713d 4816 853d 8195 23bc eaf6 823b
00000010: d665 7cbd e28c 993d ebaf 193d 3fa5 49bd
00000020: 5c42 8dbd 3116 d1bc c1cf 7cbd 251f c33b
00000030: 4c34 96bd ed48 993d e876 6f3d cabd 35bc
00000040: ccce d83c 30e4 143d db44 0cbd 1e40 4a3d
00000050: a074 38bd 15d2 a6bd 4800 cb3c 0066 18ba
00000060: 07bb 633c 91cf 14bc bf97 f0bc cad5 9dbd
00000070: 1c70 733d e2c3 673d fa30 1e3c 4c03 bd3c
00000080: 22a6 403d a8b7 bd3c a4dd 0d3d dd78 383d
00000090: 9963 8a3d f43d 033d 8181 94bc 2fc3 e13d
000000a0: f375 42bd 6d35 d23d 8f14 1bbc 1b04 e93c
000000b0: bb0f 373c ffbe cbbd 43ac dfbc f760 0e3d
000000c0: 8db8 6dbd 9274 8cbc ce10 633d 51ec 523d
000000d0: 502f 203a a94f 663c 6371 a03d 9e30 d4bc
000000e0: 2532 583d 76a8 2d3d c8fe 963d 72a7 493c
000000f0: 2efd 36bd 5e62 563d cc24 80bc d605 2f3d
00000100: 14b6 cfbc 1a8b 92bd 8bab 63bc 6939 b7bc
00000110: 3d78 2bbd 9abb 303d 0201 1dbc 68bb f4bd
00000120: c84e a2bc 9dc4 b7b8 9158 ad3d 6956 bd3d
00000130: a560 d73c 2f01 33bd 2d7c 0bbd 7e04 7e3d
00000140: 8e85 5c3d 16da 933d ccd9 aabd 0739 3e3d
00000150: addd 86bd 4ebd f33c fd18 4b3d bab8 bcbc
00000160: 84b5 b53c bd53 5b3d 5124 ddbc ad67 5cbd
00000170: e02d 71bd 418a b63c ce64 3f3d 7f9c 073d
00000180: 2b9b 333d 9b20 e7bc b294 95bc b968 af3d
00000190: b0d8 903c 29c9 24bb 14a7 5c3d 812c b23d
000001a0: 7fda 1c3d 5f53 383d c74a 19bc 451a ad3c
000001b0: 7a06 223d c53c 3cbd a271 1f3c d1d3 583d
000001c0: 5f9e 713d 4170 23bc cd62 f0ba 7575 a33d
000001d0: 858a 073d 262c 123c b9d0 3abd 5094 f83c
000001e0: 0893 0e3d 8fec 503c 5aa0 ab3d f3ca be3c
000001f0: 1bde abbc d56c b73c 9f8b c6bc 50f3 65bc
00000200: 0cb5 9b3c b815 9fbc 6aa3 abbd b4b4 fabc
00000210: 41d9 a9bd 52f7 2bbd 40bb d1bc 5892 4ebc
00000220: 18db 97bc ec2d 54bd 1dc1 b33d 22e0 443d
00000230: b839 96bc 831b 92bd c425 8f3c 206f f9bb
00000240: 7e9b 6fbd 0c8e acbd e5ca a33d 986d c33c
00000250: e06a 95bc ec96 abbd ce54 95bd 3c07 cc3c
00000260: ad44 82bd dc5c eabc ef03 813d 3eff 663d
00000270: c4c0 69bd e006 ac3c 1bd0 a83d aaa5 693d
00000280: 66f3 1d3d eea4 203d b7c1 8dbd c47d e5bc
00000290: ecf4 9fbc ecef 103d 3c32 9a3c 20bc 17bc
000002a0: 7460 d23c 78b1 74bc 259a b23d 9326 adbd
000002b0: 63aa 843d 2c90 78bd eaa0 32bd 30ed 8fbb
000002c0: 5c0c acbd 006f 99bd e396 1cbd 2074 e33b
000002d0: e83a dcbc 4b5d 983d 14a5 8fbd b084 3e3c
000002e0: f45a b4bc b2b7 683d 0749 3abd b74d 5bbd
000002f0: 7e24 3b3d 40f2 0dbd 2001 4e3b 86ae 613d
00000300: be22 5cbd 882f 80bd cc1f b1bd 20f0 9b3c
00000310: 10ed ec3b 78d7 923c eb94 af3d 23b7 a73d
00000320: 81f6 aa3d 5f1c 09bd 6172 38bd 10f8 69bd
00000330: c0b9 a7bc 09e0 1fbd 38fa cb3c 2ea3 213d
00000340: 310e 75bd eaf7 0cbd b22c 223d f450 133d
00000350: d215 293d b058 42bc a347 42bd 4105 27bd
00000360: 2854 6dbc 0306 ae3d 2247 133d 07c2 aebd
00000370: adf5 8cbd ea9d 4c3d 00b4 22bc d802 213c
00000380: fcb0 87bd c0b6 423c 67ca 9fbd dd1d 44bd
00000390: 1682 003d f145 a53d 7cd9 a8bc bc98 88bc
000003a0: d80a 8ebd 1085 b4bd 713b 13bd 0f0f 9bbd
000003b0: f0e0 66bc 8807 adbd 2698 1ebd 3b52 ae3d
000003c0: 6850 45bc 3019 47bc 44b7 ee3c f0dd edbb
000003d0: a8a9 023d 984c 08bc a8a0 533c fe72 1abd
000003e0: ffe8 833d 338b 9dbd 4ea0 2f3d c285 463d
000003f0: bc0e ccbc 8cdf eebc 5ce4 a7bc e0d8 94bd
0.05889342 0.064983904 -0.009984375 0.0039967196 -0.061620556 0.074975744 0.037521284 -0.049229857
-0.06897423 -0.025523277 -0.061721567 0.0059546405 -0.073341936 0.074846126 0.058463007 -0.0110926125
0.026465796 0.03635043 -0.034245353 0.049377553 -0.045033097 -0.08145539 0.024780408 -0.0005813539
0.013899571 -0.009082691 -0.029369233 -0.07706793 0.059433088 0.056583293 0.009655232 0.023072861
0.047033437 0.023158863 0.0346352 0.04503714 0.06757278 0.032041505 -0.018128159 0.110235564
-0.047475766 0.102640964 -0.009465351 0.02844434 0.011173184 -0.09948539 -0.02730382 0.03476044
-0.05803733 -0.017145429 0.055435948 0.0514949 0.0006110566 0.014057078 0.07834127 -0.025902089
0.052782197 0.042396985 0.073728144 0.0123079885 -0.044675045 0.052339904 -0.015642546 0.042730175
-0.025355376 -0.07155438 -0.0138958795 -0.022366242 -0.041862715 0.04314766 -0.00958276 -0.119498074
-0.019812956 -8.762742e-05 0.08464158 0.09244997 0.0262912 -0.0437023 -0.03405397 0.062016003
0.053838305 0.07219331 -0.08342323 0.046441104 -0.0658525 0.029753353 0.049584378 -0.023037303
0.02218128 0.053546656 -0.026994856 -0.05380981 -0.05888164 0.022282721 0.046726994 0.03310823
0.04384915 -0.02821379 -0.01825938 0.08564896 0.01768145 -0.0025144315 0.053870276 0.08699895
0.03829431 0.045001384 -0.009356207 0.02113069 0.039556958 -0.04595639 0.009731682 0.05293638
0.058988925 -0.009975494 -0.0018339992 0.079813875 0.033091087 0.008921659 -0.04560921 0.030344158
0.03480819 0.012751712 0.08380194 0.023290133 -0.020979932 0.022390762 -0.024236498 -0.014035061
0.019007228 -0.019419536 -0.08380778 -0.030603744 -0.08293391 -0.04198391 -0.025601983 -0.012608133
-0.01853709 -0.051801607 0.08777068 0.048065312 -0.01833807 -0.07134154 0.017474063 -0.007612124
-0.0584979 -0.08425531 0.079976834 0.02385597 -0.018239439 -0.083783954 -0.07291566 0.024905793
-0.06360755 -0.028608732 0.062995784 0.05639576 -0.0570686 0.020999372 0.08242818 0.057042755
0.0385622 0.03921979 -0.06921714 -0.028014071 -0.019525968 0.035385057 0.018822782 -0.009261161
0.025680758 -0.01493489 0.08720807 -0.08454623 0.06477811 -0.060684368 -0.04361049 -0.0043922886
-0.08400795 -0.07491875 -0.038229834 0.0069413334 -0.026883557 0.07439669 -0.07013908 0.011628315
-0.022016026 0.05681581 -0.0454798 -0.05354091 0.0456891 -0.034654856 0.0031433776 0.05509808
-0.05374407 -0.06259066 -0.08648643 0.019035399 0.0072304085 0.01792501 0.08573326 0.081892274
0.08347798 -0.033474322 -0.045030955 -0.057121336 -0.020474315 -0.039032016 0.024899587 0.03946226
-0.059827987 -0.034416117 0.039593406 0.035965875 0.041280575 -0.011861965 -0.0474316 -0.040776495
-0.014485396 0.084972404 0.03595651 -0.085331015 -0.068827964 0.049955286 -0.009930611 0.009827338
-0.06625554 0.011884391 -0.07802277 -0.047880042 0.03137406 0.08069981 -0.020611517 -0.016674392
-0.06935662 -0.08814442 -0.03594536 -0.075712316 -0.014091715 -0.08448702 -0.03871932 0.08511778
-0.012043096 -0.012152001 0.029140122 -0.007259123 0.031900078 -0.008319043 0.012916721 -0.03770732
0.06440925 -0.07692566 0.042877488 0.048467405 -0.02490937 -0.02915933 -0.020494632 -0.07267928

network.2.bias f4 [128]
00000000: 6e07 823d a33e 8a3d dbae cabd 009f 4cbd
00000010: 273e b43d fa75 4b3d f7b9 1dbd 0292 93bc
00000020: dba3 083d e9cf 1a3d 9a01 543d 7e84 a43d
00000030: 709a 0bbd 2aa6 633d 2e8a 04bd 6d87 a63d
00000040: 04d3 37bd 8346 073d 6609 a8bd c0df a7bd
00000050: 8b9b 3bbd 0b0e b63c 2fb6 b03c 4d46 febc
00000060: 3759 763c c359 02bd 01a0 4f3c e835 f4bc
00000070: 11a4 11bd 609d 14bd b9f7 913d c075 9c3d
00000080: 912d 82bd b676 6a3d 2984 c83d aefa 2f3d
00000090: 42a6 a4bd 4b8c da3c 1675 8bbd 5aee 55bd
000000a0: e260 723c 00f0 a73d 6c3f 173d 5a6c 26bd
000000b0: 00a5 153d 8fa0 ad3d 1de4 233a 6faa 72bd
000000c0: 1623 443d 9f0e 8e3d ae33 84bc a113 103d
000000d0: fed7 99bd 48b0 80bd dc7c b3bd 4930 433d
000000e0: 9052 26bc 2f46 8abd f08d 633c 4909 41bd
000000f0: 1e63 a73c 58db 973c d096 d23d 888f bb3d
00000100: bc22 c23d b1ea 693d ce95 43bc 40cf af3c
00000110: 3787 ab3d d85e 00bd 67b8 913d b86c 91bd
00000120: 1db1 243c 9a22 413c 347a edbc 67b9 7ebd
00000130: 61f1 b93d 264e febc 6618 e03c 687e 7fbd
00000140: e06f 003d 1758 ed3b ef9c a53d ea9e b2b9
00000150: 09ab a2bd 844d 2d3d 0648 d1bc 3f42 e53c
00000160: e49c 503d 18a2 20bd 232b 603d 2537 54bd
00000170: 6064 0c3d 0a65 ac3c 1d3a c73b ef41 a7bd
00000180: bb46 59ba c601 3bba 6b33 8f3d a451 01bc
00000190: 5ace 9d3d 482d 0e3d e061 993d fad6 4bbd
000001a0: 1876 34bd 781b 71bd 688b 9f3d b7f6 c43b
000001b0: c2d5 823b 1fa4 68bd f356 20bd 22a3 2ebd
000001c0: 33d3 e4bb 6891 16bd 24aa afbd 1a5d da3b
000001d0: f3be 97bd e7b1 8a3d 3ccf 433d e9db 09bd
000001e0: 0f82 5a3d d584 e93b 1834 79bc 4987 75bd
000001f0: d2cb 893d 2c46 71bd 44e3 66b9 bd72 293d
0.06349073 0.06750228 -0.09896632 -0.04995632 0.08800917 0.049673058 -0.038507428 -0.018013958
0.03335939 0.037795935 0.05175934 0.080330834 -0.03408283 0.05557839 -0.03235834 0.08131299
-0.044878975 0.03302623 -0.082049176 -0.08196974 -0.045802634 0.022223493 0.021571247 -0.031039381
0.015035919 -0.031823885 0.012672425 -0.02981086 -0.035556857 -0.036282897 0.071273275 0.076396465
-0.06356347 0.057242118 0.097908325 0.042963676 -0.08039524 0.026678225 -0.06809442 -0.052229263
0.0147936065 0.08200073 0.03692572 -0.040630676 0.03653431 0.0847789 0.0006251948 -0.05924457
0.047885023 0.069363825 -0.016137924 0.03517497 -0.075119 -0.06283623 -0.087640494 0.04765347
-0.01015152 -0.06751668 0.013888821 -0.047127996 0.020433005 0.018537208 0.102826715 0.09158236
0.09479281 0.057108585 -0.011937572 0.02146113 0.083753996 -0.03134045 0.0711525 -0.071008146
0.010051993 0.011788035 -0.028988935 -0.062188532 0.090792425 -0.031043123 0.027355384 -0.06237641
0.031356692 0.007243167 0.08086573 -0.00034069206 -0.079427786 0.042310253 -0.025547039 0.02798569
0.050930873 -0.039217085 0.05472864 -0.051810402 0.034275413 0.021044273 0.0060799257 -0.08166873
-0.0008288433 -0.0007133748 0.06992229 -0.007893 0.07705374 0.034711152 0.07489371 -0.049765565
-0.044057935 -0.058864087 0.077902615 0.006010856 0.003992767 -0.056797143 -0.03914542 -0.042636044
-0.0069831847 -0.036759764 -0.085773736 0.0066639306 -0.074094675 0.067722134 0.047805056 -0.03365699
0.05334669 0.0071264305 -0.015210174 -0.05994347 0.06728329 -0.05890481 -0.00022019172 0.04136919

network.4.weight f4 [8, 128]
00000000: f12a 4fbd 2095 81bc eb6e 9e3d db91 8f3d
00000010: 5e10 e6bc eb7e a03d 679b a33c addd 9d3b
00000020: a184 483d 082e 95bc 490a 78bd 091e e2bc
00000030: f8c5 12bc d2fe 95bd 768d 1d3d ac2a d039
00000040: 37a1 853d c5c5 2d3d 6017 b93c 00c8 7fbb
00000050: 79c0 3dbd 224d bf3d 55e5 eabc 519d a9bd
00000060: c2ff 9f3d c237 1e3d 7b11 003c 8ac1 ae3d
00000070: 65b2 9a3c 51e3 813d 072c 62bd 239c df3c
00000080: c731 333d 6471 a1bd 1cef bbbd 4028 f73a
00000090: a9de 6abd 34aa d9bb 45ea 82bd 21de 933d
000000a0: 8b93 653d e325 e63c 98b4 90bd 9e76 e83c
000000b0: ffb0 a53c 9346 173d 284c 023d 52cf 793d
000000c0: b0e9 443d f065 d73c f998 7cbb ba07 8cbd
000000d0: 70b0 463c dcf0 65bd f46f a7bc ea94 9f3d
000000e0: 2881 fcbc 62b2 83bd aa00 96bd 0a91 b4ba
000000f0: 3845 4c3d ba24 7d3d 6348 dc3c 0d63 c93c
00000100: 20ba 2abd f67f 8e3c b762 ddbc 617c 983d
00000110: 0e1b 913d 3c5f ebbd 20b9 6bbc 8f03 54bd
00000120: 5e0a 82bd ca4a 86bc 7f1c 74bd 8d0f a9bd
00000130: f294 2ebd 21e7 c9bd 265b 98bd 7f9f 24bd
00000140: 7394 7dbd 49fb 0f3d b2ed 6b3d 42b1 5e3d
00000150: 1cf6 f2bc f9a2 263c 3b6e 893d 91fa 2e3d
00000160: cd07 1dbd 9d31 57bc 2147 be3b b9bf 3d3d
00000170: e5a1 8abd 35f0 133d e11b f23c 1324 d1bc
00000180: aaac 32bd 8461 723d bf4e 06bd ed9e 10bd
00000190: 7fac 08bd b6fe 6c3d ef8e 5f3d e1d2 093d
000001a0: c004 5e3c 00c0 7e3c ea2c a73b 5cd6 eb3b
000001b0: 1b3a a0bc 486a 9cbd 4ebf 2b3a f6f0 8f3d
000001c0: 9ab4 693d d2c3 f4bc 1159 8abd 2518 79bd
000001d0: 54df 833c 252f acbd fa01 c23b 233e 9f3d
000001e0: d031 1b3d 42bd 5dbd 9fa3 00bd 3783 36bd
000001f0: e1f4 133c 2851 80bd 0c82 8abd 1573 22bd
00000200: 1d38 c13d f24f 333d e168 8d3c dcce a1bd
00000210: 8d68 a23d befe 39bd 5f60 a33d 076c 86bc
00000220: e02e b73d ef61 9dbc 6a26 6bbc 1690 9dbd
00000230: 1046 d9bc dae4 463d 5a92 1d3d 9c65 3e3d
00000240: 5d42 903d a83d 6bbd 2247 663d 733f 8d3d
00000250: 2f28 ef3c 1197 323d c48f 903c 7fe6 823d
00000260: 258b 26bd 5c0b 073d 2e49 e33d 3832 1abd
00000270: 1862 9c3d 22f0 bdbc eaab 26bd 63ba f83b
00000280: 240a ba3d ee47 523d ac24 733d 3c26 c43c
00000290: 23f8 a0bd d426 213d 89ad 5ebd 629c eebb
000002a0: 954f 863d e53f 91bc f87f 663c aa5b ad3d
000002b0: 5c11 01bd 33f1 393d fef2 85bd 36b0 663d
000002c0: 6525 653d 8c99 e83c 04cc 1fbd 410f ab3c
000002d0: f132 01bd f539 933d 6039 6bbc 20ea d73d
000002e0: 2a8c 1e3d 6e94 093d ddc3 c6bc 3a76 913d
000002f0: dabe 7a3d df45 15bd d634 6abb c709 623d
00000300: 25be db3d 4746 023d 2afb 903d 9507 223d
00000310: 8767 4c3d b5c3 bdbc 338e 58bd 2031 773b
00000320: aa99 37bd d81c d53d 7e67 12bd d855 95bd
00000330: f944 2bbc b999 d73c 87d7 37bb cd29 a1bd
00000340: 8091 59bd 2e1f 013d b9bf 8c3d 0a45 20bd
00000350: 2e2a 783d 7236 5bbd 6549 033d d204 1f3d
00000360: 7574 363d ad0c 213d 986c bc3d 1614 963d
00000370: 0047 af3d 7014 b1bc f711 833d c3e5 b9bc
00000380: caad 263d 9147 4d3d 40bb e03a eb15 67bd
00000390: e9ba 7f3d 7ef4 653d 6830 05bc 1e5c 5cbd
000003a0: cd11 72bd 0a0c 27bd 7cbc cb3b c35d f33d
000003b0: 149a 9b3d ca92 233d 2811 68bd b5a6 8dbc
000003c0: aa19 383d f0c7 db3d d43f a73c 14da 5d3d
000003d0: 14e9 3ebd f584 fd3d 9cff 463d aeb1 173d
000003e0: 53f0 163d cbb9 d83d 4f9f 07bd c5fe a83d
000003f0: 21be 643d 2d76 c7ba 4a20 b1bc 04df e13d
-0.05057806 -0.015818179 0.07736 0.070102416 -0.028083976 0.07836708 0.019971563 0.0048176856
0.04895461 -0.018210426 -0.060556684 -0.027602213 -0.008958332 -0.07323994 0.038464986 0.00039704645
0.0652489 0.042424936 0.022594154 -0.0039029121 -0.046326134 0.09340884 -0.028673807 -0.08281959
0.07812454 0.038627394 0.007816668 0.085330084 0.018883893 0.06342185 -0.05521777 0.027296131
0.043748643 -0.07882956 -0.09176466 0.00188566 -0.05734125 -0.0066426042 -0.063923396 0.07220102
0.05604891 0.028094238 -0.070656955 0.028376874 0.020226 0.03693254 0.03181091 0.06098873
0.048074424 0.026293725 -0.0038543327 -0.06837411 0.012127027 -0.056137905 -0.020439126 0.07792075
-0.030823305 -0.06430508 -0.073243454 -0.0013776135 0.0498707 0.061802603 0.026889985 0.024583364
-0.04168141 0.017395 -0.02702461 0.074455984 0.070852384 -0.11492774 -0.014387399 -0.051761206
-0.06349634 -0.016393084 -0.05959749 -0.08254919 -0.042622514 -0.098585375 -0.0743926 -0.04019117
-0.06190915 0.035151754 0.05759973 0.054368265 -0.02965837 0.010170692 0.06710478 0.042719427
-0.038337518 -0.013134387 0.005806819 0.04632542 -0.0676916 0.03611775 0.02955431 -0.025529897
-0.043621697 0.05917503 -0.032789942 -0.035307813 -0.03336763 0.0578601 0.05457967 0.033648375
0.013550937 0.015548706 0.0051017897 0.0071971845 -0.019558957 -0.07637459 0.0006551639 0.070283815
0.057057 -0.02987853 -0.06755269 -0.06081404 0.016097702 -0.084074296 0.005920646 0.077755235
0.0378893 -0.05413557 -0.03140604 -0.04455873 0.009030552 -0.06265479 -0.06763086 -0.039660532
0.09434531 0.043777414 0.017261924 -0.079007834 0.07930098 -0.045408957 0.07977366 -0.016408933
0.089444876 -0.019211737 -0.01435242 -0.07693498 -0.026522666 0.048558094 0.03846965 0.04648362
0.07043908 -0.057431847 0.05622018 0.068968676 0.029193966 0.0436011 0.017646678 0.0639162
-0.040660042 0.032969818 0.11097942 -0.03764555 0.076358974 -0.023185793 -0.040691294 0.0075905784
0.090839654 0.05133813 0.059361145 0.023944013 -0.07859828 0.03934367 -0.054364715 -0.007281826
0.06558148 -0.017730663 0.014068596 0.08464749 -0.031510696 0.04539604 -0.06540488 0.05632039
0.055943865 0.02839353 -0.039012924 0.020881297 -0.031542722 0.07188789 -0.014356941 0.10542703
0.03870789 0.03358882 -0.024263317 0.07102628 0.061217166 -0.036443587 -0.003573706 0.055185106
0.107296266 0.031805303 0.07079156 0.039558012 0.04990342 -0.02316461 -0.052869987 0.003771849
-0.04482428 0.10405892 -0.03574323 -0.07291764 -0.010453456 0.026318418 -0.0028052048 -0.07869301
-0.053117275 0.031523876 0.06872506 -0.03912834 0.0605871 -0.05351872 0.032052416 0.038822956
0.044544656 0.03931873 0.092004 0.0732805 0.08558464 -0.02161619 0.06399911 -0.022692567
0.040693082 0.05011708 0.0017145649 -0.056417387 0.06243411 0.05614137 -0.008129217 -0.053798787
-0.059099007 -0.040782966 0.0062175374 0.11883118 0.075977474 0.03993491 -0.056656986 -0.017291406
0.04494635 0.107314944 0.020416178 0.054163054 -0.046609 0.12378875 0.04858361 0.037034683
0.036850285 0.10582312 -0.033110913 0.082517184 0.055845384 -0.0015217714 -0.021621842 0.11028865

network.4.bias f4 [8]
00000000: ed42 8f3d 122d 9dbc f996 51bd 8d6a 3e3c
00000010: f3f6 aebd 21cb b93c c721 4c3c 5669 b5bd
0.06995187 -0.01918653 -0.05116937 0.011622083 -0.085431956 0.022679867 0.012459225 -0.08857982

exp_avg f4 [128, 26]
00000000: 0000 0000 0000 0000 0000 0000 0000 0000
00000010: 0000 0000 0000 0000 0000 0000 0000 0000
00000020: 0000 0000 0000 0000 0000 0000 0000 0000
00000030: 0000 0000 0000 0000 0000 0000 0000 0000
00000040: 0000 0000 0000 0000 0000 0000 0000 0000
00000050: 0000 0000 0000 0000 0000 0000 0000 0000
00000060: 0000 0000 0000 0000 125a 7abc b6af d2bc
00000070: 9d5d e9bc b13d 34bd bcc2 50bd b0df c0bc
00000080: 7087 50bc b859 333c 5c29 06bd a46f a9bc
00000090: 0996 363d 7080 093b f001 6bbc 46b6 c23c
000000a0: 802e d83b 00b4 6e3c a89c 373c f832 5b3d
000000b0: 4633 ed3c 5e2f c5bc 1ee2 b73c ae7c 8f3c
000000c0: 5853 aa3c 9f09 0f3c 8671 853c 4e1a 873c
000000d0: 20b2 6dbb 1cd5 f8bb 49e1 a7bc c62b 03bd
000000e0: 2e65 1cbd 7a77 8ebc b2ae a1bc d021 28bb
000000f0: b479 d9bc ac83 c8bc e099 053d 0886 8ebc
00000100: f94c c13c 4840 fa3b b401 3dbc c042 6aba
00000110: 8ca5 79bc a444 a63c 2812 b6bb b5bb 12bd
00000120: e468 813c 60ec bc3b b8b5 d73b b404 793b
00000130: 9076 d33b 48e0 cc3b 6773 d63b 3434 1d3c
00000140: 576d c93b 2c64 153b c0ca 79b9 bfd3 d13c
00000150: c892 093d fe34 873d d43c 8a3c e0e3 bb3c
00000160: 2062 803d 1d2a 0c3d f628 0a3c 8d57 733d
00000170: 1637 723d 70f8 3c3d 257c 843d 4414 9a3d
00000180: ba1b 383d 83aa 073d ab9b 4a3d db5b 2a3d
00000190: 6e26 233d 8dc7 8e3c b151 2c3d f256 2a3d
000001a0: a370 e028 6b17 8fab 0340 62b8 d1ba 2caa
000001b0: 0000 0000 ec1f 8e35 bcc3 5b38 aebd dfb9
000001c0: 91c2 29b6 e3d4 92b5 52cc 2b3a 64df aeb9
000001d0: 0000 0000 510c cab9 2a4d 0dba be72 deb9
000001e0: 8728 08ba 3cab 2cba 2928 0dba c9df 4eba
000001f0: f8ea 99b9 cbdc d538 2217 ab38 4493 0e38
00000200: 4493 0e39 5751 0039 5a9f 64bc 384f bebc
00000210: 5e80 07bd 2da2 41bd 046a 63bd bf5a eabc
00000220: ca75 f7bc 40af 94bc c65c 12bd e460 01bd
00000230: c6ab 1e3c da97 1abd 302b a2ba a8fa 81bc
00000240: 19e5 0dbd 16ba d1bc df0c 27bd 20e5 c2bb
00000250: 645f d5bc a56b 83bd b0da b3bc f0b9 45bc
00000260: 8ee3 14bc 58e6 84bb b27a 3cbc 5a28 43bc
00000270: 0000 0000 0000 0000 814d e71d 0000 0000
00000280: 0000 0000 0000 0000 0000 0000 8368 fb1e
00000290: 0000 0000 0000 0000 8672 ef1f 3868 0d20
000002a0: 0000 0000 6bb7 c51f d939 0d20 1c6f 971d
000002b0: 1fdd 9e1f 9b78 2920 ab79 f91f 66b4 0f20
000002c0: 14ad 2a1f d939 8d1f d939 8d1f 0067 3e1f
000002d0: d939 8d1f d939 8d1f 82d7 5aba b0b5 33b9
000002e0: 4cb9 763b 6f87 39bb eff5 8dbb 8619 263c
000002f0: 0edd c43c 9a76 7f3d 7ed8 94ba 93ff 263c
00000300: 6765 7d3d 7207 4c3d 7134 92bb bef2 8b3d
00000310: e148 883d 0c55 6b3d 799e a33d ded5 ce3d
00000320: 981d 733d 0a93 6f3d 506a 663d 21e9 3f3d
00000330: e601 3d3d e780 a33c 213f 423d 4e74 413d
00000340: 88e8 8617 6889 b817 a372 281d 874b 5017
00000350: 1738 ae16 33d7 891b feb0 3f1c 1d4a 551f
00000360: b7b8 e818 5aa4 1919 5699 601f a2ad e61d
00000370: 7d04 5f97 5496 221f d443 681f fdb2 071e
00000380: e810 1f1f 1f5d 691f 58b6 881f f6df 651f
00000390: b6ba ab1e 5e7d e01e f3ce c11e 429a 211e
000003a0: 853f e81e 243f e81e 31ed 943b 7fc4 b93b
000003b0: 4c79 0a3c 8fc4 963b a0df 7c3b c964 013d
000003c0: e6f6 2b3d 73db 923d 24de ad3c fe21 fd3c
000003d0: ef16 7d3d f7a9 633d 1416 f23a 247f 963d
000003e0: 8e6d 9b3d a4d5 863d 810a b53d 68fd cd3d
000003f0: 4032 923d aea4 6e3d 4c7b 8a3d c988 523d
0.0 0.0 0.0 0.0 0.0 0.0 0.0 0.0
0.0 0.0 0.0 0.0 0.0 0.0 0.0 0.0
0.0 0.0 0.0 0.0 0.0 0.0 0.0 0.0
0.0 0.0 -0.0152802635 -0.025718551 -0.028487021 -0.044004146 -0.050966963 -0.023544163
-0.012727603 0.010946684 -0.032754287 -0.020683117 0.04457668 0.0020981096 -0.014343724 0.023768555
0.00659734 0.0145692825 0.011206783 0.053515404 0.028955113 -0.024070438 0.022446688 0.017515507
0.020791695 0.008730321 0.016289484 0.016492035 -0.00362695 -0.007593764 -0.020493167 -0.032024167
-0.03818243 -0.017390955 -0.019736622 -0.002565492 -0.02654729 -0.024476849 0.03261745 -0.017397895
0.023596274 0.0076370575 -0.011536051 -0.0008936338 -0.015237223 0.020296402 -0.0055563636 -0.035823543
0.015797086 0.005765483 0.006582942 0.0037997188 0.0064533427 0.0062523223 0.0065445188 0.009594966
0.0061470675 0.0022795303 -0.00023822021 0.025613664 0.033587247 0.06601904 0.016874708 0.022935808
0.06268716 0.03421985 0.008432617 0.059409667 0.059134565 0.046135366 0.06468991 0.075233966
0.044948317 0.033121597 0.049464863 0.041591506 0.03983157 0.017429138 0.042070094 0.041586824
2.4917844e-14 -1.0167261e-12 -5.3942214e-05 -1.5341484e-13 0.0 1.0589115e-06 5.239596e-05 -0.00042675197
-2.5296215e-06 -1.0939806e-06 0.00065535784 -0.00033354305 0.0 -0.0003853762 -0.00053902215 -0.0004242863
-0.00051940273 -0.0006586795 -0.00053847075 -0.0007891623 -0.000293575 0.000101977574 8.158224e-05 3.399259e-05
0.00013597036 0.00012237333 -0.013954008 -0.023231134 -0.033081405 -0.047273804 -0.055521026 -0.028607724
-0.030207533 -0.018149972 -0.035733007 -0.031586543 0.009684509 -0.037742473 -0.001237249 -0.015866593
-0.034642313 -0.025601428 -0.04078376 -0.005947724 -0.026046462 -0.06417016 -0.021954864 -0.012068257
-0.009087456 -0.0040557794 -0.011503862 -0.011911476 0.0 0.0 6.122533e-21 0.0
0.0 0.0 0.0 2.6618884e-20 0.0 0.0 1.014099e-19 1.1977648e-19
0.0 8.3736185e-20 1.1962305e-19 4.008425e-21 6.728142e-20 1.4354762e-19 1.05656885e-19 1.217226e-19
3.6142067e-20 5.9811524e-20 5.9811524e-20 4.0319265e-20 5.9811524e-20 5.9811524e-20 -0.0008348153 -0.00017138454
0.0037647067 -0.0028309484 -0.004332296 0.010137921 0.024031188 0.062368967 -0.0011356024 0.01019277
0.061864283 0.049811788 -0.004461818 0.06833409 0.066545255 0.057454154 0.07989211 0.10099386
0.059354395 0.058489837 0.05625373 0.04685319 0.04614439 0.019958926 0.047423486 0.047230057
8.718246e-25 1.1925408e-24 2.229388e-21 6.7303754e-25 2.8146614e-25 2.2803818e-22 6.3425356e-22 4.516581e-20
6.015711e-24 7.943105e-24 4.756068e-20 6.1060025e-21 -7.206085e-25 3.4429183e-20 4.9184017e-20 7.183854e-21
3.3683544e-20 4.9416697e-20 5.78999e-20 4.8677892e-20 1.8182551e-20 2.3768773e-20 2.0520262e-20 8.555169e-21
2.4590227e-20 2.459007e-20 0.004544877 0.005669176 0.008451771 0.0046010683 0.003858544 0.031590257
0.041983508 0.07170763 0.021224089 0.030899998 0.06178945 0.055582013 0.0018469715 0.07348469
0.07589255 0.065837175 0.08839894 0.10058099 0.07138491 0.05826252 0.06761798 0.05139998

exp_avg_sq f4 [128, 26]
00000000: 0000 0000 0000 0000 0000 0000 0000 0000
00000010: 0000 0000 0000 0000 0000 0000 0000 0000
00000020: 0000 0000 0000 0000 0000 0000 0000 0000
00000030: 0000 0000 0000 0000 0000 0000 0000 0000
00000040: 0000 0000 0000 0000 0000 0000 0000 0000
00000050: 0000 0000 0000 0000 0000 0000 0000 0000
00000060: 0000 0000 0000 0000 f494 823b 4ff5 813b
00000070: 22e4 923b b42e 883b a8c1 773b 2a60 543c
00000080: 18c9 6a3c fb95 0b3d 131b 523c 1a2b 523c
00000090: 4043 9a3c fef4 943c e5ba a73b da2d e73c
000000a0: 1ebb 373d 7ee8 923c 2fde 113d 93fb 093d
000000b0: 0249 143d fced 143d 25cf 023d 0577 4f3c
000000c0: c5d9 283c e545 0a3b 9235 663c 6de2 603c
000000d0: ef75 983b 362d 953b 6055 aa3b 0320 9d3b
000000e0: 81db 9d3b 6872 5d3c ec7a 6f3c 5bfa c23c
000000f0: a8ec 5a3c 9a9d 563c 7dc6 553c bff6 5c3c
00000100: 8ba6 d73b f45f a23c 2786 f63c 1315 7d3c
00000110: fcd1 d13c fe5d bb3c cf24 cd3c 567f c03c
00000120: 0aba b93c 3bfa 153c d2dc f63b be8e c63a
00000130: aac7 223c 4f33 203c c9b8 3c3b 4335 3c3b
00000140: d8e2 3b3b 4934 293b 3d5c 273b 569a 083c
00000150: a724 1b3c 7d3d 9f3c 4e11 0b3c 5c8a 0a3c
00000160: 8f8a 383c 2e24 2f3c db34 763b 98d3 873c
00000170: bc26 d73c 7519 433c 20f8 ac3c 7336 a73c
00000180: e36e ab3c 6abd af3c 5710 9a3c 9209 f63b
00000190: 4519 c93b bee7 a33a 3628 073c ff56 043c
000001a0: 61fe 4636 bf22 0837 9380 a336 9a31 8734
000001b0: 0000 0000 d9f9 4435 922e 6036 e674 2539
000001c0: 4f1a 0d34 bd98 9333 672c ad36 f56f 9638
000001d0: 0000 0000 a731 b438 be3e 3239 33da af37
000001e0: 59cf 7538 b575 1b39 25ee 1039 ff4a de38
000001f0: 43eb 3c38 0e4a a337 4633 5d37 9cce 1a36
00000200: c477 fb37 a445 d337 120a 933b 4ecc 983b
00000210: cbec a43b 3441 a03b ca33 9d3b 2702 593c
00000220: 7383 5d3c 30b7 d83c e051 523c 676c 4b3c
00000230: 8965 763c 1f51 693c fe5c c03b 42e2 b13c
00000240: 8692 0a3d 0d7b 753c 8882 e63c 7c91 dc3c
00000250: f0d1 e13c 00db dd3c 8d54 d23c c98a 243c
00000260: fa89 073c bba4 d83a 4a56 323c 7e88 2f3c
00000270: 0000 0000 0000 0000 b372 8f2e 0000 0000
00000280: 0000 0000 0000 0000 0000 0000 3e78 a930
00000290: 0000 0000 0000 0000 72ba 9932 6274 d632
000002a0: 0000 0000 b4a0 5132 efe7 d532 31f2 f52d
000002b0: f955 0732 1e03 1a33 acdf a632 ff7a dd32
000002c0: bf35 1c31 efe7 d531 efe7 d531 c967 4231
000002d0: efe7 d531 efe7 d531 7d0e b23a c103 db3a
000002e0: 94f5 313b da3b d13a 131b 993a cd76 a23b
000002f0: 657b b73b 1ef2 b23c 07dd 8e3b 0056 993b
00000300: fef8 503c 2859 5a3c d7ad c23a 8f2f a33c
00000310: fe0d 103d 0052 2a3c fb8a c43c 505f cb3c
00000320: e0b4 ce3c 6795 cd3c 6cba c63c 9ce3 0d3c
00000330: d11b e73b 7f3c bf3a 8f24 213c 0e21 1c3c
00000340: e8c4 d532 1078 ca32 61dc 3e33 6c45 a932
00000350: c181 9032 de64 2b36 3de2 4236 a0ce 0337
00000360: 5841 2136 9108 1636 3ea8 0637 763b 6236
00000370: fa07 2235 6e8a 0237 8001 6a37 2518 ae35
00000380: 302d 1c37 ed87 2437 8ba2 9337 37ec 5c37
00000390: e28e 9536 a68f 6036 b9b7 4536 b554 1735
000003a0: ab96 7536 a47c 6f36 e3cc a43a 6008 d33a
000003b0: 5203 f03a f049 a13a c1e3 963a 0838 5b3b
000003c0: 7aa8 703b 7e91 783c 20ed 473b e38d 503b
000003d0: 13f1 1a3c beba 093c c1cc 913a e33b 5a3c
000003e0: 22ce ba3c b934 d03b 036d 8a3c 0e58 8f3c
000003f0: cc70 883c 9eab 863c 3268 8a3c 121b c03b
0.0 0.0 0.0 0.0 0.0 0.0 0.0 0.0
0.0 0.0 0.0 0.0 0.0 0.0 0.0 0.0
0.0 0.0 0.0 0.0 0.0 0.0 0.0 0.0
0.0 0.0 0.0039850418 0.0039660106 0.004482762 0.004155958 0.0037804637 0.01296238
0.014330171 0.03407858 0.012823838 0.012827659 0.018830895 0.018183228 0.005118715 0.028220106
0.044856183 0.017933127 0.03561228 0.033687185 0.03620244 0.036359772 0.03193583 0.012662654
0.010305827 0.002109879 0.014050858 0.013725859 0.0046527307 0.0045525087 0.005198166 0.004795076
0.0048174267 0.013516046 0.014616709 0.02380102 0.013362087 0.013099099 0.013047812 0.013486563
0.0065811328 0.019821145 0.030093266 0.015446919 0.025612824 0.022871967 0.025041966 0.023498219
0.022671718 0.009153898 0.007533648 0.0015148742 0.009935299 0.009777858 0.0028796664 0.002871827
0.0028669145 0.0025818518 0.0025537156 0.008337578 0.009469188 0.0194385 0.0084880125 0.008455839
0.011263504 0.010689778 0.0037568125 0.016580388 0.026263587 0.011907925 0.021114409 0.020411706
0.020926898 0.021452624 0.01880662 0.007508465 0.0061370456 0.0012504978 0.008249333 0.008077382
2.9652367e-06 8.114322e-06 4.8727466e-06 2.51818e-07 0.0 7.3379266e-07 3.3405709e-06 0.00015779174
1.314122e-07 6.873004e-08 5.160971e-06 7.173411e-05 0.0 8.592317e-05 0.00016998776 2.0963233e-05
5.860566e-05 0.00014825801 0.00013821626 0.00010599754 4.5041797e-05 1.9465599e-05 1.31845645e-05 2.306805e-06
2.9977302e-05 2.5185589e-05 0.0044872845 0.004663027 0.0050331107 0.0048905853 0.0047974335 0.013245142
0.0135201095 0.026454538 0.012836903 0.012415982 0.015038856 0.014240532 0.0058704605 0.021714333
0.033831142 0.014982951 0.028138414 0.026924841 0.027565926 0.027081966 0.025675083 0.010042855
0.008272642 0.0016528586 0.010884831 0.010713695 0.0 0.0 6.523262e-11 0.0
0.0 0.0 0.0 1.2330543e-09 0.0 0.0 1.789633e-08 2.4965804e-08
0.0 1.2201941e-08 2.4901935e-08 2.796083e-11 7.877582e-09 3.5858754e-08 1.9426658e-08 2.5783718e-08
2.2731539e-09 6.2254837e-09 6.2254837e-09 2.828971e-09 6.2254837e-09 6.2254837e-09 0.001358464 0.0016709493
0.0027154433 0.0015963272 0.0011681042 0.00495801 0.0055994266 0.021843966 0.0043598446 0.0046794415
0.012754677 0.013326921 0.0014852834 0.019920139 0.035169594 0.010395527 0.023992052 0.024825722
0.025232732 0.025095655 0.024258815 0.008660223 0.0070528765 0.0014590173 0.009835376 0.009529365
2.4886006e-08 2.3570493e-08 4.4438256e-08 1.9705759e-08 1.6822812e-08 2.5539698e-06 2.903994e-06 7.856317e-06
2.4028905e-06 2.2356728e-06 8.026194e-06 3.3711235e-06 6.036131e-07 7.7808345e-06 1.3947836e-05 1.2971037e-06
9.308846e-06 9.806809e-06 1.7599456e-05 1.316802e-05 4.45718e-06 3.3462215e-06 2.9462228e-06 5.637515e-07
3.6595545e-06 3.5686326e-06 0.0012573268 0.0016100518 0.0018311536 0.001230536 0.0011511968 0.0033450145
0.0036721514 0.015171407 0.0030506328 0.0031822852 0.009456891 0.008406339 0.0011123643 0.013319942
0.02280337 0.0063539413 0.016897684 0.017498042 0.016655348 0.016439255 0.016895387 0.005862602

exp_avg f4 [128]
00000000: 0000 0000 8414 0b3d 2cc0 323c d6d0 ad3d
00000010: f251 10ba 3aaf b9bc d939 0d20 17ed c73d
00000020: 8544 681f c1fe d63d 6a6b 2f2a ad1d ae3d
00000030: 0000 0000 d72d 293d 1231 7c3d b2b3 823d
00000040: c86f 2fbc 4f51 583a a9b5 9f3d 7a14 9bbc
00000050: 2e33 2a35 0000 0000 9cb0 cd3c 0000 0000
00000060: a826 ddba 8cff e9bc e146 b83c 0000 0000
00000070: ae5f 253d 1894 e1bc 1a75 0c3d 7c15 45be
00000080: b55e d41c 0000 0000 6690 2fbd 0f06 313d
00000090: c45c a434 2c9a 143a afda 40bc 68e9 8d3c
000000a0: a8a6 803c 34fe 973c 169e c13d a3a8 43bd
000000b0: a76b b529 e52d b4b8 14b7 892b 005a c539
000000c0: ad51 43bd 98c1 023d 6cec 823d 14ec b13d
000000d0: 6fe7 033e 5a83 083b 47ee 013d 341e 9c3d
000000e0: 043c 6bbc 3c4b c4bc 7cb9 323e 28a0 9a3c
000000f0: ac84 63ba d9cf 0f3e b4d3 e1bc 18a1 9d3d
00000100: 323d 8c3d f211 ab19 9cfb 97bc 58c4 893c
00000110: 6bbb 5abd 0000 0000 fced 7cb9 9e1d 8233
00000120: 0000 0000 613e c93a ba76 27af b9cd 83bd
00000130: b7ff 31bd 7f95 8f3d 0680 9cbd 0000 0000
00000140: 78c5 273d d173 4bbd 0000 0000 de6b f8bd
00000150: 0000 0000 0c68 5cba 04d4 8dbd 405c 573b
00000160: bef6 0128 9711 37be 58b9 0539 16c3 1c32
00000170: 12b8 023e 9198 24bb 0000 0000 d274 2a1e
00000180: 035b 023e fca1 d026 4a13 213d e5a7 97bd
00000190: 1835 28bb b8e1 a6b3 7969 c8bd 3caa 253d
000001a0: e68e d23c cdda 3c38 b056 ab3d dfd3 8030
000001b0: 1795 8e3d 7288 853a 6af3 613d e46a 262d
000001c0: e3dc b93d 9098 97bd e8e1 d83d 0000 0000
000001d0: 8851 d8bc d70b b43d 0000 0000 e1fc 7130
000001e0: 0000 0000 20b8 9b35 2c5a 1b3d 7c74 6e3b
000001f0: 5472 933d d899 a4bc ea8c 143c d427 86bd
0.0 0.033955112 0.010910075 0.08487098 -0.0005505375 -0.022666562 1.1962305e-19 0.09762018
4.918459e-20 0.10497809 1.5580389e-13 0.08501754 0.0 0.041303482 0.061570235 0.063819304
-0.010707803 0.0008251862 0.07798321 -0.018930662 6.340441e-07 0.0 0.025108628 0.0
-0.0016872482 -0.028564237 0.022494735 0.0 0.04037445 -0.027536437 0.034291364 -0.19246477
1.4053464e-21 0.0 -0.04286232 0.04321867 3.0614876e-07 0.00056687254 -0.011770888 0.01732321
0.015704468 0.01855383 0.094539806 -0.047768246 8.0566894e-14 -8.5916174e-05 9.78525e-13 0.00037641823
-0.047685314 0.031922907 0.0639275 0.086876065 0.12881254 0.0020830245 0.03172138 0.07622948
-0.014357571 -0.023961656 0.17453569 0.018875197 -0.00086791324 0.14044131 -0.027566768 0.07696742
0.068476096 1.7688234e-23 -0.018552594 0.016817257 -0.053401392 0.0 -0.00024121249 6.058984e-08
0.0 0.0015353673 -1.5230742e-10 -0.06435723 -0.04345676 0.07010936 -0.07641606 0.0
0.040959805 -0.049670998 0.0 -0.12129949 0.0 -0.0008407838 -0.069252044 0.0032861382
7.214442e-15 -0.17877804 0.00012752914 9.1247525e-09 0.1276553 -0.002511535 0.0 9.023883e-21
0.1273003 1.4476805e-15 0.039325036 -0.0740507 -0.0025666412 -7.7710354e-08 -0.09785742 0.04044555
0.025702905 4.5026467e-05 0.08366144 9.373443e-10 0.069620304 0.0010187759 0.05516378 9.459742e-12
0.09075334 -0.07402146 0.10589963 0.0 -0.026406065 0.08791321 0.0 8.803465e-10
0.0 1.1601987e-06 0.03792779 0.0036385348 0.07199541 -0.02009289 0.0090668 -0.06550565

exp_avg_sq f4 [128]
00000000: 0000 0000 a6e5 6b3d 54b0 253d 3d99 0a3d
00000010: 08df 3739 9b83 353d efe7 d532 1f84 263d
00000020: 6434 8537 07b0 de3c 2cf3 8539 df7f 573d
00000030: 0000 0000 731c 3e3d 3b7b 503d 708e 173c
00000040: 74a5 323d 7588 eb39 5b4f a83c b846 563d
00000050: e67f 0f38 0000 0000 fcd8 b83b 0000 0000
00000060: 0c8f 3b3c ceaf 343c 42ce 063c 0000 0000
00000070: 7c8c 6a3c 2549 993d e9cd 493c e525 993d
00000080: 58b6 4a35 0000 0000 7128 e93c 7826 e13c
00000090: c812 cf38 d466 d438 3e82 3b3b 73d3 3e3d
000000a0: d52b 0c3d a6e3 143d 6315 103d 75b7 be3c
000000b0: 88cb f036 0b9d 8d39 b623 2637 4441 473d
000000c0: 5d3f cd3c f280 c53d 6582 013d 3e79 f43c
000000d0: fd9b 673d 2e9f 0f3b 0fda 843c 4045 8a3c
000000e0: 43ce 0e3d eb1a 373d 4ffa 923d b46f 913b
000000f0: 281e 8b39 8f90 ac3d d093 8b3d e284 883c
00000100: 41a5 0e3d 7ebb 5c37 f202 ca3d 0bbf 9b3c
00000110: 606d c43c 0000 0000 fc32 a73a c52d d038
00000120: 0000 0000 4120 5439 6d38 3837 7417 ed3c
00000130: 71e3 653c 82da e03c 2001 f33c 0000 0000
00000140: 832e 913d 34b8 e93c 0000 0000 a255 be3c
00000150: 0000 0000 7abd b939 5c09 c13d a513 9e3b
00000160: b4d9 0f38 8b24 893d 8bab 7b39 fb4a a637
00000170: 38b2 2b3d 70bf 6839 0000 0000 1097 f333
00000180: 59b4 353d b3e7 5d39 5c81 483d a10b 083d
00000190: 841e 493c 7dec 3338 fe9a 5b3d 22e4 0d3d
000001a0: e4f6 703c 5f47 2d37 97fd 153d a7e8 9b38
000001b0: 48d2 273d 3bc5 0739 03d8 953d d0b7 7639
000001c0: 7136 e93c f189 893c 76c4 573d 0000 0000
000001d0: 3d0a 523d aa98 a43c 0000 0000 851d c937
000001e0: 0000 0000 b87e e137 3a73 1e3d 54c9 cd3c
000001f0: 9675 253d 60b3 c43b 8313 823c a2c2 093d
0.0 0.057592057 0.040451363 0.033837546 0.00017535326 0.044314962 2.4901935e-08 0.040653344
1.5879232e-05 0.027183546 0.00025548914 0.05261218 0.0 0.04641385 0.05089877 0.009250268
0.04361482 0.0004492436 0.020545652 0.052313536 3.421297e-05 0.0 0.005641101 0.0
0.011447679 0.011028243 0.008227887 0.0 0.014315721 0.07484654 0.012317159 0.07477931
7.551621e-07 0.0 0.028461667 0.027484164 9.8740275e-05 0.00010128101 0.0028611566 0.046588372
0.03422149 0.036349915 0.035176646 0.023280839 7.1762515e-06 0.00027010622 9.902686e-06 0.048646227
0.025054628 0.09643735 0.031618495 0.029842969 0.056545246 0.0021914947 0.01621726 0.016878724
0.034864675 0.044703405 0.07176649 0.004438365 0.00026534614 0.0842601 0.06815302 0.016664926
0.034825567 1.3156676e-05 0.09863843 0.019011995 0.023977935 0.0 0.0012756283 9.926738e-05
0.0 0.00020229911 1.0980392e-05 0.028941847 0.014031277 0.027447943 0.029663622 0.0
0.070889495 0.028530218 0.0 0.023234192 0.0 0.0003542712 0.09425613 0.004824119
3.429661e-05 0.06696423 0.0002400113 1.9823658e-05 0.04191801 0.0002219656 0.0 1.13430474e-07
0.044361446 0.00021162517 0.04895149 0.033214215 0.012275342 4.2897173e-05 0.05361461 0.034641393
0.014707301 1.0328221e-05 0.036618795 7.434311e-05 0.040972024 0.00012948077 0.073165916 0.00023528864
0.028468342 0.016789408 0.052677594 0.0 0.051279295 0.020092327 0.0 2.3974813e-05
0.0 2.6881098e-05 0.038684107 0.025120415 0.04039534 0.0060028285 0.015878445 0.033632882

exp_avg f4 [128, 128]
00000000: 0000 0000 5e67 543c ffa9 7cbd 382a 0abc
00000010: 603e 32b9 115b f3bb eae2 3e9e b86c e83a
00000020: 4a14 0c1d 9a6a db3b b683 38a9 7c19 583b
00000030: 0000 0000 da1b 173b c63e 42bc 105e 6eb9
00000040: c0e0 8dbd 18a0 24b8 c40d 563c d31e abbd
00000050: 8668 a833 0000 0000 454d 113c 0000 0000
00000060: 2624 9fbb 5c4f bebc 3c57 29bc 0000 0000
00000070: d999 03bc c0a6 97b9 709c 6eba c16d e1bc
00000080: 9105 b91b 0000 0000 809c cbbc 27f3 90bb
00000090: 246d cf32 b5af 9c38 ac0d 76ba 51ae 29bd
000000a0: 0a91 d2bc 9061 a8bc bea7 183c 3ac3 1bbd
000000b0: 7aba 61a6 fa60 4d36 c83b 2fa7 6a93 44bd
000000c0: f13b 2cbd 7d60 43bc 88ca 17ba 091c 7a3c
000000d0: 73fd 3b3c 431e 5f3a 88c4 87bb ad8e 333c
000000e0: 94ec 3cbd 3469 eebc d0d4 33bb dc34 663a
000000f0: 64e0 e2b9 9862 0e3c 13a5 a4bb db06 013c
00000100: c759 87bc 18eb 4296 6621 7cbc 1fa6 56bd
00000110: e1ff a5bd 0000 0000 30cd 5bba 7c81 a9b0
00000120: 0000 0000 dc8b ba38 b49c b2aa d7c3 b5bd
00000130: ba4b 0fbd 28f9 833b 5af2 49bd 0000 0000
00000140: 627a dabc e3d4 91bc 0000 0000 e8e9 aabc
00000150: 0000 0000 98e9 8837 2dca 7ebc 5801 04ba
00000160: 03d0 f124 e4ca 32bd bc97 f1b7 c8de b6ad
00000170: 17a0 a8bb 060d 60b9 0000 0000 0eb5 8719
00000180: 601a 013c 05c4 dda2 4e8d 3e3c f48e ddbd
00000190: 88ad 1ebd 7a91 af30 5c79 18bd 0817 f93a
000001a0: 9070 20bd 9af3 0134 1aea 1c3c 34e8 1231
000001b0: 0095 0b3a d492 42b8 9e45 8fbc 1245 26aa
000001c0: 40e3 6bbb 415b 0abd 281a 043c 0000 0000
000001d0: 8ca1 36bd 64e5 79bb 0000 0000 4a46 d6ac
000001e0: 0000 0000 d048 a0b2 1eef 96bb 9eed b8bc
000001f0: e021 fb39 182a 99bc ce72 a5ba f8c4 3cbd
00000200: 0000 0000 0000 0000 0000 0000 0000 0000
00000210: 0000 0000 0000 0000 0000 0000 0000 0000
00000220: 0000 0000 0000 0000 0000 0000 0000 0000
00000230: 0000 0000 0000 0000 0000 0000 0000 0000
00000240: 0000 0000 0000 0000 0000 0000 0000 0000
00000250: 0000 0000 0000 0000 0000 0000 0000 0000
00000260: 0000 0000 0000 0000 0000 0000 0000 0000
00000270: 0000 0000 0000 0000 0000 0000 0000 0000
00000280: 0000 0000 0000 0000 0000 0000 0000 0000
00000290: 0000 0000 0000 0000 0000 0000 0000 0000
000002a0: 0000 0000 0000 0000 0000 0000 0000 0000
000002b0: 0000 0000 0000 0000 0000 0000 0000 0000
000002c0: 0000 0000 0000 0000 0000 0000 0000 0000
000002d0: 0000 0000 0000 0000 0000 0000 0000 0000
000002e0: 0000 0000 0000 0000 0000 0000 0000 0000
000002f0: 0000 0000 0000 0000 0000 0000 0000 0000
00000300: 0000 0000 0000 0000 0000 0000 0000 0000
00000310: 0000 0000 0000 0000 0000 0000 0000 0000
00000320: 0000 0000 0000 0000 0000 0000 0000 0000
00000330: 0000 0000 0000 0000 0000 0000 0000 0000
00000340: 0000 0000 0000 0000 0000 0000 0000 0000
00000350: 0000 0000 0000 0000 0000 0000 0000 0000
00000360: 0000 0000 0000 0000 0000 0000 0000 0000
00000370: 0000 0000 0000 0000 0000 0000 0000 0000
00000380: 0000 0000 0000 0000 0000 0000 0000 0000
00000390: 0000 0000 0000 0000 0000 0000 0000 0000
000003a0: 0000 0000 0000 0000 0000 0000 0000 0000
000003b0: 0000 0000 0000 0000 0000 0000 0000 0000
000003c0: 0000 0000 0000 0000 0000 0000 0000 0000
000003d0: 0000 0000 0000 0000 0000 0000 0000 0000
000003e0: 0000 0000 0000 0000 0000 0000 0000 0000
000003f0: 0000 0000 0000 0000 0000 0000 0000 0000
0.0 0.012964098 -0.06168556 -0.008432917 -0.0001699864 -0.0074266274 -1.0105441e-20 0.0017732596
1.8539335e-21 0.0066960575 -4.097045e-14 0.0032974174 0.0 0.0023057372 -0.011855787 -0.0002273249
-0.06927633 -3.9249746e-05 0.013064805 -0.08355489 7.842122e-08 0.0 0.00886852 0.0
-0.004856604 -0.0232312 -0.01033574 0.0 -0.008032286 -0.00028925203 -0.00091022905 -0.027518155
3.060928e-22 0.0 -0.024854898 -0.0044235173 2.4147603e-08 7.471388e-05 -0.00093861925 -0.041426007
-0.025703926 -0.020554334 0.009317337 -0.03802798 -7.831528e-16 3.0603828e-06 -2.4318536e-15 -0.047992148
-0.042049352 -0.01192486 -0.00057903724 0.015265473 0.011474001 0.0008511284 -0.0041433014 0.0109593095
-0.046124056 -0.0291029 -0.0027440079 0.00087816804 -0.00043273263 0.008690499 -0.005024561 0.00787517
-0.016522301 -1.5745378e-25 -0.015388822 -0.05240452 -0.08105446 0.0 -0.00083847623 -1.233317e-09
0.0 8.895222e-05 -3.1727886e-13 -0.08875244 -0.034984328 0.0040275045 -0.04930339 0.0
-0.026669685 -0.017801708 0.0 -0.020863488 0.0 1.6321239e-05 -0.015551132 -0.00050356006
1.04869475e-16 -0.043650523 -2.8800096e-05 -2.078994e-11 -0.0051460373 -0.00021367156 0.0 1.40318e-23
0.007879823 -6.0109714e-18 0.011630369 -0.10818282 -0.03873971 1.2774273e-09 -0.037225112 0.0019004056
-0.039169848 1.2102683e-07 0.009577299 2.1377788e-09 0.0005324632 -4.638995e-05 -0.01748925 -1.4767725e-13
-0.0035993606 -0.033778433 0.008062877 0.0 -0.044587657 -0.0038131112 0.0 -6.0900495e-12
0.0 -1.8659563e-08 -0.0046061417 -0.022574242 0.0004789969 -0.01869683 -0.0012622715 -0.04608628
0.0 0.0 0.0 0.0 0.0 0.0 0.0 0.0
0.0 0.0 0.0 0.0 0.0 0.0 0.0 0.0
0.0 0.0 0.0 0.0 0.0 0.0 0.0 0.0
0.0 0.0 0.0 0.0 0.0 0.0 0.0 0.0
0.0 0.0 0.0 0.0 0.0 0.0 0.0 0.0
0.0 0.0 0.0 0.0 0.0 0.0 0.0 0.0
0.0 0.0 0.0 0.0 0.0 0.0 0.0 0.0
0.0 0.0 0.0 0.0 0.0 0.0 0.0 0.0
0.0 0.0 0.0 0.0 0.0 0.0 0.0 0.0
0.0 0.0 0.0 0.0 0.0 0.0 0.0 0.0
0.0 0.0 0.0 0.0 0.0 0.0 0.0 0.0
0.0 0.0 0.0 0.0 0.0 0.0 0.0 0.0
0.0 0.0 0.0 0.0 0.0 0.0 0.0 0.0
0.0 0.0 0.0 0.0 0.0 0.0 0.0 0.0
0.0 0.0 0.0 0.0 0.0 0.0 0.0 0.0
0.0 0.0 0.0 0.0 0.0 0.0 0.0 0.0
