models/reinforce/reinforce_baseline/checkpoint_ep1000.pth (torch, 259622 bytes, 18 tensors)

network.0.weight f4 [128, 26]
000000 d2 aa 97 3d 17 38 0a 3e f3 80 ab bd 50 15 96 bc
       0.07405628 0.13497959 -0.083742045 -0.01832071
000010 40 ca bf 3c 7b 6d 13 3e 98 8d cd bc 86 ba 83 bd
       0.02341187 0.14397232 -0.025091931 -0.06432061
000020 e4 39 16 be 61 a9 2a be 70 c6 d9 3c 28 2a 0d 3d
       -0.14670521 -0.16666175 0.02658388 0.03446403
000030 b0 a2 e2 3c d4 0d 29 be fb ff 0f be 20 78 62 3c
       0.027665466 -0.16509181 -0.14062493 0.013822585
000040 38 2c 13 bd 90 9c 06 bc 66 2d 97 bd 02 28 86 3d
       -0.035930842 -0.008216038 -0.07381706 0.065506
000050 80 54 f9 bb c0 12 c2 bd 9a 61 f6 3d f7 75 2b 3e
       -0.00760895 -0.094762325 0.12030335 0.16744219
000060 e0 2c 0e bd b4 ed e9 bd 16 7b 07 be 97 ab 2c be
       -0.034710765 -0.114222914 -0.13230547 -0.16862331
000070 4d 40 cf bd 4b d7 45 be 36 66 bd bd 26 2e 30 3e
       -0.10119686 -0.19320409 -0.09248011 0.17205104
000080 b9 76 ed bd 35 be 0f 3e e0 2b a7 bd 75 e5 4b be
       -0.1159491 0.14037402 -0.08162665 -0.1991175
000090 ba b0 9d 3d d7 3b ff 3d 65 d9 e7 bd d8 e2 5b 3d
       0.076997235 0.124625854 -0.113207616 0.053683132
0000a0 4e 31 30 3e e4 e2 d2 bd 37 f7 dc 3d bc 92 07 be
       0.17206308 -0.10297182 0.1078934 -0.13239568
0000b0 b1 be 35 3e 27 f1 9a bd c9 6a 9c bd 84 3e 31 3e
       0.17748524 -0.075655274 -0.07637555 0.17309004
0000c0 ab 7e 0d 3e c0 af e2 3d ca 82 59 3e c6 68 a1 bc
       0.13817851 0.11068678 0.21241298 -0.01970328
0000d0 92 82 1c be c3 55 21 be 1d d4 a1 3c 94 e6 ec bc
       -0.15284184 -0.15755372 0.019754464 -0.028918542
0000e0 80 e7 10 3e 9f 3a 2a 3e b8 1c 8b bb 58 09 f7 3d
       0.1415081 0.16623925 -0.004245367 0.12062329
0000f0 b5 a4 13 3e 63 87 f0 bd fc a4 50 3e bc ee b4 bd
       0.144183 -0.11744573 0.20375437 -0.088345975
000100 1c c7 26 be 95 9a 39 3e 83 3e 76 3e a5 e4 1b 3d
       -0.16286892 0.18125375 0.24047284 0.03805985
000110 7c ff dc 3d b4 bc 8b bd 6f 3d 99 bc e0 19 34 3e
       0.10790917 -0.06823102 -0.018706052 0.17587996
000120 54 a7 40 3e 97 e4 cf bc 9e 16 fd 3d b8 76 b1 3d
       0.1881383 -0.025377555 0.123578295 0.08665222
000130 e6 7a 0e 3e c8 04 68 bd 35 b8 db bc 5f e2 fc 3d
       0.1391407 -0.056645185 -0.026821235 0.12347864
000140 4c b7 5e be 9c f9 82 be b6 77 c6 bd a8 44 f2 3c
       -0.2174961 -0.25581062 -0.09690802 0.029573753
000150 46 39 62 be 29 b1 6e bd 8c 24 80 be 75 13 21 bd
       -0.2209216 -0.05827442 -0.25027883 -0.039325196
000160 34 b3 17 3e 4b b2 30 3e 4a ed 87 be 29 b7 5b 3d
       0.14814454 0.17255513 -0.26548225 0.053641472
000170 b5 74 5e 3d c0 80 6e bd 67 1d bd bd 59 8b 34 3e
       0.05431052 -0.058228254 -0.09234124 0.17631282
000180 f6 2a 3e 3e 86 a6 16 3e 5a 44 c9 3c 13 40 01 3e
       0.18571076 0.14711961 0.024568725 0.12622099
000190 e7 d3 55 bd db de 41 3d 64 55 9f 3d b5 81 c4 3d
       -0.05220404 0.047331672 0.07779959 0.09595052
0001a0 cf 24 a1 3d 5d 42 38 3e d3 e6 b0 bd 29 3f 12 3e
       0.07868349 0.17994066 -0.08637776 0.14281906
0001b0 77 e9 fa bd 8f b0 33 be c7 61 1b be 16 3f 6c bd
       -0.12251561 -0.1754782 -0.15174018 -0.05767735
0001c0 83 2d a8 3d c2 aa 45 bd a5 92 5c be 0e 95 64 bc
       0.08211806 -0.04825855 -0.21540315 -0.013951553
0001d0 75 bf 2b 3e a0 92 a8 3c 82 5e 2a 3e f2 d7 45 be
       0.16772254 0.020577729 0.16637614 -0.19320658
0001e0 09 05 21 be bf 44 8e 3d 5c c6 1f 3e 38 9c 76 bd
       -0.15724577 0.06946706 0.15603012 -0.060207576
0001f0 32 12 38 be ef a7 e5 bd 08 ae 3f be 1d 9d e0 bc
       -0.17975691 -0.112136714 -0.18718731 -0.027418667
000200 84 fb 84 bc 36 d3 a7 bd 94 b4 36 be 6b a0 b7 3d
       -0.016233213 -0.08194582 -0.17842323 0.08966144
000210 5b e9 8c bd 8b e1 39 be e7 49 c5 bd 35 c2 24 3e
       -0.068804465 -0.18152444 -0.096332364 0.16089709
000220 af 92 bc 3d 0a d4 43 3c ba 54 01 3d ad 9c 5f 3d
       0.09207665 0.0119524095 0.031574942 0.054592777
000230 d4 f6 9b 3d a8 0f 19 3e de f7 92 3c 00 3a 10 3e
       0.07615438 0.14947379 0.017940458 0.14084625
000240 c7 ca 19 3e 1f a1 c9 bc 91 7e 12 3d aa c0 2b 3d
       0.1501876 -0.024612961 0.035765234 0.041931786
000250 c5 58 2b be 2e 88 fc 3d f4 8c e9 3d 3c 6a ac bb
       -0.16733082 0.12330662 0.11403838 -0.0052616876
000260 9f 32 1c be b4 8a f8 bd 9d 2a 39 bd 07 81 1b be
       -0.15253685 -0.121358305 -0.045206655 -0.15185939
000270 f2 a9 ec 3d bd f6 9c bd 71 26 de 3d 16 2d f1 3d
       0.11555852 -0.07664249 0.10847176 0.117761776
000280 c2 99 87 bd ac 6c 29 be d5 15 e2 bd f4 9b 50 be
       -0.06621124 -0.16545361 -0.110393204 -0.20371991
000290 ca b9 ef bd 27 57 34 be 47 0a 28 3d 0c 06 0e 3e
       -0.11705358 -0.17611371 0.041025426 0.13869494
0002a0 73 5f 03 3e 48 f0 04 be 61 9e 2f be 35 ce 06 be
       0.1282938 -0.12982285 -0.1715026 -0.13164599
0002b0 dc c6 4f be 61 0d 2c 3e a0 14 2c bd a0 7f 37 3d
       -0.20290703 0.16801979 -0.042011857 0.044799447
0002c0 0a 4a 92 bc 52 54 ff 3d 0a 5a 78 bd b8 2e 82 bc
       -0.01785757 0.12467255 -0.060632743 -0.015891418
0002d0 4c fa 84 3c b6 52 12 3e 50 cb 3b be dc b4 18 3e
       0.016232632 0.14289364 -0.18339276 0.14912742
0002e0 fc b6 27 3d 3f 5a ac bd 32 33 3b be 41 f3 50 3d
       0.040945992 -0.084156506 -0.18281248 0.051013235
0002f0 d0 a2 af bd c5 2b 01 3e 25 4a 5c be 39 52 d5 3d
       -0.08575976 0.12614353 -0.21512659 0.10416073
000300 6c b6 d6 bd 2c 57 42 3d 20 1b 29 be 7a 9f 1c 3e
       -0.10484013 0.047446415 -0.16514254 0.1529521
000310 7c 52 81 bc 53 59 8d be 4b 32 05 3d 83 1f be bd
       -0.015786402 -0.2760721 0.032518666 -0.09283354
000320 ec af 6c 3e 69 f7 e6 bd 42 d5 4d 3e 02 d1 01 3e
       0.23113984 -0.112776585 0.20100883 0.12677386
000330 db fd a6 3d 68 08 82 3e 81 5b 3c 3e 7c e3 0b 3e
       0.08153888 0.25397038 0.18394281 0.13660997
000340 8a 7c 25 be 96 59 38 be 72 c3 fd bd 52 ce dc bc
       -0.16160789 -0.18002924 -0.12390794 -0.02695385
000350 84 fc 15 3e dd 89 92 bc 86 8e 1d 3e ce d5 54 bd
       0.14647108 -0.017888004 0.153864 -0.051961713
000360 63 bd 09 3e e7 b2 ba bd 1d 67 e3 3d 55 ab 17 be
       0.13451152 -0.09116154 0.11103652 -0.14811452
000370 0d 67 32 bc cd 4c 4c be 5d de d4 3d d5 9e 45 be
       -0.010888827 -0.19951172 0.10393975 -0.19298871
000380 a5 54 42 bd 35 03 09 be fe 86 33 3e 49 d4 c5 3d
       -0.047444005 -0.1338013 0.17531964 0.09659631
000390 a4 7a 41 be ec 6d ee 3d 96 85 eb 3d 7a 99 bf 3b
       -0.1889444 0.1164206 0.11500089 0.0058471533
0003a0 b4 8c 41 bd ef d9 b7 bd cf 4f 82 3d ed ab 1e 3d
       -0.047253326 -0.089771144 0.063628785 0.03873818
0003b0 f9 f7 0d bc d3 b5 1b be d9 60 b1 bd af 15 98 3d
       -0.008665078 -0.15206079 -0.0866105 0.07426011
0003c0 08 c9 40 be d8 85 35 3e 22 ce 18 be be aa 84 bd
       -0.18826687 0.17726839 -0.14922383 -0.06477879
0003d0 5f be 20 3c 05 c8 04 3d bd f7 98 bc 69 18 85 3d
       0.009811013 0.032417316 -0.018672818 0.064987965
0003e0 97 e4 15 bd db bf 36 be f6 2c bd bd 8e b7 13 3e
       -0.036594953 -0.17846625 -0.09237091 0.1442549
0003f0 ea 64 d2 bd 37 7d 22 3d 5e 4b 08 3e 3e c1 72 3d
       -0.10273154 0.039670195 0.1331 0.05926632

network.0.bias f4 [128]
000000 00 d7 99 3c 5d f3 3a 3e b5 4e be 3d 7f db d9 3d
       0.018779278 0.18256898 0.09292356 0.10637569
000010 ee ec 51 3d d2 f2 55 3e 81 42 49 be e9 43 66 3d
       0.051251344 0.2089341 -0.19654275 0.056217108
000020 e3 a4 11 be ac 20 c7 bc 5a 7d 29 3e 95 80 97 bd
       -0.14223056 -0.024307571 0.16551724 -0.07397572
000030 d0 3e 59 3c 13 92 b1 bd a9 2a 16 3e 11 8a 23 3d
       0.013259605 -0.086704396 0.14664711 0.039926592
000040 8b 35 56 3e 94 70 4d 3d da e0 88 3d 65 e3 e3 3c
       0.20918863 0.05015619 0.06683512 0.027818391
000050 7f b3 3d be d8 f8 35 be 1c 01 30 3d 8c 4d 33 be
       -0.18525504 -0.17770708 0.042969808 -0.1751005
000060 08 fd 11 be 5e f9 db 3c 87 f5 3e 3e c6 f6 de 3d
       -0.1425668 0.026852306 0.18648349 0.10886912
000070 7e 19 18 bd b1 3f 78 3c 31 ff 7f 3e 4a 1f 2b 3e
       -0.037133686 0.015151904 0.24999692 0.16711155
000080 bf 4d 1d 3e c0 2a b9 bc 21 73 e9 3d 88 3b 47 3e
       0.15361689 -0.022603393 0.11398912 0.19456303
000090 fb 92 10 3e eb 57 9e 3c 87 25 17 3e df 98 2d 3e
       0.14118569 0.019329032 0.1476041 0.16952847
0000a0 cd 10 b1 bc 18 e3 7d 3d b2 41 7a bb b1 59 1f be
       -0.021614457 0.06198415 -0.003818613 -0.15561558
0000b0 ee df 91 3d ef 43 ba bd 50 f7 f1 bc e0 b0 2d 3e
       0.07122789 -0.090949886 -0.029536873 0.16962004
0000c0 c0 be 36 3e a7 8b 33 bd 81 18 d1 3d 5d 4a 02 3e
       0.17846203 -0.043834355 0.10209752 0.1272368
0000d0 b0 28 3a 3e 56 7b f4 bd 87 4c 03 be 63 61 82 3b
       0.18179584 -0.11937587 -0.12822162 0.0039788946
0000e0 41 3a c5 3d d1 7b d8 3d 7c 37 91 3c 6c d8 02 bd
       0.09630252 0.10570491 0.017726652 -0.031944677
0000f0 dc cc 8d bc b0 ef d6 3d 24 fc c5 3d d2 cc 63 3e
       -0.017309599 0.104949355 0.09667233 0.22246101
000100 20 d4 8c 3d f7 fe 6e 3b 6f 05 ea 3d 0b 6b 0f 3e
       0.06876397 0.003646789 0.114268176 0.14005677
000110 e1 bf 4c be 02 3b ec bd d4 53 31 3e 8d fb 18 be
       -0.19995071 -0.11534692 0.17317134 -0.14939709
000120 c4 f0 0e be 99 06 f6 bd c4 49 34 3e 23 4b 2b 3e
       -0.13959032 -0.12012977 0.17606264 0.16727881
000130 fd d0 38 be ee 08 36 3e 8c ae 26 3e eb 83 bf bd
       -0.18048473 0.17776844 0.16277522 -0.09351333
000140 0d b6 bc bd 03 4c 07 bc 50 47 c8 bc e7 40 2e be
       -0.09214411 -0.008257869 -0.024448067 -0.17016946
000150 d3 6e 28 3e 47 2d 0d bd a4 58 00 3e ed 8a 2c be
       0.16448526 -0.034467008 0.12533814 -0.16849871
000160 92 4d fb bd b3 17 4b 3e 0f 31 31 3e 4c 5a 65 bc
       -0.12270655 0.1983326 0.1730387 -0.013998579
000170 00 36 12 bd 96 04 40 be 99 96 de bd 24 33 c0 bd
       -0.03569603 -0.1875175 -0.10868568 -0.09384754
000180 6a 4d 0b be c5 cd ff ba e1 cc f9 bc c1 53 74 3d
       -0.1360375 -0.001951628 -0.030493202 0.059650186
000190 0e 42 3f be f3 16 c2 bd 63 f3 4b 3e 36 df 26 be
       -0.18677542 -0.094770335 0.19917063 -0.16296086
0001a0 8c 1a bc bd b3 86 a0 bd 61 71 d3 bb cf d5 99 bc
       -0.09184751 -0.07838192 -0.006452725 -0.01877871
0001b0 eb 84 1e 3d 9c 42 4a 3e 82 e7 b0 bd ec 9f 0b be
       0.03870098 0.19751972 -0.086379066 -0.13635224
0001c0 84 e4 05 3e bb a9 0f be 4a 96 2a 3e 4a 90 42 be
       0.13075453 -0.14029591 0.16658893 -0.19000354
0001d0 25 df 0f 3e 9c dd 33 3e 30 88 4d 3d cb f5 07 be
       0.14049967 0.17565006 0.050178707 -0.13277356
0001e0 01 e5 ff bd 94 83 75 bd 4d d3 93 bd 69 8d 16 be
       -0.12494851 -0.059939936 -0.07218037 -0.14702381
0001f0 93 26 0c be 9b fb 26 3e 27 ff 46 bc 34 04 ce 3d
       -0.1368659 0.16306917 -0.012145794 0.100593954

network.2.weight f4 [128, 128]
000000 3a 3a 71 3d 47 b2 8c 3d 43 08 59 3c bb 1c 8a 3c
       0.05889342 0.06869941 0.013246599 0.016859403
000010 29 d0 87 bd 41 a6 c8 3d eb af 19 3d 35 f0 59 bd
       -0.066315 0.097973354 0.037521284 -0.053207595
000020 67 b0 8c bd bc cb d3 bc f8 b7 e9 39 53 72 d0 3c
       -0.068695836 -0.025853984 0.0004457829 0.025445139
000030 4c 34 96 bd d8 f4 a9 3d 78 f6 89 3d ba 8c 82 3b
       -0.073341936 0.08298653 0.06736463 0.003984061
000040 5e 90 6c 3d aa ac 14 3d b1 62 d3 bc da bb ab 3d
       0.057754867 0.036297478 -0.025803896 0.08385439
000050 52 a9 3b bd 15 d2 a6 bd 22 88 0c 3c 00 66 18 ba
       -0.045815773 -0.08145539 0.0085773785 -0.0005813539
000060 7f bc 12 3d b1 7e fd 3c f8 8a 06 bd ca d5 9d bd
       0.035824295 0.0309442 -0.032847375 -0.07706793
000070 0b 81 a9 3d f9 35 a2 3d f6 9b 38 3d f1 32 9f 3d
       0.08276566 0.07920451 0.04507061 0.07773388
000080 04 a4 37 3d a8 b7 bd 3c 72 a5 88 3d a8 45 72 3d
       0.044834152 0.023158863 0.06672181 0.05914846
000090 0c 52 89 3d 9e db 73 3c e4 05 05 3c 33 0b 08 3e
       0.06705102 0.014883904 0.00811908 0.13285522
0000a0 c8 40 0c bd 8e 8f fe 3d 7d 36 4a bc c7 82 9e 3d
       -0.034241468 0.12429725 -0.012342093 0.077397875
0000b0 bb 0f 37 3c 72 08 d2 bd 43 ac df bc cc be 81 3d
       0.011173184 -0.10255517 -0.02730382 0.0633522
0000c0 6f 27 a8 bc be 0f 71 bc 2e 3f 94 3d 53 f2 67 3d
       -0.020526616 -0.014713226 0.07238613 0.056627583
0000d0 b1 94 ed bb 6f 6c 22 3d 1a 73 d1 3d b8 1f 66 bc
       -0.0072503914 0.03965419 0.10227032 -0.014045648
0000e0 53 5b 91 3d db ea 80 3d 18 31 a1 3d 90 09 b9 3b
       0.07097497 0.06294795 0.07870692 0.005646892
0000f0 fc 78 2a bd 25 8d 63 3d dc 87 e5 bb 71 f2 11 3d
       -0.041619286 0.055554528 -0.007004721 0.0356316
000100 24 3f 40 bc 1a 8b 92 bd b4 61 c3 ba 0c f0 39 bb
       -0.011733804 -0.07155438 -0.0014906437 -0.002837184
000110 75 10 38 3c 9a bb 30 3d c5 ea 22 3c 68 bb f4 bd
       0.011234392 0.04314766 0.009943669 -0.119498074
000120 c8 4e a2 bc 87 65 42 bb ea 9a 1b 3e 54 9b 05 3e
       -0.019812956 -0.0029662566 0.15195814 0.13047534
000130 13 80 92 3d c3 dc 32 bd 7d 58 00 ba 7e 04 7e 3d
       0.071533345 -0.043667566 -0.0004895998 0.062016003
000140 59 fc 8b 3d 8b 0f b3 3d cc d9 aa bd 5e dd cd 3d
       0.06835241 0.08743199 -0.08342323 0.10051988
000150 ad dd 86 bd 3a 9a 1d 3d 25 2f a1 3d 8c 2f a8 3c
       -0.0658525 0.03847716 0.0787032 0.020530485
000160 5e 39 ca 3c ed cb e2 3d 58 30 cc bc be 61 5e bd
       0.024685558 0.11074052 -0.024925396 -0.054292433
000170 1a 27 3c bd 8a 42 c7 3c ce 64 3f 3d 1b d4 8c 3d
       -0.045935728 0.02432372 0.046726994 0.068763934
000180 54 64 05 3d 92 f0 e2 bc 59 07 d4 bc 47 11 fc 3d
       0.032566383 -0.027702603 -0.02588241 0.12307983
000190 36 60 82 3d 45 90 9f bc 6a 93 d7 3d 25 80 8f 3d
       0.06366007 -0.019477973 0.10526164 0.070068635
0001a0 2d 4c 8f 3d 57 fd 35 3d f4 78 22 bd f1 af a9 3c
       0.06996951 0.044431057 -0.03966613 0.020713778
0001b0 42 ce 45 3d d7 9d 5f bd a7 aa 02 3d d1 d3 58 3d
       0.048292406 -0.054593887 0.031901028 0.05293638
0001c0 1f a1 75 3d 76 55 19 3d 9a a5 c9 bb 75 75 a3 3d
       0.05996811 0.037435018 -0.0061537744 0.079813875
0001d0 b8 a1 72 3d 06 20 5a bc b9 d0 3a bd 50 94 f8 3c
       0.05923626 -0.013313299 -0.04560921 0.030344158
0001e0 08 93 0e 3d 9e 07 57 3c 29 2a b9 3d 72 95 0f 3d
       0.03480819 0.013124375 0.090412445 0.03505463
0001f0 1a 7d 57 bc b8 6b 24 3d 64 39 7b 3c c9 33 ed 3c
       -0.013152385 0.04014179 0.015333507 0.028955357
000200 0c b5 9b 3c b8 15 9f bc 6a a3 ab bd b4 b4 fa bc
       0.019007228 -0.019419536 -0.08380778 -0.030603744
000210 41 d9 a9 bd 52 f7 2b bd 40 bb d1 bc 58 92 4e bc
       -0.08293391 -0.04198391 -0.025601983 -0.012608133
000220 18 db 97 bc ec 2d 54 bd 1d c1 b3 3d 22 e0 44 3d
       -0.01853709 -0.051801607 0.08777068 0.048065312
000230 b8 39 96 bc 83 1b 92 bd c4 25 8f 3c 20 6f f9 bb
       -0.01833807 -0.07134154 0.017474063 -0.007612124
000240 7e 9b 6f bd 0c 8e ac bd e5 ca a3 3d 98 6d c3 3c
       -0.0584979 -0.08425531 0.079976834 0.02385597
000250 e0 6a 95 bc ec 96 ab bd ce 54 95 bd 3c 07 cc 3c
       -0.018239439 -0.083783954 -0.07291566 0.024905793
000260 ad 44 82 bd dc 5c ea bc ef 03 81 3d 3e ff 66 3d
       -0.06360755 -0.028608732 0.062995784 0.05639576
000270 c4 c0 69 bd e0 06 ac 3c 1b d0 a8 3d aa a5 69 3d
       -0.0570686 0.020999372 0.08242818 0.057042755
000280 66 f3 1d 3d ee a4 20 3d b7 c1 8d bd c4 7d e5 bc
       0.0385622 0.03921979 -0.06921714 -0.028014071
000290 ec f4 9f bc ec ef 10 3d 3c 32 9a 3c 20 bc 17 bc
       -0.019525968 0.035385057 0.018822782 -0.009261161
0002a0 74 60 d2 3c 78 b1 74 bc 25 9a b2 3d 93 26 ad bd
       0.025680758 -0.01493489 0.08720807 -0.08454623
0002b0 63 aa 84 3d 2c 90 78 bd ea a0 32 bd 30 ed 8f bb
       0.06477811 -0.060684368 -0.04361049 -0.0043922886
0002c0 5c 0c ac bd 00 6f 99 bd e3 96 1c bd 20 74 e3 3b
       -0.08400795 -0.07491875 -0.038229834 0.0069413334
0002d0 e8 3a dc bc 4b 5d 98 3d 14 a5 8f bd b0 84 3e 3c
       -0.026883557 0.07439669 -0.07013908 0.011628315
0002e0 f4 5a b4 bc b2 b7 68 3d 07 49 3a bd b7 4d 5b bd
       -0.022016026 0.05681581 -0.0454798 -0.05354091
0002f0 7e 24 3b 3d 40 f2 0d bd 20 01 4e 3b 86 ae 61 3d
       0.0456891 -0.034654856 0.0031433776 0.05509808
000300 be 22 5c bd 88 2f 80 bd cc 1f b1 bd 20 f0 9b 3c
       -0.05374407 -0.06259066 -0.08648643 0.019035399
000310 10 ed ec 3b 78 d7 92 3c eb 94 af 3d 23 b7 a7 3d
       0.0072304085 0.01792501 0.08573326 0.081892274
000320 81 f6 aa 3d 5f 1c 09 bd 61 72 38 bd 10 f8 69 bd
       0.08347798 -0.033474322 -0.045030955 -0.057121336
000330 c0 b9 a7 bc 09 e0 1f bd 38 fa cb 3c 2e a3 21 3d
       -0.020474315 -0.039032016 0.024899587 0.03946226
000340 31 0e 75 bd ea f7 0c bd b2 2c 22 3d f4 50 13 3d
       -0.059827987 -0.034416117 0.039593406 0.035965875
000350 d2 15 29 3d b0 58 42 bc a3 47 42 bd 41 05 27 bd
       0.041280575 -0.011861965 -0.0474316 -0.040776495
000360 28 54 6d bc 03 06 ae 3d 22 47 13 3d 07 c2 ae bd
       -0.014485396 0.084972404 0.03595651 -0.085331015
000370 ad f5 8c bd ea 9d 4c 3d 00 b4 22 bc d8 02 21 3c
       -0.068827964 0.049955286 -0.009930611 0.009827338
000380 fc b0 87 bd c0 b6 42 3c 67 ca 9f bd dd 1d 44 bd
       -0.06625554 0.011884391 -0.07802277 -0.047880042
000390 16 82 00 3d f1 45 a5 3d 7c d9 a8 bc bc 98 88 bc
       0.03137406 0.08069981 -0.020611517 -0.016674392
0003a0 d8 0a 8e bd 10 85 b4 bd 71 3b 13 bd 0f 0f 9b bd
       -0.06935662 -0.08814442 -0.03594536 -0.075712316
0003b0 f0 e0 66 bc 88 07 ad bd 26 98 1e bd 3b 52 ae 3d
       -0.014091715 -0.08448702 -0.03871932 0.08511778
0003c0 68 50 45 bc 30 19 47 bc 44 b7 ee 3c f0 dd ed bb
       -0.012043096 -0.012152001 0.029140122 -0.007259123
0003d0 a8 a9 02 3d 98 4c 08 bc a8 a0 53 3c fe 72 1a bd
       0.031900078 -0.008319043 0.012916721 -0.03770732
0003e0 ff e8 83 3d 33 8b 9d bd 4e a0 2f 3d c2 85 46 3d
       0.06440925 -0.07692566 0.042877488 0.048467405
0003f0 bc 0e cc bc 8c df ee bc 5c e4 a7 bc e0 d8 94 bd
       -0.02490937 -0.02915933 -0.020494632 -0.07267928

network.2.bias f4 [128]
000000 72 8b bf 3d a3 3e 8a 3d e9 fc fa bc 00 9f 4c bd
       0.09352769 0.06750228 -0.030638175 -0.04995632
000010 67 b3 cf 3d fa 75 4b 3d b7 a2 ac bc 3d f4 8a bc
       0.1014164 0.049673058 -0.021073682 -0.016962165
000020 d2 4c 42 3d 4a d9 16 3d 93 01 54 3d 7e 84 a4 3d
       0.047436543 0.036828317 0.051759314 0.080330834
000030 70 9a 0b bd 2a a6 63 3d dc 7d 28 bd a8 1a c4 3d
       -0.03408283 0.05557839 -0.041135654 0.09575397
000040 77 5b ef bc 83 46 07 3d 66 09 a8 bd c0 df a7 bd
       -0.029218419 0.03302623 -0.082049176 -0.08196974
000050 21 09 59 bd 0b 0e b6 3c 2f b6 b0 3c 4d 46 fe bc
       -0.05298722 0.022223493 0.021571247 -0.031039381
000060 7a 56 1c 3b 00 5c 0c bd 1b a1 90 3c e8 35 f4 bc
       0.0023855255 -0.034267426 0.017654946 -0.02981086
000070 27 78 c1 bc 60 9d 14 bd a2 f7 91 3d f5 bc ad 3d
       -0.023616863 -0.036282897 0.0712731 0.08483306
000080 91 2d 82 bd b6 76 6a 3d 5c 94 ec 3d ae fa 2f 3d
       -0.06356347 0.057242118 0.11551735 0.042963676
000090 5b b8 a4 bd 2a 62 1e 3d ca 84 8b bd 1a c4 54 bd
       -0.080429755 0.038667835 -0.06812437 -0.05194483
0000a0 e2 60 72 3c 00 f0 a7 3d 7e 0e 3a 3d 79 e8 d7 bc
       0.0147936065 0.08200073 0.045423977 -0.026355969
0000b0 5e 95 75 3c e6 ed af 3d db d8 23 3a df c2 76 bd
       0.014989225 0.085902974 0.00062502705 -0.060244437
0000c0 3e d0 88 3d 9f 0e 8e 3d ae 33 84 bc af 6a 27 3d
       0.06680344 0.069363825 -0.016137924 0.040873226
0000d0 fe d7 99 bd 48 b0 80 bd dc 7c b3 bd 2a 2e 5b 3d
       -0.075119 -0.06283623 -0.087640494 0.053510822
0000e0 90 52 26 bc 3d 61 04 bd 4e 98 3c 3c 49 09 41 bd
       -0.01015152 -0.032319296 0.011510922 -0.047127996
0000f0 45 60 a7 3c 58 db 97 3c 18 2b b7 3d 1c 92 a7 3d
       0.020431647 0.018537208 0.08943766 0.08182165
000100 0a c3 d6 3d b1 ea 69 3d 06 f8 39 3b ef 5e a9 3c
       0.104864195 0.057108585 0.0028376593 0.02067515
000110 5a cd 98 3d 95 d0 0f bd 67 b8 91 3d b8 6c 91 bd
       0.07461043 -0.03511103 0.0711525 -0.071008146
000120 ef 8e 47 3b f7 8c bb 3c 34 7a ed bc 32 bd 7e bd
       0.0030450185 0.022894366 -0.028988935 -0.06219215
000130 c0 b4 f0 3d ed ef b3 bc 66 18 e0 3c 68 7e 7f bd
       0.11753225 -0.021964991 0.027355384 -0.06237641
000140 e0 6f 00 3d 58 b8 4d bc cd d6 94 3d ea 9e b2 b9
       0.031356692 -0.012556158 0.072675325 -0.00034069206
000150 fd 16 d5 bd 63 4d 2d 3d f1 97 26 bd 82 c5 e8 3c
       -0.10404775 0.04231013 -0.040672246 0.028414492
000160 e4 9c 50 3d 28 f4 bb bc e1 15 92 3d 25 37 54 bd
       0.050930873 -0.022943571 0.07133079 -0.051810402
000170 51 21 6b 3d 0a 65 ac 3c b5 fb a4 3c a6 76 82 bc
       0.05740482 0.021044273 0.020139555 -0.015925717
000180 bb 46 59 ba 46 1e a6 bb 6b 33 8f 3d af 96 0c bd
       -0.0008288433 -0.005069527 0.06992229 -0.03432339
000190 e1 78 dd 3d 48 2d 0e 3d c2 ac 86 3d fc d6 4b bd
       0.108140714 0.034711152 0.0657592 -0.049765572
0001a0 18 76 34 bd 78 1b 71 bd 6c a1 95 3d b9 8d 9c 3c
       -0.044057935 -0.058864087 0.073061794 0.019110547
0001b0 c2 d5 82 3b 1f a4 68 bd 89 38 24 bd c0 d3 36 bd
       0.003992767 -0.056797143 -0.04009298 -0.044635534
0001c0 33 d3 e4 bb 35 c5 02 bd c2 fc df bd 96 f5 12 3b
       -0.0069831847 -0.031926353 -0.109368816 0.0022424213
0001d0 f3 be 97 bd be 05 a4 3d c4 6a 4b 3d e9 db 09 bd
       -0.074094675 0.08008908 0.049662367 -0.03365699
0001e0 0f 82 5a 3d 35 2d c9 3c 18 34 79 bc 4c 87 75 bd
       0.05334669 0.02455769 -0.015210174 -0.059943482
0001f0 62 0a 85 3d 8e 75 45 bd 92 62 65 3c ad c8 7f 3d
       0.06496121 -0.048207812 0.014000552 0.06244724

network.4.weight f4 [8, 128]
000000 4f 15 a5 bd 20 95 81 bc a9 50 35 3c db 91 8f 3d
       -0.08060705 -0.015818179 0.011066594 0.070102416
000010 3b 6e 15 bd eb 7e a0 3d ed d8 0f bc 43 36 22 bd
       -0.036482077 0.07836708 -0.0087797465 -0.03960253
000020 ce ae e4 3c 49 11 95 bc 49 0a 78 bd 09 1e e2 bc
       0.027915385 -0.018196719 -0.060556684 -0.027602213
000030 f8 c5 12 bc d2 fe 95 bd 88 60 1e 3d 35 5a ce bc
       -0.008958332 -0.07323994 0.038666278 -0.025189498
000040 48 ed 0a 3d c5 c5 2d 3d 60 17 b9 3c 00 c8 7f bb
       0.033917695 0.042424936 0.022594154 -0.0039029121
000050 86 17 95 bd 22 4d bf 3d 55 e5 ea bc 51 9d a9 bd
       -0.07279877 0.09340884 -0.028673807 -0.08281959
000060 9e dd 87 3d 21 c7 5f bb 28 89 7d bc 8a c1 ae 3d
       0.06634067 -0.003414579 -0.015474595 0.085330084
000070 4d 96 81 bc 51 e3 81 3d 07 2c 62 bd 87 85 91 b9
       -0.01581874 0.06342185 -0.05521777 -0.0002775604
000080 c7 31 33 3d 64 71 a1 bd 90 c3 fc bd 40 28 f7 3a
       0.043748643 -0.07882956 -0.12341988 0.00188566
000090 d1 dd 6a bd aa 2e 05 bd 17 f4 82 bd d3 d6 35 3d
       -0.057340447 -0.032515205 -0.06394213 0.044394325
0000a0 8b 93 65 3d e3 25 e6 3c cd 19 c5 bd 04 da 71 3c
       0.05604891 0.028094238 -0.09624062 0.014761452
0000b0 91 75 ae 3c b1 95 9e 3c 28 4c 02 3d 8e cb 79 3d
       0.021296294 0.019358488 0.03181091 0.06098514
0000c0 9d 04 9d 3c f0 65 d7 3c f9 98 7c bb 8b a2 ce bd
       0.019167239 0.026293725 -0.0038543327 -0.10089596
0000d0 70 b0 46 3c dc f0 65 bd f4 6f a7 bc c8 36 54 3d
       0.012127027 -0.056137905 -0.020439126 0.051810056
0000e0 28 81 fc bc 9b 9c b7 bd 22 5b e9 bd 0a 91 b4 ba
       -0.030823305 -0.08965417 -0.11394335 -0.0013776135
0000f0 b3 42 4c 3d ba 24 7d 3d b5 8c 5d 3b a6 e3 0a bb
       0.049868297 0.061802603 0.0033805792 -0.0021192818
000100 4f ae 8b bd f6 7f 8e 3c f3 1a 5b bd af 72 55 3d
       -0.06820356 0.017395 -0.053492498 0.052111324
000110 d7 4b 56 3d be 3f ea bd 20 b9 6b bc 8f 03 54 bd
       0.05231842 -0.11437939 -0.014387399 -0.051761206
000120 60 17 7e bd 90 4a 2a bd 7f 1c 74 bd c8 11 a9 bd
       -0.06203401 -0.041575015 -0.05959749 -0.08255345
000130 b4 08 94 bd bc e6 ce bd 26 5b 98 bd 7f 9f 24 bd
       -0.072282225 -0.10102603 -0.0743926 -0.04019117
000140 73 94 7d bd 38 14 c4 3c 62 00 6a 3d 42 b1 5e 3d
       -0.06190915 0.023935422 0.05712927 0.054368265
000150 b2 07 5e bd 77 a2 26 3c 7b e4 88 3d 31 b5 aa 3c
       -0.054206558 0.010170571 0.06684204 0.020838352
000160 cd 07 1d bd 9c 5f 21 bd 2c e3 a2 bc b9 bf 3d 3d
       -0.038337518 -0.03939782 -0.019883715 0.04632542
000170 ca 2a 9b bd 35 f0 13 3d a3 ca 16 bb 80 ad 8c bd
       -0.07576521 0.03611775 -0.0023008964 -0.0686903
000180 aa ac 32 bd e0 5d f4 3c bf 4e 06 bd 1f 88 b7 bc
       -0.043621697 0.02982992 -0.032789942 -0.022403775
000190 0d 44 7d bd b6 fe 6c 3d cc 3c 04 3d e1 d2 09 3d
       -0.061832476 0.0578601 0.032284543 0.033648375
0001a0 c0 04 5e 3c 00 c0 7e 3c 8e fb a2 3b 48 02 a4 bc
       0.013550937 0.015548706 0.0049738353 -0.020020619
0001b0 1b 3a a0 bc 48 6a 9c bd cd f1 e9 3a 45 e4 2d 3d
       -0.019558957 -0.07637459 0.0017848552 0.042454023
0001c0 9a b4 69 3d 57 19 53 bd d6 96 ba bd 49 70 74 bd
       0.057057 -0.051537838 -0.09110801 -0.059677396
0001d0 54 df 83 3c a5 54 eb bd 00 ea d2 bc 23 3e 9f 3d
       0.016097702 -0.11490754 -0.025746346 0.077755235
0001e0 d0 31 1b 3d 6b e9 ab bd 9f a3 00 bd 37 83 36 bd
       0.0378893 -0.0839413 -0.03140604 -0.04455873
0001f0 ec 22 18 3c d2 d5 b8 bd ba 02 c8 bd 1c e6 93 bd
       0.00928567 -0.09025158 -0.09766145 -0.07221624
000200 7f e6 cb 3d f2 4f 33 3d df 7b c3 3c dc ce a1 bd
       0.09956073 0.043777414 0.023862777 -0.079007834
000210 ad a8 a1 3d be fe 39 bd 45 ba a0 3d ae e7 5b bc
       0.078935005 -0.045408957 0.07848028 -0.013421936
000220 bf 46 b7 3d 74 fc 9f bc 88 26 6b bc 16 90 9d bd
       0.089490406 -0.019529559 -0.014352448 -0.07693498
000230 10 46 d9 bc da e4 46 3d 08 99 01 3c 59 f3 43 3d
       -0.026522666 0.048558094 0.007910021 0.047839496
000240 2e 11 99 3d a8 3d 6b bd 22 47 66 3d 73 3f 8d 3d
       0.0747398 -0.057431847 0.05622018 0.068968676
000250 99 e9 aa 3c 11 97 32 3d c4 8f 90 3c 7f e6 82 3d
       0.020863341 0.0436011 0.017646678 0.0639162
000260 19 00 8b bd e3 f2 a7 3b 55 95 da 3d 38 32 1a bd
       -0.06787128 0.00512539 0.10673014 -0.03764555
000270 8e 7f a0 3d 22 f0 bd bc d8 ab 26 bd 57 06 55 3b
       0.07836829 -0.023185793 -0.040691227 0.0032505
000280 24 0a ba 3d ee 47 52 3d 83 be 84 3d 3c 26 c4 3c
       0.090839654 0.05133813 0.0648165 0.023944013
000290 9a f1 a0 bd 0a d0 19 3d d0 ca 5e bd 47 15 79 bc
       -0.07858582 0.037551917 -0.054392636 -0.015202827
0002a0 95 4f 86 3d e5 3f 91 bc f4 0c 74 3c 7d 5f ab 3d
       0.06558148 -0.017730663 0.014895666 0.08367822
0002b0 48 b9 84 bc c5 ff 0f 3d fe f2 85 bd f7 d2 66 3d
       -0.01620163 0.03515603 -0.06540488 0.056353536
0002c0 50 df 6d 3d 8c 99 e8 3c 04 cc 1f bd 2d ae 95 3c
       0.058074296 0.02839353 -0.039012924 0.01827153
0002d0 f1 32 01 bd f5 39 93 3d 60 39 6b bc b4 72 d2 3d
       -0.031542722 0.07188789 -0.014356941 0.10275784
0002e0 2a 8c 1e 3d 20 b0 9c 3c 00 c9 98 3c 3a 76 91 3d
       0.03870789 0.019126952 0.018650532 0.07102628
0002f0 70 bc 7a 3d df 45 15 bd 79 9f 3a bc 79 c6 48 3d
       0.061214864 -0.036443587 -0.01139056 0.049017403
000300 de b9 db 3d 47 46 02 3d a4 ee 9a 3d c1 b5 23 3d
       0.10728811 0.031805303 0.07565048 0.039968256
000310 4b 9a 0d 3d 20 34 be bc 33 8e 58 bd 20 31 77 3b
       0.034570973 -0.023218215 -0.052869987 0.003771849
000320 e0 f4 39 bd d3 9d d6 3d 7e 67 12 bd 35 58 95 bd
       -0.045399547 0.10479321 -0.03574323 -0.07292215
000330 fc 94 d2 3b fe 20 11 3d 87 d7 37 bb cd 29 a1 bd
       0.0064264517 0.035431854 -0.0028052048 -0.07869301
000340 80 91 59 bd 3e 40 06 3d 76 15 88 3d 0a 45 20 bd
       -0.053117275 0.03277611 0.06644718 -0.03912834
000350 dc 53 13 3d 45 36 5b bd 36 85 d9 3c 68 28 fc 3c
       0.035968646 -0.053518552 0.026552778 0.030780986
000360 75 74 36 3d c5 a4 0c 3d 9e 1f bb 3d 16 14 96 3d
       0.044544656 0.034336824 0.0913689 0.0732805
000370 34 76 bb 3d 70 14 b1 bc 9c d2 8b 3d 2a 76 13 bc
       0.09153405 -0.02161619 0.0682728 -0.0090003405
000380 ca ad 26 3d b9 c1 51 3d 40 bb e0 3a 01 4a 1a bd
       0.040693082 0.05121014 0.0017145649 -0.037668232
000390 38 a5 81 3d 7e f4 65 3d 48 3a 7b bb 1e 5c 5c bd
       0.06330341 0.05614137 -0.00383343 -0.053798787
0003a0 cd 11 72 bd 0a 0c 27 bd 44 3c c1 3b e4 d2 f1 3d
       -0.059099007 -0.040782966 0.005897077 0.11807802
0003b0 14 9a 9b 3d ca 92 23 3d 02 34 69 bd f6 ae ad bc
       0.075977474 0.03993491 -0.056934364 -0.021201592
0003c0 aa 19 38 3d 8a 73 d1 3d 9e 4c 50 bb 02 29 5e 3d
       0.04494635 0.102271155 -0.0031783949 0.054238327
0003d0 14 e9 3e bd d4 70 fe 3d 49 5c 47 3d ae b1 17 3d
       -0.046609 0.12423864 0.048671994 0.037034683
0003e0 53 f0 16 3d 7d 07 dc 3d 4f 9f 07 bd c5 fe a8 3d
       0.036850285 0.10743616 -0.033110913 0.082517184
0003f0 43 ef 62 3d b1 17 6e 3b 4f 5f 15 bc 2d 1d e2 3d
       0.05540396 0.003633004 -0.009116962 0.11040721

network.4.bias f4 [8]
000000 4e b1 47 3d 55 bc 3c bc 2c 06 05 bd dc b5 0e bc
       0.048753075 -0.011519511 -0.03247659 -0.008710351
000010 f6 a2 6d bd 7b 13 50 3a a3 7c 0e 3c c9 49 d4 bd
       -0.05801674 0.0007937473 0.008696708 -0.10365636

exp_avg f4 [128, 26]
000000 00 00 00 00 00 00 00 00 00 00 00 00 00 00 00 00
       0.0 0.0 0.0 0.0
000010 00 00 00 00 00 00 00 00 00 00 00 00 00 00 00 00
       0.0 0.0 0.0 0.0
000020 00 00 00 00 00 00 00 00 00 00 00 00 00 00 00 00
       0.0 0.0 0.0 0.0
000030 00 00 00 00 00 00 00 00 00 00 00 00 00 00 00 00
       0.0 0.0 0.0 0.0
000040 00 00 00 00 00 00 00 00 00 00 00 00 00 00 00 00
       0.0 0.0 0.0 0.0
000050 00 00 00 00 00 00 00 00 00 00 00 00 00 00 00 00
       0.0 0.0 0.0 0.0
000060 00 00 00 00 00 00 00 00 86 68 af 3c 32 97 a2 3c
       0.0 0.0 0.021412145 0.019847486
000070 1b 57 de 3c 33 c2 a8 3c 95 46 75 3c 74 86 83 3c
       0.027141144 0.020600414 0.014970441 0.016055323
000080 c8 7f 35 3c 1a dc 00 bd cc 29 da 3c 98 65 99 3c
       0.011077829 -0.031459905 0.026631258 0.018725201
000090 d0 f9 9e 3c 60 c7 2f bb 6a 5b 13 3c 31 ab 92 bc
       0.01940623 -0.0026821718 0.008993963 -0.017903896
0000a0 eb 8b 83 bc a9 5d f4 3b 1c 03 87 bc cc c0 58 bc
       -0.016057929 0.007457454 -0.016480975 -0.01322956
0000b0 b4 3f 42 bd 4e 4d 30 bd 78 8d 3d bd ca b1 4c bb
       -0.047424033 -0.043042473 -0.046277493 -0.00312339
0000c0 8c f3 bd 3a 36 54 0c 3b 7c 2d 14 bc 44 eb fc bb
       0.0014492138 0.0021412498 -0.009044047 -0.0077184755
0000d0 d7 05 c9 bb e4 eb 4b bb c2 85 86 3a 6b b1 db bb
       -0.0061347294 -0.0031115944 0.0010263252 -0.0067044995
0000e0 ed 83 1d bc ec c6 4e bc 34 d8 03 bc 9a f9 2a 3c
       -0.009613973 -0.012620669 -0.008047152 0.010435486
0000f0 2f c7 0b bc e7 b9 21 bc 69 e4 f3 3b f8 4b 3e bc
       -0.008531376 -0.009870983 0.007443 -0.011614792
000100 7d 03 84 bc 60 45 58 3a 54 54 03 3c a0 47 9c bb
       -0.016114945 0.0008250084 0.008015711 -0.0047692806
000110 b6 7a 46 3c d3 04 d8 bb 82 66 a5 3b a7 40 bb bb
       0.0121142175 -0.006592372 0.0050476203 -0.0057144943
000120 12 7b 34 3c 9c 34 ca ba 38 fd ec b8 f0 77 c7 b7
       0.01101567 -0.0015427056 -0.000113005226 -2.3778499e-05
000130 01 df b9 ba 54 01 d6 ba 86 4e 38 bb 80 f8 23 bb
       -0.001418084 -0.00163273 -0.0028122975 -0.0025019944
000140 3e 89 01 bb 90 01 05 bb 58 bd e9 ba 5e d3 80 bc
       -0.001976564 -0.002029512 -0.0017832918 -0.015725788
000150 a4 aa 9b bc 39 8a 36 bd f9 7e 54 bc 5e 9f 85 bc
       -0.019002266 -0.044565413 -0.012969726 -0.016311344
000160 fa 59 f3 bb 0d ce c3 bc ca 52 25 bc 3a 44 10 bd
       -0.0074264975 -0.023901964 -0.010090539 -0.035221316
000170 18 f6 01 bd d3 ba cb bc e0 d2 0d bd ba 9b 08 bd
       -0.031728834 -0.024869358 -0.034624934 -0.033351637
000180 32 4d 47 bd 3c c9 4d bd dc 96 2e bd 75 c6 a5 bc
       -0.048657604 -0.05024074 -0.04262434 -0.020236233
000190 f4 3b 7a bc 9a 66 b5 bb cf 17 c4 bc 88 c6 be bc
       -0.015273083 -0.0055359127 -0.023937134 -0.023288026
0001a0 8e 72 18 19 a6 37 19 b6 62 f1 da 35 13 4f 15 19
       7.88135e-24 -2.2831168e-06 1.6312517e-06 7.719088e-24
0001b0 6c 23 08 19 88 85 04 b6 95 9a 01 b7 7e 96 a2 37
       7.0381886e-24 -1.9747258e-06 -7.724991e-06 1.9381983e-05
0001c0 0d 83 0d b6 40 81 05 b6 48 0c b4 b6 84 7e 64 b8
       -2.108692e-06 -1.9893778e-06 -5.3658478e-06 -5.4477263e-05
0001d0 00 00 00 00 ad 9b 5c 37 d2 5c c7 37 b2 6e 08 37
       0.0 1.3149268e-05 2.3765871e-05 8.132005e-06
0001e0 62 b7 c2 36 4a 6e 56 b7 ee 97 e2 36 e6 3c c7 b6
       5.802999e-06 -1.2781073e-05 6.753012e-06 -5.9377517e-06
0001f0 46 13 6d 38 d1 5d 53 b7 d4 17 29 b7 36 e9 8c b6
       5.6523153e-05 -1.2598423e-05 -1.0078733e-05 -4.1994745e-06
000200 13 e8 8c b7 bf a3 7d b7 43 74 d6 bb 37 9a c0 bb
       -1.6797369e-05 -1.51181e-05 -0.006544621 -0.005877759
000210 86 60 7f bb 5c 5a bd bb e8 05 fc bb ba 7e b7 bc
       -0.0038967445 -0.005778594 -0.007691134 -0.022399295
000220 77 da a8 bc e2 40 98 bc 56 0e a3 bc 1e d6 a3 bc
       -0.020611985 -0.018585626 -0.019904297 -0.01999956
000230 7d b2 78 bc 0b ec 09 bd d6 da 69 bc 21 5e e6 bc
       -0.015179274 -0.033672374 -0.014273366 -0.028121056
000240 14 fa 70 bc fd ce 17 bd b4 e7 b9 bc 80 fc 12 bd
       -0.014708061 -0.037062634 -0.022693492 -0.035885334
000250 91 c1 fc bc ae a1 22 bd 38 b1 97 bc 69 32 ab bc
       -0.030854018 -0.03970497 -0.018517122 -0.02089806
000260 2d fb 92 bc 6e 88 02 bc 4f 2d ae bc 68 1f af bc
       -0.017942036 -0.007967098 -0.02126184 -0.02137728
000270 00 00 00 00 00 00 00 00 3a 00 00 00 00 00 00 00
       0.0 0.0 8.1e-44 0.0
000280 00 00 00 00 00 00 00 00 00 00 00 00 fb 00 00 00
       0.0 0.0 0.0 3.52e-43
000290 00 00 00 00 00 00 00 00 be 03 00 00 69 04 00 00
       0.0 0.0 1.342e-42 1.582e-42
0002a0 00 00 00 00 15 03 00 00 69 04 00 00 26 00 00 00
       0.0 1.106e-42 1.582e-42 5.3e-44
0002b0 7a 02 00 00 4a 05 00 00 e3 03 00 00 7b 04 00 00
       8.88e-43 1.897e-42 1.394e-42 1.607e-42
0002c0 54 01 00 00 33 02 00 00 33 02 00 00 7c 01 00 00
       4.76e-43 7.89e-43 7.89e-43 5.32e-43
0002d0 33 02 00 00 33 02 00 00 e1 63 1f 3d 10 4b 27 3d
       7.89e-43 7.89e-43 0.03891361 0.04084307
0002e0 26 60 4d 3d 9d 9a 13 3d b0 0f f8 3c 86 90 9e 3d
       0.050140522 0.036036123 0.030280918 0.077424094
0002f0 ae b7 8f 3d 78 2d 29 3c 49 78 bd 3d 2e 80 9f 3d
       0.07017456 0.010325782 0.09251458 0.0778812
000300 f4 4a d1 3d 7f d9 b7 3d 6d 84 08 3d 94 25 70 3d
       0.10219374 0.08977031 0.033329416 0.058629587
000310 cd 35 a5 3c 55 31 07 3e 60 41 8e 3d d0 d7 c5 3d
       0.020167256 0.13202412 0.06946063 0.096603036
000320 d0 13 c7 3c aa cd 2a 3d 90 51 60 bb 2f 1b 73 3d
       0.02430144 0.041700043 -0.0034228303 0.059352096
000330 00 53 80 3d 3e e4 01 3d 5c af 48 3d fd e2 52 3d
       0.06265831 0.03171181 0.04899536 0.051486004
000340 82 b1 ed 9b 86 25 23 9c 7a 65 88 27 96 14 3d 9c
       -3.9323073e-22 -5.3980674e-22 3.7857604e-15 -6.256146e-22
000350 49 1f 0d 9c 03 7d f6 9d 88 c1 16 23 a9 2e b0 28
       -4.669342e-22 -6.5244917e-21 8.172498e-18 1.9560161e-14
000360 56 0b f6 9d 8a 7d cc 9d 46 c3 cf 28 dc 1e b1 27
       -6.512738e-21 -5.4128155e-21 2.3066303e-14 4.9160827e-15
000370 56 bc 2e 9d d4 ba 93 28 e4 0a d3 28 a4 34 2c 27
       -2.3126076e-21 1.6401302e-14 2.3430429e-14 2.3898332e-15
000380 5b 4c 18 28 04 28 ec 27 46 58 ee 28 c4 d8 d5 28
       8.454252e-15 6.5546543e-15 2.646159e-14 2.3741758e-14
000390 ba a2 21 28 e4 0a 53 28 43 a9 3d 28 eb 08 a5 27
       8.972581e-15 1.17152144e-14 1.052831e-14 4.580637e-15
0003a0 e4 0a 53 28 e4 0a 53 28 02 de 0c 3d 7f 73 04 3d
       1.17152144e-14 1.17152144e-14 0.03439141 0.03233671
0003b0 20 4b 25 3d 98 ee 06 3d 9e 1a dc 3c 62 f9 2e 3d
       0.040354848 0.032942384 0.02686816 0.0427183
0003c0 a6 57 0a 3d 59 af 16 bd 23 37 67 3d e0 4c 36 3d
       0.033774994 -0.03678832 0.056449067 0.044506907
0003d0 b9 71 3b 3d 9b 3a d0 3c 67 3d c7 3c 68 01 97 bb
       0.04576275 0.02541857 0.024321271 -0.004608322
0003e0 ea 64 8c bc c5 dd 3a 3d f2 98 84 bb 10 9d 62 3c
       -0.017137963 0.045621652 -0.004046553 0.013831392
0003f0 7f ce 3f bd 3c fe 07 bd dc 58 5f bd e5 e4 4f 3c
       -0.04682779 -0.03320144 -0.054528102 0.01268885

exp_avg_sq f4 [128, 26]
000000 00 00 00 00 00 00 00 00 00 00 00 00 00 00 00 00
       0.0 0.0 0.0 0.0
000010 00 00 00 00 00 00 00 00 00 00 00 00 00 00 00 00
       0.0 0.0 0.0 0.0
000020 00 00 00 00 00 00 00 00 00 00 00 00 00 00 00 00
       0.0 0.0 0.0 0.0
000030 00 00 00 00 00 00 00 00 00 00 00 00 00 00 00 00
       0.0 0.0 0.0 0.0
000040 00 00 00 00 00 00 00 00 00 00 00 00 00 00 00 00
       0.0 0.0 0.0 0.0
000050 00 00 00 00 00 00 00 00 00 00 00 00 00 00 00 00
       0.0 0.0 0.0 0.0
000060 00 00 00 00 00 00 00 00 e8 7f 08 3c 0e 0c 00 3c
       0.0 0.0 0.0083312765 0.007815374
000070 85 19 15 3c 2f c9 03 3c 15 3d 02 3c fe 35 01 3d
       0.009100323 0.008043571 0.007949133 0.03154563
000080 90 86 09 3d a3 e8 95 3d 16 b3 fc 3c d6 1e 03 3d
       0.033575594 0.073197626 0.030847114 0.03201183
000090 79 0a 26 3d da e3 24 3d 5a 5a 54 3c 8c 6d 76 3d
       0.04053733 0.04025636 0.012960995 0.060163066
0000a0 0f c2 ab 3d 12 df 36 3d ee 13 9d 3d b9 ed 9e 3d
       0.08386623 0.04464633 0.07669817 0.07760186
0000b0 2d d6 99 3d 2e 0c 91 3d de 7c 90 3d d3 d8 e0 3c
       0.07511554 0.07082401 0.070550665 0.02744714
0000c0 02 33 bc 3c cc 35 96 3b aa 50 f5 3c e3 23 f0 3c
       0.022973541 0.00458405 0.02994569 0.029313987
0000d0 dc b5 e9 3b d5 3e c0 3b 9d d8 d9 3b 62 7e d4 3b
       0.007132275 0.005866865 0.006648137 0.0064847926
0000e0 a4 ac dd 3b 02 01 a8 3c ae 2b b1 3c f5 07 08 3d
       0.006764965 0.020508293 0.021627273 0.033210713
0000f0 1e 8c a2 3c db cc a3 3c e1 0c 92 3c 9d 43 95 3c
       0.019842204 0.019995144 0.017828407 0.018220717
000100 9e ce 20 3c 32 ae db 3c 6d 9e 17 3d ac 42 bd 3c
       0.009814886 0.026816461 0.03701632 0.02310308
000110 6a 26 0b 3d 99 6d 06 3d 2d 7d 0a 3d ba aa fe 3c
       0.03397218 0.032819364 0.033810783 0.031087268
000120 0e 48 ff 3c 6c 33 4b 3c 50 9a 29 3c 3c 88 07 3b
       0.031162288 0.012402397 0.010351732 0.0020680567
000130 7d d8 5b 3c 35 65 58 3c 3c 40 27 3b c4 4d 30 3b
       0.013418314 0.013207723 0.0025520464 0.002690182
000140 2f 42 36 3b bf af 0f 3b c3 df 1d 3b 5e 17 62 3c
       0.0027810445 0.0021924821 0.0024089671 0.0137995165
000150 e6 a8 78 3c 93 28 06 3d 8b b4 58 3c 5e e2 63 3c
       0.015176987 0.03275354 0.013226639 0.013908951
000160 9a 2a 93 3c 74 f7 98 3c 87 04 ab 3b 93 31 df 3c
       0.01796465 0.018672682 0.0052190456 0.027245319
000170 5c fb 17 3d b0 94 a4 3c 70 60 0e 3d cb 08 17 3d
       0.03710495 0.020090431 0.03475994 0.03687362
000180 9e 70 0d 3d 79 3c 07 3d 07 2f 06 3d ba 81 4a 3c
       0.03453123 0.033016656 0.032759693 0.012360031
000190 61 65 29 3c a4 01 08 3b 78 7a 5d 3c 61 c0 58 3c
       0.010339112 0.002075293 0.013517968 0.01322946
0001a0 be 14 f4 35 83 65 bb 36 9a 7d 9a 36 7a c7 3c 34
       1.8185453e-06 5.584852e-06 4.6041796e-06 1.7581434e-07
0001b0 5a e9 06 33 03 9c 4a 35 4c 02 20 37 3b 23 31 3a
       3.141154e-08 7.547789e-07 9.537278e-06 0.0006757264
0001c0 51 73 fe 33 29 8e b5 33 ad 9e 5c 38 a5 97 04 39
       1.18487726e-07 8.454328e-08 5.2599866e-05 0.00012644993
0001d0 00 00 00 00 d1 18 c7 39 08 d7 41 3a 55 0d 1d 38
       0.0 0.00037974727 0.0007394408 3.7444133e-05
0001e0 ab 80 0a 3a ff 71 6a 3a dd d4 29 3a 0f f7 be 39
       0.0005283455 0.00089433783 0.00064785575 0.00036423697
0001f0 a7 b1 92 39 70 21 9b 38 0d d9 5a 38 34 d1 19 37
       0.0002797965 7.397204e-05 5.2177395e-05 9.16822e-06
000200 79 2c db 38 14 b8 be 38 bf 47 b0 3b 04 1b 9d 3b
       0.000104510174 9.094193e-05 0.0053796466 0.0047944803
000210 bf 61 b1 3b 7d a4 a8 3b 45 b8 ac 3b fe 92 83 3c
       0.0054132636 0.0051465617 0.00527099 0.016061302
000220 15 91 87 3c 06 67 f2 3c 71 ab 7e 3c 7b 81 7c 3c
       0.016548673 0.029590141 0.0155438045 0.01541173
000230 7e 60 88 3c d5 f8 85 3c 2d c5 e8 3b e4 3f c7 3c
       0.016647574 0.016354004 0.0071035833 0.024322458
000240 2d dc 10 3d 30 70 95 3c f2 06 00 3d cc e5 fd 3c
       0.035366226 0.018241972 0.031256624 0.030993365
000250 08 62 fb 3c 37 b8 f1 3c 6b 5e ec 3c d6 64 38 3c
       0.030686393 0.029506786 0.028853616 0.01125451
000260 9b f7 19 3c 86 25 f6 3a 06 4a 47 3c 7d 24 44 3c
       0.009397413 0.0018779493 0.012163645 0.01197159
000270 00 00 00 00 00 00 00 00 0b f8 2d 2e 00 00 00 00
       0.0 0.0 3.9555952e-11 0.0
000280 00 00 00 00 00 00 00 00 00 00 00 00 e5 86 4d 30
       0.0 0.0 0.0 7.477026e-10
000290 00 00 00 00 00 00 00 00 b9 6f 3a 32 af 0a 82 32
       0.0 0.0 1.0852028e-08 1.513885e-08
0002a0 00 00 00 00 b9 3a fe 31 7f b5 81 32 2e 23 95 2d
       0.0 7.399049e-09 1.5100111e-08 1.6954962e-11
0002b0 73 21 a4 31 d9 c7 ba 32 f1 60 4a 32 53 4d 86 32
       4.776831e-09 2.174413e-08 1.1779989e-08 1.5634816e-08
0002c0 35 72 bd 30 7f b5 81 31 7f b5 81 31 b5 c4 eb 30
       1.378402e-09 3.775028e-09 3.775028e-09 1.7154408e-09
0002d0 7f b5 81 31 7f b5 81 31 54 18 e8 3b d6 f5 ea 3b
       3.775028e-09 3.775028e-09 0.0070829783 0.007170419
0002e0 97 91 17 3c 2a f1 db 3b b7 35 ba 3b 13 75 fd 3c
       0.00925102 0.0067120986 0.005682673 0.030939614
0002f0 7a e5 07 3d f3 bf e1 3d 4a 02 f7 3c 36 27 04 3d
       0.03317783 0.110229395 0.030152459 0.032263957
000300 b8 b6 7d 3d 60 0c 80 3d 89 c5 20 3c 0f c1 bf 3d
       0.061941832 0.0625236 0.009812721 0.09362995
000310 f0 db 10 3e 6e 20 72 3d a6 07 fa 3d 87 b8 fa 3d
       0.141464 0.05911296 0.1220849 0.12242227
000320 52 e6 fb 3d 04 46 de 3d ef 94 f3 3d ca e1 2c 3d
       0.122997895 0.10853198 0.11893641 0.042207517
000330 a8 45 0f 3d 04 8f e4 3b 10 e9 3d 3d 7c 67 39 3d
       0.03497854 0.0069750566 0.046364844 0.045264706
000340 35 b1 81 32 18 cc 75 32 35 99 e7 32 24 9f 4d 32
       1.5098161e-08 1.43072825e-08 2.696161e-08 1.1968755e-08
000350 9e 70 2f 32 42 25 d0 35 89 9e ec 35 8b ea 9f 36
       1.0211947e-08 1.5508051e-06 1.762951e-06 4.7658737e-06
000360 4c d9 c3 35 cc 26 b6 35 b2 58 a3 36 22 31 09 36
       1.4591874e-06 1.3571348e-06 4.868104e-06 2.044319e-06
000370 30 a6 c4 34 c2 58 9e 36 e1 e8 0d 37 71 25 53 35
       3.6628762e-07 4.7190997e-06 8.458476e-06 7.865811e-07
000380 50 6b bd 36 cb 91 c7 36 f8 10 33 37 63 fe 05 37
       5.6451318e-06 5.9476347e-06 1.0673182e-05 7.986647e-06
000390 a2 63 35 36 6f 34 08 36 a5 d4 ef 35 8a 8f b7 34
       2.7029096e-06 2.02961e-06 1.7868775e-06 3.4190845e-07
0003a0 e4 f3 14 36 b3 40 11 36 ed 10 05 3c d2 d7 02 3c
       2.2195682e-06 2.1644344e-06 0.008121711 0.007986026
0003b0 a1 87 18 3c 70 57 f6 3b 0a 10 fd 3b 45 28 fc 3c
       0.00930968 0.0075177476 0.0077228593 0.03078092
0003c0 24 f7 05 3d c7 7b bb 3d c0 ca f4 3c 72 6f 03 3d
       0.032706395 0.09154468 0.029881835 0.032088704
0003d0 10 b4 51 3d 2c f0 48 3d 9c b7 42 3c 1c 75 9a 3d
       0.05119711 0.04905717 0.011884596 0.07541868
0003e0 98 ce db 3d 0e f4 51 3d ab a4 ca 3d 40 c9 cb 3d
       0.10732764 0.05125814 0.09894689 0.09950495
0003f0 7a 4a c5 3d 61 bf b4 3d 0f f5 bb 3d e1 b4 0b 3d
       0.09633346 0.08825565 0.091776006 0.034108046

exp_avg f4 [128]
000000 00 00 00 00 e4 86 d1 bc c2 7a 9a 3a 54 18 4e bd
       0.0 -0.025577016 0.0011785852 -0.05031617
000010 be 93 9d 37 61 8c 24 bd 69 04 00 00 75 88 ab 3d
       1.8784656e-05 -0.04017294 1.582e-42 0.083756365
000020 e4 0a d3 28 0e b9 d7 bb d7 dd d4 bb 23 50 b9 bd
       2.3430429e-14 -0.0065833395 -0.006496172 -0.09048488
000030 00 00 00 00 c2 46 41 bc 4a 7a 63 3b 9e 2a 54 bd
       0.0 -0.011796655 0.003471034 -0.051798455
000040 4a ae bd bb f6 ba b3 2c a2 2c 2a 3d 75 fe 35 bd
       -0.005788599 5.108243e-12 0.04154647 -0.044432122
000050 51 90 e8 27 00 00 00 00 bc 9a e0 ba 00 00 00 00
       6.4549404e-15 0.0 -0.0017135958 0.0
000060 25 bf a2 3c ef c9 e9 3c 25 2f 61 3d 00 00 00 00
       0.019866535 0.028538672 0.0549766 0.0
000070 e4 9c 49 bd 4c 3c 80 bd 52 d5 15 be 51 25 ae bd
       -0.04922189 -0.06261501 -0.14632156 -0.08503211
000080 a3 32 f0 b1 00 00 00 00 60 8c fa bc de 83 2b 3c
       -6.990676e-09 0.0 -0.030584514 0.010468451
000090 89 bf 0f b4 85 2b 11 bc 24 ee 45 bd 0a 67 e8 bc
       -1.3387593e-07 -0.0088604735 -0.04832281 -0.028369445
0000a0 74 3e 45 3c 7e 72 0f bd 1a 89 fc 3d 22 11 89 3c
       0.012038816 -0.035021298 0.123308375 0.016731802
0000b0 e4 39 b5 03 19 20 be b7 45 91 89 05 8b a6 14 3b
       1.0651515e-36 -2.2664712e-05 1.2936782e-35 0.0022682275
0000c0 39 5d 0f 3d c8 a1 92 3c 96 d4 11 3c d5 ec 98 bd
       0.035001013 0.017899409 0.008900782 -0.07467047
0000d0 61 4f 1a bd 7c 9c 5f bd 90 23 3f bd 5f 82 20 bb
       -0.037673358 -0.054592595 -0.046664774 -0.002449177
0000e0 af 54 07 bd 46 36 d1 bb d0 13 0d ba 6a 4d ce 3b
       -0.033039745 -0.0063846437 -0.00053816754 0.0062958496
0000f0 f4 70 bb 38 b7 fb b1 bd ff a4 04 bd 90 81 ae 3c
       8.937894e-05 -0.08690589 -0.032383915 0.021302015
000100 02 a2 2e 3c 04 00 00 00 44 35 11 bd 79 ab a7 3c
       0.010658743 6e-45 -0.03545119 0.020467507
000110 d1 99 4e 3e 00 00 00 00 76 7f 99 3d ed f9 81 0d
       0.20175864 0.0 0.07495014 8.010406e-31
000120 00 00 00 00 5f ba 9d 34 3e da 7b be b0 f3 c0 bc
       0.0 2.9379132e-07 -0.24594972 -0.0235537
000130 f7 e2 a4 3c 11 28 3d bd 5e 08 45 bd 00 00 00 00
       0.020127757 -0.04618079 -0.048103683 0.0
000140 5d 20 3e bd c0 09 32 bb 00 00 00 00 77 23 b2 bd
       -0.046417583 -0.0027166456 0.0 -0.08698171
000150 00 00 00 00 d3 6a f8 3a 48 fb 18 be 9c f2 33 3d
       0.0 0.0018952735 -0.14939606 0.043932542
000160 2e d4 2c bd 90 d3 11 bd c2 a5 80 38 20 4f 12 29
       -0.042194538 -0.035602152 6.1343904e-05 3.2487142e-14
000170 38 f5 43 3b 7c dc a8 bb 00 00 00 00 05 3f 0e 28
       0.00299008 -0.005153237 0.0 7.896249e-15
000180 bf 80 26 3d 98 ab 1b 25 b2 c0 58 bd c8 90 28 bd
       0.040650126 1.3502245e-16 -0.052918144 -0.0411537
000190 7d eb 37 bd 01 fe 84 b6 2f 76 8a bc cf 46 b2 bd
       -0.044902314 -3.9634765e-06 -0.016902057 -0.08704912
0001a0 c8 96 a7 bc 52 89 10 1b 7c 00 f8 3c fc 06 14 35
       -0.02045764 1.1955771e-22 0.030273668 5.514446e-07
0001b0 96 3d c7 bc 87 cf 18 bb 20 3f ba bc 40 3d 26 07
       -0.024321359 -0.0023317055 -0.022735178 1.2506452e-34
0001c0 45 48 ab bc 8c fd 26 bd 98 e5 88 bc 00 00 00 00
       -0.020908484 -0.040769145 -0.016711041 0.0
0001d0 83 79 a1 bd 78 8f 00 3e 00 00 00 00 8d ba 71 0a
       -0.07884505 0.12554729 0.0 1.1638814e-32
0001e0 00 00 00 00 67 65 78 b8 6e 71 cb bd d0 aa 5b bc
       0.0 -5.9222246e-05 -0.09933744 -0.013407424
0001f0 02 a5 f4 3c 20 2c 25 3d e8 21 a2 bc d4 35 ce bc
       0.029863838 0.040325284 -0.019791558 -0.025172152

exp_avg_sq f4 [128]
000000 00 00 00 00 0e 75 fb 3d e3 29 60 3d b5 bf 63 3d
       0.0 0.12278186 0.054727446 0.055602748
000010 fa 28 4b 3a db 50 4b 3d 7f b5 81 32 ea aa 43 3e
       0.00077499414 0.049637657 1.5100111e-08 0.19108167
000020 f8 93 21 37 06 9c 1d 3e a8 60 21 3c 91 d4 cc 3d
       9.6307995e-06 0.1539155 0.009849705 0.10001481
000030 00 00 00 00 2b 24 89 3d 35 25 d1 3d 28 ef ae 3d
       0.0 0.066963516 0.10212175 0.08541709
000040 e9 e7 74 3d c5 1b 90 39 d4 8b 0c 3d f6 19 a2 3d
       0.05979148 0.0002748651 0.034313038 0.07915108
000050 33 52 b0 37 00 00 00 00 d7 f5 a7 3b 00 00 00 00
       2.1019112e-05 0.0 0.005125742 0.0
000060 49 ce 62 3c 81 2a 94 3d 03 dd 6f 3d 00 00 00 00
       0.0138431275 0.072346695 0.058560383 0.0
000070 3d c1 c2 3c fa 2b ce 3d 37 78 c4 3d d6 13 99 3e
       0.023773784 0.100669816 0.09593242 0.29897946
000080 a4 32 40 35 00 00 00 00 53 03 4a 3d a5 e9 37 3d
       7.1599266e-07 0.0 0.049319576 0.044900555
000090 29 a8 7f 38 c0 2c 6d 39 ee 98 7f 3c 43 47 52 3d
       6.095335e-05 0.00022618752 0.015600426 0.05133749
0000a0 fd 6b 48 3d 5f 64 89 3d f6 1d 1b 3e 3c e9 08 3e
       0.04893111 0.067085974 0.15148148 0.13370222
0000b0 8e 03 92 36 c7 b4 36 39 ff 7c c9 36 58 3e 87 3d
       4.351553e-06 0.00017424217 6.0048183e-06 0.06603688
0000c0 96 9c a1 3d 62 e4 38 3e d5 5c f7 3d 1e f0 6b 3d
       0.078911945 0.18055871 0.12078253 0.05760204
0000d0 c3 40 ea 3d c8 0e 1b 3d be e4 25 3e 6e 79 f8 3c
       0.114381336 0.037855893 0.1620054 0.03033134
0000e0 0f de 28 3d 91 26 6c 3d 0b 53 8c 3e 64 c5 70 3b
       0.041227397 0.057653967 0.27407107 0.0036738748
0000f0 c3 c6 32 39 18 b8 05 3e 30 b7 04 3e 94 46 fb 3d
       0.00017049447 0.13058507 0.12960505 0.12269321
000100 c5 52 64 3d 35 d9 05 37 e4 d2 0c 3e 80 c5 d1 3c
       0.055742998 7.97799e-06 0.13752323 0.02560687
000110 47 e7 25 3e 00 00 00 00 ed 09 ae 3d e3 78 7c 38
       0.16201507 0.0 0.08497987 6.0194066e-05
000120 00 00 00 00 81 cd 01 39 50 15 ca 3d 99 56 c2 3d
       0.0 0.00012378955 0.09867346 0.094891734
000130 ec ca 65 3d af 94 23 3e 59 8d a8 3d 00 00 00 00
       0.056101725 0.15974687 0.08230085 0.0
000140 db 91 be 3d 07 c7 0c 3d 00 00 00 00 05 f2 be 3d
       0.093051635 0.034369495 0.0 0.09323505
000150 00 00 00 00 75 60 81 39 d1 e8 20 3e a9 3b 0f 3d
       0.0 0.00024676663 0.15713812 0.034969006
000160 48 ad 2f 39 6a 4d b4 3e 2b df 31 39 96 45 4b 37
       0.00016753853 0.35215312 0.00016963172 1.2115945e-05
000170 b1 61 51 3e 7d 27 2b 39 00 00 00 00 3d fd 16 37
       0.20447423 0.00016322541 0.0 8.999658e-06
000180 50 de d1 3d 9a 15 14 39 68 ce ec 3d 58 71 ca 3d
       0.10247481 0.00014122427 0.11562806 0.098849
000190 fb 66 3a 3d da be 13 38 b0 04 8f 3e 64 5f b0 3d
       0.045508366 3.5225275e-05 0.27933264 0.08611944
0001a0 15 a5 a5 3c 1b c2 dc 36 b3 a5 30 3e 9d c5 43 38
       0.020220319 6.579108e-06 0.17250709 4.6675665e-05
0001b0 ed e3 8a 3d ab d0 cd 38 cf d0 b4 3d 09 9b 15 39
       0.06781755 9.814029e-05 0.088288896 0.00014267502
0001c0 ff b6 6d 3d ba 01 02 3e 24 e3 55 3e 00 00 00 00
       0.058035847 0.12695971 0.20887429 0.0
0001d0 cb fd 97 3d 5c ba 10 3e 00 00 00 00 e5 e7 73 37
       0.07421454 0.1413359 0.0 1.4537921e-05
0001e0 00 00 00 00 be 1f 89 37 8c df 81 3d 37 1b f1 3c
       0.0 1.6346454e-05 0.06341466 0.029431922
0001f0 ad bf da 3d ad c7 68 3c ca 8b c3 3c 3e 44 dd 3d
       0.106810905 0.014207763 0.023870368 0.10804032
