models/reinforce/reinforce_high_gamma/checkpoint_ep500.pth (torch, 259594 bytes, 18 tensors)

network.0.weight f4 [128, 26]
00000000: 4032 35bd 32f3 0ebe 6261 243e abb1 12be
00000010: 976e 96bd 0d6a 5d3d 3d3f 413e b83c 173e
00000020: e4e8 18be 49cb 24be 19f9 d43d 6ea9 293e
00000030: 7a74 2bbe ca3b 6e3e ad82 063e bd42 573e
00000040: e253 1a3e 25b5 2d3e 9812 bf3d 9266 0ebe
00000050: f240 2d3e d62f e63d 8eaf 393b 636c 8d3d
00000060: 1d4a ec3d 1643 3f3b 119c a0bd e68a 17be
00000070: 2882 bdb9 fb60 17be 3e9b 3b3e 2daf 80bc
00000080: 12d6 f13c ab47 f03d 1eff 863d d4b6 123e
00000090: ad67 123e a81a 0d3e 9463 513e f2e5 1fbb
000000a0: aeb7 93bd f001 1fbe dde7 c93c 5567 163e
000000b0: ed45 6bbc 9545 c9bc e36f 30bb 4ff1 17be
000000c0: 3679 163e b309 4e3d 7629 efbb a5c7 25be
000000d0: 3437 22be 9f74 303e 9d14 3e3c 15f2 e03d
000000e0: a5c8 2b3d 4288 5b3d b057 ffbd bb0f 12be
000000f0: 1c2b 3e3d 798c 133d 7d3f 8ebd d786 1a3e
00000100: e7ff 4c3d c391 0e3e e799 183d 36d2 4cbe
00000110: 5bed 29be 9948 fdbd f209 3b3e ba56 4bbe
00000120: 3cfb 1d3e ee4d efbd cdcc 5b3d 1d4a 583d
00000130: 51f3 aabc 0fde 463d fe05 0bbe d386 483e
00000140: 0318 f63c 6873 45bd aa70 3e3e d65d 25bd
00000150: d086 a13c 85e4 14be 6a14 d9bd f7b6 fb3d
00000160: 87df d63d 81bb c4bb 2db7 e4bd 79c4 fa3b
00000170: ae92 603e 5e7e 713d ac15 443e a0a5 493c
00000180: 5ea7 0f3e c8f7 823d 8ed9 623e 8c8f dc3d
00000190: 0061 91bd 4e68 173e f616 273e 2eb7 003e
000001a0: 47fb 68bc a157 c2bd 2fa9 c63d 5725 5a3d
000001b0: 6fc4 5c3e b2ae bc3b dd3f 343d 2da0 053e
000001c0: 92e3 9dbd d4d0 b93d 289b 643e e64a d23d
000001d0: 2e43 12be 131a 543e c94f d83b 6a26 75bc
000001e0: f4b2 8a3d ef2f 22be 1967 833d b0b0 48bd
000001f0: 8576 81bd e91b 5abc d7fb 1dbc f333 493d
00000200: 044a 15be b99d 8fbd d31b 25bd 6698 13be
00000210: d501 02be 8b4e 09be 2ee8 17be 063b 423e
00000220: 1ef6 203e 72e7 1f3e 351b 1f3d 40e5 ddbd
00000230: 24b1 dabd 57d3 483e 7e08 a73d 0405 d6bc
00000240: fa1d 66be fe38 713e 565c 113e da9e efbc
00000250: 37f0 95bc a3b6 11be da4b 413e 5da1 51bd
00000260: d8cf 20be e7e7 ec3c 0809 17be fa35 a1bd
00000270: 4f38 e1bd 9e3e 05be 6bf0 233e 2ec6 243d
00000280: c7c1 33be c655 e0bd d3f0 143d a11e 453e
00000290: 8867 eabd a9c1 fcbd 62ef 13be cbcd 553e
000002a0: 5fc8 34be 6634 2dbe 8515 fabd 5ff7 813b
000002b0: 9eea 16be c126 d73d a38f 393d 17d1 3bbc
000002c0: 9597 313e 01b8 a6bc 267c d03d ef14 87bd
000002d0: e011 173e 7a01 2a3e b19e 2b3e bbfb eebb
000002e0: a60d 39be 13a8 17be 9b70 053e f7b4 c7bd
000002f0: e17b 143e 74ff 013e b30f d6bd f611 28be
00000300: 2523 bf3b 475a 3ebe 62aa e23d 30d7 80bd
00000310: 8a32 26be 7492 c13d 9760 de3d 64e4 1bbe
00000320: c98f 7abd bac8 d43c 22e9 2cbe 57f6 473b
00000330: f3ba 3cbe 0716 11be 1b2f d9bc 0745 44bd
00000340: 78c9 18bd 3b21 67bb 536c 4a3e 7ff0 aabc
00000350: c48b b1bc afc8 8fbd 6a4e 123d 406e 1cbe
00000360: 2c66 ab3d cf10 eabd 1cb7 a6bd d54d 1dbe
00000370: 3e00 0f3e 92e0 0e3e ba70 8bbd 2981 753e
00000380: 62c0 8d3d 879a 5c3d 5d17 1c3e 7a16 57ba
00000390: f505 ba3d 3870 b73d a3df 213e 4cc9 fc3c
000003a0: ee01 9abd b978 7dbc 273b 38be 430d 7b3d
000003b0: 55f8 bf3d 521e b23d a1e7 ec3d 4c48 223b
000003c0: 566d 1b3e 7102 a43d d316 59be 7c2a 0b3e
000003d0: aa51 48be 5b1c 253e 9ee2 a13d cf9d 2a3e
000003e0: 4b01 133e 9ed4 113e 6718 9abd b0ca 3abe
000003f0: d22a 3cbe c173 0cbd a037 8f3c c7ab ddbd
-0.044237375 -0.13959959 0.16052774 -0.14325587 -0.07345312 0.054056216 0.1887178 0.14769256
-0.1493259 -0.16093172 0.10399074 0.16568539 -0.16743651 0.23264995 0.13135786 0.21021552
0.15071061 0.16963632 0.09329718 -0.13906315 0.16919306 0.11239593 0.0028333399 0.06905439
0.115375735 0.0029184273 -0.07842267 -0.1479908 -0.00036145863 -0.14783089 0.18320939 -0.01570853
0.029521022 0.117324196 0.065916285 0.14327556 0.14297362 0.137797 0.20448142 -0.0024398533
-0.072127685 -0.15528083 0.024646694 0.14687856 -0.014359933 -0.024569312 -0.0026922158 -0.14838146
0.14694676 0.05030222 -0.0072986437 -0.1618944 -0.15841371 0.17231987 0.011601594 0.109836735
0.041939396 0.053596742 -0.12467897 -0.14263813 0.04642783 0.036022637 -0.06945703 0.150905
0.050048735 0.13922791 0.037256148 -0.20002064 -0.1659445 -0.123673625 0.18265513 -0.19857302
0.1542787 -0.11684786 0.05366211 0.052805055 -0.020867975 0.048551615 -0.13576505 0.19582681
0.030040747 -0.048205763 0.18597665 -0.040372692 0.019717604 -0.14540298 -0.10599597 0.12290757
0.10491853 -0.0060037975 -0.111677505 0.007652816 0.21930954 0.058958404 0.19148892 0.0123075545
0.1402869 0.06394917 0.22153303 0.10769567 -0.070985794 0.14785883 0.16317353 0.12569878
-0.014220065 -0.0948937 0.09700238 0.053258266 0.21559308 0.00575813 0.044006217 0.13049383
-0.07709421 0.09073034 0.22324812 0.10268192 -0.1428344 0.20713072 0.006601308 -0.014962772
0.06772414 -0.15838598 0.06416149 -0.048996627 -0.06321434 -0.013312318 -0.009642563 0.04912181
-0.14579016 -0.07012505 -0.04030974 -0.14413604 -0.12696011 -0.13408868 -0.14834663 0.18967828
0.15718886 0.15615633 0.038844306 -0.108347416 -0.10678318 0.1961187 0.08155917 -0.026125439
-0.22472373 0.23556897 0.1419538 -0.029250551 -0.01830302 -0.14229827 0.18876591 -0.05117928
-0.15704286 0.028919173 -0.14749539 -0.07871623 -0.10997068 -0.13012168 0.16009681 0.04022806
-0.17554389 -0.1095386 0.03636248 0.19249965 -0.11445528 -0.12341625 -0.14446786 0.20879285
-0.1765456 -0.1691452 -0.12211136 0.0039662565 -0.14737937 0.105054386 0.045303 -0.011463425
0.1734298 -0.020351412 0.101799294 -0.0659579 0.14752913 0.16602126 0.16759755 -0.007293192
-0.18071613 -0.14810209 0.13031237 -0.09751313 0.14500381 0.12695104 -0.10452213 -0.16413102
0.005833047 -0.18589126 0.11067654 -0.06291044 -0.16230217 0.09451762 0.10858267 -0.15223843
-0.06117228 0.02597462 -0.16885808 0.003051182 -0.1843069 -0.14168559 -0.02651172 -0.047917392
-0.03730151 -0.003526761 0.19767885 -0.02086663 -0.02167309 -0.07020699 0.035719313 -0.15276432
0.08369097 -0.11428987 -0.08140394 -0.15361722 0.13964936 0.13952854 -0.0680861 0.23975052
0.0692146 0.053858306 0.15243287 -0.00082049484 0.090831675 0.08956951 0.15807967 0.030857705
-0.07519899 -0.015470677 -0.17991315 0.061291944 0.093735375 0.086971894 0.11567617 0.002476233
0.15178427 0.08008278 -0.21200113 0.13590425 -0.19562402 0.16124098 0.07904552 0.16661762
0.14355962 0.14241263 -0.07524186 -0.18241382 -0.1837571 -0.03429008 0.017482579 -0.108237796

network.0.bias f4 [128]
00000000: 7fba 203e 91c1 d8bd 640f 52bd 72be edb9
00000010: 6c38 3c3e f450 043b b663 313d ebcf 86b9
00000020: 4ee0 803d 9482 093e 9958 81bd 5967 db3d
00000030: d0ec 113d b0e9 29bc 8ec7 2ebe 27dc e7bd
00000040: 00c0 493e 3785 22be fc70 2ebe a085 193e
00000050: 4d2c a0bd 6a8e 0a3d a14c 9cbd f8fe 58bd
00000060: c72e 343e 80c7 c7bb b427 2e3e 035c f8bd
00000070: 2381 9abc dd17 59bd e38e 223e d207 423e
00000080: 36e9 a3bd c894 b7bd dc25 cd3d 5482 90bd
00000090: 5f8c 953d 0116 243e e926 cd3c 77cd 2cbd
000000a0: 6bbc 0abe 3683 3e3e 1035 93bb f253 ab3d
000000b0: 3cf2 9dbd 9d73 313e 3b1d 9ebd 08d3 c7bd
000000c0: 0eea fb3d e00a 09be cbef d93d 999a ac3d
000000d0: aa7b b8bd 36de 42be 81de c2bd eaf8 f6bd
000000e0: 4af6 c83d 0c4c 9bbd 9227 1d3e 803a 88bb
000000f0: a2ed 973d e829 25bd 904a dc3d 6108 03be
00000100: ded9 e03d e957 9fbd b761 1abe d489 f83d
00000110: 7666 183e 3456 5b3e 93f2 c43d d2a9 06be
00000120: 1648 523d 12f0 333e 0409 373e 9b22 3c3e
00000130: 403d 0b3d ce78 443d 75b0 c2bd 1cea 8fbd
00000140: 80e0 433e c00d 9b3b 0669 ab3d fe20 613e
00000150: 3854 b0bc 45f5 03be 54d8 77bc 4d22 83bc
00000160: 3764 403d 58ee babc a5e8 febd b489 ab3c
00000170: 268f 0bbd 9635 453d 00e4 18b9 67f0 583d
00000180: 5efc 9dbd 4399 afbd 2c90 3d3d 47f2 ee3d
00000190: 57ec 363d b781 34bb 8fe7 d93d 3875 583d
000001a0: 32c9 da3d 48b7 1abe ed3a 0c3e a687 d3bd
000001b0: cbbd 783d 31ed 1fbd a28f f2bd a76c f53d
000001c0: c5f2 ffbc 69d7 ee3b be75 c53d f7f5 babd
000001d0: 457c ef3d 8afa e2bd 2294 063e 1e76 b9bd
000001e0: 3685 113e b356 603d c85d 57bd 55dd 003d
000001f0: fa99 83bd ca7e b73c 2803 c0bd af53 d13d
0.15696143 -0.10583795 -0.05128421 -0.00045346055 0.18380898 0.0020189853 0.043307982 -0.00025713383
0.06292783 0.13428718 -0.06315727 0.107130714 0.035626233 -0.010370657 -0.17068312 -0.113212876
0.19702148 -0.1587113 -0.17035288 0.1499238 -0.0782095 0.033827223 -0.07631803 -0.052977532
0.17595969 -0.0060967803 0.17007333 -0.12126925 -0.018860405 -0.053001273 0.1587482 0.18948296
-0.08003466 -0.08963925 0.10016987 -0.07056108 0.07302164 0.16024019 0.025042968 -0.042188134
-0.13548438 0.1860474 -0.0044924095 0.08365621 -0.07712218 0.17329259 -0.07720419 -0.09757048
0.12300502 -0.13383055 0.1064144 0.08427925 -0.09007962 -0.19030079 -0.095150955 -0.12059195
0.09812601 -0.07582864 0.15347126 -0.0041573644 0.07418372 -0.040323168 0.10756409 -0.12796165
0.10979055 -0.077804394 -0.15076338 0.12135664 0.14882836 0.21419603 0.0961658 -0.13150719
0.051338278 0.17572048 0.17874533 0.18372576 0.03399396 0.04796677 -0.09506313 -0.07027075
0.19128609 0.0047318637 0.08369641 0.21985242 -0.021524534 -0.12886532 -0.01512726 -0.016007567
0.046970572 -0.02281873 -0.12446717 0.020939685 -0.034072064 0.048146807 -0.00014580786 0.05296364
-0.07714151 -0.08574154 0.04628007 0.116673045 0.044658985 -0.0027543136 0.106398694 0.052846164
0.10682906 -0.15108979 0.13694353 -0.10328607 0.060727876 -0.039044563 -0.11843802 0.119836144
-0.031243691 0.0072888625 0.09641598 -0.09128945 0.116936244 -0.11082943 0.13142446 -0.09055732
0.14210972 0.054770183 -0.05257967 0.03146108 -0.06425853 0.022399325 -0.09375602 0.102210395

network.2.weight f4 [128, 128]
00000000: b035 48bd f087 913c 9825 c03d d937 b73d
00000010: 4d57 d43c 24f8 3ebd db9c 0abd b923 f8bc
00000020: 02ca fa3c 23cd 93bd 7ae2 b63d cf3d 9b3d
00000030: ec74 e23a 351f 1bbd 62ac e63d 1740 fe3c
00000040: 195e a43d 2189 e63c 8fb0 fbbc 81c0 623d
00000050: 9c24 193d 142b ca3c eddd 24bd db9d a53d
00000060: 9d71 1e3d a739 8b3d 5097 40bd 551d b6bd
00000070: 961a acbc 5b58 c4bd fbc5 173d 5ab8 7f3d
00000080: ce07 cd3c bd72 74bd d23f 37bd 18b7 a9bc
00000090: 9b77 76bc 8c95 d53c c71f b33d 65cc 683d
000000a0: b207 c2bd 7135 913c 82c3 453d f316 4fbd
000000b0: 836a f63d eb29 b03d ba54 64bd 9006 7bbc
000000c0: bcff 8d3c 878e 823d 5777 783d 3e76 923d
000000d0: 9412 76bd 6dac eeba 5abf 643d 5e38 68bd
000000e0: 039a 323d 1296 163d 0f32 2abd 3b5b 17bd
000000f0: 052c e23c 5e7d 90bc db52 933d 686a ab3c
00000100: 711c 823d 7336 a03d 6b4c fcba 4561 9ebc
00000110: 8bba 51bb 6397 5ebd b8fd b13d 334f cdbd
00000120: adf6 ad3d 34ce 323d 6232 d8bc 0003 603d
00000130: 389b bd3c c50f 1ebc 9161 e5bc b0a2 803c
00000140: 541f 45bd cbd4 203d da6b bbbc b06d 163d
00000150: f416 2a3d 5164 ccbd 38ee a93d 5042 d23a
00000160: 012a 073d 88f5 5b3c 7732 3fbd 91d8 91bd
00000170: 4a3b e8bc 78b9 2c3d f8cf 3bbd 243a b1bc
00000180: d2b8 b5bc e239 82bd 7b51 62bd e7f6 65bd
00000190: d7fa 843d ccbe 0a3c b7b9 dc3c 9b50 5fbd
000001a0: 6071 383b e2a9 a13d a296 94bd 0801 b6bd
000001b0: a47d 253c 57ed 94bb 086e c33c 496c 883c
000001c0: f7bf 03bd a1ee 843d 7207 a6bd bb5b a03d
000001d0: aa27 e8bb aad3 acbd 52f7 cc3d 02ea 90bd
000001e0: 100e 93bb 4259 aabc 2f49 2bbd b418 883c
000001f0: 96a1 9fbc 5377 a03c d45b 433d 1ca3 56bd
00000200: c88d d4bb bd62 9fbd b458 7cbd a820 9fbd
00000210: 4b0a b73c 4ccb 4b3d 0c93 11bd a98f 9d3d
00000220: faf1 90bc e97e 88bd f892 a73c 38eb 8abd
00000230: e9f2 b9bd c06d 09bc e3b4 3d3d 45f4 923d
00000240: 1ebd 983d dac7 0e3d 589d 72bc b4d1 92bd
00000250: d88c abbd 5eac 39bc 9034 843c d012 a83b
00000260: 9501 4b3d fe00 1c3d 7a51 ad3c 8aeb 30bd
00000270: ba13 b2bd 4c4d 13bd 5b19 18bd 5e83 753c
00000280: 113d 9dbc 99e1 03bd 65ac 943d 226b 9fbd
00000290: a0ba aebd 47d6 50bd 611e a03c 2c8c 7c3c
000002a0: 2435 6c3c 5215 a33d e94c 52bc f0b5 37bd
000002b0: e298 ae3d 504e ca3c 20f9 873c 2a9b 2f3d
000002c0: d178 28bd 49d5 6ebd fcee 6cbd 02f9 133d
000002d0: 1359 e43c 9a6d 2f3d 7ce2 edbc b0a7 66bc
000002e0: dbc5 853b fea2 e6bc 7aec 9c3d b452 b2ba
000002f0: 0714 19bd 6b06 b1bd c965 73bd 67eb 0b3d
00000300: 90fd 80bb 8098 a7ba 3a01 37bd 108e 08bd
00000310: 54a1 1dbd a7e5 153c c022 763c 26a9 8ebb
00000320: 4375 b23d ef58 6a3d 1994 b33d 319f a0bd
00000330: 9a7e 6b3d 5eef 61bd 7ace 0d3d b470 88bd
00000340: 86da 61bd c293 31bd 105c a3bc d123 8abc
00000350: f481 82bd 809a 9c3b a145 3ebd f5ab 88bd
00000360: 90c5 ebbb b8bb 503c 878e a83d 06f6 81bd
00000370: 1f30 56bd cac3 79bd 91d2 8e3d 90f4 08bd
00000380: 4b0a 5a3c c2b5 f23b e80b 6d3c 9944 683c
00000390: 0596 a3bd 90ad a9bd b420 22bd bed6 54bd
000003a0: ac2f 3a3d aa64 8dbd 62ff 90bd e608 6bbd
000003b0: e4bc fb3c d0f0 5c3c e0e8 e43c 89b4 31bd
000003c0: 3f6a 08bd 5dc4 fbbc a2a3 973d 8b84 aebd
000003d0: 19a0 873c d02d 7bbc 2feb 9c3c 3ff2 923d
000003e0: 6ff8 2f3d bdad bcbc 9060 3fbb 6316 9ebc
000003f0: d39a 473d c995 983d 6fb3 883d 4230 45bc
-0.048879325 0.017765015 0.093821704 0.08946199 0.025920535 -0.046623364 -0.033840995 -0.030290471
0.030613903 -0.07216861 0.08929916 0.075801484 0.0017277277 -0.03787156 0.11263348 0.03103642
0.0802576 0.02814156 -0.030723838 0.055359367 0.03738843 0.024678744 -0.040250707 0.08086749
0.03868257 0.06798106 -0.047019303 -0.088923134 -0.02100877 -0.09587165 0.037054043 0.06243167
0.025028136 -0.059679735 -0.0447386 -0.020717189 -0.015043165 0.026072286 0.087462954 0.05683555
-0.09474124 0.017725678 0.048282154 -0.050558995 0.12032034 0.08601745 -0.055744864 -0.015321389
0.017333858 0.06374841 0.060660686 0.07151459 -0.06007631 -0.0018209346 0.05584655 -0.05669438
0.04360391 0.036764212 -0.041551646 -0.03695224 0.02760888 -0.017637905 0.07193538 0.020924762
0.06353081 0.07822885 -0.0019248849 -0.019333491 -0.0032002057 -0.054343592 0.08690971 -0.10024872
0.08494315 0.043653682 -0.026391212 0.05469036 0.023145303 -0.009647314 -0.028000625 0.015702575
-0.04812558 0.039265435 -0.022878576 0.0367257 0.041525796 -0.09980071 0.0829739 0.0016041491
0.032999042 0.013425238 -0.046678986 -0.07121385 -0.028348584 0.042169064 -0.04585263 -0.021634169
-0.022182856 -0.063586965 -0.055253487 -0.056143668 0.064931564 0.008468341 0.026944024 -0.05452023
0.0028143749 0.07893731 -0.072552934 -0.088869154 0.010100756 -0.0045448947 0.023856178 0.016653197
-0.032165494 0.06490827 -0.08106889 0.07829996 -0.0070848064 -0.08438809 0.1000811 -0.070758834
-0.0044877604 -0.020794515 -0.04181784 0.016613342 -0.01948623 0.019588148 0.047694996 -0.052401647
-0.006486628 -0.07782505 -0.06160803 -0.077699006 0.022343775 0.049754426 -0.035540625 0.076934166
-0.017693508 -0.06664831 0.020455822 -0.06783146 -0.090795346 -0.008387983 0.046315085 0.07175497
0.07457946 0.034858562 -0.0148080215 -0.07168904 -0.08376473 -0.011332599 0.016138345 0.0051291957
0.049562056 0.038086884 0.021157015 -0.043193378 -0.08695169 -0.035962388 -0.037133556 0.014984934
-0.019194158 -0.03219757 0.07259444 -0.07784106 -0.0853169 -0.0509856 0.019545736 0.015414279
0.014416967 0.07963051 -0.01283572 -0.044851243 0.08525254 0.024695545 0.016598284 0.042872585
-0.041130845 -0.058308873 -0.0578451 0.036126144 0.027874505 0.042829134 -0.02903866 -0.014078066
0.004082424 -0.028153893 0.07662292 -0.001360497 -0.037372615 -0.08643802 -0.05942324 0.034160044
-0.003936477 -0.0012786537 -0.044678904 -0.033338606 -0.038483933 0.009148992 0.0150229335 -0.00435366
0.08713772 0.05721372 0.08768482 -0.07842863 0.057493784 -0.05515992 0.03462074 -0.066621214
-0.05514004 -0.043353803 -0.01994136 -0.016862782 -0.06372443 0.00477916 -0.046453122 -0.06673423
-0.007195182 0.012740068 0.0823031 -0.06345753 -0.052291986 -0.060977735 0.06973756 -0.033436358
0.013308118 0.007406921 0.014468171 0.014176511 -0.07987598 -0.082850575 -0.03958197 -0.051962607
0.04545562 -0.06903966 -0.070799604 -0.057381533 0.030729719 0.013485149 0.027943075 -0.043385062
-0.03330445 -0.030733282 0.07404257 -0.08521374 0.016555833 -0.015330747 0.019155113 0.07175111
0.042961534 -0.023032064 -0.0029201843 -0.019297784 0.048731636 0.07450444 0.06674849 -0.012035431

network.2.bias f4 [128]
00000000: 301c df3d fb96 58bc 2ce2 bdbc e43f a13c
00000010: c1f1 5dbd 8ae0 22bd f5d2 013e d9cd b1bd
00000020: 4afe 6cb9 ddd7 aa3b 574b 86bd 813c d0bd
00000030: aa8b 05bd f3b2 18bd 21f0 a0bd c012 a53c
00000040: 7c67 0b3b 6ceb a2bc 2605 8ebd aa57 913c
00000050: 1e07 923c 2af3 323c 471b 92bc b3da a2bd
00000060: 9887 4d3c 7383 a6bc 9752 f6bc 608b 8fbb
00000070: 7ba7 1a3c ac70 2abd faa1 59bd 6e21 b4bd
00000080: 02b8 72bc 6d1c a03d 514a a63d fdf8 c83c
00000090: 0e69 16bd 6849 e23c 805e 8dbd a2ca 01bd
000000a0: 2555 bd3c c80a 813d c977 94bd 9afb bcbc
000000b0: e119 793d 5e68 883d 18b2 1dbd 3074 adbd
000000c0: d08b 4f3d 3c05 1c3d f852 0e3d 5406 e03d
000000d0: 3a95 323d c737 bebc 2c51 8cbd 4e1e ddbc
000000e0: 621a 37bd c91b d5bc 6cf5 2e3c 93ac be3c
000000f0: cd7d b6bd 1fdc 5e3d d433 30bc bbba 0c3b
00000100: 512d c2bd 5b1e b03b efe4 443c 99b8 8dbc
00000110: fb0f 4b3d 4ab5 1a3d a5a7 7a3d 0685 5a3d
00000120: cdc9 bf3d d306 803d 08d6 4e3d ccb0 7d3d
00000130: 6fe7 d93c 1b90 fa3b ca76 003e 8a9a 343d
00000140: 9439 b83d f821 0f3c 9578 933d 05a2 98bb
00000150: ff23 9ebd b826 b4bd 42f4 79bc 47f7 5fbb
00000160: fe98 8dbd de6c 193d 322c 88bd cd8d 54bc
00000170: 8d42 bcbd 147f 0fbd 9e85 693d c75e 733d
00000180: 9315 f93b e0ac 42bd 58c2 08bd 9732 803d
00000190: 96af debb 99a1 09bd 2bef 5d3d a7a6 f6bb
000001a0: 03dd 323d 9b1f 043d c0fb 68bc 0bac 4abd
000001b0: fba0 febc 78fc 9a3c 6dc5 73bd 6ac1 7c3d
000001c0: 5891 df3c 2500 17bb 1814 633d f83e 20bc
000001d0: 99d9 83bc 0481 cc3c 9fd6 28bd 5a76 23bd
000001e0: ec5d 7b3d 5534 50bd a089 3a3d 50cb 903d
000001f0: 2621 69bd 3282 5abd ac9f 9fbb 14a5 42bd
0.10894048 -0.01321959 -0.023179136 0.019683786 -0.054185633 -0.03976492 0.1267813 -0.086818404
-0.00022601444 0.005213721 -0.06557339 -0.1016779 -0.032603897 -0.037280034 -0.07858301 0.020150542
0.0021271398 -0.019887649 -0.06934576 0.017741997 0.01782566 0.010922233 -0.017835272 -0.0795187
0.012544535 -0.020326352 -0.030068679 -0.0043806285 0.0094393445 -0.04161136 -0.05313299 -0.08795439
-0.014814379 0.07817922 0.081196435 0.02453279 -0.03672128 0.027622893 -0.0690279 -0.031687386
0.02311189 0.063008845 -0.0724941 -0.023069192 0.060815696 0.066605315 -0.03849992 -0.08469427
0.050670445 0.03809093 0.034747094 0.10938707 0.043599345 -0.023219956 -0.0685142 -0.02699199
-0.044702895 -0.026014226 0.01067863 0.02327565 -0.08910713 0.054409143 -0.010754544 0.0021473605
-0.094813 0.0053747124 0.012017473 -0.017299937 0.049575787 0.037770547 0.061195035 0.053349517
0.09364662 0.062513016 0.050497085 0.061936185 0.026599614 0.0076465732 0.12545314 0.044092692
0.08995357 0.008736126 0.072007336 -0.004657986 -0.077217095 -0.087964475 -0.0152559895 -0.0034174488
-0.069139466 0.03745734 -0.066490546 -0.012973261 -0.09192381 -0.0350333 0.057012193 0.05941656
0.007601449 -0.047528148 -0.033388466 0.06259649 -0.006795834 -0.033601377 0.054183166 -0.0075271907
0.043667804 0.032256704 -0.014220178 -0.04948048 -0.03108262 0.018919215 -0.05951445 0.06170789
0.027290985 -0.0023040858 0.055439085 -0.009780638 -0.01609497 0.024963863 -0.041220304 -0.03990779
0.061368868 -0.050831158 0.045541406 0.07070029 -0.05691638 -0.05334682 -0.0048713293 -0.047520712

network.4.weight f4 [8, 128]
00000000: f242 d23d 032a 82bd b7cf a03d 9619 56bd
00000010: 9c14 a03d 6a49 3e3d 62ae fa3d cd54 96bd
00000020: 1c84 0b3d b43c 7d3d 110d 4abd c455 4e3d
00000030: 00c4 b7b9 22fd 7d3d 608e 4b3d f043 883b
00000040: 88b1 043c 4d1d 4abd c0e4 d33a c1c3 423d
00000050: 5165 7dbd 6530 88bd 6e93 50bd 0078 d1bd
00000060: a90e 863c 6080 d03b 95c8 b4bd 7e5d 70bd
00000070: 816b 583d c985 b6bd 25b6 173d 31ff 2cbd
00000080: 4f96 bdbd 4ec2 373b 544c a2bd f637 1a3d
00000090: 4991 b3bc 4627 963d 50d5 173c 0ab9 c93d
000000a0: 2dba 883d 1ad5 d2bc ec27 9d3c e9c7 7b3d
000000b0: 0660 b33c a665 4c3c 059f c6bd d355 193d
000000c0: e1d0 85bd 9b67 a33d e03a 38bc 4418 c83d
000000d0: de4d 103d b3cc 0d3d 7e43 433d 2027 e5bc
000000e0: 6228 683d c246 0ebd b0aa 993d 0f5c 843d
000000f0: 68ca 46bd fbfb 25bb 9455 023d 1516 803d
00000100: 4eb4 663b 7997 1abd fbfc 9b3b d247 b13d
00000110: f84e 0d3d dc29 03bd 9b55 b7bd aa78 973d
00000120: 3047 713d e1e5 0a3d 9eaf c7bc a93a 89bc
00000130: 39ab 8a3d 5b24 e33d 698e eebb 6edf 123d
00000140: c9d1 6d3d c41f c2bd 4293 a8bd 8025 33bd
00000150: bd5e 4d3d 9d6a 02bb 6bb4 83bd dc1b 02bd
00000160: 76f5 b3bd a063 2bbb a413 8f3d ce5e ff3c
00000170: aebe 9dbc 7b7f a63d ee50 5c3c 818c 8c3d
00000180: 1b30 8ebc 2fae b03d e94c dcba 24b5 8f3d
00000190: 30da 7f3d af9f a53c cab1 a4bc 40db 8f3c
000001a0: f3a7 93bd 824e 423c 042c 873c 55ba 87bd
000001b0: 4e3a b53b fe8f 1cbd 5124 3c3c 95d5 823d
000001c0: fee0 3d3d a993 54bd 3362 dbbd ee95 3e3d
000001d0: 5073 023d d7e9 483c 3ae6 323d d98b 97bb
000001e0: bad0 b6bc aeed 09bb 4373 763c 1805 85bc
000001f0: 71f2 62bd d94d 0c3c 5079 dcbb 41f6 d73b
00000200: 0d94 913d 90c2 043c 7145 9e3d 6c7a e73d
00000210: 331c 243d 6606 81bd 6ece 373d 86a3 ebbc
00000220: bf88 803d 86d9 043d 1a2f 9b3d e29e 2dbd
00000230: e862 2a3c 909e 2d3c 321a 7b3d d0b8 f6bb
00000240: 8912 573d 5337 cf3c c43f f83c 431a 80bc
00000250: c935 903b 05f7 6b3d 7f05 933d c423 023c
00000260: a643 c03d 43c6 4bbd 83b6 96bd b3e2 1fbd
00000270: 363e 60bd 5971 96bd 40de 8fbd 021d 3a3d
00000280: 16fa 8f3d 8fbf 88bd 3715 653d 4827 313b
00000290: fe5f 86bc 4271 903d 9ab8 28bd c917 2c3d
000002a0: 3d3f b13c 95e3 a23d a19f 823d 9665 60bc
000002b0: d4f1 9e3d 06a1 a03d ea93 7b3d 3df9 9fbd
000002c0: 2f53 803d 86ce c03d 65ec eb3c 99b0 293d
000002d0: 1096 afbc b21d 003d c55c ab3d ca69 493d
000002e0: c05e d23b f8de 86bc f389 cdbb c715 393d
000002f0: 8a35 61bd 17e2 b63c d1be 9cbd 4dcb 0f3c
00000300: 7ecf 71bd 6029 9d3d 0edc 83bd d460 27bc
00000310: 05c3 3c3d 92ac 54bd 1bb7 8c3c a763 a33c
00000320: 3693 dabc 011d 80bd eed5 833c e0e3 103d
00000330: 9364 a63d 62cb 6bbb 897d 423b d1d7 2dbc
00000340: 0366 bb3d cfac c03d 9e85 f33c 4e31 8e3d
00000350: e8f5 033d 892b dbbc e317 17bd cd3d bdbc
00000360: c879 013d 22b1 85bd 0c90 afbc 9894 c53d
00000370: 8d80 1d3d 6249 00bd 96a0 b7bc dfe1 1ebd
00000380: ff59 8ebc f8d0 023d 7ee7 a4bc 4b25 5c3d
00000390: f38b bdbd 02fe fe3c 8b3f a83d 53aa 8cbc
000003a0: 3c7b 803d 8fde 4fbd 095a 33bd fbbf 963c
000003b0: 9c8f a63d 1615 3d3d 3578 103d aa2a 25bd
000003c0: 9ce7 a93b 1645 be3d 92c9 38bd 275a 66bd
000003d0: e851 db3b 7eef 5fbb 226a efbc 294d edbc
000003e0: c9f0 ba3d 0909 bb3d c713 e03d 5f09 a2bd
000003f0: 8cc7 80bb 8b5b 26bb e799 e33d aa69 ce3d
0.10266675 -0.06355669 0.078521185 -0.052270494 0.07816431 0.04645673 0.12240292 -0.07340393
0.034061536 0.06182547 -0.049328867 0.05037476 -0.0003505051 0.062008984 0.049696326 0.0041584894
0.008098967 -0.04934435 0.0016166195 0.047549967 -0.0618642 -0.066498555 -0.05092185 -0.10227966
0.016364412 0.0063629597 -0.088273205 -0.05868291 0.0528369 -0.08912236 0.03703894 -0.042235557
-0.09257185 0.0028039399 -0.07924715 0.037651025 -0.021919863 0.073317096 0.009267166 0.098497465
0.06676135 -0.02573638 0.019184075 0.061469946 0.021896373 0.012475407 -0.09698299 0.037435364
-0.06533981 0.079787455 -0.011244506 0.09770253 0.03523051 0.034619045 0.047671787 -0.027972758
0.056679137 -0.03473545 0.07503259 0.06462871 -0.048532873 -0.0025327194 0.031819895 0.06254212
0.0035202685 -0.03774211 0.004760382 0.08656277 0.03449914 -0.032022342 -0.08951875 0.07396062
0.05890578 0.033910636 -0.024375733 -0.016751604 0.067709394 0.11090919 -0.00728016 0.03585761
0.058061395 -0.09478715 -0.08231212 -0.043736935 0.050139178 -0.0019899972 -0.06430896 -0.03176485
-0.08787052 -0.002615191 0.06986168 0.031173136 -0.019255962 0.08129784 0.0134470295 0.068627365
-0.017356923 0.08626973 -0.0016807589 0.07016972 0.06246394 0.020217745 -0.020104308 0.017560601
-0.07209768 0.011859538 0.01650048 -0.06627337 0.005530632 -0.03822326 0.011483268 0.06388394
0.046357147 -0.051898632 -0.107120894 0.046529703 0.03184825 0.012262783 0.043676592 -0.0046248254
-0.022316325 -0.002104621 0.015042129 -0.01623778 -0.05540699 0.008563482 -0.0067283288 0.006590635
0.071083166 0.008103028 0.07728089 0.11302647 0.040065955 -0.063000485 0.0448746 -0.028764497
0.06276082 0.03243401 0.07577343 -0.04238785 0.010399558 0.010596886 0.06130428 -0.0075293556
0.05250791 0.025294935 0.030303843 -0.015637523 0.004400943 0.057608623 0.07178783 0.0079430975
0.09387903 -0.049749624 -0.0735903 -0.039034557 -0.05474683 -0.07345838 -0.07024813 0.04543782
0.07030122 -0.06677162 0.055928435 0.002703147 -0.016403195 0.07052852 -0.041191675 0.04201487
0.0216366 0.07953564 0.06378103 -0.013696095 0.07760969 0.07843213 0.06142036 -0.0781121
0.06265866 0.09414391 0.028799245 0.041428182 -0.02143386 0.03127832 0.08367304 0.049173154
0.0064199865 -0.016463742 -0.0062725483 0.045186784 -0.0549827 0.022324605 -0.07653583 0.008776498
-0.05903577 0.07673907 -0.064384565 -0.010215957 0.046084423 -0.05192239 0.017177155 0.019944979
-0.026681524 -0.06255532 0.01609322 0.03537357 0.08124652 -0.003597938 0.0029676876 -0.010610537
0.091503166 0.094079606 0.0297268 0.06942998 0.032216936 -0.026754158 -0.036888015 -0.023100758
0.03161028 -0.06527926 -0.021430992 0.09647483 0.038452674 -0.031319983 -0.02241544 -0.038789626
-0.017376898 0.03193757 -0.020129915 0.053746503 -0.09255209 0.03112698 0.08215245 -0.01717106
0.06273505 -0.050749358 -0.043787036 0.01840209 0.0813286 0.046162687 0.03527089 -0.04032389
0.0051850807 0.09290521 -0.045114107 -0.05623832 0.0066931136 -0.0034169848 -0.029225413 -0.028967457
0.091279574 0.09132583 0.10941272 -0.07911944 -0.003930038 -0.0025384154 0.11113339 0.100787476

network.4.bias f4 [8]
00000000: 34fa 633d a9e5 533d b4f4 1b3d 88e3 ca3d
00000010: e735 193b 748b f0bc 2ffb 82bd 44b3 8c3c
0.055658534 0.051732693 0.038075164 0.099066794 0.0023378076 -0.029363371 -0.06395566 0.017175324

exp_avg f4 [128, 26]
00000000: f949 82bb 4a59 4dbb ee71 bdbb 0ef5 1bbb
00000010: d897 aeba 2173 f1bb 1c4a d5bb fbe5 9dbc
00000020: 35a5 05bc a0b0 ecbb dab1 09bc 4309 5dbc
00000030: 88c2 8dbc bae1 85bc 15fe 97bc f728 08bd
00000040: 1450 353c a9dd 4abd ba33 043d 4a3e 40bc
00000050: 8caf 00bd 2435 35bc ba1d 11bc 13f1 80bb
00000060: 9a19 46bc 664c 41bc 4c9c e4bb 6a5f 06bc
00000070: cc1d e1bb 8079 3fbc 5c71 23bc 0f66 e8bb
00000080: 565f e9bb 8aad 82bc 77c4 84bb d88d efbb
00000090: 4bc0 20bc 63aa 283c 5102 54bc 72a0 c8bb
000000a0: c43c e9bc f6c1 23bc 3cbf 4a3c 0cdc 47bc
000000b0: d840 1ebb 3a1d 60bc b815 a83b c1d7 cdbb
000000c0: 1368 89bb 1ea3 99ba fe9e 9fbb 666d afbb
000000d0: b4b5 1a39 23e5 b039 743a c237 5962 8839
000000e0: 4ca8 cb39 2e4d 103a cf85 4b3a 082d 31bb
000000f0: 00cf 003a c38f 183a b4b6 feba 0e5a 2cbb
00000100: 154f 3739 d0c3 51bb c148 77bb 3550 a0ba
00000110: c61c bbb9 7714 94bb fa52 98bb ffb7 19bb
00000120: 9ace 8bbb d97a 0dbb 6a87 ebba 05ba 4bba
00000130: fedf 15bb cf95 14bb 9122 d8bb 3c7e efbb
00000140: 6f62 28bc f817 06bc 2481 d8bb 41b7 25bc
00000150: 2d47 39bc 9c9f cbbc b4ee 2dbc 4e83 46bc
00000160: 9e9a 00bc 79f3 c7bc efab 8bbc 46d8 98bc
00000170: b225 e0bc 83e6 05bd e5ff 953c 53b5 f1bc
00000180: 48e0 e33c 4c7a 9dbb 974c a8bc 5bfd 78bc
00000190: 2a9f 73bc e172 cbbb 268f 63bc 5ce5 68bc
000001a0: 1de7 36bc 0910 78bc 107b 75bc 1690 97bc
000001b0: 3a78 7bbc 451a 95bc d552 94bc 92d1 f7bc
000001c0: b5d3 7dbc 7919 a0bc 0019 4dba 3803 ccbb
000001d0: 8b58 d2bc 18d0 1bbc 62df 37bd 819a 9bbc
000001e0: 9edc f13c 9e86 0ebd fbd0 003d c074 a53a
000001f0: 8028 6cba ed83 1cbc a613 0bbc 207b 24bb
00000200: 08f5 f6bb ccfb 00bc 2076 a43b f89b 993b
00000210: f053 1b39 06ce b73b 3efa 093c 1a17 54bc
00000220: af06 26bc 45f1 64bd 7332 87bc f469 28bc
00000230: 27fb 72bd 12f7 81bd 608b 70bc 57a2 a1bd
00000240: 50e2 1abd 40a2 b7bd a384 b6bd 5a98 dabd
00000250: 957c 89bd 19b2 97bd 05d9 cabd 6f51 58bd
00000260: e17c 3cbd e639 a6bc 98d0 65bd 337a 62bd
00000270: ed5f 003b 9ece 2e3b 2261 263b 4e93 3d3b
00000280: 8e47 243b 2196 3c3c 9a2f 333c ac7a b2bb
00000290: 28ca 363c 7e17 273c 6a4e 0cbc 5d05 91bc
000002a0: 0b56 be3b ee68 3abc 5c6f 24bc c6a7 8abc
000002b0: 51b2 063c b00d 9fbc 23dc ae3c 78b0 54bb
000002c0: 7a81 5ebc 0623 12bc 06b1 22bc bd68 9bbb
000002d0: 7b6d 0bbc e8f4 0dbc faee a21e 26c3 001e
000002e0: ce4f 1828 0000 0000 0000 0000 d0f6 289d
000002f0: 5c64 b01f d565 132a ecfc 349e 552b 3d9e
00000300: 681e 9329 1c6c d728 0000 0000 0131 f629
00000310: 5405 d328 47ae 0c29 6205 532a 8d05 5329
00000320: 7a05 5329 e44b f829 6205 5329 c14a 6e29
00000330: 2da2 3e29 81dc 9e28 81dc 9e29 a7f9 8e29
00000340: e184 debb 9206 fdbb def1 55bc 1c2c a2bb
00000350: f185 63bb 0bdf ecbc b7b5 e7bc 29b5 26bd
00000360: fe49 eebc de87 d5bc 98aa 16bc 8e1d cfbc
00000370: c058 09bd ae73 e6bc 601e 5ebd 630f 34bd
00000380: a084 dd3b 5734 c1bd 3862 0c3d 7062 93bc
00000390: e6ba 0abd 0e8a a2bc bee4 83bc 9811 c2bb
000003a0: 9003 a8bc 421a a6bc 64ad 7ebb 08c0 7ebb
000003b0: eb8b d9bb 68af afbb 2a3e 90bb 4722 97bb
000003c0: c8cc 8dbb c4eb 04bd 729f 99bb e068 a5bb
000003d0: fcdf 09bd 1708 a4bc 8f70 13bc 4ee5 03bd
000003e0: 8f3d 15bd 48b6 dbbc fce2 a7bc e91c 23bd
000003f0: 4e01 8ebc 3da8 10bd 75c2 c4bc 8cbc c1bc
-0.0039761034 -0.0031333738 -0.0057814037 -0.0023797187 -0.00133204 -0.0073684608 -0.0065090787 -0.019274702
-0.008157064 -0.007223204 -0.0084042195 -0.013490978 -0.017304674 -0.016342986 -0.018553773 -0.033242192
0.011066455 -0.049527798 0.032275893 -0.011733601 -0.031417415 -0.011060033 -0.008857185 -0.0039349883
-0.012091065 -0.011798 -0.00697664 -0.008201459 -0.006870007 -0.011686683 -0.009975757 -0.0070922445
-0.0071219606 -0.01595189 -0.0040517407 -0.0073106103 -0.009811471 0.01029453 -0.012940005 -0.006122642
-0.028471358 -0.009994974 0.012374695 -0.012198459 -0.0024147537 -0.013678843 0.005129542 -0.0062818234
-0.004193315 -0.0011721586 -0.0048712483 -0.0053536175 0.00014754274 0.00033740056 2.3153822e-05 0.00026013216
0.00038844568 0.0005504665 0.00077637745 -0.0027034897 0.0004913658 0.0005819762 -0.0019433112 -0.0026298794
0.000174817 -0.0032007582 -0.0037732574 -0.0012230935 -0.00035688857 -0.004519041 -0.0046485635 -0.0023455617
-0.004266572 -0.0021588115 -0.0017969434 -0.00077715545 -0.0022869105 -0.00226723 -0.0065959175 -0.0073087495
-0.010277375 -0.0081844255 -0.0066071916 -0.010114492 -0.011308474 -0.024856381 -0.010615993 -0.012116266
-0.007849364 -0.024408089 -0.017049758 -0.018657815 -0.027361725 -0.032690536 0.018310497 -0.029505407
0.027816907 -0.0048058387 -0.020544333 -0.015197123 -0.014869491 -0.006208763 -0.01388911 -0.01421484
-0.0111635 -0.015140542 -0.014982954 -0.018501323 -0.015348488 -0.018201003 -0.018105904 -0.030251298
-0.015492369 -0.019543396 -0.00078238547 -0.0062259696 -0.025676986 -0.009510063 -0.04489077 -0.018994572
0.029524144 -0.03479635 0.0314493 0.0012623295 -0.00090087205 -0.009552938 -0.008488571 -0.0025097802
-0.007536534 -0.007872533 0.0050189644 0.0046877824 0.00014813221 0.0056092767 0.008421479 -0.012944961
-0.010133429 -0.055894155 -0.016503548 -0.010279167 -0.05932155 -0.06345953 -0.014681667 -0.07892292
-0.037813485 -0.089664936 -0.08912017 -0.1067359 -0.06713215 -0.07407016 -0.099046744 -0.052812036
-0.04601753 -0.02029128 -0.056107134 -0.05529232 0.0019588426 0.0026673446 0.0025387486 0.0028926912
0.0025067064 0.011510403 0.010936642 -0.0054467525 0.011156596 0.010198472 -0.008563617 -0.017702753
0.005808597 -0.011377556 -0.010036316 -0.016925704 0.008221225 -0.019415706 0.021345204 -0.0032453816
-0.013580674 -0.008919483 -0.009929901 -0.0047427104 -0.008509989 -0.008664347 1.7251256e-20 6.816619e-21
8.455e-15 0.0 0.0 -2.2362214e-21 7.470493e-20 1.3091553e-13 -9.581424e-21 -1.00145375e-20
6.533386e-14 2.391668e-14 0.0 1.09330954e-13 2.3428017e-14 3.1237406e-14 1.8742432e-13 4.6856226e-14
4.6856162e-14 1.1026577e-13 4.685608e-14 5.2911455e-14 4.232914e-14 1.7637152e-14 7.054861e-14 6.3493746e-14
-0.0067907427 -0.0077217305 -0.013058154 -0.004949106 -0.0034717286 -0.028914949 -0.02828489 -0.04070011
-0.029088017 -0.026065763 -0.009195946 -0.025282647 -0.033531904 -0.028131332 -0.054228187 -0.043959986
0.006760195 -0.09433811 0.034273356 -0.017991275 -0.033869646 -0.01984122 -0.016100284 -0.0059225075
-0.020509511 -0.020276193 -0.0038860673 -0.0038871784 -0.006638994 -0.005361486 -0.004401942 -0.0046122405
-0.0043273903 -0.032451406 -0.004688197 -0.0050479025 -0.033660874 -0.020023389 -0.008999004 -0.032201104
-0.03643566 -0.026820317 -0.020493977 -0.039822493 -0.017334606 -0.035316695 -0.024018506 -0.023649476

exp_avg_sq f4 [128, 26]
00000000: 77f8 eb3a 8d07 143b a59c 073b 05b6 3a3b
00000010: 86e7 083b 8f4b fe3b 4ce2 0b3c e08f bc3c
00000020: a172 003c 5a7c 023c 22f1 7c3c 40e6 4c3c
00000030: c9d3 6e3b 727d a03c 8b12 ba3c bb63 373c
00000040: 985a c83c a3c0 dc3c b7e3 d13c 2231 cb3c
00000050: 872f c43c e36b 113c b27c f23b 73a7 c63a
00000060: e2d9 1d3c 0427 1b3c fd74 163a 6fc9 4a3a
00000070: bf54 3a3a 29ce 793a 230a 493a f8d6 4c3b
00000080: ce22 603b 1dd6 263c fc6f 4e3b 79a6 4b3b
00000090: 242b d93b 972a b63b ad59 b23a 56bf 123c
000000a0: 800f 223c e794 a33b 9768 323c 2d7b 493c
000000b0: 6a26 3b3c cd08 353c 4216 323c 9fa5 833b
000000c0: 5481 593b ca26 2e3a 464a 903b a938 8d3b
000000d0: 97e3 0d39 bc78 3a39 a0f4 3a39 fff2 3239
000000e0: b450 4139 01d5 103a 0d5f 203a 5b02 963a
000000f0: 1063 063a e50c 0b3a 00d3 4d3a e8fa 873a
00000100: 5c43 7839 73a9 943a 4936 b73a 8d6e 1a3a
00000110: 61c3 853a 2506 b93a 59c4 dd3a 1cbe 843a
00000120: 45b0 df3a 1f1f 0e3a c203 f539 f04e d838
00000130: 3d77 163a fc74 143a 250c ef3a cb0b 123b
00000140: 0428 0b3b f4a6 3a3b 7878 083b a789 f63b
00000150: a867 073c 5128 b83c 983c fb3b e3df fe3b
00000160: cab9 6f3c f0ce 453c 188f 6b3b 96ce 9a3c
00000170: e8d8 af3c 05cf 2f3c 7cbe b93c 4778 d23c
00000180: 3bd2 c93c 001f bf3c 2929 bd3c 3354 0c3c
00000190: 0c18 ea3b 39f5 be3a 361b 183c 126a 153c
000001a0: 77f2 f43a 607f 123b c912 123b 1960 393b
000001b0: 2dbe 123b 9379 063c 3c70 173c 415b d03c
000001c0: f058 0b3c d7cf 0a3c 14ca 873c 5a46 693c
000001d0: 6343 723b 7bb4 b33c 73ea c73c 9fa2 4d3c
000001e0: 688b dc3c 446e f53c 46a2 e93c 1f64 da3c
000001f0: a2dd d73c 0c4c 223c 415e 073c 550e dc3a
00000200: cac2 303c 8128 2d3c 2e87 213b 01ab 353b
00000210: c6f5 3d3b 0388 513b bc1c 413b 1f75 4b3c
00000220: ac23 553c 24fc dc3c 9b6a 3e3c c2f4 4b3c
00000230: 9d6e 413c 0ae4 693c ce01 ce3b f643 a93c
00000240: 9fda be3c 0e71 763c a1ba dc3c 9a99 d63c
00000250: 9654 c63c 9083 bc3c b524 dd3c 1879 173c
00000260: a1db f13b 2b83 bc3a 4c4b 273c d040 243c
00000270: 4f78 8b39 723e 5f39 d5e8 f739 36bf e839
00000280: a774 8f39 7d90 f43a 1a15 0a3b 5fcc 133c
00000290: 12a4 e83a 26d5 e33a 9a12 ba3b eb48 b03b
000002a0: bf5d 333a 22f2 003c ad3b 0a3c f57e 613b
000002b0: 0294 183c 1a31 323c ba5b 223c 4f23 1c3c
000002c0: deba 293c 4d91 643b 9e72 3e3b c415 1d3a
000002d0: 0a3c 793b 44fd 733b 241f cb30 9eb6 7d2f
000002e0: 2aa6 be30 0000 0000 0000 0000 906f da2d
000002f0: e2f4 f232 e87d a934 84a1 fa2f b6e6 0830
00000300: 5c75 1b34 e140 5f31 0000 0000 8fa9 8734
00000310: 39fb 9f33 ca49 9534 b1e7 4c35 ce65 9e34
00000320: 4342 d834 310a cd34 a5e6 5c34 5ca2 5433
00000330: fe15 0833 1102 bd31 1102 bd33 b618 9933
00000340: a013 613b 5173 7e3b 895a 833b 3d62 8e3b
00000350: 2856 843b 57fd 6e3c d49b 813c 5b03 1a3d
00000360: c6ed 6b3c 1dca 6e3c 5856 c63c 7540 b13c
00000370: 5189 f63b 316c 033d 3433 1b3d 3f02 973c
00000380: e7a6 233d 4c8c 2d3d 3cb2 2c3d 32f2 1f3d
00000390: e8e1 1f3d 459b 6f3c 2b3e 473c 5e1a 233b
000003a0: 7400 823c 67da 7f3c e7a3 273a 5e2d 3e3a
000003b0: f121 423a e04a 5f3a 512e 3f3a ed46 323b
000003c0: dea5 443b b80c fe3b 96fb 2f3b 8cbe 333b
000003d0: 7170 9f3b 0336 833b 1b03 a33a 6768 d43b
000003e0: b0d1 f53b ec01 713b 7f85 fa3b 99bd 0b3c
000003f0: 09aa 023c 1a5f ff3b 2cd0 033c 268e 3f3b
0.0018003125 0.0022587508 0.0020692733 0.002848984 0.0020889952 0.007760472 0.00853784 0.023017824
0.00783983 0.007964218 0.01543835 0.012506068 0.0036442152 0.019591067 0.02271392 0.011193211
0.024457261 0.026947325 0.025621278 0.024803702 0.023948444 0.00887582 0.0074001187 0.0015156105
0.009634467 0.009469751 0.00057394785 0.00077357044 0.0007107965 0.00095293164 0.0007669052 0.003125606
0.0034200433 0.0101828845 0.0031499853 0.0031074567 0.006627457 0.0055592763 0.0013607048 0.008956751
0.009891391 0.004992116 0.010889194 0.012297434 0.011422733 0.011049462 0.0108695645 0.0040175463
0.0033188658 0.0006643353 0.0044033853 0.004309733 0.00013531592 0.0001778332 0.00017829472 0.00017065926
0.00018435979 0.0005524904 0.00061176793 0.0011444794 0.0005126456 0.00053043506 0.0007851571 0.0010374459
0.00023676216 0.0011342004 0.001397797 0.0005891107 0.0010205322 0.0014116211 0.0016919478 0.0010127458
0.0017066082 0.00054215075 0.0004673284 0.00010314386 0.0005739814 0.0005663184 0.0018237872 0.0022284861
0.0021233568 0.002848086 0.0020823758 0.0075237337 0.00826446 0.022480162 0.0076671354 0.007778154
0.014631698 0.0120732635 0.0035943445 0.018897336 0.021465734 0.01073051 0.022673838 0.025692118
0.024636379 0.023330212 0.023090916 0.0085649965 0.00714398 0.0014568932 0.009283831 0.009119527
0.0018687983 0.0022353753 0.002228903 0.0028286038 0.0022391186 0.0082076965 0.009243067 0.025434138
0.008505091 0.008472404 0.01657585 0.0142379645 0.0036966435 0.021936646 0.024403786 0.012550979
0.026921943 0.029959805 0.02851976 0.02665907 0.0263508 0.009905826 0.008262218 0.0016788939
0.010788629 0.010568739 0.0024647224 0.0027720334 0.0028985604 0.0031971938 0.002946659 0.012418061
0.013008993 0.026975699 0.011622096 0.0124484915 0.011806157 0.01427556 0.006286836 0.02066229
0.023297606 0.015041603 0.02694446 0.02619629 0.024210256 0.023011953 0.026995042 0.00924518
0.007380918 0.0014382353 0.010210823 0.010025218 0.00026601783 0.000212902 0.00047284985 0.00044392952
0.00027361998 0.0018658784 0.0021069706 0.009020894 0.0017749092 0.0017382249 0.005678487 0.0053797862
0.00068422774 0.007870229 0.008437079 0.0034407948 0.009312632 0.010875965 0.009909565 0.009529903
0.010359494 0.0034876645 0.0029060016 0.0005992318 0.003803017 0.0037229815 1.4779045e-09 2.3075095e-10
1.3871546e-09 0.0 0.0 2.4833274e-11 2.8283868e-08 3.1570312e-07 4.55895e-10 4.980437e-10
1.4478195e-07 3.248765e-09 0.0 2.526908e-07 7.4497116e-08 2.78071e-07 7.633308e-07 2.9503866e-07
4.0281347e-07 3.819164e-07 2.0573005e-07 4.950776e-08 3.168497e-08 5.500859e-09 8.801374e-08 7.1291126e-08
0.0034343973 0.0038826058 0.0040085954 0.004345207 0.004038591 0.014586768 0.015821375 0.037600856
0.014399951 0.014574555 0.024211094 0.02163718 0.0075236936 0.0320856 0.037890628 0.018433688
0.039954092 0.042370126 0.042162165 0.039049335 0.0390338 0.0146244215 0.012160818 0.0024887542
0.015869357 0.015616036 0.0006394968 0.0007254685 0.00074055704 0.0008517932 0.00072929735 0.002720292
0.003000609 0.007752981 0.0026852838 0.0027426807 0.004865699 0.0040042414 0.0012436839 0.0064821723
0.0075018033 0.0036774827 0.0076453085 0.00852909 0.00797511 0.0077933194 0.0080452375 0.0029229014

exp_avg f4 [128]
00000000: 7542 bfbc 0c4e 0fbc 00d5 95bb 7c59 dabc
00000010: fc96 5ebc e9e7 e6bd 5826 85bc d6d9 2f2a
00000020: c19b 24bd 256c 3cbd 76d5 f92d 933f 8abc
00000030: 360d bebc ca4e e13c 5c53 f3bb 9c99 653b
00000040: e266 433c a034 ef3a 95e9 bb39 9be9 f1b8
00000050: 7a38 ecbb 818b b7bc e2c8 4dbd 0000 0000
00000060: 3043 b0bb 0000 0000 6594 68bd 7082 88bd
00000070: 5137 58bc e7e3 10bc 5fe7 29bd 991b 34bd
00000080: 84dc a0bb 6a4f b4ba aadf 2e35 0000 0000
00000090: 3f04 cfbc 9c7a bebc 3a00 00bd a6e6 20bd
000000a0: 7816 9cbc df1a 3ebd 0c79 30bd 2f31 37bd
000000b0: 6c7e bbbc e816 17ba 63cd 2b2e dbc6 0739
000000c0: 0000 0000 5010 81bc b9fa 46bd f187 86bc
000000d0: 3d4a 1c38 1c0c 16bb 0000 0000 5a17 8f3a
000000e0: 651e 36bd 8b46 633c f8dd d3bc 9088 163a
000000f0: 28f2 c5bb a299 3bbd c4ca 37bd 5ed5 33bc
00000100: 063e c52d 0000 0000 3c15 e3b3 6b73 353c
00000110: 8dcc 4bbd de5d 68bd b048 38bd 9187 f7bc
00000120: bc1a 7fbb b760 36bd 7685 c0bb 2acd 91bc
00000130: 1444 b33c bf0b 7cbb 589a aabb 0000 0000
00000140: 6811 f5bc 7abd 73bc 4bb3 9035 783b 12bb
00000150: 3027 9abd 35ad 79b6 99ca 583c 54a3 04bc
00000160: f40c 263d 0000 0000 53b4 fb35 9730 33bc
00000170: 300a 24bd 4ecc 31bd 0000 0000 b5e3 3b3b
00000180: b8cc a73b e90a 9a3b bfa5 72bc 5bfa 1cbd
00000190: bbd5 cfbc 970b 023d b87d 543b 2077 8d3c
000001a0: ac5d c2bc cce8 13bd 0000 0000 84dd a1bc
000001b0: 9428 463c 129f 323a c5ba 3c3b b21d 9fbb
000001c0: e41f 413b 3b38 adbc 6ff3 8bbc a056 b8b9
000001d0: 136e f13a 0000 0000 c86a 41bd d07c 4fbb
000001e0: 7213 26bd 361c 21bd 713a efbc ee26 c43c
000001f0: 7ea3 8b3b 2fa3 7f3c fde7 a3bc 1cfc 11bd
-0.023347119 -0.008746635 -0.0045725107 -0.026653998 -0.013585802 -0.11274702 -0.016253635 1.56187e-13
-0.0401876 -0.046001572 2.8402818e-11 -0.016876018 -0.023199659 0.02750339 -0.0074257087 0.0035034185
0.011926385 0.0018249936 0.00035841452 -0.00011535288 -0.007208881 -0.022405388 -0.050240405 0.0
-0.005379103 0.0 -0.056782145 -0.06665504 -0.013196782 -0.008843399 -0.04148042 -0.04397163
-0.0049091 -0.0013756577 6.5145525e-07 0.0 -0.02527058 -0.023251824 -0.031250216 -0.039282463
-0.019053683 -0.046412345 -0.04308419 -0.04472464 -0.022887431 -0.0005763606 3.906332e-11 0.00012948683
0.0 -0.015754849 -0.04857895 -0.016422244 3.7262438e-05 -0.0022895401 0.0 0.0010916993
-0.04446258 0.013871799 -0.025862679 0.00057423953 -0.00604083 -0.045800813 -0.044871107 -0.010976164
2.2423851e-11 0.0 -1.0574374e-07 0.011074881 -0.04975562 -0.056730144 -0.044991195 -0.03021601
-0.0038925847 -0.04452583 -0.005875285 -0.017798025 0.021883048 -0.003845915 -0.0052063875 0.0
-0.029915527 -0.014876718 1.0781017e-06 -0.0022313278 -0.07527006 -3.720471e-06 0.013231897 -0.008095581
0.040539697 0.0 1.8753439e-06 -0.010936878 -0.040048778 -0.04340773 0.0 0.002866966
0.00512084 0.0047010076 -0.014810025 -0.038324695 -0.02537047 0.031749334 0.0032423567 0.017268717
-0.023726307 -0.036110684 0.0 -0.019758947 0.0120946355 0.00068138645 0.0028797847 -0.004855835
0.0029468471 -0.021144977 -0.017083852 -0.00035159755 0.0018419645 0.0 -0.047220975 -0.0031660087
-0.04054589 -0.039333545 -0.029202672 0.023944344 0.004261433 0.015602871 -0.020008082 -0.03564082

exp_avg_sq f4 [128]
00000000: e8c3 233d 11be 953c 32b2 173b 5ff7 1d3d
00000010: 605f 373d 54b8 2c3d cf93 833c 516e 0a35
00000020: c71a 863d 29be 583c af36 2d36 0c50 073d
00000030: 540d b23c a01e 2c39 4081 ac3c 685b 203c
00000040: a638 9a3c 57de 333d 34c9 3938 d189 f739
00000050: 1032 a23b b128 dc3c ddb9 463d 0000 0000
00000060: 3901 cd3a 0000 0000 1128 733d 86de 683c
00000070: 6d08 793c 7945 7b3b 9dc7 5a3c b7e3 833c
00000080: 40ff 213a f930 3a3a 425f e737 0000 0000
00000090: b396 403b 5c49 4e3d 4d25 093d b155 983c
000000a0: 0856 713c 3004 013d 30cc 803d a180 3b3d
000000b0: 14cb 833c 2242 0a3b aef5 8438 7bab fe39
000000c0: 0000 0000 5df2 c13b f788 923c 17ab ec3c
000000d0: f5fa 8939 ed3c 293b 0000 0000 7109 963a
000000e0: 0e96 1e3d 1010 0c3d 8fb6 bc3c 124b 7e3c
000000f0: 9bf0 133d f2ec 5c3d d4ae 3d3d f7c6 9a3b
00000100: ec22 6d38 0000 0000 7256 e338 1f37 033c
00000110: 0b63 143d fa84 793d 3d46 1e3d 32a3 a13c
00000120: 6c4c ba38 ad2c 493d b04c 503a 21fe 923c
00000130: 7288 573c 01a1 8c3c 2c7c d33c 0000 0000
00000140: 3d69 a83c 5e53 9e3c 223e 2b39 db28 bb3c
00000150: dd93 a83c 99d5 2e3a b36f 333c e184 9e3c
00000160: 0be2 ef3c 0000 0000 99c3 2539 e7a9 203b
00000170: 91cd 163b ff83 b83c 0000 0000 8c84 343c
00000180: f839 1d3b 19ca 033c 5ecb 413c dc66 1e3d
00000190: 6a04 ad3c 839e f03b 085b 9f3c ad1d a53d
000001a0: 6daa ab3b ad3c 9e3c 0000 0000 0070 b83a
000001b0: 0c8d 0a3d d7f9 8439 a5e8 143a b164 6a3b
000001c0: ac64 543a ac4a 353c c227 153d 8efa 783c
000001d0: 4a75 7d3a 0000 0000 715f 7f3d 62d7 543b
000001e0: 0c12 ef3c 7c42 be3c 05f8 4e3d 17d9 ab3c
000001f0: 9c59 6c3b 6c15 853b 6447 443c afc1 493c
0.039981753 0.018279107 0.0023146984 0.03856599 0.04476869 0.042167976 0.016061692 5.156954e-07
0.06548076 0.013228931 2.581084e-06 0.033035323 0.021734871 0.00016414607 0.021057725 0.009787418
0.01882584 0.04391321 4.4294822e-05 0.00047214192 0.0049498156 0.026874872 0.048517097 0.0
0.0015640623 0.0 0.059364382 0.01421321 0.015199763 0.003834097 0.013353256 0.016099794
0.0006179698 0.00071026344 2.7581704e-05 0.0 0.0029386699 0.05036293 0.03348284 0.018595548
0.014729984 0.031498134 0.06288946 0.045776967 0.016088046 0.0021096547 6.340012e-05 0.00048574418
0.0 0.0059187845 0.017887576 0.028890176 0.00026317654 0.0025823668 0.0 0.0011446906
0.038717322 0.034195006 0.02303627 0.015520828 0.03611813 0.053936906 0.046309307 0.0047234255
5.6537727e-05 0.0 0.00010840305 0.008008747 0.036227267 0.060917832 0.038641203 0.019731138
8.883406e-05 0.04911487 0.00079459976 0.017943444 0.01315509 0.017166616 0.025816046 0.0
0.020557994 0.019326862 0.00016330977 0.02284663 0.02057832 0.0006669402 0.010951924 0.019350471
0.02928259 0.0 0.00015808492 0.0024515332 0.002301071 0.022523878 0.0 0.01101793
0.002399085 0.008043789 0.011828272 0.038672313 0.021120269 0.007343115 0.019452587 0.08062301
0.005238822 0.019316042 0.0 0.0014071465 0.03382592 0.00025363147 0.00056804187 0.0035765583
0.00081021595 0.011065166 0.03641487 0.015196456 0.00096686615 0.0 0.06234688 0.003247701
0.02918341 0.023225062 0.0505295 0.02097754 0.0036064154 0.0040613916 0.0119799115 0.012314244
