models/reinforce/reinforce_high_gamma/checkpoint_ep100.pth (torch, 259594 bytes, 18 tensors)

network.0.weight f4 [128, 26]
0	0xbd2afa05	-0.041742343
1	0xbe07614a	-0.13220707
2	0x3e31fedf	0.17382382
3	0xbdfeae04	-0.124355346
4	0xbd6c1b1b	-0.057643037
5	0x3d93af36	0.07211153
6	0x3e52e7fc	0.20596308
7	0x3e294459	0.16529979
8	0xbe05eb1b	-0.13077967
9	0xbe0dbbcd	-0.13841172
10	0x3ddfb216	0.10922639
11	0x3e30911d	0.17242856
12	0xbe317400	-0.17329407
13	0x3e714492	0.23561314
14	0x3e1a6584	0.15077788
15	0x3e45dfb6	0.1932362
16	0x3e19286d	0.14956827
17	0x3e317c90	0.17332673
18	0x3dd058c3	0.1017318
19	0xbe035c5d	-0.12828203
20	0x3e27fd8b	0.16405313
21	0x3df02d8f	0.117274396
22	0x3c1feab5	0.009760548
23	0x3d99fc10	0.0751878
24	0x3df3e900	0.119096756
25	0x3be7c09d	0.007072522
26	0xbdac0f1e	-0.08401321
27	0xbe174ad2	-0.14774635
28	0x3b003a55	0.0019566019
29	0xbe10dde5	-0.14147146
30	0x3e404b6c	0.18778771
31	0x3bf9366c	0.0076053645
32	0x3d3913e1	0.045184974
33	0x3e06f84d	0.13180657
34	0x3db73b61	0.089468725
35	0x3e2d6a1f	0.16935013
36	0x3e1b8f4c	0.15191382
37	0x3e197bbc	0.14988607
38	0x3e59ea46	0.21280774
39	0x3c09859e	0.008393673
40	0xbd92894b	-0.07155093
41	0xbe088726	-0.13332805
42	0x3d1d31c4	0.03837754
43	0x3e1b4501	0.15163042
44	0xba825304	-0.0009942953
45	0xbb3adcde	-0.0028512995
46	0x3c067eb2	0.008208917
47	0xbe0c0860	-0.1367507
48	0x3e2345f7	0.15944658
49	0x3d7e7701	0.06212521
50	0x3b4ff846	0.0031733676
51	0xbe1adfd7	-0.1512445
52	0xbe20e2cc	-0.15711516
53	0x3e358787	0.17727481
54	0x3caa21ac	0.02076801
55	0x3ded0aaf	0.11574303
56	0x3d440267	0.047853854
57	0x3d8370d2	0.06418003
58	0xbde7d49e	-0.113198504
59	0xbdfcfbcd	-0.12352715
60	0x3d66a497	0.05630931
61	0x3d43ef44	0.047835603
62	0xbd7d1168	-0.061784178
63	0x3e26e60e	0.16298696
64	0x3d458a72	0.048227735
65	0x3e1c67ca	0.15273967
66	0x3d3d8621	0.046270493
67	0xbe3f4c66	-0.18681487
68	0xbe2117e2	-0.15731767
69	0xbde1134a	-0.10990007
70	0x3e487e7d	0.19579501
71	0xbe3d3a7e	-0.18479344
72	0x3e2b1147	0.1670581
73	0xbdd4a5e2	-0.10383202
74	0x3d85f02c	0.0653995
75	0x3d7fab86	0.062419437
76	0xbbf479ba	-0.0074608
77	0x3d7daa8d	0.061930228
78	0xbe0e9e6b	-0.13927619
79	0x3e4c0f38	0.1992768
80	0x3d1ecf77	0.038772073
81	0xbd08f67f	-0.033438202
82	0x3e4942b9	0.19654359
83	0xbca90937	-0.020634277
84	0x3d13abf2	0.03605265
85	0xbe038dd7	-0.12847076
86	0xbdaf78cd	-0.08567963
87	0x3e14b14f	0.14520763
88	0x3ddfc142	0.10925533
89	0xbb28a4b5	-0.0025732939
90	0xbdef3bb0	-0.11681306
91	0x3c3a8cca	0.011386106
92	0x3e6b2f6d	0.2296731
93	0x3d59b29d	0.053148855
94	0x3e453f7b	0.19262497
95	0x3c8b773c	0.017024629
96	0x3e16f82a	0.14743105
97	0x3d9eda34	0.07756463
98	0x3e5da078	0.21643245
99	0x3de5e6b5	0.112256445
100	0xbd85618a	-0.06512745
101	0x3e1c0549	0.15236391
102	0x3e2ac348	0.16676056
103	0x3e04b34e	0.12959024
104	0xbcb43d2d	-0.022001827
105	0xbdca67e4	-0.09883097
106	0x3dcdf1bd	0.100558735
107	0x3d725ce4	0.05917062
108	0x3e5daa2f	0.21646951
109	0x3cc53a79	0.024075733
110	0x3d66286c	0.056190893
111	0x3e15b3c1	0.14619352
112	0xbd719117	-0.05897626
113	0x3de51e4a	0.11187418
114	0x3e6890a4	0.22711426
115	0x3de13435	0.10996286
116	0xbe18c8a1	-0.14920284
117	0x3e5b5a05	0.21421058
118	0x3c225d5a	0.009909952
119	0xbc1e1b72	-0.009650098
120	0x3d977ede	0.07397245
121	0xbe1d739e	-0.15376136
122	0x3d95c753	0.07313409
123	0xbd07c600	-0.033147812
124	0xbd7bf213	-0.061510157
125	0xbbb4da5c	-0.0055191945
126	0xbaca2e11	-0.0015425106
127	0x3d631c2e	0.055446796
128	0xbe0e6314	-0.13904983
129	0xbd81489f	-0.063126795
130	0xbd186c67	-0.037212756
131	0xbe0cb60a	-0.13741317
132	0xbdddb745	-0.108259715
133	0xbdefe7f7	-0.11714166
134	0xbe06b938	-0.13156593
135	0x3e4cb0de	0.19989344
136	0x3e3572eb	0.17719619
137	0x3e42123a	0.18952265
138	0x3d461e9e	0.048369043
139	0xbdc5833d	-0.09644172
140	0xbdb2ad55	-0.08724467
141	0x3e5d9e6e	0.21642467
142	0x3d8b3d0a	0.06798752
143	0xbc12ec25	-0.008967434
144	0xbe2d6be3	-0.16935687
145	0x3e4ec2bc	0.20191473
146	0x3e1bd5ca	0.15218273
147	0xbc828342	-0.01593173
148	0xbb314873	-0.002705124
149	0xbdf82929	-0.12117226
150	0x3e4b7291	0.19867922
151	0xbd0c2013	-0.034210276
152	0xbe0c8c14	-0.1372531
153	0x3d47c98d	0.0487762
154	0xbe0544cf	-0.1301453
155	0xbd7ac6e5	-0.061224837
156	0xbdc7bb45	-0.09752516
157	0xbe025cfd	-0.12730785
158	0x3e254e74	0.16143209
159	0x3d62ccf2	0.055371232
160	0xbe2289e7	-0.15872918
161	0xbdb0615c	-0.0861232
162	0x3d7666fe	0.060156815
163	0x3e5503b0	0.20802188
164	0xbdb0fb79	-0.086417146
165	0xbdc68b6b	-0.096945606
166	0xbe24db2d	-0.16099234
167	0x3e4d093e	0.20023057
168	0xbe23ddc7	-0.1600257
169	0xbe321d7a	-0.17394057
170	0xbdfc7405	-0.123268165
171	0xbc59e189	-0.013298401
172	0xbe1f8a81	-0.15580179
173	0x3dd5b447	0.10434776
174	0x3d214c6c	0.039379522
175	0xbc4c2e0d	-0.012462151
176	0x3e27c7d1	0.16384818
177	0xbce8517e	-0.028359171
178	0x3dbd7dec	0.09252533
179	0xbda0cae7	-0.078512006
180	0x3e0ff5cd	0.1405861
181	0x3e229146	0.1587573
182	0x3e38293d	0.17984481
183	0x3ba24880	0.0049524903
184	0xbe2caaf0	-0.16862082
185	0xbe17a813	-0.14810209
186	0x3e05709b	0.13031237
187	0xbde0c660	-0.10975337
188	0x3e2112de	0.15729854
189	0x3e0ffc0f	0.14060996
190	0xbdef2456	-0.116768524
191	0xbe349c52	-0.17637756
192	0x3c28c0b3	0.010299849
193	0xbe25d8fd	-0.16196056
194	0x3de2aa62	0.11067654
195	0xbd507d5c	-0.050900802
196	0xbe245014	-0.16046172
197	0x3dc8bff4	0.09802237
198	0x3df782ab	0.1208547
199	0xbe108803	-0.14114384
200	0xbd59b8f8	-0.053154916
201	0x3d223ae2	0.039606936
202	0xbe26c609	-0.16286482
203	0x3c53517f	0.012897848
204	0xbe32a5c3	-0.17446046
205	0xbe0700e9	-0.13183941
206	0xbc88850d	-0.016665006
207	0xbd1bf007	-0.038070705
208	0xbd251026	-0.040298603
209	0xbb6f1db2	-0.0036486206
210	0x3e56bce4	0.20970494
211	0xbc3a1bc4	-0.011359159
212	0xbc706d32	-0.014674472
213	0xbd63932e	-0.055560283
214	0x3d53b2de	0.051684253
215	0xbdf22d9e	-0.11825107
216	0x3dc1d77d	0.09464929
217	0xbdc8299f	-0.097735636
218	0xbd94696a	-0.07246669
219	0xbe0cb97a	-0.13742629
220	0x3df5f395	0.1200935
221	0x3e1f42a8	0.15552771
222	0xbd07337f	-0.033008095
223	0x3e5b018e	0.21387312
224	0x3da25c19	0.079277225
225	0x3d8310ad	0.06399665
226	0x3e317b88	0.1733228
227	0x3c951282	0.018197302
228	0x3dd098c2	0.10185386
229	0x3dd6b435	0.104835905
230	0x3e3156f2	0.17318323
231	0x3d3195b6	0.043355666
232	0xbd72a445	-0.05923869
233	0x3a2bc170	0.0006551957
234	0xbe3112ac	-0.17292279
235	0x3d953445	0.0728536
236	0x3de4ca76	0.11171429
237	0x3dde1f35	0.10845796
238	0x3e090fb1	0.13384892
239	0x3ce049b8	0.027378902
240	0x3e334d44	0.17509943
241	0x3dd0e93f	0.10200738
242	0xbe3f302a	-0.18670717
243	0x3e25bb10	0.1618464
244	0xbe412c0a	-0.18864456
245	0x3e3198a2	0.17343381
246	0x3da5ae5d	0.08089898
247	0x3e330967	0.17484055
248	0x3e25520d	0.16144581
249	0x3e10e98c	0.14151591
250	0xbd9309a1	-0.07179571
251	0xbe34efb9	-0.17669572
252	0xbe31f473	-0.17378406
253	0xbc97add8	-0.018515512
254	0x3ca38f25	0.019965718
255	0xbdca7b93	-0.09886851

network.0.bias f4 [128]
0	0x3e23c346	0.1599246
1	0xbdc291b9	-0.09500451
2	0xbd1ab73f	-0.037772413
3	0x3b56f26e	0.0032798308
4	0x3e43785f	0.19088887
5	0x3c9d1914	0.019176997
6	0x3d1dbf84	0.03851272
7	0x3c408dd0	0.011752561
8	0x3da1a483	0.07892706
9	0x3e11ee29	0.14251007
10	0xbd4dfe30	-0.05029124
11	0x3dd635d5	0.104594864
12	0x3d44ff4c	0.048095033
13	0xbca08b30	-0.01959762
14	0xbe2f2f73	-0.17107944
15	0xbdef2d7a	-0.11678596
16	0x3e4e1b47	0.20127593
17	0xbe29a4cf	-0.16566776
18	0xbe2c919a	-0.16852418
19	0x3e2a2478	0.16615474
20	0xbd905d86	-0.07049088
21	0x3cf93336	0.030419927
22	0xbd8bc706	-0.0682507
23	0xbd58fef8	-0.052977532
24	0x3e3d8690	0.18508363
25	0xbbc7c780	-0.0060967803
26	0x3e2cd7bb	0.1687917
27	0xbdcf3536	-0.10117571
28	0xbc013929	-0.007887163
29	0xbd7ffda2	-0.062497742
30	0x3e1ee8f7	0.15518557
31	0x3e4edde7	0.20201837
32	0xbdccfff3	-0.10009756
33	0xbda6896f	-0.08131682
34	0x3ddadf48	0.10687119
35	0xbd908254	-0.07056108
36	0x3d9cb377	0.07651418
37	0x3e2c496b	0.16824882
38	0x3d085a90	0.033289492
39	0xbc8f7dbf	-0.017516015
40	0xbdfd0e6a	-0.12356265
41	0x3e44091a	0.19144097
42	0x3c027ad2	0.007963853
43	0x3dc69d43	0.09697964
44	0xbd917cc5	-0.07103876
45	0x3e3214e0	0.17390776
46	0xbd89316a	-0.06698878
47	0xbdd3eb11	-0.1034757
48	0x3dfbea0e	0.12300502
49	0xbe0c39cb	-0.13693921
50	0x3dfed9f8	0.12443918
51	0x3dc32096	0.095277
52	0xbdb0db76	-0.08635609
53	0xbe3c3256	-0.18378577
54	0xbdc2de81	-0.095150955
55	0xbde75dd0	-0.1129719
56	0x3dd4ebcb	0.103965364
57	0xbdc5bca6	-0.096551225
58	0x3e20fcec	0.15721482
59	0x3be5029d	0.006988837
60	0x3da2296e	0.07918058
61	0xbd056215	-0.03256424
62	0x3de14476	0.10999386
63	0xbdf7eff1	-0.12106312
64	0x3df1a1c9	0.11798436
65	0xbd9f57e9	-0.077804394
66	0xbe1b086d	-0.15139933
67	0x3e0b1f1b	0.13586085
68	0x3e1e83ba	0.15479937
69	0x3e5be296	0.21473154
70	0x3dee2acc	0.116292566
71	0xbe0af293	-0.13569097
72	0x3d3d46ac	0.046209976
73	0x3e397604	0.18111426
74	0x3e32543d	0.17414947
75	0x3e3a7b60	0.18211126
76	0x3d0e5fed	0.03475945
77	0x3d4d3dca	0.050107755
78	0xbdc9a63c	-0.0984616
79	0xbd8fea1c	-0.07027075
80	0x3e43c9e5	0.19119985
81	0x3afc69d8	0.0019257618
82	0x3dbadd8a	0.091242865
83	0x3e632f4d	0.22186013
84	0xbd1d4c8e	-0.038403086
85	0xbdfe0eae	-0.12405144
86	0xbc23a2a6	-0.009987509
87	0xbc7b6afa	-0.015345329
88	0x3cfb8daa	0.0307072
89	0xbcbaee58	-0.02281873
90	0xbdf1bcd9	-0.11803598
91	0x3cf977ae	0.030452576
92	0xbd0834aa	-0.03325335
93	0x3d7e981d	0.062156785
94	0xb918e400	-0.00014580786
95	0x3d87a91a	0.066240504
96	0xbda71c34	-0.08159676
97	0xbd923231	-0.071384795
98	0x3d8b664d	0.06806622
99	0x3e024570	0.12721801
100	0x3d55afbc	0.052169546
101	0xbc8a466b	-0.016879281
102	0x3dd3cfbf	0.10342359
103	0x3d62075e	0.055182807
104	0x3ddd17af	0.10795533
105	0xbe26af2a	-0.16277757
106	0x3e0c3aed	0.13694353
107	0xbdd76629	-0.105175324
108	0x3d93bf2e	0.07214199
109	0xbd0764cd	-0.033055115
110	0xbe004e43	-0.12529854
111	0x3e04b96b	0.12961356
112	0xbc49ae79	-0.012309664
113	0x3cacbb21	0.021085324
114	0x3dc0c8f2	0.09413327
115	0xbdc05ac8	-0.09392315
116	0x3dfb7538	0.12278217
117	0xbde2fa8a	-0.11082943
118	0x3e06386f	0.13107465
119	0xbd972532	-0.07380141
120	0x3e140722	0.14455846
121	0x3da526f6	0.08064072
122	0xbd2a0723	-0.041510712
123	0x3d80adff	0.06283187
124	0xbd321f9e	-0.043487184
125	0x3cfad7bf	0.030620454
126	0xbd9db8fa	-0.07701297
127	0x3deff498	0.117165744

network.2.weight f4 [128, 128]
0	0xbd88ab09	-0.06673247
1	0x3cb88e7a	0.022528876
2	0x3db3d296	0.087804005
3	0x3d947f74	0.07250872
4	0x3c7b6fcc	0.015346479
5	0xbd32917c	-0.043595776
6	0xbd83ed8b	-0.06441792
7	0xbcc6e855	-0.024280706
8	0x3cc626f1	0.02418849
9	0xbd9efdd7	-0.0776326
10	0x3dbdfc20	0.09276605
11	0x3d806558	0.0626933
12	0xbc3ad7a4	-0.011403952
13	0xbd27b42a	-0.040943302
14	0x3d9af147	0.07565551
15	0x3c300448	0.010743208
16	0x3da5a435	0.08087961
17	0x3d4393d7	0.047748413
18	0xbcef11f1	-0.02918336
19	0x3d879759	0.06620664
20	0x3d197535	0.037465293
21	0x3a4015ec	0.00073274854
22	0xbd5c3d47	-0.053769376
23	0x3da59ddb	0.08086749
24	0x3d70b525	0.058766503
25	0x3d8b39a7	0.06798106
26	0xbd62f945	-0.055413503
27	0xbdb17c2d	-0.08666263
28	0xbd2fd752	-0.042929955
29	0xbdaace6e	-0.083401546
30	0x3d2c655c	0.04208885
31	0x3d711297	0.05885562
32	0x3cb7db8c	0.022443555
33	0xbd9ff242	-0.07809879
34	0xbd3c89e3	-0.046029937
35	0xbca9b718	-0.020717189
36	0xbb51bfe6	-0.003200525
37	0x3cad7c1f	0.02117735
38	0x3d979634	0.07401696
39	0x3d8aeb71	0.06783188
40	0xbdad1a85	-0.08452324
41	0x3c310a5f	0.010805695
42	0x3d392781	0.04520369
43	0xbd5da0a1	-0.054108266
44	0x3dc697e7	0.09696942
45	0x3d949621	0.07255197
46	0xbd4e340c	-0.050342605
47	0xbcce5d24	-0.025190897
48	0x3c8dffbc	0.017333858
49	0x3d84b742	0.06480266
50	0x3d4cd493	0.050007414
51	0x3d6b9173	0.057511758
52	0xbd6862ad	-0.05673473
53	0x39f4e1e8	0.0004670762
54	0x3d64bf5a	0.05584655
55	0xbd4e058f	-0.05029827
56	0x3d0d8474	0.034550145
57	0x39d7355d	0.00041047754
58	0xbd25f069	-0.040512476
59	0xbd4391ec	-0.047746584
60	0x3c328af1	0.010897384
61	0xbcc72620	-0.024310172
62	0x3d75a9ac	0.059976265
63	0x3ca271a5	0.01982958
64	0x3d7a8852	0.06116516
65	0x3da03673	0.07822885
66	0xbb426270	-0.0029660724
67	0xbcc11c85	-0.02357317
68	0x3bd72525	0.0065657073
69	0xbd8324f2	-0.06403531
70	0x3da5bf0c	0.0809308
71	0xbda031ea	-0.0782202
72	0x3dadde6f	0.084896915
73	0x3d137c4e	0.036007218
74	0xbd4a177f	-0.049338814
75	0x3d8afefa	0.06786914
76	0x3b09b167	0.002101028
77	0xbd039002	-0.03211976
78	0xbd1a182a	-0.0376207
79	0x3c80a2b0	0.015702575
80	0xbd56a539	-0.052403662
81	0x3c073dbe	0.008254467
82	0xbcd16e06	-0.025565159
83	0x3c8d56f1	0.017253371
84	0x3d27a9df	0.040933486
85	0xbd9832a1	-0.07431532
86	0x3d7a4a24	0.061105862
87	0xbc703e6b	-0.014663319
88	0x3b03a595	0.0020087708
89	0x3c5bf588	0.013425238
90	0xbd4dfff5	-0.050292928
91	0xbd81e8e3	-0.06343248
92	0xbd03474e	-0.032050423
93	0x3d4e929e	0.050432794
94	0xbd3bcff8	-0.04585263
95	0xbc7a27f8	-0.015268318
96	0xbd230a13	-0.03980453
97	0xbd9bb2e1	-0.07602478
98	0xbd3ea32c	-0.04654233
99	0xbd5e54e7	-0.054280188
100	0x3d7672d0	0.060168087
101	0xbd11f42f	-0.035633262
102	0x3c1b9ca0	0.0094977915
103	0xbd52449f	-0.051334973
104	0xbcbf7161	-0.023369493
105	0x3d50c99e	0.050973527
106	0xbd9496a2	-0.072552934
107	0xbda6de28	-0.08147842
108	0x3b08092c	0.002075742
109	0x3988e1cb	0.0002610817
110	0x3c03f728	0.008054532
111	0x3d2f7be4	0.04284276
112	0xbcccb125	-0.024986813
113	0x3d7ab39b	0.06120644
114	0xbd8438a4	-0.06456116
115	0x3d85f5ad	0.065409996
116	0xbc846c99	-0.016165065
117	0xbdacd3aa	-0.08438809
118	0x3db8b884	0.090195686
119	0xbd911315	-0.07083718
120	0xbc7f7831	-0.015592621
121	0xbc050456	-0.00811871
122	0xbd4724dc	-0.048619136
123	0x3ce6ec7e	0.02818894
124	0xbc94493d	-0.018101329
125	0x3b8dbf73	0.004325801
126	0x3d87ddb7	0.066340856
127	0xbd316e30	-0.043317974
128	0xbbd48ab0	-0.0064862594
129	0xbd9f628c	-0.07782468
130	0xbd7c5823	-0.06160749
131	0xbd9f2079	-0.077698655
132	0x3cb70b1f	0.02234417
133	0x3d4bcb86	0.049754642
134	0xbd11930c	-0.035540625
135	0x3d9d8fa9	0.076934166
136	0xbc90f100	-0.017693043
137	0xbd887eb0	-0.06664789
138	0x3ca792f8	0.020455822
139	0xbd8aeb38	-0.06783146
140	0xbdb9f2a2	-0.09079482
141	0xbc096dc0	-0.008387983
142	0x3d3db553	0.046315502
143	0x3d92f48d	0.071755506
144	0x3d98bd4f	0.07457983
145	0x3d0ec83f	0.03485894
146	0xbc729d58	-0.0148080215
147	0xbd92d1b4	-0.07168904
148	0xbdab8ca9	-0.08376438
149	0xbc39ab13	-0.011332291
150	0x3c843567	0.016138745
151	0x3ba812d0	0.0051291957
152	0x3d4b020f	0.04956251
153	0x3d1c00fe	0.038086884
154	0x3cad525c	0.021157436
155	0xbd30eb00	-0.043192863
156	0xbdb213ba	-0.08695169
157	0xbd134d4c	-0.035962388
158	0xbd181966	-0.037133597
159	0x3c75853e	0.014985381
160	0xbc9d3c2d	-0.019193733
161	0xbd03e199	-0.03219757
162	0x3d94ac98	0.07259482
163	0xbd9f6b22	-0.07784106
164	0xbdaebaa0	-0.0853169
165	0xbd50d5da	-0.050985195
166	0x3ca01d7d	0.019545311
167	0x3c7c8e18	0.015414737
168	0x3c6c370b	0.01441742
169	0x3da31585	0.07963089
170	0xbc524b33	-0.012835312
171	0xbd37b5f0	-0.044851243
172	0x3dae98aa	0.08525212
173	0x3cca4e50	0.024695545
174	0x3c87f920	0.016598284
175	0x3d2f9b2a	0.042872585
176	0xbd2878d1	-0.041130845
177	0xbd6ed4e4	-0.058308497
178	0xbd6cee95	-0.057844717
179	0x3d13f96f	0.03612655
180	0x3ce459df	0.027874885
181	0x3d2f6d9a	0.042829134
182	0xbcede27c	-0.02903866
183	0xbc66a7b0	-0.014078066
184	0x3b85c926	0.0040828167
185	0xbce6a2fe	-0.028153893
186	0x3d9cecae	0.076623306
187	0xbab246ff	-0.0013601481
188	0xbd1913a9	-0.037372265
189	0xbdb1063c	-0.08643767
190	0xbd7365c9	-0.05942324
191	0x3d0bebc6	0.034160398
192	0xbb80fd90	-0.003936477
193	0xbaa79880	-0.0012786537
194	0xbd37013a	-0.044678904
195	0xbd088da3	-0.0333382
196	0xbd1da0f6	-0.038483582
197	0x3c15e75a	0.009149397
198	0x3c76247d	0.015023348
199	0xbb8ea62c	-0.0043533053
200	0x3db27543	0.08713772
201	0x3d6a595c	0.057214126
202	0x3db39419	0.08768482
203	0xbda09f02	-0.07842828
204	0x3d6b7f10	0.057494223
205	0xbd61ef5e	-0.05515992
206	0x3d0dce7a	0.03462074
207	0xbd8870b4	-0.066621214
208	0xbd61da14	-0.055139616
209	0xbd31935d	-0.043353427
210	0xbca35c10	-0.01994136
211	0xbc8a22f7	-0.016862376
212	0xbd8281f4	-0.06372443
213	0x3b9c9a80	0.00477916
214	0xbd3e4554	-0.046452835
215	0xbd88abf5	-0.06673423
216	0xbbebc590	-0.007195182
217	0x3c50bbb8	0.012740068
218	0x3da88eb8	0.082303464
219	0xbd81f5cd	-0.06345711
220	0xbd56301f	-0.052291986
221	0xbd79c35c	-0.060977325
222	0x3d8ed291	0.06973756
223	0xbd08f490	-0.033436358
224	0x3c5a0c19	0.013308548
225	0x3bf2b913	0.0074073165
226	0x3c6d0df1	0.014468656
227	0x3c684647	0.014176912
228	0xbda395cb	-0.07987555
229	0xbda9ad90	-0.082850575
230	0xbd2220b4	-0.03958197
231	0xbd54d659	-0.05196223
232	0x3d3a300f	0.04545599
233	0xbd8d64aa	-0.06903966
234	0xbd90ff62	-0.070799604
235	0xbd6b08e6	-0.057381533
236	0x3cfbbdd8	0.030730173
237	0x3c5cf0d0	0.013485149
238	0x3ce4e8e0	0.027943075
239	0xbd31b424	-0.043384686
240	0xbd086a3f	-0.03330445
241	0xbcfbc3a5	-0.030732939
242	0x3d97a36a	0.07404216
243	0xbdae848b	-0.08521374
244	0x3c87a0f3	0.016556239
245	0xbc7b2dd0	-0.015330747
246	0x3c9cebf6	0.019155484
247	0x3d92f272	0.07175149
248	0x3d2ff8c4	0.04296185
249	0xbcbcacdb	-0.023031643
250	0xbb3f57d2	-0.0029196632
251	0xbc9e157f	-0.01929736
252	0x3d479b49	0.048732076
253	0x3d9895c9	0.07450444
254	0x3d88b3af	0.06674897
255	0xbc452e9d	-0.012035039

network.2.bias f4 [128]
0	0x3dc0da8e	0.09416686
1	0xbc58954e	-0.013219191
2	0xbcbde22c	-0.023179136
3	0x3cb6281d	0.022235924
4	0xbd5df0e5	-0.054184813
5	0xbd22e08a	-0.03976492
6	0x3de194fb	0.11014744
7	0xbdb1cdd9	-0.086818404
8	0x3c39b6c1	0.011335076
9	0x3baae61f	0.005215421
10	0xbd3bf7df	-0.045890685
11	0xbdd035a1	-0.10166479
12	0xbd058baa	-0.032603897
13	0xbd18b2f3	-0.037280034
14	0xbd95b782	-0.07310392
15	0x3ca512c0	0.020150542
16	0xbb506858	-0.0031800475
17	0xbca2e9e0	-0.01988691
18	0xbd8e0526	-0.06934576
19	0x3caf1912	0.02137426
20	0x3cbf16ef	0.023326365
21	0x3c331d2d	0.010932249
22	0xbcfd9039	-0.03095256
23	0xbd7b12de	-0.06129729
24	0x3b147b33	0.002265644
25	0xbca68210	-0.02032569
26	0xbcf2c309	-0.029634016
27	0xbb8f8b60	-0.0043806285
28	0x3c397c4c	0.011321139
29	0xbd29a31f	-0.04141533
30	0xbd599c4b	-0.05312757
31	0xbdb42142	-0.08795406
32	0xbc72b381	-0.014813305
33	0x3da01c97	0.07817953
34	0x3db4227b	0.08795639
35	0x3cc8f9cd	0.024533177
36	0xbd151e5a	-0.0364059
37	0x3d04d51e	0.032429807
38	0xbd8d5e80	-0.0690279
39	0xbd01bd57	-0.03167471
40	0x3d07d8cd	0.03316574
41	0x3d854ab0	0.06508386
42	0xbd9477c9	-0.0724941
43	0xbcbcf8dc	-0.023067884
44	0x3d77b9bb	0.06047986
45	0x3d886e26	0.06661634
46	0xbc8bbd4d	-0.01705804
47	0xbdad6b2b	-0.08467706
48	0x3d8a6047	0.06756645
49	0x3cc68c31	0.02423677
50	0x3d14ca67	0.03632584
51	0x3db9db33	0.09075012
52	0x3d3295c0	0.043599844
53	0xbcbe3352	-0.02321783
54	0xbd8c512c	-0.0685142
55	0xbcdd1e4e	-0.02699199
56	0xbd371a62	-0.044702895
57	0xbcf41373	-0.02979443
58	0xbb6b9eef	-0.0035952886
59	0x3cf03687	0.029322876
60	0xbda8737e	-0.082251534
61	0x3d3d19c3	0.046167146
62	0xbc2ba3d6	-0.010476073
63	0xbc7bbd8c	-0.015365016
64	0xbdc22349	-0.09479386
65	0x3bd3305f	0.0064449753
66	0x3c450b35	0.012026598
67	0xbd05710d	-0.032578517
68	0x3cfea1b2	0.031082962
69	0x3d1ab54a	0.037770547
70	0x3d92b6ce	0.071637735
71	0x3d220a5f	0.039560672
72	0x3d9ca994	0.07649532
73	0x3d854797	0.06507795
74	0x3d4ed6ea	0.050497927
75	0x3dae891b	0.085222445
76	0x3d2e7604	0.042593017
77	0xbc0bc0cf	-0.008529856
78	0x3deda49d	0.11603663
79	0x3d5c958a	0.05385355
80	0x3db70614	0.08936706
81	0x3cf66a3f	0.030079959
82	0x3d9378b7	0.07200759
83	0xbc07c7dd	-0.008287397
84	0xbd9d543c	-0.07682082
85	0xbdb4262e	-0.08796345
86	0xbc79dfe9	-0.015251138
87	0xbad69e38	-0.0016374057
88	0xbd4baea6	-0.049727105
89	0x3d196cde	0.03745734
90	0xbd8825fa	-0.066478685
91	0xbccad0c9	-0.02475776
92	0xbdbc364a	-0.09190042
93	0xbd0f7bcd	-0.035030175
94	0x3d59376e	0.053031377
95	0x3d735eda	0.05941663
96	0x3c2f115c	0.010685291
97	0xbd3c7028	-0.046005398
98	0xbd08bc72	-0.03338284
99	0x3d80c07f	0.06286716
100	0xbbdeab40	-0.006795317
101	0xbd099e4e	-0.033598237
102	0x3d5dfcb2	0.054196067
103	0x3a8d7580	0.0010792464
104	0x3d336220	0.04379475
105	0x3d0452b8	0.03230545
106	0xbc68fbc0	-0.014220178
107	0xbd59cb91	-0.05317265
108	0xbcfe9f0a	-0.031081695
109	0x3c9afc78	0.018919215
110	0xbd71af31	-0.059004966
111	0x3d7cc16a	0.06170789
112	0x3cdfadfd	0.027304644
113	0xbbacc1b2	-0.0052721137
114	0x3d825456	0.06363742
115	0xbc203ef8	-0.009780638
116	0xbb865d8f	-0.0041005085
117	0x3d06ccb8	0.03291008
118	0xbd28d69f	-0.041220304
119	0xbd0c513a	-0.03425715
120	0x3d8f2870	0.06990135
121	0xbd620926	-0.055184506
122	0x3ce4a7f4	0.027912118
123	0x3d90cb91	0.07070077
124	0xbd3a54ae	-0.045490913
125	0xbd5a8176	-0.05334612
126	0xbc499104	-0.012302641
127	0xbd56cd68	-0.052441984

network.4.weight f4 [8, 128]
0	0x3d69df92	0.05709798
1	0xbd822a41	-0.063557155
2	0x3da0cfb7	0.078521185
3	0xbda5642c	-0.08075747
4	0x3da014a9	0.078164406
5	0x3d3e496a	0.04645673
6	0x3d9c32b3	0.076268576
7	0xbd9654cd	-0.07340393
8	0x3ca7d166	0.020485591
9	0x3d7d3aed	0.061823774
10	0xbd802c75	-0.062584795
11	0x3d4e5b38	0.05037996
12	0xb9b7c400	-0.0003505051
13	0x3d7dfd22	0.062008984
14	0x3d52b4ed	0.051442076
15	0x3b8843f0	0.0041584894
16	0xbcc56d4f	-0.024099974
17	0xbd4a1e23	-0.049345147
18	0x3ad3e4c0	0.0016166195
19	0x3d44d839	0.04805777
20	0xbd48c23e	-0.04901337
21	0xbd883753	-0.06651177
22	0xbdb066fb	-0.08613392
23	0xbd9f68f1	-0.07783688
24	0xbc561712	-0.013067024
25	0x3bd0820d	0.0063631595
26	0xbdb4eb05	-0.08833889
27	0xbd705d7e	-0.05868291
28	0x3d5a6d82	0.05332709
29	0xbdb66260	-0.08905482
30	0x3d17b6bb	0.0370395
31	0xbd2cfed8	-0.042235225
32	0xbdbd9573	-0.09257021
33	0x3b37bcbc	0.0028036078
34	0xbdb821e1	-0.08990837
35	0x3d1a3820	0.03765118
36	0xbcb56c2d	-0.022146309
37	0x3d912282	0.0708666
38	0x3c17d550	0.009267166
39	0x3dc9b191	0.09848321
40	0x3d8b4a6c	0.06801304
41	0xbd418b37	-0.047251906
42	0x3c9d27ec	0.019184075
43	0x3d7bcfc3	0.061477434
44	0xb9d2fdfc	-0.00040243554
45	0x3c4c9536	0.012486747
46	0xbdd6ec4a	-0.10494287
47	0x3d195f1f	0.03744423
48	0xbd3b5cc7	-0.045742776
49	0x3d29780b	0.041374248
50	0xbd27e06a	-0.040985502
51	0x3d7f8cf9	0.0623903
52	0x3d104e47	0.0352309
53	0x3d0dcc6b	0.034618776
54	0x3d43437e	0.047671787
55	0xbce52720	-0.027972758
56	0x3d682862	0.056679137
57	0xbd80ee13	-0.06295409
58	0x3d2d3267	0.042284396
59	0x3d3d09fe	0.046152107
60	0xbd45968c	-0.048239276
61	0xbd0630dd	-0.032761443
62	0x3d029285	0.031878013
63	0x3cd3905f	0.025825677
64	0x3b684b58	0.00354453
65	0xbd1dd69b	-0.03853474
66	0x3b9c02b7	0.004761066
67	0x3d2e7b70	0.042598188
68	0x3a852ba6	0.0010160103
69	0xbd0329dc	-0.032022342
70	0xbda1c630	-0.078991294
71	0x3d2bd899	0.04195461
72	0x3baae2d1	0.005215027
73	0x3d091132	0.033463664
74	0xbcc7b05c	-0.024376087
75	0xbd016f48	-0.031600267
76	0x3db03c36	0.08605234
77	0x3d7f6760	0.062354445
78	0xbd1e6f49	-0.03868035
79	0x3d23379c	0.039847955
80	0x3d00ab53	0.031413388
81	0xbd853e6f	-0.06506049
82	0xbda89364	-0.082312375
83	0xbd8e806e	-0.0695809
84	0x3d4e02fe	0.050295822
85	0xbb0278b9	-0.0019908382
86	0xbd83b1e4	-0.06430414
87	0xbd0135f9	-0.031545613
88	0xbd868ac3	-0.065694354
89	0xbb2b63a0	-0.002615191
90	0x3d8f1420	0.069862604
91	0xba9ca3de	-0.0011950692
92	0xbc9defbe	-0.019279357
93	0x3da67f3b	0.08129736
94	0xbc8f5de5	-0.017500827
95	0x3d8c8c90	0.06862748
96	0xbc872671	-0.016497822
97	0x3d6842fc	0.056704506
98	0xbadc1a60	-0.0016792528
99	0x3d8fde91	0.07024873
100	0x3d7fd99c	0.062463388
101	0x3ca5a354	0.020219482
102	0xbca4b027	-0.020103527
103	0x3d0c4318	0.034243673
104	0xbdc7eaca	-0.09761579
105	0x3c431af6	0.011908283
106	0x3c872c04	0.01650048
107	0xbdd20b7f	-0.10256099
108	0x3bb53825	0.0055303746
109	0xbd1c8ffe	-0.03822326
110	0x3c30bd1b	0.010787274
111	0x3d82d595	0.06388394
112	0x3d3dea69	0.04636613
113	0xbdafc74b	-0.08582934
114	0xbd87788f	-0.066147916
115	0x3d3e95ee	0.046529703
116	0x3cf49d0e	0.029860046
117	0xbc21bda6	-0.009871876
118	0x3d32e63a	0.043676592
119	0xbcdd2a3b	-0.026997676
120	0xbd270d78	-0.04078433
121	0xbd1fa947	-0.038979795
122	0xbc9634ea	-0.018335778
123	0xbc85042d	-0.016237343
124	0xbd9c727b	-0.07639023
125	0x3c0c4b4e	0.008562876
126	0xbd19be68	-0.0375351
127	0xbcc30361	-0.023805322
128	0x3d8ed823	0.069748186
129	0x3c04c3c4	0.008103315
130	0x3d9e4571	0.07728089
131	0x3de6ee35	0.11275903
132	0x3d241bb9	0.0400655
133	0xbd810666	-0.063000485
134	0x3d35c598	0.044377893
135	0xbceba386	-0.028764497
136	0x3d88b409	0.06674964
137	0x3d04db4d	0.032435704
138	0x3da86959	0.082232185
139	0xbd2da13c	-0.042390093
140	0x3c2a62e8	0.010399558
141	0x3c2d9e90	0.010596886
142	0x3d807b00	0.062734604
143	0xbbf6b8d0	-0.0075293556
144	0x3d52db0c	0.05147843
145	0x3ccf3896	0.025295537
146	0x3cf83fc4	0.030303843
147	0xbc97a99c	-0.018513493
148	0xbb8c9e1c	-0.004291309
149	0x3d6bf392	0.057605334
150	0x3d93d461	0.072182424
151	0x3be4f09e	0.0069866916
152	0x3dc98678	0.09840101
153	0xbd4bc6c9	-0.049750123
154	0xbd966a97	-0.07344549
155	0xbd1fe2b3	-0.039034557
156	0xbd5fb4fb	-0.054615956
157	0xbd969ef3	-0.07354536
158	0xbd8fde5e	-0.07024835
159	0x3d3a1d5b	0.04543815
160	0x3d8ffaf5	0.07030288
161	0xbd88bfae	-0.06677185
162	0x3d69c8c7	0.05707624
163	0x3b3123a1	0.0027029293
164	0xbc848aa7	-0.016179396
165	0x3da84983	0.08217146
166	0xbd28b89a	-0.041191675
167	0x3d2c2a55	0.04203256
168	0x3cb01b8c	0.02149751
169	0x3dbd7506	0.09250836
170	0x3d829fa1	0.06378103
171	0xbc60ea6f	-0.013727768
172	0x3d9b7955	0.075915016
173	0x3da0a156	0.078432724
174	0x3d8b572c	0.06803736
175	0xbd9ff886	-0.07811074
176	0x3da1abdc	0.07894108
177	0x3ddc469a	0.10755654
178	0x3cf40c8d	0.02979114
179	0x3d11d373	0.035602044
180	0xbcaf971b	-0.021434357
181	0x3d001cb8	0.03127739
182	0x3dab5cc5	0.08367304
183	0x3d4969ca	0.049173154
184	0x3bd25ec0	0.0064199865
185	0xbcf3bb80	-0.029752493
186	0xbcbd12f2	-0.023080323
187	0x3d343014	0.043991163
188	0xbd6da1a8	-0.058015496
189	0x3c95ca5c	0.018284969
190	0xbd9d85f6	-0.07691567
191	0x3b42149e	0.002961434
192	0xbd71bea0	-0.059019685
193	0x3d98ce41	0.07461215
194	0xbd83daef	-0.06438243
195	0xbd268f24	-0.040663853
196	0x3d402bcd	0.04691677
197	0xbd54ac92	-0.05192239
198	0x3c988054	0.01861588
199	0x3c3fa6ac	0.0116974525
200	0xbd595dec	-0.053068087
201	0xbd8397b7	-0.06425422
202	0x3c83d6e8	0.016093686
203	0x3d0861b6	0.03329631
204	0x3db14033	0.08654823
205	0xbc6f1d54	-0.014594395
206	0x39f8ceb4	0.00047456252
207	0xbce4319b	-0.027855685
208	0x3dbdc0fd	0.09265325
209	0x3dd54055	0.10412661
210	0x3cf38634	0.029727079
211	0x3d91d18b	0.07120045
212	0x3d027fb6	0.031860076
213	0xbcdb2b56	-0.026754063
214	0xbd1712d0	-0.036883175
215	0xbcc9d909	-0.024639623
216	0x3d304536	0.043034755
217	0xbd85b122	-0.06527926
218	0xbcaf9cd9	-0.021437095
219	0x3dc2d766	0.0951374
220	0x3d1d9912	0.038476057
221	0xbd004602	-0.031316765
222	0xbd09a6b0	-0.03360623
223	0xbd1ee24c	-0.038790032
224	0xbca644d7	-0.020296497
225	0x3d0db754	0.034598663
226	0xbca4e631	-0.020129295
227	0x3d5c46f1	0.053778592
228	0xbdbd8ba3	-0.09255149
229	0x3cfefea5	0.031127283
230	0x3da84113	0.08215537
231	0xbcefb457	-0.029260797
232	0x3da4567f	0.0802431
233	0xbd4fab73	-0.050700616
234	0xbd335a09	-0.043787036
235	0x3cdc2dcd	0.026877308
236	0x3da68fd0	0.08132899
237	0x3d3d1516	0.046162687
238	0x3d124fef	0.035720762
239	0xbd252aaa	-0.04032389
240	0x3ba9c60f	0.005181081
241	0x3dc5c26e	0.09656225
242	0xbd75bee2	-0.059996493
243	0xbd665a27	-0.05623832
244	0x3c4b75fc	0.012418266
245	0xbc4b0408	-0.012391098
246	0xbcef6a22	-0.029225413
247	0xbd459d69	-0.04824582
248	0x3dbe7216	0.09299104
249	0x3dc49aba	0.09599824
250	0x3de19e17	0.11016481
251	0xbda20998	-0.07911986
252	0xbc82303c	-0.01589214
253	0xbb266235	-0.0025388126
254	0x3de152c8	0.110021174
255	0x3dd77c97	0.105218105

network.4.bias f4 [8]
0	0x3cf75839	0.030193435
1	0x3d349a5e	0.04409253
2	0x3d102d22	0.035199292
3	0x3db5f4e2	0.08884598
4	0x3cc3053e	0.02380621
5	0xbc1e3b7e	-0.009657739
6	0xbd6a6d5b	-0.057233196
7	0x3cfa1fcb	0.030532738

exp_avg f4 [128, 26]
0	0xbca09e1a	-0.019606639
1	0xbba2ceea	-0.0049685137
2	0xbc277453	-0.010220605
3	0x3b06422e	0.0020486224
4	0xbb665c0a	-0.0035150074
5	0xbd297f7c	-0.041381344
6	0xbd251b88	-0.04030946
7	0xbda329cb	-0.07966956
8	0xbd04df7a	-0.032439686
9	0xbd2480c5	-0.040161867
10	0xbda0c206	-0.07849507
11	0xbdd71aa2	-0.10503127
12	0xbcce6ba1	-0.025197806
13	0xbdc253b3	-0.094886206
14	0xbdde7a8c	-0.10863218
15	0xbd7db53a	-0.06194041
16	0xbdd89748	-0.105757296
17	0xbdf376c2	-0.11887886
18	0xbdbac47c	-0.09119508
19	0xbdff3002	-0.12460329
20	0xbdd4d7f9	-0.10392756
21	0xbd8c5622	-0.06852366
22	0xbd879002	-0.06619264
23	0xbcff2c85	-0.031149158
24	0xbd8addbb	-0.06780573
25	0xbd8c35d5	-0.06846205
26	0x3bb40305	0.005493524
27	0x3c1113b9	0.0088548
28	0x39e6bc20	0.00044009183
29	0x3c4d5ba2	0.012534054
30	0x3b5de707	0.0033859627
31	0x3cd82651	0.026385458
32	0x3cc93f72	0.024566386
33	0x3b9a9a10	0.0047180727
34	0x3ce25741	0.027629497
35	0x3cabd97c	0.020977728
36	0xbc05d024	-0.0081673
37	0xbc88ed43	-0.016714698
38	0xbab0e92c	-0.0013497225
39	0xbb5157f0	-0.0031943284
40	0xbb821550	-0.003969826
41	0x3c5394e5	0.012913917
42	0x3b0e9d50	0.0021761246
43	0xbccba763	-0.02486009
44	0xbc1d5a98	-0.009604119
45	0x3aa2b120	0.0012412407
46	0xbc2a8524	-0.01040772
47	0xbb2981f8	-0.002586482
48	0xbbd097a8	-0.006365735
49	0xbb84972d	-0.004046342
50	0xbb285400	-0.0025684834
51	0xbb2e6e18	-0.0026615914
52	0xbc6a5ce6	-0.014304375
53	0xbc3375e7	-0.010953403
54	0xbc351b8e	-0.011053933
55	0xbc1cead5	-0.009577473
56	0xbc4b96d4	-0.012426097
57	0xbcb2c00c	-0.02182009
58	0xbcb3f554	-0.021967568
59	0xbd1fe770	-0.039039075
60	0xbca3d978	-0.020001158
61	0xbcb0750e	-0.021540191
62	0xbc90fb48	-0.017697945
63	0xbd0a3133	-0.033738326
64	0xbc7b7a92	-0.015349047
65	0xbcf8bb29	-0.030362682
66	0xbd1101ae	-0.035401992
67	0xbcaadc28	-0.020856932
68	0xbcf6ecf0	-0.030142277
69	0xbd4a06c2	-0.04932285
70	0xbd118f2d	-0.035536934
71	0xbcb632b7	-0.02224098
72	0xbceff12c	-0.029289804
73	0xbca5b4c7	-0.020227803
74	0xbc9f7e1e	-0.019469317
75	0xbc0e4411	-0.0086832205
76	0xbcafcfbe	-0.021461364
77	0xbcac3950	-0.021023422
78	0xbcc2c229	-0.023774223
79	0xbc1988b9	-0.009370976
80	0xbc7a529e	-0.015278487
81	0xbb6445a0	-0.0034831539
82	0xbc0065fa	-0.007836813
83	0xbd437933	-0.047723006
84	0xbd431ec1	-0.04763675
85	0xbdc87ae5	-0.09789065
86	0xbd2418c3	-0.040062677
87	0xbd3bb33b	-0.045825224
88	0xbdaa4bcc	-0.08315238
89	0xbdf7b65c	-0.12095329
90	0xbcf9b9b0	-0.03048405
91	0xbddaaf84	-0.10678008
92	0xbe0938f6	-0.13400635
93	0xbd81f289	-0.06345088
94	0xbddc93c8	-0.107703745
95	0xbe1177e0	-0.14205885
96	0xbdd6a011	-0.10479749
97	0xbe086dc8	-0.13323128
98	0xbdf177f3	-0.117904566
99	0xbd9bfcb6	-0.0761656
100	0xbd96ae87	-0.07357507
101	0xbd0dcb3e	-0.034617655
102	0xbd9bfe2c	-0.07616839
103	0xbd9c9954	-0.076464325
104	0xbccdc819	-0.025119828
105	0xbc5444c2	-0.012955846
106	0xbc8d0b43	-0.017217284
107	0xbbbb27e8	-0.0057115443
108	0xbc9be226	-0.019028734
109	0xbd144740	-0.03620076
110	0xbd104604	-0.035223022
111	0xbdbc67e6	-0.091995046
112	0xbce79e36	-0.028273683
113	0xbd18f8bb	-0.037346583
114	0xbda57353	-0.08078637
115	0xbdf5ec33	-0.12007942
116	0xbd0754ef	-0.033039983
117	0xbdd003ba	-0.10156961
118	0xbe00a16a	-0.12561575
119	0xbd651d46	-0.05593612
120	0xbdc2e848	-0.095169604
121	0xbe1c5ded	-0.15270205
122	0xbdc8a45c	-0.09796974
123	0xbdf000a3	-0.117188714
124	0xbdf8bb1e	-0.12145065
125	0xbd93a077	-0.072083406
126	0xbd92110d	-0.071321584
127	0xbd0a8785	-0.033820648
128	0xbd9476fc	-0.07249257
129	0xbd94c505	-0.07264141
130	0xbc6f2fdc	-0.014598813
131	0xbbc65df6	-0.0060536815
132	0xbc0c1143	-0.008549037
133	0xbaecbafc	-0.0018061097
134	0xbb7a09ce	-0.0038152817
135	0xbd1f73fe	-0.03892898
136	0xbd14e33d	-0.036349524
137	0xbd560b5c	-0.052256927
138	0xbd0362e9	-0.03207675
139	0xbd0b30cd	-0.033982087
140	0xbd2ecf1e	-0.04267799
141	0xbd87835f	-0.06616854
142	0xbc8cf9c1	-0.017208936
143	0xbd74ec4e	-0.05979567
144	0xbd80722f	-0.06271779
145	0xbd50d71a	-0.050986387
146	0xbda2b5ac	-0.079448074
147	0xbd8fb2b2	-0.07016505
148	0xbd883976	-0.06651585
149	0xbd97bb46	-0.074087664
150	0xbd6ee8f2	-0.058327623
151	0xbd2e75ea	-0.04259292
152	0xbd259444	-0.0404246
153	0xbc960d67	-0.018316938
154	0xbd2de35f	-0.042453166
155	0xbd2f556e	-0.04280608
156	0xbbe08fd1	-0.0068530818
157	0xbc283aa7	-0.01026789
158	0xbc8bad9f	-0.017050562
159	0xbbcbeabb	-0.0062230504
160	0xbbfd04fe	-0.0077215424
161	0xbcf3601b	-0.029708913
162	0xbcfd5414	-0.03092388
163	0xbdba19d6	-0.09086959
164	0xbceed3c4	-0.029153712
165	0xbccbd72a	-0.024882872
166	0xbd72e1de	-0.059297435
167	0xbdd0ba0b	-0.10191735
168	0xbc3f0179	-0.011658066
169	0xbdbd3a4e	-0.09239636
170	0xbdebcd26	-0.11513738
171	0xbd2670d3	-0.04063494
172	0xbdbfd90b	-0.093675695
173	0xbe02c41e	-0.12770125
174	0xbdb10ec8	-0.086453974
175	0xbdfa1032	-0.1221012
176	0xbdcae6f6	-0.099073336
177	0xbd80cc0e	-0.0628892
178	0xbd736e9c	-0.059431657
179	0xbcde1850	-0.027111202
180	0xbd854123	-0.065065645
181	0xbd83ecd3	-0.06441655
182	0x00000000	0.0
183	0x00000000	0.0
184	0x361304e3	2.1907551e-06
185	0x00000000	0.0
186	0x00000000	0.0
187	0x00000000	0.0
188	0x35e64146	1.7155332e-06
189	0x37ff20f2	3.041371e-05
190	0x00000000	0.0
191	0x00000000	0.0
192	0x37da5ab8	2.602987e-05
193	0xb3c24bca	-9.047615e-08
194	0x00000000	0.0
195	0x37f7d2ae	2.95428e-05
196	0x37a24987	1.9346144e-05
197	0x381c92a8	3.7329883e-05
198	0x38541b3c	5.0570103e-05
199	0x37e95536	2.7815444e-05
200	0x38275a21	3.989984e-05
201	0x38006db0	3.0619733e-05
202	0x38029162	3.1129814e-05
203	0x376c5dce	1.4088537e-05
204	0x373d17d6	1.1270828e-05
205	0x369d93e0	4.6961795e-06
206	0x379d93e0	1.8784718e-05
207	0x378dd1e3	1.6906246e-05
208	0xbd106434	-0.03525181
209	0xbce4d9c1	-0.027935864
210	0xbcf7406a	-0.030182082
211	0xbc6b6284	-0.01436675
212	0xbd0442f4	-0.032290414
213	0xbda08ec6	-0.07839732
214	0xbda19c43	-0.07891133
215	0xbe0d9299	-0.13825454
216	0xbd8d6999	-0.06904907
217	0xbd95d15a	-0.07315321
218	0xbddbb0ca	-0.10727079
219	0xbe216a70	-0.15763259
220	0xbd31330a	-0.043261565
221	0xbe16f647	-0.14742385
222	0xbe23faba	-0.16013613
223	0xbddcd6d1	-0.107831605
224	0xbe1b9d66	-0.15196761
225	0xbe4aa8e2	-0.19790986
226	0xbe1b9de6	-0.15196952
227	0xbe3b208e	-0.18274137
228	0xbe2002fa	-0.15626135
229	0xbdd547d7	-0.10414093
230	0xbdc90f0a	-0.098173216
231	0xbd363a06	-0.04448893
232	0xbdd77580	-0.10520458
233	0xbdd7f53e	-0.10544823
234	0xbbfd66a6	-0.007733184
235	0x3b718db9	0.0036858155
236	0xbabc28f8	-0.0014355471
237	0x3bbc7ad5	0.0057519474
238	0x3b849e1e	0.0040471694
239	0xbc6ff724	-0.014646325
240	0xbc526df0	-0.012843594
241	0xbd5c5f52	-0.053801842
242	0xbbdb3c22	-0.006690518
243	0xbc569236	-0.013096383
244	0xbd4636f1	-0.04839224
245	0xbd87c286	-0.06628899
246	0xbc28ff1a	-0.010314727
247	0xbd7dc08a	-0.061951198
248	0xbd92b564	-0.07163504
249	0xbcf1cecc	-0.029517554
250	0xbd93b590	-0.07212365
251	0xbda47ee2	-0.080320135
252	0xbd7c80a8	-0.061646134
253	0xbda30a42	-0.07960941
254	0xbd7ef727	-0.06224742
255	0xbd329c95	-0.04360636

exp_avg_sq f4 [128, 26]
0	0x394c6a93	0.00019494658
1	0x3982769c	0.00024883903
2	0x3959e9f5	0.00020781888
3	0x398027e2	0.00024443778
4	0x396464d1	0.00021781331
5	0x3a927316	0.0011173214
6	0x3aa46b2a	0.0012544144
7	0x3b812924	0.003941672
8	0x3a7461c2	0.00093224284
9	0x3a8e5d24	0.0010861498
10	0x3b363ea6	0.0027808337
11	0x3b0cd04f	0.0021486466
12	0x39a90286	0.00032236072
13	0x3b7d725f	0.0038672907
14	0x3b8e6d39	0.0043465164
15	0x3af6a878	0.0018818518
16	0x3bb036f1	0.0053776433
17	0x3bbe3d1d	0.005805625
18	0x3bbe5e6c	0.005809596
19	0x3b9750b1	0.0046177735
20	0x3b9e221e	0.0048258444
21	0x3ad56396	0.0016280289
22	0x3aaca968	0.0013173046
23	0x3989c556	0.00026277703
24	0x3af692b9	0.0018812037
25	0x3aedc257	0.0018139583
26	0x3942ebb0	0.00018589082
27	0x3980f26b	0.00024594678
28	0x39615078	0.00021487649
29	0x399abed7	0.00029515356
30	0x39855838	0.00025433465
31	0x3aa06a7a	0.0012238764
32	0x3aad339b	0.0013214232
33	0x3b4413d1	0.0029919038
34	0x3a9491da	0.0011334971
35	0x3a9aff03	0.0011825267
36	0x3ae94467	0.0017796875
37	0x3b012d84	0.0019710967
38	0x39e7ce00	0.00044213235
39	0x3b31fabc	0.0027157506
40	0x3b37b765	0.0028032896
41	0x3abd1ca1	0.0014428088
42	0x3b636516	0.0034697703
43	0x3b66d4b0	0.0035221986
44	0x3b611a0d	0.0034347803
45	0x3b64a731	0.0034889693
46	0x3b51f260	0.0032035336
47	0x3aa1a6a5	0.0012332989
48	0x3a884a18	0.0010398058
49	0x395a0353	0.00020791338
50	0x3ab07534	0.0013462664
51	0x3aac6582	0.001315281
52	0x38b05f49	8.410082e-05
53	0x38dec699	0.000106227766
54	0x38b90c72	8.8238055e-05
55	0x38dd086c	0.0001053967
56	0x38b85a0e	8.790578e-05
57	0x39b90ebd	0.0003529693
58	0x39dcd49b	0.00042120073
59	0x3a4a3c84	0.0007714706
60	0x39a5c94d	0.00031621233
61	0x39bbcc17	0.00035819478
62	0x39f595df	0.00046841704
63	0x3a21494d	0.0006152585
64	0x38fe60f1	0.000121297206
65	0x3a4b3d1c	0.00077529415
66	0x3a647c29	0.0008716011
67	0x39ced083	0.00039446735
68	0x3a3f9123	0.0007307699
69	0x3a7a14ca	0.0009539841
70	0x3a918930	0.0011103507
71	0x3a421e16	0.0007404996
72	0x3a8ab81a	0.0010583431
73	0x39c01072	0.00036633346
74	0x399eb264	0.0003026902
75	0x387d537d	6.0397655e-05
76	0x39ce6555	0.0003936688
77	0x39cb160c	0.00038735603
78	0x3981bc73	0.00024745203
79	0x39aa9d77	0.00032542247
80	0x398afd06	0.00026509928
81	0x39970982	0.00028808048
82	0x397cf5aa	0.0002412411
83	0x3a98579f	0.0011622793
84	0x3aae7d6e	0.0013312527
85	0x3b753b0a	0.0037419223
86	0x3a82dc61	0.0009983891
87	0x3a968853	0.001148472
88	0x3b271408	0.0025494117
89	0x3b1fe01f	0.0024395061
90	0x39c5570f	0.00037639632
91	0x3b706f2b	0.0036687355
92	0x3b8664e0	0.0041013807
93	0x3adb81bc	0.0016747038
94	0x3b9b3c49	0.004737411
95	0x3bb9a4a0	0.005665377
96	0x3baa3638	0.0051944517
97	0x3b97a3ec	0.0046276953
98	0x3b91f73c	0.0044545215
99	0x3ad167bd	0.0015976351
100	0x3ab02a7d	0.0013440397
101	0x398eaa8b	0.00027211415
102	0x3aeb22b4	0.001793942
103	0x3ae3dbf0	0.0017384272
104	0x39dacd7d	0.000417333
105	0x39f88a92	0.0004740549
106	0x39e5f13b	0.00043858014
107	0x3a03a443	0.00050217303
108	0x39ee6566	0.00045470445
109	0x3b0b490a	0.0021253251
110	0x3b207b45	0.0024487537
111	0x3bba3f43	0.005683811
112	0x3aff4ba2	0.0019477496
113	0x3b0cbebe	0.0021475996
114	0x3b7767be	0.0037751044
115	0x3b85a0e2	0.0040780166
116	0x3a3017e5	0.0006717428
117	0x3bb43121	0.0054990207
118	0x3bcf0bb4	0.006318534
119	0x3b362518	0.0027793106
120	0x3be680e5	0.0070344084
121	0x3c047dfe	0.0080866795
122	0x3bf8e006	0.007595065
123	0x3bdfc730	0.006829165
124	0x3bd155c0	0.006388396
125	0x3b20ac5d	0.00245168
126	0x3b09e1c5	0.002103911
127	0x39e2c5d9	0.00043253487
128	0x3b31613a	0.0027066008
129	0x3b2c4b8f	0.0026290154
130	0x387f8d9c	6.092862e-05
131	0x38b67a35	8.701199e-05
132	0x388d2174	6.729635e-05
133	0x38a06733	7.648617e-05
134	0x38cf5aee	9.887466e-05
135	0x39b6fe7e	0.00034903357
136	0x39b23ae6	0.00033994688
137	0x3a4fd7aa	0.000792856
138	0x399acea3	0.00029527125
139	0x39a0ee66	0.000306952
140	0x39de791c	0.00042433373
141	0x39e0bd20	0.00042865518
142	0x391870b6	0.00014537838
143	0x3a34310e	0.0006873765
144	0x3a502b64	0.0007941036
145	0x39d84ea1	0.00041257314
146	0x3a8354a5	0.0010019733
147	0x3a86b0eb	0.0010276114
148	0x3a6899b1	0.00088729995
149	0x3a30fce4	0.0006751551
150	0x3a7c911d	0.00096346607
151	0x39a0e44e	0.00030687678
152	0x3982a0d6	0.00024915364
153	0x384edb18	4.9318274e-05
154	0x39b2894e	0.00034053106
155	0x39af1d31	0.0003340035
156	0x36bd0bd3	5.6340155e-06
157	0x372f6004	1.0453168e-05
158	0x37bfb43b	2.28529e-05
159	0x36e70ec2	6.8860545e-06
160	0x372b7c6c	1.02213635e-05
161	0x3970f2bb	0.00022978608
162	0x39a32dd0	0.00031123916
163	0x3ab5c408	0.0013867626
164	0x3957aed4	0.00020569126
165	0x394201ab	0.00018501903
166	0x3a73d088	0.0009300788
167	0x3a9e3b33	0.0012072086
168	0x384a17c8	4.81827e-05
169	0x3ac53bee	0.0015047768
170	0x3acb8586	0.0015527464
171	0x39ed9cdf	0.0004532104
172	0x3acce51d	0.0015632246
173	0x3b1a8d1d	0.0023582645
174	0x3af6ba73	0.0018823877
175	0x3afc44f1	0.001924662
176	0x3b037ebb	0.002006455
177	0x3a2acca7	0.0006515481
178	0x3a11258d	0.00055369065
179	0x38edca56	0.00011338729
180	0x3a3e2b02	0.00072543335
181	0x3a37c72b	0.00070105743
182	0x00000000	0.0
183	0x00000000	0.0
184	0x30beb3bc	1.3875403e-09
185	0x00000000	0.0
186	0x00000000	0.0
187	0x00000000	0.0
188	0x3069e1ba	8.5085683e-10
189	0x348f922b	2.6742177e-07
190	0x00000000	0.0
191	0x00000000	0.0
192	0x34525498	1.9588549e-07
193	0x2c268904	2.3666078e-12
194	0x00000000	0.0
195	0x34877760	2.5232566e-07
196	0x33e85e3e	1.08204844e-07
197	0x34d84ad9	4.0287594e-07
198	0x3546773d	7.393426e-07
199	0x34702d17	2.2368145e-07
200	0x34f7193f	4.6025704e-07
201	0x349185cd	2.7105708e-07
202	0x34966956	2.801632e-07
203	0x33767637	5.7383854e-08
204	0x331dbc4d	3.672567e-08
205	0x31db13c2	6.375985e-09
206	0x33db13c2	1.0201576e-07
207	0x33b173d3	8.263273e-08
208	0x39a74c74	0.00031909684
209	0x39bb0e22	0.0003567795
210	0x39a41d0f	0.00031302168
211	0x39b01073	0.00033581592
212	0x39c4ef8c	0.0003756251
213	0x3ad6c0e8	0.0016384395
214	0x3aeed3e7	0.0018221111
215	0x3b7ff2f3	0.003905472
216	0x3ac3fe9c	0.0014953199
217	0x3aca9555	0.0015455881
218	0x3b37a3e2	0.0028021266
219	0x3b3f0a9b	0.0029150608
220	0x3a0bf548	0.0005338979
221	0x3b84773c	0.004042534
222	0x3b973ef8	0.0046156608
223	0x3b0c654b	0.002142268
224	0x3bae8a7c	0.005326567
225	0x3bbd8fc3	0.00578496
226	0x3bafe868	0.005368281
227	0x3ba5703b	0.0050487793
228	0x3ba439cd	0.005011773
229	0x3aeab053	0.0017905332
230	0x3ac66175	0.0015135246
231	0x39a3d95a	0.00031251722
232	0x3b00b9c6	0.001964198
233	0x3afbccd8	0.0019210828
234	0x3913662a	0.00014057072
235	0x3947b305	0.00019044809
236	0x3924159e	0.00015648312
237	0x3925d476	0.00015814774
238	0x38fe616d	0.00012129811
239	0x3a2d80c2	0.00066186127
240	0x3a46d188	0.0007584323
241	0x3ae3a7c9	0.001736873
242	0x3a1b9933	0.0005935609
243	0x3a1ccb13	0.0005981188
244	0x3a805e33	0.0009793699
245	0x3a5d5167	0.0008442611
246	0x394cef1e	0.00019544034
247	0x3acfb728	0.0015847431
248	0x3ae08cfb	0.0017131859
249	0x3a47f21b	0.0007627324
250	0x3b081aa5	0.0020767835
251	0x3b08ba03	0.0020862825
252	0x3af57eec	0.0018729842
253	0x3b045694	0.0020193206
254	0x3afd195b	0.0019309925
255	0x3a2c9296	0.00065831223

exp_avg f4 [128]
0	0xbe0ace10	-0.13555169
1	0xbb9587e0	-0.0045633167
2	0xbd31aa42	-0.04337526
3	0xbe1c343a	-0.15254298
4	0xbe1494f5	-0.14509948
5	0xbdaef1ee	-0.08542238
6	0xbe0729a3	-0.13199477
7	0x38310433	4.2204e-05
8	0xbe57a8f7	-0.21060549
9	0xbdb54063	-0.088501714
10	0xb79aed0c	-1.8468614e-05
11	0xbdba01b4	-0.09082356
12	0xbd991b54	-0.074759156
13	0x00000000	0.0
14	0x3c53edba	0.012935096
15	0xbd05366e	-0.03252261
16	0x3d7e4470	0.062076986
17	0xbdbaefeb	-0.09127792
18	0x38908277	6.890756e-05
19	0xbba27ff0	-0.004959099
20	0x3c22ce4a	0.009936878
21	0xbdde40c2	-0.10852195
22	0xbe227964	-0.1586662
23	0x00000000	0.0
24	0xbb3ec5d1	-0.0029109607
25	0x00000000	0.0
26	0xbe4fd9fd	-0.20298
27	0xbe0e7fe4	-0.13915974
28	0xbdfc116a	-0.12308009
29	0x3c759b3f	0.014990627
30	0xbcd9fd41	-0.026610019
31	0xbe045797	-0.12924038
32	0x39cce0ae	0.00039077312
33	0x3c5efb4b	0.013609718
34	0x36a63e05	4.9544055e-06
35	0x00000000	0.0
36	0xbbf77d8e	-0.007552809
37	0xbe280249	-0.16407122
38	0xbd83a493	-0.064278744
39	0xbe1baa20	-0.15201616
40	0xbd2457aa	-0.040122665
41	0xbe3314ff	-0.17488478
42	0xbe40f3f8	-0.18843067
43	0xbd8de1c0	-0.06927824
44	0x3b306f84	0.0026921937
45	0x3d0c11c5	0.034196634
46	0x3a3e07a3	0.0007249063
47	0x00000000	0.0
48	0x00000000	0.0
49	0xbd0e966b	-0.03481142
50	0xbdafe643	-0.08588841
51	0xbe011e07	-0.12609111
52	0x3b3fb252	0.0029250574
53	0xbc336406	-0.01094914
54	0x00000000	0.0
55	0x3d14bb90	0.036311686
56	0xbe2f08b6	-0.17093167
57	0x3d8a75f4	0.06760779
58	0xbdfb5135	-0.122713484
59	0xbddc8d6e	-0.10769163
60	0xbd8d3f9c	-0.06896898
61	0xbe543e16	-0.20726809
62	0xbe12eaf0	-0.14347434
63	0xbc548c28	-0.012972869
64	0x3ad9d8dd	0.0016620416
65	0x00000000	0.0
66	0x36a7b7b6	4.9983746e-06
67	0x3ab3cc00	0.0013717413
68	0xbe75701a	-0.23968545
69	0xbe2944b4	-0.16530114
70	0xbdc89911	-0.0979482
71	0xbe385640	-0.18001652
72	0x3ba952f0	0.0051673576
73	0xbe5a544c	-0.21321219
74	0xbc03b875	-0.008039583
75	0x3de556a7	0.11198168
76	0x3dd0d7e0	0.10197425
77	0xbd0f5f88	-0.035003215
78	0xbe13ee62	-0.14446405
79	0x00000000	0.0
80	0xbdbb0b23	-0.091329835
81	0xbcbb8908	-0.02289249
82	0x3a0b8d4d	0.00053234847
83	0xbd4b157d	-0.04958104
84	0x3ce6de5c	0.028182201
85	0xba2323f9	-0.0006223317
86	0x3dbf5590	0.093424916
87	0xbdfcb588	-0.12339312
88	0x3d7be1b1	0.061494533
89	0x00000000	0.0
90	0x3a994e6d	0.0011696346
91	0x3cb40c32	0.021978471
92	0x3be863ac	0.00709196
93	0xbdf26dde	-0.11837362
94	0x00000000	0.0
95	0xbda1baf6	-0.07896988
96	0x3a779f78	0.0009446065
97	0xbd7d374f	-0.061820325
98	0xbd9562e1	-0.0729425
99	0xbdf3ad07	-0.11898237
100	0xbe27dd8e	-0.1639311
101	0xbc481427	-0.012211836
102	0x3ce838e9	0.02834745
103	0xbe7e8650	-0.24855924
104	0xbd8b2409	-0.067939825
105	0x3cc06e1e	0.023490008
106	0x00000000	0.0
107	0x3d111a79	0.035425637
108	0xbe19f90e	-0.15036413
109	0xbb132fc7	-0.0022458897
110	0x3beedc39	0.007289436
111	0xbd4231e7	-0.04741087
112	0xbc30dbf1	-0.010794626
113	0xbc8cfe0a	-0.017210979
114	0xbd88b6f2	-0.06675519
115	0xbe061094	-0.13092262
116	0x3c977388	0.018487707
117	0x00000000	0.0
118	0xbe891690	-0.26775026
119	0x3bfe4eb0	0.007760845
120	0xbdfd3b78	-0.123648584
121	0xbdf8e672	-0.12153329
122	0xbe3b83ec	-0.18312043
123	0xbd7e2a0c	-0.062051818
124	0x3c98a84a	0.018634934
125	0x3d0f36e8	0.034964472
126	0xbaa80a30	-0.0012820419
127	0xbd6aebd4	-0.05735381

exp_avg_sq f4 [128]
0	0x3c014f43	0.007892433
1	0x3bb59c95	0.0055423477
2	0x3acf62f1	0.0015822334
3	0x3bf5574d	0.0074872137
4	0x3c37de89	0.01122249
5	0x3ab7de7a	0.0014028095
6	0x3b494262	0.0030709733
7	0x350a3b1b	5.1495016e-07
8	0x3c072b4a	0.008250067
9	0x3b53f460	0.0032341704
10	0x35d503c8	1.5870837e-06
11	0x3b6c8a51	0.0036093185
12	0x3b9288ed	0.004471889
13	0x00000000	0.0
14	0x3b5d2d3e	0.003374889
15	0x3acd0959	0.0015643045
16	0x3bd23a5f	0.00641565
17	0x3a5f6f5c	0.0008523369
18	0x38899bbc	6.561677e-05
19	0x3962054b	0.00021555011
20	0x3acf2889	0.0015804927
21	0x3bb843f9	0.0056233373
22	0x3bdf215c	0.0068093967
23	0x00000000	0.0
24	0x3a24c2b2	0.00062851154
25	0x00000000	0.0
26	0x3c42b4ac	0.011883896
27	0x3b325ec3	0.0027217127
28	0x3afe2615	0.0019390011
29	0x39821222	0.00024809042
30	0x3b460ec3	0.00302212
31	0x3b0960b1	0.0020962174
32	0x392ad451	0.00016291557
33	0x39cb5e30	0.00038789352
34	0x38165219	3.5839246e-05
35	0x00000000	0.0
36	0x39553880	0.00020334311
37	0x3c29bdc3	0.010360184
38	0x3bc6ca33	0.0060665845
39	0x3b77d892	0.0037818295
40	0x3b0444e3	0.0020182661
41	0x3bae09fd	0.0053112493
42	0x3c4d98a2	0.0125485975
43	0x3b96a381	0.004597128
44	0x3b6d39dd	0.003619782
45	0x3abc4b01	0.0014365615
46	0x3874b070	5.8338454e-05
47	0x00000000	0.0
48	0x00000000	0.0
49	0x3ae7b541	0.0017677919
50	0x3ad3ef86	0.0016169406
51	0x3bafda28	0.0053665824
52	0x39b6c6f6	0.00034861983
53	0x39ab8991	0.00032718157
54	0x00000000	0.0
55	0x3a9a2057	0.0011758906
56	0x3b8fa9be	0.0043842485
57	0x3bb43333	0.0054992675
58	0x3b6f69a7	0.003653148
59	0x3b2f8c14	0.0026786374
60	0x3c0cc93f	0.008592903
61	0x3bf9fdc3	0.0076291277
62	0x3bfe1e07	0.0077550444
63	0x399dd76f	0.00030105884
64	0x38826d20	6.219209e-05
65	0x00000000	0.0
66	0x3927f6ba	0.00016018274
67	0x3b7deeac	0.0038746996
68	0x3bde6029	0.0067863655
69	0x3c6c928e	0.014439238
70	0x3c163f78	0.009170406
71	0x3b653f0d	0.0034980208
72	0x38d482bf	0.00010133301
73	0x3c16c6a3	0.009202632
74	0x39a6f414	0.0003184384
75	0x3bb9ae9c	0.005666567
76	0x3b9160f2	0.0044366056
77	0x3b5ae311	0.0033399502
78	0x3baebc06	0.0053324727
79	0x00000000	0.0
80	0x3bae2fa3	0.0053157373
81	0x3b6f5a90	0.0036522485
82	0x395c3ff5	0.00021004661
83	0x3baa9836	0.0052061332
84	0x3a963817	0.0011460808
85	0x35e29f44	1.6884665e-06
86	0x3b9c35f8	0.0047671758
87	0x3b9d7b9c	0.004805995
88	0x3b22a488	0.0024817307
89	0x00000000	0.0
90	0x3934d3b5	0.00017245005
91	0x3a86824a	0.0010262218
92	0x3aa563ec	0.001261828
93	0x3b865c6e	0.004100374
94	0x00000000	0.0
95	0x3b8ef8e2	0.0043631652
96	0x3a7eb273	0.0009715922
97	0x3b428129	0.0029679036
98	0x3b6bafcd	0.003596294
99	0x3bf3598e	0.0074264472
100	0x3ba88094	0.005142281
101	0x3a05e301	0.00051073736
102	0x3b8fe1c1	0.0043909256
103	0x3be20060	0.0068970174
104	0x3aaf850d	0.0013391093
105	0x3b0f7fe1	0.002189629
106	0x00000000	0.0
107	0x3ab333a2	0.0013672004
108	0x3bec8971	0.0072185327
109	0x39ae217e	0.0003321282
110	0x39017862	0.00012347245
111	0x3a4d0daa	0.00078221655
112	0x39216261	0.00015390805
113	0x3b0d9dfb	0.0021609056
114	0x39b97274	0.00035371224
115	0x3b677ca8	0.0035322104
116	0x3a2e4022	0.000664713
117	0x00000000	0.0
118	0x3c723b0c	0.014784586
119	0x3b21758f	0.002463672
120	0x3babb658	0.005240243
121	0x3c0ee254	0.008720953
122	0x3bed1f11	0.0072363694
123	0x3b3cac4a	0.0028789216
124	0x3ab84a6a	0.0014060263
125	0x3b004a06	0.0019575371
126	0x3b0e0a08	0.002167346
127	0x3b2ca081	0.0026340785
