models/reinforce/reinforce_high_gamma/checkpoint_ep200.pth (torch, 259594 bytes, 18 tensors)

network.0.weight f4 [128, 26]
-0.03871968 -0.13222778 0.17965057 -0.124516316 -0.06188973 0.07531582 0.20736623 0.16949703
-0.12888485 -0.13876802 0.11627925 0.17330733 -0.1606459 0.2434896 0.1519813 0.20403075
0.15919252 0.17981571 0.11076102 -0.12399737 0.1724655 0.12235226 0.015197023 0.080215715
0.12588339 0.013359406 -0.074643 -0.14402886 0.008064601 -0.13621745 0.18760593 0.010539989
0.049683537 0.13590655 0.091328405 0.16996485 0.16390213 0.15378399 0.21603757 0.015536753
-0.06267402 -0.12908033 0.045976408 0.15923734 0.007150348 0.003964958 0.013286359 -0.12957795
0.16754334 0.07058916 0.010227528 -0.14412011 -0.15815559 0.17456658 0.017996421 0.11368192
0.044380974 0.057467308 -0.121842556 -0.13344435 0.048518285 0.0400964 -0.06570286 0.1584861
0.04808219 0.14616296 0.039835244 -0.19593282 -0.16100076 -0.11879751 0.18974614 -0.19221917
0.16139248 -0.11008084 0.060195986 0.05808051 -0.013965285 0.05544076 -0.13298813 0.19989565
0.043585777 -0.031365834 0.1929439 -0.017049683 0.037267573 -0.12770993 -0.08282518 0.1458605
0.1172874 0.00037170522 -0.10477813 0.01723954 0.23286788 0.061044805 0.2004743 0.020779075
0.15525164 0.08054774 0.22323546 0.117129095 -0.059408337 0.15842497 0.17249589 0.13513324
-0.010742528 -0.093995966 0.10748434 0.067152284 0.21914831 0.029941086 0.060878716 0.15053226
-0.054056503 0.11432124 0.24127671 0.114848025 -0.13737664 0.22293645 0.017572965 -0.000945561
0.0836073 -0.14580444 0.08296484 -0.025587473 -0.05261512 0.0029447 0.007907728 0.06564591
-0.1303287 -0.054443378 -0.037047584 -0.14103372 -0.107376896 -0.12103375 -0.13386855 0.19784534
0.17069346 0.17387557 0.0474405 -0.09900198 -0.104678035 0.20076701 0.08273074 -0.022429585
-0.19343631 0.20566814 0.1431482 -0.028646136 -0.01394708 -0.1385741 0.1876418 -0.05073954
-0.15343323 0.032489054 -0.14468619 -0.07637686 -0.10109005 -0.12678017 0.16342938 0.053617615
-0.16712695 -0.0968198 0.048219196 0.20034416 -0.09624384 -0.109620176 -0.15403894 0.20179197
-0.16473229 -0.17365898 -0.12092287 -0.017069848 -0.15188421 0.10320339 0.04450456 -0.01232717
0.16556837 -0.027793463 0.09493233 -0.07418241 0.14175688 0.15977372 0.16767867 -0.0072120787
-0.1742632 -0.14810209 0.13031237 -0.09759418 0.1450841 0.13358298 -0.104603216 -0.16421212
0.010683004 -0.17394982 0.11067654 -0.05672471 -0.15988085 0.096203074 0.114686675 -0.14974396
-0.05904726 0.031074036 -0.16591872 0.009792726 -0.17756559 -0.13494448 -0.019770138 -0.04117583
-0.030358555 0.00023580852 0.21993725 -0.0018292868 -0.009662071 -0.049782287 0.055175517 -0.11735993
0.101825766 -0.0943641 -0.06596971 -0.13914447 0.13926029 0.1604199 -0.0365192 0.2296595
0.08470728 0.06831545 0.17918304 0.020318229 0.10663609 0.10738592 0.17637296 0.046677377
-0.055315763 0.004163763 -0.17769662 0.06554754 0.10733545 0.101306126 0.12241625 0.020612165
0.16647783 0.094982386 -0.19348231 0.15383525 -0.19058158 0.1669816 0.085786246 0.17238514
0.15329891 0.14217873 -0.071504004 -0.18092982 -0.1734647 -0.024187708 0.018915886 -0.10325301
00000000: 8798 1ebd b866 07be 52f6 373e 6902 ffbd
00000010: 1680 7dbd 2e3f 9a3d d057 543e a190 2d3e
00000020: 64fa 03be 3419 0ebe d123 ee3d 7a77 313e
00000030: 5c80 24be 5655 793e fca0 1b3e 70ed 503e
00000040: 5d03 233e 9c21 383e acd6 e23d 55f2 fdbd
00000050: cc9a 303e d293 fa3d effc 783c 2348 a43d
00000060: 93e7 003e 69e1 5a3c 6ede 98bd 4d7c 13be
00000070: 6321 043c 967c 0bbe c51b 403e ebaf 2c3c
00000080: f780 4b3d 162b 0b3e 630a bb3d 440b 2e3e
00000090: f6d5 273e 8d79 1d3e f438 5d3e de8d 7e3c
000000a0: 3d5b 80bd a22d 04be c251 3c3d 1d0f 233e
000000b0: 774d ea3b 7aec 813b 07af 593c 15b0 04be
000000c0: 7b90 2b3e 0d91 903d 5d91 273c 3994 13be
000000d0: 8af3 21be 95c1 323e 3b6d 933c 11d2 e83d
000000e0: d3c8 353d d762 6b3d 9788 f9bd a3a5 08be
000000f0: 1cbb 463d 1f3c 243d 398f 86bd 2e4a 223e
00000100: d5f1 443d beab 153e 482a 233d 9da2 48be
00000110: 62dd 24be 1c4c f3bd d04c 423e 1ad5 44be
00000120: 1244 253e 1072 e1bd 1190 763d d4e5 6d3d
00000130: a7ce 64bc da15 633d 0a2e 08be 72b1 4c3e
00000140: 0087 323d 7679 00bd 1693 453e c7ab 8bbc
00000150: e2a5 183d 64c6 02be 3fa0 a9bd 745c 153e
00000160: 6034 f03d 6ee1 c239 eb95 d6bd f039 8d3c
00000170: eb74 6e3e 1e0a 7a3d 2349 4d3e e138 aa3c
00000180: 49fa 1e3e 37f6 a43d d697 643e 61e1 ef3d
00000190: 2856 73bd 283a 223e c3a2 303e 5e60 0a3e
000001a0: 6e01 30bc f580 c0bd c020 dc3d 2387 893d
000001b0: 6a68 603e 0247 f53c f65b 793d 2125 1a3e
000001c0: 5a6a 5dbd 4121 ea3d 3e11 773e 7135 eb3d
000001d0: 76ac 0cbe 7449 643e 2ef5 8f3c 86df 77ba
000001e0: 4e3a ab3d c24d 15be 78e9 a93d d29c d1bc
000001f0: f482 57bd defb 403b 6a8f 013c 5d71 863d
00000200: e374 05be 0500 5fbd 35bf 17bd 256b 10be
00000210: 6be8 dbbd 8be0 f7bd d614 09be f897 4a3e
00000220: 44ca 2e3e 700c 323e f850 423d 8dc1 cabd
00000230: 7061 d6bd de95 4d3e bc6e a93d 40be b7bc
00000240: 2b14 46be ab9a 523e 7195 123e 4dab eabc
00000250: 4b82 64bc 5ee6 0dbe 2c25 403e 44d4 4fbd
00000260: 9a1d 1dbe 3e13 053d 9e28 14be 796b 9cbd
00000270: 4d08 cfbd a9d2 01be 085a 273e 259e 5b3d
00000280: 5423 2bbe 7649 c6bd 7e81 453d 0527 4d3e
00000290: 7e1b c5bd 8b80 e0bd 62bc 1dbe 8ea2 4e3e
000002a0: 95af 28be a9d3 31be 69a6 f7bd 11d6 8bbc
000002b0: 8987 1bbe 4d5c d33d 6a4a 363d e6f7 49bc
000002c0: c18a 293e 1eaf e3bc e26b c23d f3ec 97bd
000002d0: b728 113e b99b 233e f5b3 2b3e 4d53 ecbb
000002e0: 0d72 32be 13a8 17be 9b70 053e 75df c7bd
000002f0: ed90 143e fac9 083e 363a d6bd 3927 28be
00000300: c407 2f3c e71f 32be 62aa e23d 2b58 68bd
00000310: ceb7 23be 1e06 c53d d9e0 ea3d 7b56 19be
00000320: 8adb 71bd fa8e fe3c 99e6 29be ab71 203c
00000330: c1d3 35be e32e 0abe fcf4 a1bc fda7 28bd
00000340: 81b2 f8bc 5e43 7739 3b37 613e aec4 efba
00000350: aa4d 1ebc 83e8 4bbd b9ff 613d 675a f0bd
00000360: 078a d03d f741 c1bd 211b 87bd e37b 0ebe
00000370: 409a 0e3e 1d45 243e 2895 15bd dc2b 6b3e
00000380: 037b ad3d f8e8 8b3d c27b 373e 6a72 a63c
00000390: 0664 da3d 26ed db3d 1d9b 343e c730 3f3d
000003a0: c892 62bd 2d70 883b 1af6 35be ca3d 863d
000003b0: b0d2 db3d 9679 cf3d 5fb5 fa3d d8da a83c
000003c0: 2a79 2a3e 2086 c23d 3a20 46be fd86 1d3e
000003d0: d127 43be 39fd 2a3e b3b0 af3d bb85 303e
000003e0: 64fa 1c3e 4d97 113e b170 92bd ab45 39be
000003f0: bba0 31be 4d25 c6bc 7df5 9a3c 5076 d3bd

network.0.bias f4 [128]
0.16780105 -0.08786141 -0.04434913 0.009133265 0.19961472 0.005714841 0.03879426 0.0059286226
0.08381923 0.14005466 -0.04676925 0.11041144 0.054301083 -0.015009339 -0.16408698 -0.111889094
0.20601228 -0.15778469 -0.16854894 0.15336941 -0.07170057 0.034818012 -0.061972745 -0.052977532
0.18872616 -0.0060967803 0.17710605 -0.10243545 -0.0033200008 -0.06996617 0.14435467 0.20280577
-0.10320834 -0.088317476 0.106868796 -0.07056108 0.07436159 0.1752754 0.039378267 -0.023465717
-0.123993106 0.19599609 0.01592665 0.09858854 -0.069667734 0.17283903 -0.07527083 -0.1034757
0.12300502 -0.13530375 0.12079343 0.10460474 -0.08995874 -0.1844923 -0.095150955 -0.11550395
0.10732505 -0.08630701 0.15982588 0.0114711495 0.085825264 -0.025316525 0.11449658 -0.11251657
0.11282487 -0.077804394 -0.1524179 0.13420291 0.15745951 0.22160318 0.12137256 -0.13113715
0.040669255 0.18875611 0.16939801 0.18370694 0.031162575 0.050718352 -0.093933485 -0.07027075
0.19856443 0.0067094075 0.09131893 0.23089617 -0.036843136 -0.1235268 -0.0071218195 -0.014579649
0.0349852 -0.02281873 -0.11881439 0.035806186 -0.036620576 0.06590579 -0.00014580786 0.065835275
-0.08100186 -0.07264558 0.06302948 0.13655758 0.052467674 -0.00839737 0.10604121 0.055407126
0.10711009 -0.16212016 0.13694353 -0.10250117 0.078742206 -0.03575242 -0.12965862 0.13216688
-0.015518395 0.023751665 0.096067525 -0.09748367 0.121670276 -0.11082943 0.13829078 -0.077609025
0.14962949 0.08140715 -0.038280986 0.061844304 -0.048172526 0.038332745 -0.075262696 0.11383684
00000000: 0ad4 2b3e aff0 b3bd 6fa7 35bd b1a3 153c
00000010: cd67 4c3e 9043 bb3b bbe6 1e3d e444 c23b
00000020: 6ba9 ab3d 7d6a 0f3e 1d91 3fbd 651f e23d
00000030: d06a 5e3d bbe9 75bc 6b06 28be 1c26 e5bd
00000040: e2f4 523e 4f92 21be 1898 2cbe df0c 1d3e
00000050: c0d7 92bd 559d 0e3d 22d7 7dbd f8fe 58bd
00000060: 6e41 413e 80c7 c7bb 4a5b 353e adc9 d1bd
00000070: 5f94 59bb 6c4a 8fbd b6d1 133e 51ac 4f3e
00000080: e55e d3bd cbdf b4bd 07de da3d 5482 90bd
00000090: e44a 983d 657b 333e 1b4b 213d 2d3b c0bc
000000a0: 19f0 fdbd 33b3 483e 9b78 823c cae8 c93d
000000b0: f5ad 8ebd b7fc 303e 9827 9abd 11eb d3bd
000000c0: 0eea fb3d 118d 0abe 8c62 f73d 033b d63d
000000d0: 4a3c b8bd 8deb 3cbe 81de c2bd 568d ecbd
000000e0: 3ccd db3d bbc1 b0bd 65a9 233e 7df1 3b3c
000000f0: 28c5 af3d 9a64 cfbc 2f7d ea3d 166f e6bd
00000100: ba10 e73d e957 9fbd 7013 1cbe 7d6c 093e
00000110: 113d 213e f2eb 623e 2d92 f83d d148 06be
00000120: ce94 263d 4849 413e ac76 2d3e ac1d 3c3e
00000130: a848 ff3c 0cbe 4f3d 3360 c0bd 1cea 8fbd
00000140: 7954 4b3e 97da db3b 6b05 bb3d 0c70 6c3e
00000150: d4e8 16bd 9efb fcbd 275e e9bb 7bdf 6ebc
00000160: a44c 0f3d 58ee babc f554 f3bd 82a9 123d
00000170: 75ff 15bd 9df9 863d 00e4 18b9 a5d4 863d
00000180: 4ee4 a5bd 35c7 94bd 9a15 813d c0d5 0b3e
00000190: 58e8 563d 1f95 09bc 222c d93d 95f2 623d
000001a0: 895c db3d d402 26be ed3a 0c3e 22ec d1bd
000001b0: 9843 a13d 2171 12bd 3bc5 04be c156 073e
000001c0: de40 7ebc da92 c23c 0dbf c43d 85a5 c7bd
000001d0: 442e f93d 8afa e2bd 199c 0d3e 7bf1 9ebd
000001e0: 7938 193e cbb8 a63d 86cc 1cbd 7450 7d3d
000001f0: 8e50 45bd cc02 1d3d 5423 9abd 4a23 e93d

network.2.weight f4 [128, 128]
-0.061989546 0.022150619 0.09357207 0.07824409 0.017939448 -0.050579865 -0.06031571 -0.03023032
0.025654148 -0.08028706 0.08917776 0.068893306 -0.007989885 -0.026358662 0.08887641 0.020792995
0.08205775 0.04688693 -0.029162556 0.06035566 0.038491845 0.008320082 -0.048615925 0.08086749
0.050931122 0.06798106 -0.052915692 -0.08622107 -0.0328342 -0.08910814 0.04111935 0.060094133
0.015016453 -0.06936705 -0.046011332 -0.020717189 -0.009986768 0.021334767 0.07749736 0.059596755
-0.08710915 0.012008269 0.0459253 -0.04983374 0.108872235 0.074393 -0.052467294 -0.025190897
0.017333858 0.066926405 0.05544924 0.06161486 -0.059889067 -0.0066622566 0.05584655 -0.049963977
0.034168318 0.011885616 -0.043741155 -0.043599956 0.016653258 -0.023321897 0.06321829 0.025377858
0.06518843 0.07822885 -0.0035286846 -0.025098672 0.00076897 -0.06095934 0.08274755 -0.09039146
0.09041972 0.037749514 -0.048043158 0.0631729 0.010073622 -0.030475074 -0.03378936 0.015702575
-0.053713884 0.023155026 -0.025536297 0.022987185 0.033044785 -0.09906162 0.070262656 -0.006810894
0.005329893 0.013425238 -0.049677815 -0.068274274 -0.030783294 0.04754833 -0.04585263 -0.023158606
-0.02757293 -0.07239223 -0.052060883 -0.05404218 0.060806204 -0.023723671 0.016100641 -0.04971565
-0.0140694445 0.0571103 -0.072552934 -0.08099175 0.003240054 -0.00323055 0.006274153 0.027840735
-0.030565286 0.061178733 -0.07106148 0.07009149 -0.017361037 -0.08438809 0.09149401 -0.07180156
-0.0117210485 -0.012654172 -0.048911594 0.023602631 -0.02030273 0.009897578 0.059890136 -0.04549969
-0.006486628 -0.07782505 -0.06160803 -0.077699006 0.022343775 0.049754426 -0.035540625 0.076934166
-0.017693508 -0.06664831 0.020455822 -0.06783146 -0.090795346 -0.008387983 0.046315085 0.07175497
0.07457946 0.034858562 -0.0148080215 -0.07168904 -0.08376473 -0.011332599 0.016138345 0.0051291957
0.049562056 0.038086884 0.021157015 -0.043193378 -0.08695169 -0.035962388 -0.037133556 0.014984934
-0.019194158 -0.03219757 0.07259444 -0.07784106 -0.0853169 -0.0509856 0.019545736 0.015414279
0.014416967 0.07963051 -0.01283572 -0.044851243 0.08525254 0.024695545 0.016598284 0.042872585
-0.041130845 -0.058308873 -0.0578451 0.036126144 0.027874505 0.042829134 -0.02903866 -0.014078066
0.004082424 -0.028153893 0.07662292 -0.001360497 -0.037372615 -0.08643802 -0.05942324 0.034160044
-0.003936477 -0.0012786537 -0.044678904 -0.033338606 -0.038483933 0.009148992 0.0150229335 -0.00435366
0.08713772 0.05721372 0.08768482 -0.07842863 0.057493784 -0.05515992 0.03462074 -0.066621214
-0.05514004 -0.043353803 -0.01994136 -0.016862782 -0.06372443 0.00477916 -0.046453122 -0.06673423
-0.007195182 0.012740068 0.0823031 -0.06345753 -0.052291986 -0.060977735 0.06973756 -0.033436358
0.013308118 0.007406921 0.014468171 0.014176511 -0.07987598 -0.082850575 -0.03958197 -0.051962607
0.04545562 -0.06903966 -0.070799604 -0.057381533 0.030729719 0.013485149 0.027943075 -0.043385062
-0.03330445 -0.030733282 0.07404257 -0.08521374 0.016555833 -0.015330747 0.019155113 0.07175111
0.042961534 -0.023032064 -0.0029201843 -0.019297784 0.048731636 0.07450444 0.06674849 -0.012035431
00000000: c0e8 7dbd 3775 b53c b7a2 bf3d 703e a03d
00000010: c0f5 923c d52c 4fbd 9b0d 77bd 93a5 f7bc
00000020: a628 d23c 8b6d a4bd d4a2 b63d ef17 8d3d
00000030: 02e8 02bc 1fee d7bc d604 b63d 1256 aa3c
00000040: e50d a83d 820c 403d 50e6 eebc 7f37 773d
00000050: a0a9 1d3d f450 083c 7e21 47bd db9d a53d
00000060: 279d 503d a739 8b3d 20be 58bd ac94 b0bd
00000070: 277d 06bd 547e b6bd c36c 283d 4425 763d
00000080: 9207 763c 5010 8ebd 6176 3cbd 18b7 a9bc
00000090: 8a9f 23bc 40c6 ae3c f0b6 9e3d ba1b 743d
000000a0: 4866 b2bd 55be 443c 2b1c 3c3d 771e 4cbd
000000b0: 68f8 de3d 5b5b 983d f2e7 56bd 245d cebc
000000c0: bcff 8d3c b610 893d be1e 633d dd5f 7c3d
000000d0: 3d4e 75bd 0f4f dabb 5abf 643d 07a7 4cbd
000000e0: 14f4 0b3d e3bb 423c ed29 33bd de95 32bd
000000f0: 6a6c 883c 900d bfbc 9778 813d 3ae5 cf3c
00000100: 8381 853d 7336 a03d 8141 67bb bb9b cdbc
00000110: b494 493a 80b0 79bd 8c77 a93d 281f b9bd
00000120: f92d b93d 3c9f 1a3d e7c8 44bd cb60 813d
00000130: d50b 253c dda6 f9bc b666 0abd b0a2 803c
00000140: 1703 5cbd 9caf bd3c 7f31 d1bc 9f4f bc3c
00000150: f859 073d d2e0 cabd dee5 8f3d eb2d dfbb
00000160: 62a6 ae3b 88f5 5b3c f77a 4bbd 62d3 8bbd
00000170: 3f2d fcbc 0ac2 423d f8cf 3bbd 1eb7 bdbc
00000180: a0e0 e1bc 6142 94bd cb3d 55bd 555b 5dbd
00000190: ed0f 793d 2558 c2bc 7ee5 833c a3a2 4bbd
000001a0: 8783 66bc 7dec 693d a296 94bd 01df a5bd
000001b0: 1657 543b a3b7 53bb 6997 cd3b 4112 e43c
000001c0: 0d64 fabc 8d96 7a3d ae88 91bd 218c 8f3d
000001d0: bc38 8ebc aad3 acbd 3661 bb3d b20c 93bd
000001e0: a409 40bc 7253 4fbc 8657 48bd 4e5a c13c
000001f0: e951 a6bc 7329 223c 5c4f 753d e25d 3abd
00000200: c88d d4bb bd62 9fbd b458 7cbd a820 9fbd
00000210: 4b0a b73c 4ccb 4b3d 0c93 11bd a98f 9d3d
00000220: faf1 90bc e97e 88bd f892 a73c 38eb 8abd
00000230: e9f2 b9bd c06d 09bc e3b4 3d3d 45f4 923d
00000240: 1ebd 983d dac7 0e3d 589d 72bc b4d1 92bd
00000250: d88c abbd 5eac 39bc 9034 843c d012 a83b
00000260: 9501 4b3d fe00 1c3d 7a51 ad3c 8aeb 30bd
00000270: ba13 b2bd 4c4d 13bd 5b19 18bd 5e83 753c
00000280: 113d 9dbc 99e1 03bd 65ac 943d 226b 9fbd
00000290: a0ba aebd 47d6 50bd 611e a03c 2c8c 7c3c
000002a0: 2435 6c3c 5215 a33d e94c 52bc f0b5 37bd
000002b0: e298 ae3d 504e ca3c 20f9 873c 2a9b 2f3d
000002c0: d178 28bd 49d5 6ebd fcee 6cbd 02f9 133d
000002d0: 1359 e43c 9a6d 2f3d 7ce2 edbc b0a7 66bc
000002e0: dbc5 853b fea2 e6bc 7aec 9c3d b452 b2ba
000002f0: 0714 19bd 6b06 b1bd c965 73bd 67eb 0b3d
00000300: 90fd 80bb 8098 a7ba 3a01 37bd 108e 08bd
00000310: 54a1 1dbd a7e5 153c c022 763c 26a9 8ebb
00000320: 4375 b23d ef58 6a3d 1994 b33d 319f a0bd
00000330: 9a7e 6b3d 5eef 61bd 7ace 0d3d b470 88bd
00000340: 86da 61bd c293 31bd 105c a3bc d123 8abc
00000350: f481 82bd 809a 9c3b a145 3ebd f5ab 88bd
00000360: 90c5 ebbb b8bb 503c 878e a83d 06f6 81bd
00000370: 1f30 56bd cac3 79bd 91d2 8e3d 90f4 08bd
00000380: 4b0a 5a3c c2b5 f23b e80b 6d3c 9944 683c
00000390: 0596 a3bd 90ad a9bd b420 22bd bed6 54bd
000003a0: ac2f 3a3d aa64 8dbd 62ff 90bd e608 6bbd
000003b0: e4bc fb3c d0f0 5c3c e0e8 e43c 89b4 31bd
000003c0: 3f6a 08bd 5dc4 fbbc a2a3 973d 8b84 aebd
000003d0: 19a0 873c d02d 7bbc 2feb 9c3c 3ff2 923d
000003e0: 6ff8 2f3d bdad bcbc 9060 3fbb 6316 9ebc
000003f0: d39a 473d c995 983d 6fb3 883d 4230 45bc

network.2.bias f4 [128]
0.09717672 -0.01321959 -0.023179136 0.030967742 -0.054185633 -0.03976492 0.10613059 -0.086818404
0.015709307 0.005213721 -0.03941947 -0.1016779 -0.032603897 -0.037280034 -0.07842547 0.020150542
0.0067250086 -0.019887649 -0.06934576 0.019267764 0.022800328 0.010922233 -0.022720555 -0.058959994
0.010942425 -0.020326352 -0.030068668 -0.0043806285 0.01162676 -0.04161136 -0.05313299 -0.08795439
-0.014814379 0.07817922 0.09668378 0.02453279 -0.03672128 0.030314095 -0.0690279 -0.031687386
0.026592676 0.06815633 -0.0724941 -0.023068639 0.07060977 0.066605315 -0.015348831 -0.08469427
0.06638348 0.02638109 0.04381355 0.09623922 0.043599345 -0.023219956 -0.0685142 -0.02699199
-0.044702895 -0.028524693 0.0011135956 0.031165069 -0.089106895 0.050046984 -0.010754537 -0.0149614345
-0.094813 0.00543657 0.012017473 -0.02657047 0.036150567 0.037770547 0.07672681 0.04134441
0.07806519 0.06467153 0.050497085 0.087460496 0.04259275 -0.0030771487 0.12251747 0.054601625
0.091793485 0.029235622 0.072007336 0.0007463079 -0.077217095 -0.087964475 -0.0152559895 -0.0034173827
-0.05257371 0.03745734 -0.066490546 -0.014866259 -0.09192381 -0.0350333 0.058908843 0.05941656
0.008908881 -0.054676857 -0.033388466 0.06259649 -0.006795834 -0.033601377 0.054183166 0.0028426629
0.04755224 0.032256704 -0.014220178 -0.047623042 -0.03108262 0.018919215 -0.059514448 0.06170789
0.027290985 0.004693785 0.063090116 -0.009780638 -0.001196468 0.040274248 -0.041220304 -0.0329557
0.07090415 -0.050057184 0.035754737 0.07070029 -0.04356403 -0.05334682 0.00079202134 -0.044008307
00000000: 9704 c73d fb96 58bc 2ce2 bdbc 10b0 fd3c
00000010: c1f1 5dbd 8ae0 22bd ff5a d93d d9cd b1bd
00000020: ceb0 803c ddd7 aa3b 4f76 21bd 813c d0bd
00000030: aa8b 05bd f3b2 18bd 889d a0bd c012 a53c
00000040: 765d dc3b 6ceb a2bc 2605 8ebd 6ed7 9d3c
00000050: c1c7 ba3c 2af3 323c 7520 babc 0980 71bd
00000060: db47 333c 7383 a6bc 9152 f6bc 608b 8fbb
00000070: 2a7e 3e3c ac70 2abd faa1 59bd 6e21 b4bd
00000080: 02b8 72bc 6d1c a03d 2502 c63d fdf8 c83c
00000090: 0e69 16bd 4455 f83c 805e 8dbd a2ca 01bd
000000a0: e2d8 d93c 8c95 8b3d c977 94bd 71fa bcbc
000000b0: db9b 903d 5e68 883d aa79 7bbc 3074 adbd
000000c0: 10f4 873d 281d d83c d675 333d 1119 c53d
000000d0: 3a95 323d c737 bebc 2c51 8cbd 4e1e ddbc
000000e0: 621a 37bd 9eac e9bc 11f6 913a e34d ff3c
000000f0: ad7d b6bd 11fe 4c3d cc33 30bc ce20 75bc
00000100: 512d c2bd 4125 b23b efe4 443c 50aa d9bc
00000110: 9e12 143d 4ab5 1a3d f222 9d3d c258 293d
00000120: a4e0 9f3d 8272 843d 08d6 4e3d 7d1e b33d
00000130: bc75 2e3d fda9 49bb 70ea fa3d f4a5 5f3d
00000140: 39fe bb3d 8b7f ef3c 9578 933d e0a3 433a
00000150: ff23 9ebd b826 b4bd 42f4 79bc 2bf6 5fbb
00000160: 8857 57bd de6c 193d 322c 88bd 9c91 73bc
00000170: 8d42 bcbd 147f 0fbd 664a 713d c75e 733d
00000180: 8ef6 113c d7f4 5fbd 58c2 08bd 9732 803d
00000190: 96af debb 99a1 09bd 2bef 5d3d f84b 3a3b
000001a0: 23c6 423d 9b1f 043d c0fb 68bc 6110 43bd
000001b0: fba0 febc 78fc 9a3c 6cc5 73bd 6ac1 7c3d
000001c0: 5891 df3c 53ce 993b 6435 813d f83e 20bc
000001d0: ced2 9cba 9cf6 243d 9fd6 28bd 8efc 06bd
000001e0: 3236 913d c308 4dbd 8f73 123d 50cb 903d
000001f0: 3270 32bd 3282 5abd a79f 4f3a 0e42 34bd

network.4.weight f4 [8, 128]
0.05353839 -0.06355669 0.078521185 -0.092266954 0.07816431 0.04645673 0.07175108 -0.07340393
0.0074385446 0.06182547 -0.07673347 0.05037476 -0.0003505051 0.062008984 0.049706973 0.0041584894
-0.033804897 -0.04934435 0.0016166195 0.047457762 -0.05857032 -0.066498555 -0.09795887 -0.0948713
-0.026577193 0.0063629597 -0.088273205 -0.05868291 0.053270526 -0.08912236 0.03703894 -0.042235557
-0.09257185 0.0028039399 -0.10741767 0.037651025 -0.021919863 0.056223944 0.009267166 0.098497465
0.06696451 -0.063715816 0.019184075 0.061476834 -0.013714988 0.012475407 -0.1207255 0.037435364
-0.058793724 0.029780556 -0.051979728 0.053337116 0.03523051 0.034619045 0.047671787 -0.027972758
0.056679137 -0.07333376 0.031904273 0.035285883 -0.048532873 -0.045525365 0.031819895 0.01647977
0.0035202685 -0.03866156 0.004760382 0.035620145 -0.0108066965 -0.032022342 -0.091893025 0.031091701
0.00097080524 0.03348324 -0.024375733 -0.043242384 0.0860526 0.061525967 -0.050678656 0.03849453
0.019435493 -0.085577264 -0.08231212 -0.08282038 0.050139178 -0.0019899972 -0.06430896 -0.03176485
-0.08471233 -0.002615191 0.06986168 -0.012800053 -0.019255962 0.08129784 -0.027345978 0.068627365
-0.0173501 0.05420451 -0.0016807589 0.07016972 0.06246394 0.020217745 -0.020104308 0.022459626
-0.11132336 0.011859538 0.01650048 -0.112160094 0.005530632 -0.03822326 0.0114832455 0.06388394
0.046357147 -0.09772155 -0.09814055 0.046529703 0.018392581 -0.020856846 0.043676592 -0.037673637
-0.05353106 -0.050931174 -0.029936738 -0.01623778 -0.089084335 0.008563482 -0.049650934 -0.036502175
0.07317953 0.008103028 0.07728089 0.11764941 0.040065955 -0.063000485 0.046174064 -0.028764497
0.06899223 0.03243401 0.08660642 -0.04238785 0.010399558 0.010596886 0.06133339 -0.0075293556
0.057366632 0.025294935 0.030303843 -0.015977772 0.0015989726 0.057608623 0.07545407 0.008594308
0.100392066 -0.049749624 -0.0735903 -0.039034557 -0.05473592 -0.07345838 -0.07024813 0.04543782
0.07030122 -0.06677162 0.06050074 0.002703147 -0.016403195 0.08140104 -0.041191675 0.04201487
0.021005118 0.09158584 0.06378103 -0.013728094 0.07982154 0.07843213 0.071860895 -0.0781121
0.07455385 0.106098235 0.035922043 0.04110498 -0.02143386 0.03127832 0.08367304 0.049173154
0.0064199865 -0.01986515 -0.012144074 0.04886148 -0.0549828 0.023721343 -0.07653583 0.010129731
-0.05903577 0.073679425 -0.064384565 -0.021785738 0.05103506 -0.05192239 0.017883668 0.019642873
-0.038062885 -0.06424407 0.01609322 0.041145965 0.086548485 -0.0058156773 0.0064356653 -0.014678604
0.09444969 0.09438239 0.0297268 0.07370319 0.032216936 -0.026754158 -0.036888015 -0.023100808
0.037021838 -0.06527926 -0.021430992 0.10051397 0.038452674 -0.031319983 -0.027135527 -0.038789626
-0.01770534 0.04118854 -0.020129915 0.053746503 -0.09255209 0.03112698 0.08215245 -0.020412609
0.07660147 -0.050749358 -0.043787036 0.02659651 0.0813286 0.046162687 0.03527089 -0.04032389
0.0051850807 0.10008388 -0.053049963 -0.05623832 0.009442457 -0.0055734846 -0.029225413 -0.035297494
0.09834343 0.09794387 0.11314398 -0.07911944 -0.0030063328 -0.0025384154 0.11470274 0.1066724
00000000: 124b 5b3d 032a 82bd b7cf a03d 75f6 bcbd
00000010: 9c14 a03d 6a49 3e3d 3bf2 923d cd54 96bd
00000020: 09bf f33b b43c 7d3d 7026 9dbd c455 4e3d
00000030: 00c4 b7b9 22fd 7d3d 8a99 4b3d f043 883b
00000040: 0177 0abd 4d1d 4abd c0e4 d33a 1263 423d
00000050: 6fe7 6fbd 6530 88bd a99e c8bd e24b c2bd
00000060: 6ab8 d9bc 6080 d03b 95c8 b4bd 7e5d 70bd
00000070: 3232 5a3d c985 b6bd 25b6 173d 31ff 2cbd
00000080: 4f96 bdbd 4ec2 373b ccfd dbbd f637 1a3d
00000090: 4991 b3bc 144b 663d 50d5 173c 0ab9 c93d
000000a0: b024 893d 707d 82bd ec27 9d3c 22cf 7b3d
000000b0: d4b4 60bc a665 4c3c ee3e f7bd d355 193d
000000c0: b0d1 70bd 5af6 f33c b2e8 54bd 0578 5a3d
000000d0: de4d 103d b3cc 0d3d 7e43 433d 2027 e5bc
000000e0: 6228 683d 0330 96bd 0eae 023d ee87 103d
000000f0: 68ca 46bd ce78 3abd 9455 023d 9500 873c
00000100: 4eb4 663b 955b 1ebd fbfc 9b3b 6ee6 113d
00000110: 920e 31bc dc29 03bd 6932 bcbd 06b4 fe3c
00000120: a37d 7e3a b925 093d 9eaf c7bc ed1e 31bd
00000130: 583c b03d a702 7c3d 6c94 4fbd 71ac 1d3d
00000140: 2f37 9f3c 2243 afbd 4293 a8bd bb9d a9bd
00000150: bd5e 4d3d 9d6a 02bb 6bb4 83bd dc1b 02bd
00000160: a87d adbd a063 2bbb a413 8f3d 50b7 51bc
00000170: aebe 9dbc 7b7f a63d ac04 e0bc 818c 8c3d
00000180: cc21 8ebc 8c05 5e3d e94c dcba 24b5 8f3d
00000190: 30da 7f3d af9f a53c cab1 a4bc 40fd b73c
000001a0: 80fd e3bd 824e 423c 042c 873c 31b4 e5bd
000001b0: 4e3a b53b fe8f 1cbd 3924 3c3c 95d5 823d
000001c0: fee0 3d3d 3c22 c8bd eafd c8bd ee95 3e3d
000001d0: 0aac 963c fadb aabc 3ae6 323d ac4f 1abd
000001e0: 6343 5bbd 359d 50bd e43d f5bc 1805 85bc
000001f0: d971 b6bd d94d 0c3c c75e 4bbd 4e83 15bd
00000200: 26df 953d 90c2 043c 7145 9e3d 2df2 f03d
00000210: 331c 243d 6606 81bd 0421 3d3d 86a3 ebbc
00000220: cc4b 8d3d 86d9 043d b55e b13d e29e 2dbd
00000230: e862 2a3c 909e 2d3c b938 7b3d d0b8 f6bb
00000240: 46f9 6a3d 5337 cf3c c43f f83c d1e3 82bc
00000250: 9e94 d13a 05f7 6b3d aa87 9a3d 24cf 0c3c
00000260: 5b9a cd3d 43c6 4bbd 83b6 96bd b3e2 1fbd
00000270: c632 60bd 5971 96bd 40de 8fbd 021d 3a3d
00000280: 16fa 8f3d 8fbf 88bd a0cf 773d 4827 313b
00000290: fe5f 86bc 97b5 a63d 9ab8 28bd c917 2c3d
000002a0: ed12 ac3c 5b91 bb3d a19f 823d cdeb 60bc
000002b0: 7a79 a33d 06a1 a03d ce2b 933d 3df9 9fbd
000002c0: b0af 983d 084a d93d fe22 133d b25d 283d
000002d0: 1096 afbc b21d 003d c55c ab3d ca69 493d
000002e0: c05e d23b 3dbc a2bc f0f7 46bc fa22 483d
000002f0: a535 61bd 4353 c23c d1be 9cbd 2cf7 253c
00000300: 7ecf 71bd 3de5 963d 0edc 83bd 0178 b2bc
00000310: 240a 513d 92ac 54bd c580 923c 17ea a03c
00000320: d4e7 1bbd 6592 83bd eed5 833c ac88 283d
00000330: 5540 b13d 7091 bebb 46e2 d23b 877e 70bc
00000340: d76e c13d 8e4b c13d 9e85 f33c b3f1 963d
00000350: e8f5 033d 892b dbbc e317 17bd e83d bdbc
00000360: 36a4 173d 22b1 85bd 0c90 afbc 45da cd3d
00000370: 8d80 1d3d 6249 00bd 534b debc dfe1 1ebd
00000380: ca0a 91bc 51b5 283d 7ee7 a4bc 4b25 5c3d
00000390: f38b bdbd 02fe fe3c 8b3f a83d 5838 a7bc
000003a0: 3be1 9c3d 8fde 4fbd 095a 33bd ede0 d93c
000003b0: 9c8f a63d 1615 3d3d 3578 103d aa2a 25bd
000003c0: 9ce7 a93b c7f8 cc3d eb4a 59bd 275a 66bd
000003d0: 89b4 1a3c c7a1 b6bb 226a efbc 1b94 10bd
000003e0: 4868 c93d cc96 c83d 08b8 e73d 5f09 a2bd
000003f0: e505 45bb 8b5b 26bb 45e9 ea3d 0f77 da3d

network.4.bias f4 [8]
0.023008252 0.050122075 0.041310526 0.084362894 0.020387154 -0.0184201 -0.052449316 0.025108779
00000000: cd7b bc3c ce4c 4d3d 3a35 293d 74c6 ac3d
00000010: f602 a73c c0e5 96bc 18d5 56bd edb0 cd3c

exp_avg f4 [128, 26]
-0.02245411 -0.019881193 -0.004099573 -0.020552471 -0.022530429 -0.053658918 -0.050416645 0.030023128
-0.046781205 -0.044832665 0.023817146 0.04050452 -0.042399667 0.028461425 0.025331778 -0.044216312
0.029288543 0.047362506 0.027426027 0.044675793 0.020093996 0.02197029 0.020846952 0.011005156
0.021318894 0.021427408 -0.016232956 -0.010689913 -0.014844201 -0.009168151 -0.010630132 -0.032507952
-0.036392316 -0.023675593 -0.032964043 -0.02753112 -0.016620802 -0.011733031 -0.014312815 -0.019277496
-0.028647184 -0.02342428 -0.026776494 -0.0079576615 -0.016486093 -0.016303401 -0.020066686 -0.011630878
-0.010999344 -0.0051628235 -0.012894869 -0.012413206 -0.00083951897 -0.0010316438 -0.0009854541 -0.0005820123
-0.00085970416 -0.0013565021 -0.0015301689 0.0025610395 -0.0013664844 -0.0019809587 -0.0019926652 -0.00011943001
-0.0015845424 0.00015117135 0.001567285 -0.001738079 -0.001102299 -0.001249057 0.0013811518 0.0006755474
0.00074173976 8.9492416e-05 -0.0002758517 -0.00039959117 0.00020153029 0.00026327 -0.032281995 -0.025720721
-0.015597933 -0.025458047 -0.028168181 -0.0690531 -0.06843035 0.008664892 -0.06468047 -0.059176005
0.006606951 0.01904184 -0.048013598 0.009657336 -0.0021069925 -0.05555257 0.0072647263 0.029814826
0.0062360596 0.02576119 0.0032836935 0.007779774 0.0073106983 0.004436931 0.0076356567 0.0076170154
-0.035972293 -0.02600957 -0.02561916 -0.024382109 -0.02788758 -0.07443188 -0.079105385 -0.030381754
-0.07301558 -0.06416913 -0.025910864 -0.011679422 -0.04321369 -0.026161075 -0.037444893 -0.061271787
-0.036481097 -0.0027037053 -0.025795083 -0.013692295 -0.030279353 -0.0163165 -0.01522583 -0.006784529
-0.017523091 -0.017089918 -0.01750558 -0.019940693 -4.0749088e-05 -0.022040565 -0.024098277 -0.043894816
-0.03654825 0.027395839 -0.038264237 -0.0402364 0.018908441 0.024734369 -0.045876388 0.02272047
0.016892498 -0.045231406 0.023363188 0.028522782 0.009517728 0.027307892 0.023535209 0.01439822
0.013755132 0.007662886 0.016076105 0.015275265 -0.0012211961 -0.0024870946 0.0018483544 -0.0009875044
1.7902523e-05 -0.018780567 -0.018235449 0.023800455 -0.014310148 -0.012612397 0.013010907 0.01670619
-0.010323938 0.0211536 0.019954003 -0.010816835 0.023599802 0.036206167 0.019104937 0.027161093
0.017118897 0.014782964 0.011897308 0.0050801598 0.015481916 0.015428594 9.2059355e-07 3.637611e-07
3.6770155e-07 0.0 0.0 -1.1933335e-07 3.986541e-06 6.9149905e-06 -5.113014e-07 -5.344146e-07
-3.953194e-07 9.1954e-07 0.0 5.166922e-06 -3.9906845e-07 1.7017104e-06 9.549109e-06 8.9070145e-06
7.0865913e-06 9.65632e-06 2.5310078e-06 1.1670631e-06 9.336506e-07 3.8902115e-07 1.5560846e-06 1.4004761e-06
-0.034519076 -0.02791485 -0.012761362 -0.028734572 -0.032861028 -0.07457494 -0.07234978 0.015630597
-0.06825945 -0.06381172 0.006935265 0.025604723 -0.061007936 0.008574576 0.013587907 -0.07397721
0.013970235 0.039760455 0.0028806925 0.026508236 -0.00041079428 0.008852091 0.009138718 0.005396598
0.007498318 0.007939573 -0.01688033 -0.014842227 -0.006039192 -0.01494721 -0.016157301 -0.038009528
-0.03609495 0.0069557033 -0.035153903 -0.033535272 0.0044346973 0.012370119 -0.03008547 0.0050697336
-0.000280438 -0.03445835 0.006400726 0.015314395 0.0007814141 0.009988997 0.00047987048 0.0043846606
00000000: aff1 b7bc e2dd a2bc b655 86bb a85d a8bc
00000010: bc91 b8bc 74c9 5bbd af81 4ebd 10f3 f53c
00000020: a69d 3fbd 75a2 37bd 2d1c c33c 11e8 253d
00000030: 46ab 2dbd ef27 e93c 9784 cf3c 2a1c 35bd
00000040: 87ee ef3c 30ff 413d 8cac e03c f7fd 363d
00000050: 2a9c a43c 0afb b33c 3ac7 aa3c f84e 343c
00000060: f6a4 ae3c 8888 af3c fafa 84bc bf24 2fbc
00000070: 1735 73bc 0336 16bc 012a 2ebc 0f27 05bd
00000080: 1c10 15bd 51f3 c1bc 4e05 07bd f288 e1bc
00000090: 5928 88bc e63b 40bc 4c80 6abc d7eb 9dbc
000000a0: 80ad eabc 47e4 bfbc 615a dbbc da60 02bc
000000b0: d80d 87bc b68e 85bc e462 a4bc 708f 3ebc
000000c0: 9836 34bc e72c a9bb 0045 53bc c260 4bbc
000000d0: 2a13 5cba 3938 87ba 5a2a 81ba 2f92 18ba
000000e0: c55d 61ba a8cc b1ba f38f c8ba 1dd7 273b
000000f0: 9c1b b3ba f9d2 01bb 6097 02bb 8076 fab8
00000100: 6cb0 cfba c083 1e39 5c6d cd3a 41d0 e3ba
00000110: 047b 90ba 66b7 a3ba c407 b53a 3817 313a
00000120: 5071 423a e0ad bb38 30a0 90b9 3880 d1b9
00000130: e051 5339 8007 8a39 203a 04bd 43b4 d2bc
00000140: 798e 7fbc 658d d0bc f5c0 e6bc b66b 8dbd
00000150: 3625 8cbd 31f7 0d3c 3277 84bd 8a62 72bd
00000160: 1f7f d83b a2fd 9b3c e8a9 44bd ce39 1e3c
00000170: 7815 0abb 178b 63bd f10c ee3b 393e f43c
00000180: dc57 cc3b 2209 d33c 3c33 573b 79ed fe3b
00000190: 958e ef3b ad63 913b 8834 fa3b 2898 f93b
000001a0: af57 13bd 0612 d5bc 46df d1bc fdbc c7bc
000001b0: 7f74 e4bc be6f 98bd 0102 a2bd 28e3 f8bc
000001c0: 3189 95bd 1b6b 83bd 0543 d4bc 0c5b 3fbc
000001d0: d700 31bd c04f d6bc d15f 19bd 20f8 7abd
000001e0: 346d 15bd a630 31bb 3650 d3bc a655 60bc
000001f0: 680c f8bc 2eaa 85bc c275 79bc c150 debb
00000200: 968c 8fbc 2800 8cbc dd67 8fbc aa5a a3bc
00000210: 00ea 2ab8 6a8e b4bc c069 c5bc 0dcb 33bd
00000220: 9eb3 15bd 3d6d e03c f6ba 1cbd ecce 24bd
00000230: e0e5 9a3c bb9f ca3c e1e8 3bbd 4720 ba3c
00000240: 2362 8a3c 9144 39bd 2864 bf3c 9ca8 e93c
00000250: 3ff0 1b3c cdb4 df3c e9cc c03c 83e6 6b3c
00000260: 355d 613c f218 fb3b 09b2 833c 1b45 7a3c
00000270: 8b10 a0ba 86fe 22bb 7b44 f23a 266f 81ba
00000280: 602d 9637 b4d9 99bc 8262 95bc 2cf9 c23c
00000290: 1c75 6abc 3aa4 4ebc b32b 553c 6bdb 883c
000002a0: bc25 29bc 514a ad3c 9476 a33c 1839 31bc
000002b0: 5f54 c13c eb4c 143d f581 9c3c f180 de3c
000002c0: ee3c 8c3c 3f34 723c edec 423c 7877 a63b
000002d0: dda7 7d3c 37c8 7c3c b51e 7735 f24a c334
000002e0: 8468 c534 0000 0000 0000 0000 1a22 00b4
000002f0: 20c4 8536 5107 e836 5d40 09b5 b174 0fb5
00000300: 493c d4b4 4fd6 7635 0000 0000 865f ad36
00000310: 8d3f d6b4 5366 e435 1c35 2037 566f 1537
00000320: 5bc9 ed36 9401 2237 62da 2936 fca3 9c35
00000330: fb9f 7a35 a9da d034 a9da d035 fef7 bb35
00000340: e063 0dbd afad e4bc 0815 51bc c464 ebbc
00000350: 4999 06bd bfba 98bd 1f2c 94bd bd0b 803c
00000360: 9ccb 8bbd b8af 82bd 3841 e33b ffc0 d13c
00000370: 75e3 79bd 617c 0c3c d09f 5e3c 5d81 97bd
00000380: 6ae3 643c dcdb 223d 00ca 3c3b cd27 d93c
00000390: e05f d7b9 5c08 113c 90ba 153c f2d5 b03b
000003a0: 73b4 f53b fc14 023c 9e48 8abc d02c 73bc
000003b0: 6ae4 c5bb 25e5 74bc 515c 84bc e1af 1bbd
000003c0: 4cd8 13bd abec e33b 8afd 0fbd 485c 09bd
000003d0: f050 913b 0aac 4a3c ce75 f6bc 0220 a63b
000003e0: c007 93b9 3324 0dbd 2ebd d13b 3ae9 7a3c
000003f0: d0d7 4c3a e4a8 233c 2097 fb39 33ad 8f3b

exp_avg_sq f4 [128, 26]
0.0007407361 0.0008771984 0.0008542947 0.00080798724 0.00094622746 0.0032290975 0.0037306605 0.009578458
0.002957542 0.0033376382 0.0068535497 0.0059777023 0.0013104295 0.008807465 0.009633208 0.0044910144
0.011445273 0.012437858 0.011782468 0.01064453 0.011089397 0.0039503505 0.0033453344 0.0007159593
0.0043410594 0.0042481096 0.000331471 0.00041432478 0.00039605296 0.00041477694 0.00046019052 0.0018930093
0.0021721856 0.0048170323 0.0018410989 0.0019079472 0.002946279 0.0029163223 0.0007735205 0.004324516
0.004372306 0.0023415652 0.005391766 0.005772859 0.005524163 0.005206774 0.005056961 0.0019658045
0.001631261 0.00032853032 0.002149973 0.0021052156 0.00015714309 0.000194444 0.00019785253 0.00018354233
0.00021042139 0.0006468226 0.00073604914 0.0012055219 0.0006022412 0.00062490045 0.00082523766 0.0010256579
0.0002792199 0.0011826928 0.001450971 0.0006761553 0.0011669518 0.0015230122 0.0016941493 0.0011412884
0.0016638163 0.00056670094 0.00048904 0.00010546798 0.0006003615 0.00059246767 0.00082264235 0.0009689451
0.00096907944 0.0008731888 0.0010409759 0.0033767102 0.0039782254 0.009334978 0.003140926 0.0035431082
0.006500246 0.00606121 0.0015142334 0.008500267 0.009255486 0.0044931755 0.010819941 0.012066223
0.011099749 0.010331742 0.010525941 0.0038667188 0.0033041257 0.00070605974 0.0042021247 0.004118792
0.0010020368 0.0011550873 0.0012374745 0.0010643412 0.0013190088 0.0046592643 0.0056884573 0.012432265
0.004590011 0.0049248966 0.00806883 0.008139185 0.0019328004 0.011276229 0.012411901 0.006143466
0.014310261 0.015173824 0.0150049385 0.013329138 0.013136152 0.005130466 0.0043608984 0.0009062063
0.0055952184 0.005472568 0.0006774106 0.00075318024 0.0007180978 0.0007781426 0.0008902226 0.0029137484
0.0030737752 0.005796704 0.0026274822 0.0027882198 0.003484567 0.003393071 0.0014122418 0.00475512
0.005292815 0.0034746688 0.0063407454 0.006877919 0.0056788027 0.0052581658 0.0069332584 0.0022186127
0.0018502394 0.0003921946 0.0023961 0.0023544175 0.000117489944 0.00011246901 0.00024140683 0.00015561497
0.00019932367 0.000962481 0.0011851913 0.0036318877 0.0008838897 0.0008404245 0.0025220541 0.0027045843
0.00032235304 0.0034560177 0.0035478044 0.0013567782 0.0042243535 0.0048757973 0.0042477786 0.004362755
0.0045269234 0.0015372303 0.0013277307 0.00029013894 0.0016747256 0.0016328024 1.9952549e-09 3.1152664e-10
1.5736487e-09 0.0 0.0 3.352634e-11 3.81848e-08 3.545111e-07 6.1548366e-10 6.7238715e-10
1.7760513e-07 1.992844e-09 0.0 2.9113656e-07 9.8278925e-08 3.7132907e-07 8.835706e-07 3.8913305e-07
5.3463503e-07 4.647396e-07 2.6856156e-07 5.512513e-08 3.5280078e-08 6.1250125e-09 9.80002e-08 7.9380136e-08
0.0011982932 0.001361071 0.0013910994 0.001162329 0.0014674331 0.0053324443 0.005847987 0.01410447
0.0048176027 0.005212869 0.009642395 0.009435021 0.0022312908 0.01277215 0.014648781 0.0066843024
0.01590402 0.016808659 0.016538568 0.014795638 0.01665804 0.0058932994 0.004980364 0.0010525909
0.0063887327 0.006275698 0.00041465106 0.0004620053 0.00046885016 0.00044488395 0.00050012814 0.0016953388
0.0019132448 0.0044029513 0.0015524662 0.001646251 0.0028413383 0.002450732 0.00071378256 0.0038041905
0.004354893 0.002072084 0.0046708216 0.005210748 0.0044698636 0.0045950934 0.0049195453 0.0017142765
00000000: f52d 423a caf3 653a bff2 5f3a 1bcf 533a
00000010: 400c 783a 449f 533b 197e 743b f7ee 1c3c
00000020: 52d3 413b 47bc 5a3b be93 e03b 9ae0 c33b
00000030: b8c2 ab3a 304d 103c 9ad4 1d3c 5c29 933b
00000040: f484 3b3c 28c8 4b3c 410b 413c 6566 2e3c
00000050: 4db0 353c f171 813b 663d 5b3b 37af 3b3a
00000060: 723f 8e3b ba33 8b3b 49c9 ad39 bb39 d939
00000070: 54a5 cf39 6b76 d939 ba45 f139 da1e f83a
00000080: 3a5b 0e3b 32d8 9d3b 0751 f13a 1614 fa3a
00000090: 5c16 413b c51f 3f3b 15c6 4a3a abb4 8d3b
000000a0: 9045 8f3b f274 193b 69ad b03b 402a bd3b
000000b0: 0a04 b53b 969d aa3b ddb4 a53b bad4 003b
000000c0: 09d0 d53a 983e ac39 90e6 0c3b a8f7 093b
000000d0: c7c6 2439 aae3 4b39 a276 4f39 4575 4039
000000e0: 90a4 5c39 888f 293a 6cf3 403a 9a02 9e3a
000000f0: b9df 1d3a 5cd0 233a c354 583a 5e6f 863a
00000100: 4364 9239 9604 9b3a 822e be3a 0440 313a
00000110: 68f4 983a cf9f c73a 380e de3a 4997 953a
00000120: 6914 da3a a88e 143a eb32 003a b12e dd38
00000130: 9461 1d3a d54f 1b3a 98a6 573a ce00 7e3a
00000140: d209 7e3a b5e6 643a 5b71 883a cc4b 5d3b
00000150: c65b 823b bcf1 183c fed7 4d3b 7e33 683b
00000160: 0400 d53b 1d9d c63b 3e79 c63a b444 0b3c
00000170: 52a4 173c 7d3b 933b 1f46 313c 68b1 453c
00000180: b9db 353c 7846 293c ff74 2c3c c768 7d3b
00000190: 088a 583b de16 393a fab1 893b eef6 863b
000001a0: c756 833a 4c66 973a c132 a23a 5d81 8b3a
000001b0: 97e2 ac3a beac 983b 3d66 ba3b b3b0 4b3c
000001c0: ce67 963b 0761 a13b 2033 043c 375a 053c
000001d0: 0556 fd3a efbf 383c 495b 4b3c 214f c93b
000001e0: 9675 6a3c a19b 783c 46d7 753c 7562 5a3c
000001f0: 0439 573c 781d a83b dee5 8e3b 7a8e 6d3a
00000200: 1858 b73b 3a53 b33b 4194 313a 1271 453a
00000210: ba3e 3c3a 44fc 4b3a d45d 693a 96f4 3e3b
00000220: 6471 493b 47f2 bd3b d631 2c3b 91ba 363b
00000230: 555d 643b 495e 5e3b f91a b93a d6d0 9b3b
00000240: 5a6f ad3b 45b7 633b 07c6 cf3b 2b60 e13b
00000250: 4015 ba3b b14c ac3b 6330 e33b 2566 113b
00000260: bb83 f23a 789f cd39 e307 1d3b 924c 1a3b
00000270: ef64 f638 57dd eb38 2722 7d39 932c 2339
00000280: 8a01 5139 024f 7c3a 6c58 9b3a f704 6e3b
00000290: d5b4 673a ef4f 5c3a 0c49 253b 653f 313b
000002a0: 7e01 a939 5b7e 623b 4882 683b ecd5 b13a
000002b0: 726c 8a3b 27c5 9f3b f330 8b3b 71f5 8e3b
000002c0: 9656 943b e47c c93a 4007 ae3a ca1d 9839
000002d0: 7782 db3a c203 d63a e51c 0931 7a43 ab2f
000002e0: d747 d830 0000 0000 0000 0000 4e73 132e
000002f0: a200 2433 a253 be34 d02e 2930 0ad3 3830
00000300: bab3 3e34 7bf2 0831 0000 0000 814d 9c34
00000310: 690d d333 145b c734 822e 6d35 0aea d034
00000320: d783 0f35 5381 f934 d22e 9034 b9c2 6c33
00000330: db86 1733 2e74 d231 2e74 d233 b177 aa33
00000340: 0c10 9d3a f765 b23a 8d55 b63a 4a59 983a
00000350: e256 c03a c9bb ae3b 78a0 bf3b 6f16 673c
00000360: fbdc 9d3b b7d0 aa3b 23fb 1d3c 5995 1a3c
00000370: d93a 123b 4842 513c 7101 703c fe07 db3b
00000380: 2649 823c 50b2 893c e47b 873c 6769 723c
00000390: 7176 883c 941c c13b 5232 a33b 17f7 893a
000003a0: 9358 d13b 5fa4 cd3b 8665 d939 4d39 f239
000003b0: 01d0 f539 503f e939 081b 033a 2136 de3a
000003c0: d8c5 fa3a a246 903b 1f7c cb3a 04c7 d73a
000003d0: bf35 3a3b 769c 203b 231d 3b3a ba4f 793b
000003e0: 7eb3 8e3b cdcb 073b b10d 993b ecbe aa3b
000003f0: ef77 923b 7092 963b 2334 a13b 93b1 e03a

exp_avg f4 [128]
0.040659197 -0.02753929 0.00021595694 0.013796198 -0.037372973 0.0324578 0.030219428 7.3813185e-06
0.012249384 0.007242476 0.00016345599 0.03450112 0.00901038 0.00016127873 -0.019619385 0.0007859594
0.018373849 -0.042105928 1.8302819e-09 0.001675498 -0.0052344026 0.024200734 0.02052665 0.0
-0.03264446 0.0 -0.0023192558 -0.00074482616 0.015810713 -0.0049189595 0.065801576 0.02898904
0.005043546 0.005645488 1.3159596e-10 0.0 0.021062944 0.0025000419 0.0023866305 -0.006649566
0.0035308287 -0.00601516 -0.015160959 0.04046946 0.00891592 0.00038657826 0.0017797775 0.0
0.0 -0.05321243 0.02140155 -0.0064605996 0.000110110246 -0.024828412 0.0 0.0060166814
0.033037737 -0.031633258 0.001051805 0.006585125 -0.033990137 0.0027627498 0.014059141 -0.040917147
4.6159978e-05 0.0 1.03085795e-05 -0.021181582 -0.013281973 -0.022355147 0.0039123157 -0.010993128
1.2786506e-06 -0.001428538 0.012764432 -0.018719854 -0.034943063 0.03890201 0.0065345047 0.0
-0.01992834 0.00046045985 -1.8248931e-05 0.009835122 -0.008467051 0.006170793 0.011469744 0.006314617
-0.01286599 0.0 -4.4596704e-06 -0.017039716 0.029063955 0.020172676 0.0 -0.03984683
0.003504691 0.0020528936 -0.07442698 -0.011342283 -0.02132535 0.0009893705 0.04714998 0.038717873
0.0055463705 0.088371076 0.0 0.0016429406 -0.01209918 0.00062660873 2.5110861e-05 -0.022196144
-0.0029112576 0.0014929832 0.025198571 0.045000497 -0.004849889 0.0 -0.030879674 -0.016811606
-0.0010636309 -0.057774052 0.021645082 -0.037799906 -0.0008733254 0.011389782 -0.042648412 -0.001195054
00000000: 428a 263d 149a e1bc 8072 6239 7309 623c
00000010: 6714 19bd 78f2 043d bc8e f73c 0bad f736
00000020: a4b1 483c 4b52 ed3b 6265 2b39 0c51 0d3d
00000030: 46a0 133c ee1c 2939 d5b8 a0bc d808 4e3a
00000040: c184 963c 4477 2cbd 528d fb30 629c db3a
00000050: 5a85 abbb 9e40 c63c 8127 a83c 0000 0000
00000060: 33b6 05bd 0000 0000 a8fe 17bb 7040 43ba
00000070: 7885 813c 392f a1bb fac2 863d 6c7a ed3c
00000080: 5544 a53b c9fd b83b f8b0 102f 0000 0000
00000090: 328c ac3c bed7 233b 0469 1c3b 9ae4 d9bb
000000a0: 7a65 673b d21a c5bb ac65 78bc 4ec3 253d
000000b0: 1414 123c a8ad ca39 6c47 e93a 0000 0000
000000c0: 0000 0000 47f5 59bd 4e52 af3c 70b3 d3bb
000000d0: fdea e638 f464 cbbc 0000 0000 9527 c53b
000000e0: 9452 073d e091 01bd b8dc 893a 08c8 d73b
000000f0: 3e39 0bbd 400f 353b 5058 663c bd98 27bd
00000100: e69b 4138 0000 0000 03f3 2c37 ff84 adbc
00000110: a29c 59bc 2422 b7bc e232 803b 851c 34bc
00000120: 1a9e ab35 c83d bbba e821 513c 615a 99bc
00000130: 7520 0fbd b757 1f3d 661f d63b 0000 0000
00000140: c240 a3bc e069 f139 4815 99b7 7e23 213c
00000150: 63b9 0abc 5d34 ca3b 98eb 3b3c d9ea ce3b
00000160: e0cb 52bc 0000 0000 47a4 95b6 e096 8bbc
00000170: 8817 ee3c 2b41 a53c 0000 0000 6e36 23bd
00000180: f5ae 653b d789 063b 2c6d 98bd fcd4 39bc
00000190: 80b2 aebc c4ad 813a 5620 413d a296 1e3d
000001a0: 54be b53b e5fb b43d 0000 0000 f057 d73a
000001b0: a43b 46bc 0043 243a 2aa5 d237 b0d4 b5bc
000001c0: ccca 3ebb 34b0 c33a 3c6d ce3c 7152 383d
000001d0: d1eb 9ebb 0000 0000 5ff7 fcbc 7eb8 89bc
000001e0: 8869 8bba 7ca4 6cbd 0751 b13c 13d4 1abd
000001f0: e0ef 64ba 359c 3a3c 1ab0 2ebd 5ca3 9cba

exp_avg_sq f4 [128]
0.01797442 0.008825546 0.0024136591 0.01734748 0.023012701 0.00970433 0.0070530954 5.9415584e-07
0.026065603 0.0077636573 1.4968459e-06 0.010197748 0.009690948 2.4760834e-06 0.006609863 0.0039126603
0.009871826 0.008238294 5.936963e-05 0.00030496076 0.0018457563 0.01196858 0.01978677 0.0
0.0009564854 0.0 0.02659703 0.0073912195 0.005693943 0.00051298947 0.005638826 0.007713572
0.00016422848 0.00087302964 3.2427117e-05 0.0 0.0027473853 0.022241713 0.014031017 0.0101944925
0.004672157 0.014466783 0.029860474 0.014175243 0.006785335 0.0015633687 8.460651e-05 0.0
0.0 0.003948056 0.00634041 0.01192416 0.0003385987 0.0013389239 0.0 0.0013137859
0.0136441775 0.010171476 0.008768401 0.0067950315 0.016638322 0.022158194 0.019062947 0.001805718
6.477542e-05 0.0 0.0001455484 0.004704192 0.018315557 0.02937332 0.017881026 0.008542498
0.00010894719 0.02263911 0.00054274075 0.008695589 0.0071664588 0.00735082 0.013243739 0.0
0.009815024 0.0063564843 0.00019009049 0.009054001 0.0028211307 0.0007708756 0.0067794113 0.009291202
0.004554721 0.0 0.00015945752 0.00179772 0.0022223769 0.0094613815 0.0 0.0078328885
0.0011127935 0.00497999 0.009324883 0.016451424 0.0125872055 0.0006820059 0.008469735 0.023833849
0.0023085566 0.0051639555 0.0 0.0015518478 0.01805176 0.00032516202 0.000115556846 0.002618855
0.00044415236 0.0046517113 0.0053276913 0.007859891 0.0006799759 0.0 0.032429077 0.0033750373
0.012348594 0.01701184 0.020636484 0.010317796 0.0023886315 0.0032262872 0.004930131 0.0055074403
00000000: 173f 933c 0699 103c 7b2e 1e3b 4d1c 8e3c
00000010: 2285 bc3c e9fe 1e3c a71d e73b 147e 1f35
00000020: 8887 d53c 4766 fe3b 3ce7 c835 7514 273c
00000030: c8c6 1e3c ca2a 2636 8d97 d83b c635 803b
00000040: 70bd 213c e9f9 063c a803 7938 24e3 9f39
00000050: 4eed f13a dd17 443c dd17 a23c 0000 0000
00000060: a6bc 7a3a 0000 0000 04e2 d93c 0b32 f23b
00000070: 4194 ba3b 247a 063a e7c5 b83b 22c2 fc3b
00000080: bf34 2c39 07dc 643a 5a02 0838 0000 0000
00000090: 7a0d 343b 4134 b63c 5ae2 653c cd06 273c
000000a0: e518 993b 1606 6d3c f49d f43c 473f 683c
000000b0: 8457 de3b f3e9 cc3a c66e b138 0000 0000
000000c0: 0000 0000 b25e 813b 37c3 cf3b 8d5d 433c
000000d0: f385 b139 d57e af3a 0000 0000 5733 ac3a
000000e0: d48b 5f3c 43a6 263c 57a9 0f3c dba8 de3b
000000f0: 174d 883c 1a85 b53c e629 9c3c d8ad ec3a
00000100: 0ad8 8738 0000 0000 5a9e 1839 9f25 9a3b
00000110: 820a 963c 51a0 f03c 3b7b 923c d5f5 0b3c
00000120: 947a e438 a875 b93c b746 0e3a f277 0e3c
00000130: 9dd4 ea3b 26df f03b 44fc 583c 0000 0000
00000140: 32cf 203c 0e4a d03b 0753 4739 3c57 143c
00000150: b8e2 383b 9614 4a3a d325 de3b 203a 183c
00000160: c53f 953b 0000 0000 0d34 2739 79a1 eb3a
00000170: 4ca5 113b e903 1b3c 0000 0000 8455 003c
00000180: 27db 913a 2f2f a33b 65c7 183c 23c5 863c
00000190: 913a 4e3c a4c8 323a a5c4 0a3c 343f c33c
000001a0: 274b 173b 6636 a93b 0000 0000 5f67 cb3a
000001b0: 49e1 933c 827a aa39 1c57 f238 19a1 2b3b
000001c0: 1fdd e839 626d 983b ea93 ae3b c6c6 003c
000001d0: 6940 323a 0000 0000 5ad4 043d bb2f 5d3b
000001e0: c251 4a3c 6a5c 8b3c d80d a93c f90b 293c
000001f0: 968a 1c3b 1e70 533b f08c a13b c277 b43b
