models/reinforce/reinforce_high_gamma/checkpoint_ep400.pth (torch, 259594 bytes, 18 tensors)

network.0.weight f4 [128, 26]
0	0xbd2540aa	-0.04034487
1	0xbe0c9fc8	-0.13732827
2	0x3e2bace1	0.16765167
3	0xbe0de313	-0.13856153
4	0xbd8d9609	-0.069133826
5	0x3d818e87	0.06326013
6	0x3e4a21f1	0.1973951
7	0x3e2476cb	0.16060941
8	0xbe10a228	-0.14124358
9	0xbe1bb52d	-0.15205832
10	0x3dd9570d	0.10612307
11	0x3e2d76c2	0.16939834
12	0xbe28d0bc	-0.16485876
13	0x3e742a61	0.23844291
14	0x3e0b9f9a	0.13635102
15	0x3e53ac3b	0.2067117
16	0x3e22eaa4	0.15909821
17	0x3e342967	0.17593919
18	0x3dda4841	0.106583126
19	0xbe060193	-0.13086538
20	0x3e318aca	0.173381
21	0x3df0fc79	0.11766905
22	0x3c0039f5	0.007826318
23	0x3d930c32	0.071800604
24	0x3df8413f	0.1212182
25	0x3c0c7caf	0.008574649
26	0xbda2f299	-0.07956428
27	0xbe1a0a9a	-0.15043107
28	0x3b34743a	0.0027535097
29	0xbe1bd123	-0.15216498
30	0x3e35fd63	0.1777244
31	0xbc326051	-0.010887221
32	0x3d03b5db	0.032155853
33	0x3dfd76b9	0.1237616
34	0x3d904757	0.07044857
35	0x3e17c0fe	0.14819714
36	0x3e1a1e3a	0.15050593
37	0x3e174fdf	0.14776562
38	0x3e50d598	0.2039398
39	0x3ba993dc	0.005175097
40	0xbd9195b9	-0.071086355
41	0xbe152e06	-0.14568338
42	0x3d15968b	0.036520522
43	0x3e1ddff8	0.15417469
44	0xbaa961e3	-0.0012922849
45	0xbc4d99eb	-0.012548904
46	0x3bb3bd68	0.0054852255
47	0xbe0f86a1	-0.140162
48	0x3e1fda57	0.15610634
49	0x3d71df28	0.05905071
50	0x3980da77	0.00024576831
51	0xbe1e02ab	-0.15430705
52	0xbe21682b	-0.15762393
53	0x3e32c591	0.17458178
54	0x3c5390cd	0.012912941
55	0x3de363f5	0.1110305
56	0x3d346a4f	0.044046696
57	0x3d634e3c	0.055494532
58	0xbdfb41d0	-0.12268412
59	0xbe1306c7	-0.14358054
60	0x3d46a7f3	0.048500013
61	0x3d1c9301	0.03822613
62	0xbd991e24	-0.07476452
63	0x3e159ea3	0.14611296
64	0x3d50ed5a	0.051007606
65	0x3e0b12aa	0.13581339
66	0x3d043923	0.032281052
67	0xbe4da1bb	-0.20081227
68	0xbe2b6daf	-0.1674106
69	0xbe0483cb	-0.129409
70	0x3e37706a	0.17913976
71	0xbe4c6a4f	-0.19962429
72	0x3e1a2ce7	0.15056191
73	0xbdf7437c	-0.120734185
74	0x3d4ae9e9	0.04953948
75	0x3d42fa90	0.047602236
76	0xbcc96606	-0.024584781
77	0x3d376934	0.044778064
78	0xbe095c4e	-0.13414118
79	0x3e483bb9	0.19554032
80	0x3d08f136	0.03343316
81	0xbd3f0b0a	-0.046641387
82	0x3e3f08ac	0.18655652
83	0xbd047e10	-0.032346785
84	0x3cd204d9	0.025637077
85	0xbe0c9532	-0.13728788
86	0xbdca5244	-0.09878972
87	0x3e042a61	0.12906791
88	0x3dd5cd64	0.10439566
89	0xbbac8612	-0.005265006
90	0xbde251b4	-0.1105074
91	0x3c243656	0.01002272
92	0x3e60662a	0.21913972
93	0x3d6c4be5	0.057689566
94	0x3e49afc8	0.19695961
95	0x3c790017	0.015197775
96	0x3e18f101	0.14935686
97	0x3d8fe1b9	0.07025475
98	0x3e62f815	0.22164948
99	0x3de0a7bd	0.109694935
100	0xbd8e2cc9	-0.06942136
101	0x3e171a03	0.14756016
102	0x3e29975e	0.16561648
103	0x3e03151c	0.12801021
104	0xbc7f1df0	-0.0155711025
105	0xbdca50fc	-0.09878728
106	0x3dc50606	0.096202895
107	0x3d4ac797	0.04950675
108	0x3e585303	0.21125416
109	0x3c02ee68	0.007991411
110	0x3d350dc1	0.04420257
111	0x3e0accc2	0.13554671
112	0xbd99f832	-0.075180426
113	0x3dbbb990	0.091662526
114	0x3e6580c0	0.22412395
115	0x3dd6e78f	0.10493385
116	0xbe16b9b4	-0.14719278
117	0x3e5713e2	0.21003678
118	0x3b75ae87	0.003748806
119	0xbc61d85b	-0.013784493
120	0x3d960aaa	0.07326253
121	0xbe1ee2ce	-0.15516207
122	0x3d971867	0.07377701
123	0xbd2d976d	-0.04238074
124	0xbd7fdb47	-0.06246498
125	0xbc2d66ac	-0.010583561
126	0xbbe8bc26	-0.007102507
127	0x3d4e293b	0.05033229
128	0xbe127f1d	-0.14306302
129	0xbd8a2ce9	-0.06746847
130	0xbccee631	-0.025256248
131	0xbe05eb92	-0.13078144
132	0xbdd43628	-0.10361892
133	0xbdeae05f	-0.11468577
134	0xbe032152	-0.1280568
135	0x3e56649a	0.20936814
136	0x3e366439	0.1781167
137	0x3e333bf3	0.17503338
138	0x3d685e3a	0.056730486
139	0xbdb7f71f	-0.089826815
140	0xbdc69cdb	-0.096978866
141	0x3e543057	0.20721565
142	0x3dc10af0	0.09425914
143	0xbc5da1ec	-0.013527375
144	0xbe53ea1c	-0.20694774
145	0x3e6f4c44	0.23368937
146	0x3e1faed8	0.15594041
147	0xbc9d1779	-0.019176232
148	0xbb00f46f	-0.0019676944
149	0xbe064ca6	-0.13115177
150	0x3e4d5458	0.20051706
151	0xbd206613	-0.039159846
152	0xbe148997	-0.14505611
153	0x3d22aec9	0.03971747
154	0xbe0970dd	-0.1342196
155	0xbd86ba93	-0.06578555
156	0xbdc3097f	-0.095232956
157	0xbdebf1a0	-0.11520696
158	0x3e2e8a1a	0.17044869
159	0x3d58947d	0.052875984
160	0xbe25f726	-0.16207561
161	0xbdb9dac5	-0.0907493
162	0x3d528bde	0.05140292
163	0x3e4f8800	0.20266724
164	0xbdc440f3	-0.095827006
165	0xbdd97332	-0.10617675
166	0xbe19a85a	-0.15005627
167	0x3e554daf	0.20830415
168	0xbe2282b0	-0.15870166
169	0xbe2b3ceb	-0.16722457
170	0xbdf5fee8	-0.1201151
171	0x3b8a40c6	0.0042191474
172	0xbe113bbe	-0.14182946
173	0x3ddcfe96	0.10790746
174	0x3d517829	0.051139984
175	0xbbd18b35	-0.0063947686
176	0x3e305382	0.17219356
177	0xbca45537	-0.020060165
178	0x3dce322c	0.10068163
179	0xbd8e282b	-0.06941255
180	0x3e18d5e5	0.14925344
181	0x3e2b5fb9	0.16735734
182	0x3e2b9eb1	0.16759755
183	0xbbeefbbb	-0.007293192
184	0xbe390da6	-0.18071613
185	0xbe17a813	-0.14810209
186	0x3e05709b	0.13031237
187	0xbdc7b4f7	-0.09751313
188	0x3e147be1	0.14500381
189	0x3e01ff74	0.12695104
190	0xbdd60fb3	-0.10452213
191	0xbe2811f6	-0.16413102
192	0x3bbf2368	0.005833078
193	0xbe3e5a46	-0.18589124
194	0x3de2aa62	0.11067654
195	0xbd80d72f	-0.06291043
196	0xbe26328a	-0.16230217
197	0x3dc19274	0.09451762
198	0x3dde6098	0.108582675
199	0xbe1be464	-0.15223843
200	0xbd7a8fc9	-0.06117228
201	0x3cd4c8c9	0.025974648
202	0xbe2ce922	-0.16885808
203	0x3b47f711	0.0030512253
204	0xbe3cbaf3	-0.1843069
205	0xbe111607	-0.14168559
206	0xbcd92f07	-0.026511682
207	0xbd4444fe	-0.04791736
208	0xbd05c0e2	-0.03265465
209	0xbb0d58bc	-0.0021567782
210	0x3e508c3e	0.20365998
211	0xbc81e87a	-0.015857924
212	0xbc7b7233	-0.015347051
213	0xbd825074	-0.063630015
214	0x3d2c9d61	0.042142276
215	0xbe102a3e	-0.14078614
216	0x3db5a41b	0.08869191
217	0xbde108e4	-0.10988024
218	0xbdab7b50	-0.08373129
219	0xbe1c317b	-0.1525325
220	0x3e0daaab	0.13834636
221	0x3e1319c4	0.14365298
222	0xbd869680	-0.06571674
223	0x3e6c7df1	0.23094918
224	0x3d98f29f	0.07468151
225	0x3d6204a9	0.055180226
226	0x3e289780	0.16464043
227	0x3b6a0031	0.003570568
228	0x3dc3f958	0.09569043
229	0x3dbc9f1c	0.09210035
230	0x3e23762f	0.15963052
231	0x3cf38fe5	0.0297317
232	0xbd9210ad	-0.07132087
233	0xbc448ad0	-0.011995986
234	0xbe34b370	-0.17646575
235	0x3d82ae3d	0.063808896
236	0x3dcfb7ad	0.10142455
237	0x3dba8538	0.09107441
238	0x3df38ea6	0.118924424
239	0x3c6ccfd9	0.014453852
240	0x3e2592c6	0.16169271
241	0x3db581ec	0.08862671
242	0xbe4e16a5	-0.20125826
243	0x3e15cdb5	0.14629252
244	0xbe4912d2	-0.19636086
245	0x3e27fdaf	0.16405366
246	0x3dac2042	0.0840459
247	0x3e2e0e11	0.16997553
248	0x3e13c269	0.1442963
249	0x3e14de87	0.14538012
250	0xbd8eb721	-0.06968523
251	0xbe386d0d	-0.1801035
252	0xbe332e3b	-0.17498104
253	0xbce4301a	-0.027854968
254	0x3ca8d4a8	0.020609215
255	0xbdd7c6bd	-0.10535953

network.0.bias f4 [128]
0	0x3e26a915	0.16275437
1	0xbdc92928	-0.09822303
2	0xbd600bab	-0.054698627
3	0x3afb311c	0.0019164416
4	0x3e3f323b	0.18671505
5	0x3c6f7c57	0.014617047
6	0x3d39418f	0.045228537
7	0xb986ca75	-0.00025709314
8	0x3d8952b0	0.067052245
9	0x3e0cf2d5	0.13764508
10	0xbd8156de	-0.06315397
11	0x3de25769	0.110518284
12	0x3d2d2309	0.04226974
13	0xbc429671	-0.011876688
14	0xbe2ef726	-0.17086467
15	0xbdeceb27	-0.11568289
16	0x3e4d0366	0.20020828
17	0xbe274809	-0.16336073
18	0xbe2d4104	-0.16919333
19	0x3e221d5a	0.15831509
20	0xbd743fd0	-0.05963117
21	0x3d0db1b7	0.03459331
22	0xbd9267b7	-0.07148688
23	0xbd58fef8	-0.052977532
24	0x3e322c24	0.17399651
25	0xbbc7c780	-0.0060967803
26	0x3e2f2a8e	0.17106077
27	0xbded10f2	-0.11575498
28	0xbc50749a	-0.0127231125
29	0xbd585b11	-0.052821223
30	0x3e13895b	0.14407866
31	0x3e48323d	0.19550414
32	0xbdc64aed	-0.0968226
33	0xbdb5d555	-0.088785805
34	0x3ddade07	0.106868796
35	0xbd908254	-0.07056108
36	0x3d91f166	0.07126121
37	0x3e25c201	0.16187288
38	0x3ceb1c45	0.028700003
39	0xbd066f22	-0.03282083
40	0xbe0342f5	-0.12818511
41	0x3e406ea0	0.187922
42	0x37f1aef0	2.88109e-05
43	0x3db3c811	0.08778394
44	0xbd970357	-0.07373684
45	0x3e3377ee	0.17526218
46	0xbd9e1cc2	-0.07720329
47	0xbdc723fc	-0.0972366
48	0x3dfbea0e	0.12300502
49	0xbe1317df	-0.14364575
50	0x3de67a0d	0.11253748
51	0x3dbc9738	0.0920853
52	0xbdb647e3	-0.0890043
53	0xbe42c78f	-0.19021438
54	0xbdc2de81	-0.095150955
55	0xbdf172d9	-0.117894836
56	0x3dd3f1c7	0.1034885
57	0xbd967d18	-0.073480785
58	0x3e23dff0	0.16003394
59	0xb7fe2c10	-3.0299678e-05
60	0x3d986de9	0.07442839
61	0xbd196275	-0.03744741
62	0x3de44b3a	0.11147161
63	0xbdf03f83	-0.11730864
64	0x3de0da25	0.10979108
65	0xbd9f57e9	-0.077804394
66	0xbe1a68c4	-0.15079027
67	0x3e02410b	0.12720124
68	0x3e1579e3	0.14597277
69	0x3e5d63dd	0.21620126
70	0x3ddbc8df	0.107316725
71	0xbe09ae7f	-0.13445471
72	0x3d236e55	0.039900143
73	0x3e374a8b	0.1789953
74	0x3e2f6e0f	0.17131828
75	0x3e44f436	0.19233784
76	0x3d1fa037	0.038971152
77	0x3d66421d	0.056215394
78	0xbdc55cde	-0.09636854
79	0xbd8fea1c	-0.07027075
80	0x3e457a8d	0.1928503
81	0x3be62aa9	0.0070241285
82	0x3db5c66d	0.08875737
83	0x3e69a115	0.22815354
84	0xbcaf44a9	-0.021395044
85	0xbe03f560	-0.12886572
86	0xbc761952	-0.015020685
87	0xbc9dee9a	-0.019278813
88	0x3d58d20a	0.052934684
89	0xbcbaee58	-0.02281873
90	0xbded0980	-0.115740776
91	0x3cdac9ee	0.026707616
92	0xbd23df0f	-0.040007647
93	0x3d650634	0.05591412
94	0xb918e400	-0.00014580786
95	0x3d457940	0.048211336
96	0xbdadd817	-0.084884815
97	0xbda59eba	-0.08086915
98	0x3d430500	0.04761219
99	0x3df7028d	0.120610334
100	0x3d32e184	0.0436721
101	0xbbc64a4c	-0.0060513373
102	0x3de09fe8	0.10968
103	0x3d4a1f8b	0.049346488
104	0x3dd4a0b1	0.10382212
105	0xbe227a35	-0.15866931
106	0x3e0c3aed	0.13694353
107	0xbdd9ddee	-0.10638033
108	0x3d7da03f	0.0619204
109	0xbd18d640	-0.0373137
110	0xbdff5a6b	-0.12468418
111	0x3df18744	0.11793378
112	0xbcf8d767	-0.03037615
113	0x3c673dcd	0.014113856
114	0x3dcf5ba2	0.101248994
115	0xbdbda408	-0.09259802
116	0x3def3c96	0.11681478
117	0xbde2fa8a	-0.11082943
118	0x3e04a5d9	0.12953891
119	0xbdb8af8f	-0.0901786
120	0x3e13b92e	0.14426109
121	0x3d727f83	0.059203636
122	0xbd3c17a4	-0.045920983
123	0x3d22f6f3	0.03978629
124	0xbd5fbdcd	-0.054624368
125	0x3d070776	0.0329661
126	0xbdb26b6b	-0.087118946
127	0x3dcb4669	0.09925539

network.2.weight f4 [128, 128]
0	0xbd6ad7e3	-0.057334792
1	0x3c858070	0.016296595
2	0x3db94c1a	0.09047718
3	0x3da5283f	0.08064317
4	0x3c99e69a	0.018786717
5	0xbd3f1230	-0.046648204
6	0xbd41fd18	-0.04736051
7	0xbcf823b9	-0.030290471
8	0x3cd1fc59	0.025633024
9	0xbda2bc72	-0.07946099
10	0x3db6e25d	0.08929894
11	0x3d956de6	0.07296352
12	0xbb94a341	-0.004536063
13	0xbcd4b737	-0.02596627
14	0x3dc9cd76	0.09853642
15	0x3cba8a79	0.022771107
16	0x3d9efc6a	0.07762988
17	0x3d09b891	0.033623282
18	0xbcee12b0	-0.029061645
19	0x3d6cded6	0.0578297
20	0x3d25634e	0.040377907
21	0x3c791fa4	0.015205298
22	0xbd44691b	-0.0479518
23	0x3da59ddb	0.08086749
24	0x3d22d102	0.039750107
25	0x3d8b39a7	0.06798106
26	0xbd5aa3c2	-0.053378828
27	0xbdbc0f03	-0.09182551
28	0xbceea962	-0.029133502
29	0xbdd8878b	-0.10572728
30	0x3d1f28c0	0.03885722
31	0x3d69b971	0.057061616
32	0x3c9fc932	0.019505117
33	0xbd8bc831	-0.06825293
34	0xbd3c7661	-0.046011332
35	0xbca9b718	-0.020717189
36	0xbc7e84e2	-0.015534611
37	0x3ca72ce1	0.020407142
38	0x3da548a2	0.08070494
39	0x3d6629bc	0.056192145
40	0xbdc31288	-0.09525019
41	0x3c357d67	0.0110772615
42	0x3d349a4c	0.04409246
43	0xbd5ba8b6	-0.053627692
44	0x3ddb72d5	0.10715262
45	0x3d9d2a25	0.07674054
46	0xbd64532b	-0.055743378
47	0xbd008394	-0.031375483
48	0x3c8dffbc	0.017333858
49	0x3d6d45d1	0.05792791
50	0x3d59e587	0.05319741
51	0x3d86e880	0.065873146
52	0xbd75aa8d	-0.059977103
53	0xbba95938	-0.0051681064
54	0x3d64bf5a	0.05584655
55	0xbd6339c5	-0.055475015
56	0x3d209b54	0.039210632
57	0x3cd72081	0.026260616
58	0xbd3a6c44	-0.045513406
59	0xbd2818f5	-0.041039426
60	0x3cb5a195	0.022171775
61	0xbcc1f88b	-0.023678085
62	0x3d83ff5d	0.06445191
63	0x3c9badc5	0.019003758
64	0x3d821c82	0.06353094
65	0x3da03673	0.07822885
66	0xbbce32a8	-0.00629266
67	0xbcc1158f	-0.02356985
68	0xbb78786f	-0.003791358
69	0xbd7dc061	-0.061951045
70	0x3da7c857	0.08192509
71	0xbdc7a5ed	-0.09748445
72	0x3db59aa9	0.0886739
73	0x3d1d8dd2	0.03846533
74	0xbd0ebf3a	-0.034850337
75	0x3d5f398f	0.05449825
76	0x3c4ca222	0.012489827
77	0xbca8c83b	-0.02060329
78	0xbd09c444	-0.03363444
79	0x3c80a2b0	0.015702575
80	0xbd5ffef7	-0.054686513
81	0x3cedde73	0.029036736
82	0xbca7b95a	-0.020474125
83	0x3ce2af1b	0.027671387
84	0x3cf905fd	0.030398363
85	0xbdcc5d60	-0.09978747
86	0x3da44ca6	0.08022432
87	0xbbe1fd61	-0.00689666
88	0x3cdf3a94	0.027249612
89	0x3c5bf588	0.013425238
90	0xbd45d88a	-0.04830221
91	0xbd994315	-0.07483498
92	0xbcf0daa9	-0.02940114
93	0x3d244c85	0.040112037
94	0xbd3bcff8	-0.04585263
95	0xbcc27680	-0.023738146
96	0xbd10378d	-0.035209227
97	0xbd91af21	-0.07113481
98	0xbd699eaf	-0.057036098
99	0xbd7558b4	-0.059899047
100	0x3d70efe6	0.058822535
101	0xbbcc83c7	-0.006241295
102	0x3c9516ab	0.018199285
103	0xbd6c0d4f	-0.05762988
104	0xbbd1f15f	-0.0064069475
105	0x3d7435a5	0.059621472
106	0xbd9496a2	-0.072552934
107	0xbdb594f0	-0.08866298
108	0x3b853184	0.0040647406
109	0xbb51f948	-0.0032039452
110	0x3bfcbf5d	0.007713242
111	0x3c81de09	0.015852945
112	0xbd14fd16	-0.036374174
113	0x3d785e96	0.06063708
114	0xbda97f62	-0.082762495
115	0x3d9764b7	0.07392257
116	0xbc6aeef5	-0.014339198
117	0xbdacd3aa	-0.08438809
118	0x3dbfdabe	0.09367894
119	0xbd910b4b	-0.07082232
120	0xbc1e6bc8	-0.009669252
121	0xbcae552b	-0.021280846
122	0xbd400170	-0.04687637
123	0x3c979794	0.018504895
124	0xbca193d9	-0.01972382
125	0x3c903021	0.017601075
126	0x3d4908a6	0.049080513
127	0xbd51a2bf	-0.051180597
128	0xbbd48dc8	-0.006486628
129	0xbd9f62bd	-0.07782505
130	0xbd7c58b4	-0.06160803
131	0xbd9f20a8	-0.077699006
132	0x3cb70a4b	0.022343775
133	0x3d4bcb4c	0.049754426
134	0xbd11930c	-0.035540625
135	0x3d9d8fa9	0.076934166
136	0xbc90f1fa	-0.017693508
137	0xbd887ee9	-0.06664831
138	0x3ca792f8	0.020455822
139	0xbd8aeb38	-0.06783146
140	0xbdb9f2e9	-0.090795346
141	0xbc096dc0	-0.008387983
142	0x3d3db4e3	0.046315085
143	0x3d92f445	0.07175497
144	0x3d98bd1e	0.07457946
145	0x3d0ec7da	0.034858562
146	0xbc729d58	-0.0148080215
147	0xbd92d1b4	-0.07168904
148	0xbdab8cd8	-0.08376473
149	0xbc39ac5e	-0.011332599
150	0x3c843490	0.016138345
151	0x3ba812d0	0.0051291957
152	0x3d4b0195	0.049562056
153	0x3d1c00fe	0.038086884
154	0x3cad517a	0.021157015
155	0xbd30eb8a	-0.043193378
156	0xbdb213ba	-0.08695169
157	0xbd134d4c	-0.035962388
158	0xbd18195b	-0.037133556
159	0x3c75835e	0.014984934
160	0xbc9d3d11	-0.019194158
161	0xbd03e199	-0.03219757
162	0x3d94ac65	0.07259444
163	0xbd9f6b22	-0.07784106
164	0xbdaebaa0	-0.0853169
165	0xbd50d647	-0.0509856
166	0x3ca01e61	0.019545736
167	0x3c7c8c2c	0.015414279
168	0x3c6c3524	0.014416967
169	0x3da31552	0.07963051
170	0xbc524ce9	-0.01283572
171	0xbd37b5f0	-0.044851243
172	0x3dae98e2	0.08525254
173	0x3cca4e50	0.024695545
174	0x3c87f920	0.016598284
175	0x3d2f9b2a	0.042872585
176	0xbd2878d1	-0.041130845
177	0xbd6ed549	-0.058308873
178	0xbd6ceefc	-0.0578451
179	0x3d13f902	0.036126144
180	0x3ce45913	0.027874505
181	0x3d2f6d9a	0.042829134
182	0xbcede27c	-0.02903866
183	0xbc66a7b0	-0.014078066
184	0x3b85c5db	0.004082424
185	0xbce6a2fe	-0.028153893
186	0x3d9cec7a	0.07662292
187	0xbab252b4	-0.001360497
188	0xbd191407	-0.037372615
189	0xbdb1066b	-0.08643802
190	0xbd7365c9	-0.05942324
191	0x3d0beb67	0.034160044
192	0xbb80fd90	-0.003936477
193	0xbaa79880	-0.0012786537
194	0xbd37013a	-0.044678904
195	0xbd088e10	-0.033338606
196	0xbd1da154	-0.038483933
197	0x3c15e5a7	0.009148992
198	0x3c7622c0	0.0150229335
199	0xbb8ea926	-0.00435366
200	0x3db27543	0.08713772
201	0x3d6a58ef	0.05721372
202	0x3db39419	0.08768482
203	0xbda09f31	-0.07842863
204	0x3d6b7e9a	0.057493784
205	0xbd61ef5e	-0.05515992
206	0x3d0dce7a	0.03462074
207	0xbd8870b4	-0.066621214
208	0xbd61da86	-0.05514004
209	0xbd3193c2	-0.043353803
210	0xbca35c10	-0.01994136
211	0xbc8a23d1	-0.016862782
212	0xbd8281f4	-0.06372443
213	0x3b9c9a80	0.00477916
214	0xbd3e45a1	-0.046453122
215	0xbd88abf5	-0.06673423
216	0xbbebc590	-0.007195182
217	0x3c50bbb8	0.012740068
218	0x3da88e87	0.0823031
219	0xbd81f606	-0.06345753
220	0xbd56301f	-0.052291986
221	0xbd79c3ca	-0.060977735
222	0x3d8ed291	0.06973756
223	0xbd08f490	-0.033436358
224	0x3c5a0a4b	0.013308118
225	0x3bf2b5c2	0.007406921
226	0x3c6d0be8	0.014468171
227	0x3c684499	0.014176511
228	0xbda39605	-0.07987598
229	0xbda9ad90	-0.082850575
230	0xbd2220b4	-0.03958197
231	0xbd54d6be	-0.051962607
232	0x3d3a2fac	0.04545562
233	0xbd8d64aa	-0.06903966
234	0xbd90ff62	-0.070799604
235	0xbd6b08e6	-0.057381533
236	0x3cfbbce4	0.030729719
237	0x3c5cf0d0	0.013485149
238	0x3ce4e8e0	0.027943075
239	0xbd31b489	-0.043385062
240	0xbd086a3f	-0.03330445
241	0xbcfbc45d	-0.030733282
242	0x3d97a3a2	0.07404257
243	0xbdae848b	-0.08521374
244	0x3c87a019	0.016555833
245	0xbc7b2dd0	-0.015330747
246	0x3c9ceb2f	0.019155113
247	0x3d92f23f	0.07175111
248	0x3d2ff86f	0.042961534
249	0xbcbcadbd	-0.023032064
250	0xbb3f6090	-0.0029201843
251	0xbc9e1663	-0.019297784
252	0x3d479ad3	0.048731636
253	0x3d9895c9	0.07450444
254	0x3d88b36f	0.06674849
255	0xbc453042	-0.012035431

network.2.bias f4 [128]
0	0x3dced7cb	0.10099753
1	0xbc5896fb	-0.01321959
2	0xbcbde22c	-0.023179136
3	0x3ce12d4e	0.027487423
4	0xbd5df1c1	-0.054185633
5	0xbd22e08a	-0.03976492
6	0x3dfed0b3	0.1244215
7	0xbdb1cdd9	-0.086818404
8	0x39b36b9f	0.00034221724
9	0x3baad7dd	0.005213721
10	0xbd6c89d5	-0.057748634
11	0xbdd03c81	-0.1016779
12	0xbd058baa	-0.032603897
13	0xbd18b2f3	-0.037280034
14	0xbda0f021	-0.07858301
15	0x3ca512c0	0.020150542
16	0x3a67de6f	0.0008845096
17	0xbca2eb6c	-0.019887649
18	0xbd8e0526	-0.06934576
19	0x3c916d4a	0.017752308
20	0x3c953e76	0.01821826
21	0x3c32f32a	0.010922233
22	0xbc9f59ea	-0.019452054
23	0xbda3e5a6	-0.08002786
24	0x3bd62e80	0.006536305
25	0xbca68373	-0.020326352
26	0xbcf65297	-0.030068679
27	0xbb8f8b60	-0.0043806285
28	0x3c19ec5e	0.009394733
29	0xbd2a70ac	-0.04161136
30	0xbd59a1fa	-0.05313299
31	0xbdb4216e	-0.08795439
32	0xbc72b802	-0.014814379
33	0x3da01c6d	0.07817922
34	0x3da7889f	0.08180355
35	0x3cc8f8fd	0.02453279
36	0xbd16690e	-0.03672128
37	0x3cd4e3fe	0.025987621
38	0xbd8d5e80	-0.0690279
39	0xbd01caa2	-0.031687386
40	0x3cc57260	0.02410239
41	0x3d81a778	0.0633077
42	0xbd9477c9	-0.0724941
43	0xbcbcfa71	-0.023068639
44	0x3d666e89	0.05625776
45	0x3d88685e	0.066605315
46	0xbcb4d41f	-0.022073803
47	0xbdad7430	-0.08469427
48	0x3d5cc473	0.053898286
49	0x3cfbf57a	0.0307567
50	0x3d30ff02	0.043211944
51	0x3dcdd8a6	0.10051088
52	0x3d32953a	0.043599345
53	0xbcbe37c7	-0.023219956
54	0xbd8c512c	-0.0685142
55	0xbcdd1e4e	-0.02699199
56	0xbd371a62	-0.044702895
57	0xbca4c979	-0.0201156
58	0x3c03ed3e	0.008052168
59	0x3cd14cc8	0.025549307
60	0xbdb67dcd	-0.08910713
61	0x3d60a4ca	0.054844655
62	0xbc3033d4	-0.010754544
63	0x3bb06e9e	0.0053842803
64	0xbdc22d51	-0.094813
65	0x3bb78129	0.005600114
66	0x3c44e4ef	0.012017473
67	0xbc9e05b5	-0.01928983
68	0x3d486b43	0.048930418
69	0x3d1ab54a	0.037770547
70	0x3d848829	0.06471283
71	0x3d6d3776	0.05791422
72	0x3dbd3032	0.09237708
73	0x3d800820	0.0625155
74	0x3d4ed608	0.050497085
75	0x3d9fb8c6	0.077989146
76	0x3d2e75bc	0.04259275
77	0xbafcda35	-0.0019291105
78	0x3e055303	0.13019948
79	0x3d366bc7	0.04453638
80	0x3daf7901	0.085680015
81	0x3c1396bb	0.009008105
82	0x3d937895	0.072007336
83	0xbc3b1304	-0.011418108
84	0xbd9e23ff	-0.077217095
85	0xbdb426b8	-0.087964475
86	0xbc79f442	-0.0152559895
87	0xbb5ff747	-0.0034174488
88	0xbd8aa155	-0.06769053
89	0x3d196cde	0.03745734
90	0xbd882c32	-0.066490546
91	0xbc33240e	-0.010933889
92	0xbdbc428d	-0.09192381
93	0xbd0f7f14	-0.0350333
94	0x3d59facd	0.053217698
95	0x3d735ec7	0.05941656
96	0x3c0a0933	0.008425045
97	0xbd354431	-0.044254486
98	0xbd08c258	-0.033388466
99	0x3d803297	0.06259649
100	0xbbdeaf96	-0.006795834
101	0xbd09a199	-0.033601377
102	0x3d5def2b	0.054183166
103	0xbbe8c0ca	-0.0071030604
104	0x3d348228	0.04406944
105	0x3d041f9b	0.032256704
106	0xbc68fbc0	-0.014220178
107	0xbd4a8636	-0.0494444
108	0xbcfea0fb	-0.03108262
109	0x3c9afc78	0.018919215
110	0xbd73c56d	-0.05951445
111	0x3d7cc16a	0.06170789
112	0x3cdf9158	0.027290985
113	0x360de100	2.1141605e-06
114	0x3d661fd2	0.05618269
115	0xbc203ef8	-0.009780638
116	0xbc919c0d	-0.017774606
117	0x3cc33965	0.023831079
118	0xbd28d69f	-0.041220304
119	0xbd0b3173	-0.033982705
120	0x3d90bd88	0.070674
121	0xbd44dbd8	-0.04806122
122	0x3d255712	0.04036624
123	0x3d90cb50	0.07070029
124	0xbd2a1aa9	-0.04152933
125	0xbd5a8232	-0.05334682
126	0xbc1d99ce	-0.009619189
127	0xbd53db1a	-0.051722623

network.4.weight f4 [8, 128]
0	0x3da86c74	0.08223811
1	0xbd822a03	-0.06355669
2	0x3da0cfb7	0.078521185
3	0xbd8cc32f	-0.06873166
4	0x3da0149c	0.07816431
5	0x3d3e496a	0.04645673
6	0x3dd78cc1	0.105248936
7	0xbd9654cd	-0.07340393
8	0x3c9ff119	0.019524144
9	0x3d7d3cb4	0.06182547
10	0xbd7c7753	-0.061637234
11	0x3d4e55c4	0.05037476
12	0xb9b7c400	-0.0003505051
13	0x3d7dfd22	0.062008984
14	0x3d4b8e60	0.049696326
15	0x3b8843f0	0.0041584894
16	0xbc342c6e	-0.010996921
17	0xbd4a1d4d	-0.04934435
18	0x3ad3e4c0	0.0016166195
19	0x3d42c367	0.04754963
20	0xbd7af260	-0.061266303
21	0xbd883065	-0.066498555
22	0xbd8ed9a3	-0.06975105
23	0xbdd0c2ca	-0.10193403
24	0xbb702776	-0.0036644614
25	0x3bd08060	0.0063629597
26	0xbdb4c895	-0.088273205
27	0xbd705d7e	-0.05868291
28	0x3d5869f6	0.052835427
29	0xbdb685c9	-0.08912236
30	0x3d17b625	0.03703894
31	0xbd2cff31	-0.042235557
32	0xbdbd964f	-0.09257185
33	0x3b37c24e	0.0028039399
34	0xbdbc7d5c	-0.09203598
35	0x3d1a37f6	0.037651025
36	0xbcb39149	-0.021919863
37	0x3d803222	0.06259562
38	0x3c17d550	0.009267166
39	0x3dc9b90a	0.098497465
40	0x3d88f42e	0.066871986
41	0xbd36184f	-0.044456776
42	0x3c9d27ec	0.019184075
43	0x3d7bcf22	0.061476834
44	0x3b5e7fa7	0.0033950598
45	0x3c4c65a6	0.012475407
46	0xbdcf1402	-0.10111238
47	0x3d1955d3	0.037435364
48	0xbd78c464	-0.060734168
49	0x3d6c4779	0.05768535
50	0xbcdc1b36	-0.026868444
51	0x3d9eed32	0.07760085
52	0x3d104dde	0.03523051
53	0x3d0dccb3	0.034619045
54	0x3d43437e	0.047671787
55	0xbce52720	-0.027972758
56	0x3d682862	0.056679137
57	0xbd3660b2	-0.04452581
58	0x3d6f003e	0.05834984
59	0x3d4a46bc	0.049383864
60	0xbd46ca68	-0.048532873
61	0xbca63189	-0.020287292
62	0x3d025594	0.031819895
63	0x3d3974c3	0.04527737
64	0x3b66b44e	0.0035202685
65	0xbd1bd9c7	-0.038049486
66	0x3b9bfcfb	0.004760382
67	0x3d82b52f	0.06382214
68	0x3c895854	0.016765751
69	0xbd0329dc	-0.032022342
70	0xbdb876a3	-0.09007003
71	0x3d6a9ebd	0.05728029
72	0x3d2754c0	0.04085231
73	0x3d0ae585	0.033910293
74	0xbcc7af9e	-0.024375733
75	0xbcd35993	-0.025799548
76	0x3db03c58	0.0860526
77	0x3dad6cfb	0.08468052
78	0xbcca6630	-0.02470693
79	0x3d125dee	0.03573411
80	0x3d22fcd3	0.039791893
81	0xbdc200c1	-0.094728
82	0xbda89342	-0.08231212
83	0xbd80c38e	-0.06287299
84	0x3d4d5ebd	0.050139178
85	0xbb026a9d	-0.0019899972
86	0xbd83b46b	-0.06430896
87	0xbd021bdc	-0.03176485
88	0xbdb80c65	-0.08986739
89	0xbb2b63a0	-0.002615191
90	0x3d8f13a4	0.06986168
91	0x3c615a23	0.0137544
92	0xbc9dbeae	-0.019255962
93	0x3da67f7b	0.08129784
94	0xbba936dc	-0.0051640105
95	0x3d8c8c81	0.068627365
96	0xbc8e0525	-0.017336437
97	0x3d957d9e	0.0729935
98	0xbadc4ce9	-0.0016807589
99	0x3d8fb524	0.07016972
100	0x3d7fda30	0.06246394
101	0x3ca59faf	0.020217745
102	0xbca4b1ca	-0.020104308
103	0x3c8f7c5c	0.017515354
104	0xbdb3fede	-0.087888464
105	0x3c424e82	0.011859538
106	0x3c872c04	0.01650048
107	0xbdacfdf5	-0.08446876
108	0x3bb53a4e	0.005530632
109	0xbd1c8ffe	-0.03822326
110	0x3c3c2451	0.011483268
111	0x3d82d595	0.06388394
112	0x3d3de0fe	0.046357147
113	0xbd8de963	-0.069292806
114	0xbddc09d4	-0.10744062
115	0x3d3e95ee	0.046529703
116	0x3cd192a1	0.025582613
117	0xbbb4ca35	-0.005517269
118	0x3d32e63a	0.043676592
119	0xbc9cc362	-0.019136135
120	0xbd080578	-0.03320834
121	0xbcb08725	-0.021548817
122	0xbb59b21a	-0.003321773
123	0xbc850518	-0.01623778
124	0xbd810ab6	-0.06300871
125	0x3c0c4dd9	0.008563482
126	0xbcdd24fa	-0.02699517
127	0xbc493e3a	-0.012282902
128	0x3d8ca027	0.06866484
129	0x3c04c290	0.008103028
130	0x3d9e4571	0.07728089
131	0x3dec35d6	0.11533706
132	0x3d241c33	0.040065955
133	0xbd810666	-0.063000485
134	0x3d328bcd	0.043590356
135	0xbceba386	-0.028764497
136	0x3d86802f	0.06567418
137	0x3d04d986	0.03243401
138	0x3da84a3e	0.082172856
139	0xbd2d9ee2	-0.04238785
140	0x3c2a62e8	0.010399558
141	0x3c2d9e90	0.010596886
142	0x3d7b1a32	0.06130428
143	0xbbf6b8d0	-0.0075293556
144	0x3d6593a6	0.05604901
145	0x3ccf3753	0.025294935
146	0x3cf83fc4	0.030303843
147	0xbc801e04	-0.015639313
148	0x3b872b82	0.0041250596
149	0x3d6bf705	0.057608623
150	0x3d9639b2	0.07335223
151	0x3c04460d	0.008073342
152	0x3dc7f2d6	0.09763114
153	0xbd4bc643	-0.049749624
154	0xbd96b683	-0.0735903
155	0xbd1fe2b3	-0.039034557
156	0xbd604089	-0.054749046
157	0xbd967159	-0.07345838
158	0xbd8fde40	-0.07024813
159	0x3d3a1d02	0.04543782
160	0x3d8ffa16	0.07030122
161	0xbd88bf8f	-0.06677162
162	0x3d798eb8	0.060927123
163	0x3b312748	0.002703147
164	0xbc865ffe	-0.016403195
165	0x3da0f8f8	0.07859987
166	0xbd28b89a	-0.041191675
167	0x3d2c17c9	0.04201487
168	0x3cafc234	0.021454908
169	0x3db515ff	0.08842086
170	0x3d829fa1	0.06378103
171	0xbc60ebcd	-0.013728094
172	0x3da3fa26	0.080066964
173	0x3da0a106	0.07843213
174	0x3d8d7842	0.06907703
175	0xbd9ff93d	-0.0781121
176	0x3d9185d1	0.071056016
177	0x3dcf67ce	0.10127221
178	0x3d04e8d2	0.032448597
179	0x3d24ca6f	0.04023212
180	0xbcaf9610	-0.02143386
181	0x3d001db2	0.03127832
182	0x3dab5cc5	0.08367304
183	0x3d4969ca	0.049173154
184	0x3bd25ec0	0.0064199865
185	0xbc882e6c	-0.016623698
186	0xbc20a0d7	-0.009803972
187	0x3d3b9847	0.04579952
188	0xbd61358a	-0.0549827
189	0x3cbad8ca	0.022808451
190	0xbd9cbed1	-0.07653583
191	0x3c0681a4	0.00820962
192	0xbd71cf7e	-0.05903577
193	0x3d9a9189	0.0754729
194	0xbd83dc0e	-0.064384565
195	0xbc998314	-0.01873926
196	0x3d46a215	0.048494417
197	0xbd54ac92	-0.05192239
198	0x3c910d25	0.017706463
199	0x3c9b26a2	0.01893932
200	0xbd09d15c	-0.033646926
201	0xbd801db8	-0.062556684
202	0x3c83d5ee	0.01609322
203	0x3d1bd014	0.038040236
204	0x3db14055	0.086548485
205	0xbc3e3617	-0.011609576
206	0x3b8f3b22	0.004371063
207	0xbc2f4822	-0.01069835
208	0x3dbdf793	0.09275737
209	0x3dc0c5af	0.09412705
210	0x3cf3859e	0.0297268
211	0x3d93ff75	0.07226459
212	0x3d03f5e8	0.032216936
213	0xbcdb2b89	-0.026754158
214	0xbd1717e3	-0.036888015
215	0xbcbd3dcd	-0.023100758
216	0x3d160e32	0.03663463
217	0xbd85b122	-0.06527926
218	0xbcaf900c	-0.021430992
219	0x3dc8973e	0.09794472
220	0x3d1d808d	0.038452674
221	0xbd004962	-0.031319983
222	0xbcdde62e	-0.027087297
223	0xbd1ee1df	-0.038789626
224	0xbc8e7e45	-0.017394194
225	0x3d0765a1	0.033055905
226	0xbca4e77e	-0.020129915
227	0x3d5c254b	0.053746503
228	0xbdbd8bf3	-0.09255209
229	0x3cfefe02	0.03112698
230	0x3da83f8b	0.08215245
231	0xbc8cc2e8	-0.017182782
232	0x3d93a013	0.07208266
233	0xbd4fde8f	-0.050749358
234	0xbd335a09	-0.043787036
235	0x3cba59e8	0.022747949
236	0x3da68f9c	0.0813286
237	0x3d3d1516	0.046162687
238	0x3d107835	0.03527089
239	0xbd252aaa	-0.04032389
240	0x3ba9e79c	0.0051850807
241	0x3dc3f248	0.09567696
242	0xbd37aea0	-0.04484427
243	0xbd665a27	-0.05623832
244	0x3bffd22c	0.007807037
245	0xbbb3d071	-0.0054874946
246	0xbcef6a22	-0.029225413
247	0xbd0347fc	-0.03205107
248	0x3dc547f6	0.09632866
249	0x3dc33f2e	0.09533535
250	0x3de31851	0.11088622
251	0xbda2095f	-0.07911944
252	0xbb5f0cc5	-0.003403471
253	0xbb265b8b	-0.0025384154
254	0x3de6611c	0.11248991
255	0x3dd3e6a2	0.10346724

network.4.bias f4 [8]
0	0x3d29919e	0.041398637
1	0x3d49c1eb	0.0492572
2	0x3cff58bc	0.031170242
3	0x3dd5aa92	0.10432924
4	0x3c366fe4	0.011135075
5	0xbcc39ef6	-0.02387951
6	0xbd61d6ac	-0.055136368
7	0x3c8e23d6	0.017351072

exp_avg f4 [128, 26]
0	0x3bbdf662	0.0057971934
1	0xbc2cb255	-0.010540565
2	0x3b308358	0.0026933756
3	0xbbb87627	-0.005629319
4	0xbbd7fa63	-0.0065911277
5	0x3c9d2887	0.019184364
6	0x3c83ec8a	0.016104002
7	0x3d975c57	0.07390659
8	0x3cc52c68	0.024069026
9	0x3cb9136e	0.022592273
10	0x3d53e956	0.0517362
11	0x3d39ea1c	0.04538928
12	0x3c481ce3	0.012213918
13	0x3d6e31a4	0.05815281
14	0x3da923e9	0.082588024
15	0x3cbae5ca	0.02281465
16	0x3d4a6864	0.04941596
17	0x3dab13ff	0.08353423
18	0x3d93eb10	0.07222569
19	0x3d43a48e	0.047764353
20	0x3d46292a	0.0483791
21	0x3d26ca3e	0.040720217
22	0x3d153cc6	0.03643491
23	0x3c863bc2	0.016385917
24	0x3d2f0bb2	0.042735763
25	0x3d2c6f94	0.042098597
26	0x3b9614e9	0.0045801294
27	0xbb5fee8c	-0.0034169285
28	0x3ac421f0	0.0014963727
29	0x3aa02a78	0.0012219688
30	0xbb496974	-0.003073302
31	0xbb9b7070	-0.004743628
32	0xbac2d940	-0.0014865771
33	0x3c8918c0	0.016735435
34	0xb924fc80	-0.00015734322
35	0x3a8c0390	0.0010682214
36	0x3c27b9c2	0.010237159
37	0x3beb2950	0.0071765557
38	0x3b07194b	0.002061444
39	0x3c3614dc	0.011113372
40	0x3bbfe3a0	0.0058559924
41	0x3b5d9f40	0.0033816844
42	0x3c294eea	0.010333756
43	0x3c806329	0.015672283
44	0x3b9d2638	0.004795816
45	0x3c973130	0.018456072
46	0x3c7f5098	0.01558318
47	0x3bea6d60	0.007154152
48	0x3bdebd50	0.00679747
49	0x3b42537e	0.0029651816
50	0x3bb635d0	0.005560614
51	0x3baefcf4	0.005340213
52	0x39cf21e2	0.0003950736
53	0x3a91ce59	0.0011124118
54	0x3a09f310	0.00052623544
55	0x3a9d0c8f	0.0011981892
56	0x3aa59955	0.0012634197
57	0x3aa60012	0.0012664816
58	0x39b75c68	0.00034973328
59	0xbb1dec5e	-0.0024097185
60	0x3aa2fb04	0.0012434428
61	0x3a9cd668	0.0011965754
62	0xb960b66c	-0.00021430262
63	0xbb27f022	-0.0025625308
64	0x39c68ec3	0.0003787187
65	0xbaff2ac7	-0.0019467705
66	0xbb18f7e3	-0.0023341111
67	0xb8f0a880	-0.000114754774
68	0xb9e59ae4	-0.00043793686
69	0xbac88653	-0.0015298821
70	0xbb13276e	-0.0022453922
71	0xbac22952	-0.001481334
72	0xbb81796a	-0.0039512413
73	0xba8012b8	-0.0009771204
74	0xba803d03	-0.0009783808
75	0xb9d397c3	-0.00040358127
76	0xbaa1d4b1	-0.0012346712
77	0xba930bc3	-0.0011218715
78	0x3bc7746a	0.0060868757
79	0xbc279e54	-0.010230619
80	0x3af0188c	0.0018317862
81	0xbbe5ae18	-0.007009279
82	0xbbf7216b	-0.0075418255
83	0x3c9d5b7c	0.019208662
84	0x3c89857c	0.016787283
85	0x3d984fc0	0.07437086
86	0x3cb9a04a	0.02265944
87	0x3cb5298c	0.022114538
88	0x3d4eec3f	0.05051827
89	0x3d358d25	0.04432406
90	0x3c372b7d	0.011179802
91	0x3d6e9472	0.058247037
92	0x3d97846f	0.073983066
93	0x3cdfdc8d	0.027326846
94	0x3d6d5912	0.057946272
95	0x3d9bc35e	0.07605623
96	0x3d90238d	0.07038031
97	0x3d6bf784	0.057609096
98	0x3d6b1f66	0.05740299
99	0x3d25365c	0.040335044
100	0x3d14ee63	0.036360156
101	0x3c849a2a	0.016186792
102	0x3d296fc6	0.04136636
103	0x3d26b0ef	0.04069608
104	0x3c778fac	0.015109938
105	0xbb461d98	-0.0030230042
106	0x3be84784	0.0070886035
107	0x3b52b1e4	0.0032149488
108	0xba9338a8	-0.0011232095
109	0x3c6f5c22	0.0146093685
110	0x3c29c036	0.010360768
111	0x3d7363fd	0.059421528
112	0x3c965cfd	0.018354887
113	0x3cb3530f	0.021890191
114	0x3d4353c8	0.047687322
115	0x3d039e6a	0.032133497
116	0x3c670f4a	0.014102766
117	0x3d41387e	0.047173016
118	0x3d661823	0.056175362
119	0x3c955810	0.018230468
120	0x3d3efea0	0.046629548
121	0x3d76b225	0.060228486
122	0x3d58113b	0.052750807
123	0x3d71624f	0.058931645
124	0x3d412484	0.047153965
125	0x3d07b5da	0.03313241
126	0x3cfb05d7	0.030642433
127	0x3c647f2a	0.013946334
128	0x3d024c34	0.031810954
129	0x3d01a8ba	0.03165505
130	0xbc0a7529	-0.008450785
131	0xbcbd8cf2	-0.023138497
132	0xbbaf5eea	-0.005351891
133	0xbca91f3f	-0.020644782
134	0xbc7ab486	-0.015301829
135	0x3cbd1200	0.023079872
136	0x3cfe6f30	0.031058878
137	0x3d098466	0.03357353
138	0x3cff3ef6	0.031157952
139	0x3c939016	0.018013041
140	0x3ca9f158	0.020744964
141	0x3d3648a0	0.044502854
142	0x3c4852f8	0.012226813
143	0x3cfb3fa5	0.030669997
144	0x3d82b269	0.06381685
145	0x3cb73554	0.022364296
146	0x3cd38edc	0.025824957
147	0x3d39da20	0.045374036
148	0x3cdbd39f	0.026834307
149	0x3b98acd0	0.0046592727
150	0x3d1583ee	0.03650277
151	0x3c984b33	0.018590545
152	0x3c9b6c4c	0.018972538
153	0x3c262123	0.010139736
154	0x3cd5b314	0.026086368
155	0x3cc62791	0.024188789
156	0x3a8d30f4	0.0010772035
157	0xbb8162ee	-0.003948561
158	0xba8a77f9	-0.0010564319
159	0xbc008090	-0.007843152
160	0xbb7682a1	-0.0037614482
161	0x3c34e343	0.011040512
162	0x3b941784	0.004519405
163	0x3d4c6981	0.049905304
164	0x3c30b9a2	0.010786446
165	0x3c4a9a78	0.01236593
166	0x3d16f71c	0.036856756
167	0x3cce4ab7	0.025182111
168	0x3ba39370	0.004991941
169	0x3d0db308	0.034594566
170	0x3d399995	0.045312483
171	0x3bebaa64	0.007191943
172	0x3d1032b8	0.03520462
173	0x3d41440f	0.047184046
174	0x3d4a041f	0.049320336
175	0x3d26e5ae	0.040746383
176	0x3d134e5e	0.03596341
177	0x3ccf887d	0.025333637
178	0x3cbef078	0.023308024
179	0x3c2b0845	0.010438983
180	0x3ccb35bb	0.024805894
181	0x3cc674f0	0.024225682
182	0x263b339b	6.4948596e-16
183	0x2593f0d6	2.5663632e-16
184	0x2faeff6a	3.1831898e-10
185	0x00000000	0.0
186	0x00000000	0.0
187	0xa4c22166	-8.419067e-17
188	0x274aaa26	2.812537e-15
189	0x31a95a15	4.9287885e-09
190	0xa5cff1f6	-3.6072735e-16
191	0xa5d95855	-3.7703356e-16
192	0x31290803	2.459729e-09
193	0x3077821e	9.0042984e-10
194	0x00000000	0.0
195	0x318d6e1c	4.116158e-09
196	0x30727386	8.8203256e-10
197	0x30a1a268	1.176045e-09
198	0x31f27392	7.056266e-09
199	0x30f273c1	1.7640717e-09
200	0x30f273b3	1.7640701e-09
201	0x318ea3b7	4.151356e-09
202	0x30f27392	1.7640664e-09
203	0x3108e467	1.9920436e-09
204	0x30db0704	1.5936341e-09
205	0x303685de	6.640145e-10
206	0x313685de	2.656058e-09
207	0x31244548	2.3904523e-09
208	0x3c7299ea	0.014807204
209	0xbc573700	-0.013135672
210	0x3c0df9f6	0.008665552
211	0xbb38899f	-0.00281582
212	0xbbac4c7e	-0.005258142
213	0x3ce997e6	0.028514814
214	0x3ccf7962	0.025326435
215	0x3d97478f	0.073866956
216	0x3d0a147c	0.03371094
217	0x3cee2734	0.029071428
218	0x3d7d4a28	0.0618383
219	0x3d601665	0.054708857
220	0x3cce45a5	0.025179693
221	0x3d83cdaf	0.064357154
222	0x3dd0feba	0.10204835
223	0x3cd5a414	0.026079215
224	0x3d5c4fd4	0.053787068
225	0x3d9ece4f	0.07754194
226	0x3daed595	0.08536831
227	0x3d7475a5	0.059682507
228	0x3d4759e9	0.04866973
229	0x3d2fe920	0.042946935
230	0x3d24639c	0.040134057
231	0x3ca17d99	0.01971321
232	0x3d47ae29	0.048750076
233	0x3d43be98	0.047789186
234	0xbbb38d8a	-0.0054795193
235	0xbc171310	-0.009220853
236	0xbb480670	-0.0030521415
237	0xbc24c9e0	-0.010057896
238	0xbc05ef68	-0.008174755
239	0x3b9d669e	0.0048034927
240	0x3bdeda68	0.0068009384
241	0x3cfc8b5e	0.030828174
242	0x3bfba70f	0.007679827
243	0x3b8b4c73	0.004251057
244	0x3c86a22a	0.016434748
245	0x3ca19b4a	0.019727368
246	0x3aecc252	0.0018063283
247	0x3cb9cb1a	0.022679854
248	0x3cece5b8	0.028918132
249	0x3c500b55	0.012698014
250	0x3cc4be97	0.024016662
251	0x3ce20c04	0.02759362
252	0x3cd82a02	0.026387218
253	0x3c998d1e	0.018744048
254	0x3ccad094	0.02475766
255	0x3c759222	0.014988454

exp_avg_sq f4 [128, 26]
0	0x3ad4d21b	0.0016236933
1	0x3b0a5e8c	0.0021113483
2	0x3ae189c3	0.0017207194
3	0x3b2bcdd6	0.0026215217
4	0x3af98e96	0.0019039686
5	0x3bdd66e0	0.0067566484
6	0x3bf978d6	0.0076132817
7	0x3c9f74a0	0.01946479
8	0x3bddb7c7	0.0067662927
9	0x3bda5f46	0.0066641895
10	0x3c4fb8d4	0.012678344
11	0x3c2c822e	0.010529084
12	0x3b47dc60	0.0030496344
13	0x3c84f886	0.016231786
14	0x3c990e32	0.018683527
15	0x3c0ac1b2	0.008469032
16	0x3ca98e62	0.020697776
17	0x3cb95e8a	0.022628088
18	0x3cb2a219	0.02180581
19	0x3ca81248	0.02051653
20	0x3c9d09c1	0.01916969
21	0x3bf1c40f	0.0073781083
22	0x3bc89f7f	0.006122529
23	0x3aa39e57	0.0012483102
24	0x3c02c172	0.007980691
25	0x3c00b4b5	0.007855584
26	0x3a0d12c6	0.00053815206
27	0x3a42aa73	0.00074259116
28	0x3a247bc9	0.0006274549
29	0x3a7487b5	0.0009328083
30	0x3a3f854c	0.00073059346
31	0x3b3b8f72	0.0028619436
32	0x3b4e5824	0.0031485641
33	0x3c032996	0.00800552
34	0x3b3959aa	0.0028282204
35	0x3b344610	0.002750758
36	0x3b9ab388	0.004721109
37	0x3b903f42	0.004402072
38	0x3a9e7b23	0.0012091141
39	0x3bddd68d	0.006769961
40	0x3bf3dda5	0.0074421936
41	0x3b729ee6	0.003702098
42	0x3c0a453b	0.008439357
43	0x3c16a2a2	0.009194048
44	0x3c0f999d	0.008764652
45	0x3c0c2807	0.008554465
46	0x3bf8a67e	0.007588207
47	0x3b483984	0.003055186
48	0x3b2491fa	0.0025111423
49	0x3a0285aa	0.0004979024
50	0x3b5ba67c	0.003351598
51	0x3b56f8be	0.003280207
52	0x391c54c2	0.00014908894
53	0x394ad7af	0.0001934457
54	0x394c3a01	0.00019476564
55	0x394398d9	0.0001865359
56	0x395318f0	0.00020131818
57	0x3a1ecd08	0.0006057774
58	0x3a2fd2ce	0.00067071326
59	0x3a9e86c2	0.0012094604
60	0x3a12e30a	0.00056032895
61	0x3a1824ed	0.0005803842
62	0x3a4ccd86	0.0007812608
63	0x3a8b6330	0.0010634419
64	0x39880611	0.0002594446
65	0x3a99076e	0.0011675188
66	0x3ab5e4f6	0.001387744
67	0x3a272cc7	0.0006377217
68	0x3a8f69ef	0.0010941605
69	0x3ac0140e	0.0014654414
70	0x3ae24cd0	0.0017265324
71	0x3a8d6211	0.0010786672
72	0x3adfc2dd	0.0017071624
73	0x3a11eab2	0.00055662834
74	0x39fb01ab	0.00047875693
75	0x38d8d70e	0.0001033974
76	0x3a1b0190	0.00059130136
77	0x3a18d146	0.0005829524
78	0x3ad5ae8d	0.001630263
79	0x3b07dc70	0.0020730756
80	0x3aef1786	0.0018241263
81	0x3b2a2229	0.0025960302
82	0x3afb51a6	0.0019174113
83	0x3bda608a	0.0066643404
84	0x3bf37611	0.007429846
85	0x3c9bb420	0.019006789
86	0x3bdb0f88	0.006685201
87	0x3bd9c21d	0.0066454546
88	0x3c45a23c	0.0120626055
89	0x3c2a612c	0.010399144
90	0x3b4804c0	0.003052041
91	0x3c80d195	0.015724937
92	0x3c91b276	0.017785292
93	0x3c09a708	0.00840164
94	0x3ca0fbab	0.019651255
95	0x3cb1d002	0.021705631
96	0x3caba1cf	0.02095118
97	0x3ca1c3ed	0.019746745
98	0x3c95875f	0.018253027
99	0x3beab44b	0.007162606
100	0x3bc3dd63	0.005977319
101	0x3a9f416a	0.0012150232
102	0x3bfd41e4	0.007728802
103	0x3bf91350	0.007601179
104	0x3ae7e6c3	0.0017692674
105	0x3b0dc8aa	0.0021634498
106	0x3b06952b	0.0020535688
107	0x3b312a3c	0.002703323
108	0x3b0d3dbb	0.0021551687
109	0x3bfb8615	0.007675896
110	0x3c0f1dcb	0.008735131
111	0x3cafcd8c	0.021460317
112	0x3bfea250	0.007770814
113	0x3bfbbe4c	0.0076825973
114	0x3c5bdb00	0.013418913
115	0x3c49328e	0.01228012
116	0x3b5ba5c2	0.0033515547
117	0x3c950b6a	0.01819392
118	0x3ca57ff3	0.020202613
119	0x3c2656bc	0.010152515
120	0x3cbba8a8	0.02290757
121	0x3cca5461	0.024698438
122	0x3cc3ed17	0.023916764
123	0x3cb80e15	0.022467652
124	0x3ca6d923	0.02036721
125	0x3c07dc1b	0.008292223
126	0x3be31adb	0.0069306917
127	0x3ab72789	0.0013973574
128	0x3c136430	0.0089960545
129	0x3c108503	0.008820775
130	0x3b036fc6	0.0020055636
131	0x3b106e85	0.002203853
132	0x3b11c2b0	0.0022241287
133	0x3b2a9cf3	0.002603349
134	0x3b22a1c5	0.002481566
135	0x3c1f0281	0.009705187
136	0x3c29ef8b	0.010372053
137	0x3cad4cd9	0.021154808
138	0x3c15470c	0.009111177
139	0x3c1564b4	0.009118248
140	0x3c0e31ae	0.008678837
141	0x3c383d69	0.01124511
142	0x3b979853	0.0046263128
143	0x3c7fd21f	0.015614062
144	0x3c91b25d	0.017785246
145	0x3c301a4e	0.010748459
146	0x3ca58e28	0.020209387
147	0x3ca0951d	0.019602353
148	0x3c974884	0.018467195
149	0x3c8c3af6	0.017117959
150	0x3c9dc7b0	0.019260257
151	0x3be54d09	0.0069977087
152	0x3bb5e15a	0.0055505456
153	0x3a8f41a4	0.0010929597
154	0x3bfc368f	0.0076969336
155	0x3bf80c9f	0.007569864
156	0x394f1971	0.00019750536
157	0x39171053	0.00014406563
158	0x39cf2074	0.00039506296
159	0x39b0f8eb	0.00033754794
160	0x3974ccb5	0.00023345913
161	0x3acd09ad	0.0015643142
162	0x3aedfae0	0.0018156432
163	0x3bee1ef1	0.007266872
164	0x3ac12790	0.0014736522
165	0x3ab0ce08	0.0013489136
166	0x3b92d42b	0.004480859
167	0x3b9768cf	0.0046206485
168	0x3a108343	0.00055127236
169	0x3bd0b5df	0.006369337
170	0x3bdac4d8	0.0066762976
171	0x3b1e44b2	0.0024149832
172	0x3bfe7c92	0.007766315
173	0x3c10e948	0.008844681
174	0x3c066555	0.00820287
175	0x3c030cfa	0.007998699
176	0x3c05aca2	0.008158835
177	0x3b39a767	0.002832854
178	0x3b1b65c7	0.0023711787
179	0x3a00b3ee	0.0004909624
180	0x3b48dea9	0.0030650294
181	0x3b4502e5	0.003006154
182	0x30e07ebd	1.6334166e-09
183	0x2f8c3483	2.5503163e-10
184	0x30d2b5c4	1.5331172e-09
185	0x00000000	0.0
186	0x00000000	0.0
187	0x2df16bb0	2.744635e-11
188	0x330642c4	3.126003e-08
189	0x34bb539a	3.4892292e-07
190	0x300a8072	5.038664e-10
191	0x30174e80	5.5045035e-10
192	0x342bd107	1.600166e-07
193	0x3176bed1	3.5906178e-09
194	0x00000000	0.0
195	0x3495eff6	2.7928007e-07
196	0x33b0d0b6	8.233603e-08
197	0x34a4ff3a	3.0733082e-07
198	0x35627754	8.4365206e-07
199	0x34af10a9	3.2608412e-07
200	0x34ef03bc	4.4519936e-07
201	0x34e29d72	4.2210337e-07
202	0x3474252d	2.2737795e-07
203	0x336b0236	5.4717212e-08
204	0x331667cc	3.5019e-08
205	0x31d0e579	6.0796848e-09
206	0x33d0e579	9.7274956e-08
207	0x33a934c7	7.879276e-08
208	0x3b3fdfbe	0.0029277648
209	0x3b59f3f2	0.0033256975
210	0x3b4aa2fc	0.00309199
211	0x3b71db58	0.003690442
212	0x3b629b40	0.00345774
213	0x3c4e63d0	0.012597039
214	0x3c6332ef	0.013867124
215	0x3d06e115	0.0329295
216	0x3c46c886	0.012132769
217	0x3c43662c	0.011926215
218	0x3ca0b8e5	0.019619415
219	0x3c97230c	0.018449329
220	0x3bc470ad	0.0059948773
221	0x3cdeee7f	0.027213333
222	0x3cff6a45	0.031178603
223	0x3c707bb2	0.014677929
224	0x3d0bb3f9	0.034107182
225	0x3d11de7c	0.03561257
226	0x3d14deb9	0.036345217
227	0x3d052a4c	0.03251104
228	0x3d0152ff	0.031573292
229	0x3c4a71cb	0.012356232
230	0x3c263d74	0.0101464875
231	0x3b068d88	0.0020531137
232	0x3c5c1dc8	0.013434835
233	0x3c589f06	0.013221508
234	0x3a1e30ac	0.00060344744
235	0x3a36af80	0.00069689006
236	0x3a32ee2a	0.00068256503
237	0x3a517ea1	0.00079915865
238	0x3a37d6ac	0.00070128846
239	0x3b23b7d1	0.002498139
240	0x3b36e66d	0.002790834
241	0x3bdeb259	0.006796163
242	0x3b20fc73	0.0024564534
243	0x3b20b3be	0.0024521197
244	0x3b87d98d	0.004145807
245	0x3b68442c	0.0035441024
246	0x3a8fcc6c	0.0010970957
247	0x3bb72bec	0.0055899527
248	0x3bd46613	0.0064818948
249	0x3b462670	0.0030235313
250	0x3bddf1d0	0.006773211
251	0x3bf0b6a4	0.007345991
252	0x3be1d2d8	0.0068915896
253	0x3bdcb219	0.006735098
254	0x3bdcf633	0.0067432164
255	0x3b256a6c	0.0025240434

exp_avg f4 [128]
0	0x3daa2372	0.08307542
1	0x3c820ee2	0.015876237
2	0xbb364326	-0.002781102
3	0x3daa6a09	0.08321006
4	0x3d8a03c4	0.067389995
5	0x3d33769e	0.043814294
6	0x3d4a6d79	0.049420808
7	0x31ca0b00	5.8802243e-09
8	0x3dbc4a6c	0.09193882
9	0x3d04b5a5	0.032399792
10	0x358f85cd	1.0693271e-06
11	0x3d8598e9	0.06523306
12	0x3d974742	0.07386638
13	0xb894632e	-7.0756636e-05
14	0x3cedea6b	0.029042443
15	0x3c9b8136	0.018982511
16	0x3d5c6770	0.053809583
17	0x3d9f057c	0.07764718
18	0x2fc06990	3.4999603e-10
19	0xbc17a6e8	-0.009256102
20	0xbd6a7071	-0.05723614
21	0x3d848da0	0.06472325
22	0x3dc0cd0c	0.094141096
23	0x00000000	0.0
24	0xba110a20	-0.000553282
25	0x00000000	0.0
26	0x3dc207b4	0.094741255
27	0x3c68457c	0.014176723
28	0x3d6d5344	0.057940736
29	0x3bd2a6e3	0.006428586
30	0x3ce80b6e	0.028325763
31	0x3d8b8acc	0.06813583
32	0x3ae57836	0.0017507139
33	0x3aac03b5	0.0013123663
34	0x1fdb378e	9.2842015e-20
35	0x00000000	0.0
36	0x3bd8ec42	0.006619961
37	0x3dcafaae	0.099110946
38	0x3daecb1b	0.08534833
39	0x3d2bf952	0.041985817
40	0x3adbb000	0.0016760826
41	0x3d8a1ca8	0.06743747
42	0x3dd65272	0.10464944
43	0x3d8b4079	0.067994066
44	0x3cf86504	0.030321606
45	0x3c9598a6	0.018261265
46	0x35c5642c	1.4706798e-06
47	0xb9925a4d	-0.0002791457
48	0x00000000	0.0
49	0x3c69a823	0.014261278
50	0x3d1c4382	0.038150318
51	0x3da7b23e	0.08188294
52	0xb9b8e585	-0.0003526622
53	0x3be20ebe	0.00689873
54	0x00000000	0.0
55	0xbb837892	-0.004012176
56	0x3d8f09c6	0.06984286
57	0x3c1321d6	0.008980235
58	0x3c7c667c	0.015405294
59	0x3d25d7c4	0.040488973
60	0x3d821758	0.06352109
61	0x3dc28d6b	0.094996296
62	0x3d88c5d8	0.06678361
63	0x3c268369	0.010163167
64	0x35629edc	8.442273e-07
65	0x00000000	0.0
66	0xb83a7d6f	-4.4462675e-05
67	0xbade1ac8	-0.0016945237
68	0x3cc6e9ff	0.0242815
69	0x3dc2ee6c	0.095181316
70	0x3daace48	0.08340126
71	0x3c890519	0.016726064
72	0x38d2678d	0.00010032868
73	0x3d9e967c	0.07743546
74	0xbba2ac46	-0.0049643843
75	0x3c84a2f1	0.016190978
76	0xbd406c20	-0.046978116
77	0x3d74c969	0.059762392
78	0x3d85f066	0.06539993
79	0x00000000	0.0
80	0x3d231386	0.03981354
81	0x3c0dff5c	0.008666839
82	0x37b7abe2	2.189534e-05
83	0x3d1d02a7	0.038332608
84	0xbc728b2e	-0.014803691
85	0x34c93b76	3.748243e-07
86	0x3c5ea48f	0.0135890385
87	0x3ce6d884	0.028179415
88	0xbbc43448	-0.0059876777
89	0x00000000	0.0
90	0x3b0d3f4d	0.0021552623
91	0xbbcf5f40	-0.0063284934
92	0x3bb2a85d	0.0054521994
93	0x3d179b7c	0.037013516
94	0x00000000	0.0
95	0x3cc68009	0.024230974
96	0x3bb99a54	0.0056641493
97	0x3b47d19e	0.0030489932
98	0x3bb51994	0.005526731
99	0x3da77dd5	0.081782974
100	0x3d08c7f2	0.033393808
101	0xbb9ff754	-0.0048817787
102	0x3d82af72	0.0638112
103	0x3daff33d	0.08591316
104	0x3c9ef6c0	0.019404769
105	0xbd23af25	-0.039961953
106	0x00000000	0.0
107	0x3bba97c4	0.0056943614
108	0x3d874b13	0.06606116
109	0xbbb11f0d	-0.005405313
110	0x3b1b2f39	0.002367927
111	0x3c1c8db0	0.009555265
112	0x3a90ff1c	0.0011062357
113	0x3d420e7b	0.04737709
114	0x3cfe4a85	0.031041393
115	0x3d539e20	0.05166447
116	0xba6e3399	-0.0009086668
117	0x00000000	0.0
118	0x3db7d955	0.08977
119	0x3b6e06b8	0.0036319923
120	0x3d727404	0.059192672
121	0x3bd53324	0.0065063406
122	0x3d9ac3a3	0.07556846
123	0x3d1d7334	0.038439944
124	0x3d204b69	0.039134417
125	0x3c513d16	0.012770912
126	0x3cabec6b	0.020986756
127	0x3c1d465b	0.009599294

exp_avg_sq f4 [128]
0	0x3d07af34	0.03312607
1	0x3c625d90	0.013816252
2	0x3b1c26fb	0.0023826945
3	0x3d037295	0.032091696
4	0x3d181620	0.037130475
5	0x3d028555	0.031865437
6	0x3c54f84c	0.012998652
7	0x3518ff4d	5.6995924e-07
8	0x3d637b33	0.055537414
9	0x3c3ae8f2	0.011408078
10	0x363f70a1	2.8526777e-06
11	0x3cd7a609	0.026324289
12	0x3c8ea8a3	0.017414397
13	0x360e6419	2.1217913e-06
14	0x3c69b08a	0.014263282
15	0x3bfe0a59	0.0077526984
16	0x3c778d78	0.015109412
17	0x3cfaad70	0.03060028
18	0x384c3693	4.8688216e-05
19	0x39a8bec6	0.00032185594
20	0x3b1ae96a	0.002363766
21	0x3cb1c134	0.021698572
22	0x3d2115c5	0.0393274
23	0x00000000	0.0
24	0x3ad7cfc9	0.0016465123
25	0x00000000	0.0
26	0x3d4aa709	0.049475703
27	0x3c454b87	0.012041933
28	0x3c449fa9	0.012000957
29	0x3ad01bb7	0.00158774
30	0x3c0b196c	0.008489948
31	0x3c59bb06	0.013289219
32	0x39235846	0.00015577776
33	0x3a49141f	0.000767054
34	0x37deb024	2.6546484e-05
35	0x00000000	0.0
36	0x3b4227b8	0.0029625725
37	0x3d33d3d7	0.043903198
38	0x3cdd6e69	0.027030187
39	0x3c8f7b15	0.017514745
40	0x3c3031e1	0.01075408
41	0x3cd8385a	0.026394058
42	0x3d5b9452	0.053608246
43	0x3d18cb29	0.037303124
44	0x3c36a7c3	0.011148396
45	0x3aec514c	0.00180296
46	0x3892f347	7.0071364e-05
47	0x327b24ea	1.4618516e-08
48	0x00000000	0.0
49	0x3bc5bb7f	0.006034314
50	0x3c719d54	0.014746983
51	0x3cb8d765	0.022563646
52	0x3997628f	0.00028874396
53	0x3b378364	0.00280019
54	0x00000000	0.0
55	0x3a9ff195	0.0012202734
56	0x3cf58220	0.029969275
57	0x3ccb10f4	0.024788357
58	0x3c8da857	0.017292185
59	0x3c5ee0e2	0.013603421
60	0x3cea3087	0.028587593
61	0x3d396c01	0.045269016
62	0x3d14e306	0.03634932
63	0x3b81a1c0	0.0039560497
64	0x38830b66	6.24869e-05
65	0x00000000	0.0
66	0x38fb425b	0.00011980972
67	0x3bd7d09f	0.006586149
68	0x3d02ddad	0.031949688
69	0x3d4bd3d5	0.049762566
70	0x3ce9e1c9	0.028550046
71	0x3c85df2b	0.016341766
72	0x38c1e785	9.246081e-05
73	0x3d2cc920	0.042183995
74	0x3a3e7cf7	0.0007266546
75	0x3c61efdf	0.0137901
76	0x3c244605	0.01002646
77	0x3c6da286	0.014504081
78	0x3cb5fcbb	0.022215238
79	0x00000000	0.0
80	0x3c885cab	0.01664575
81	0x3c5600cd	0.013061714
82	0x392f54aa	0.0001672084
83	0x3c880883	0.016605621
84	0x3c67bae2	0.014143677
85	0x3a413a05	0.00073710113
86	0x3c201d03	0.009772542
87	0x3c895773	0.016765332
88	0x3c9c88ae	0.019108143
89	0x00000000	0.0
90	0x39170c7f	0.00014405137
91	0x3b18907e	0.0023279483
92	0x3b149af8	0.0022675376
93	0x3c99aaa4	0.018758126
94	0x00000000	0.0
95	0x3c2b5673	0.010457623
96	0x3aceb29d	0.0015769784
97	0x3be642c1	0.0070270007
98	0x3c4646f3	0.012101877
99	0x3d0089ce	0.03138142
100	0x3c9da5d1	0.019244106
101	0x3b935382	0.004496039
102	0x3c7db2b8	0.015484504
103	0x3d839b83	0.06426146
104	0x3b43acfd	0.0029857748
105	0x3c374416	0.011185667
106	0x00000000	0.0
107	0x3ac53a98	0.001504737
108	0x3cf851eb	0.030312499
109	0x3990a576	0.00027589098
110	0x3910f365	0.00013823582
111	0x3b6b4bb2	0.0035903272
112	0x3a5aae18	0.0008341982
113	0x3c0b011a	0.008484149
114	0x3cc8f635	0.024531463
115	0x3c413f3d	0.011794862
116	0x3a720175	0.00092317845
117	0x00000000	0.0
118	0x3d5dce79	0.054151986
119	0x3b6a70ac	0.0035772724
120	0x3cc34348	0.023835793
121	0x3cb8eb4d	0.022573138
122	0x3d3046d5	0.0430363
123	0x3caa1630	0.020762533
124	0x3b639567	0.0034726502
125	0x3b8882c7	0.0041659805
126	0x3c3275f6	0.010892382
127	0x3c2a6238	0.010399394
