models/reinforce/reinforce_high_lr/checkpoint_ep1000.pth (torch, 259622 bytes, 18 tensors)

network.0.weight f4 [128, 26]
000000 19 06 f9 bd 1c 1f 1f 3e 6b 8d 23 bd 2a 3f 15 3e
       -0.12159366 0.15539211 -0.03992979 0.14574876
000010 d6 a0 37 be 1a d3 27 3d cd 54 18 3c 3e 26 ba 3d
       -0.17932448 0.040972807 0.009297562 0.09089325
000020 44 dd e1 3c 02 a8 f6 bd a5 ec da bd 55 05 63 ba
       0.027571328 -0.12043764 -0.106896676 -0.00086601573
000030 b2 6f 28 3e d4 dc b6 3d d6 49 c7 bd a4 c7 a1 3d
       0.16448858 0.08928838 -0.0973088 0.078994066
000040 cf 91 05 be 95 c5 24 be 07 4a f9 3b bc 0a 19 be
       -0.13043903 -0.16090997 0.0076077017 -0.14945501
000050 6c 82 51 3d ca 38 b7 bc 2f 01 7d 3d 9f db 70 bb
       0.05114977 -0.022365946 0.061768707 -0.0036751998
000060 64 50 09 3e 3a df e0 bd 01 20 66 3d 66 27 16 bd
       0.13409573 -0.10980077 0.056182865 -0.036658667
000070 0c 6d 35 3d ff 84 06 bd 5e 91 9c bd 68 b6 fa ba
       0.04429345 -0.03284168 -0.07644914 -0.0019127848
000080 f5 30 97 bd 33 25 21 bd ce 70 a5 bd 50 9d 1e be
       -0.07382385 -0.039342117 -0.080781564 -0.15489697
000090 5f da 90 bd f7 96 2d be 60 cb a6 3d 9f 75 e6 bd
       -0.07072901 -0.1695212 0.081442595 -0.11252903
0000a0 7f 41 3f be 75 be 05 3e 91 fa f9 bb 4f 2b b4 3d
       -0.18677329 0.13060935 -0.007628747 0.08797323
0000b0 d9 87 5a bd 5e cb 16 3e 6e 77 06 be 17 cf b1 bd
       -0.05335221 0.14726016 -0.13131496 -0.086820774
0000c0 35 a9 9f bd 55 2d 2d 3d e1 da 65 be 52 0d c0 3d
       -0.077959456 0.04227956 -0.22446777 0.09377541
0000d0 55 c5 01 be 08 27 23 bd 1a ca 28 be 84 88 7a bd
       -0.12672932 -0.039832145 -0.16483346 -0.061165348
0000e0 b1 49 dd 3d 96 57 e6 bc 0f 53 3c be 19 c9 4f be
       0.10805071 -0.028117936 -0.1839106 -0.20291556
0000f0 0f 32 ff 3d 66 65 1c 3d 45 7e 39 bd ff db 44 bd
       0.1246072 0.03818264 -0.045286436 -0.048061367
000100 74 8a 78 bd 39 33 46 be 8c e9 14 be 34 94 97 3d
       -0.060678914 -0.19355477 -0.14542216 0.074013144
000110 ac 27 8d bd b3 0e 99 3d db 58 39 be d1 76 72 3d
       -0.068923324 0.07473507 -0.18100302 0.059195343
000120 66 de f2 3d 66 c3 04 3e e9 ff a8 3d f1 7b e2 3d
       0.118588254 0.12965164 0.08251936 0.11058796
000130 0e aa cf 3c 52 b1 76 bd 1d c6 3b be 99 cb c1 bd
       0.025349643 -0.0602277 -0.18337293 -0.09462661
000140 60 61 51 bc 80 c3 3b 3c 50 20 4c bc c0 5b b0 bd
       -0.012779564 0.011460185 -0.012458876 -0.0861125
000150 79 7b 2f be b4 4b 32 be 2c 13 44 bd fc 9f 42 3d
       -0.17136945 -0.17411691 -0.047869846 0.047515854
000160 20 24 69 3c 3e 2d 20 be 12 ac fe 3d 28 18 d2 bc
       0.014229804 -0.15642259 0.124351636 -0.025646284
000170 3c 31 23 be cd ba 3a 3e fe 72 c9 bd 8c 8b 71 3d
       -0.1593675 0.18235321 -0.09836386 0.058970973
000180 1a a5 81 bd 19 e4 2a be 41 f4 e0 bd be 00 a2 3d
       -0.06330319 -0.16688575 -0.10984088 0.07910298
000190 9c bd 5d 3d 24 3a cd bd 70 89 6e bc 9e 61 e2 bd
       0.054135904 -0.10020855 -0.014559135 -0.11053775
0001a0 7e 36 3e 3c 9d 0d 66 be db bb 1b be ba 90 a2 bd
       0.011609672 -0.2246613 -0.1520838 -0.07937761
0001b0 89 a2 5b be 67 82 f7 bd fc 89 c9 bd ac 1d e0 3c
       -0.21448721 -0.12085419 -0.098407716 0.027357899
0001c0 e9 92 24 be 1f 6c 99 3d 93 b2 94 3d 4f 22 27 be
       -0.16071667 0.074913256 0.07260623 -0.16321681
0001d0 68 5a c4 bd 36 cf f0 bd 27 d9 e5 bc 50 60 05 be
       -0.09587556 -0.11758272 -0.028057648 -0.13025022
0001e0 9a 6f 6b 3d 97 4d 3f be 6b ed a8 bd ea ac 32 bd
       0.05747948 -0.18681942 -0.08248409 -0.043621935
0001f0 12 7e 9c 3d 55 30 05 3e 85 67 8a bd 13 26 1e be
       0.076412335 0.13006718 -0.06758026 -0.15444212
000200 98 ac 19 bd 71 b3 81 3d df 54 c7 3c 2b a4 c5 bd
       -0.037518114 0.06333054 0.024332462 -0.09650453
000210 8b 06 21 3e 11 58 4e bc d3 d1 08 3d a0 37 db bd
       0.15725152 -0.012594239 0.03340323 -0.10703969
000220 da 77 b7 3c 02 1b e4 bd bc d5 19 be a1 34 0e 3d
       0.022396017 -0.11137964 -0.1502294 0.03471816
000230 a5 57 d2 bc bb 8a 1e 3e 05 06 b7 3d 8c 38 d1 bc
       -0.025676558 0.15482609 0.08936695 -0.025539659
000240 94 cc 62 3d c1 f1 29 be 8b a4 9c bd 60 ec 47 bc
       0.055370882 -0.16596128 -0.076485716 -0.012202352
000250 91 43 99 bd d7 fa 4f be 5d c4 a4 3d 41 08 b2 bc
       -0.074835904 -0.20310532 0.08045266 -0.021732451
000260 0d f0 1e be 5a 72 06 be d4 0c 46 bd d8 f7 20 be
       -0.1552126 -0.13129559 -0.048352078 -0.15719545
000270 b0 d3 bb 3c 25 07 1b be e6 83 aa 3c 08 c9 c0 bd
       0.022928089 -0.15139444 0.020814847 -0.09413344
000280 58 f8 1f be 25 2e 58 be da ac 6d be 2d a2 eb 3d
       -0.1562208 -0.21111353 -0.23210469 0.11505542
000290 4d b0 da 3d 2f 84 d8 3d 9d a4 2a be d9 7f 70 bd
       0.10678158 0.10572087 -0.16664357 -0.058715675
0002a0 01 af 0c 3d ad 34 b5 bd 66 ef 1e be 14 ee bc 3c
       0.034346584 -0.08847938 -0.15521011 0.023062743
0002b0 9a 6a d1 bd 0e ad 50 bc 70 2d c3 3d c1 8b 03 bc
       -0.10225411 -0.012736572 0.09530151 -0.008028925
0002c0 4a 28 a1 3d 13 b3 85 be 1c a8 45 3d db 0e 47 be
       0.07869013 -0.26113185 0.048256025 -0.1943926
0002d0 8d 6e 9e 3d f9 4e e1 bd 36 05 cf bd ab 69 fc bd
       0.0773593 -0.11001391 -0.10108416 -0.12324842
0002e0 97 38 29 3e a1 50 f5 bd 49 0c 20 3e 80 8c 1f be
       0.16525494 -0.11978269 0.15629686 -0.1558094
0002f0 ac ea 21 be fc 22 13 be 82 77 c0 3d dc f1 03 bd
       -0.15812176 -0.14368814 0.09397794 -0.032213077
000300 f4 00 d5 bd b0 63 1a be 8b ad 48 3e c0 20 36 bd
       -0.104005724 -0.1507709 0.19597451 -0.044464827
000310 15 fc a6 bd d0 89 4b bc 24 c1 77 3d d2 f8 1d be
       -0.081535496 -0.012422994 0.060486928 -0.15426949
000320 b0 18 07 3c 75 3d 33 3e b0 0c e9 3c 98 61 74 bd
       0.008245632 0.17503913 0.028448433 -0.059663385
000330 20 3d b8 3b 9e 0e 95 3d 8a 64 1b be 89 22 05 3e
       0.005622521 0.07278179 -0.15175071 0.13001455
000340 b0 82 4b bd bd db 46 3e dc dd 3c be a1 bd 0f 3e
       -0.04968518 0.19419761 -0.18444008 0.14037181
000350 d1 6c 23 3e c0 87 17 3c d7 01 20 3e 0d 44 35 be
       0.15959479 0.009248674 0.15625702 -0.1770174
000360 6d 95 2f be 91 77 aa bd d0 a2 0f bd e3 6d 45 be
       -0.17146845 -0.08323587 -0.03506738 -0.192802
000370 00 76 6d 3a ea 30 86 bd b2 51 b3 3d f6 01 29 be
       0.0009058416 -0.06552298 0.087558165 -0.16504654
000380 59 f0 a5 bd a4 03 30 bd 2d 96 46 be e0 34 e9 bd
       -0.08102483 -0.042972222 -0.19393225 -0.11387038
000390 07 6f 2d be 4a 85 e5 bd d0 93 b6 bc 1c 72 74 bd
       -0.16936885 -0.112070635 -0.02228728 -0.059679136
0003a0 69 1c 34 3e a7 08 3b be 02 8e a1 3e c3 9b c6 3e
       0.17588963 -0.1826502 0.31553656 0.38790712
0003b0 75 88 ef 3d 54 71 de 3e 5b 71 a6 3e ff cf 5b 3d
       0.11695949 0.43445837 0.32508358 0.053665157
0003c0 18 f7 42 3d bb 7e cb 3d 82 da bd 3c e3 a4 57 bd
       0.04759893 0.09936281 0.023175482 -0.052647483
0003d0 bf 22 19 be 5f 74 28 bd 82 65 87 3d b6 1f a0 3d
       -0.14954661 -0.041126605 0.06611158 0.078185484
0003e0 79 6d af bd 0b 47 21 be 0b 0d 2c be 3c 48 7d 3d
       -0.08565802 -0.15749757 -0.1680185 0.061836466
0003f0 46 df 4f bc f8 2a 4e bd 3f 50 f0 bd c6 aa 6d 3a
       -0.01268751 -0.050333947 -0.11734056 0.000906628

network.0.bias f4 [128]
000000 0d 76 4f be de 56 69 3d da 9a 25 be 4b d5 13 3e
       -0.20259877 0.05696761 -0.16172352 0.14436834
000010 91 ea fb bc 1c 9e fc 3d d1 56 ad bd ac 2f e3 bd
       -0.030751498 0.123348445 -0.084638245 -0.11093077
000020 40 2d 59 bd bb bd 48 be 91 49 20 be 46 be 9e 3c
       -0.05302167 -0.19603626 -0.15653063 0.019377839
000030 91 7b d3 bd 18 e1 9d bc 9e 24 cc 3c b2 43 32 be
       -0.10326303 -0.019272372 0.024919804 -0.17408636
000040 cc 66 41 bc 01 93 f4 bc fb ff 46 be f1 ea a7 bd
       -0.011804294 -0.029855253 -0.19433586 -0.081991084
000050 91 a2 94 bc b5 9d 00 bc 26 7a 18 be 4e 3d 67 ba
       -0.018143924 -0.0078501 -0.14890346 -0.0008821086
000060 d5 bc be 3d bc 1e 52 be 1b 26 ce bd 3a 2c c1 bd
       0.093133606 -0.20519537 -0.10065862 -0.09432264
000070 2d 51 5c be 07 fa e7 bd dc c4 6b be 44 c7 35 be
       -0.21515341 -0.11326986 -0.23024315 -0.17751795
000080 f8 6a bc bd 2c 83 ac bd 27 85 a1 3d 9a 87 49 bd
       -0.0920009 -0.084234565 0.07886725 -0.049201585
000090 4f ec 8f bd 6f 1d 14 3e e1 ac 30 be 09 ab 7a bd
       -0.07027494 0.14464353 -0.17253448 -0.061198268
0000a0 a0 66 20 bd 01 26 76 bd 7a 59 02 3e 05 60 2b bc
       -0.03916037 -0.060094837 0.12729445 -0.010459905
0000b0 5d 24 0b bd ad 0f 3f be 36 7b 31 bd ca 4c 12 bd
       -0.033970226 -0.18658324 -0.043330394 -0.035717763
0000c0 95 a7 6d 3d 2b aa 27 3e ce 79 e8 bd 0a a9 dc bc
       0.058021147 0.16373508 -0.113513574 -0.026936073
0000d0 50 14 d3 bd 80 5a 4c be 4c ae 7a 3d 03 23 9d 3c
       -0.10306609 -0.19956398 0.06120138 0.019181734
0000e0 23 78 27 bc 3e 2a 26 3e 52 e6 28 be 0d bd f9 bd
       -0.010221514 0.16227052 -0.1649411 -0.12194262
0000f0 94 bb b0 3d 06 fa 50 be 7e 09 a5 3d b5 46 2e 3e
       0.08629528 -0.20407876 0.08058451 0.1701916
000100 35 52 3f bd c4 2f e1 3d fb ff 13 3e 85 8e d1 3d
       -0.046709258 0.10995439 0.14453118 0.102322616
000110 2d 70 0d 3e f2 f4 1a be 53 b3 ca 3d ba d4 24 be
       0.13812323 -0.15132502 0.09897485 -0.16096774
000120 31 fe d5 bd 72 c4 42 be 17 ba 02 3e fa 71 9a 3d
       -0.10448874 -0.1902025 0.127663 0.075412706
000130 e7 33 81 3d 6f ae 8e bd 55 df 7f bc 64 69 b1 3d
       0.06308728 -0.06966864 -0.015617211 0.0866268
000140 20 2f e5 3d 35 03 5e bd e4 b7 ed 3d a5 1b 5d bc
       0.11190629 -0.054202277 0.1160734 -0.0134953605
000150 94 90 04 be a0 93 1e be d0 df 76 3e 2d 5b d8 bd
       -0.12945777 -0.15486002 0.24108815 -0.105642654
000160 bf 6f d7 3b 2f 30 97 3d 07 7a d5 bd 73 ca 81 bc
       0.0065746005 0.07382237 -0.104236655 -0.015843606
000170 a8 28 fb 3d 32 4f 09 be a6 ef 85 3d fb 7a c1 bd
       0.12263614 -0.13409117 0.0653985 -0.09447285
000180 33 c4 9e 3d 9b 58 c0 3c de 26 35 be 72 21 a0 bd
       0.07752266 0.02347975 -0.17690608 -0.07818879
000190 11 f4 57 bd 9a 4f 38 bd 12 93 40 3e ef df 09 bc
       -0.052722994 -0.04499779 0.18806103 -0.008415206
0001a0 56 1c ac 3a 3c 3f 26 3d c8 dc ab bd ea 50 fc bd
       0.0013131003 0.04058765 -0.0839172 -0.12320121
0001b0 0e 11 73 be 8d b7 26 3e cd 9b f3 3d 74 b9 a9 bd
       -0.23736975 0.16280957 0.11894951 -0.082873255
0001c0 54 2a 9d bd dd 33 13 3e c7 78 09 be 7e 3c b3 3d
       -0.07674089 0.14375253 -0.13424979 0.08751772
0001d0 d5 de 36 be 50 40 6d bd 2a b9 df 3d e9 cc 17 3d
       -0.17858441 -0.05792266 0.10923989 0.037060652
0001e0 45 a9 6f bc 4e b5 dd bd 75 7c ca 3d eb a9 2a be
       -0.014627759 -0.10825597 0.098870195 -0.16666381
0001f0 49 69 a8 bc c2 1d 00 be 49 80 51 bd 22 55 27 3e
       -0.020558016 -0.12511352 -0.051147733 0.1634107

network.2.weight f4 [128, 128]
000000 bd 62 b3 3b 1d 78 8a 3d 52 9f 4a bd d8 e3 3b 3c
       0.005474417 0.06761191 -0.049468346 0.011467896
000010 76 2d e2 bd c8 43 7f bd a4 3d 70 bd 95 db 8a 3d
       -0.11043827 -0.0623205 -0.058652535 0.06780163
000020 9a 54 90 bd 7d e5 02 3d f6 94 7a 3d c0 72 d1 3a
       -0.070473865 0.03195714 0.061177216 0.0015979633
000030 c1 9d 58 bd 37 32 ad 3d f2 7b 97 3c 9d cc 9f 3d
       -0.05288482 0.08456843 0.018491719 0.07802699
000040 6c f4 00 bc d7 e4 92 bd af 5f b4 bd 9e f5 4e 3d
       -0.007870775 -0.07172554 -0.08807313 0.050527208
000050 5e 05 a9 bd ba 2c 13 3b 57 73 85 bd 7e 06 a8 3d
       -0.08252977 0.002245708 -0.0651614 0.08204363
000060 a8 71 66 bc fc a2 8c bb 5b 4b a6 3d 6e 68 8f bd
       -0.014065184 -0.00429189 0.08119842 -0.0700234
000070 bc 62 b1 bc 8e bb 8a bd 94 c3 ca 3c 05 10 9a 3d
       -0.021653526 -0.067740545 0.024751462 0.07522587
000080 6e 25 2b bd f0 6f a4 bb a1 7c 8f bd 79 f1 7c bd
       -0.041783743 -0.005018227 -0.07006193 -0.061753724
000090 4a c0 0e bd a1 7b 0e bd a0 77 54 bc 71 b9 a3 bd
       -0.03485135 -0.03478587 -0.012967974 -0.079943545
0000a0 f7 23 9e 3d 31 1e 12 bc 25 f8 31 3d 46 b3 67 3d
       0.077217035 -0.008918331 0.04344954 0.056567453
0000b0 43 81 97 3d 18 4d 59 bd 7d 0d a8 bc 65 0b 97 bd
       0.073977016 -0.053052038 -0.020514244 -0.0737522
0000c0 b2 54 c2 3d a7 c9 1b bd 34 cd c9 3c 53 f7 b1 3d
       0.094888106 -0.038034108 0.024633981 0.086897515
0000d0 3f 25 b2 3d 1b fe 15 bd 2e 9d 32 3d 30 22 a5 3b
       0.086985104 -0.036619287 0.04360693 0.005039476
0000e0 9b a3 9e bd 7e b3 80 3c d6 47 d5 bd 98 8b 64 bc
       -0.07746049 0.015710589 -0.10414092 -0.013949297
0000f0 38 7c 88 3d f4 4c 92 bd 65 c3 12 3d 29 4a 22 bd
       0.06664318 -0.07143584 0.035830874 -0.039621506
000100 45 bc 9a 3d 60 65 00 bc d0 ac 90 bd ff 21 02 bc
       0.07555441 -0.00783667 -0.07064211 -0.007942676
000110 56 7c a0 ba 02 24 53 3d 5c 36 00 be a0 73 4e 3b
       -0.0012244086 0.05154801 -0.12520736 0.0031502023
000120 df 50 b8 bd 74 50 ba bc 13 44 87 bd 77 aa 27 bd
       -0.089998 -0.022743441 -0.06604781 -0.040934052
000130 5b 7f af bd 2e 0a 00 3d b3 0b df bb ba 58 7d 3d
       -0.08569213 0.031259708 -0.0068068146 0.061852194
000140 e8 8b af bc 8b f8 d3 bc 21 47 d5 bd 7a 79 19 3d
       -0.021429017 -0.02587535 -0.104139574 0.037469365
000150 bf 88 b2 3d 8e c1 25 bd e6 ad bb bd 89 77 d9 3d
       0.087174885 -0.04046779 -0.09164028 0.10618503
000160 f8 40 9e 3c 3d c5 a5 bd f0 97 b4 bd dc e9 b7 bd
       0.019318089 -0.08094261 -0.08818042 -0.08980152
000170 7c 66 f3 bd 8c 73 85 bd 59 71 03 3e 44 e4 c9 bb
       -0.11884782 -0.065161794 0.12836207 -0.0061612446
000180 d0 16 23 bc 05 a7 c8 bd 53 ff fd 3b 0c 9b e4 3c
       -0.009954169 -0.097974814 0.0077513843 0.027905963
000190 35 5f 9c bc 8f a3 ad bd 19 0a 2a 3b 5c 4f c7 3c
       -0.019088367 -0.08478462 0.002594596 0.024329834
0001a0 77 1e a8 3d 7a 66 52 3d 30 c3 ee 3b 29 50 0c 3d
       0.08208936 0.05136726 0.0072864518 0.034256134
0001b0 b2 9e 23 3d e5 ad b2 3c bb 64 64 bd 65 3c c7 3c
       0.039946266 0.021811435 -0.055760127 0.02432079
0001c0 8a c6 2f 3d be 3b 51 3d 0a 95 91 bd 8a ca 09 bd
       0.04291395 0.051082365 -0.07108505 -0.033640422
0001d0 9c e3 d9 3c db 4b 03 bd 66 5b 46 3d e6 e5 f9 bd
       0.02659779 -0.032054763 0.048427008 -0.12202053
0001e0 50 1e 6c 3c 12 f7 0a bd 3d 9c b3 3d a7 50 e0 bd
       0.014411524 -0.03392703 0.087700345 -0.10952883
0001f0 ee 95 c1 bd 16 1c 4b 3d 14 6a 56 3d c9 07 82 bd
       -0.09452425 0.04958733 0.052347258 -0.06349141
000200 ca 4a 63 3d 62 dc 3d 3d 1e 8e a9 bd f0 8e 76 bd
       0.055491246 0.04635275 -0.0827906 -0.06019491
000210 8a b5 93 bd 02 cf 9c bd 47 60 3b bd 98 bc b2 bc
       -0.0721236 -0.07656671 -0.045746114 -0.021818444
000220 d0 a2 13 3d 2f c2 89 bd 6a 93 1d 3d 3c 16 bc bc
       0.036043942 -0.06726491 0.038470663 -0.02295982
000230 0e 95 37 bd 5c d2 e9 bc 66 5e 9b bd c5 f8 84 3d
       -0.044819884 -0.02854269 -0.075863644 0.064927615
000240 32 fd 16 3d 64 90 a6 3c 95 30 24 bd 90 37 06 3c
       0.03686256 0.020332523 -0.040085394 0.008191958
000250 9c 45 00 bd 96 19 57 3d 78 8a 11 bc 3a 8e 30 3d
       -0.031316385 0.052514635 -0.008883111 0.043104388
000260 d2 be 5d 3d c0 1b 2d bd 28 ee cc bc e8 8d 00 bc
       0.05413706 -0.042262793 -0.025015905 -0.007846333
000270 61 53 3c bd 68 df a3 bc 88 d2 0e 3c 2d 88 4e bd
       -0.045977954 -0.02000399 0.008717187 -0.050422836
000280 ae cd 44 3d 40 f4 07 bc 48 40 13 3d 4d 92 a2 3d
       0.048047714 -0.00829798 0.035949975 0.07938061
000290 02 b1 1a bd 79 04 8c bd e6 bd 28 3d 50 0f f8 bb
       -0.037766464 -0.068367906 0.041196726 -0.007570185
0002a0 7b 4d 8a 3d c4 a6 48 bd 7a 4f 70 3d 30 3b f9 bb
       0.067530595 -0.048987165 0.058669545 -0.0076059327
0002b0 cc 44 c9 bc a6 af 6b 3d e8 f9 99 bd 50 9e b8 bc
       -0.024568938 0.05754056 -0.07518369 -0.022536427
0002c0 b6 8b 53 3d 45 19 82 bd 30 d6 8a bc 07 be a6 3d
       0.05164691 -0.06352476 -0.016947836 0.081417136
0002d0 a1 7a 94 bd 00 4c cd ba a7 47 87 bd 40 84 76 3c
       -0.07249952 -0.0015662909 -0.066054635 0.015046179
0002e0 e0 f2 a9 bb 98 6b 50 bd a0 5e 21 bc 5c 65 8e bd
       -0.0051864237 -0.05088386 -0.0098492205 -0.069529265
0002f0 00 1b fe bb 91 90 a7 bd 66 21 70 bd 40 dd e1 bc
       -0.0077546835 -0.08181871 -0.0586256 -0.02757132
000300 ee 88 6b 3d 33 6b a3 bd 5d ab 8b 3d 7e 09 74 3d
       0.057503633 -0.07979431 0.06819794 0.059579365
000310 38 10 f8 bc 31 3f 36 bd 65 29 b2 3d 18 4d 01 3d
       -0.030281171 -0.044493858 0.08699302 0.031567663
000320 a0 21 1e bb 08 c2 a9 bd 00 a4 8d 3a 3c ae e4 3c
       -0.0024128929 -0.08288962 0.0010806322 0.027915113
000330 a0 e9 49 bb cd 07 8f bd 58 40 40 bc fa d8 80 bd
       -0.0030809417 -0.0698391 -0.011734091 -0.06291385
000340 f5 35 0e bd 20 6f 6c bd c0 aa 25 bc 9d e3 9a 3d
       -0.034719426 -0.057723165 -0.010111511 0.07562945
000350 58 35 0f bd c6 83 1b 3d 42 a2 a5 bd 80 ca ba ba
       -0.034962982 0.037967466 -0.08087589 -0.0014251024
000360 e3 c1 10 bd 97 68 aa 3d 78 8b 02 3c 90 6c 05 3d
       -0.035341155 0.0832073 0.007967822 0.032574236
000370 b3 a8 89 bd 0b a2 99 3d 80 bc a7 3b 87 3e 30 bd
       -0.0672163 0.0750161 0.0051189065 -0.04302838
000380 48 6f 19 bc a0 0f 94 bd 43 fe aa bd fc e9 72 bd
       -0.00936491 -0.07229543 -0.08349278 -0.059305176
000390 8e 51 6c 3d 4d 06 0a bd 40 3b ff bb 5c bf d8 3c
       0.057694964 -0.033697415 -0.0077890456 0.026458435
0003a0 21 34 88 3d 2b 96 b2 3d 6b af 9f 3d c0 d8 09 3d
       0.06650568 0.087200485 0.0779713 0.033653975
0003b0 20 fe 0f 3d 80 32 a8 bb 40 23 5a 3b 2c 3e b0 bd
       0.03515446 -0.005132973 0.003328517 -0.08605608
0003c0 16 2e 44 3d 10 f1 bd bc fa 15 4d 3d 35 88 b4 3d
       0.047895513 -0.023186237 0.050069787 0.08815042
0003d0 60 7e 00 bb 9e 2f 38 3d 4a 2d 45 3d 08 fc 77 3c
       -0.0019606575 0.044967286 0.048138894 0.0151357725
0003e0 aa 6f ad bd 18 c3 72 bd a7 5c 4a bd cd bd 03 bd
       -0.08468564 -0.059268087 -0.049404766 -0.03216343
0003f0 60 6f 26 3b 53 49 87 3d 00 1a f1 39 b0 03 b4 3c
       0.0025395975 0.06605782 0.00045986474 0.021974415

network.2.bias f4 [128]
000000 7a 9c be bd 40 96 63 bd a1 8b 35 3d 31 a1 43 bd
       -0.09307189 -0.05556321 0.044322614 -0.047761146
000010 63 8e 99 bd 1c 44 60 3d 65 54 b6 3a e8 44 8d 3b
       -0.07497861 0.054752454 0.001391065 0.004311193
000020 34 86 18 be d8 5d c0 3e 16 a5 2b 3c 74 be 39 3c
       -0.14894944 0.37571597 0.010476371 0.0113369115
000030 57 0a d1 bb 62 2e 95 3e 3b ec 4e bd 08 ab 73 3d
       -0.0063794064 0.2913695 -0.050518256 0.05948928
000040 e0 23 08 be 99 c0 48 bd 7a 24 e8 bd 10 21 8d ba
       -0.13294935 -0.0490118 -0.11335082 -0.00107673
000050 fd 02 24 3e 48 e7 d0 3d c4 9f d6 3c 3e 7d db bd
       0.16016765 0.102003634 0.026199229 -0.107172474
000060 b7 e7 a8 bc 5a 13 56 bd 89 30 4a bd 94 48 77 3d
       -0.020618303 -0.05226455 -0.049362693 0.06037195
000070 a2 49 fd bd fe 6a 24 3d 8e 8d 62 bd cb 19 2e 3d
       -0.1236756 0.0401411 -0.05531078 0.042505067
000080 94 2a 5d bd 98 26 7f bd 1b 33 27 be b8 3b 08 3c
       -0.053995684 -0.062292665 -0.16328089 0.008315019
000090 df 6d f9 bb 18 cc 24 be 85 5c 13 bd 95 7a e2 bd
       -0.0076119746 -0.1609348 -0.035976905 -0.11058537
0000a0 36 ac 78 bd db 8c 0d be 9f 37 17 be dc b0 98 bd
       -0.06071111 -0.13823263 -0.14767312 -0.07455608
0000b0 d5 08 fd bd 5a 85 4e bd 20 10 da bd b9 b3 21 bd
       -0.123552 -0.050420143 -0.10647607 -0.039478038
0000c0 32 c6 92 bd 18 64 63 bd ca 94 a4 bd f9 80 09 be
       -0.07166709 -0.05551538 -0.08036192 -0.13428105
0000d0 7d 66 da bd 2f f3 25 3e 23 2b 9a 3c d9 d4 d3 bc
       -0.10664079 0.16206048 0.018819397 -0.02585833
0000e0 2e 9c 4f bd 3c 86 38 3d 71 14 af bd 29 a1 88 bd
       -0.050686054 0.04504989 -0.08548821 -0.06671364
0000f0 a8 11 13 bc af 03 8a 3e b9 1f f7 3d 19 38 f4 bb
       -0.008976378 0.26955935 0.120665975 -0.0074529764
000100 94 a1 34 bd e9 7d 7c bd a3 54 72 3e 4f 86 c1 3d
       -0.044099405 -0.061643515 0.23665099 0.094494455
000110 94 f0 3c be d0 fe 2e bd 89 fc 64 bd da c2 cb bd
       -0.18451148 -0.042723477 -0.0559049 -0.09949274
000120 4c 7c 1b 3d 1b e4 b0 bd ff 40 09 be 22 b1 14 bd
       0.037960336 -0.08637258 -0.134037 -0.03630174
000130 98 f5 e5 bd 7c df a9 bd 8c d7 b8 3b f8 ab e2 bd
       -0.11228484 -0.082945794 0.0056409296 -0.11067957
000140 dc 39 a3 bd ed 93 6d 3d fd c1 1f bd dc 3a 7d 3e
       -0.0797002 0.0580024 -0.03900336 0.24729484
000150 3a a2 b1 3e 51 e6 e2 bc f7 d0 bd 3c 29 99 25 3d
       0.34694082 -0.027697714 0.023170931 0.040429268
000160 86 e9 8e 3a a7 1b ce bc 0c cd d7 bc 49 8d e9 3d
       0.0010903336 -0.02515967 -0.026342891 0.11403901
000170 b7 fd 9c bd b4 a3 f2 3d bc 05 6f bd 55 ec 51 3e
       -0.0766558 0.1184763 -0.058355078 0.2050031
000180 d4 9d cf bd 0a c0 f4 3c 93 d4 c1 3e 7f 88 9f bd
       -0.10137525 0.029876728 0.37857494 -0.077897064
000190 23 36 f8 bc 46 73 0c 3d 3a 80 c8 bd cb bd 8a bd
       -0.030299252 0.03428962 -0.09790082 -0.067744814
0001a0 4c a3 95 bd d7 b9 a2 bd 6a 21 af 3d d3 27 46 bd
       -0.07306537 -0.079456024 0.08551295 -0.048377823
0001b0 4e 6c d3 bd fe ba 08 3e 14 dc e5 3c f3 4e 8e bd
       -0.10323392 0.13352582 0.028059043 -0.06948652
0001c0 39 d4 f8 bc fc d4 71 ba ec 68 84 bd 97 fb 2f bd
       -0.030374633 -0.00092251576 -0.06465325 -0.042964544
0001d0 87 77 11 3e 0c 87 6b 3e 58 f6 e5 bd 93 f9 1b 3e
       0.14205752 0.23000735 -0.11228627 0.15231924
0001e0 88 8d a8 3e c0 72 da bd 2a a2 49 bd 52 ae 7c bc
       0.3292048 -0.10666418 -0.049226917 -0.015422421
0001f0 58 53 0d bd 03 ed 2f 3e 7b c6 fc 3b a0 7c 49 bd
       -0.03450331 0.17180257 0.0077140904 -0.049191117

network.4.weight f4 [8, 128]
000000 13 dc fe 3d c0 6a 9d bd 70 82 86 3a f2 36 f2 3c
       0.124443196 -0.076863766 0.0010262262 0.029567216
000010 bd 25 16 be 18 80 c7 bd 47 e8 4b 3c 66 f5 e3 be
       -0.14662834 -0.09741229 0.012445516 -0.44523162
000020 e1 09 31 3d 69 41 68 be 19 c8 2e be 32 b0 00 bd
       0.043222312 -0.22681202 -0.17068519 -0.031418033
000030 0c 60 23 3d c3 f2 2e be 5b 73 8b 3d 28 e1 86 bc
       0.03988652 -0.17084794 0.06809112 -0.016464785
000040 ef 67 fc 3c 88 87 24 3c cb cd ab bd e2 3a b5 bc
       0.030811278 0.010042079 -0.08388861 -0.022122804
000050 09 da ad be 98 ce e1 be 88 ce 21 bd 7b b7 19 bc
       -0.3395541 -0.4410293 -0.039503604 -0.009382124
000060 99 df fc 3b dc e6 b3 bc c5 ea 32 3d 5c 6a 35 bc
       0.0077170846 -0.021960668 0.043680925 -0.011072721
000070 47 d6 7a bd 42 b5 23 bd 07 e2 55 bd 9f cc 8b 3b
       -0.061239507 -0.039967783 -0.05221751 0.004266336
000080 23 5a 3f be 82 6e 34 3d 39 11 f7 bc 29 aa 51 be
       -0.18686728 0.0440507 -0.03015958 -0.20475067
000090 c3 89 2d bd 6d fc b8 bc 40 2c 3d 3d 73 3c 54 bd
       -0.042367708 -0.022581303 0.04618478 -0.05181546
0000a0 6a cb 51 bd cb 3c c0 3d de cf 3d 3d 29 57 07 bd
       -0.05121938 0.09386595 0.046340816 -0.033042107
0000b0 1c 92 9d bd ec 44 bc 3b 48 d3 1b bd 06 ca fa 3c
       -0.07693884 0.005745521 -0.03804329 0.03061391
0000c0 50 a2 53 3d d2 5d c1 bd 46 71 40 3b fa d9 97 bc
       0.051668465 -0.09441723 0.0029364391 -0.018536557
0000d0 17 ab d5 3c f4 99 ee bd 18 66 f9 bd 58 42 87 3d
       0.026082559 -0.11650458 -0.12177676 0.06604451
0000e0 39 2b 41 bd a5 ea 2f bd 7c 1a 23 3c 65 ce 00 3d
       -0.04716036 -0.042948384 0.009955045 0.031446833
0000f0 da f6 4c 3d 99 68 f8 bd f1 14 b4 bd 0c 56 12 bd
       0.050040103 -0.121293254 -0.08793057 -0.035726592
000100 39 9a 24 3d b0 25 3a bd 83 46 42 bd fa f4 d6 bc
       0.04018614 -0.045446098 -0.047430526 -0.02623986
000110 3d c7 48 be 97 a8 0b bd 3e d2 b4 bd ca b3 74 bd
       -0.19607253 -0.034096327 -0.08829163 -0.059741773
000120 e8 f4 b6 bc 98 07 6a bd c6 8a c1 3b 82 37 31 3b
       -0.022333577 -0.05713615 0.0059064357 0.0027041142
000130 89 aa a4 3b bb 55 cc bd d2 a3 09 3b 19 31 eb 3d
       0.005025212 -0.09977289 0.0021002186 0.11483974
000140 82 53 3e 3d bf b0 10 3d ff db 12 3d 60 fb 73 bd
       0.046466358 0.03532481 0.035854336 -0.0595659
000150 d9 6c b2 be 61 65 2d 3c 76 9b 70 bc 82 43 54 bd
       -0.3484867 0.010583253 -0.014685502 -0.051822193
000160 91 a9 69 bc a9 17 bc 3d ba 79 f9 bc f8 c3 49 bd
       -0.014261619 0.091842 -0.030453552 -0.049259156
000170 7b 01 4c bd f5 b8 20 be 86 98 37 3d 62 88 66 be
       -0.0498061 -0.15695556 0.044823192 -0.22512963
000180 a8 77 bd 3d bf 4d 2a bd 4e d0 4f be 13 ab ad bc
       0.09251338 -0.04157805 -0.20294306 -0.021199739
000190 19 17 4a 3c d2 87 67 3c b5 cd 3e bd 4a df 84 bd
       0.0123346085 0.014131503 -0.046582896 -0.064879015
0001a0 06 a2 e4 3d cd fb 16 bd 34 8e 63 be 1e 94 d9 bc
       0.11163716 -0.03686123 -0.22222215 -0.026559886
0001b0 0a 44 61 3d 30 c7 ab bd 2a 7b fd bd e0 a2 a7 bd
       0.054996528 -0.083876014 -0.12377007 -0.08185363
0001c0 18 4e 25 bd 6c 20 8c bd 05 98 2a 3d ba a0 bf bc
       -0.04035768 -0.068421215 0.041648883 -0.02339207
0001d0 a1 15 03 3b 05 c2 b8 be 3b 1b f5 bd 86 d9 4d be
       0.0020001906 -0.36085525 -0.119680844 -0.2010251
0001e0 95 cb 60 be 77 65 98 3d e2 84 42 37 fb f2 be 3c
       -0.2195266 0.07441228 1.159424e-05 0.023309221
0001f0 5a bf c0 3c 48 d7 9e bd 2f d4 0d be 1d d1 56 bb
       0.023528744 -0.077559054 -0.13850473 -0.003277845
000200 9a 2c ff bc 02 8b 6d bd ab e4 56 3e d8 81 c0 3c
       -0.031149197 -0.057993896 0.20985667 0.023499414
000210 58 1a 9a bd e2 36 b7 3d c2 91 18 3b 60 97 9b 3c
       -0.07524556 0.08946015 0.0023280238 0.01899308
000220 54 54 6c bd db 07 57 3e f9 89 20 3d 7d 3c c7 bc
       -0.05769761 0.2099909 0.03919408 -0.024320835
000230 54 ab d7 3d de a1 2e 3e b7 1d 0b 3d bf 12 8a 3d
       0.10530725 0.17053935 0.033963885 0.06741857
000240 cd df c3 bd 50 3b ac bb 51 7e 6a bd b8 54 d0 3c
       -0.09564171 -0.005256094 -0.05724937 0.025431022
000250 a3 9d 2f 3e eb 0a 02 3e 05 8a 8e 3c 0b 55 4f bc
       0.17149977 0.12699477 0.017399797 -0.012654553
000260 6b 5e 18 3d da a7 63 3d 61 35 8e 3d ef f5 eb 3d
       0.03719942 0.055579998 0.06943775 0.115215175
000270 22 51 db 3c 1a 4b b7 bd c5 87 db 3c ed 81 d1 3d
       0.026772086 -0.08949871 0.026798138 0.102298595
000280 09 cc 2c 3d 74 e8 5e 3d 77 da 34 be 99 16 0c be
       0.04218677 0.054420903 -0.17661463 -0.13680495
000290 86 91 14 3d 4a d3 27 3d 3d 58 e7 bc 92 6d 1a 3d
       0.036271594 0.040972985 -0.028240317 0.03770215
0002a0 2f 46 05 3d d5 8e dc 3d 56 9f e8 bb d6 da 12 be
       0.032537635 0.107694305 -0.0070990724 -0.14341292
0002b0 3a a9 0e 3d 81 d7 38 3c b7 5a 06 3d 85 ca 44 bc
       0.034829356 0.011281849 0.032801356 -0.012011175
0002c0 83 05 50 3d e6 ba 68 3c 0d 3c e5 bd 13 06 2a bc
       0.050786506 0.014204716 -0.111930944 -0.010377425
0002d0 ef 27 ce 3c c2 1d 00 3e 1e f1 35 3d b0 b7 ba 3c
       0.025165526 0.12511352 0.0444194 0.022792667
0002e0 d2 5f d8 3c 85 f8 9c 3d df f7 f2 3c 41 f7 cd 3c
       0.026412878 0.07664589 0.02965921 0.025142314
0002f0 9c d0 d3 bd c2 81 43 3e c7 9f 60 be d3 05 32 bd
       -0.103425235 0.19092467 -0.2193595 -0.043462586
000300 85 35 6d bd 6b ba 57 3d df ee 37 be f5 fb 8b 3d
       -0.05791237 0.052668016 -0.17962216 0.06835166
000310 89 58 b6 bd b3 ac 68 bd b7 4d b4 bc e4 8a bf ba
       -0.089036055 -0.056805324 -0.022009714 -0.0014613536
000320 0c 7a a6 3d ac 3e 08 3d 2d bb b4 3d e6 af 9b bd
       0.08128747 0.033262894 0.088247634 -0.07601909
000330 38 57 5e bc 62 77 3c 3d 48 88 94 bc 58 f1 66 bd
       -0.013570599 0.04601229 -0.01813139 -0.056382507
000340 0e 73 8e 3d 54 88 06 be a8 78 24 bd 54 96 c5 3d
       0.06955539 -0.13137943 -0.04015413 0.096478134
000350 c2 b1 7e 3e b6 25 88 3d a3 a0 55 3d 65 87 7b 3d
       0.24872497 0.06647818 0.05215515 0.06140842
000360 9c ba e2 3c 2f 86 81 bd 00 85 87 3d 85 b5 05 3e
       0.027676873 -0.063244216 0.066171646 0.13057525
000370 4c a4 d3 bb 6a 1a b2 3d 06 21 38 bd 82 dd 35 3e
       -0.0064587947 0.08696444 -0.04495337 0.1776028
000380 b9 6a 49 bd e3 a9 a3 3d d4 b1 62 3e ae ff 04 3d
       -0.049174044 0.07991388 0.22138149 0.032470398
000390 61 f5 5d 3d 79 2e 6f 3d 7b 32 67 bc eb ff 3b 3d
       0.05418909 0.05839393 -0.014111157 0.04589836
0003a0 41 7f b4 3d de ff 9e bc fa df 25 3e 0c 10 b1 39
       0.08813334 -0.019409116 0.16198722 0.00033772027
0003b0 8b e9 8c 3c 9a 68 87 3d a9 f8 90 3d 82 17 91 bc
       0.017201206 0.06611748 0.07078678 -0.017711405
0003c0 ac 18 ce 3d c9 99 bc bb 0c 6a 2b bd a3 02 12 3c
       0.100632995 -0.0057556373 -0.04184918 0.008911761
0003d0 43 06 90 3d e4 91 0b 3e b4 ec 5d 3c 14 58 0a 3e
       0.07032444 0.13629872 0.013545204 0.13510162
0003e0 26 31 87 3e d0 bb 52 3d d0 75 aa 3d 29 9a 66 bd
       0.26404685 0.051448643 0.08323252 -0.056299362
0003f0 14 b8 b1 3c f3 ae ca 3d 18 a3 79 3d e1 fc 16 3d
       0.02169422 0.0989665 0.060946554 0.036862258

network.4.bias f4 [8]
000000 61 28 6c be c0 80 1e 3e 5c 15 36 3d fc a9 fe 3d
       -0.23062278 0.15478802 0.044453964 0.12434766
000010 da b5 15 be f5 7c 9c be b6 ee 8b 3d 2b 35 dd be
       -0.14620152 -0.30564085 0.0683264 -0.43204626

exp_avg f4 [128, 26]
000000 c2 2a 00 00 a3 33 00 00 13 50 00 00 4a 42 00 00
       1.5339e-41 1.8524e-41 2.8725e-41 2.378e-41
000010 56 28 00 00 19 50 00 00 f9 3a 00 00 27 05 01 00
       1.447e-41 2.8734e-41 2.1155e-41 9.3684e-41
000020 ac 34 00 00 9a 42 00 00 60 95 00 00 fc 73 00 00
       1.8895e-41 2.3892e-41 5.3586e-41 4.1607e-41
000030 44 35 00 00 8c dd 00 00 39 8d 00 00 e8 bd 00 00
       1.9108e-41 7.9476e-41 5.0661e-41 6.8126e-41
000040 eb 2c 01 00 3d f0 00 00 e1 09 01 00 66 cd 00 00
       1.07949e-40 8.6181e-41 9.538e-41 7.3683e-41
000050 b0 0d 01 00 42 84 00 00 b5 6f 00 00 47 31 00 00
       9.6746e-41 4.7445e-41 4.0073e-41 1.7677e-41
000060 ea 95 00 00 30 91 00 00 04 00 00 00 04 00 00 80
       5.3779e-41 5.2083e-41 6e-45 -6e-45
000070 7a c5 0f 0c 04 00 00 00 04 00 00 80 04 00 00 00
       1.1075745e-31 6e-45 -6e-45 6e-45
000080 04 00 00 00 f8 71 6a 0e 04 00 00 00 04 00 00 00
       6e-45 2.88976e-30 6e-45 6e-45
000090 3f 43 3e 0d 6c 7c 8e 0d 04 00 00 00 d8 e1 36 0e
       5.8629215e-31 8.781379e-31 6e-45 2.2541972e-30
0000a0 0e 02 51 0d dc f9 f8 0d 66 e5 12 0e 1d 94 97 0e
       6.440557e-31 1.53443315e-30 1.810634e-30 3.7367e-30
0000b0 9a c1 9c 0d ec 21 4c 0e 12 ca 9d 0d e8 a7 96 0d
       9.66085e-31 2.5161274e-30 9.724519e-31 9.284886e-31
0000c0 ad 0c 71 0d ce df c8 0c ce df c8 0d 6d c9 b4 0d
       7.4279117e-31 3.0949577e-31 1.2379831e-30 1.1141848e-30
0000d0 00 00 00 00 00 00 00 00 c2 5d d0 1d 00 00 00 00
       0.0 0.0 5.5154085e-21 0.0
0000e0 04 00 00 00 04 00 00 80 04 00 00 80 a2 80 f0 1e
       6e-45 -6e-45 -6e-45 2.546419e-20
0000f0 04 00 00 80 04 00 00 00 dc 4a d5 1f a9 b0 ea 1f
       -6e-45 6e-45 9.0332853e-20 9.9395115e-20
000100 00 00 00 00 75 48 a4 1f 98 38 53 1f 29 6d 03 1f
       0.0 6.957657e-20 4.47278e-20 2.7830624e-20
000110 b6 ca 1c 1f 65 d0 0c 20 ef 42 0f 1f 65 23 b7 1f
       3.3201964e-20 1.1927413e-19 3.0336794e-20 7.756207e-20
000120 65 d0 0c 20 a9 b0 6a 1f a9 b0 6a 1f 97 51 25 1f
       1.1927413e-19 4.9697557e-20 4.9697557e-20 3.50076e-20
000130 a9 b0 6a 1f a9 b0 6a 1f 00 00 00 00 00 00 00 00
       4.9697557e-20 4.9697557e-20 0.0 0.0
000140 00 00 00 00 00 00 00 00 00 00 00 00 00 00 00 00
       0.0 0.0 0.0 0.0
000150 00 00 00 00 00 00 00 00 00 00 00 00 00 00 00 00
       0.0 0.0 0.0 0.0
000160 00 00 00 00 00 00 00 00 00 00 00 00 00 00 00 00
       0.0 0.0 0.0 0.0
000170 00 00 00 00 00 00 00 00 00 00 00 00 00 00 00 00
       0.0 0.0 0.0 0.0
000180 00 00 00 00 00 00 00 00 00 00 00 00 00 00 00 00
       0.0 0.0 0.0 0.0
000190 00 00 00 00 00 00 00 00 00 00 00 00 00 00 00 00
       0.0 0.0 0.0 0.0
0001a0 59 40 fa 0c ec 9d 4d 0d 80 03 22 0f 60 69 29 0b
       3.8557327e-31 6.3360594e-31 7.987891e-30 3.262749e-32
0001b0 f4 03 2d 0b 91 fc 55 0e df 24 be 0e b9 89 e4 10
       3.3321562e-32 2.6375883e-30 4.687412e-30 9.014234e-29
0001c0 9f 33 04 0d 5f 39 5d 0d 72 fe d8 10 e8 ca 6f 10
       4.0737777e-31 6.816994e-31 8.558901e-29 4.7290752e-29
0001d0 8c 72 f2 8a 8c a0 ed 10 f0 8e 1b 11 7f 6e 35 10
       -2.334684e-32 9.372738e-29 1.227139e-28 3.578108e-29
0001e0 01 31 32 11 eb 66 de 10 aa 17 0a 11 c1 b9 16 11
       1.4056825e-28 8.772213e-29 1.0893573e-28 1.1890153e-28
0001f0 40 78 fc 10 60 82 95 10 3b 58 86 10 19 fe ed 0f
       9.958175e-29 5.897101e-29 5.298962e-29 2.3467879e-29
000200 af c3 a8 10 5d 07 a3 10 04 00 00 80 04 00 00 80
       6.6565814e-29 6.430351e-29 -6e-45 -6e-45
000210 04 00 00 00 04 00 00 80 04 00 00 00 04 00 00 80
       6e-45 -6e-45 6e-45 -6e-45
000220 04 00 00 00 04 00 00 00 04 00 00 80 04 00 00 00
       6e-45 6e-45 -6e-45 6e-45
000230 04 00 00 00 04 00 00 00 04 00 00 80 04 00 00 00
       6e-45 6e-45 -6e-45 6e-45
000240 04 00 00 00 04 00 00 00 04 00 00 00 04 00 00 00
       6e-45 6e-45 6e-45 6e-45
000250 04 00 00 00 04 00 00 00 04 00 00 00 04 00 00 00
       6e-45 6e-45 6e-45 6e-45
000260 04 00 00 00 04 00 00 00 04 00 00 00 04 00 00 00
       6e-45 6e-45 6e-45 6e-45
000270 04 00 00 00 04 00 00 00 04 00 00 00 04 00 00 00
       6e-45 6e-45 6e-45 6e-45
000280 04 00 00 80 04 00 00 00 04 00 00 00 04 00 00 00
       -6e-45 6e-45 6e-45 6e-45
000290 04 00 00 00 04 00 00 00 04 00 00 00 04 00 00 00
       6e-45 6e-45 6e-45 6e-45
0002a0 04 00 00 80 04 00 00 00 04 00 00 00 04 00 00 00
       -6e-45 6e-45 6e-45 6e-45
0002b0 04 00 00 00 04 00 00 00 04 00 00 00 04 00 00 00
       6e-45 6e-45 6e-45 6e-45
0002c0 05 00 00 00 04 00 00 00 04 00 00 00 04 00 00 00
       7e-45 6e-45 6e-45 6e-45
0002d0 04 00 00 00 04 00 00 00 00 00 00 00 00 00 00 00
       6e-45 6e-45 0.0 0.0
0002e0 00 00 00 00 00 00 00 00 00 00 00 00 00 00 00 00
       0.0 0.0 0.0 0.0
0002f0 00 00 00 00 00 00 00 00 00 00 00 00 00 00 00 00
       0.0 0.0 0.0 0.0
000300 00 00 00 00 00 00 00 00 00 00 00 00 00 00 00 00
       0.0 0.0 0.0 0.0
000310 00 00 00 00 00 00 00 00 00 00 00 00 00 00 00 00
       0.0 0.0 0.0 0.0
000320 00 00 00 00 00 00 00 00 00 00 00 00 00 00 00 00
       0.0 0.0 0.0 0.0
000330 00 00 00 00 00 00 00 00 00 00 00 00 00 00 00 00
       0.0 0.0 0.0 0.0
000340 00 00 00 00 00 00 00 00 00 00 00 00 00 00 00 00
       0.0 0.0 0.0 0.0
000350 00 00 00 00 00 00 00 00 00 00 00 00 00 00 00 00
       0.0 0.0 0.0 0.0
000360 00 00 00 00 00 00 00 00 00 00 00 00 00 00 00 00
       0.0 0.0 0.0 0.0
000370 00 00 00 00 00 00 00 00 00 00 00 00 00 00 00 00
       0.0 0.0 0.0 0.0
000380 00 00 00 00 00 00 00 00 00 00 00 00 00 00 00 00
       0.0 0.0 0.0 0.0
000390 00 00 00 00 00 00 00 00 00 00 00 00 00 00 00 00
       0.0 0.0 0.0 0.0
0003a0 00 00 00 00 00 00 00 00 e2 8c 8c bb 03 ea de 3b
       0.0 0.0 -0.0042892555 0.0068027987
0003b0 b2 2b fd bb 9e c7 39 bc 52 ef 74 bc ac 3f 10 bb
       -0.007726156 -0.011339096 -0.0149496365 -0.0022010608
0003c0 78 32 01 bc 8c 2f 7f bc 52 23 35 bc 38 bd a5 ba
       -0.007885568 -0.015575301 -0.011055784 -0.0012644893
0003d0 78 af a0 ba 80 6e e6 ba 86 d8 89 bc a9 51 fb bb
       -0.0012259325 -0.0017580539 -0.01682688 -0.0076696468
0003e0 ad 23 8e bc 3d ec e0 bb 71 83 2b bc bc c8 62 bc
       -0.017350996 -0.0068640993 -0.01046835 -0.013841804
0003f0 e6 c3 64 bc 50 5e 4c 3a 1c 85 a0 bb f2 b6 1d bb
       -0.013962721 0.0007796036 -0.0048986804 -0.0024065343

exp_avg_sq f4 [128, 26]
000000 a8 a2 63 39 5a 9a 6c 39 8d ef 8b 39 7a e2 a2 39
       0.00021709001 0.00022564214 0.00026690625 0.00031067786
000010 be 5a a8 39 eb c7 45 3a 27 96 52 3a 1a 13 e4 3a
       0.00032111065 0.0007544744 0.00080332387 0.0017400712
000020 aa 25 31 3a 85 8b 3e 3a ab 4c 7d 3a 50 28 5d 3a
       0.00067576265 0.0007268715 0.00096626085 0.0008436488
000030 d8 cc a0 39 2f c5 be 3a 25 b1 a9 3a 17 dd 89 3a
       0.000306702 0.0014554615 0.001294647 0.001051816
000040 a8 19 f9 3a 53 6e e0 3a 79 16 fc 3a 4a 2c ce 3a
       0.0019004839 0.0017122723 0.0019232772 0.0015729752
000050 3e 1b 16 3b 0a 28 29 3a 1c d2 05 3a 8f 3a d4 38
       0.0022904421 0.00064528047 0.0005104856 0.00010119855
000060 53 75 3c 3a 58 7a 37 3a b6 4d 41 35 dd 3b b3 33
       0.00071891135 0.00069991266 7.2011187e-07 8.346226e-08
000070 2e fc 31 35 5e c3 93 34 d9 26 34 34 54 70 d8 35
       6.630461e-07 2.7523032e-07 1.6777939e-07 1.6125946e-06
000080 99 60 cd 35 83 6e 82 36 c8 af 44 35 31 e9 2f 35
       1.5301804e-06 3.887167e-06 7.3271485e-07 6.553192e-07
000090 11 fd 03 37 39 67 b3 36 d6 b2 e8 35 0e 8a 41 37
       7.86713e-06 5.3466324e-06 1.7337395e-06 1.153584e-05
0000a0 82 37 3d 37 6d 87 8e 36 f6 6c c3 37 5b 18 5e 37
       1.1278202e-05 4.2476954e-06 2.329655e-05 1.3237902e-05
0000b0 83 77 2c 37 e6 75 96 37 ec 75 2b 37 e7 3c a8 36
       1.0279825e-05 1.7936294e-05 1.021985e-05 5.01388e-06
0000c0 9b 71 91 36 e6 bc 4e 35 a1 9a c4 36 77 48 bf 36
       4.334562e-06 7.7015864e-07 5.8592564e-06 5.7006796e-06
0000d0 00 00 00 00 00 00 00 00 3e ab ac 32 00 00 00 00
       0.0 0.0 2.0101307e-08 0.0
0000e0 26 98 f6 2f 18 37 0e 31 ec dd 99 30 ae 07 01 36
       4.4855247e-10 2.0695037e-09 1.1195289e-09 1.9226968e-06
0000f0 7d 16 a2 2d a9 34 78 32 06 52 0c 37 79 5d 3a 36
       1.8427255e-11 1.4447473e-08 8.363748e-06 2.7770568e-06
000100 00 00 00 00 fa 9a bf 36 64 de e0 36 2a a7 01 36
       0.0 5.710285e-06 6.70161e-06 1.93198e-06
000110 99 77 c2 36 cf 64 22 37 cd 4d b4 36 bd 35 5c 37
       5.7955735e-06 9.679424e-06 5.3734752e-06 1.3125534e-05
000120 87 b8 7e 37 cf 8a 43 36 37 0e 43 36 28 f5 1c 35
       1.5182543e-05 2.9138062e-06 2.9065538e-06 5.847128e-07
000130 fb 83 43 36 fb 83 43 36 00 00 00 00 00 00 00 00
       2.9134087e-06 2.9134087e-06 0.0 0.0
000140 00 00 00 00 00 00 00 00 00 00 00 00 00 00 00 00
       0.0 0.0 0.0 0.0
000150 00 00 00 00 00 00 00 00 00 00 00 00 00 00 00 00
       0.0 0.0 0.0 0.0
000160 00 00 00 00 00 00 00 00 00 00 00 00 00 00 00 00
       0.0 0.0 0.0 0.0
000170 00 00 00 00 00 00 00 00 00 00 00 00 00 00 00 00
       0.0 0.0 0.0 0.0
000180 00 00 00 00 00 00 00 00 00 00 00 00 00 00 00 00
       0.0 0.0 0.0 0.0
000190 00 00 00 00 00 00 00 00 00 00 00 00 00 00 00 00
       0.0 0.0 0.0 0.0
0001a0 dc a5 5e 3a 73 9f ac 3a 3f 56 94 3a e3 e4 c5 3a
       0.0008493343 0.0013170078 0.0011317207 0.0015098121
0001b0 f0 f9 8e 3a c5 cd 88 3b 63 7e 7b 3b e6 cf 05 3c
       0.0010908227 0.0041749203 0.0038374893 0.008167243
0001c0 fc fb 87 3b e9 20 83 3b 2c 27 82 3b 28 4c 82 3b
       0.004149912 0.004001726 0.003971955 0.0039763637
0001d0 15 53 c2 3a 99 9c d2 3b 6e 46 03 3c b6 d5 84 3b
       0.0014825786 0.0064273593 0.008012397 0.0040537966
0001e0 4e b2 0b 3c 90 bb fc 3b 94 31 08 3c e9 4d 01 3c
       0.008526398 0.007712789 0.008312602 0.00789211
0001f0 ae d3 07 3c be 17 3c 3b 49 bf 15 3b 85 92 e7 39
       0.008290214 0.0028700675 0.002284961 0.0004416892
000200 8f 13 54 3b 18 71 50 3b 50 95 72 2e 83 c7 2f 2e
       0.003236029 0.003180569 5.5157046e-11 3.9967595e-11
000210 c1 4f 21 34 a5 c5 78 2e c7 26 7f 2e 79 21 98 31
       1.5023308e-07 5.6564215e-11 5.801473e-11 4.4275876e-09
000220 6b c2 ee 31 3d 63 3d 35 94 ab b7 31 9d 27 4d 31
       6.9488144e-09 7.05524e-07 5.345507e-09 2.9853944e-09
000230 93 39 ad 35 5d e0 10 37 8e 11 16 31 74 39 09 37
       1.2906261e-06 8.6353075e-06 2.1837852e-09 8.179213e-06
000240 40 0e 82 37 87 50 97 35 27 86 d5 37 ec cc 3b 36
       1.5503843e-05 1.1273813e-06 2.5454048e-05 2.7984452e-06
000250 39 52 5f 36 dd d2 35 37 12 23 a3 37 db 0e 3b 36
       3.327745e-06 1.0837536e-05 1.9447445e-05 2.7873818e-06
000260 93 28 06 36 0a f2 c8 34 72 cc 89 36 7b 00 79 36
       1.9991173e-06 3.742901e-07 4.1067187e-06 3.710417e-06
000270 d6 2c 9c 37 0b 02 3e 37 db ba ab 37 60 36 99 37
       1.8617528e-05 1.1325358e-05 2.04718e-05 1.8264342e-05
000280 d0 e5 a9 37 b2 9b b3 38 c3 52 b5 38 0a da 98 39
       2.0253385e-05 8.564386e-05 8.646168e-05 0.0002915415
000290 23 bb a7 38 bd ab a0 38 ba 31 89 39 f1 3a 89 39
       7.9980375e-05 7.661383e-05 0.00026167725 0.0002617459
0002a0 37 d3 a5 37 cd 67 ad 39 7f fd 8a 39 57 0f 86 39
       1.9767887e-05 0.0003307447 0.0002651028 0.000255699
0002b0 26 a0 11 3a 79 57 bb 39 64 c3 eb 39 54 f2 df 39
       0.0005555175 0.00035732592 0.0004496827 0.00042714423
0002c0 1b c7 08 3a 94 a2 22 39 73 5a 0c 39 95 68 eb 37
       0.00052176573 0.00015510089 0.00013385135 2.8062883e-05
0002d0 e6 b9 2d 39 29 e1 2b 39 00 00 00 00 00 00 00 00
       0.00016567818 0.0001639171 0.0 0.0
0002e0 00 00 00 00 00 00 00 00 00 00 00 00 00 00 00 00
       0.0 0.0 0.0 0.0
0002f0 00 00 00 00 00 00 00 00 00 00 00 00 00 00 00 00
       0.0 0.0 0.0 0.0
000300 00 00 00 00 00 00 00 00 00 00 00 00 00 00 00 00
       0.0 0.0 0.0 0.0
000310 00 00 00 00 00 00 00 00 00 00 00 00 00 00 00 00
       0.0 0.0 0.0 0.0
000320 00 00 00 00 00 00 00 00 00 00 00 00 00 00 00 00
       0.0 0.0 0.0 0.0
000330 00 00 00 00 00 00 00 00 00 00 00 00 00 00 00 00
       0.0 0.0 0.0 0.0
000340 00 00 00 00 00 00 00 00 00 00 00 00 00 00 00 00
       0.0 0.0 0.0 0.0
000350 00 00 00 00 00 00 00 00 00 00 00 00 00 00 00 00
       0.0 0.0 0.0 0.0
000360 00 00 00 00 00 00 00 00 00 00 00 00 00 00 00 00
       0.0 0.0 0.0 0.0
000370 00 00 00 00 00 00 00 00 00 00 00 00 00 00 00 00
       0.0 0.0 0.0 0.0
000380 00 00 00 00 00 00 00 00 00 00 00 00 00 00 00 00
       0.0 0.0 0.0 0.0
000390 00 00 00 00 00 00 00 00 00 00 00 00 00 00 00 00
       0.0 0.0 0.0 0.0
0003a0 00 00 00 00 00 00 00 00 fd d5 fe 3b 7c 89 03 3c
       0.0 0.0 0.0077769742 0.008028384
0003b0 65 82 ff 3b ab 31 03 3c ee c8 0b 3c e1 7c 0e 3d
       0.0077975267 0.008007447 0.008531792 0.034787063
0003c0 3d 4b 18 3d 4c 7a 8f 3d 8b 1a 10 3d 3a 57 06 3d
       0.037181128 0.07005748 0.035181563 0.03279803
0003d0 dc 4a 17 3d 86 18 18 3d d4 58 81 3c 5d 0e 68 3d
       0.036936626 0.037132762 0.015789427 0.056654323
0003e0 51 73 97 3d 56 42 39 3d 95 c1 82 3d 2b 2c 9d 3d
       0.07395042 0.04522928 0.06384579 0.0767444
0003f0 0b 01 8c 3d 47 74 8f 3d 27 87 94 3d 5e 74 d8 3c
       0.068361364 0.070046 0.07252341 0.026422676

exp_avg f4 [128]
000000 80 3c 01 00 50 a1 82 0e a9 b0 ea 1f 00 00 00 00
       1.13539e-40 3.2202813e-30 9.9395115e-20 0.0
000010 ce bb 29 11 04 00 00 00 04 00 00 00 00 00 00 00
       1.3389621e-28 6e-45 6e-45 0.0
000020 00 00 00 00 78 83 33 bc 04 00 00 00 b8 03 4b 0d
       0.0 -0.010956638 6e-45 6.255868e-31
000030 04 00 00 00 00 00 00 00 c4 85 f3 3d 7e 00 00 00
       6e-45 0.0 0.11890748 1.77e-43
000040 00 91 ec 37 c9 28 3f b2 04 00 00 00 00 00 00 00
       2.8200913e-05 -1.1126937e-08 6e-45 0.0
000050 7c df f7 0f b6 2f b0 2d 04 00 00 00 3a 29 21 a6
       2.4442163e-29 2.0030071e-11 6e-45 -5.591397e-16
000060 df e2 d3 20 f1 0d 85 35 00 00 00 00 00 00 00 00
       3.589492e-19 9.91333e-07 0.0 0.0
000070 04 00 00 00 03 34 00 00 cc 38 8e 26 44 2c ef 2a
       6e-45 1.8658e-41 9.868624e-16 4.2485644e-13
000080 cd 0d 96 0f 04 00 00 00 04 00 00 00 a6 66 9e 3c
       1.4796458e-29 6e-45 6e-45 0.019336056
000090 f5 7d 29 24 a0 ac 73 b9 04 00 00 00 ff ae 9a 3d
       3.6752723e-17 -0.00023238594 6e-45 0.07552909
0000a0 04 00 00 00 cc b1 5b 0f 3e 1c d6 21 ad 7d 8f 0b
       6e-45 1.0831776e-29 1.450868e-18 5.527069e-32
0000b0 04 00 00 00 04 00 00 00 01 09 24 0f c8 b9 7f 10
       6e-45 6e-45 8.087558e-30 5.0433003e-29
0000c0 0a 25 3d 28 7b 4e eb 3b fe 12 bb bb 04 00 00 00
       1.0499639e-14 0.0071809865 -0.005709051 6e-45
0000d0 04 00 00 00 85 78 cc 22 07 00 00 00 04 00 00 00
       6e-45 5.5421916e-18 1e-44 6e-45
0000e0 cc 43 e6 17 2e 81 92 3d 05 20 59 0f d6 7a cb a5
       1.4880516e-24 0.07153545 1.0705093e-29 -3.5298123e-16
0000f0 58 6b f2 03 04 00 00 00 93 6a 19 00 28 cc 52 3e
       1.4248127e-36 6e-45 2.334119e-39 0.20585692
000100 09 00 00 00 04 00 00 00 04 00 00 00 32 86 8a 0f
       1.3e-44 6e-45 6e-45 1.3659541e-29
000110 00 6b 9d 3d 00 00 00 00 d2 c8 8f 2c 04 00 00 00
       0.07686424 0.0 4.0866e-12 6e-45
000120 3c 35 b9 21 00 00 00 00 c9 9f 0f 3e 00 00 00 00
       1.2550179e-18 0.0 0.14025797 0.0
000130 04 00 00 00 a1 d8 b2 27 f4 9b 30 3c 9b 98 93 04
       6e-45 4.9639794e-15 0.01077937 3.469968e-36
000140 04 00 00 00 3c fb 6d b9 37 39 b0 3d 06 00 00 00
       6e-45 -0.00022695673 0.08604663 8e-45
000150 00 00 00 00 04 00 00 00 d6 be 44 3e a6 26 60 04
       0.0 6e-45 0.19213423 2.634882e-36
000160 04 00 00 00 58 db 87 1d b6 22 83 14 66 82 28 37
       6e-45 3.5961e-21 1.324131e-26 1.0043941e-05
000170 22 3b 48 3a 00 00 00 00 44 c6 4c 2c 4b 32 5b 0a
       0.0007638206 0.0 2.9100203e-12 1.05539255e-32
000180 04 00 00 00 94 ed c3 04 0a 00 00 00 04 00 00 00
       6e-45 4.606246e-36 1.4e-44 6e-45
000190 21 d9 77 0e 04 00 00 00 b1 e7 17 3e 3f e8 8f 12
       3.0549644e-30 6e-45 0.14834477 9.081822e-28
0001a0 04 00 00 00 04 00 00 00 00 00 00 00 d9 33 14 0f
       6e-45 6e-45 0.0 7.306949e-30
0001b0 04 00 00 00 6b dc 62 3d d8 f7 17 22 4b 2a a4 0f
       6e-45 0.05538599 2.0595523e-18 1.6187939e-29
0001c0 00 00 00 00 3c 5f 11 08 04 00 00 00 03 b5 0d 2f
       0.0 4.37463e-34 6e-45 1.2888184e-10
0001d0 c9 6c 1a 2a 00 00 00 00 00 92 9b 28 4f 89 3b 3d
       1.371569e-13 0.0 1.7271774e-14 0.045785245
0001e0 e3 67 80 09 04 00 00 00 04 00 00 00 b6 43 8b 37
       3.0912574e-33 6e-45 6e-45 1.6601622e-05
0001f0 56 bd 9c 2a 04 00 00 00 09 6a f7 36 ad 26 14 b8
       2.7842545e-13 6e-45 7.3735177e-06 -3.532197e-05

exp_avg_sq f4 [128]
000000 e7 a9 42 3b 2f 7d c5 37 fb 83 43 37 00 00 00 00
       0.002970332 2.3542523e-05 1.1653635e-05 0.0
000010 ec e8 56 3c 67 06 8c 37 b2 f1 30 3a 00 00 00 00
       0.013117056 1.6692282e-05 0.00067498826 0.0
000020 00 00 00 00 ae ca ec 3d 62 05 ea 39 5b bc 1e 39
       0.0 0.115620956 0.00044635969 0.00015138222
000030 e1 9d a6 37 00 00 00 00 15 fb 90 3e f9 b9 8a 30
       1.986226e-05 0.0 0.2831656 1.0093678e-09
000040 c5 b5 c2 3c 02 a4 c0 3c 1b d7 73 38 00 00 00 00
       0.023768315 0.023515705 5.8136047e-05 0.0
000050 b1 f4 03 38 67 2c c4 3a a0 84 9b 36 41 72 36 3b
       3.146072e-05 0.0014966846 4.6347996e-06 0.0027839097
000060 17 e4 9e 37 b2 5d 6e 3d 00 00 00 00 00 00 00 00
       1.894128e-05 0.058194824 0.0 0.0
000070 d5 da fe 39 9c f8 81 39 00 08 37 3d cc c1 f5 3a
       0.00048609698 0.00024790026 0.044685364 0.0018749773
000080 76 41 04 3d c6 f0 83 39 c6 5c 8b 38 21 5b 1e 3d
       0.03228899 0.00025165657 6.645317e-05 0.038661126
000090 ae 3c 11 3c fc 53 c2 37 ec b0 bf 39 de fe 0b 3e
       0.008864565 2.316571e-05 0.00036562176 0.13671443
0000a0 3a 3f a9 37 b2 3f 4c 3d a5 c0 b9 3c 6b 9d 0b 3b
       2.0175812e-05 0.049865432 0.022674868 0.0021303545
0000b0 d2 a4 01 39 cb ce 5a 35 c7 bd 7f 3c e6 04 9b 39
       0.00012363799 8.151225e-07 0.015609211 0.00029567553
0000c0 11 10 a8 3a a3 39 b5 3d 8e 06 86 3d f5 7b c5 36
       0.0012822171 0.08848884 0.06544219 5.885488e-06
0000d0 30 65 8a 35 1f 70 75 39 8e 63 65 3a 88 73 92 35
       1.0311251e-06 0.00023406789 0.00087504915 1.0911472e-06
0000e0 57 ab 0f 36 74 29 80 3e 6f 7b 2d 3d 2f 2e 53 38
       2.1408393e-06 0.25031626 0.042354044 5.0349332e-05
0000f0 00 f6 90 39 6e dd 73 32 91 d0 e0 39 67 a9 10 3f
       0.00027649105 1.4194809e-08 0.00042880003 0.5650849
000100 8f 86 aa 3a 5d fa f0 38 74 de 65 36 3d de c2 3d
       0.0013010072 0.000114907256 3.4253144e-06 0.09515045
000110 35 5f 65 3e 00 00 00 00 23 8d ab 3b 8a c4 2d 3a
       0.223996 0.0 0.0052353307 0.0006628713
000120 6c 0a 32 3c 00 00 00 00 97 59 9f 3e 00 00 00 00
       0.010866743 0.0 0.3112304 0.0
000130 cd a4 1d 3a 6a 57 f6 38 64 5a ee 3d 3e cf 36 39
       0.0006013632 0.00011746476 0.116383344 0.00017434076
000140 6e 58 4d 3a db b9 1e 3d 72 7a 72 3e d3 f2 d5 3a
       0.00078333064 0.038751464 0.23679522 0.0016322978
000150 00 00 00 00 22 9f 62 38 42 b6 1e 3f bb 05 4d 3b
       0.0 5.4030803e-05 0.61996853 0.0031283933
000160 3e a1 66 36 3a 03 cd 37 ad 21 52 3a 0d 21 68 3c
       3.4366526e-06 2.4439407e-05 0.00080158823 0.014168036
000170 bf 58 bb 3c 00 00 00 00 71 1c 32 3b 27 a7 5f 3c
       0.022869466 0.0 0.0027177597 0.013650692
000180 ea 60 5b 36 db 63 66 3c 7a 1f e9 37 9a b5 a2 36
       3.2689954e-06 0.014061893 2.7790422e-05 4.8491174e-06
000190 5f 36 fe 3b cb 71 e5 37 d9 00 a7 3e ac b0 ee 39
       0.0077579464 2.7351916e-05 0.32617834 0.00045526528
0001a0 e1 6f 00 34 f1 ab 0a 35 00 00 00 00 03 0a 27 3d
       1.196163e-07 5.1659214e-07 0.0 0.040781032
0001b0 18 fb 69 35 f8 f8 48 3d 90 bd 4c 3a f1 6e 15 3d
       8.7164653e-07 0.04906556 0.00078102294 0.036482755
0001c0 00 00 00 00 80 ef ab 38 82 a7 5b 39 91 b0 fc 3a
       0.0 8.198526e-05 0.00020947869 0.0019278695
0001d0 7c 29 5e 3c 00 00 00 00 ef 8b f9 36 99 c8 16 3e
       0.013559695 0.0 7.4370687e-06 0.1472496
0001e0 28 9f fc 37 1e 24 79 36 f4 68 ff 36 8f 10 b3 3c
       3.0114854e-05 3.7124914e-06 7.6118104e-06 0.021858482
0001f0 aa 43 79 39 60 94 0b 35 6d c5 a6 3a fc bc 1a 3d
       0.00023771697 5.199745e-07 0.0012723632 0.037777886
