models/reinforce/reinforce_high_lr/checkpoint_ep700.pth (torch, 259594 bytes, 18 tensors)

network.0.weight f4 [128, 26]
00000000: 1906 f9bd 1c1f 1f3e 6b8d 23bd 2a3f 153e
00000010: d6a0 37be 1ad3 273d cd54 183c 3e26 ba3d
00000020: 44dd e13c 02a8 f6bd a5ec dabd 5505 63ba
00000030: b26f 283e d4dc b63d d649 c7bd a4c7 a13d
00000040: cf91 05be 95c5 24be 074a f93b bc0a 19be
00000050: 6c82 513d ca38 b7bc 2f01 7d3d 9fdb 70bb
00000060: 6450 093e 3adf e0bd 0120 663d 6627 16bd
00000070: 0c6d 353d ff84 06bd 5e91 9cbd 68b6 faba
00000080: f530 97bd 3325 21bd ce70 a5bd 509d 1ebe
00000090: 5fda 90bd f796 2dbe 60cb a63d 9f75 e6bd
000000a0: 7f41 3fbe 75be 053e 91fa f9bb 4f2b b43d
000000b0: d987 5abd 5ecb 163e 6e77 06be 17cf b1bd
000000c0: 35a9 9fbd 552d 2d3d e1da 65be 520d c03d
000000d0: 55c5 01be 0827 23bd 00bb 28be 8488 7abd
000000e0: b149 dd3d 9657 e6bc 0f53 3cbe fac1 4fbe
000000f0: 0f32 ff3d 6665 1c3d c64d 39bd 5e7f 44bd
00000100: 748a 78bd f027 46be dce2 14be bba3 973d
00000110: f81c 8dbd 772c 993d c853 39be 1098 723d
00000120: 23f6 f23d afce 043e 8616 a93d 799f e23d
00000130: 7b04 d03c 1a84 76bd 1dc6 3bbe 99cb c1bd
00000140: 6061 51bc 80c3 3b3c 5020 4cbc c05b b0bd
00000150: 797b 2fbe b44b 32be 2c13 44bd fc9f 423d
00000160: 2024 693c 3e2d 20be 12ac fe3d 2818 d2bc
00000170: 3c31 23be cdba 3a3e fe72 c9bd 8c8b 713d
00000180: 1aa5 81bd 19e4 2abe 41f4 e0bd be00 a23d
00000190: 9cbd 5d3d 243a cdbd 7089 6ebc 9e61 e2bd
000001a0: 7e36 3e3c 9d0d 66be dbbb 1bbe ba90 a2bd
000001b0: 89a2 5bbe 6782 f7bd fc89 c9bd ac1d e03c
000001c0: e992 24be 1f6c 993d 93b2 943d 4f22 27be
000001d0: 685a c4bd 36cf f0bd 27d9 e5bc 5060 05be
000001e0: 9a6f 6b3d 974d 3fbe 6bed a8bd eaac 32bd
000001f0: 127e 9c3d 5530 053e 8567 8abd 1326 1ebe
00000200: 98ac 19bd 71b3 813d df54 c73c 2ba4 c5bd
00000210: 8b06 213e 1158 4ebc d3d1 083d a037 dbbd
00000220: da77 b73c 021b e4bd bcd5 19be a134 0e3d
00000230: a557 d2bc bb8a 1e3e 0506 b73d 8c38 d1bc
00000240: 94cc 623d c1f1 29be 8ba4 9cbd 60ec 47bc
00000250: 9143 99bd d7fa 4fbe 5dc4 a43d 4108 b2bc
00000260: 0df0 1ebe 5a72 06be d40c 46bd d8f7 20be
00000270: b0d3 bb3c 2507 1bbe e683 aa3c 08c9 c0bd
00000280: 58f8 1fbe 252e 58be daac 6dbe 2da2 eb3d
00000290: 4db0 da3d 2f84 d83d 9da4 2abe d97f 70bd
000002a0: 01af 0c3d ad34 b5bd 66ef 1ebe 14ee bc3c
000002b0: 9a6a d1bd 0ead 50bc 702d c33d c18b 03bc
000002c0: 4a28 a13d 13b3 85be 1ca8 453d db0e 47be
000002d0: 8d6e 9e3d f94e e1bd 3605 cfbd ab69 fcbd
000002e0: 9738 293e a150 f5bd 490c 203e 808c 1fbe
000002f0: acea 21be fc22 13be 8277 c03d dcf1 03bd
00000300: f400 d5bd b063 1abe 8bad 483e c020 36bd
00000310: 15fc a6bd d089 4bbc 24c1 773d d2f8 1dbe
00000320: b018 073c 753d 333e b00c e93c 9861 74bd
00000330: 203d b83b 9e0e 953d 8a64 1bbe 8922 053e
00000340: b082 4bbd bddb 463e dcdd 3cbe a1bd 0f3e
00000350: d16c 233e c087 173c d701 203e 0d44 35be
00000360: 6d95 2fbe 9177 aabd d0a2 0fbd e36d 45be
00000370: 0076 6d3a ea30 86bd b251 b33d f601 29be
00000380: 59f0 a5bd a403 30bd 2d96 46be e034 e9bd
00000390: 076f 2dbe 4a85 e5bd d093 b6bc 1c72 74bd
000003a0: 691c 343e a708 3bbe 49ab 943e af88 cb3e
000003b0: df37 053e d2cd f93e 21b2 9f3e ab57 503d
000003c0: 0a8f 313d 19a5 343e 1ddf 573d c2e8 07bd
000003d0: 7a21 8abd e862 613d 59f6 293d 07ee 1f3e
000003e0: 7def f73b 2e66 0dbe fc17 9ebd 27f1 0d3e
000003f0: 97ec 1c3d 10d3 1e3d 2227 04bd 2149 a03d
-0.12159366 0.15539211 -0.03992979 0.14574876 -0.17932448 0.040972807 0.009297562 0.09089325
0.027571328 -0.12043764 -0.106896676 -0.00086601573 0.16448858 0.08928838 -0.0973088 0.078994066
-0.13043903 -0.16090997 0.0076077017 -0.14945501 0.05114977 -0.022365946 0.061768707 -0.0036751998
0.13409573 -0.10980077 0.056182865 -0.036658667 0.04429345 -0.03284168 -0.07644914 -0.0019127848
-0.07382385 -0.039342117 -0.080781564 -0.15489697 -0.07072901 -0.1695212 0.081442595 -0.11252903
-0.18677329 0.13060935 -0.007628747 0.08797323 -0.05335221 0.14726016 -0.13131496 -0.086820774
-0.077959456 0.04227956 -0.22446777 0.09377541 -0.12672932 -0.039832145 -0.16477585 -0.061165348
0.10805071 -0.028117936 -0.1839106 -0.2028884 0.1246072 0.03818264 -0.045240186 -0.04797303
-0.060678914 -0.19351172 -0.14539665 0.07404276 -0.06890291 0.07479184 -0.18098366 0.05922705
0.11863353 0.12969469 0.08256249 0.11065573 0.025392761 -0.060184576 -0.18337293 -0.09462661
-0.012779564 0.011460185 -0.012458876 -0.0861125 -0.17136945 -0.17411691 -0.047869846 0.047515854
0.014229804 -0.15642259 0.124351636 -0.025646284 -0.1593675 0.18235321 -0.09836386 0.058970973
-0.06330319 -0.16688575 -0.10984088 0.07910298 0.054135904 -0.10020855 -0.014559135 -0.11053775
0.011609672 -0.2246613 -0.1520838 -0.07937761 -0.21448721 -0.12085419 -0.098407716 0.027357899
-0.16071667 0.074913256 0.07260623 -0.16321681 -0.09587556 -0.11758272 -0.028057648 -0.13025022
0.05747948 -0.18681942 -0.08248409 -0.043621935 0.076412335 0.13006718 -0.06758026 -0.15444212
-0.037518114 0.06333054 0.024332462 -0.09650453 0.15725152 -0.012594239 0.03340323 -0.10703969
0.022396017 -0.11137964 -0.1502294 0.03471816 -0.025676558 0.15482609 0.08936695 -0.025539659
0.055370882 -0.16596128 -0.076485716 -0.012202352 -0.074835904 -0.20310532 0.08045266 -0.021732451
-0.1552126 -0.13129559 -0.048352078 -0.15719545 0.022928089 -0.15139444 0.020814847 -0.09413344
-0.1562208 -0.21111353 -0.23210469 0.11505542 0.10678158 0.10572087 -0.16664357 -0.058715675
0.034346584 -0.08847938 -0.15521011 0.023062743 -0.10225411 -0.012736572 0.09530151 -0.008028925
0.07869013 -0.26113185 0.048256025 -0.1943926 0.0773593 -0.11001391 -0.10108416 -0.12324842
0.16525494 -0.11978269 0.15629686 -0.1558094 -0.15812176 -0.14368814 0.09397794 -0.032213077
-0.104005724 -0.1507709 0.19597451 -0.044464827 -0.081535496 -0.012422994 0.060486928 -0.15426949
0.008245632 0.17503913 0.028448433 -0.059663385 0.005622521 0.07278179 -0.15175071 0.13001455
-0.04968518 0.19419761 -0.18444008 0.14037181 0.15959479 0.009248674 0.15625702 -0.1770174
-0.17146845 -0.08323587 -0.03506738 -0.192802 0.0009058416 -0.06552298 0.087558165 -0.16504654
-0.08102483 -0.042972222 -0.19393225 -0.11387038 -0.16936885 -0.112070635 -0.02228728 -0.059679136
0.17588963 -0.1826502 0.2903693 0.3975272 0.13009594 0.4878984 0.3119059 0.050864857
0.043349303 0.17641105 0.05270301 -0.03318096 -0.067446664 0.055025965 0.0414947 0.15618144
0.007566391 -0.1380851 -0.077194184 0.13861524 0.038311567 0.038775504 -0.032263882 0.07826448

network.0.bias f4 [128]
00000000: 0d76 4fbe de56 693d 918f 25be 4bd5 133e
00000010: 91ea fbbc 1c9e fc3d d156 adbd ac2f e3bd
00000020: 402d 59bd 15bf f1bd 9149 20be 46be 9e3c
00000030: 917b d3bd 18e1 9dbc 2383 683d b243 32be
00000040: a9f6 43bc 477f edbc fbff 46be f1ea a7bd
00000050: 91a2 94bc 2007 8f3c 267a 18be 77a5 ecba
00000060: dffc be3d 22bd ffbd 1b26 cebd 3a2c c1bd
00000070: 2d51 5cbe 07fa e7bd 0722 6bbe c6f8 2ebe
00000080: f86a bcbd 2c83 acbd 2785 a13d cd68 67bd
00000090: 3edb 8ebd 3eb3 133e e1ac 30be 69fc 2ebe
000000a0: a066 20bd 0126 76bd 365d 023e 0560 2bbc
000000b0: 5d24 0bbd ad0f 3fbe 367b 31bd ca4c 12bd
000000c0: 24a0 e23d 3dbc 493e e2b8 61bd 0aa9 dcbc
000000d0: 5014 d3bd dacd 4bbe 4cae 7a3d 0323 9d3c
000000e0: 2378 27bc e461 1c3e 52e6 28be 30b5 03be
000000f0: 94bb b03d 06fa 50be 7e09 a53d 7c42 1f3e
00000100: 3552 3fbd c42f e13d fbff 133e 858e d13d
00000110: 17eb 193e f2f4 1abe b4e2 ca3d bad4 24be
00000120: dbf4 d5bd 72c4 42be b931 283e fa71 9a3d
00000130: e733 813d ff42 f3bc 2b34 26bc 6469 b13d
00000140: 202f e53d 287f 50bd ea87 fa3d a51b 5dbc
00000150: 9490 04be a093 1ebe 9849 663e 2d5b d8bd
00000160: bf6f d73b bd30 973d 077a d5bd 64a3 66bc
00000170: c694 fd3d 324f 09be 9211 863d fb7a c1bd
00000180: 33c4 9e3d 9b58 c03c de26 35be 7221 a0bd
00000190: 11f4 57bd 9a4f 38bd 95eb 533e efdf 09bc
000001a0: 561c ac3a 3c3f 263d c8dc abbd ea50 fcbd
000001b0: 0e11 73be 72b0 303d 04d5 f33d 74b9 a9bd
000001c0: 542a 9dbd dd33 133e c778 09be ab92 b33d
000001d0: 7b1c 34be 5040 6dbd 1ed6 153e a539 94bc
000001e0: 45a9 6fbc 4eb5 ddbd 757c ca3d a68a 27be
000001f0: da47 a0bc c21d 00be 174f 51bd be37 223e
-0.20259877 0.05696761 -0.16168047 0.14436834 -0.030751498 0.123348445 -0.084638245 -0.11093077
-0.05302167 -0.11804024 -0.15653063 0.019377839 -0.10326303 -0.019272372 0.056765687 -0.17408636
-0.011960664 -0.028991355 -0.19433586 -0.081991084 -0.018143924 0.017459452 -0.14890346 -0.0018054683
0.09325575 -0.12487246 -0.10065862 -0.09432264 -0.21515341 -0.11326986 -0.22962199 -0.17087087
-0.0920009 -0.084234565 0.07886725 -0.05649643 -0.06975411 0.14423844 -0.17253448 -0.17088474
-0.03916037 -0.060094837 0.1273087 -0.010459905 -0.033970226 -0.18658324 -0.043330394 -0.035717763
0.11065701 0.19700713 -0.05510796 -0.026936073 -0.10306609 -0.19902745 0.06120138 0.019181734
-0.010221514 0.15271717 -0.1649411 -0.12862086 0.08629528 -0.20407876 0.08058451 0.15552706
-0.046709258 0.10995439 0.14453118 0.102322616 0.15031086 -0.15132502 0.099065214 -0.16096774
-0.10447093 -0.1902025 0.16425218 0.075412706 0.06308728 -0.029695032 -0.010144274 0.0866268
0.11190629 -0.050902516 0.12232955 -0.0134953605 -0.12945777 -0.15486002 0.22489011 -0.105642654
0.0065746005 0.07382343 -0.104236655 -0.014077041 0.12381892 -0.13409117 0.0654632 -0.09447285
0.07752266 0.02347975 -0.17690608 -0.07818879 -0.052722994 -0.04499779 0.20695336 -0.008415206
0.0013131003 0.04058765 -0.0839172 -0.12320121 -0.23736975 0.04313702 0.11905864 -0.082873255
-0.07674089 0.14375253 -0.13424979 0.08768209 -0.1758899 -0.05792266 0.1463246 -0.018093893
-0.014627759 -0.10825597 0.098870195 -0.16361484 -0.019565511 -0.12511352 -0.051100817 0.15841576

network.2.weight f4 [128, 128]
00000000: bd62 b33b 1d78 8a3d 529f 4abd d8e3 3b3c
00000010: 762d e2bd c843 7fbd a43d 70bd 95db 8a3d
00000020: 9a54 90bd 7de5 023d f694 7a3d c072 d13a
00000030: c19d 58bd 3732 ad3d f27b 973c 9dcc 9f3d
00000040: 6cf4 00bc d7e4 92bd af5f b4bd 9ef5 4e3d
00000050: 5e05 a9bd ba2c 133b 5773 85bd 7e06 a83d
00000060: a871 66bc fca2 8cbb 5b4b a63d 6e68 8fbd
00000070: bc62 b1bc 8ebb 8abd 94c3 ca3c 0510 9a3d
00000080: 6e25 2bbd f06f a4bb a17c 8fbd 79f1 7cbd
00000090: 4ac0 0ebd a17b 0ebd a077 54bc 71b9 a3bd
000000a0: f723 9e3d 311e 12bc 25f8 313d 46b3 673d
000000b0: 4381 973d 184d 59bd 7d0d a8bc 650b 97bd
000000c0: b254 c23d a7c9 1bbd 34cd c93c 53f7 b13d
000000d0: 3f25 b23d 1bfe 15bd 2e9d 323d 3022 a53b
000000e0: 9ba3 9ebd 7eb3 803c d647 d5bd 988b 64bc
000000f0: 387c 883d f44c 92bd 65c3 123d 294a 22bd
00000100: 45bc 9a3d 6065 00bc d0ac 90bd ff21 02bc
00000110: 567c a0ba 0224 533d 5c36 00be a073 4e3b
00000120: df50 b8bd 7450 babc 1344 87bd 77aa 27bd
00000130: 5b7f afbd 2e0a 003d b30b dfbb ba58 7d3d
00000140: e88b afbc 8bf8 d3bc 2147 d5bd 7a79 193d
00000150: bf88 b23d 8ec1 25bd e6ad bbbd 8977 d93d
00000160: f840 9e3c 3dc5 a5bd f097 b4bd dce9 b7bd
00000170: 7c66 f3bd 8c73 85bd 5971 033e 44e4 c9bb
00000180: d016 23bc 05a7 c8bd 53ff fd3b 0c9b e43c
00000190: 355f 9cbc 8fa3 adbd 190a 2a3b 5c4f c73c
000001a0: 771e a83d 7a66 523d 30c3 ee3b 2950 0c3d
000001b0: b29e 233d e5ad b23c bb64 64bd 653c c73c
000001c0: 8ac6 2f3d be3b 513d 0a95 91bd 8aca 09bd
000001d0: 9ce3 d93c db4b 03bd 665b 463d e6e5 f9bd
000001e0: 501e 6c3c 12f7 0abd 3d9c b33d a750 e0bd
000001f0: ee95 c1bd 161c 4b3d 146a 563d c907 82bd
00000200: ca4a 633d 62dc 3d3d 1e8e a9bd f08e 76bd
00000210: 8ab5 93bd 02cf 9cbd 4760 3bbd 98bc b2bc
00000220: d0a2 133d 2fc2 89bd 6a93 1d3d 3c16 bcbc
00000230: 0e95 37bd 5cd2 e9bc 665e 9bbd c5f8 843d
00000240: 32fd 163d 6490 a63c 9530 24bd 9037 063c
00000250: 9c45 00bd 9619 573d 788a 11bc 3a8e 303d
00000260: d2be 5d3d c01b 2dbd 28ee ccbc e88d 00bc
00000270: 6153 3cbd 68df a3bc 88d2 0e3c 2d88 4ebd
00000280: aecd 443d 40f4 07bc 4840 133d 4d92 a23d
00000290: 02b1 1abd 7904 8cbd e6bd 283d 500f f8bb
000002a0: 7b4d 8a3d c4a6 48bd 7a4f 703d 303b f9bb
000002b0: cc44 c9bc a6af 6b3d e8f9 99bd 509e b8bc
000002c0: b68b 533d 4519 82bd 30d6 8abc 07be a63d
000002d0: a17a 94bd 004c cdba a747 87bd 4084 763c
000002e0: e0f2 a9bb 986b 50bd a05e 21bc 5c65 8ebd
000002f0: 001b febb 9190 a7bd 6621 70bd 40dd e1bc
00000300: ee88 6b3d 336b a3bd 5dab 8b3d 7e09 743d
00000310: 3810 f8bc 313f 36bd 6529 b23d 184d 013d
00000320: a021 1ebb 08c2 a9bd 00a4 8d3a 3cae e43c
00000330: a0e9 49bb cd07 8fbd 5840 40bc fad8 80bd
00000340: f535 0ebd 206f 6cbd c0aa 25bc 9de3 9a3d
00000350: 5835 0fbd c683 1b3d 42a2 a5bd 80ca baba
00000360: e3c1 10bd 9768 aa3d 788b 023c 906c 053d
00000370: b3a8 89bd 0ba2 993d 80bc a73b 873e 30bd
00000380: 486f 19bc a00f 94bd 43fe aabd fce9 72bd
00000390: 8e51 6c3d 4d06 0abd 403b ffbb 5cbf d83c
000003a0: 2134 883d 2b96 b23d 6baf 9f3d c0d8 093d
000003b0: 20fe 0f3d 8032 a8bb 4023 5a3b 2c3e b0bd
000003c0: 162e 443d 10f1 bdbc fa15 4d3d 3588 b43d
000003d0: 607e 00bb 9e2f 383d 4a2d 453d 08fc 773c
000003e0: aa6f adbd 18c3 72bd a75c 4abd cdbd 03bd
000003f0: 606f 263b 5349 873d 001a f139 b003 b43c
0.005474417 0.06761191 -0.049468346 0.011467896 -0.11043827 -0.0623205 -0.058652535 0.06780163
-0.070473865 0.03195714 0.061177216 0.0015979633 -0.05288482 0.08456843 0.018491719 0.07802699
-0.007870775 -0.07172554 -0.08807313 0.050527208 -0.08252977 0.002245708 -0.0651614 0.08204363
-0.014065184 -0.00429189 0.08119842 -0.0700234 -0.021653526 -0.067740545 0.024751462 0.07522587
-0.041783743 -0.005018227 -0.07006193 -0.061753724 -0.03485135 -0.03478587 -0.012967974 -0.079943545
0.077217035 -0.008918331 0.04344954 0.056567453 0.073977016 -0.053052038 -0.020514244 -0.0737522
0.094888106 -0.038034108 0.024633981 0.086897515 0.086985104 -0.036619287 0.04360693 0.005039476
-0.07746049 0.015710589 -0.10414092 -0.013949297 0.06664318 -0.07143584 0.035830874 -0.039621506
0.07555441 -0.00783667 -0.07064211 -0.007942676 -0.0012244086 0.05154801 -0.12520736 0.0031502023
-0.089998 -0.022743441 -0.06604781 -0.040934052 -0.08569213 0.031259708 -0.0068068146 0.061852194
-0.021429017 -0.02587535 -0.104139574 0.037469365 0.087174885 -0.04046779 -0.09164028 0.10618503
0.019318089 -0.08094261 -0.08818042 -0.08980152 -0.11884782 -0.065161794 0.12836207 -0.0061612446
-0.009954169 -0.097974814 0.0077513843 0.027905963 -0.019088367 -0.08478462 0.002594596 0.024329834
0.08208936 0.05136726 0.0072864518 0.034256134 0.039946266 0.021811435 -0.055760127 0.02432079
0.04291395 0.051082365 -0.07108505 -0.033640422 0.02659779 -0.032054763 0.048427008 -0.12202053
0.014411524 -0.03392703 0.087700345 -0.10952883 -0.09452425 0.04958733 0.052347258 -0.06349141
0.055491246 0.04635275 -0.0827906 -0.06019491 -0.0721236 -0.07656671 -0.045746114 -0.021818444
0.036043942 -0.06726491 0.038470663 -0.02295982 -0.044819884 -0.02854269 -0.075863644 0.064927615
0.03686256 0.020332523 -0.040085394 0.008191958 -0.031316385 0.052514635 -0.008883111 0.043104388
0.05413706 -0.042262793 -0.025015905 -0.007846333 -0.045977954 -0.02000399 0.008717187 -0.050422836
0.048047714 -0.00829798 0.035949975 0.07938061 -0.037766464 -0.068367906 0.041196726 -0.007570185
0.067530595 -0.048987165 0.058669545 -0.0076059327 -0.024568938 0.05754056 -0.07518369 -0.022536427
0.05164691 -0.06352476 -0.016947836 0.081417136 -0.07249952 -0.0015662909 -0.066054635 0.015046179
-0.0051864237 -0.05088386 -0.0098492205 -0.069529265 -0.0077546835 -0.08181871 -0.0586256 -0.02757132
0.057503633 -0.07979431 0.06819794 0.059579365 -0.030281171 -0.044493858 0.08699302 0.031567663
-0.0024128929 -0.08288962 0.0010806322 0.027915113 -0.0030809417 -0.0698391 -0.011734091 -0.06291385
-0.034719426 -0.057723165 -0.010111511 0.07562945 -0.034962982 0.037967466 -0.08087589 -0.0014251024
-0.035341155 0.0832073 0.007967822 0.032574236 -0.0672163 0.0750161 0.0051189065 -0.04302838
-0.00936491 -0.07229543 -0.08349278 -0.059305176 0.057694964 -0.033697415 -0.0077890456 0.026458435
0.06650568 0.087200485 0.0779713 0.033653975 0.03515446 -0.005132973 0.003328517 -0.08605608
0.047895513 -0.023186237 0.050069787 0.08815042 -0.0019606575 0.044967286 0.048138894 0.0151357725
-0.08468564 -0.059268087 -0.049404766 -0.03216343 0.0025395975 0.06605782 0.00045986474 0.021974415

network.2.bias f4 [128]
00000000: 7a9c bebd 4096 63bd a18b 353d 31a1 43bd
00000010: 638e 99bd ec53 8d3d 6554 b63a e844 8d3b
00000020: cf10 06bd 54e4 b13e 16a5 2b3c 74be 393c
00000030: f30c 0ebc 2d8d 8a3e 37ec 4ebd a8b0 733d
00000040: c128 05be 99c0 48bd 67ba e7bd 1021 8dba
00000050: 5160 f73d 2f3b f73d b9a1 d63c 3e7d dbbd
00000060: b7e7 a8bc 5a13 56bd 8930 4abd 49e0 943d
00000070: a249 fdbd da72 243d 8e8d 62bd cb19 2e3d
00000080: b044 5cbd 9826 7fbd 1b33 27be b83b 083c
00000090: df6d f9bb 18cc 24be 855c 13bd e877 e2bd
000000a0: 4ea4 78bd db8c 0dbe fb0b 17be dcb0 98bd
000000b0: d508 fdbd 5a85 4ebd 2010 dabd b9b3 21bd
000000c0: 32c6 92bd 1864 63bd ca94 a4bd f980 09be
000000d0: db55 c6bd d75d 383e 232b 9a3c d9d4 d3bc
000000e0: 2e9c 4fbd 3c86 383d 583b aabd 29a1 88bd
000000f0: a811 13bc 8f25 913e c475 023e 1938 f4bb
00000100: 1ea0 34bd 897b 6dbd a5d8 763e 4f86 c13d
00000110: d9d8 3cbe d0fe 2ebd 89fc 64bd dac2 cbbd
00000120: 4c7c 1b3d 1be4 b0bd ff40 09be 22b1 14bd
00000130: 98f5 e5bd 4ec6 a3bd 8cd7 b83b f8ab e2bd
00000140: dc39 a3bd ed93 6d3d fdc1 1fbd 6e4e 833e
00000150: 6498 833e debc 09bc 58e6 bd3c 63a3 253d
00000160: 86e9 8e3a a71b cebc 0ccd d7bc bd4d f43d
00000170: b7fd 9cbd 4254 093e bc05 6fbd 5bd3 393e
00000180: d49d cfbd 9cec 383d 2ad6 c43e 7f88 9fbd
00000190: 2336 f8bc 4673 0c3d 3a80 c8bd 5a44 8abd
000001a0: 4ca3 95bd d7b9 a2bd ecfc 673d d327 46bd
000001b0: 4e6c d3bd 687b ea3d b219 fb3c f34e 8ebd
000001c0: 39d4 f8bc fcd4 71ba ec68 84bd 5e00 2bbd
000001d0: e263 1f3e e447 443e c9cd e5bd 7e29 023e
000001e0: 2918 533e c072 dabd 2aa2 49bd 52ae 7cbc
000001f0: 5853 0dbd f3b3 343e 7bc6 fc3b a07c 49bd
-0.09307189 -0.05556321 0.044322614 -0.047761146 -0.07497861 0.069007725 0.001391065 0.004311193
-0.032730874 0.34744513 0.010476371 0.0113369115 -0.0086700795 0.27060834 -0.05051824 0.059494644
-0.13003828 -0.0490118 -0.1131485 -0.00107673 0.12078918 0.12071835 0.026200162 -0.107172474
-0.020618303 -0.05226455 -0.049362693 0.072693415 -0.1236756 0.040148593 -0.05531078 0.042505067
-0.053776443 -0.062292665 -0.16328089 0.008315019 -0.0076119746 -0.1609348 -0.035976905 -0.110580266
-0.06070357 -0.13823263 -0.14750664 -0.07455608 -0.123552 -0.050420143 -0.10647607 -0.039478038
-0.07166709 -0.05551538 -0.08036192 -0.13428105 -0.096843444 0.18004547 0.018819397 -0.02585833
-0.050686054 0.04504989 -0.083121 -0.06671364 -0.008976378 0.28348967 0.12740237 -0.0074529764
-0.044098012 -0.05797914 0.24106081 0.094494455 -0.18442096 -0.042723477 -0.0559049 -0.09949274
0.037960336 -0.08637258 -0.134037 -0.03630174 -0.11228484 -0.07996808 0.0056409296 -0.11067957
-0.0797002 0.0580024 -0.03900336 0.25645775 0.25702202 -0.008406846 0.023181126 0.04043902
0.0010903336 -0.02515967 -0.026342891 0.1192889 -0.0766558 0.13411048 -0.058355078 0.18147032
-0.10137525 0.045147523 0.38444644 -0.077897064 -0.030299252 0.03428962 -0.09790082 -0.06751318
-0.07306537 -0.079456024 0.05663769 -0.048377823 -0.10323392 0.11449319 0.0306519 -0.06948652
-0.030374633 -0.00092251576 -0.06465325 -0.041748397 0.15565446 0.19168049 -0.11220891 0.1271114
0.20614685 -0.10666418 -0.049226917 -0.015422421 -0.03450331 0.1764677 0.0077140904 -0.049191117

network.4.weight f4 [8, 128]
00000000: 13dc fe3d c06a 9dbd 7082 863a f236 f23c
00000010: bd25 16be b988 c7bd 47e8 4b3c 66f5 e3be
00000020: 4236 b0bd 2098 25be 19c8 2ebe 32b0 00bd
00000030: a561 233d ce90 05be 5b73 8b3d d9e0 86bc
00000040: ef1c 003d 8887 243c b8a7 abbd e23a b5bc
00000050: 03b7 84be c457 a3be 88ce 21bd 7bb7 19bc
00000060: 99df fc3b dce6 b3bc c5ea 323d 41eb 34bc
00000070: 47d6 7abd 21b5 23bd 07e2 55bd 9fcc 8b3b
00000080: d972 3fbe 826e 343d 3911 f7bc 29aa 51be
00000090: c389 2dbd 6dfc b8bc 402c 3d3d 9e3c 54bd
000000a0: 70cb 51bd cb3c c03d f638 3d3d 2957 07bd
000000b0: 1c92 9dbd ec44 bc3b 48d3 1bbd 06ca fa3c
000000c0: 50a2 533d d25d c1bd 4671 403b fad9 97bc
000000d0: 7aaf d53c d42f c8bd 1866 f9bd 5842 873d
000000e0: 392b 41bd a5ea 2fbd 061c 233c 65ce 003d
000000f0: daf6 4c3d 289e babd af20 b4bd 0c56 12bd
00000100: a19a 243d 70de 39bd 50f0 e4bc faf4 d6bc
00000110: 87af 48be 97a8 0bbd 3ed2 b4bd cab3 74bd
00000120: e8f4 b6bc 9807 6abd c68a c13b 8237 313b
00000130: 89aa a43b 5a6d ccbd d2a3 093b 1931 eb3d
00000140: 8253 3e3d bfb0 103d ffdb 123d 11ba 4fbd
00000150: d9a1 83be 1d67 cf3c 029b 70bc d344 54bd
00000160: 91a9 69bc a917 bc3d ba79 f9bc 57ea 1bbd
00000170: 7b01 4cbd ed11 1ebe 8698 373d 8f3d 37be
00000180: a877 bd3d 4f67 2abd 944b 22be 13ab adbc
00000190: 1917 4a3c d287 673c b5cd 3ebd 43dd 84bd
000001a0: 06a2 e43d cdfb 16bd 5b53 37be 1e94 d9bc
000001b0: 0a44 613d c77d aabd 50c2 fdbd e0a2 a7bd
000001c0: 184e 25bd 6c20 8cbd 0598 2a3d adc5 bcbc
000001d0: 633b b13b 1d23 95be bcd1 f4bd 52c5 2ebe
000001e0: b317 bbbc 7765 983d e284 4237 fbf2 be3c
000001f0: 5abf c03c d6ad 84bd 2fd4 0dbe 1dd1 56bb
00000200: 9a2c ffbc 028b 6dbd abe4 563e d881 c03c
00000210: 581a 9abd 28d6 b63d c291 183b 6097 9b3c
00000220: b1fc 9c3d cc40 9d3d f989 203d 7d3c c7bc
00000230: 4eb6 d73d 3c63 c43d b01d 0b3d e312 8a3d
00000240: ade2 c4bd 503b acbb 98e5 6abd b854 d03c
00000250: 45c1 a03d 13c0 f4bd 058a 8e3c 0b55 4fbc
00000260: 6b5e 183d daa7 633d 6135 8e3d f410 ec3d
00000270: 2251 db3c 024b b7bd c587 db3c ed81 d13d
00000280: 1ce2 2c3d 74e8 5e3d 77da 34be 9916 0cbe
00000290: 8691 143d 4ad3 273d 3d58 e7bc c26d 1a3d
000002a0: 1b46 053d d58e dc3d e76b e7bb d6da 12be
000002b0: 3aa9 0e3d 81d7 383c b75a 063d 85ca 44bc
000002c0: 8305 503d e6ba 683c 0d3c e5bd 1306 2abc
000002d0: 9e0d da3c 8b7a ba3d 1ef1 353d b0b7 ba3c
000002e0: d25f d83c 85f8 9c3d f5d5 f23c 41f7 cd3c
000002f0: 9cd0 d3bd 6b3c dd3d f3e3 60be d305 32bd
00000300: ba32 6dbd effb 573d 25e1 36be f5fb 8b3d
00000310: 0b29 b6bd b3ac 68bd b74d b4bc e48a bfba
00000320: 0c7a a63d ac3e 083d 2dbb b43d e6af 9bbd
00000330: 3857 5ebc 5576 3c3d 4888 94bc 58f1 66bd
00000340: 0e73 8e3d 5488 06be a878 24bd 0ce9 883d
00000350: 3978 333e f621 113d 9ca0 553d 7d87 7b3d
00000360: 9cba e23c 2f86 81bd 0085 873d b51d c13d
00000370: 4ca4 d3bb 4c26 b23d 0621 38bd b361 ff3d
00000380: b96a 49bd 1fa1 a33d e08d 063e aeff 043d
00000390: 61f5 5d3d 792e 6f3d 7b32 67bc 2109 3c3d
000003a0: 417f b43d deff 9ebc 719e 0a3e 0c10 b139
000003b0: 8be9 8c3c e76c 493d 49e8 903d 8217 91bc
000003c0: ac18 ce3d c999 bcbb 0c6a 2bbd 3fb1 373c
000003d0: 5ff6 843d de7c 673d 3d66 5c3c 7fc0 853d
000003e0: 46f1 d03c d0bb 523d d075 aa3d 299a 66bd
000003f0: 14b8 b13c b583 823d 18a3 793d e1fc 163d
0.124443196 -0.076863766 0.0010262262 0.029567216 -0.14662834 -0.09742875 0.012445516 -0.44523162
-0.08604099 -0.16171312 -0.17068519 -0.031418033 0.039888043 -0.1304352 0.06809112 -0.016464638
0.031277593 0.010042079 -0.08381599 -0.022122804 -0.25920877 -0.31902897 -0.039503604 -0.009382124
0.0077170846 -0.021960668 0.043680925 -0.011042417 -0.061239507 -0.03996766 -0.05221751 0.004266336
-0.18696155 0.0440507 -0.03015958 -0.20475067 -0.042367708 -0.022581303 0.04618478 -0.05181562
-0.051219404 0.09386595 0.0461969 -0.033042107 -0.07693884 0.005745521 -0.03804329 0.03061391
0.051668465 -0.09441723 0.0029364391 -0.018536557 0.02608465 -0.097747475 -0.12177676 0.06604451
-0.04716036 -0.042948384 0.009955412 0.031446833 0.050040103 -0.09112197 -0.087952964 -0.035726592
0.040186528 -0.04537815 -0.027946621 -0.02623986 -0.19598208 -0.034096327 -0.08829163 -0.059741773
-0.022333577 -0.05713615 0.0059064357 0.0027041142 0.005025212 -0.09981795 0.0021002186 0.11483974
0.046466358 0.03532481 0.035854336 -0.050714556 -0.25709417 0.025317723 -0.014685394 -0.05182345
-0.014261619 0.091842 -0.030453552 -0.03806528 -0.0498061 -0.15436526 0.044823192 -0.17894576
0.09251338 -0.04160243 -0.15849143 -0.021199739 0.0123346085 0.014131503 -0.046582896 -0.06487515
0.11163716 -0.03686123 -0.17902891 -0.026559886 0.054996528 -0.083247714 -0.12390578 -0.08185363
-0.04035768 -0.068421215 0.041648883 -0.023043478 0.005408691 -0.29128352 -0.11954066 -0.17067459
-0.02283845 0.07441228 1.159424e-05 0.023309221 0.023528744 -0.06478469 -0.13850473 -0.003277845
-0.031149197 -0.057993896 0.20985667 0.023499414 -0.07524556 0.08927566 0.0023280238 0.01899308
0.076653846 0.07678375 0.03919408 -0.024320835 0.10532819 0.0958924 0.03396386 0.067418836
-0.096135475 -0.005256094 -0.057347864 0.025431022 0.07849363 -0.11950698 0.017399797 -0.012654553
0.03719942 0.055579998 0.06943775 0.11526671 0.026772086 -0.089498535 0.026798138 0.102298595
0.042207822 0.054420903 -0.17661463 -0.13680495 0.036271594 0.040972985 -0.028240317 0.03770233
0.03253756 0.107694305 -0.0070624235 -0.14341292 0.034829356 0.011281849 0.032801356 -0.012011175
0.050786506 0.014204716 -0.111930944 -0.010377425 0.026617821 0.091054045 0.0444194 0.022792667
0.026412878 0.07664589 0.029643038 0.025142314 -0.103425235 0.108025394 -0.21961956 -0.043462586
-0.057909705 0.052730497 -0.17859323 0.06835166 -0.08894547 -0.056805324 -0.022009714 -0.0014613536
0.08128747 0.033262894 0.088247634 -0.07601909 -0.013570599 0.046011288 -0.01813139 -0.056382507
0.06955539 -0.13137943 -0.04015413 0.06685075 0.1752633 0.03543278 0.052155122 0.06140851
0.027676873 -0.063244216 0.066171646 0.09429494 -0.0064587947 0.08698711 -0.04495337 0.124698065
-0.049174044 0.07989716 0.13140059 0.032470398 0.05418909 0.05839393 -0.014111157 0.045907144
0.08813334 -0.019409116 0.13537003 0.00033772027 0.017201206 0.049176123 0.07075555 -0.017711405
0.100632995 -0.0057556373 -0.04184918 0.011211692 0.06492304 0.056515567 0.01345211 0.06530856
0.025505673 0.051448643 0.08323252 -0.056299362 0.02169422 0.063727774 0.060946554 0.036862258

network.4.bias f4 [8]
00000000: 3628 32be 660f 983d c239 b93d ec1f 3bbd
00000010: 5ad6 1abd ada4 92be 8122 dd3d cb97 d2be
-0.17398152 0.07424812 0.090442196 -0.04568474 -0.037802078 -0.28641263 0.10797597 -0.41131434

exp_avg f4 [128, 26]
00000000: b6b5 8112 a4a4 9c12 45e7 f212 2015 c912
00000010: 3fb5 7412 95f9 f212 cae5 b212 6e0b c613
00000020: cbc5 9f12 1e09 ca12 fb8f 6213 1aea 2f13
00000030: ee93 a112 de02 a813 e130 5613 0d04 9013
00000040: 5032 e413 0230 b613 6aa1 c913 02c5 9b13
00000050: 9085 cc13 a097 4813 4c6e 2913 a27f 9512
00000060: 455e 6313 f636 5c13 80f4 f605 9660 1483
00000070: 930e da22 8ec1 5f05 4d6f 8385 8305 a206
00000080: a413 af06 64ca 3125 3ea8 1a06 72c6 3d06
00000090: ee48 1024 801b 5824 5e14 c106 1cb0 0a25
000000a0: 1d80 1e24 62cf bc24 cccb de24 dee5 6525
000000b0: 39c0 6d24 98cd 1a25 6451 6f24 a77f 6424
000000c0: 87cc 3624 0d55 9823 0d55 9824 5819 8924
000000d0: 0000 0000 0000 0000 7b03 9e34 0000 0000
000000e0: ed2c d803 8ac3 0c84 33a3 a085 5962 b635
000000f0: 7667 f783 42dc f004 d9bf a136 edf9 b136
00000100: 0000 0000 b32a 7936 bc2d 2036 5e55 c735
00000110: 0fce ed35 5092 d536 9748 d935 d8e1 8a36
00000120: 5092 d536 edf9 3136 edf9 3136 d3bc fa35
00000130: edf9 3136 edf9 3136 0000 0000 0000 0000
00000140: 0000 0000 0000 0000 0000 0000 0000 0000
00000150: 0000 0000 0000 0000 0000 0000 0000 0000
00000160: 0000 0000 0000 0000 0000 0000 0000 0000
00000170: 0000 0000 0000 0000 0000 0000 0000 0000
00000180: 0000 0000 0000 0000 0000 0000 0000 0000
00000190: 0000 0000 0000 0000 0000 0000 0000 0000
000001a0: f4c6 bd23 bced 1b24 84b9 f525 fe78 0022
000001b0: 9e34 0322 a046 2225 e131 9025 8c4f ad27
000001c0: 5182 c823 b0c3 2724 738e a427 7cd8 3527
000001d0: eadb b7a1 1c34 b427 1bef eb27 8896 0927
000001e0: 7a21 0728 5fa8 a827 9671 d127 b59a e427
000001f0: 9e75 bf27 74c2 6227 66c2 4b27 0c7b b426
00000200: b0f6 7f27 b543 7727 619c 1783 b00e 0183
00000210: a9d4 3606 4788 1983 1a7d 1b03 a5ab 7183
00000220: 10be 8404 7d67 db06 160f c783 dbcb 7302
00000230: e604 cc06 e138 9607 117e 6e84 1c31 a307
00000240: 7363 e907 11de ca06 0420 1208 718b 4507
00000250: 1c29 3507 844d b807 57ce f307 a4eb 3f07
00000260: 6164 2007 a428 7e06 7469 6707 1bcb 5c07
00000270: 981a 5d09 0fa3 760a 8eec ef0a c0a6 390a
00000280: a0a9 a588 141a 5d0b 6269 c10b a864 a70c
00000290: 465b 520b d0d6 570b f46e 820c cc3e 890c
000002a0: ffbc 288a 841e ba0c daa3 950c a8cd 840c
000002b0: 2008 ce0c ea3c b00c 2c61 c40c 414f c60c
000002c0: 04ad 0f0d 208d 6b0c 4648 570c 44e1 c00b
000002d0: 9a82 770c 487a 740c 0000 0000 0000 0000
000002e0: 0000 0000 0000 0000 0000 0000 0000 0000
000002f0: 0000 0000 0000 0000 0000 0000 0000 0000
00000300: 0000 0000 0000 0000 0000 0000 0000 0000
00000310: 0000 0000 0000 0000 0000 0000 0000 0000
00000320: 0000 0000 0000 0000 0000 0000 0000 0000
00000330: 0000 0000 0000 0000 0000 0000 0000 0000
00000340: 0000 0000 0000 0000 0000 0000 0000 0000
00000350: 0000 0000 0000 0000 0000 0000 0000 0000
00000360: 0000 0000 0000 0000 0000 0000 0000 0000
00000370: 0000 0000 0000 0000 0000 0000 0000 0000
00000380: 0000 0000 0000 0000 0000 0000 0000 0000
00000390: 0000 0000 0000 0000 0000 0000 0000 0000
000003a0: 0000 0000 0000 0000 d7cf 10bd f1fd 01bd
000003b0: 2328 d7bc c9fe c8bc 0c5a 1dbd e073 003a
000003c0: af6f 073d 00b4 b73d 90f3 b2ba bc45 e23b
000003d0: 69c2 653d 1c86 103d 62d9 fcbc cee8 9b3d
000003e0: 7343 653d 73a0 673c 7091 983d f44e df3d
000003f0: adcf c03d a9fb 5f3d 4787 883d e817 403d
8.18584e-28 9.885571e-28 1.5329359e-27 1.2690091e-27 7.7216227e-28 1.5333874e-27 1.1290027e-27 4.9993497e-27
1.008307e-27 1.275024e-27 2.8596198e-27 2.2203526e-27 1.0196996e-27 4.241199e-27 2.7034697e-27 3.6354705e-27
5.7604904e-27 4.59906e-27 5.08987e-27 3.9321766e-27 5.1628543e-27 2.5318306e-27 2.138518e-27 9.434686e-28
2.8697907e-27 2.7795002e-27 2.3223544e-35 -4.3604166e-37 5.910445e-18 1.052096e-35 -1.2360066e-35 6.0945726e-35
6.5856543e-35 1.5420875e-16 2.9087786e-35 3.5692744e-35 3.1286796e-17 4.6860827e-17 7.262846e-35 1.202926e-16
3.4369305e-17 8.1883324e-17 9.66224e-17 1.9940466e-16 5.1554002e-17 1.3427029e-16 5.1893804e-17 4.9547745e-17
3.96382e-17 1.6515893e-17 6.6063574e-17 5.945721e-17 0.0 0.0 2.9432326e-07 0.0
1.2705653e-36 -1.6546708e-36 -1.5106278e-35 1.358868e-06 -1.4541109e-36 5.6626004e-36 4.820508e-06 5.3041063e-06
0.0 3.7128746e-06 2.3868479e-06 1.48515e-06 1.7717847e-06 6.3649277e-06 1.6188886e-06 4.139012e-06
6.3649277e-06 2.6520531e-06 2.6520531e-06 1.8681407e-06 2.6520531e-06 2.6520531e-06 0.0 0.0
0.0 0.0 0.0 0.0 0.0 0.0 0.0 0.0
0.0 0.0 0.0 0.0 0.0 0.0 0.0 0.0
0.0 0.0 0.0 0.0 0.0 0.0 0.0 0.0
2.0575681e-17 3.3811636e-17 4.2626435e-16 1.7411287e-18 1.7781666e-18 1.4075189e-16 2.5013817e-16 4.810339e-15
2.1739235e-17 3.6378106e-17 4.5673588e-15 2.5236152e-15 -1.2458773e-18 5.0016533e-15 6.548484e-15 1.9094172e-15
7.5012645e-15 4.6811915e-15 5.8132303e-15 6.3450446e-15 5.314067e-15 3.1469214e-15 2.8277293e-15 1.2523361e-15
3.5522088e-15 3.431484e-15 -4.4554426e-37 -3.7926553e-37 3.4386634e-35 -4.5119098e-37 4.5694016e-37 -7.1020573e-37
3.1207596e-36 8.2530706e-35 -1.1699632e-36 1.7911324e-37 7.674347e-35 2.2602922e-34 -2.8034652e-36 2.4554378e-34
3.5116395e-34 7.631025e-35 4.397291e-34 1.4861611e-34 1.3629008e-34 2.7730803e-34 3.6683852e-34 1.4438492e-34
1.2066561e-34 4.7801948e-35 1.7409498e-34 1.6610648e-34 2.6614412e-33 1.1875137e-32 2.3103845e-32 8.938788e-33
-9.970455e-34 4.258267e-32 7.449946e-32 2.5791004e-31 4.0513195e-32 4.15691e-32 2.009645e-31 2.1145987e-31
-8.124452e-33 2.8676203e-31 2.30557e-31 2.0461595e-31 3.1744216e-31 2.7153755e-31 3.0257065e-31 3.055443e-31
4.4273537e-31 1.814621e-31 1.6584747e-31 7.429465e-32 1.9067489e-31 1.8833874e-31 0.0 0.0
0.0 0.0 0.0 0.0 0.0 0.0 0.0 0.0
0.0 0.0 0.0 0.0 0.0 0.0 0.0 0.0
0.0 0.0 0.0 0.0 0.0 0.0 0.0 0.0
0.0 0.0 0.0 0.0 0.0 0.0 0.0 0.0
0.0 0.0 0.0 0.0 0.0 0.0 0.0 0.0
0.0 0.0 0.0 0.0 0.0 0.0 0.0 0.0
0.0 0.0 -0.03535446 -0.031736318 -0.026264256 -0.024535554 -0.038415954 0.0004900079
0.033065494 0.08969879 -0.001365291 0.0069052856 0.056093607 0.035284147 -0.030865375 0.07612763
0.055972528 0.014137375 0.07449615 0.10903731 0.09414611 0.05468336 0.06666427 0.0468978

exp_avg_sq f4 [128, 26]
00000000: 0aa9 9939 a7b6 9f39 d0eb bc39 43e7 db39
00000010: ba49 e339 fb81 853a e026 8e3a eef4 193b
00000020: 9428 6f3a 889f 803a 02fc aa3a 9949 953a
00000030: d316 d939 7ec6 003b f717 e53a a61f ba3a
00000040: 5826 283b 487f 173b 9f2a 2a3b 292c 0b3b
00000050: f0a6 4a3b d95e 643a 53aa 343a a542 0f39
00000060: dc6d 7e3a 96b4 773a 3a7c 8235 cff9 f133
00000070: 334a 7035 1b7d c734 0c37 7334 341a 1236
00000080: a9a2 0a36 1017 b036 dec4 8435 547d 6d35
00000090: 2031 3237 4d34 f236 0414 1d36 f8a4 8237
000000a0: 1374 7f37 0e6c c036 f6ea 0338 a3eb 9537
000000b0: 03d7 6837 6421 cb37 377b 6737 7621 e336
000000c0: 7d5b c436 cd8d 8b35 99b6 0437 191f 0137
000000d0: 0000 0000 0000 0000 de1c e932 0000 0000
000000e0: 4375 2630 9dff 3f31 94ba cf30 9932 2e36
000000f0: f1d3 da2d bf8b a732 c470 3d37 739a 7b36
00000100: 0000 0000 ca56 0137 f1ca 1737 ea09 2f36
00000110: 5045 0337 a13d 5b37 9e6b f336 d6a5 9437
00000120: 97f1 ab37 1cff 8336 fbaa 8336 dae6 5335
00000130: 7cfa 8336 7cfa 8336 0000 0000 0000 0000
00000140: 0000 0000 0000 0000 0000 0000 0000 0000
00000150: 0000 0000 0000 0000 0000 0000 0000 0000
00000160: 0000 0000 0000 0000 0000 0000 0000 0000
00000170: 0000 0000 0000 0000 0000 0000 0000 0000
00000180: 0000 0000 0000 0000 0000 0000 0000 0000
00000190: 0000 0000 0000 0000 0000 0000 0000 0000
000001a0: 294b 963a f50c e93a 6043 c83a 8695 053b
000001b0: bb06 c13a 5db1 b83b e1c3 a93b 6ea7 343c
000001c0: 1896 b73b e907 b13b bcb6 af3b ace8 af3b
000001d0: b02c 033b 382b 0e3c 893a 313c a355 b33b
000001e0: 2199 3c3c 089a 2a3c 79de 373c 7091 2e3c
000001f0: bd5f 373c 92ef 7d3b c92a 4a3b 5a51 1c3a
00000200: 5328 8f3b 37b4 8c3b 25c0 a32e d64f 6d2e
00000210: 96c7 5934 95ed a72e ff3b ac2e 8d62 cd31
00000220: 592b 2132 19af 7f35 10f7 f731 357c 8a31
00000230: 13dd e935 6697 4337 dc99 4a31 b842 3937
00000240: 1495 af37 8248 cc35 7b22 1038 8f8a 7d36
00000250: 87bf 9636 f178 7537 793e dc37 f889 7c36
00000260: 191f 3536 d6a4 0735 2d09 ba36 5415 a836
00000270: 66d8 d237 c242 8037 59d8 e737 64d8 ce37
00000280: 155f e537 2f7b f238 01cc f438 be5b ce39
00000290: 4172 e238 2cea d838 5338 b939 cc44 b939
000002a0: 8cdf df37 681b ea39 0ca5 bb39 07fd b439
000002b0: 4e9a 443a fdeb fc39 9925 1f3a 952b 173a
000002c0: 60a8 383a fc90 5b39 277c 3d39 48e8 1e38
000002d0: 478a 6a39 0b0c 6839 0000 0000 0000 0000
000002e0: 0000 0000 0000 0000 0000 0000 0000 0000
000002f0: 0000 0000 0000 0000 0000 0000 0000 0000
00000300: 0000 0000 0000 0000 0000 0000 0000 0000
00000310: 0000 0000 0000 0000 0000 0000 0000 0000
00000320: 0000 0000 0000 0000 0000 0000 0000 0000
00000330: 0000 0000 0000 0000 0000 0000 0000 0000
00000340: 0000 0000 0000 0000 0000 0000 0000 0000
00000350: 0000 0000 0000 0000 0000 0000 0000 0000
00000360: 0000 0000 0000 0000 0000 0000 0000 0000
00000370: 0000 0000 0000 0000 0000 0000 0000 0000
00000380: 0000 0000 0000 0000 0000 0000 0000 0000
00000390: 0000 0000 0000 0000 0000 0000 0000 0000
000003a0: 0000 0000 0000 0000 b88b 9a3b 78ac 963b
000003b0: a02d 983b 5c61 993b 2867 ac3b f60a a63c
000003c0: 2679 c03c 658e 703d 8150 b33c a570 a83c
000003d0: 80e9 073d 56b8 0b3d 25b2 303c 4f18 533d
000003e0: 78cc 833d 4b1d 1b3d 8325 693d 4785 933d
000003f0: 1683 823d facc 823d b3fb 823d 1033 c33c
0.00029308378 0.0003046293 0.00036033848 0.00041943238 0.00043351745 0.0010185832 0.0010845326 0.0023491937
0.0009123173 0.0009813169 0.0013045075 0.0011389732 0.0004140647 0.001964956 0.0017478456 0.0014200106
0.002565762 0.0023116637 0.0025965346 0.0021236038 0.0030922256 0.0008711643 0.00068918354 0.0001366237
0.00097057014 0.00094492116 9.72191e-07 1.1267877e-07 8.951494e-07 3.7157665e-07 2.2651164e-07 2.1770948e-06
2.0658283e-06 5.2478936e-06 9.892062e-07 8.8471756e-07 1.0621065e-05 7.2182506e-06 2.3406474e-06 1.5574027e-05
1.522621e-05 5.734625e-06 3.145166e-05 1.7871911e-05 1.3878339e-05 2.4215035e-05 1.3797361e-05 6.7690225e-06
5.851906e-06 1.0397576e-06 7.910327e-06 7.69624e-06 0.0 0.0 2.7137897e-08 0.0
6.0557087e-10 2.7939457e-09 1.5114261e-09 2.5957472e-06 2.4877852e-11 1.9504908e-08 1.1291533e-05 3.7491816e-06
0.0 7.709206e-06 9.047552e-06 2.6082803e-06 7.8243465e-06 1.3067766e-05 7.2544926e-06 1.7720198e-05
2.0497288e-05 3.933803e-06 3.924009e-06 7.893956e-07 3.9332645e-06 3.9332645e-06 0.0 0.0
0.0 0.0 0.0 0.0 0.0 0.0 0.0 0.0
0.0 0.0 0.0 0.0 0.0 0.0 0.0 0.0
0.0 0.0 0.0 0.0 0.0 0.0 0.0 0.0
0.0011466491 0.0017780351 0.0015278868 0.0020383312 0.0014726737 0.0056363777 0.0051808213 0.0110262465
0.0056026094 0.0054025543 0.00536236 0.005368313 0.002001565 0.008677296 0.0108171785 0.005472855
0.011511118 0.0104127005 0.011222475 0.010654792 0.011192259 0.0038747531 0.0030848256 0.000596305
0.0043688207 0.004293944 7.4465135e-11 5.395847e-11 2.0282309e-07 7.636484e-11 7.832312e-11 5.977489e-09
9.3812895e-09 9.5249703e-07 7.216734e-09 4.0304493e-09 1.7424194e-06 1.1658156e-05 2.9482328e-09 1.1042393e-05
2.0931046e-05 1.5220287e-06 3.4364388e-05 3.778059e-06 4.492645e-06 1.4631297e-05 2.6255135e-05 3.7631235e-06
2.6989203e-06 5.0531287e-07 5.5443e-06 5.009273e-06 2.513472e-05 1.5289876e-05 2.763809e-05 2.4657878e-05
2.7343203e-05 0.00011562404 0.00011672825 0.00039359735 0.00010797801 0.000103433005 0.00035327915 0.00035337207
2.6687769e-05 0.00044652377 0.0003579039 0.00034520795 0.00074998 0.0004824101 0.0006070971 0.0005766687
0.0007044133 0.00020939478 0.00018070695 3.7886464e-05 0.00022367491 0.0002212973 0.0 0.0
0.0 0.0 0.0 0.0 0.0 0.0 0.0 0.0
0.0 0.0 0.0 0.0 0.0 0.0 0.0 0.0
0.0 0.0 0.0 0.0 0.0 0.0 0.0 0.0
0.0 0.0 0.0 0.0 0.0 0.0 0.0 0.0
0.0 0.0 0.0 0.0 0.0 0.0 0.0 0.0
0.0 0.0 0.0 0.0 0.0 0.0 0.0 0.0
0.0 0.0 0.004716363 0.0045981966 0.004644111 0.0046807956 0.0052613206 0.020268898
0.023495268 0.058729548 0.021888973 0.020561526 0.033181667 0.034111343 0.0107846605 0.051536854
0.06435484 0.037869733 0.05692054 0.07203155 0.06372659 0.063867524 0.06395664 0.02382806

exp_avg f4 [128]
00000000: 1c04 f013 2920 4625 edf9 b136 0000 0000
00000010: 7db7 0028 8821 e907 3df1 040d 0000 0000
00000020: 0000 0000 44ba de3d 2f6d 550c 8bf4 1924
00000030: 5b9d 6009 0000 0000 873b 68be 6845 3f0f
00000040: a6b1 16bb 66ca b6ba c28d ea08 0000 0000
00000050: 36f9 bb26 7e7e ddbb 37a8 be0c 087b e737
00000060: daae a037 92a8 63bd 0000 0000 0000 0000
00000070: 116b 9d0c 67c5 9d12 7c79 42b8 3672 273b
00000080: e295 6326 d358 4b0b c8e1 ad08 7a8e 243b
00000090: 24b8 eb28 e0db b826 f434 a30c d6f1 0c3d
000000a0: bc46 1408 be9a 2626 a85e a238 aba1 5922
000000b0: 83ab 5109 eddd b207 7aca f825 baed 4127
000000c0: 90a3 ddba c6ce 00bd 44bd a4bd 4cc6 6d08
000000d0: 7be2 0907 430f 9b39 e139 300d d292 a409
000000e0: cd9e ae2e 7042 833d f0a7 2426 05c0 d70b
000000f0: 73d6 b71a 57f1 6106 ea31 1a16 c608 0fbe
00000100: e3df 620d 1738 8309 330d be06 3719 5226
00000110: 7e7a 54bd 0000 0000 0f45 063a 935c a40c
00000120: 9d73 8c38 0000 0000 131d 83be 0000 0000
00000130: ae70 b90c 8e6c 96ba 5068 b43b 9ddb 5f1b
00000140: 97d8 3d0c 60e5 07bc 4cdd 74bd daf6 1b0d
00000150: 0000 0000 3ba7 eb08 bef5 01be e7fb 291b
00000160: 4faa b107 930d 4e34 6fe4 462b 6bf8 af3b
00000170: b068 123b 0000 0000 12df aeb9 063a 2621
00000180: 0b06 3c07 c794 941b 9266 780d 8eaf 4107
00000190: 63f4 3b25 a092 b907 84f3 6bbe 5243 5a29
000001a0: 9ba2 dc05 d855 be06 0000 0000 15c7 e025
000001b0: 1268 ec06 3950 8bbc 277d e638 e9fc 7826
000001c0: 0000 0000 027c dc1e 1bf4 ec0a 07f4 0aba
000001d0: 4570 402f 0000 0000 cab0 4c07 d8cd a4bc
000001e0: 8ac0 4220 d492 7507 e0d4 a507 037c d83b
000001f0: 5df2 a6b3 121c 4f06 30e9 d11f 367a 643c
6.058857e-27 1.7184659e-16 5.3041063e-06 0.0 7.145215e-15 3.5077651e-34 4.096602e-31 0.0
0.0 0.10875371 1.6441779e-31 3.3383722e-17 2.7037007e-33 0.0 -0.22678958 9.430394e-30
-0.002299407 -0.0013945817 1.411669e-33 0.0 1.304328e-15 -0.006759464 2.9375376e-31 2.7594637e-05
1.9154908e-05 -0.055580683 0.0 0.0 2.4254118e-31 9.956756e-28 -4.6366345e-05 0.0025550253
7.8959575e-16 3.9163202e-32 1.046514e-33 0.0025109337 2.61701e-14 1.2827162e-15 2.5145996e-31 0.03441032
4.462028e-34 5.7802534e-16 7.742393e-05 2.949457e-18 2.5238104e-33 2.69129e-34 4.3158346e-16 2.6913002e-15
-0.0016909707 -0.031447195 -0.08043912 7.155269e-34 1.0373291e-34 0.00029575275 5.4303856e-31 3.9619633e-33
7.9408126e-11 0.06409156 5.712653e-16 8.3103906e-32 7.603349e-23 4.2495105e-35 1.2455771e-25 -0.1396819
6.991112e-31 3.158985e-33 7.148945e-35 7.289256e-16 -0.05187463 0.0 0.0005121985 2.5323917e-31
6.697255e-05 0.0 -0.2560812 0.0 2.857158e-31 -0.0011476444 0.005505599 1.8517089e-22
1.4625208e-31 -0.008294433 -0.059781358 4.80602e-31 0.0 1.4182864e-33 -0.126914 1.4060746e-22
2.6732098e-34 1.9190183e-07 7.0660746e-13 0.00537019 0.002234023 0.0 -0.00033354067 5.631978e-19
1.4145324e-34 2.458069e-22 7.6544365e-31 1.4571297e-34 1.6302466e-16 2.7921885e-34 -0.23042113 4.8464115e-14
2.0748432e-35 7.159619e-35 0.0 3.899271e-16 8.892625e-35 -0.017006027 0.00010990566 8.638504e-16
0.0 2.3344694e-20 2.2817796e-32 -0.0005300645 1.7502184e-10 0.0 1.5399208e-34 -0.020117685
1.6496145e-19 1.84749e-34 2.4951557e-34 0.00660658 -7.774063e-08 3.8952996e-35 8.890072e-20 0.013945153

exp_avg_sq f4 [128]
00000000: 4667 833b 834f 0538 7cfa 8337 0000 0000
00000010: f711 913c a70a bd37 6ee2 6e3a 0000 0000
00000020: 0000 0000 2867 d73d 87f8 1d3a 564d 5639
00000030: 1cf1 e037 0000 0000 5566 533e da49 bb30
00000040: 175f eb3c 19fd 013d 5399 a438 0000 0000
00000050: dd25 3238 4ca8 bb3a 48f5 d136 d74b 763b
00000060: 0d83 d637 32e8 293d 0000 0000 0000 0000
00000070: c208 2c3a e877 af39 5018 773d 69bb 253b
00000080: 828d 323d 9120 b239 a825 bc38 318e 543d
00000090: f012 443c a123 0338 9565 013a 43a7 9d3d
000000a0: 367e e437 b3df 893d c5c6 fa3c ec7c 3c3b
000000b0: bf06 2f39 90b3 9335 f0a1 ac3c dd48 d139
000000c0: 8801 993a edf8 c53d 3d92 973d b44e 0537
000000d0: 65d7 ba35 70ad a539 11d8 9a3a bdb7 c535
000000e0: 30f6 4136 3531 6e3e ea35 6a3d 5a11 8e38
000000f0: 90b4 c339 9c9d a432 a3c1 173a 26c5 f33e
00000100: 1438 e63a b7aa 2239 0f2b 9b36 9d8a 033e
00000110: 09c3 6e3e 0000 0000 869a e73b a198 6a3a
00000120: 6e5d 703c 0000 0000 44cf 353e 0000 0000
00000130: ebd3 543a bcf2 b038 e24c 1d3e 93cd 7639
00000140: 2e9d 8a3a 7f21 563d 65b0 7d3e d56b 103b
00000150: 0000 0000 ddf9 9838 60bf 0c3f 5765 8a3b
00000160: 83ae 9b36 a263 0a38 3ad8 8d3a d2a9 9c3c
00000170: 70d6 fc3c 0000 0000 8975 703b d1f8 963c
00000180: 3216 9436 0885 9b3c 535d 1d38 aaaa db36
00000190: b999 2b3c a8e1 1a38 2e2b 7d3e 5e1f 213a
000001a0: b765 2d34 ea36 3b35 0000 0000 2083 613d
000001b0: 94f1 9d35 7197 253d a334 8a3a 4cbe 493d
000001c0: 0000 0000 671f e838 e045 9439 d591 2a3b
000001d0: a8e2 953c 0000 0000 1540 1737 375d 193e
000001e0: dc86 2a38 642d a836 b368 2c37 27b2 f13c
000001f0: 6574 a739 b370 3c35 7d26 e13a c7f1 4f3d
0.004010114 3.1783722e-05 1.5733058e-05 0.0 0.017708762 2.2535516e-05 0.000911272 0.0
0.0 0.10517722 0.0006026108 0.0002043744 2.6815156e-05 0.0 0.20644505 1.3627031e-09
0.028731866 0.031735513 7.848688e-05 0.0 4.247377e-05 0.0014317124 6.25724e-06 0.0037581825
2.5571813e-05 0.041481204 0.0 0.0 0.00065625843 0.00033467938 0.06032592 0.0025288707
0.043591984 0.0003397507 8.9715526e-05 0.051893417 0.011967406 3.1266016e-05 0.00049360964 0.07697918
2.723849e-05 0.0673212 0.030612359 0.0028760983 0.00016691814 1.1004613e-06 0.021073312 0.00039917874
0.001167343 0.096666194 0.074009396 7.945742e-06 1.3920768e-06 0.00031600473 0.001181366 1.4731119e-06
2.890254e-06 0.23260958 0.057180323 6.7743196e-05 0.00037327828 1.9163785e-08 0.0005789047 0.4761135
0.001756432 0.0001551312 4.6243727e-06 0.12845846 0.23316588 0.0 0.007067981 0.0008949135
0.014670713 0.0 0.17754847 0.0 0.00081187364 8.437547e-05 0.1536136 0.0002353697
0.0010575408 0.052278038 0.2477432 0.002203693 0.0 7.2944655e-05 0.54979515 0.0042235064
4.639676e-06 3.2994554e-05 0.0010821887 0.019123945 0.03086397 0.0 0.003669115 0.018429192
4.4133276e-06 0.018984333 3.7518632e-05 6.5465765e-06 0.010473662 3.692662e-05 0.24723503 0.00061463367
1.6148884e-07 6.974284e-07 0.0 0.05505669 1.176772e-06 0.04042763 0.0010544251 0.049253747
0.0 0.00011068471 0.0002828082 0.0026026864 0.018296555 0.0 9.015222e-06 0.14976965
4.0656756e-05 5.0120743e-06 1.0276376e-05 0.029503895 0.00031939443 7.0199457e-07 0.0017177608 0.050767686

exp_avg f4 [128, 128]
00000000: 68f4 028f 0000 0000 0000 0000 0000 0000
00000010: c447 4b10 0000 0000 0000 0000 0000 0000
00000020: 0000 0000 43a0 7b8a 0000 0000 0000 0000
00000030: 0000 0000 0000 0000 0e14 0b11 0000 0000
00000040: 654a 0511 9621 6e0e 0000 0000 0000 0000
00000050: 0000 0000 5f58 6107 0000 0000 0acb 688d
00000060: 0000 0000 ce68 f610 0000 0000 0000 0000
00000070: 0000 0000 0000 0000 3f3c 170f a674 8c0e
00000080: 2c02 860d 0000 0000 0000 0000 479d 0e11
00000090: c6f8 2310 0000 0000 0000 0000 aa58 d010
000000a0: 0000 0000 7b1a e410 ccd0 ca10 32db 048c
000000b0: 0000 0000 0000 0000 6586 170f 0000 0000
000000c0: 1838 8a89 00ce e810 0000 0000 0000 0000
000000d0: 0000 0000 0000 0000 0000 0000 0000 0000
000000e0: 0000 0000 ed52 1d11 222c ae10 0000 0000
000000f0: c424 a68c 0000 0000 25df 8e8a 7e69 e610
00000100: 0000 0000 0000 0000 0000 0000 5632 0711
00000110: 92a4 d410 0000 0000 302d 0b10 0000 0000
00000120: fb11 4b10 0000 0000 325a f110 0000 0000
00000130: 0000 0000 0000 0000 74da 4911 c0cf 0689
00000140: 0000 0000 ba55 f610 2091 5a11 0000 0000
00000150: 0000 0000 0000 0000 3fab fd10 fe89 8f86
00000160: 0000 0000 0000 0000 0000 0000 acbe 8410
00000170: d216 c910 0000 0000 5e6f b38d f59a d110
00000180: 0000 0000 da4d c110 14e5 210c 0000 0000
00000190: ff16 9e8d 0000 0000 fe04 2b11 0000 0000
000001a0: 0000 0000 0000 0000 0000 0000 f494 f810
000001b0: 0000 0000 962e a910 3f90 d509 5492 6c10
000001c0: 0000 0000 0000 0000 0000 0000 0000 0000
000001d0: bd50 240d 0000 0000 0000 0000 8daf 9910
000001e0: 0000 0000 0000 0000 0000 0000 dccf aa10
000001f0: b603 980c 0000 0000 239b 010a afe2 1a0c
00000200: 0000 0000 0000 0000 0000 0000 0000 0000
00000210: 0000 0000 0000 0000 0000 0000 0000 0000
00000220: 0000 0000 0000 0000 0000 0000 0000 0000
00000230: 0000 0000 0000 0000 0000 0000 0000 0000
00000240: 0000 0000 0000 0000 0000 0000 0000 0000
00000250: 0000 0000 0000 0000 0000 0000 0000 0000
00000260: 0000 0000 0000 0000 0000 0000 0000 0000
00000270: 0000 0000 0000 0000 0000 0000 0000 0000
00000280: 0000 0000 0000 0000 0000 0000 0000 0000
00000290: 0000 0000 0000 0000 0000 0000 0000 0000
000002a0: 0000 0000 0000 0000 0000 0000 0000 0000
000002b0: 0000 0000 0000 0000 0000 0000 0000 0000
000002c0: 0000 0000 0000 0000 0000 0000 0000 0000
000002d0: 0000 0000 0000 0000 0000 0000 0000 0000
000002e0: 0000 0000 0000 0000 0000 0000 0000 0000
000002f0: 0000 0000 0000 0000 0000 0000 0000 0000
00000300: 0000 0000 0000 0000 0000 0000 0000 0000
00000310: 0000 0000 0000 0000 0000 0000 0000 0000
00000320: 0000 0000 0000 0000 0000 0000 0000 0000
00000330: 0000 0000 0000 0000 0000 0000 0000 0000
00000340: 0000 0000 0000 0000 0000 0000 0000 0000
00000350: 0000 0000 0000 0000 0000 0000 0000 0000
00000360: 0000 0000 0000 0000 0000 0000 0000 0000
00000370: 0000 0000 0000 0000 0000 0000 0000 0000
00000380: 0000 0000 0000 0000 0000 0000 0000 0000
00000390: 0000 0000 0000 0000 0000 0000 0000 0000
000003a0: 0000 0000 0000 0000 0000 0000 0000 0000
000003b0: 0000 0000 0000 0000 0000 0000 0000 0000
000003c0: 0000 0000 0000 0000 0000 0000 0000 0000
000003d0: 0000 0000 0000 0000 0000 0000 0000 0000
000003e0: 0000 0000 0000 0000 0000 0000 0000 0000
000003f0: 0000 0000 0000 0000 0000 0000 0000 0000
-6.456566e-30 0.0 0.0 0.0 4.0089977e-29 0.0 0.0 0.0
0.0 -1.2115352e-32 0.0 0.0 0.0 0.0 1.0971346e-28 0.0
1.0514775e-28 2.9351936e-30 0.0 0.0 0.0 1.6953089e-34 0.0 -7.173492e-31
0.0 9.719137e-29 0.0 0.0 0.0 0.0 7.456478e-30 3.4624993e-30
8.25891e-31 0.0 0.0 1.125029e-28 3.233773e-29 0.0 0.0 8.217814e-29
0.0 8.997094e-29 7.9996654e-29 -1.0234872e-31 0.0 0.0 7.470758e-30 0.0
-3.3275042e-33 9.182526e-29 0.0 0.0 0.0 0.0 0.0 0.0
0.0 1.241067e-28 6.8698896e-29 0.0 -2.5598477e-31 0.0 -1.375804e-32 9.088154e-29
0.0 0.0 0.0 1.0665133e-28 8.3872817e-29 0.0 2.7447728e-29 0.0
4.0048543e-29 0.0 9.5196707e-29 0.0 0.0 0.0 1.592342e-28 -1.6227347e-33
0.0 9.7161974e-29 1.7241888e-28 0.0 0.0 0.0 1.0005475e-28 -5.399338e-35
0.0 0.0 0.0 5.2358596e-29 7.931568e-29 0.0 -1.1058537e-30 8.2674714e-29
0.0 7.6245027e-29 1.2471925e-31 0.0 -9.743038e-31 0.0 1.349106e-28 0.0
0.0 0.0 0.0 9.804825e-29 0.0 6.6730523e-29 5.1413533e-33 4.665552e-29
0.0 0.0 0.0 0.0 5.0633587e-31 0.0 0.0 6.061834e-29
0.0 0.0 0.0 6.7373435e-29 2.3421542e-31 0.0 6.240302e-33 1.1931944e-31
0.0 0.0 0.0 0.0 0.0 0.0 0.0 0.0
0.0 0.0 0.0 0.0 0.0 0.0 0.0 0.0
0.0 0.0 0.0 0.0 0.0 0.0 0.0 0.0
0.0 0.0 0.0 0.0 0.0 0.0 0.0 0.0
0.0 0.0 0.0 0.0 0.0 0.0 0.0 0.0
0.0 0.0 0.0 0.0 0.0 0.0 0.0 0.0
0.0 0.0 0.0 0.0 0.0 0.0 0.0 0.0
0.0 0.0 0.0 0.0 0.0 0.0 0.0 0.0
0.0 0.0 0.0 0.0 0.0 0.0 0.0 0.0
0.0 0.0 0.0 0.0 0.0 0.0 0.0 0.0
0.0 0.0 0.0 0.0 0.0 0.0 0.0 0.0
0.0 0.0 0.0 0.0 0.0 0.0 0.0 0.0
0.0 0.0 0.0 0.0 0.0 0.0 0.0 0.0
0.0 0.0 0.0 0.0 0.0 0.0 0.0 0.0
0.0 0.0 0.0 0.0 0.0 0.0 0.0 0.0
0.0 0.0 0.0 0.0 0.0 0.0 0.0 0.0
