models/reinforce/reinforce_high_lr/checkpoint_ep900.pth (torch, 259594 bytes, 18 tensors)

network.0.weight f4 [128, 26]
00000000: 1906 f9bd 1c1f 1f3e 6b8d 23bd 2a3f 153e
00000010: d6a0 37be 1ad3 273d cd54 183c 3e26 ba3d
00000020: 44dd e13c 02a8 f6bd a5ec dabd 5505 63ba
00000030: b26f 283e d4dc b63d d649 c7bd a4c7 a13d
00000040: cf91 05be 95c5 24be 074a f93b bc0a 19be
00000050: 6c82 513d ca38 b7bc 2f01 7d3d 9fdb 70bb
00000060: 6450 093e 3adf e0bd 0120 663d 6627 16bd
00000070: 0c6d 353d ff84 06bd 5e91 9cbd 68b6 faba
00000080: f530 97bd 3325 21bd ce70 a5bd 509d 1ebe
00000090: 5fda 90bd f796 2dbe 60cb a63d 9f75 e6bd
000000a0: 7f41 3fbe 75be 053e 91fa f9bb 4f2b b43d
000000b0: d987 5abd 5ecb 163e 6e77 06be 17cf b1bd
000000c0: 35a9 9fbd 552d 2d3d e1da 65be 520d c03d
000000d0: 55c5 01be 0827 23bd 1aca 28be 8488 7abd
000000e0: b149 dd3d 9657 e6bc 0f53 3cbe 19c9 4fbe
000000f0: 0f32 ff3d 6665 1c3d 457e 39bd ffdb 44bd
00000100: 748a 78bd 3933 46be 8ce9 14be 3494 973d
00000110: ac27 8dbd b30e 993d db58 39be d176 723d
00000120: 66de f23d 66c3 043e e9ff a83d f17b e23d
00000130: 0eaa cf3c 52b1 76bd 1dc6 3bbe 99cb c1bd
00000140: 6061 51bc 80c3 3b3c 5020 4cbc c05b b0bd
00000150: 797b 2fbe b44b 32be 2c13 44bd fc9f 423d
00000160: 2024 693c 3e2d 20be 12ac fe3d 2818 d2bc
00000170: 3c31 23be cdba 3a3e fe72 c9bd 8c8b 713d
00000180: 1aa5 81bd 19e4 2abe 41f4 e0bd be00 a23d
00000190: 9cbd 5d3d 243a cdbd 7089 6ebc 9e61 e2bd
000001a0: 7e36 3e3c 9d0d 66be dbbb 1bbe ba90 a2bd
000001b0: 89a2 5bbe 6782 f7bd fc89 c9bd ac1d e03c
000001c0: e992 24be 1f6c 993d 93b2 943d 4f22 27be
000001d0: 685a c4bd 36cf f0bd 27d9 e5bc 5060 05be
000001e0: 9a6f 6b3d 974d 3fbe 6bed a8bd eaac 32bd
000001f0: 127e 9c3d 5530 053e 8567 8abd 1326 1ebe
00000200: 98ac 19bd 71b3 813d df54 c73c 2ba4 c5bd
00000210: 8b06 213e 1158 4ebc d3d1 083d a037 dbbd
00000220: da77 b73c 021b e4bd bcd5 19be a134 0e3d
00000230: a557 d2bc bb8a 1e3e 0506 b73d 8c38 d1bc
00000240: 94cc 623d c1f1 29be 8ba4 9cbd 60ec 47bc
00000250: 9143 99bd d7fa 4fbe 5dc4 a43d 4108 b2bc
00000260: 0df0 1ebe 5a72 06be d40c 46bd d8f7 20be
00000270: b0d3 bb3c 2507 1bbe e683 aa3c 08c9 c0bd
00000280: 58f8 1fbe 252e 58be daac 6dbe 2da2 eb3d
00000290: 4db0 da3d 2f84 d83d 9da4 2abe d97f 70bd
000002a0: 01af 0c3d ad34 b5bd 66ef 1ebe 14ee bc3c
000002b0: 9a6a d1bd 0ead 50bc 702d c33d c18b 03bc
000002c0: 4a28 a13d 13b3 85be 1ca8 453d db0e 47be
000002d0: 8d6e 9e3d f94e e1bd 3605 cfbd ab69 fcbd
000002e0: 9738 293e a150 f5bd 490c 203e 808c 1fbe
000002f0: acea 21be fc22 13be 8277 c03d dcf1 03bd
00000300: f400 d5bd b063 1abe 8bad 483e c020 36bd
00000310: 15fc a6bd d089 4bbc 24c1 773d d2f8 1dbe
00000320: b018 073c 753d 333e b00c e93c 9861 74bd
00000330: 203d b83b 9e0e 953d 8a64 1bbe 8922 053e
00000340: b082 4bbd bddb 463e dcdd 3cbe a1bd 0f3e
00000350: d16c 233e c087 173c d701 203e 0d44 35be
00000360: 6d95 2fbe 9177 aabd d0a2 0fbd e36d 45be
00000370: 0076 6d3a ea30 86bd b251 b33d f601 29be
00000380: 59f0 a5bd a403 30bd 2d96 46be e034 e9bd
00000390: 076f 2dbe 4a85 e5bd d093 b6bc 1c72 74bd
000003a0: 691c 343e a708 3bbe 0ce9 aa3e 03b6 e53e
000003b0: 2d4a 263e fe05 f63e 6ee4 c23e bcc3 eb3d
000003c0: 370e c23d b243 063e e0b2 af3d d623 333b
000003d0: b524 f1bd 027b ee3b 3c89 033e 9a75 ed3d
000003e0: 614c 61bd 1d8e e9bd 8f58 04be 4b87 b23d
000003f0: 14f9 013c e2b2 31bc 97c8 8dbd bee1 233d
-0.12159366 0.15539211 -0.03992979 0.14574876 -0.17932448 0.040972807 0.009297562 0.09089325
0.027571328 -0.12043764 -0.106896676 -0.00086601573 0.16448858 0.08928838 -0.0973088 0.078994066
-0.13043903 -0.16090997 0.0076077017 -0.14945501 0.05114977 -0.022365946 0.061768707 -0.0036751998
0.13409573 -0.10980077 0.056182865 -0.036658667 0.04429345 -0.03284168 -0.07644914 -0.0019127848
-0.07382385 -0.039342117 -0.080781564 -0.15489697 -0.07072901 -0.1695212 0.081442595 -0.11252903
-0.18677329 0.13060935 -0.007628747 0.08797323 -0.05335221 0.14726016 -0.13131496 -0.086820774
-0.077959456 0.04227956 -0.22446777 0.09377541 -0.12672932 -0.039832145 -0.16483346 -0.061165348
0.10805071 -0.028117936 -0.1839106 -0.20291556 0.1246072 0.03818264 -0.045286436 -0.048061367
-0.060678914 -0.19355477 -0.14542216 0.074013144 -0.068923324 0.07473507 -0.18100302 0.059195343
0.118588254 0.12965164 0.08251936 0.11058796 0.025349643 -0.0602277 -0.18337293 -0.09462661
-0.012779564 0.011460185 -0.012458876 -0.0861125 -0.17136945 -0.17411691 -0.047869846 0.047515854
0.014229804 -0.15642259 0.124351636 -0.025646284 -0.1593675 0.18235321 -0.09836386 0.058970973
-0.06330319 -0.16688575 -0.10984088 0.07910298 0.054135904 -0.10020855 -0.014559135 -0.11053775
0.011609672 -0.2246613 -0.1520838 -0.07937761 -0.21448721 -0.12085419 -0.098407716 0.027357899
-0.16071667 0.074913256 0.07260623 -0.16321681 -0.09587556 -0.11758272 -0.028057648 -0.13025022
0.05747948 -0.18681942 -0.08248409 -0.043621935 0.076412335 0.13006718 -0.06758026 -0.15444212
-0.037518114 0.06333054 0.024332462 -0.09650453 0.15725152 -0.012594239 0.03340323 -0.10703969
0.022396017 -0.11137964 -0.1502294 0.03471816 -0.025676558 0.15482609 0.08936695 -0.025539659
0.055370882 -0.16596128 -0.076485716 -0.012202352 -0.074835904 -0.20310532 0.08045266 -0.021732451
-0.1552126 -0.13129559 -0.048352078 -0.15719545 0.022928089 -0.15139444 0.020814847 -0.09413344
-0.1562208 -0.21111353 -0.23210469 0.11505542 0.10678158 0.10572087 -0.16664357 -0.058715675
0.034346584 -0.08847938 -0.15521011 0.023062743 -0.10225411 -0.012736572 0.09530151 -0.008028925
0.07869013 -0.26113185 0.048256025 -0.1943926 0.0773593 -0.11001391 -0.10108416 -0.12324842
0.16525494 -0.11978269 0.15629686 -0.1558094 -0.15812176 -0.14368814 0.09397794 -0.032213077
-0.104005724 -0.1507709 0.19597451 -0.044464827 -0.081535496 -0.012422994 0.060486928 -0.15426949
0.008245632 0.17503913 0.028448433 -0.059663385 0.005622521 0.07278179 -0.15175071 0.13001455
-0.04968518 0.19419761 -0.18444008 0.14037181 0.15959479 0.009248674 0.15625702 -0.1770174
-0.17146845 -0.08323587 -0.03506738 -0.192802 0.0009058416 -0.06552298 0.087558165 -0.16504654
-0.08102483 -0.042972222 -0.19393225 -0.11387038 -0.16936885 -0.112070635 -0.02228728 -0.059679136
0.17588963 -0.1826502 0.33380926 0.44865426 0.16239233 0.48051447 0.38064903 0.11511943
0.094753675 0.13111761 0.085790396 0.0027334592 -0.117745794 0.0072778473 0.1284532 0.11594696
-0.05500448 -0.11404059 -0.12924407 0.08717211 0.00793292 -0.010845872 -0.06923025 0.040010206

network.0.bias f4 [128]
00000000: 0d76 4fbe de56 693d da9a 25be 4bd5 133e
00000010: 91ea fbbc 1c9e fc3d d156 adbd ac2f e3bd
00000020: 402d 59bd c712 22be 9149 20be 46be 9e3c
00000030: 917b d3bd 18e1 9dbc 648b ea3c b243 32be
00000040: dfa2 71bb 8751 f5bc fbff 46be f1ea a7bd
00000050: 91a2 94bc 009b 00bc 267a 18be 4e3d 67ba
00000060: d5bc be3d f0d9 4cbe 1b26 cebd 3a2c c1bd
00000070: 2d51 5cbe 07fa e7bd dcc4 6bbe 44c7 35be
00000080: f86a bcbd 2c83 acbd 2785 a13d f776 62bd
00000090: 4fec 8fbd 3eb3 133e e1ac 30be 687e 3abd
000000a0: a066 20bd 0126 76bd 7a59 023e 0560 2bbc
000000b0: 5d24 0bbd ad0f 3fbe 367b 31bd ca4c 12bd
000000c0: 95a7 6d3d aab2 3d3e 27f1 a3bd 0aa9 dcbc
000000d0: 5014 d3bd 805a 4cbe 4cae 7a3d 0323 9d3c
000000e0: 2378 27bc 7287 2a3e 52e6 28be 0dbd f9bd
000000f0: 94bb b03d 06fa 50be 7e09 a53d fd0d 2e3e
00000100: 3552 3fbd c42f e13d fbff 133e 858e d13d
00000110: 45b4 113e f2f4 1abe 5ab3 ca3d bad4 24be
00000120: 31fe d5bd 72c4 42be d669 063e fa71 9a3d
00000130: e733 813d 6fae 8ebd d73b 0d3b 6469 b13d
00000140: 202f e53d 1a5f 5ebd 09f1 f53d a51b 5dbc
00000150: 9490 04be a093 1ebe 940f 763e 2d5b d8bd
00000160: bf6f d73b 2f30 973d 077a d5bd 54d2 80bc
00000170: 3889 fa3d 324f 09be acef 853d fb7a c1bd
00000180: 33c4 9e3d 9b58 c03c de26 35be 7221 a0bd
00000190: 11f4 57bd 9a4f 38bd d25c 433e efdf 09bc
000001a0: 561c ac3a 3c3f 263d c8dc abbd ea50 fcbd
000001b0: 0e11 73be f0f5 4c3e cd9b f33d 74b9 a9bd
000001c0: 542a 9dbd dd33 133e c778 09be 673e b33d
000001d0: d5de 36be 5040 6dbd 2ab9 df3d c54e 433d
000001e0: 45a9 6fbc 4eb5 ddbd 757c ca3d a31f 2abe
000001f0: 4069 a8bc c21d 00be 174f 51bd ece8 243e
-0.20259877 0.05696761 -0.16172352 0.14436834 -0.030751498 0.123348445 -0.084638245 -0.11093077
-0.05302167 -0.15827475 -0.15653063 0.019377839 -0.10326303 -0.019272372 0.02863092 -0.17408636
-0.003687076 -0.029946102 -0.19433586 -0.081991084 -0.018143924 -0.007849455 -0.14890346 -0.0008821086
0.093133606 -0.20005012 -0.10065862 -0.09432264 -0.21515341 -0.11326986 -0.23024315 -0.17751795
-0.0920009 -0.084234565 0.07886725 -0.055289235 -0.07027494 0.14423844 -0.17253448 -0.045530707
-0.03916037 -0.060094837 0.12729445 -0.010459905 -0.033970226 -0.18658324 -0.043330394 -0.035717763
0.058021147 0.18525186 -0.080049805 -0.026936073 -0.10306609 -0.19956398 0.06120138 0.019181734
-0.010221514 0.16653231 -0.1649411 -0.12194262 0.08629528 -0.20407876 0.08058451 0.16997524
-0.046709258 0.10995439 0.14453118 0.102322616 0.14228924 -0.15132502 0.0989749 -0.16096774
-0.10448874 -0.1902025 0.1312631 0.075412706 0.06308728 -0.06966864 0.002155056 0.0866268
0.11190629 -0.054289915 0.120088644 -0.0134953605 -0.12945777 -0.15486002 0.2402938 -0.105642654
0.0065746005 0.07382237 -0.104236655 -0.015725292 0.12233204 -0.13409117 0.065398544 -0.09447285
0.07752266 0.02347975 -0.17690608 -0.07818879 -0.052722994 -0.04499779 0.19078377 -0.008415206
0.0013131003 0.04058765 -0.0839172 -0.12320121 -0.23736975 0.20015693 0.11894951 -0.082873255
-0.07674089 0.14375253 -0.13424979 0.08752137 -0.17858441 -0.05792266 0.10923989 0.047682542
-0.014627759 -0.10825597 0.098870195 -0.16613631 -0.020558 -0.12511352 -0.051100817 0.16104478

network.2.weight f4 [128, 128]
00000000: bd62 b33b 1d78 8a3d 529f 4abd d8e3 3b3c
00000010: 762d e2bd c843 7fbd a43d 70bd 95db 8a3d
00000020: 9a54 90bd 7de5 023d f694 7a3d c072 d13a
00000030: c19d 58bd 3732 ad3d f27b 973c 9dcc 9f3d
00000040: 6cf4 00bc d7e4 92bd af5f b4bd 9ef5 4e3d
00000050: 5e05 a9bd ba2c 133b 5773 85bd 7e06 a83d
00000060: a871 66bc fca2 8cbb 5b4b a63d 6e68 8fbd
00000070: bc62 b1bc 8ebb 8abd 94c3 ca3c 0510 9a3d
00000080: 6e25 2bbd f06f a4bb a17c 8fbd 79f1 7cbd
00000090: 4ac0 0ebd a17b 0ebd a077 54bc 71b9 a3bd
000000a0: f723 9e3d 311e 12bc 25f8 313d 46b3 673d
000000b0: 4381 973d 184d 59bd 7d0d a8bc 650b 97bd
000000c0: b254 c23d a7c9 1bbd 34cd c93c 53f7 b13d
000000d0: 3f25 b23d 1bfe 15bd 2e9d 323d 3022 a53b
000000e0: 9ba3 9ebd 7eb3 803c d647 d5bd 988b 64bc
000000f0: 387c 883d f44c 92bd 65c3 123d 294a 22bd
00000100: 45bc 9a3d 6065 00bc d0ac 90bd ff21 02bc
00000110: 567c a0ba 0224 533d 5c36 00be a073 4e3b
00000120: df50 b8bd 7450 babc 1344 87bd 77aa 27bd
00000130: 5b7f afbd 2e0a 003d b30b dfbb ba58 7d3d
00000140: e88b afbc 8bf8 d3bc 2147 d5bd 7a79 193d
00000150: bf88 b23d 8ec1 25bd e6ad bbbd 8977 d93d
00000160: f840 9e3c 3dc5 a5bd f097 b4bd dce9 b7bd
00000170: 7c66 f3bd 8c73 85bd 5971 033e 44e4 c9bb
00000180: d016 23bc 05a7 c8bd 53ff fd3b 0c9b e43c
00000190: 355f 9cbc 8fa3 adbd 190a 2a3b 5c4f c73c
000001a0: 771e a83d 7a66 523d 30c3 ee3b 2950 0c3d
000001b0: b29e 233d e5ad b23c bb64 64bd 653c c73c
000001c0: 8ac6 2f3d be3b 513d 0a95 91bd 8aca 09bd
000001d0: 9ce3 d93c db4b 03bd 665b 463d e6e5 f9bd
000001e0: 501e 6c3c 12f7 0abd 3d9c b33d a750 e0bd
000001f0: ee95 c1bd 161c 4b3d 146a 563d c907 82bd
00000200: ca4a 633d 62dc 3d3d 1e8e a9bd f08e 76bd
00000210: 8ab5 93bd 02cf 9cbd 4760 3bbd 98bc b2bc
00000220: d0a2 133d 2fc2 89bd 6a93 1d3d 3c16 bcbc
00000230: 0e95 37bd 5cd2 e9bc 665e 9bbd c5f8 843d
00000240: 32fd 163d 6490 a63c 9530 24bd 9037 063c
00000250: 9c45 00bd 9619 573d 788a 11bc 3a8e 303d
00000260: d2be 5d3d c01b 2dbd 28ee ccbc e88d 00bc
00000270: 6153 3cbd 68df a3bc 88d2 0e3c 2d88 4ebd
00000280: aecd 443d 40f4 07bc 4840 133d 4d92 a23d
00000290: 02b1 1abd 7904 8cbd e6bd 283d 500f f8bb
000002a0: 7b4d 8a3d c4a6 48bd 7a4f 703d 303b f9bb
000002b0: cc44 c9bc a6af 6b3d e8f9 99bd 509e b8bc
000002c0: b68b 533d 4519 82bd 30d6 8abc 07be a63d
000002d0: a17a 94bd 004c cdba a747 87bd 4084 763c
000002e0: e0f2 a9bb 986b 50bd a05e 21bc 5c65 8ebd
000002f0: 001b febb 9190 a7bd 6621 70bd 40dd e1bc
00000300: ee88 6b3d 336b a3bd 5dab 8b3d 7e09 743d
00000310: 3810 f8bc 313f 36bd 6529 b23d 184d 013d
00000320: a021 1ebb 08c2 a9bd 00a4 8d3a 3cae e43c
00000330: a0e9 49bb cd07 8fbd 5840 40bc fad8 80bd
00000340: f535 0ebd 206f 6cbd c0aa 25bc 9de3 9a3d
00000350: 5835 0fbd c683 1b3d 42a2 a5bd 80ca baba
00000360: e3c1 10bd 9768 aa3d 788b 023c 906c 053d
00000370: b3a8 89bd 0ba2 993d 80bc a73b 873e 30bd
00000380: 486f 19bc a00f 94bd 43fe aabd fce9 72bd
00000390: 8e51 6c3d 4d06 0abd 403b ffbb 5cbf d83c
000003a0: 2134 883d 2b96 b23d 6baf 9f3d c0d8 093d
000003b0: 20fe 0f3d 8032 a8bb 4023 5a3b 2c3e b0bd
000003c0: 162e 443d 10f1 bdbc fa15 4d3d 3588 b43d
000003d0: 607e 00bb 9e2f 383d 4a2d 453d 08fc 773c
000003e0: aa6f adbd 18c3 72bd a75c 4abd cdbd 03bd
000003f0: 606f 263b 5349 873d 001a f139 b003 b43c
0.005474417 0.06761191 -0.049468346 0.011467896 -0.11043827 -0.0623205 -0.058652535 0.06780163
-0.070473865 0.03195714 0.061177216 0.0015979633 -0.05288482 0.08456843 0.018491719 0.07802699
-0.007870775 -0.07172554 -0.08807313 0.050527208 -0.08252977 0.002245708 -0.0651614 0.08204363
-0.014065184 -0.00429189 0.08119842 -0.0700234 -0.021653526 -0.067740545 0.024751462 0.07522587
-0.041783743 -0.005018227 -0.07006193 -0.061753724 -0.03485135 -0.03478587 -0.012967974 -0.079943545
0.077217035 -0.008918331 0.04344954 0.056567453 0.073977016 -0.053052038 -0.020514244 -0.0737522
0.094888106 -0.038034108 0.024633981 0.086897515 0.086985104 -0.036619287 0.04360693 0.005039476
-0.07746049 0.015710589 -0.10414092 -0.013949297 0.06664318 -0.07143584 0.035830874 -0.039621506
0.07555441 -0.00783667 -0.07064211 -0.007942676 -0.0012244086 0.05154801 -0.12520736 0.0031502023
-0.089998 -0.022743441 -0.06604781 -0.040934052 -0.08569213 0.031259708 -0.0068068146 0.061852194
-0.021429017 -0.02587535 -0.104139574 0.037469365 0.087174885 -0.04046779 -0.09164028 0.10618503
0.019318089 -0.08094261 -0.08818042 -0.08980152 -0.11884782 -0.065161794 0.12836207 -0.0061612446
-0.009954169 -0.097974814 0.0077513843 0.027905963 -0.019088367 -0.08478462 0.002594596 0.024329834
0.08208936 0.05136726 0.0072864518 0.034256134 0.039946266 0.021811435 -0.055760127 0.02432079
0.04291395 0.051082365 -0.07108505 -0.033640422 0.02659779 -0.032054763 0.048427008 -0.12202053
0.014411524 -0.03392703 0.087700345 -0.10952883 -0.09452425 0.04958733 0.052347258 -0.06349141
0.055491246 0.04635275 -0.0827906 -0.06019491 -0.0721236 -0.07656671 -0.045746114 -0.021818444
0.036043942 -0.06726491 0.038470663 -0.02295982 -0.044819884 -0.02854269 -0.075863644 0.064927615
0.03686256 0.020332523 -0.040085394 0.008191958 -0.031316385 0.052514635 -0.008883111 0.043104388
0.05413706 -0.042262793 -0.025015905 -0.007846333 -0.045977954 -0.02000399 0.008717187 -0.050422836
0.048047714 -0.00829798 0.035949975 0.07938061 -0.037766464 -0.068367906 0.041196726 -0.007570185
0.067530595 -0.048987165 0.058669545 -0.0076059327 -0.024568938 0.05754056 -0.07518369 -0.022536427
0.05164691 -0.06352476 -0.016947836 0.081417136 -0.07249952 -0.0015662909 -0.066054635 0.015046179
-0.0051864237 -0.05088386 -0.0098492205 -0.069529265 -0.0077546835 -0.08181871 -0.0586256 -0.02757132
0.057503633 -0.07979431 0.06819794 0.059579365 -0.030281171 -0.044493858 0.08699302 0.031567663
-0.0024128929 -0.08288962 0.0010806322 0.027915113 -0.0030809417 -0.0698391 -0.011734091 -0.06291385
-0.034719426 -0.057723165 -0.010111511 0.07562945 -0.034962982 0.037967466 -0.08087589 -0.0014251024
-0.035341155 0.0832073 0.007967822 0.032574236 -0.0672163 0.0750161 0.0051189065 -0.04302838
-0.00936491 -0.07229543 -0.08349278 -0.059305176 0.057694964 -0.033697415 -0.0077890456 0.026458435
0.06650568 0.087200485 0.0779713 0.033653975 0.03515446 -0.005132973 0.003328517 -0.08605608
0.047895513 -0.023186237 0.050069787 0.08815042 -0.0019606575 0.044967286 0.048138894 0.0151357725
-0.08468564 -0.059268087 -0.049404766 -0.03216343 0.0025395975 0.06605782 0.00045986474 0.021974415

network.2.bias f4 [128]
00000000: 7a9c bebd 4096 63bd a18b 353d 31a1 43bd
00000010: 638e 99bd 1c44 603d 6554 b63a e844 8d3b
00000020: 4c1b edbd 94d0 bd3e 16a5 2b3c 74be 393c
00000030: 570a d1bb b4d0 933e 3bec 4ebd 08ab 733d
00000040: e023 08be 99c0 48bd 7a24 e8bd 1021 8dba
00000050: 180f 203e 8e47 e03d c49f d63c 3e7d dbbd
00000060: b7e7 a8bc 5a13 56bd 8930 4abd 9448 773d
00000070: a249 fdbd fe6a 243d 8e8d 62bd cb19 2e3d
00000080: 942a 5dbd 9826 7fbd 1b33 27be b83b 083c
00000090: df6d f9bb 18cc 24be 855c 13bd 957a e2bd
000000a0: 36ac 78bd db8c 0dbe 9f37 17be dcb0 98bd
000000b0: d508 fdbd 5a85 4ebd 2010 dabd b9b3 21bd
000000c0: 32c6 92bd 1864 63bd ca94 a4bd f980 09be
000000d0: db55 c6bd 1848 223e 232b 9a3c d9d4 d3bc
000000e0: 2e9c 4fbd 3c86 383d 7114 afbd 29a1 88bd
000000f0: a811 13bc 75c7 873e 41f4 f83d 1938 f4bb
00000100: 94a1 34bd e97d 7cbd a354 723e 4f86 c13d
00000110: 94f0 3cbe d0fe 2ebd 89fc 64bd dac2 cbbd
00000120: 4c7c 1b3d 1be4 b0bd ff40 09be 22b1 14bd
00000130: 98f5 e5bd 7cdf a9bd 8cd7 b83b f8ab e2bd
00000140: dc39 a3bd ed93 6d3d fdc1 1fbd 3b4e 803e
00000150: ded7 ac3e 39da e4bc f7d0 bd3c 2999 253d
00000160: 86e9 8e3a a71b cebc 0ccd d7bc 4e6e f83d
00000170: b7fd 9cbd 03f4 053e bc05 6fbd cff0 4c3e
00000180: d49d cfbd 13c4 f43c fa29 c03e 7f88 9fbd
00000190: 2336 f8bc 4673 0c3d 3a80 c8bd cbbd 8abd
000001a0: 4ca3 95bd d7b9 a2bd 8df2 aa3d d327 46bd
000001b0: 4e6c d3bd 7a7d 0f3e 14dc e53c f34e 8ebd
000001c0: 39d4 f8bc fcd4 71ba ec68 84bd 97fb 2fbd
000001d0: 5edc 133e de6d 653e 58f6 e5bd adef 143e
000001e0: 1159 a33e c072 dabd 2aa2 49bd 52ae 7cbc
000001f0: 5853 0dbd 8c30 3a3e 7bc6 fc3b a07c 49bd
-0.09307189 -0.05556321 0.044322614 -0.047761146 -0.07497861 0.054752454 0.001391065 0.004311193
-0.11577472 0.37073195 0.010476371 0.0113369115 -0.0063794064 0.28870165 -0.050518256 0.05948928
-0.13294935 -0.0490118 -0.11335082 -0.00107673 0.15630758 0.10951148 0.026199229 -0.107172474
-0.020618303 -0.05226455 -0.049362693 0.06037195 -0.1236756 0.0401411 -0.05531078 0.042505067
-0.053995684 -0.062292665 -0.16328089 0.008315019 -0.0076119746 -0.1609348 -0.035976905 -0.11058537
-0.06071111 -0.13823263 -0.14767312 -0.07455608 -0.123552 -0.050420143 -0.10647607 -0.039478038
-0.07166709 -0.05551538 -0.08036192 -0.13428105 -0.096843444 0.15847814 0.018819397 -0.02585833
-0.050686054 0.04504989 -0.08548821 -0.06671364 -0.008976378 0.2651936 0.12155963 -0.0074529764
-0.044099405 -0.061643515 0.23665099 0.094494455 -0.18451148 -0.042723477 -0.0559049 -0.09949274
0.037960336 -0.08637258 -0.134037 -0.03630174 -0.11228484 -0.082945794 0.0056409296 -0.11067957
-0.0797002 0.0580024 -0.03900336 0.25059685 0.33758444 -0.027936088 0.023170931 0.040429268
0.0010903336 -0.02515967 -0.026342891 0.12130414 -0.0766558 0.13081364 -0.058355078 0.20013736
-0.10137525 0.029878652 0.37532026 -0.077897064 -0.030299252 0.03428962 -0.09790082 -0.067744814
-0.07306537 -0.079456024 0.08347044 -0.048377823 -0.10323392 0.1401271 0.028059043 -0.06948652
-0.030374633 -0.00092251576 -0.06465325 -0.042964544 0.14439532 0.22405192 -0.11228627 0.14544554
0.3190389 -0.10666418 -0.049226917 -0.015422421 -0.03450331 0.18182582 0.0077140904 -0.049191117

network.4.weight f4 [8, 128]
00000000: 13dc fe3d c06a 9dbd 7082 863a f236 f23c
00000010: bd25 16be 1880 c7bd 47e8 4b3c 66f5 e3be
00000020: 4471 413c 97d9 44be 19c8 2ebe 32b0 00bd
00000030: 0c60 233d 70da 17be 5b73 8b3d 28e1 86bc
00000040: ef67 fc3c 8887 243c cbcd abbd e23a b5bc
00000050: fb4a 8fbe 00a6 e1be 88ce 21bd 7bb7 19bc
00000060: 99df fc3b dce6 b3bc c5ea 323d 5c6a 35bc
00000070: 47d6 7abd 42b5 23bd 07e2 55bd 9fcc 8b3b
00000080: 235a 3fbe 826e 343d 3911 f7bc 29aa 51be
00000090: c389 2dbd 6dfc b8bc 402c 3d3d 733c 54bd
000000a0: 6acb 51bd cb3c c03d decf 3d3d 2957 07bd
000000b0: 1c92 9dbd ec44 bc3b 48d3 1bbd 06ca fa3c
000000c0: 50a2 533d d25d c1bd 4671 403b fad9 97bc
000000d0: 7aaf d53c af30 e5bd 1866 f9bd 5842 873d
000000e0: 392b 41bd a5ea 2fbd 7c1a 233c 65ce 003d
000000f0: daf6 4c3d a88e e4bd e715 b4bd 0c56 12bd
00000100: 399a 243d b025 3abd 8346 42bd faf4 d6bc
00000110: 3dc7 48be 97a8 0bbd 3ed2 b4bd cab3 74bd
00000120: e8f4 b6bc 9807 6abd c68a c13b 8237 313b
00000130: 89aa a43b bb55 ccbd d2a3 093b 1931 eb3d
00000140: 8253 3e3d bfb0 103d ffdb 123d 94ea 73bd
00000150: 36e0 8bbe 6165 2d3c 769b 70bc 8243 54bd
00000160: 91a9 69bc a917 bc3d ba79 f9bc 6986 49bd
00000170: 7b01 4cbd 73bd 20be 8698 373d 0160 45be
00000180: a877 bd3d bf4d 2abd 222c 3dbe 13ab adbc
00000190: 1917 4a3c d287 673c b5cd 3ebd 4adf 84bd
000001a0: 06a2 e43d cdfb 16bd 39d3 3dbe 1e94 d9bc
000001b0: 0a44 613d f6bd abbd 2a7b fdbd e0a2 a7bd
000001c0: 184e 25bd 6c20 8cbd 0598 2a3d baa0 bfbc
000001d0: af21 033b e4e8 9fbe 3b1b f5bd b997 3ebe
000001e0: d303 c8bd 7765 983d e284 4237 fbf2 be3c
000001f0: 5abf c03c 90a8 9ebd 2fd4 0dbe 1dd1 56bb
00000200: 9a2c ffbc 028b 6dbd abe4 563e d881 c03c
00000210: 581a 9abd e236 b73d c291 183b 6097 9b3c
00000220: cf18 d7bc 734a 333e f989 203d 7d3c c7bc
00000230: 54ab d73d 3718 1b3e b71d 0b3d bf12 8a3d
00000240: cddf c3bd 503b acbb 517e 6abd b854 d03c
00000250: 74fa 083e 1e70 023e 058a 8e3c 0b55 4fbc
00000260: 6b5e 183d daa7 633d 6135 8e3d eff5 eb3d
00000270: 2251 db3c 1a4b b7bd c587 db3c ed81 d13d
00000280: 09cc 2c3d 74e8 5e3d 77da 34be 9916 0cbe
00000290: 8691 143d 4ad3 273d 3d58 e7bc 926d 1a3d
000002a0: 2f46 053d d58e dc3d 569f e8bb d6da 12be
000002b0: 3aa9 0e3d 81d7 383c b75a 063d 85ca 44bc
000002c0: 8305 503d e6ba 683c 0d3c e5bd 1306 2abc
000002d0: 9e0d da3c dc4e f83d 1ef1 353d b0b7 ba3c
000002e0: d25f d83c 85f8 9c3d dff7 f23c 41f7 cd3c
000002f0: 9cd0 d3bd 9f09 343e c7a6 60be d305 32bd
00000300: 8535 6dbd 6bba 573d dfee 37be f5fb 8b3d
00000310: 8958 b6bd b3ac 68bd b74d b4bc e48a bfba
00000320: 0c7a a63d ac3e 083d 2dbb b43d e6af 9bbd
00000330: 3857 5ebc 6277 3c3d 4888 94bc 58f1 66bd
00000340: 0e73 8e3d 5488 06be a878 24bd 5147 c73d
00000350: 26fe 5b3e a825 883d a3a0 553d 6587 7b3d
00000360: 9cba e23c 2f86 81bd 0085 873d a106 063e
00000370: 4ca4 d3bb 3501 b83d 0621 38bd 024b 253e
00000380: b96a 49bd e3a9 a33d 791b 523e aeff 043d
00000390: 61f5 5d3d 792e 6f3d 7b32 67bc ebff 3b3d
000003a0: 417f b43d deff 9ebc a248 163e 0c10 b139
000003b0: 8be9 8c3c d2ef 8a3d a9f8 903d 8217 91bc
000003c0: ac18 ce3d c999 bcbb 0c6a 2bbd a302 123c
000003d0: a518 903d 8656 de3d b4ec 5d3c 771f f93d
000003e0: b6f5 603e d0bb 523d d075 aa3d 299a 66bd
000003f0: 14b8 b13c 3f15 cc3d 18a3 793d e1fc 163d
0.124443196 -0.076863766 0.0010262262 0.029567216 -0.14662834 -0.09741229 0.012445516 -0.44523162
0.01180679 -0.19223629 -0.17068519 -0.031418033 0.03988652 -0.14829421 0.06809112 -0.016464785
0.030811278 0.010042079 -0.08388861 -0.022122804 -0.27986893 -0.4407196 -0.039503604 -0.009382124
0.0077170846 -0.021960668 0.043680925 -0.011072721 -0.061239507 -0.039967783 -0.05221751 0.004266336
-0.18686728 0.0440507 -0.03015958 -0.20475067 -0.042367708 -0.022581303 0.04618478 -0.05181546
-0.05121938 0.09386595 0.046340816 -0.033042107 -0.07693884 0.005745521 -0.03804329 0.03061391
0.051668465 -0.09441723 0.0029364391 -0.018536557 0.02608465 -0.11190926 -0.12177676 0.06604451
-0.04716036 -0.042948384 0.009955045 0.031446833 0.050040103 -0.11160022 -0.0879324 -0.035726592
0.04018614 -0.045446098 -0.047430526 -0.02623986 -0.19607253 -0.034096327 -0.08829163 -0.059741773
-0.022333577 -0.05713615 0.0059064357 0.0027041142 0.005025212 -0.09977289 0.0021002186 0.11483974
0.046466358 0.03532481 0.035854336 -0.059549883 -0.27319497 0.010583253 -0.014685502 -0.051822193
-0.014261619 0.091842 -0.030453552 -0.04920045 -0.0498061 -0.15697269 0.044823192 -0.19274904
0.09251338 -0.04157805 -0.18473867 -0.021199739 0.0123346085 0.014131503 -0.046582896 -0.064879015
0.11163716 -0.03686123 -0.18537606 -0.026559886 0.054996528 -0.083858415 -0.12377007 -0.08185363
-0.04035768 -0.068421215 0.041648883 -0.02339207 0.002000909 -0.3123237 -0.119680844 -0.18612565
-0.097663544 0.07441228 1.159424e-05 0.023309221 0.023528744 -0.077469945 -0.13850473 -0.003277845
-0.031149197 -0.057993896 0.20985667 0.023499414 -0.07524556 0.08946015 0.0023280238 0.01899308
-0.026256947 0.17508869 0.03919408 -0.024320835 0.10530725 0.15145956 0.033963885 0.06741857
-0.09564171 -0.005256094 -0.05724937 0.025431022 0.1337679 0.12738082 0.017399797 -0.012654553
0.03719942 0.055579998 0.06943775 0.115215175 0.026772086 -0.08949871 0.026798138 0.102298595
0.04218677 0.054420903 -0.17661463 -0.13680495 0.036271594 0.040972985 -0.028240317 0.03770215
0.032537635 0.107694305 -0.0070990724 -0.14341292 0.034829356 0.011281849 0.032801356 -0.012011175
0.050786506 0.014204716 -0.111930944 -0.010377425 0.026617821 0.12124416 0.0444194 0.022792667
0.026412878 0.07664589 0.02965921 0.025142314 -0.103425235 0.17581795 -0.2193862 -0.043462586
-0.05791237 0.052668016 -0.17962216 0.06835166 -0.089036055 -0.056805324 -0.022009714 -0.0014613536
0.08128747 0.033262894 0.088247634 -0.07601909 -0.013570599 0.04601229 -0.01813139 -0.056382507
0.06955539 -0.13137943 -0.04015413 0.097303994 0.21483669 0.06647807 0.05215515 0.06140842
0.027676873 -0.063244216 0.066171646 0.13088466 -0.0064587947 0.08984605 -0.04495337 0.16141894
-0.049174044 0.07991388 0.20518292 0.032470398 0.05418909 0.05839393 -0.014111157 0.04589836
0.08813334 -0.019409116 0.14676145 0.00033772027 0.017201206 0.06784023 0.07078678 -0.017711405
0.100632995 -0.0057556373 -0.04184918 0.008911761 0.070359506 0.10856347 0.013545204 0.121642046
0.21968731 0.051448643 0.08323252 -0.056299362 0.02169422 0.0996499 0.060946554 0.036862258

network.4.bias f4 [8]
00000000: 60ae 4ebe 5c02 0f3e 5f81 7e3d f67c eb3d
00000010: 949a 14be 13ea 9cbe 6d4f 8c3d 59bc ddbe
-0.20183706 0.13965744 0.062135097 0.11498444 -0.14512092 -0.30647334 0.06851087 -0.4330776

exp_avg f4 [128, 26]
00000000: d984 4403 2653 6d03 ea01 b803 a353 9803
00000010: dc5f 3903 ce0f b803 5a85 8703 8b06 9604
00000020: f510 7203 780c 9903 eea0 2b04 d242 0504
00000030: 20cd 7403 578c 7e04 ba41 2204 9331 5a04
00000040: d3dd ac04 5c03 8a04 e9bd 9804 5000 6c04
00000050: a0ee 9a04 94f4 1704 7a59 0004 1280 6203
00000060: 2e3d 2c04 e9d1 2604 0b00 0000 0400 0080
00000070: 722f a513 0400 0000 0500 0080 1f00 0000
00000080: 2000 0000 adae 0616 0e00 0000 1200 0000
00000090: ef99 da14 67b5 2315 2400 0000 1d1f d215
000000a0: 8523 f014 a607 8f15 88c6 a815 c627 2e16
000000b0: af1a 3415 7a89 ea15 8e4a 3515 6718 2d15
000000c0: ed79 0a15 1ecb 6614 1ecb 6615 ceb6 4f15
000000d0: 0000 0000 0000 0000 b666 6f25 0000 0000
000000e0: 0400 0000 0400 0080 0700 0080 7b29 8a26
000000f0: 0400 0080 0400 0000 a50f 7527 b0d2 8627
00000100: 0000 0000 8ec0 3c27 70ae f226 7100 9726
00000110: 2525 b426 9fc9 a127 7a99 a426 6e6a 5227
00000120: 9fc9 a127 b0d2 0627 b0d2 0627 2bf1 bd26
00000130: b0d2 0627 b0d2 0627 0000 0000 0000 0000
00000140: 0000 0000 0000 0000 0000 0000 0000 0000
00000150: 0000 0000 0000 0000 0000 0000 0000 0000
00000160: 0000 0000 0000 0000 0000 0000 0000 0000
00000170: 0000 0000 0000 0000 0000 0000 0000 0000
00000180: 0000 0000 0000 0000 0000 0000 0000 0000
00000190: 0000 0000 0000 0000 0000 0000 0000 0000
000001a0: 33c3 8f14 0c3e ec14 0c25 ba16 08a5 c212
000001b0: 02c9 c612 d5db f515 0377 5a16 ec49 8318
000001c0: 72e4 9714 9a2c fe14 6150 7918 11c1 0918
000001d0: 8447 8b92 9d82 8818 56ba b218 7874 d017
000001e0: 6abb cc18 0f87 7f18 1aa9 9e18 e62c ad18
000001f0: 6e09 9118 24c7 2b18 c45a 1a18 5cb8 8817
00000200: a3e6 4118 a14f 3b18 0400 0080 0400 0080
00000210: 1100 0000 0400 0080 0400 0000 0400 0080
00000220: 0400 0000 2900 0000 0400 0080 0400 0000
00000230: 2600 0000 7200 0000 0400 0080 7b00 0000
00000240: af00 0000 2600 0000 dd00 0000 4c00 0000
00000250: 4400 0000 8c00 0000 b800 0000 4800 0000
00000260: 3d00 0000 1700 0000 5700 0000 5400 0000
00000270: 3c05 0000 5b17 0000 6f2d 0000 9411 0000
00000280: f501 0080 be53 0000 8392 0000 39fb 0100
00000290: ad4f 0000 c151 0000 3b8b 0100 de9f 0100
000002a0: fa0f 0080 f733 0200 6dc5 0100 6a92 0100
000002b0: 4e70 0200 0616 0200 0f53 0200 e758 0200
000002c0: b666 0300 e064 0100 2a46 0100 1c92 0000
000002d0: fe76 0100 6672 0100 0000 0000 0000 0000
000002e0: 0000 0000 0000 0000 0000 0000 0000 0000
000002f0: 0000 0000 0000 0000 0000 0000 0000 0000
00000300: 0000 0000 0000 0000 0000 0000 0000 0000
00000310: 0000 0000 0000 0000 0000 0000 0000 0000
00000320: 0000 0000 0000 0000 0000 0000 0000 0000
00000330: 0000 0000 0000 0000 0000 0000 0000 0000
00000340: 0000 0000 0000 0000 0000 0000 0000 0000
00000350: 0000 0000 0000 0000 0000 0000 0000 0000
00000360: 0000 0000 0000 0000 0000 0000 0000 0000
00000370: 0000 0000 0000 0000 0000 0000 0000 0000
00000380: 0000 0000 0000 0000 0000 0000 0000 0000
00000390: 0000 0000 0000 0000 0000 0000 0000 0000
000003a0: 0000 0000 0000 0000 4850 6dbb e1f7 923b
000003b0: b618 483b 4cab aa3b 6820 aab9 0108 c73c
000003c0: db37 263d 6040 853d bb05 1d3d f4f2 4c3d
000003d0: 907d f63b b315 193d 9d7f 993c 9e48 3f3d
000003e0: 2481 7e3d 4d2f 233d e8cc 7f3d 73a9 3e3d
000003f0: 50c8 683b a60f a23d ca27 b33d ff8e e73c
5.7751725e-37 6.974349e-37 1.08149875e-36 8.952959e-37 5.4476655e-37 1.0818177e-36 7.965203e-37 3.527084e-36
7.1136874e-37 8.9953945e-37 2.0174849e-36 1.5664757e-36 7.1940627e-37 2.9921997e-36 1.9073189e-36 2.564854e-36
4.064072e-36 3.244673e-36 3.5909433e-36 2.774181e-36 3.642437e-36 1.786227e-36 1.5087413e-36 6.656245e-37
2.0246595e-36 1.9609592e-36 1.5e-44 -6e-45 4.169864e-27 6e-45 -7e-45 4.3e-44
4.5e-44 1.0879552e-25 2e-44 2.5e-44 2.2073091e-26 3.306069e-26 5e-44 8.486741e-26
2.4247817e-26 5.776931e-26 6.8167887e-26 1.4068158e-25 3.637176e-26 9.472875e-26 3.6611472e-26 3.4956322e-26
2.796506e-26 1.165209e-26 4.660836e-26 4.1947525e-26 0.0 0.0 2.0764745e-16 0.0
6e-45 -6e-45 -1e-44 9.586917e-16 -6e-45 6e-45 3.400906e-15 3.74209e-15
0.0 2.6194625e-15 1.6839405e-15 1.0477849e-15 1.2500077e-15 4.4905075e-15 1.1421386e-15 2.920105e-15
4.4905075e-15 1.871045e-15 1.871045e-15 1.3179878e-15 1.871045e-15 1.871045e-15 0.0 0.0
0.0 0.0 0.0 0.0 0.0 0.0 0.0 0.0
0.0 0.0 0.0 0.0 0.0 0.0 0.0 0.0
0.0 0.0 0.0 0.0 0.0 0.0 0.0 0.0
1.4516303e-26 2.3854383e-26 3.00733e-25 1.2283805e-27 1.2545109e-27 9.9301546e-26 1.7647453e-25 3.393735e-24
1.533721e-26 2.5665038e-26 3.2223077e-24 1.7804309e-24 -8.789763e-28 3.528706e-24 4.6200073e-24 1.3471086e-24
5.2922004e-24 3.3026165e-24 4.101279e-24 4.4764788e-24 3.7491143e-24 2.2201772e-24 1.9949858e-24 8.835333e-25
2.5061107e-24 2.4209386e-24 -6e-45 -6e-45 2.4e-44 -6e-45 6e-45 -6e-45
6e-45 5.7e-44 -6e-45 6e-45 5.3e-44 1.6e-43 -6e-45 1.72e-43
2.45e-43 5.3e-44 3.1e-43 1.06e-43 9.5e-44 1.96e-43 2.58e-43 1.01e-43
8.5e-44 3.2e-44 1.22e-43 1.18e-43 1.878e-42 8.378e-42 1.6299e-41 6.306e-42
-7.02e-43 3.0041e-41 5.2559e-41 1.81957e-40 2.8582e-41 2.9328e-41 1.41782e-40 1.49185e-40
-5.731e-42 2.02312e-40 1.62659e-40 1.44359e-40 2.23958e-40 1.91572e-40 2.13467e-40 2.15563e-40
3.12352e-40 1.28023e-40 1.17006e-40 5.2414e-41 1.34522e-40 1.32874e-40 0.0 0.0
0.0 0.0 0.0 0.0 0.0 0.0 0.0 0.0
0.0 0.0 0.0 0.0 0.0 0.0 0.0 0.0
0.0 0.0 0.0 0.0 0.0 0.0 0.0 0.0
0.0 0.0 0.0 0.0 0.0 0.0 0.0 0.0
0.0 0.0 0.0 0.0 0.0 0.0 0.0 0.0
0.0 0.0 0.0 0.0 0.0 0.0 0.0 0.0
0.0 0.0 -0.0036211181 0.004485116 0.0030532307 0.0052084085 -0.0003244907 0.024295809
0.04058061 0.06506419 0.038335543 0.050036386 0.0075222924 0.03737421 0.018737609 0.046700113
0.062134877 0.03984003 0.062451273 0.046548318 0.0035519786 0.07913141 0.087478235 0.028266428

exp_avg_sq f4 [128, 26]
00000000: 9796 7b39 ecbf 8239 15a9 9a39 2f06 b439
00000010: cd11 ba39 af97 5a3a dabe 683a e112 fc3a
00000020: 92c9 433a 5498 523a fcf9 8b3a c16d 743a
00000030: 66b8 b139 16d8 d23a 3a8c bb3a cd5e 983a
00000040: e5a7 093b f40b f83a 934e 0b3b 11de e33a
00000050: bae6 253b b2f4 3a3a e7e6 133a 7a8f ea38
00000060: ea49 503a c5c8 4a3a d1a4 5535 ff17 c633
00000070: aeb6 4435 c24f a334 b51b 4734 ac36 ef35
00000080: f2fc e235 0228 9036 0d62 5935 cc6b 4235
00000090: 82e0 1137 e747 c636 9497 0036 86e7 5537
000000a0: 8e20 5137 cd86 9d36 3cfd d737 1377 7537
000000b0: 5a9d 3e37 f64a a637 a580 3d37 d2f0 b936
000000c0: 86bf a036 e77d 6435 a44a d936 2e69 d336
000000d0: 0000 0000 0000 0000 84d6 be32 0000 0000
000000e0: 6645 0830 022e 1d31 b70e aa30 699b 0e36
000000f0: bc24 b32d 5d29 8932 e815 1b37 aef9 4d36
00000100: 0000 0000 56c4 d336 d187 f836 b34b 0f36
00000110: 0cee d636 4e7b 3337 bf46 c736 a361 7337
00000120: 09c3 8c37 3c1e 5836 8894 5736 3579 2d35
00000130: ae16 5836 ae16 5836 0000 0000 0000 0000
00000140: 0000 0000 0000 0000 0000 0000 0000 0000
00000150: 0000 0000 0000 0000 0000 0000 0000 0000
00000160: 0000 0000 0000 0000 0000 0000 0000 0000
00000170: 0000 0000 0000 0000 0000 0000 0000 0000
00000180: 0000 0000 0000 0000 0000 0000 0000 0000
00000190: 0000 0000 0000 0000 0000 0000 0000 0000
000001a0: 7313 763a 7ec9 be3a 15f2 a33a adb7 da3a
000001b0: 6305 9e3a ee32 973b 7ffa 8a3b 7de4 133c
000001c0: 0f4b 963b 2eed 903b 2ad9 8f3b 0c02 903b
000001d0: b9c5 d63a f7c5 e83b a516 113c fccf 923b
000001e0: 6565 1a3c caa9 0b3c 4b86 163c 0ae9 0e3c
000001f0: 851e 163c 82e2 4f3b 1881 253b 86f0 ff39
00000200: 5f64 6a3b fc5f 663b f30d 862e 9146 422e
00000210: 1449 3234 7879 892e f4ff 8c2e 7f23 a831
00000220: 00f1 0332 dd50 5135 33ff ca31 fdbd 6231
00000230: d973 bf35 011f 2037 0cdc 2531 f1a9 1737
00000240: 9fbd 8f37 8f3c a735 f8fd eb37 d18f 4f36
00000250: f0d1 7636 ccf4 4837 934d b437 bbbd 4e36
00000260: 7b46 1436 0817 de34 664c 9836 ff99 8936
00000270: d29b ac37 6700 5237 dacc bd37 8755 a937
00000280: 71c6 bb37 ea81 c638 3467 c838 7cef a839
00000290: 6461 b938 d193 b138 67a1 9739 98ab 9739
000002a0: 2446 b737 e7a6 bf39 8e9d 9939 932a 9439
000002b0: f1f2 203a 010e cf39 2349 023a e582 f739
000002c0: 912b 173a 8ebf 3339 3d1f 1b39 f116 0238
000002d0: a701 4039 2af7 3d39 0000 0000 0000 0000
000002e0: 0000 0000 0000 0000 0000 0000 0000 0000
000002f0: 0000 0000 0000 0000 0000 0000 0000 0000
00000300: 0000 0000 0000 0000 0000 0000 0000 0000
00000310: 0000 0000 0000 0000 0000 0000 0000 0000
00000320: 0000 0000 0000 0000 0000 0000 0000 0000
00000330: 0000 0000 0000 0000 0000 0000 0000 0000
00000340: 0000 0000 0000 0000 0000 0000 0000 0000
00000350: 0000 0000 0000 0000 0000 0000 0000 0000
00000360: 0000 0000 0000 0000 0000 0000 0000 0000
00000370: 0000 0000 0000 0000 0000 0000 0000 0000
00000380: 0000 0000 0000 0000 0000 0000 0000 0000
00000390: 0000 0000 0000 0000 0000 0000 0000 0000
000003a0: 0000 0000 0000 0000 a81d e93b 73fb dc3b
000003b0: b7ce dd3b 125a e63b 478d ee3b 3ba8 ff3c
000003c0: 6da4 0d3d f827 903d 571a 033d 3bf8 fb3c
000003d0: 74ab 183d 42d4 183d dcf7 6c3c 0057 6a3d
000003e0: adcf 973d 2514 343d b9ba 843d 9911 a23d
000003f0: 2780 8f3d 527c 923d 757c 963d 5e8e d93c
0.00023993324 0.00024938525 0.00029499145 0.00034336883 0.00035489947 0.00083386427 0.0008878537 0.00192317
0.0007468696 0.0008033563 0.001067936 0.0009324216 0.00033897458 0.0016086127 0.0014308759 0.0011624933
0.0021004614 0.0018924461 0.002125655 0.0017384907 0.0025314526 0.00071317994 0.0005642012 0.00011184714
0.00079455844 0.00077356055 7.958852e-07 9.224458e-08 7.3281524e-07 3.0419147e-07 1.8543399e-07 1.7822799e-06
1.6911929e-06 4.296192e-06 8.098148e-07 7.2427497e-07 8.694946e-06 5.9092304e-06 1.9161716e-06 1.2749695e-05
1.24649505e-05 4.6946575e-06 2.5747919e-05 1.4630862e-05 1.1361519e-05 1.9823648e-05 1.129523e-05 5.541465e-06
4.790668e-06 8.511983e-07 6.4757933e-06 6.3005346e-06 0.0 0.0 2.2216462e-08 0.0
4.9575133e-10 2.287266e-09 1.237331e-09 2.125011e-06 2.0366257e-11 1.5967709e-08 9.24382e-06 3.0692713e-06
0.0 6.3111465e-06 7.406787e-06 2.1352723e-06 6.4054093e-06 1.06979405e-05 5.938898e-06 1.45066615e-05
1.678012e-05 3.2204107e-06 3.2123953e-06 6.46239e-07 3.219971e-06 3.219971e-06 0.0 0.0
0.0 0.0 0.0 0.0 0.0 0.0 0.0 0.0
0.0 0.0 0.0 0.0 0.0 0.0 0.0 0.0
0.0 0.0 0.0 0.0 0.0 0.0 0.0 0.0
0.00093870534 0.0014555899 0.0012508059 0.001668682 0.0012056049 0.0046142256 0.0042412872 0.009026644
0.0045865844 0.0044228053 0.0043899016 0.0043947753 0.001638583 0.0071036774 0.0088554965 0.00448036
0.009423588 0.008524368 0.009187291 0.008722553 0.00916255 0.0031720703 0.0025253948 0.00048816594
0.0035765392 0.0035152426 6.0960924e-11 4.417317e-11 1.6604127e-07 6.251616e-11 6.411929e-11 4.893479e-09
7.680001e-09 7.797624e-07 5.9079865e-09 3.2995324e-09 1.4264325e-06 9.543962e-06 2.4135742e-09 9.039869e-06
1.7135228e-05 1.2460094e-06 2.8132446e-05 3.0929116e-06 3.6779056e-06 1.1977925e-05 2.1493795e-05 3.080683e-06
2.2094744e-06 4.136748e-07 4.538847e-06 4.1008457e-06 2.0576557e-05 1.2517069e-05 2.2625947e-05 2.0186197e-05
2.2384544e-05 9.465574e-05 9.555966e-05 0.00032221887 8.839628e-05 8.467551e-05 0.00028921218 0.00028928812
2.1847962e-05 0.0003655471 0.00029299821 0.0002826048 0.0006139717 0.0003949255 0.00049700047 0.00047209035
0.0005766685 0.0001714213 0.00014793589 3.101578e-05 0.00018311162 0.0001811652 0.0 0.0
0.0 0.0 0.0 0.0 0.0 0.0 0.0 0.0
0.0 0.0 0.0 0.0 0.0 0.0 0.0 0.0
0.0 0.0 0.0 0.0 0.0 0.0 0.0 0.0
0.0 0.0 0.0 0.0 0.0 0.0 0.0 0.0
0.0 0.0 0.0 0.0 0.0 0.0 0.0 0.0
0.0 0.0 0.0 0.0 0.0 0.0 0.0 0.0
0.0 0.0 0.007114131 0.0067438423 0.006769027 0.00702978 0.007280025 0.031208148
0.034580637 0.070388734 0.03200754 0.030758014 0.037272885 0.0373118 0.014463391 0.057211876
0.07412658 0.043964524 0.06480927 0.07913513 0.07006865 0.071526185 0.07347957 0.026557144

exp_avg f4 [128]
00000000: f8d1 b504 3a16 1616 b0d2 8627 0000 0000
00000010: b703 c318 af00 0000 a925 0300 0000 0000
00000020: 0000 0000 96a1 883d 5943 0100 a340 e914
00000030: 5105 0000 0000 0000 a07e 523c 7972 4800
00000040: dd7e 63bc b1a1 dbb9 c602 0000 0000 0000
00000050: 6b65 8e17 aa6d 4a35 b741 0200 452a b9ad
00000060: 1072 7328 4adf 183d 0000 0000 0000 0000
00000070: ffdc 0100 a708 6f03 b267 232e f065 8932
00000080: 5467 2c17 064d 0000 1002 0000 6c9a 903b
00000090: a9bc c22b 6909 8c17 8aee 0100 9ef3 0abe
000000a0: e100 0000 ba6a fc16 3e00 7629 f8dc 2413
000000b0: f604 0000 8600 0000 a477 bc16 49e8 1218
000000c0: 2151 d92f 221c bc3c 5cbd 873c 6801 0000
000000d0: 3400 0000 f6ec 6a2a f92b 0400 c907 0000
000000e0: df47 841f 8560 46bd fb76 f916 7bc9 69ad
000000f0: 6043 8b0b 1500 0000 979d e906 f0f8 f4bd
00000100: eb5e 0500 3706 0000 2400 0000 1c28 1f17
00000110: ec02 46bd 0000 0000 4c33 2534 0af2 0100
00000120: 2dcb 5429 0000 0000 a8ce b43c 0000 0000
00000130: e831 0200 027c 4d2f 81d3 8dbc 6d94 290c
00000140: a11f 0100 f6be f43a a484 10bd 2fb1 0300
00000150: 0000 0000 ca02 0000 b397 08be bcc4 000c
00000160: 8600 0000 8717 1c25 e3aa 161c 758b dfba
00000170: 7c76 2138 0000 0000 4746 eb33 34d8 fb11
00000180: 4700 0000 491c 610c 5fe1 0500 4a00 0000
00000190: c661 0e16 8d00 0000 5062 89bc 6857 251a
000001a0: 0a00 0000 2400 0000 0000 0000 cd46 aa16
000001b0: 2c00 0000 ca2c 9ebd 619a ae29 e49d 3c17
000001c0: 0000 0000 3b06 a70f df2c 0000 46d0 a236
000001d0: fc6c b131 0000 0000 e2bd 3230 15c8 dcbd
000001e0: f987 1311 5d00 0000 7e00 0000 ca1b eaba
000001f0: cd15 3432 1300 0000 b303 9f10 26c3 84bb
4.274572e-36 1.2123917e-25 3.74209e-15 0.0 5.041007e-24 2.45e-43 2.89016e-40 0.0
0.0 0.06671445 1.15995e-40 2.3552482e-26 1.907e-42 0.0 0.012847573 6.653221e-39
-0.013885227 -0.00041891405 9.95e-43 0.0 9.202136e-25 7.5410446e-07 2.07245e-40 -2.1050836e-11
1.3513943e-14 0.03732232 0.0 0.0 1.71114e-40 7.024572e-37 3.715401e-11 1.5995255e-08
5.5706616e-25 2.7631e-41 7.4e-43 0.00441294 1.3836893e-12 9.049663e-25 1.77407e-40 -0.13569495
3.15e-43 4.078015e-25 5.4623183e-14 2.0808656e-27 1.78e-42 1.88e-43 3.0448542e-25 1.8987332e-24
3.9529716e-10 0.022962634 0.016569786 5.04e-43 7.3e-44 2.0865587e-13 3.83116e-40 2.793e-42
5.6023075e-20 -0.048431892 4.0303207e-25 -1.3289254e-11 5.364223e-32 3e-44 8.7876416e-35 -0.119615436
4.93228e-40 2.23e-42 5e-44 5.1426296e-25 -0.04834263 0.0 1.5385484e-07 1.78663e-40
4.7249683e-14 0.0 0.022071198 0.0 2.01574e-40 1.8688698e-10 -0.017312767 1.3063952e-31
1.03182e-40 0.0018672633 -0.035282746 3.39068e-40 0.0 1e-42 -0.13339119 9.919964e-32
1.88e-43 1.3538814e-16 4.9851703e-22 -0.0017055111 3.849574e-05 0.0 1.09558236e-07 3.9734063e-28
1e-43 1.7341881e-31 5.40025e-40 1.04e-43 1.150152e-25 1.98e-43 -0.016770512 3.4191806e-23
1.4e-44 5e-44 0.0 2.7509663e-25 6.2e-44 -0.077233866 7.753933e-14 6.094536e-25
0.0 1.6469871e-29 1.6097e-41 4.8522224e-06 5.163768e-09 0.0 6.502586e-10 -0.1078035
1.1638155e-28 1.3e-43 1.77e-43 -0.0017861065 1.0482336e-08 2.7e-44 6.272014e-29 -0.004051584

exp_avg_sq f4 [128]
00000000: a525 573b 0945 da37 ae16 5837 0000 0000
00000010: 1286 6d3c 55c2 9a37 2290 433a 0000 0000
00000020: 0000 0000 471f ef3d ab52 013a 4b70 2f39
00000030: 1a26 b837 0000 0000 1ee8 883e ed52 9930
00000040: 2620 cd3c 46e9 d43c c7bf 8638 0000 0000
00000050: 46d7 1138 dbd0 d83a e3e1 ab36 eba4 493b
00000060: 389c af37 57b9 833d 0000 0000 0000 0000
00000070: 02d6 0c3a bca5 8f39 6c4a 4a3d efce 073b
00000080: 192c 123d eed2 9139 df06 9a38 8052 2e3d
00000090: 0285 203c e3b6 d637 99dc d339 92a3 143e
000000a0: 520e bb37 aabd 613d 5b4c cd3c 4b4e 1a3b
000000b0: 1949 0f39 eed4 7135 6753 8d3c be54 ab39
000000c0: 46bf b93a 1512 c63d e945 913d b643 da36
000000d0: 34f5 9835 cea1 8739 b986 7d3a 98dc a135
000000e0: 71c9 1e36 e789 893e 9dbc 3f3d da66 6938
000000f0: e436 a039 47c3 8632 8878 f839 df25 093f
00000100: 1578 bc3a dd2a 0539 960e 7e36 805f d73d
00000110: 2031 6b3e 0000 0000 4b9a bd3b 680d 403a
00000120: 65c6 443c 0000 0000 52d9 8b3e 0000 0000
00000130: 533b 2e3a a121 0839 5649 023e b00b 4a39
00000140: f3f3 623a 476d 2f3d b2d8 7a3e 1176 ec3a
00000150: 0000 0000 c377 7a38 b2b1 1a3f 8798 623b
00000160: d5e5 7e36 be95 e237 163e 683a 5a45 803c
00000170: 040e cf3c 0000 0000 52da 443b ca2f 773c
00000180: 6d76 7236 00a2 7e3c 9ed3 0038 96d4 b336
00000190: 1a7b 0c3c 7796 fd37 992f 9a3e 36e7 033a
000001a0: abf3 0d34 6743 1935 0000 0000 a19d 383d
000001b0: fa4c 8135 8a93 473d cc48 623a 4d28 253d
000001c0: 0000 0000 0707 be38 74c4 7239 b1a3 0b3b
000001d0: f889 753c 0000 0000 09e7 0937 b229 243e
000001e0: 1a9a 0b38 b2ad 8936 8624 0d37 42e5 c53c
000001f0: 1abf 8939 4d44 1a35 cf51 b83a affb 2a3d
0.0032828834 2.6019772e-05 1.2879884e-05 0.0 0.014497297 1.8448723e-05 0.0007460137 0.0
0.0 0.116758876 0.0004933278 0.00016731133 2.1952252e-05 0.0 0.2673959 1.1155784e-09
0.025039744 0.02599014 6.425339e-05 0.0 3.4771183e-05 0.0016541736 5.122494e-06 0.0030768465
2.093437e-05 0.06431835 0.0 0.0 0.0005372466 0.00027398567 0.04938738 0.0020722707
0.035686586 0.0002781371 7.344572e-05 0.042559147 0.0097973365 2.5595951e-05 0.00040409414 0.14515522
2.2298806e-05 0.05511252 0.025060823 0.0023545201 0.00013664774 9.008935e-07 0.017251683 0.000326788
0.0014171384 0.096714176 0.070934124 6.504789e-06 1.1396246e-06 0.0002586976 0.00096712593 1.2059636e-06
2.366109e-06 0.26863024 0.046810735 5.5647317e-05 0.00030558475 1.5688455e-08 0.0004739205 0.5357341
0.0014379049 0.00012699836 3.785744e-06 0.10516262 0.22967958 0.0 0.0057862154 0.00073262164
0.012010192 0.0 0.2731424 0.0 0.0006646413 0.00012982498 0.12723288 0.00019268575
0.0008657567 0.042828824 0.24496725 0.0018040558 0.0 5.971618e-05 0.6042739 0.0034575777
3.798273e-06 2.7011029e-05 0.0008859349 0.01565807 0.025275238 0.0 0.0030037356 0.015087077
3.6129743e-06 0.0155415535 3.0714662e-05 5.359364e-06 0.008574272 3.0230016e-05 0.3011444 0.00050317065
1.3220294e-07 5.7095025e-07 0.0 0.0450722 9.633652e-07 0.04872469 0.00086320634 0.040321637
0.0 9.061215e-05 0.00023152103 0.0021307284 0.014986508 0.0 8.219628e-06 0.1603153
3.32837e-05 4.103139e-06 8.412759e-06 0.02415717 0.00026273058 5.746886e-07 0.0014062467 0.04174393

exp_avg f4 [128, 128]
00000000: ed99 3180 0000 0000 0000 0000 0000 0000
00000010: dafd 1901 0000 0000 0000 0000 0000 0000
00000020: 0000 0000 d217 0080 0000 0000 0000 0000
00000030: 0000 0000 0000 0000 79b6 d201 0000 0000
00000040: b4f1 c901 8f8c 1600 0000 0000 0000 0000
00000050: 0000 0000 5500 0000 0000 0000 ca82 0580
00000060: 0000 0000 cba9 ba01 0000 0000 0000 0000
00000070: 0000 0000 0000 0000 6d48 3900 9599 1a00
00000080: 4158 0600 0000 0000 0000 0000 0712 d801
00000090: 986d f800 0000 0000 0000 0000 50d4 9d01
000000a0: 0000 0000 c4cb ac01 bca3 9901 49c9 0080
000000b0: 0000 0000 0000 0000 8464 3900 0000 0000
000000c0: 8c06 0080 785b b001 0000 0000 0000 0000
000000d0: 0000 0000 0000 0000 0000 0000 0000 0000
000000e0: 0000 0000 365b ee01 00f1 8301 0000 0000
000000f0: 6ff7 0180 0000 0000 0e1b 0080 788b ae01
00000100: 0000 0000 0000 0000 0000 0000 fbd4 cc01
00000110: 8415 a101 0000 0000 9ddc d200 0000 0000
00000120: 1ed5 1901 0000 0000 14d5 b601 0000 0000
00000130: 0000 0000 0000 0000 20e9 1802 3003 0080
00000140: 0000 0000 5d9b ba01 5992 2502 0000 0000
00000150: 0000 0000 0000 0000 a429 c001 1a00 0080
00000160: 0000 0000 0000 0000 0000 0000 001e 4901
00000170: e854 9801 0000 0000 d97e 0880 77c8 9e01
00000180: 0000 0000 2a6f 9201 48f5 0000 0000 0000
00000190: 227c 0780 0000 0000 8f8d 0102 0000 0000
000001a0: 0000 0000 0000 0000 0000 0000 234f bc01
000001b0: 0000 0000 3729 8001 1c0a 0000 0036 3301
000001c0: 0000 0000 0000 0000 0000 0000 0000 0000
000001d0: cbe3 0300 0000 0000 0000 0000 0ed8 6801
000001e0: 0000 0000 0000 0000 0000 0000 5165 8101
000001f0: 9fcc 0100 0000 0000 460c 0000 a9ea 0000
00000200: 0000 0000 0000 0000 0000 0000 0000 0000
00000210: 0000 0000 0000 0000 0000 0000 0000 0000
00000220: 0000 0000 0000 0000 0000 0000 0000 0000
00000230: 0000 0000 0000 0000 0000 0000 0000 0000
00000240: 0000 0000 0000 0000 0000 0000 0000 0000
00000250: 0000 0000 0000 0000 0000 0000 0000 0000
00000260: 0000 0000 0000 0000 0000 0000 0000 0000
00000270: 0000 0000 0000 0000 0000 0000 0000 0000
00000280: 0000 0000 0000 0000 0000 0000 0000 0000
00000290: 0000 0000 0000 0000 0000 0000 0000 0000
000002a0: 0000 0000 0000 0000 0000 0000 0000 0000
000002b0: 0000 0000 0000 0000 0000 0000 0000 0000
000002c0: 0000 0000 0000 0000 0000 0000 0000 0000
000002d0: 0000 0000 0000 0000 0000 0000 0000 0000
000002e0: 0000 0000 0000 0000 0000 0000 0000 0000
000002f0: 0000 0000 0000 0000 0000 0000 0000 0000
00000300: 0000 0000 0000 0000 0000 0000 0000 0000
00000310: 0000 0000 0000 0000 0000 0000 0000 0000
00000320: 0000 0000 0000 0000 0000 0000 0000 0000
00000330: 0000 0000 0000 0000 0000 0000 0000 0000
00000340: 0000 0000 0000 0000 0000 0000 0000 0000
00000350: 0000 0000 0000 0000 0000 0000 0000 0000
00000360: 0000 0000 0000 0000 0000 0000 0000 0000
00000370: 0000 0000 0000 0000 0000 0000 0000 0000
00000380: 0000 0000 0000 0000 0000 0000 0000 0000
00000390: 0000 0000 0000 0000 0000 0000 0000 0000
000003a0: 0000 0000 0000 0000 0000 0000 0000 0000
000003b0: 0000 0000 0000 0000 0000 0000 0000 0000
000003c0: 0000 0000 0000 0000 0000 0000 0000 0000
000003d0: 0000 0000 0000 0000 0000 0000 0000 0000
000003e0: 0000 0000 0000 0000 0000 0000 0000 0000
000003f0: 0000 0000 0000 0000 0000 0000 0000 0000
-4.555157e-39 0.0 0.0 0.0 2.828379e-38 0.0 0.0 0.0
0.0 -8.545e-42 0.0 0.0 0.0 0.0 7.740365e-38 0.0
7.4182566e-38 2.070804e-39 0.0 0.0 0.0 1.19e-43 0.0 -5.06096e-40
0.0 6.856925e-38 0.0 0.0 0.0 0.0 5.260605e-39 2.442818e-39
5.82673e-40 0.0 0.0 7.9371737e-38 2.2814518e-38 0.0 0.0 5.7977345e-38
0.0 6.347521e-38 5.643827e-38 -7.2208e-41 0.0 0.0 5.270681e-39 0.0
-2.349e-42 6.478344e-38 0.0 0.0 0.0 0.0 0.0 0.0
0.0 8.7558274e-38 4.846762e-38 0.0 -1.80598e-40 0.0 -9.705e-42 6.4117633e-38
0.0 0.0 0.0 7.5243377e-38 5.9172933e-38 0.0 1.9364595e-38 0.0
2.8254566e-38 0.0 6.7161993e-38 0.0 0.0 0.0 1.12341e-37 -1.143e-42
0.0 6.8548545e-38 1.2164285e-37 0.0 0.0 0.0 7.058941e-38 -3.6e-44
0.0 0.0 0.0 3.6939393e-38 5.5957816e-38 0.0 -7.80188e-40 5.8327687e-38
0.0 5.379144e-38 8.799e-41 0.0 -6.87379e-40 0.0 9.518049e-38 0.0
0.0 0.0 0.0 6.917385e-38 0.0 4.7078914e-38 3.627e-42 3.291585e-38
0.0 0.0 0.0 0.0 3.57223e-40 0.0 0.0 4.2766682e-38
0.0 0.0 0.0 4.75325e-38 1.6524e-40 0.0 4.403e-42 8.418e-41
0.0 0.0 0.0 0.0 0.0 0.0 0.0 0.0
0.0 0.0 0.0 0.0 0.0 0.0 0.0 0.0
0.0 0.0 0.0 0.0 0.0 0.0 0.0 0.0
0.0 0.0 0.0 0.0 0.0 0.0 0.0 0.0
0.0 0.0 0.0 0.0 0.0 0.0 0.0 0.0
0.0 0.0 0.0 0.0 0.0 0.0 0.0 0.0
0.0 0.0 0.0 0.0 0.0 0.0 0.0 0.0
0.0 0.0 0.0 0.0 0.0 0.0 0.0 0.0
0.0 0.0 0.0 0.0 0.0 0.0 0.0 0.0
0.0 0.0 0.0 0.0 0.0 0.0 0.0 0.0
0.0 0.0 0.0 0.0 0.0 0.0 0.0 0.0
0.0 0.0 0.0 0.0 0.0 0.0 0.0 0.0
0.0 0.0 0.0 0.0 0.0 0.0 0.0 0.0
0.0 0.0 0.0 0.0 0.0 0.0 0.0 0.0
0.0 0.0 0.0 0.0 0.0 0.0 0.0 0.0
0.0 0.0 0.0 0.0 0.0 0.0 0.0 0.0
