models/reinforce/reinforce_small/checkpoint_ep200.pth (torch, 84490 bytes, 18 tensors)

network.0.weight f4 [64, 26]
0	0xbc9b3c9d	-0.018949801
1	0xbd4c2643	-0.049841177
2	0x3da1e04b	0.079041086
3	0x3e3314b0	0.1748836
4	0xbd94f356	-0.07272975
5	0xbe324984	-0.17410856
6	0x3b88e1bf	0.0041773017
7	0x3e21807b	0.15771668
8	0x3e133b5d	0.14378114
9	0xbd6bb2b2	-0.057543464
10	0x3e4a47a4	0.19753891
11	0xbd1ace43	-0.037794363
12	0xbd11759d	-0.035512555
13	0x3e47ab98	0.19499052
14	0xbdb17939	-0.086656995
15	0x3d5f62f2	0.05453772
16	0xbd56118b	-0.052262824
17	0xbd62c0e0	-0.05535972
18	0xbd868503	-0.06568339
19	0xbd460c48	-0.048351556
20	0x3d9ae171	0.07562531
21	0x3e509316	0.20368609
22	0x3e2b77ef	0.1674497
23	0x3e79bfd0	0.24389577
24	0x3d0815aa	0.033223785
25	0x3e1e331f	0.15449189
26	0x3d01a9e8	0.031656176
27	0xbe3414fc	-0.1758613
28	0x3dfe3176	0.12411778
29	0x3e32b85f	0.17453144
30	0xbe31e7e4	-0.17373616
31	0xbe169dea	-0.14708677
32	0xbdd84857	-0.10560673
33	0x3c405f80	0.011741519
34	0xbbcafb60	-0.006194517
35	0x3ce6dd50	0.028181702
36	0xbe0f0650	-0.13967252
37	0x3d44ae44	0.048017755
38	0x3daaed5e	0.083460554
39	0x3d13476c	0.035956785
40	0x3c29aa20	0.010355502
41	0xbe36c11a	-0.178471
42	0xbe2d52aa	-0.16926065
43	0x3ceaeee0	0.028678358
44	0x3cc390b8	0.023872718
45	0xbe30fad0	-0.17283177
46	0x3cace2a8	0.021104172
47	0x3c33d630	0.010976359
48	0xbdb278e5	-0.08714465
49	0x3d3e28bc	0.046425566
50	0xbd1e574c	-0.03865747
51	0x3d2fff04	0.04296781
52	0xbc09ac50	-0.008402899
53	0x3e27580b	0.1634218
54	0x3d814546	0.06312041
55	0xbdf07cf3	-0.11742582
56	0xbe2fa585	-0.17152984
57	0xbd866424	-0.06562069
58	0x3e189ce3	0.14903598
59	0xbd99852f	-0.07496106
60	0x3e42244b	0.18959157
61	0x3e111105	0.14166649
62	0x3dc4e18a	0.09613331
63	0x3c25e7b0	0.010126039
64	0xbe4213fa	-0.18952933
65	0xbd577e00	-0.052610397
66	0x3d093674	0.033499196
67	0xbdc44134	-0.09582749
68	0xbdf52f37	-0.11971896
69	0xbdfa9bc4	-0.12236741
70	0xbd9abf88	-0.07556063
71	0xbd2c7338	-0.04210207
72	0x3b055580	0.0020345151
73	0xbd09a550	-0.03360492
74	0xbe2bb1a4	-0.16766983
75	0xbb8f1a20	-0.004367128
76	0xbde588e4	-0.112077504
77	0xbe3d2046	-0.18469343
78	0x3d97d3a2	0.07413413
79	0xbe48c95f	-0.19608067
80	0xbe24770d	-0.1606104
81	0x3c245070	0.010028943
82	0xbda39c4d	-0.079887964
83	0x3b288a00	0.002571702
84	0xbd9556a9	-0.0729192
85	0xbdae7ad6	-0.08519523
86	0x3e0fdc0f	0.1404879
87	0xbe40c9a4	-0.1882692
88	0x3de6dfda	0.11273165
89	0xbd98dc2b	-0.07463869
90	0x3e2487f3	0.16067486
91	0xbe144fa8	-0.14483511
92	0x3d918176	0.07104771
93	0x3c9d1790	0.019176275
94	0x3d2de5a8	0.042455345
95	0xbdf7b3c9	-0.12094838
96	0x3ce3af78	0.027793631
97	0xbc108440	-0.008820593
98	0xbe180837	-0.14846884
99	0xbdb406a4	-0.08790329
100	0x3e014cd5	0.12626965
101	0x3b364dc0	0.0027817339
102	0xbd982b62	-0.074301496
103	0xbe44a9f4	-0.19205457
104	0xbd5f10a0	-0.054459214
105	0xbc9637ed	-0.018337214
106	0xbe24b5a0	-0.1608491
107	0xbe045c2b	-0.12925784
108	0x3d77c449	0.060489926
109	0xbe2690db	-0.16266195
110	0x3d9561eb	0.07294067
111	0x3d5ad3fc	0.05342482
112	0x3e6275f4	0.22115308
113	0x3dd8ae5d	0.10580132
114	0x3e5dce47	0.2166072
115	0x3e18bd44	0.14915949
116	0xbda51a3d	-0.08061645
117	0x3e617725	0.22018106
118	0xbd361c7c	-0.04446076
119	0x3e167ca8	0.1469599
120	0x3e512139	0.2042283
121	0xbd925fad	-0.07147155
122	0x3ddf0877	0.108902864
123	0xbd989b3e	-0.07451485
124	0x3d928848	0.071549
125	0x3cc4b5dd	0.0240125
126	0x3dc5017e	0.09619425
127	0x3d1f0086	0.03881886
128	0x3e24f723	0.161099
129	0x3c9f7f6a	0.019469935
130	0x3dc78676	0.09742443
131	0x3e1a55c8	0.15071785
132	0xbd7b76c8	-0.061392576
133	0x3da3ef73	0.08004656
134	0xbcb23b7f	-0.021756886
135	0x3caff611	0.021479638
136	0x3cb5de1d	0.022200638
137	0x3c803c48	0.015653744
138	0x3e0d93ae	0.13825867
139	0x3d1e7eb6	0.03869506
140	0x3d7a3001	0.061080936
141	0xbdc0986a	-0.09404071
142	0x3df37fd8	0.11889619
143	0xbe22051d	-0.15822263
144	0xbd818c0a	-0.063255385
145	0x3d8df660	0.06931758
146	0x3e282e13	0.16423826
147	0x3da0d3f9	0.078529306
148	0x3df28c69	0.11843187
149	0x3d8ad891	0.06779588
150	0xbddcc587	-0.10779863
151	0x3e121a2e	0.142678
152	0xbe0cc97d	-0.13748737
153	0xbd63ad22	-0.055585034
154	0x3e07992f	0.13242029
155	0xbd7d6000	-0.06185913
156	0xbdf654ba	-0.12027879
157	0xbd269eac	-0.040678665
158	0xbbd477d4	-0.006484011
159	0x3e32f40d	0.1747591
160	0x3da863ff	0.08222198
161	0x3e064025	0.13110407
162	0x3e4795a9	0.19490685
163	0x3c3c8368	0.011505939
164	0xbcc3ab1c	-0.023885302
165	0xbe0668ac	-0.13125867
166	0x3dcb9737	0.09940951
167	0x3a54c433	0.0008116394
168	0x3e2604c1	0.16212751
169	0xbcd84926	-0.026402067
170	0x3e159ec1	0.14611341
171	0xbdef0c4b	-0.116722666
172	0x3e13315d	0.143743
173	0x3d45529e	0.048174493
174	0x3db24663	0.087048315
175	0xbdd3bd25	-0.10338811
176	0xbdebfa98	-0.11522406
177	0xbcc08f19	-0.023505734
178	0xbcddb26a	-0.027062614
179	0xbd0fe0ee	-0.03512662
180	0x3cbd5294	0.023110665
181	0xbe0eb2a7	-0.13935338
182	0xbd44b1d8	-0.048021168
183	0x3ded8720	0.11598039
184	0x3d479b95	0.04873236
185	0xbdbe93d3	-0.09305539
186	0x3d8b9bbb	0.068168126
187	0xbdb4b008	-0.08822638
188	0x3db87066	0.09005813
189	0xbcac2963	-0.021015828
190	0xbe3894d4	-0.18025523
191	0x3e12d029	0.1433722
192	0xbdc3932a	-0.09549554
193	0xbd82e164	-0.06390646
194	0x3e48e2f6	0.19617829
195	0xbd5d644f	-0.05405074
196	0xbd3cef5a	-0.0461267
197	0x3d028729	0.03186718
198	0xbe23691d	-0.15958066
199	0x3e21010a	0.15723053
200	0x3e068552	0.13136795
201	0x3bf38098	0.007431101
202	0x3dac6c2f	0.08419072
203	0xbdb51119	-0.08841152
204	0x3dba4c99	0.09096641
205	0xbd8da26c	-0.06915745
206	0xbdb62d5e	-0.08895372
207	0x3cb7d83f	0.022441981
208	0x3e537c34	0.20652848
209	0xbd2bc9df	-0.041940566
210	0x3dd734e6	0.105081365
211	0xbc53a79a	-0.012918377
212	0x3d85cf68	0.065337
213	0x3e563686	0.20919237
214	0x3d0798d2	0.033104725
215	0xbda20df9	-0.07912821
216	0xbe21104d	-0.15728875
217	0x3dc76ae2	0.09737183
218	0xbd8becca	-0.06832273
219	0x3e5dbdc2	0.21654418
220	0x3e2a1b0e	0.16611883
221	0xbd32b3ff	-0.04362869
222	0x3e16f574	0.1474207
223	0x3e62689a	0.22110215
224	0x3dc88176	0.09790318
225	0x3d2043a6	0.039127015
226	0x3daf5d98	0.085627735
227	0x3e60c0de	0.21948573
228	0x3d5ee038	0.05441305
229	0xbdf87621	-0.12131906
230	0x3e3306b3	0.17483024
231	0x3e481fca	0.19543377
232	0xbe1a9061	-0.15094139
233	0x3d4a1667	0.04933777
234	0xbde00612	-0.10938658
235	0x3db27f42	0.08715679
236	0x3d97959e	0.07401584
237	0x3e0bd9d5	0.13657315
238	0x3dd2b1ea	0.10287841
239	0x3d9e7b62	0.07738377
240	0xbd2cd214	-0.042192534
241	0x3dd2f37e	0.10300349
242	0xbd810c08	-0.06301123
243	0x3de0fb1a	0.10985394
244	0xbdd477e4	-0.1037443
245	0xbddfa1a5	-0.10919503
246	0x3dba20e6	0.09088306
247	0xbdfc9988	-0.12333971
248	0xbe1b87e8	-0.15188563
249	0xbe3d5c24	-0.1849218
250	0x3e04f455	0.1298383
251	0xbd30eba8	-0.04319349
252	0xbe288a89	-0.16459097
253	0xbcc66b80	-0.024221182
254	0x3caab9e8	0.0208406
255	0xbdf3e29a	-0.11908455

network.0.bias f4 [64]
0	0x3e143942	0.14474967
1	0x3b6933c0	0.0035583824
2	0x3d2b3588	0.0417991
3	0xbdf9196b	-0.12163051
4	0x3d9267a4	0.07148674
5	0xbc1988b0	-0.009370968
6	0x3e20dee2	0.15710023
7	0xbe4209db	-0.18949072
8	0x3d75dade	0.06002318
9	0xbdf21ab4	-0.118214995
10	0xbded307f	-0.115815155
11	0xbafce768	-0.0019295039
12	0xbdc8dcc0	-0.0980773
13	0xbca6c863	-0.020359224
14	0x3ab7cc1f	0.0014022625
15	0x3e117bd5	0.14207394
16	0xbd45e6ec	-0.048315927
17	0x3d13a6c4	0.036047712
18	0x3c5f134b	0.01361544
19	0xbd53e250	-0.0517295
20	0xbddc6e4a	-0.107632235
21	0x3d83cfd9	0.06436128
22	0x3ddb5a1e	0.10710548
23	0x3d530e38	0.051527232
24	0x3d08afb1	0.033370677
25	0x3db38f40	0.08767557
26	0xbd849caa	-0.06475194
27	0xbe0f24dd	-0.13978906
28	0x3e4352a2	0.1907449
29	0xbc61e320	-0.013787061
30	0x3e006490	0.12538362
31	0x3cf01f73	0.029311871
32	0x3e2967c9	0.16543497
33	0x3df047a1	0.11732412
34	0xbde8b2f0	-0.113622546
35	0xbcf9a336	-0.030473333
36	0xbdaae0b9	-0.08343644
37	0xbe27734e	-0.16352579
38	0xbe151ad1	-0.14561011
39	0x3e4e72a2	0.20160916
40	0x3e72f35e	0.2372565
41	0xbe47b863	-0.19503932
42	0x3db6a432	0.089180365
43	0x3e05f1ef	0.13080572
44	0x3e5cc609	0.2155992
45	0xbe2e3ee8	-0.17016184
46	0x3e0a8a9a	0.13529435
47	0x3d0ccd94	0.034375742
48	0x3e22134a	0.1582767
49	0xbdd40809	-0.10353095
50	0x3d485fad	0.04891937
51	0x3e3b55d5	0.18294461
52	0xbe0ff141	-0.14056875
53	0xbe188ef1	-0.14898278
54	0xbdb3a718	-0.08772105
55	0xbe07a5b3	-0.13246803
56	0x3d9adf1b	0.07562085
57	0x3e2961e4	0.16541249
58	0x3cb4f5dd	0.022089893
59	0x3d24220c	0.040071532
60	0x3e3604cf	0.17775272
61	0x3da856b3	0.082196616
62	0x3d930450	0.07178557
63	0xbd649131	-0.055802528

network.2.weight f4 [64, 64]
0	0x3b31b62f	0.0027116647
1	0xbc9db800	-0.019252777
2	0x3dd29c0e	0.10283671
3	0xbdf4fcf6	-0.11962311
4	0xbd18acff	-0.037274357
5	0xbdd85539	-0.1056313
6	0xbd8552c3	-0.06509926
7	0x3dba3528	0.0909217
8	0xbd5707c2	-0.052497633
9	0xbdff3698	-0.12461585
10	0x3c27df40	0.010246098
11	0xbd144e15	-0.036207277
12	0x3df71372	0.12064256
13	0xbd1367a8	-0.035987526
14	0xbd0d81f1	-0.03454775
15	0xbd3103ac	-0.043216392
16	0xbd1b1388	-0.037860423
17	0x3d2ad560	0.041707397
18	0xbdab76e8	-0.08372289
19	0xbd9a9bd4	-0.07549253
20	0x3dbde7b6	0.09272711
21	0xbbbf804d	-0.005844152
22	0x3b625233	0.0034533858
23	0x3dfbaaac	0.122884125
24	0x3dda5646	0.106609866
25	0x3bf7ae0a	0.007558589
26	0xbd05ec08	-0.0326958
27	0xbcd3d638	-0.025858983
28	0x3db7c60d	0.08973322
29	0x3d038e14	0.032117918
30	0xbc7d3988	-0.015455611
31	0x3d6fdc1c	0.058559522
32	0xbc0c5c70	-0.008566961
33	0x3d654ac0	0.05597949
34	0xbd829f90	-0.063780904
35	0x3dbb5131	0.091463454
36	0xbdb9f9f6	-0.090808794
37	0xbdb5b3d4	-0.0887219
38	0xbd9668c6	-0.07344203
39	0xbda1193f	-0.078661434
40	0x3d5c742d	0.05382173
41	0x3d346e1c	0.04405032
42	0xbdf920c4	-0.12164453
43	0xbdb43e46	-0.0880094
44	0xbd5fd21b	-0.05464373
45	0xbd9f7b21	-0.07787157
46	0xbdb9bb43	-0.090689205
47	0x3ceeba70	0.029141635
48	0x3cc609b0	0.024174541
49	0x3dd3151a	0.10306759
50	0xbc0956f3	-0.008382547
51	0xbd8ae4c6	-0.06781916
52	0xbd5a5414	-0.05330284
53	0x3d84f003	0.06491091
54	0x3d4a8d7d	0.04945134
55	0x3d4dea54	0.0502723
56	0xbd7c2914	-0.061562613
57	0x3d5cb5a0	0.05388415
58	0xbda41150	-0.080111146
59	0x3be35b40	0.006938368
60	0xbd6a4d84	-0.05720283
61	0x3c7fd320	0.015614301
62	0xbbf7f170	-0.0075666234
63	0x3c11fbd0	0.008910134
64	0xbcd91b37	-0.026502235
65	0x3c4cf3c0	0.012509286
66	0x3d864b76	0.06557362
67	0xbd718110	-0.058960974
68	0x3d1eeed5	0.038801987
69	0x3db230a5	0.087006845
70	0xbd6c362e	-0.057668857
71	0x3d1b87d6	0.03797134
72	0x3e12903b	0.14312832
73	0xbcbb8200	-0.022889137
74	0xbd623fd0	-0.055236638
75	0x3ddb4f1e	0.1070845
76	0x3db5fb14	0.0888578
77	0x3d6c6eb2	0.057722755
78	0x3d855dcb	0.0651203
79	0x3bcfcb56	0.006341378
80	0x3d46e1fc	0.04855536
81	0xbc850198	-0.016236112
82	0x3de8c2c2	0.11365272
83	0x3ca58576	0.02020524
84	0x3dabbf18	0.083860576
85	0xbd6fa444	-0.058506265
86	0x3dc66bbf	0.0968852
87	0x3dcc2724	0.09968403
88	0x3d0b48ee	0.034005098
89	0xbdee6e95	-0.116421856
90	0x3de67f1c	0.11254713
91	0x3d8f1bf6	0.06987755
92	0x3d05cf65	0.03266849
93	0xbdd0fbd6	-0.10204284
94	0xbd760bd1	-0.060069863
95	0x3e0ca69c	0.13735431
96	0x3b7433c0	0.003726229
97	0x3e16d923	0.14731269
98	0x3b2e6f40	0.0026616603
99	0x3e0da748	0.13833344
100	0x3d8b1b56	0.06792323
101	0xbd8c9564	-0.068644315
102	0xbd87404e	-0.06604062
103	0x3d92c078	0.07165617
104	0x3de58a84	0.112080604
105	0xbe00fcff	-0.1259651
106	0xbd1f493c	-0.0388882
107	0xbda6b073	-0.08139124
108	0x3d82c0f6	0.06384461
109	0x3d9262b8	0.07147735
110	0x3d931843	0.07182362
111	0x3dec5a0e	0.11540614
112	0xbdbd9e41	-0.092587
113	0x3d3ff3d7	0.046863403
114	0x3dcae7be	0.099074826
115	0x3d3e6930	0.046487033
116	0x3d712140	0.0588696
117	0x3c727077	0.0147973215
118	0xbd1156ab	-0.035483044
119	0xbcec5118	-0.028847262
120	0xbded8fcd	-0.115996934
121	0xbd89a42f	-0.06720769
122	0xbcf65662	-0.030070487
123	0xbdce040c	-0.10059366
124	0xbd741fce	-0.059600644
125	0xbd4accd8	-0.04951176
126	0x3be3ab4f	0.006947912
127	0xbcc44363	-0.023957914
128	0xbc0c7330	-0.008572385
129	0xbde4a220	-0.111637354
130	0x3d9669e8	0.07344419
131	0x3ca940e8	0.020660833
132	0xbdb32b6a	-0.08748515
133	0xbdcbe5b6	-0.09955923
134	0xbde14e6a	-0.110012844
135	0x3d7a1fa4	0.06106533
136	0xbdfd01ba	-0.12353845
137	0x3dd46ae0	0.10371947
138	0x39dc2200	0.00041987002
139	0x3d914f44	0.07095197
140	0x3da49280	0.08035755
141	0xbdc5bf56	-0.09655635
142	0xbccbbbe8	-0.024869874
143	0x3d8dad14	0.06917778
144	0xbd08aed0	-0.03336984
145	0x3dd3e8d0	0.1034714
146	0x3d48e800	0.049049377
147	0x3d91b41e	0.07114433
148	0x3ccc09a8	0.024906948
149	0x3ccb53d8	0.024820253
150	0x3bf01160	0.00732629
151	0x3dba62ea	0.091008976
152	0x3dbc857e	0.09205149
153	0x3daac124	0.0833762
154	0xbcccb500	-0.024988651
155	0xbc8cb748	-0.017177239
156	0xbdad068e	-0.08448516
157	0xbd23b274	-0.039965108
158	0xbdba2e7e	-0.09090899
159	0x3db8a798	0.09016341
160	0xbdc54432	-0.09632148
161	0xbd1e1df0	-0.03860277
162	0xbdf4b44c	-0.119484514
163	0xbc923e68	-0.017852023
164	0x3df593ca	0.11991079
165	0xbd93d024	-0.07217434
166	0xbdae02a6	-0.08496599
167	0x3d97a694	0.07404819
168	0xbd2ef98c	-0.042718455
169	0x3d921c66	0.07134323
170	0xbdceb89c	-0.10093805
171	0xbdae54ec	-0.08512291
172	0xbd848ffc	-0.06472775
173	0xbdfe1d3c	-0.1240792
174	0xbdb2678a	-0.08711155
175	0x3d9c4bde	0.07631658
176	0x3df4e218	0.119571865
177	0x3c6c4900	0.014421701
178	0xbd966882	-0.07344152
179	0xbddaa726	-0.10676412
180	0x3df243ba	0.11829324
181	0xbdd8b6f8	-0.105817735
182	0xbcc8e7b8	-0.024524555
183	0x3dff472a	0.12464745
184	0xbd11e160	-0.035615325
185	0xbdc3c38a	-0.095587805
186	0xbdead342	-0.114660755
187	0xbd656910	-0.0560084
188	0xbdbb475a	-0.091444686
189	0xbdc40f4e	-0.09573232
190	0xbc2ece60	-0.010669321
191	0x3dfae270	0.12250221
192	0x3e008dfb	0.12554161
193	0x3df1f372	0.11814012
194	0x3d751640	0.059835672
195	0x3d8d7502	0.06907083
196	0xbde49ad3	-0.11162343
197	0xbb189c92	-0.0023286683
198	0xbcc99c8a	-0.024610776
199	0x3dc2ee59	0.095181175
200	0xbd2ffc62	-0.0429653
201	0x3da99a10	0.08281338
202	0x3c5bb4e0	0.013409823
203	0x3d9444b1	0.07239664
204	0xbd6b3adf	-0.05742919
205	0xbd87efbb	-0.06637522
206	0xbdc84101	-0.097780235
207	0xbdf83b89	-0.121207304
208	0x3d851b0e	0.06499301
209	0x3df7c0d6	0.120973274
210	0xbbb3a675	-0.0054824897
211	0x3e029368	0.12751544
212	0x3ddb493b	0.10707327
213	0x3d6ae1f3	0.05734439
214	0xbd2b1e4d	-0.041776944
215	0x3dd9c627	0.10633498
216	0x3df0de30	0.11761129
217	0xbdc85304	-0.09781459
218	0xbd9bbbc8	-0.07604176
219	0x3dc48a8a	0.09596737
220	0xbd21e7f9	-0.039527867
221	0x3cffb388	0.031213537
222	0xbc7d058a	-0.015443215
223	0x3dda0d4a	0.10647066
224	0x3d643c88	0.05572179
225	0x3df89930	0.12138593
226	0xbdbd2670	-0.09235847
227	0x3e09a932	0.13443449
228	0x3dc211de	0.09476064
229	0xbdf23329	-0.11826164
230	0x3d98a60a	0.074535444
231	0x3db46c00	0.08809662
232	0x3e0f7c25	0.14012201
233	0x3d9c0298	0.07617682
234	0xbd1100f4	-0.0354013
235	0xbda1fd13	-0.07909598
236	0x3df8e180	0.12152386
237	0xbddd7854	-0.108139664
238	0xbd96de1b	-0.07366582
239	0x3ccf40b0	0.0252994
240	0xbd7a364e	-0.061086945
241	0x3e0b2d5e	0.13591525
242	0x3d84a1ce	0.06476174
243	0xbd6d0ce0	-0.057873607
244	0x3c4de8f0	0.012567744
245	0x3da01ddd	0.07818196
246	0x3db44821	0.0880282
247	0xbd1e389b	-0.038628202
248	0xbd01e7c4	-0.03171517
249	0x3d1ac4d2	0.03778536
250	0x3e02dbe7	0.12779199
251	0xbd7429e8	-0.059610277
252	0xbb88567c	-0.0041607004
253	0x3d9108bb	0.07081743
254	0x3de8dce0	0.113702536
255	0xbd35a0d6	-0.04434284

network.2.bias f4 [64]
0	0xbdd2f5f3	-0.10300817
1	0x3d12c909	0.035836253
2	0xbdc61ccc	-0.09673461
3	0x3de30bca	0.11086233
4	0x3d6f252c	0.05838506
5	0x3e102019	0.14074744
6	0x3d4a7f61	0.049437884
7	0x3db02704	0.08601192
8	0xbacbd568	-0.0015551271
9	0xbc1f94a3	-0.009740028
10	0x3e040f07	0.12896357
11	0xbd738699	-0.059454534
12	0xba7c0756	-0.000961413
13	0x3d06dc03	0.032924663
14	0xbdca67fc	-0.09883115
15	0xbd82fe44	-0.063961536
16	0x3d8f7a58	0.07005757
17	0x3d128584	0.03577186
18	0x3ddc6621	0.10761667
19	0x3e09324d	0.13398094
20	0x3d9b937f	0.07596492
21	0x3d6a75f8	0.05724141
22	0xbcbd6dc8	-0.023123637
23	0xbdf0997c	-0.11748025
24	0x3e1bd49a	0.1521782
25	0xbcab1113	-0.020882165
26	0x3df06c78	0.11739439
27	0x3cb2c128	0.02182062
28	0xbde84f4e	-0.11343251
29	0xbdbb0e70	-0.09133613
30	0xbdd50650	-0.10401595
31	0xbdd92e62	-0.1060455
32	0x3d972677	0.073803835
33	0x3da93610	0.08262265
34	0x3d94ce60	0.072659254
35	0x3b426589	0.002966257
36	0xbd0680ad	-0.03283756
37	0x3dbd729f	0.09250378
38	0xbd530f3e	-0.051528208
39	0xbdf0bb6a	-0.117544964
40	0x3e106d81	0.14104272
41	0xbd352608	-0.044225723
42	0xbde41a36	-0.11137812
43	0x3d5b1b0b	0.053492587
44	0xbd5b6f2c	-0.05357282
45	0xbd3054cc	-0.04304962
46	0x3cf8861f	0.030337391
47	0x3dd7d168	0.10537988
48	0x3d98cb57	0.07460659
49	0xbd8eee9c	-0.06979105
50	0x3aa602f4	0.0012665675
51	0xbd7ff52c	-0.062489673
52	0xbd8dfa7b	-0.06932541
53	0xbdfe040c	-0.12403116
54	0xbd3d2313	-0.046176028
55	0x3e084148	0.13306153
56	0xbde5c369	-0.11218912
57	0xbd3c2678	-0.045935124
58	0xbd7ae609	-0.061254535
59	0x3d2ff5ef	0.04295915
60	0xbd1bbfbd	-0.038024653
61	0xbe08657a	-0.1331996
62	0x3e13c15a	0.14429227
63	0x3dcd877d	0.10035608

network.4.weight f4 [8, 64]
0	0x3d8614ce	0.06546937
1	0xbc2f6f54	-0.010707695
2	0xbde32186	-0.110903785
3	0xbc9702c3	-0.018433934
4	0xbd9405aa	-0.07227643
5	0xbdea10bc	-0.11428973
6	0x3cf1ddac	0.029524647
7	0xbdb415fa	-0.08793254
8	0xbd312657	-0.043249454
9	0x3b99587d	0.004679738
10	0xbcb954cf	-0.022623448
11	0x3d90a944	0.07063535
12	0xbe034359	-0.1281866
13	0x3df96b34	0.121786505
14	0xbc26810e	-0.010162605
15	0xbdb68f4c	-0.089140505
16	0x3d817795	0.063216366
17	0xbd63ae3c	-0.055586085
18	0xbdcf0733	-0.10108795
19	0x3d6f8989	0.058480773
20	0x3cf65ada	0.030072618
21	0x3cac5010	0.02103427
22	0xbd814e78	-0.06313795
23	0x3d96fc9f	0.073724024
24	0x3bee6152	0.007274785
25	0x3d3ca7b8	0.046058387
26	0x3d5b6057	0.053558674
27	0xbe0379d6	-0.12839445
28	0x3db342b4	0.08752957
29	0xbd0a1178	-0.033708066
30	0xbd8678d3	-0.06566014
31	0xbdc333bc	-0.09531352
32	0x3dc0af5b	0.094084464
33	0xbcaf3ba0	-0.021390736
34	0xbdaf99c4	-0.0857425
35	0x3d8f3715	0.06992928
36	0xbc9275ca	-0.017878432
37	0xbccdc3af	-0.025117723
38	0x3dc42693	0.0957767
39	0xbd340c04	-0.04395677
40	0x3de35569	0.11100275
41	0x3c61d61a	0.013783956
42	0x3cc36440	0.023851514
43	0xbc2d305c	-0.010570612
44	0x3d4bcfd8	0.049758762
45	0x3dd5d006	0.10440068
46	0x3ce020f4	0.027359463
47	0x3d52523d	0.05134796
48	0xbda4bb00	-0.0804348
49	0x3d90ba00	0.07066727
50	0x3b212251	0.0024587105
51	0x3dbe5a43	0.0929456
52	0xbe04fa44	-0.12986094
53	0x3d7048a0	0.05866301
54	0xbd9e794e	-0.07737981
55	0x3d9ed9f7	0.07756417
56	0xbdf89645	-0.12138037
57	0xbdf14a34	-0.11781731
58	0xbdbba2b0	-0.091618896
59	0x3da5e9c1	0.08101226
60	0xbbd7670f	-0.006573565
61	0xbe116771	-0.14199616
62	0x3ce4ae5d	0.027915174
63	0x3d9e1722	0.07719256
64	0xbe0a04ac	-0.13478345
65	0x3dcde854	0.10054079
66	0x3dce4864	0.10072401
67	0xbd63fef7	-0.055663075
68	0x3de2f6f0	0.11082256
69	0x3dd7ac0c	0.10530862
70	0x3dbe53e7	0.09293347
71	0xbd67eeab	-0.056624096
72	0x3de4a231	0.11163748
73	0x3dd66efc	0.10470387
74	0x3e2b8147	0.16748534
75	0xbdacf62e	-0.084453925
76	0x3e03c2f4	0.12867337
77	0xbd37b490	-0.044849932
78	0xbd659d80	-0.056058407
79	0x3db7bd48	0.089716494
80	0xbdbf850a	-0.09351547
81	0xbd282f20	-0.041060567
82	0x3de4c540	0.11170435
83	0x3e1ea8e7	0.15494119
84	0x3da6e4a5	0.08149079
85	0xbcf56038	-0.029953107
86	0xbcab5a88	-0.020917192
87	0xbdbfe2de	-0.09369443
88	0x3dc43545	0.09580473
89	0x3e11d8ad	0.14242812
90	0xbdd54ad6	-0.104146644
91	0x3e42dc19	0.19029273
92	0x3c491a50	0.01227434
93	0xbded4aac	-0.11586508
94	0xbd78ce9a	-0.060743906
95	0x3dd6703c	0.10470626
96	0x3dfbb7c5	0.12290911
97	0x3d816699	0.06318397
98	0x3da22f71	0.07919205
99	0x3d10ff38	0.035399646
100	0xbd415e9e	-0.047209375
101	0xbd1a88f1	-0.037728254
102	0x3e0cace3	0.13737826
103	0x3d9de32e	0.07709347
104	0x3dcd96bc	0.10038516
105	0xbcceb6ae	-0.025233593
106	0xbd7173f4	-0.058948472
107	0x3db9f833	0.09080543
108	0xbccd2e08	-0.025046363
109	0x3ced9060	0.028999507
110	0x3de58ec2	0.112088695
111	0x3d060b82	0.03272582
112	0xbd0e2edc	-0.034712657
113	0x3cac9bc0	0.021070361
114	0xbd951537	-0.07279437
115	0x3dbae037	0.09124797
116	0x3de75560	0.11295581
117	0xbc8a5fc8	-0.016891375
118	0xbd98a07f	-0.07452487
119	0x3e28513e	0.16437241
120	0x3dc0df97	0.094176464
121	0xbdee9c6a	-0.11650927
122	0xbd82aa15	-0.06380097
123	0xbd6662e5	-0.056246657
124	0x3cc05721	0.023479046
125	0x3d337fc5	0.043823022
126	0xbcb6dba8	-0.022321537
127	0x3dbf9d6e	0.09356199
128	0x3d9e54fe	0.07731055
129	0x3d322038	0.043487757
130	0x3c3162c0	0.0108267665
131	0xbcb34915	-0.021885434
132	0xbd2785c0	-0.04089904
133	0x3c925bb3	0.017865991
134	0x3dd08287	0.10181146
135	0x3c1ea032	0.009681748
136	0xbdad12cf	-0.08450853
137	0xbd36ff5e	-0.04467713
138	0xbd774b57	-0.060374584
139	0x3cad0fb3	0.02112565
140	0x3e1a5ff8	0.15075672
141	0xbd9ed8ec	-0.07756218
142	0x3dacef5f	0.08444094
143	0xbd4ffbe4	-0.05077733
144	0xbdca37e9	-0.09873945
145	0xbc181fd0	-0.009284928
146	0x3db44820	0.08802819
147	0xbd6117e3	-0.05495442
148	0xbc5da99c	-0.013529208
149	0x3dd3c22e	0.10339771
150	0x3c887b28	0.016660288
151	0xbcd4083d	-0.025882835
152	0x3d937d85	0.07201675
153	0x3db7aae3	0.08968141
154	0x3c3bb445	0.011456554
155	0x3d5e8092	0.054321833
156	0xbdc550a8	-0.096345246
157	0x3d896234	0.06708184
158	0x3dd32962	0.103106275
159	0xbc8fb5b8	-0.017542705
160	0x3b48c00e	0.0030632052
161	0x3dde9f03	0.10870173
162	0x3ba08c21	0.004899517
163	0x3c429093	0.0118752895
164	0x3c33aca5	0.010966455
165	0x3df61146	0.120150134
166	0x3d96dff4	0.073669344
167	0xbd298640	-0.041387796
168	0x3e21b7b9	0.15792741
169	0x3e06b742	0.13155845
170	0x3cee7fc8	0.029113665
171	0x3cbf5fb8	0.023361072
172	0xbdfe871c	-0.12428114
173	0x3d13142c	0.03590791
174	0x3da3a6cd	0.07990799
175	0x3d3291a1	0.043595914
176	0xbca63518	-0.020288989
177	0xbdf8e4f2	-0.12153043
178	0xbdcf4e44	-0.1012235
179	0x398e0a1b	0.0002709188
180	0x3d254055	0.040344555
181	0x3d31bf70	0.04339546
182	0x3c7494d7	0.014928064
183	0xbd5d37d8	-0.054008335
184	0xbd6d0c19	-0.057872865
185	0xbdee3fa2	-0.11633231
186	0xbce90f42	-0.028449658
187	0x3b46bf48	0.0030326415
188	0x3d6822e8	0.056673914
189	0xbcfcdd4d	-0.030867243
190	0x3df60194	0.1201202
191	0xbd934187	-0.07190233
192	0x3cd5c58a	0.02609517
193	0x3d11f297	0.035631742
194	0x3d159b98	0.03652534
195	0x3cc5bd1a	0.024138022
196	0xbd2f4c3c	-0.042797312
197	0xbd749d07	-0.059720065
198	0x3d911cb3	0.07085552
199	0xbd5b9455	-0.053608257
200	0xbddb0094	-0.1069347
201	0xbdcc20f5	-0.099672236
202	0x3d503b19	0.05083761
203	0xbcf4a4a2	-0.02986366
204	0xbd05cc18	-0.032665342
205	0x3bc412fc	0.0059837084
206	0x3d963c2f	0.07335698
207	0xbdd07b1e	-0.10179733
208	0xbdfc5a99	-0.12321968
209	0x3d853cf4	0.065057665
210	0x3d636526	0.055516385
211	0xbd277437	-0.040882315
212	0x3d5d32d8	0.054003567
213	0x3c955dd8	0.018233225
214	0x3d9a6a94	0.075398594
215	0x3de4179b	0.11137315
216	0x3d294102	0.041321762
217	0xbdcc01ce	-0.09961282
218	0xbda2e004	-0.07952884
219	0xbdb3c238	-0.08777279
220	0x3bf25700	0.007395625
221	0xbdc27c7a	-0.09496398
222	0x3de2c8a6	0.11073427
223	0x3c22f9c0	0.00994724
224	0xbc1a2681	-0.009408594
225	0x3de34a27	0.11098128
226	0xbc12a676	-0.00895082
227	0x3b0c99fa	0.0021454082
228	0xbc24b81a	-0.010053659
229	0x3ca15774	0.019695021
230	0x3b37c739	0.002804233
231	0xbd787c64	-0.060665503
232	0x3d4ee746	0.05051353
233	0xbc81be61	-0.01583785
234	0xbca5b8c8	-0.020229712
235	0x3da05dc8	0.07830387
236	0x3db83e36	0.08996241
237	0x3d8585c6	0.06519656
238	0x3df77202	0.12082292
239	0xbdbfeb0e	-0.09371005
240	0xbb64716f	-0.003485765
241	0x3de09bf0	0.10967243
242	0x3d6ceafe	0.057841294
243	0x3cd676a0	0.026179612
244	0x3dd88fda	0.105743125
245	0x3d4f7f10	0.050658286
246	0xbd202e00	-0.03910637
247	0xbd0ac42e	-0.033878498
248	0x3d336928	0.043801457
249	0x3dc199ea	0.09453185
250	0xbdc483b8	-0.09595436
251	0x3dd3925a	0.10330649
252	0xbd2ec694	-0.042669848
253	0x3daab4de	0.08335279
254	0x3d9ba143	0.075991176
255	0x3d8e712e	0.06955181

network.4.bias f4 [8]
0	0x3dcc2fd9	0.09970064
1	0x3d88de75	0.06683055
2	0x3e12e376	0.14344582
3	0x3beff238	0.007322576
4	0xbe119ef4	-0.14220792
5	0xbc79a3c9	-0.015236803
6	0xbd9bafa9	-0.07601864
7	0x3d14e0ec	0.036347315

exp_avg f4 [64, 26]
0	0x3c4a33e8	0.012341477
1	0x3c8616aa	0.016368229
2	0x3c85770e	0.016292121
3	0x3c30496c	0.010759693
4	0x3c1105da	0.008851493
5	0x3d4fc95e	0.050729148
6	0x3d65bee3	0.056090247
7	0xbbfaa890	-0.0076494887
8	0x3cec59f6	0.02885149
9	0x3d6ce66e	0.057836942
10	0xbd0653e6	-0.032794856
11	0xbc7c3bb5	-0.015395095
12	0x3cc8e7d8	0.024524614
13	0xbc5bb0dd	-0.013408867
14	0x3c2e8706	0.010652309
15	0x3c4479cc	0.011991929
16	0xbd2a40fd	-0.041565884
17	0xbd8f92b1	-0.07010401
18	0xbd7457ac	-0.059653923
19	0x3cd3b32b	0.02584227
20	0xbba4a85b	-0.0050249523
21	0xbc7a3f47	-0.015273876
22	0xbc88df91	-0.016708167
23	0xbbf933be	-0.007605045
24	0xbc6b69c3	-0.014368477
25	0xbc7620a5	-0.0150224315
26	0x00000000	0.0
27	0x00000000	0.0
28	0x00000000	0.0
29	0x00000000	0.0
30	0x00000000	0.0
31	0x00000000	0.0
32	0x00000000	0.0
33	0x00000000	0.0
34	0x00000000	0.0
35	0x00000000	0.0
36	0x00000000	0.0
37	0x00000000	0.0
38	0x00000000	0.0
39	0x00000000	0.0
40	0x00000000	0.0
41	0x00000000	0.0
42	0x00000000	0.0
43	0x00000000	0.0
44	0x00000000	0.0
45	0x00000000	0.0
46	0x00000000	0.0
47	0x00000000	0.0
48	0x00000000	0.0
49	0x00000000	0.0
50	0x00000000	0.0
51	0x00000000	0.0
52	0x00000000	0.0
53	0x00000000	0.0
54	0x00000000	0.0
55	0x00000000	0.0
56	0x00000000	0.0
57	0x00000000	0.0
58	0x00000000	0.0
59	0x00000000	0.0
60	0x00000000	0.0
61	0x00000000	0.0
62	0x00000000	0.0
63	0x00000000	0.0
64	0x00000000	0.0
65	0x00000000	0.0
66	0x00000000	0.0
67	0x00000000	0.0
68	0x00000000	0.0
69	0x00000000	0.0
70	0x00000000	0.0
71	0x00000000	0.0
72	0x00000000	0.0
73	0x00000000	0.0
74	0x00000000	0.0
75	0x00000000	0.0
76	0x00000000	0.0
77	0x00000000	0.0
78	0x00000000	0.0
79	0x00000000	0.0
80	0x00000000	0.0
81	0x00000000	0.0
82	0x00000000	0.0
83	0x00000000	0.0
84	0x00000000	0.0
85	0x00000000	0.0
86	0x00000000	0.0
87	0x00000000	0.0
88	0x00000000	0.0
89	0x00000000	0.0
90	0x00000000	0.0
91	0x00000000	0.0
92	0x00000000	0.0
93	0x00000000	0.0
94	0x00000000	0.0
95	0x00000000	0.0
96	0x00000000	0.0
97	0x00000000	0.0
98	0x00000000	0.0
99	0x00000000	0.0
100	0x00000000	0.0
101	0x00000000	0.0
102	0x00000000	0.0
103	0x00000000	0.0
104	0xbcc0d3ef	-0.023538558
105	0xbc6eb77c	-0.014570113
106	0xbc96ce06	-0.018408787
107	0xbc763a21	-0.015028507
108	0xbc8fd756	-0.017558735
109	0xbccbabf9	-0.024862276
110	0xbca4664f	-0.020068316
111	0xbd8b1a00	-0.067920685
112	0xbd161b0a	-0.03664688
113	0xbca2bac1	-0.019864442
114	0xbd8e1c52	-0.069389954
115	0xbd322494	-0.043491915
116	0xbc7c9309	-0.015415915
117	0xbd666611	-0.05624968
118	0xbd4673db	-0.048450332
119	0xbd207b08	-0.03917983
120	0xbd807c14	-0.06273666
121	0xbdec1d82	-0.11529066
122	0xbdb95f28	-0.09051353
123	0xbc6f2fc9	-0.014598795
124	0xbd225282	-0.039629467
125	0xbd3e285c	-0.04642521
126	0xbd354b36	-0.04426118
127	0xbc9a9687	-0.018870605
128	0xbd4255a4	-0.047444955
129	0xbd440e26	-0.047865056
130	0xbc41c749	-0.011827298
131	0xbc045b2d	-0.008078379
132	0xbc0f1fd6	-0.008735618
133	0xbbea4688	-0.0071495213
134	0xbc034f4c	-0.008014511
135	0xbc076d2d	-0.008265776
136	0xbc05f8cf	-0.008176996
137	0xbc31c81e	-0.010850934
138	0xbc13869c	-0.009004261
139	0xbbe2f472	-0.006926113
140	0xbbb97f1b	-0.005660904
141	0x3a965a00	0.0011470914
142	0xbbef0400	-0.007294178
143	0xbb8183d4	-0.0039524827
144	0xbbd1b389	-0.006399576
145	0xbc0c2218	-0.00855305
146	0xbb97f54c	-0.004637396
147	0xbc9e71ff	-0.019341467
148	0xbc2cb3f7	-0.010540954
149	0x3b7a84df	0.003822617
150	0x3b3e4471	0.0029032493
151	0xbb5d9ccd	-0.0033815384
152	0xbb2f9c35	-0.0026795988
153	0xba36cbcd	-0.00069731177
154	0xbb8be778	-0.0042695366
155	0xbb8999dc	-0.0041992497
156	0x3af9e042	0.0019064026
157	0x3a4b4b30	0.0007755039
158	0xbb1134fb	-0.0022156823
159	0xbb2abf79	-0.0026054068
160	0xbb64db51	-0.0034920762
161	0xbc3ab97f	-0.011396765
162	0xbba0eebe	-0.004911273
163	0xbb909ae1	-0.0044129943
164	0xbc8e7d70	-0.017393798
165	0xbc2bc995	-0.010485073
166	0xbc9fc0aa	-0.01950105
167	0xbc3d85d3	-0.011567551
168	0xbb9df98a	-0.004821007
169	0xbc2479cc	-0.010038804
170	0xba91f51e	-0.0011135673
171	0xbca07b4d	-0.019590044
172	0xbc5edaeb	-0.013601999
173	0xbca4d7e2	-0.020122472
174	0xbc4069ec	-0.011744004
175	0xbc15e855	-0.009149631
176	0x3bc5885d	0.0060282187
177	0xbc2f50c3	-0.010700407
178	0xbc460194	-0.012085337
179	0xbba37723	-0.0049885674
180	0xbc162c74	-0.009165872
181	0xbc183b53	-0.009291488
182	0x381f8f4c	3.804201e-05
183	0x3980f7be	0.00024598645
184	0x39886137	0.00026012372
185	0x38a8798e	8.0335056e-05
186	0x389cd9b5	7.479211e-05
187	0x392e5791	0.00016626554
188	0x3ab2ddb2	0.0013646393
189	0x3b42bf6a	0.0029716142
190	0x3990693a	0.0002754422
191	0x39800d86	0.00024424138
192	0x3ae2ef5a	0.0017313764
193	0x3a975200	0.0011544824
194	0x386a7423	5.589811e-05
195	0x3b159751	0.0022825787
196	0x3a99b620	0.0011727251
197	0x3b107a85	0.0022045684
198	0x3ab9193a	0.0014121898
199	0x3b73c64c	0.0037197052
200	0x3b49dfcb	0.0030803557
201	0x3b07b1d7	0.0020705366
202	0x3b71f11b	0.0036917392
203	0x3ac8fb5d	0.0015333701
204	0x3aa1a0a1	0.0012331196
205	0x3a06cbb8	0.0005142051
206	0x3ad5b3c1	0.0016304181
207	0x3ad5b3c6	0.0016304187
208	0xbc73fb11	-0.014891402
209	0xbc5641c3	-0.013077202
210	0xbc987b0e	-0.018613365
211	0xbc0241fb	-0.007950301
212	0xbc67ca28	-0.014147319
213	0xbcb688d8	-0.022282049
214	0xbbd9c3c8	-0.0066456534
215	0xbd37581a	-0.044761755
216	0xbd290114	-0.041260794
217	0xbc6b777c	-0.014371749
218	0xbda76370	-0.08173263
219	0xbd689568	-0.05678311
220	0xbc9f897a	-0.019474734
221	0xbd3ffa2b	-0.04686944
222	0xbacea170	-0.0015764665
223	0xbd5c1102	-0.053727157
224	0xbd42e5cc	-0.047582433
225	0xbdedf348	-0.11618668
226	0xbdba7d6d	-0.09105954
227	0x3c1f0d08	0.009707697
228	0xbb7ea5f4	-0.003885624
229	0xbd544346	-0.05182197
230	0xbd4e3d51	-0.050351445
231	0xbcb5a4af	-0.022173254
232	0xbd4981ab	-0.049195927
233	0xbd52e1ee	-0.051484995
234	0x00000000	0.0
235	0x00000000	0.0
236	0x00000000	0.0
237	0x00000000	0.0
238	0x00000000	0.0
239	0x00000000	0.0
240	0x00000000	0.0
241	0x00000000	0.0
242	0x00000000	0.0
243	0x00000000	0.0
244	0x00000000	0.0
245	0x00000000	0.0
246	0x00000000	0.0
247	0x00000000	0.0
248	0x00000000	0.0
249	0x00000000	0.0
250	0x00000000	0.0
251	0x00000000	0.0
252	0x00000000	0.0
253	0x00000000	0.0
254	0x00000000	0.0
255	0x00000000	0.0

exp_avg_sq f4 [64, 26]
0	0x3b344e11	0.0027512352
1	0x3b2f883a	0.0026784078
2	0x3b19b829	0.0023455715
3	0x3b2cb88b	0.0026355113
4	0x3b35a530	0.0027716868
5	0x3c0aedde	0.0084795635
6	0x3c0e0c27	0.0086698895
7	0x3c605ca6	0.013693964
8	0x3c0bcef5	0.008533229
9	0x3c03b107	0.008037812
10	0x3c03ba9b	0.008040096
11	0x3c184015	0.009292622
12	0x3b40abed	0.002939935
13	0x3c494cd6	0.0122863855
14	0x3c82ffdc	0.015991144
15	0x3c07f631	0.008298443
16	0x3c90ab8d	0.017659927
17	0x3c824104	0.015900142
18	0x3c61ad3b	0.0137742115
19	0x3c5d2bff	0.013499259
20	0x3c7baafc	0.01536059
21	0x3bc23ea7	0.005927879
22	0x3ba2c653	0.0049674897
23	0x3a7d0ad9	0.00096528005
24	0x3bca3de7	0.00617193
25	0x3bc8ee7d	0.0061319456
26	0x00000000	0.0
27	0x00000000	0.0
28	0x00000000	0.0
29	0x00000000	0.0
30	0x00000000	0.0
31	0x00000000	0.0
32	0x00000000	0.0
33	0x00000000	0.0
34	0x00000000	0.0
35	0x00000000	0.0
36	0x00000000	0.0
37	0x00000000	0.0
38	0x00000000	0.0
39	0x00000000	0.0
40	0x00000000	0.0
41	0x00000000	0.0
42	0x00000000	0.0
43	0x00000000	0.0
44	0x00000000	0.0
45	0x00000000	0.0
46	0x00000000	0.0
47	0x00000000	0.0
48	0x00000000	0.0
49	0x00000000	0.0
50	0x00000000	0.0
51	0x00000000	0.0
52	0x00000000	0.0
53	0x00000000	0.0
54	0x00000000	0.0
55	0x00000000	0.0
56	0x00000000	0.0
57	0x00000000	0.0
58	0x00000000	0.0
59	0x00000000	0.0
60	0x00000000	0.0
61	0x00000000	0.0
62	0x00000000	0.0
63	0x00000000	0.0
64	0x00000000	0.0
65	0x00000000	0.0
66	0x00000000	0.0
67	0x00000000	0.0
68	0x00000000	0.0
69	0x00000000	0.0
70	0x00000000	0.0
71	0x00000000	0.0
72	0x00000000	0.0
73	0x00000000	0.0
74	0x00000000	0.0
75	0x00000000	0.0
76	0x00000000	0.0
77	0x00000000	0.0
78	0x00000000	0.0
79	0x00000000	0.0
80	0x00000000	0.0
81	0x00000000	0.0
82	0x00000000	0.0
83	0x00000000	0.0
84	0x00000000	0.0
85	0x00000000	0.0
86	0x00000000	0.0
87	0x00000000	0.0
88	0x00000000	0.0
89	0x00000000	0.0
90	0x00000000	0.0
91	0x00000000	0.0
92	0x00000000	0.0
93	0x00000000	0.0
94	0x00000000	0.0
95	0x00000000	0.0
96	0x00000000	0.0
97	0x00000000	0.0
98	0x00000000	0.0
99	0x00000000	0.0
100	0x00000000	0.0
101	0x00000000	0.0
102	0x00000000	0.0
103	0x00000000	0.0
104	0x3b56a4a4	0.0032751942
105	0x3b5c6c90	0.0033634044
106	0x3b44661c	0.0029968088
107	0x3b5413cb	0.003236043
108	0x3b4db4dc	0.0031388318
109	0x3c1b4555	0.009476979
110	0x3c26ae71	0.010173426
111	0x3c8facfe	0.017538544
112	0x3c2288b7	0.009920291
113	0x3c1c4089	0.009536871
114	0x3c28d88f	0.010305538
115	0x3c375ffc	0.011192318
116	0x3b6f8da3	0.0036552928
117	0x3c7a7cb0	0.015288517
118	0x3ca572c5	0.020196328
119	0x3c1ca66d	0.009561163
120	0x3cb5af79	0.022178398
121	0x3c9f0bcd	0.019414807
122	0x3c97a222	0.018509928
123	0x3c89a0e8	0.016800359
124	0x3c939dd4	0.018019594
125	0x3becf6f9	0.00723159
126	0x3bc72f8d	0.0060786665
127	0x3a9d7efb	0.0012015993
128	0x3bfad600	0.0076549053
129	0x3bf7e02d	0.0075645656
130	0x3a2500ee	0.0006294389
131	0x3a182a92	0.00058046833
132	0x3a03490b	0.00050081377
133	0x3a28d59d	0.0006440522
134	0x3a0c28b2	0.000534664
135	0x3ad381cf	0.0016136708
136	0x3adc7504	0.0016819541
137	0x3b46c5bd	0.0030330264
138	0x3ad972fa	0.0016590052
139	0x3ac5a8b1	0.0015080181
140	0x3af36799	0.0018570303
141	0x3b0d0a3c	0.0021520993
142	0x3a34d0f2	0.00068975904
143	0x3b33c1cb	0.0027428742
144	0x3b706753	0.003668268
145	0x3add70a9	0.0016894537
146	0x3b7d1323	0.0038616143
147	0x3b5f34c9	0.0034058562
148	0x3b5bf884	0.0033564875
149	0x3b54295c	0.0032373285
150	0x3b4db0cb	0.0031385894
151	0x3aaad7c0	0.0013034269
152	0x3a92063a	0.0011140772
153	0x3970855e	0.00022937867
154	0x3ab4b6dd	0.0013787408
155	0x3ab25098	0.0013604341
156	0x3a1efdba	0.000606503
157	0x3a1f6d32	0.000608164
158	0x3a06f1a5	0.0005147702
159	0x3a211cf2	0.0006145976
160	0x3a03a455	0.0005021741
161	0x3ac64235	0.0015125932
162	0x3ad9dfc2	0.0016622471
163	0x3b36052b	0.0027774076
164	0x3ac1255a	0.0014735863
165	0x3ac21258	0.0014806492
166	0x3af205bc	0.0018464844
167	0x3afe0e7d	0.001938298
168	0x3a23b8fc	0.00062455214
169	0x3b33fdb6	0.0027464456
170	0x3b669369	0.0035183078
171	0x3acd8f44	0.0015682955
172	0x3b6612c4	0.00351064
173	0x3b5cebf0	0.0033709966
174	0x3b57d392	0.0032932502
175	0x3b5bfa7c	0.0033566048
176	0x3b737a65	0.003715181
177	0x3aa3ff73	0.0012512043
178	0x3a897b08	0.0010488937
179	0x395e5de7	0.00021206551
180	0x3ab1cb24	0.0013564569
181	0x3aae5448	0.0013300264
182	0x3942189d	0.00018510451
183	0x393bcc15	0.00017909736
184	0x3973638a	0.00023211367
185	0x396f96d7	0.00022849008
186	0x3967b8ba	0.00022098693
187	0x39e2ec93	0.0004328234
188	0x39fe2ffc	0.00048482406
189	0x3a04f472	0.00050718256
190	0x39d4666e	0.00040512107
191	0x39fc6eb1	0.00048147657
192	0x3989859a	0.00026230217
193	0x398ff22f	0.00027455526
194	0x3979ea2d	0.00023833728
195	0x39d58a8e	0.00040729757
196	0x3a0aa9ed	0.0005289603
197	0x39f16f97	0.00046050243
198	0x39dcb53a	0.00042096694
199	0x3a01c26b	0.000494993
200	0x3a1d28d1	0.0005995157
201	0x3a0ec56a	0.0005446287
202	0x3a0b04c5	0.000530314
203	0x3953dac3	0.00020204023
204	0x392ff144	0.00016779179
205	0x38000dc7	3.053041e-05
206	0x395c5564	0.00021012645
207	0x395bec91	0.00020973595
208	0x3c00abfd	0.007853505
209	0x3bf782ba	0.0075534256
210	0x3bda5d6a	0.006663968
211	0x3c013cf0	0.007888064
212	0x3bf0780c	0.0073385295
213	0x3cb2302b	0.021751484
214	0x3cbd20b0	0.023086876
215	0x3d2db5be	0.04240965
216	0x3cb617aa	0.02222808
217	0x3cb2a24f	0.02180591
218	0x3cb755ba	0.022379745
219	0x3cdf4041	0.027252318
220	0x3bf95bf6	0.0076098396
221	0x3d133110	0.03593546
222	0x3d427c65	0.047481913
223	0x3cb4d371	0.02207348
224	0x3d529bda	0.051418163
225	0x3d40c7ce	0.04706555
226	0x3d29b93e	0.041436426
227	0x3d243f64	0.040099517
228	0x3d4078a8	0.046990067
229	0x3c893ac6	0.016751658
230	0x3c64c5ca	0.013963172
231	0x3b368a91	0.0027853588
232	0x3c92489f	0.017856894
233	0x3c905efe	0.01762342
234	0x00000000	0.0
235	0x00000000	0.0
236	0x00000000	0.0
237	0x00000000	0.0
238	0x00000000	0.0
239	0x00000000	0.0
240	0x00000000	0.0
241	0x00000000	0.0
242	0x00000000	0.0
243	0x00000000	0.0
244	0x00000000	0.0
245	0x00000000	0.0
246	0x00000000	0.0
247	0x00000000	0.0
248	0x00000000	0.0
249	0x00000000	0.0
250	0x00000000	0.0
251	0x00000000	0.0
252	0x00000000	0.0
253	0x00000000	0.0
254	0x00000000	0.0
255	0x00000000	0.0

exp_avg f4 [64]
0	0xbc9cec0d	-0.019155527
1	0x00000000	0.0
2	0x00000000	0.0
3	0x00000000	0.0
4	0xbda4920d	-0.080356695
5	0xbbb9056c	-0.0056463983
6	0xbc6af71d	-0.014341143
7	0x3b55b39b	0.0032608274
8	0xbd89206e	-0.066956386
9	0x00000000	0.0
10	0x00000000	0.0
11	0x3c94ed60	0.018179595
12	0x3b8de495	0.0043302276
13	0x3a516bd6	0.0007988786
14	0x3b6ec288	0.0036431868
15	0x3bf67b13	0.007521996
16	0x00000000	0.0
17	0x00000000	0.0
18	0x3a3a7549	0.0007112814
19	0x3d07e2a0	0.03317511
20	0x3bff37b5	0.007788623
21	0xbdc48e28	-0.09597427
22	0x3b8f4e02	0.004373313
23	0xbd0aebc8	-0.033916265
24	0x2da7bf99	1.9070788e-11
25	0xbd5b7ab6	-0.053583823
26	0xbb91bf4d	-0.0044478537
27	0x31649438	3.326262e-09
28	0xbd45550c	-0.04817681
29	0x00000000	0.0
30	0xbd1d2d24	-0.038373128
31	0xbd9b1ed9	-0.07574243
32	0x00000000	0.0
33	0xbd199532	-0.0374958
34	0x00000000	0.0
35	0xbd277782	-0.040885456
36	0x00000000	0.0
37	0x3c0fce56	0.008777222
38	0x3cb5451e	0.022127684
39	0xbd6ca307	-0.057772662
40	0xbd3f0ba2	-0.046641953
41	0xbc0fe14e	-0.008781744
42	0x00000000	0.0
43	0xbd13a06a	-0.036041655
44	0x3c045496	0.0080768075
45	0xbd7c4a52	-0.061594315
46	0xbdd8dbf9	-0.105888315
47	0x00000000	0.0
48	0xbae79bb8	-0.0017670309
49	0xbc7c15c5	-0.01538605
50	0x3c6127f4	0.013742436
51	0x00000000	0.0
52	0x00000000	0.0
53	0xbb97f86a	-0.0046377676
54	0xbca9398e	-0.020657327
55	0x2faa73f1	3.10052e-10
56	0xbc81f9e9	-0.015866237
57	0x2c1a2383	2.190443e-12
58	0xbb438004	-0.0029830942
59	0x00000000	0.0
60	0xbce7691d	-0.028248364
61	0x39ae2974	0.0003321875
62	0xbd68da06	-0.05684855
63	0x2fe16092	4.099588e-10

exp_avg_sq f4 [64]
0	0x3ccd688d	0.025074268
1	0x00000000	0.0
2	0x00000000	0.0
3	0x00000000	0.0
4	0x3cff9954	0.031201042
5	0x3bb76cf4	0.005597705
6	0x3bb7aa15	0.005604992
7	0x3a59e639	0.0008312199
8	0x3d963209	0.07333762
9	0x00000000	0.0
10	0x00000000	0.0
11	0x3d314043	0.043274175
12	0x386540fa	5.465837e-05
13	0x3a81e926	0.0009911403
14	0x39108390	0.00013781921
15	0x3b181eb5	0.0023211662
16	0x00000000	0.0
17	0x00000000	0.0
18	0x392ac330	0.00016285176
19	0x3c2a64de	0.010400025
20	0x3c4f786e	0.01266299
21	0x3d3c0740	0.04590535
22	0x3a14892b	0.00056661916
23	0x3badab39	0.0052999523
24	0x3651d2ba	3.1266086e-06
25	0x3b8cf908	0.004302148
26	0x39ccef30	0.0003908812
27	0x35fe275c	1.893593e-06
28	0x3ca0024a	0.019532342
29	0x00000000	0.0
30	0x3ca2d539	0.019877063
31	0x3d434c08	0.04767993
32	0x00000000	0.0
33	0x3c8eaca3	0.017416304
34	0x00000000	0.0
35	0x3d998d01	0.074975975
36	0x00000000	0.0
37	0x395527e6	0.00020328126
38	0x3c9195eb	0.017771682
39	0x3d58df9c	0.052947626
40	0x3ceea6b1	0.029132219
41	0x3a8c5dc1	0.0010709093
42	0x00000000	0.0
43	0x3d2e3f84	0.042541042
44	0x3cdee7d9	0.027210163
45	0x3c4e0495	0.012574335
46	0x3d384286	0.044985317
47	0x00000000	0.0
48	0x3b3717a0	0.0027937666
49	0x3d3792a7	0.044817593
50	0x3b96fd0e	0.004607803
51	0x00000000	0.0
52	0x00000000	0.0
53	0x3b9a3d00	0.004706979
54	0x3c1ddaed	0.0096347155
55	0x33da6d5b	1.0171308e-07
56	0x3afcbb8a	0.0019281965
57	0x31685a1c	3.3811665e-09
58	0x3c513a2a	0.012770215
59	0x00000000	0.0
60	0x3cac5e2e	0.021041002
61	0x397136b8	0.00023003935
62	0x3dc68dd2	0.09695019
63	0x3508377c	5.074469e-07

exp_avg f4 [64, 64]
0	0x34541dd6	1.9754893e-07
1	0x00000000	0.0
2	0x00000000	0.0
3	0x00000000	0.0
4	0x348baf70	2.6018415e-07
5	0x32812e46	1.503862e-08
6	0x33eeab33	1.11138796e-07
7	0x00000000	0.0
8	0x34935d54	2.744879e-07
9	0x00000000	0.0
10	0x00000000	0.0
11	0x348df4a3	2.6441293e-07
12	0x00000000	0.0
13	0x00000000	0.0
14	0x319ee33c	4.6242388e-09
15	0x00000000	0.0
16	0x00000000	0.0
17	0x00000000	0.0
18	0x00000000	0.0
19	0x333deb7b	4.421916e-08
20	0x3458a2a6	2.0175739e-07
21	0x32b1f875	2.0718497e-08
22	0x30868f3c	9.790493e-10
23	0x00000000	0.0
24	0x00000000	0.0
25	0x3338b893	4.3008708e-08
26	0x00000000	0.0
27	0x00000000	0.0
28	0x33d99be7	1.01332084e-07
29	0x00000000	0.0
30	0x34c63d90	3.6925167e-07
31	0x34970cd9	2.813529e-07
32	0x00000000	0.0
33	0x3482e563	2.4381288e-07
34	0x00000000	0.0
35	0x34b0764c	3.2868627e-07
36	0x00000000	0.0
37	0x00000000	0.0
38	0x3428761b	1.5689186e-07
39	0x341fed6e	1.4894405e-07
40	0x34f22e32	4.5109624e-07
41	0x00000000	0.0
42	0x00000000	0.0
43	0x348f6b04	2.671369e-07
44	0x34d0e0f9	3.8906708e-07
45	0x33a40078	7.6369304e-08
46	0x348fae89	2.6762817e-07
47	0x00000000	0.0
48	0x00000000	0.0
49	0x34d28199	3.9209843e-07
50	0x3295bcbf	1.7431715e-08
51	0x00000000	0.0
52	0x00000000	0.0
53	0x2fd02c0f	3.7866285e-10
54	0x34216eba	1.5034576e-07
55	0x00000000	0.0
56	0x00000000	0.0
57	0x00000000	0.0
58	0x3452cac0	1.9631534e-07
59	0x00000000	0.0
60	0x34449d7a	1.8311212e-07
61	0x00000000	0.0
62	0x353b0ca9	6.968135e-07
63	0x00000000	0.0
64	0x3a1735d0	0.00057682116
65	0x00000000	0.0
66	0x00000000	0.0
67	0x00000000	0.0
68	0x3b80b832	0.003928208
69	0xbb80bb9f	-0.003928616
70	0x3b6d1fed	0.003618236
71	0xb7d4b7bd	-2.535793e-05
72	0x3c7701f8	0.015076153
73	0x00000000	0.0
74	0x00000000	0.0
75	0x3c3e7dd3	0.0116266785
76	0x3981dc46	0.00024768914
77	0x392a806c	0.00016260304
78	0xb9d4d992	-0.00040597894
79	0x3988ad26	0.00026068947
80	0x00000000	0.0
81	0x00000000	0.0
82	0x37f94c6a	2.9718696e-05
83	0x3c112383	0.008858564
84	0x3b881c82	0.004153789
85	0x3b804cce	0.003915406
86	0xba964b3d	-0.0011466515
87	0x3b7e80ea	0.0038834163
88	0xac9e8dbf	-4.506367e-12
89	0xb9f488f8	-0.00046641356
90	0x383cda12	4.5025787e-05
91	0x2d916fff	1.6534328e-11
92	0xbaa45668	-0.0012537958
93	0x00000000	0.0
94	0x3c303264	0.010754202
95	0x3cd09630	0.02546224
96	0x00000000	0.0
97	0x3b407566	0.002936685
98	0x00000000	0.0
99	0x3bd31aa6	0.0064423857
100	0x00000000	0.0
101	0x39bf2448	0.0003645739
102	0x3c7b4d98	0.015338324
103	0xbb7fee4c	-0.0039051948
104	0x3c8b2118	0.016983554
105	0x399abaea	0.0002951243
106	0x00000000	0.0
107	0x3c092f5a	0.008373106
108	0x3c4e781c	0.0126018785
109	0x3bc84794	0.0061120484
110	0x3c872554	0.016497292
111	0x00000000	0.0
112	0xb9ab012a	-0.0003261653
113	0x3c61ede9	0.013789632
114	0x3a64f750	0.0008734362
115	0x00000000	0.0
116	0x00000000	0.0
117	0xb9ddee3d	-0.00042329906
118	0xbb62eafc	-0.0034624925
119	0xad9b567d	-1.7659868e-11
120	0x3b219558	0.0024655666
121	0x28923698	1.6232932e-14
122	0x3ad9bd35	0.0016612174
123	0x00000000	0.0
124	0x3c4558d5	0.012045105
125	0xb71d20e3	-9.365586e-06
126	0x3ca35349	0.019937174
127	0x2ceceb00	6.7336137e-12
128	0x00000000	0.0
129	0x00000000	0.0
130	0x00000000	0.0
131	0x00000000	0.0
132	0x00000000	0.0
133	0x00000000	0.0
134	0x00000000	0.0
135	0x00000000	0.0
136	0x00000000	0.0
137	0x00000000	0.0
138	0x00000000	0.0
139	0x00000000	0.0
140	0x00000000	0.0
141	0x00000000	0.0
142	0x00000000	0.0
143	0x00000000	0.0
144	0x00000000	0.0
145	0x00000000	0.0
146	0x00000000	0.0
147	0x00000000	0.0
148	0x00000000	0.0
149	0x00000000	0.0
150	0x00000000	0.0
151	0x00000000	0.0
152	0x00000000	0.0
153	0x00000000	0.0
154	0x00000000	0.0
155	0x00000000	0.0
156	0x00000000	0.0
157	0x00000000	0.0
158	0x00000000	0.0
159	0x00000000	0.0
160	0x00000000	0.0
161	0x00000000	0.0
162	0x00000000	0.0
163	0x00000000	0.0
164	0x00000000	0.0
165	0x00000000	0.0
166	0x00000000	0.0
167	0x00000000	0.0
168	0x00000000	0.0
169	0x00000000	0.0
170	0x00000000	0.0
171	0x00000000	0.0
172	0x00000000	0.0
173	0x00000000	0.0
174	0x00000000	0.0
175	0x00000000	0.0
176	0x00000000	0.0
177	0x00000000	0.0
178	0x00000000	0.0
179	0x00000000	0.0
180	0x00000000	0.0
181	0x00000000	0.0
182	0x00000000	0.0
183	0x00000000	0.0
184	0x00000000	0.0
185	0x00000000	0.0
186	0x00000000	0.0
187	0x00000000	0.0
188	0x00000000	0.0
189	0x00000000	0.0
190	0x00000000	0.0
191	0x00000000	0.0
192	0x3da0e082	0.078553215
193	0x00000000	0.0
194	0x00000000	0.0
195	0x00000000	0.0
196	0x3dcdd8b7	0.10051101
197	0x3d69193b	0.056908827
198	0x3d37cc44	0.044872537
199	0x37fae005	2.990664e-05
200	0x3df5c37e	0.12000178
201	0x00000000	0.0
202	0x00000000	0.0
203	0x3d9f4e0d	0.07778559
204	0xb87e7af5	-6.067283e-05
205	0xb8d3570a	-0.00010077476
206	0x3a84b2fa	0.001012414
207	0x3c21a4d8	0.009865962
208	0x00000000	0.0
209	0x00000000	0.0
210	0xb7518900	-1.2489269e-05
211	0x3d114990	0.035470545
212	0x3c2c7412	0.01052572
213	0x3da680ea	0.08130057
214	0x3ba0a676	0.004902656
215	0x3cd04659	0.02542417
216	0x2ce20af6	6.4245232e-12
217	0x3c0036a8	0.007825531
218	0xb99a7963	-0.0002946361
219	0xaf6edbe6	-2.1724098e-10
220	0x3d8f66df	0.07002043
221	0x00000000	0.0
222	0x3db8c450	0.09021819
223	0x3e00eb38	0.12589729
224	0x00000000	0.0
225	0x3d57378d	0.05254321
226	0x00000000	0.0
227	0x3da24007	0.079223685
228	0x00000000	0.0
229	0xbb01f8f3	-0.0019832223
230	0x3d15788f	0.036491927
231	0x3dbbea23	0.091755174
232	0x3da0f6eb	0.07859596
233	0xba280b8b	-0.00064104114
234	0x00000000	0.0
235	0x3d6fd30d	0.058550883
236	0x3e26df5a	0.1629614
237	0x3db72d25	0.089441575
238	0x3da2e425	0.07953671
239	0x00000000	0.0
240	0x3aa3314d	0.0012450606
241	0x3c91d338	0.017800912
242	0x3d952e04	0.072841674
243	0x00000000	0.0
244	0x00000000	0.0
245	0x3baf0286	0.005340877
246	0x3d91ca5e	0.071186766
247	0x2ea90185	7.6855e-11
248	0x3b2c139d	0.0026256808
249	0x2708f480	1.9006335e-15
250	0x3ca21eb3	0.01979003
251	0x00000000	0.0
252	0x3d836ce9	0.06417257
253	0x386d73d9	5.6613095e-05
254	0x3e1c4194	0.15259391
255	0xad923097	-1.6619857e-11
