models/reinforce/reinforce_low_lr/checkpoint_ep500.pth (torch, 259594 bytes, 18 tensors)

network.0.weight f4 [128, 26]
000000 85 15 2e 3e e3 4b 4b 3e 1f a5 01 3e 08 5d c5 3d
       0.17000397 0.19853167 0.12660645 0.09636885
000010 9a 5d f8 bd f4 a2 c3 3d e4 27 d2 3d 08 1e a6 3c
       -0.12127228 0.09552565 0.10261515 0.020277992
000020 4b 06 81 3d 76 4c 3d 3e 0a 2b 29 3e b3 df 46 3e
       0.063000284 0.18486199 0.16520324 0.19421272
000030 30 76 19 be 3a 41 06 be 3e 16 b0 3d 61 7e 90 bd
       -0.14986491 -0.1311082 0.08597992 -0.07055355
000040 c7 d5 dd 3d be 39 aa 3d bf 6d ad bc fb 62 76 bd
       0.108317904 0.08311795 -0.021170495 -0.06015299
000050 ff 60 53 3e cf bf ce bd 55 28 4e 3e c1 e4 a4 3d
       0.2064247 -0.10095178 0.20132573 0.08051444
000060 e5 fb 7f bd 95 cd aa bd 0d b7 34 be 3a 30 89 bd
       -0.062496085 -0.08339993 -0.17647953 -0.066986516
000070 cc 6f f0 3d bb 80 3c be 5e 2e 15 3e a0 fb 2f be
       0.117400736 -0.18408482 0.14568469 -0.17185831
000080 f7 ce ca 3b f4 26 10 3e 12 b9 9f 3d 19 65 01 be
       0.006189223 0.1407736 0.07798971 -0.12636222
000090 19 6e 05 3e 63 ab 1b be 29 ce c0 3d 80 05 8f 3c
       0.1303028 -0.15202098 0.09414322 0.017458677
0000a0 cb a9 51 3d e2 d5 19 3e f2 78 68 3c bb 53 db bd
       0.051187318 0.15022996 0.014188992 -0.1070933
0000b0 f8 3f e8 3d ed 35 62 3d 2e 2e 4e 3e e5 fd 45 3e
       0.11340326 0.05522721 0.20134804 0.19335134
0000c0 34 cb 64 3d 23 a9 3e bc b8 2c 89 3d 83 08 00 be
       0.055857852 -0.011637005 0.066979825 -0.12503247
0000d0 4c ca 1a 3e 23 de a5 3b f1 98 26 3e 4d 2d 28 be
       0.15116233 0.005061881 0.1626928 -0.16423531
0000e0 56 9d 2c 3e a2 5f 08 3e 04 0d 4d 3c 0c 13 1f 3e
       0.16856894 0.13317731 0.01251531 0.1553461
0000f0 80 fb 0f be b0 df ff 3c 56 a9 3e bd 98 fd 56 3e
       -0.14060783 0.031234592 -0.04654821 0.20995176
000100 bc 8c cf 3d 72 4f 25 be 0d 1a 4e 3e d2 75 c3 3d
       0.10134265 -0.16143587 0.20127125 0.09543957
000110 2b 17 83 3d 40 fe 50 bd ad cb 3d 3e af ff 2f be
       0.06400903 -0.05102372 0.18534727 -0.1718738
000120 d0 2c a5 bd be d2 17 3e 35 24 0d 3e 14 6e 9f 3d
       -0.08065188 0.14826486 0.13783343 0.077846676
000130 a2 1d 0c bd 95 24 3e 3e a5 f2 1f 3e 44 98 c5 bd
       -0.034207948 0.18568642 0.15619905 -0.09648183
000140 1e 59 ad 3c a7 89 d4 bd 91 a7 fa 3d a5 51 2b be
       0.021160658 -0.103778176 0.12238992 -0.16730364
000150 75 1a e2 bd 07 52 86 3d 97 a6 75 bd 19 ef 06 3e
       -0.110402025 0.06558614 -0.059973326 0.13177146
000160 5c ee 9e bd 0e 8b a5 3a 53 91 23 3e 67 8c 00 3e
       -0.07760307 0.0012629943 0.15973406 0.12553559
000170 79 d4 bc 3d bb 58 4c bd c5 c7 b2 bb 7e da 87 bc
       0.092202134 -0.049889307 -0.0054559433 -0.016583677
000180 8f 85 22 3e d6 b5 a2 bd 27 6a 80 3d 75 a9 b0 3d
       0.15871261 -0.07944839 0.06270247 0.08626071
000190 43 02 92 3d a9 0b 28 3e 58 fa 1c 3e 1f d9 c3 3d
       0.07129338 0.16410698 0.15329874 0.09562897
0001a0 f0 72 2d bc 8e 20 f5 bd a0 e0 ae bb 92 1a 94 bd
       -0.010586485 -0.119691 -0.005336836 -0.072316304
0001b0 ac 1e 4b bd a8 26 3b bd af d6 45 be d6 27 c4 3d
       -0.049589798 -0.045691162 -0.19320177 0.095779106
0001c0 20 a4 17 3c f4 7a 75 3d 27 44 3b be a8 73 0a 3d
       0.009255439 0.05993171 -0.18287717 0.033801705
0001d0 6f 15 40 3e 07 09 1b 3e 84 8e 61 bd b4 79 33 bd
       0.18758176 0.15140162 -0.055067554 -0.043817237
0001e0 bd 5a 0a 3e ec d8 75 3d 7b b2 19 be b3 2c 92 bd
       0.13511176 0.060021326 -0.15009491 -0.07137432
0001f0 7c 23 0e be 38 61 8c bd b0 68 1d bc 2b 6e 1a be
       -0.13880724 -0.068544805 -0.009607479 -0.15081088
000200 35 f8 df bd e8 97 8f bc b7 a3 a2 bd 1a d1 c8 bd
       -0.109360136 -0.01752849 -0.079413824 -0.09805508
000210 6a be 3d be 13 c0 43 3e b1 7d 0f 3e 0d e8 40 3e
       -0.18529668 0.19116239 0.14012791 0.1883852
000220 18 c6 0e be 7a 03 33 3e 64 00 31 3d b0 f3 7f bd
       -0.13942754 0.17481795 0.043213263 -0.062488258
000230 5e b8 86 3c e5 46 06 be 7b f5 d4 3d 7d 26 e2 3d
       0.016445335 -0.13112982 0.10398384 0.11042497
000240 67 29 da 3d b1 36 00 be 1a ea a9 bd 56 9a 1f 3e
       0.10652428 -0.12520863 -0.082966045 0.15586218
000250 dd 97 85 bd ac 17 be bd 81 5d d8 bd 35 d9 21 3c
       -0.06523106 -0.09281859 -0.105647095 0.009878446
000260 ff 11 44 3e e3 50 6a bd f0 d1 e4 3d c8 04 4f bc
       0.1914749 -0.057206046 0.11172855 -0.012635417
000270 8a 28 86 bb 01 04 89 3d 3a d1 fe 3d e3 3b f6 bd
       -0.004094188 0.06690217 0.124422505 -0.12023141
000280 73 e0 08 3e 74 4e 72 bd 22 0c 35 bd 81 0a a8 3d
       0.1336687 -0.05915685 -0.044201024 0.082051285
000290 d1 b8 e8 3c 9c 3e 1e be 83 cc e8 3d f5 5d 53 3d
       0.02840844 -0.15453571 0.113671325 0.051603276
0002a0 a9 ae 2d 3e 22 3c 2c 3d 5f 6c fa bd 8b 23 0b be
       0.16961159 0.042049535 -0.122277014 -0.13587777
0002b0 af 01 00 3e 07 c1 af bc 12 11 aa 3d 9f a6 f0 bd
       0.12500642 -0.021454347 0.08304037 -0.117505305
0002c0 f2 08 b4 3d b3 e7 a5 bd 38 b0 03 be 89 88 0c 3d
       0.08790769 -0.08100834 -0.12860191 0.034309898
0002d0 22 80 27 bd 6a fa 80 bd cc 90 bb 3d 3b cd 3c be
       -0.04089368 -0.06297763 0.09158477 -0.18437664
0002e0 da 63 fb bd 17 b5 4c 3e 13 64 18 3e 58 66 07 3d
       -0.122749045 0.19990955 0.14881925 0.033056587
0002f0 3d d7 47 3e a0 0f 70 3c ab 0d 56 3d be 39 d3 ba
       0.195157 0.014652163 0.05225913 -0.0016115231
000300 5c 04 e4 bd 73 64 3b 3d ab 22 a5 3d ce 92 c5 bd
       -0.11133644 0.045750093 0.08063253 -0.096471414
000310 48 9b 22 3e f7 20 a4 bd d8 13 5f 3e ab 27 0b 3d
       0.15879548 -0.080141 0.21784914 0.033973377
000320 8c 0f fe 3d ad 36 fc bd fe 13 2c 3e 7d 7c 2b bc
       0.12405309 -0.12315116 0.16804501 -0.010466692
000330 9c 20 4d 3e 09 06 e9 bd 34 8a d4 bd a9 17 53 3e
       0.2003197 -0.11378104 -0.10377923 0.20614494
000340 38 3a 4e be fb b3 66 3d ad eb 4a be 95 c7 be bd
       -0.20139396 0.056323987 -0.19816466 -0.09315411
000350 d2 33 56 bd 6f f4 83 bd 49 3b a1 bd ca 79 44 3d
       -0.052295513 -0.064431064 -0.07872636 0.04796771
000360 ab 20 2f 3e 31 a8 07 3e 33 eb 32 3e 10 3b 2c 3e
       0.17102306 0.13247754 0.17472534 0.16819406
000370 f6 26 6a bd bd 4b 11 bd 11 13 73 bd e0 28 31 be
       -0.057166062 -0.03547262 -0.059344355 -0.17300749
000380 7a 66 08 bd 3b ea 33 3e d7 98 2f bc 95 e4 9d 3d
       -0.033300854 0.1756982 -0.010717592 0.07709614
000390 ca 25 3e 3e 01 40 e8 3b d4 8d 2b be 77 93 1c 3e
       0.18569103 0.007087708 -0.16753322 0.15290628
0003a0 d3 37 95 3c 2e e2 6a 3d 23 c5 05 be f4 1c 0a bd
       0.018215096 0.057344608 -0.13063483 -0.033719018
0003b0 96 a7 57 bd 11 7d bd 3a 39 05 a5 3d c6 84 00 bd
       -0.052650057 0.0014456828 0.08057637 -0.031376623
0003c0 2e bf 47 3e 07 3e 35 3e b6 fc 0f be 2a 9b c5 bc
       0.19506523 0.17699443 -0.14061245 -0.02412184
0003d0 2c d1 e7 bd 93 aa a8 bc 26 5a 2c 3e df 95 4b 3d
       -0.11319193 -0.020589149 0.16831264 0.049703475
0003e0 89 b0 06 3e c4 57 05 be c7 34 bd 3d 56 52 51 3e
       0.1315328 -0.13021761 0.09238582 0.20441565
0003f0 c5 df db 3d de 50 d6 bd bb 2d f0 3d c3 c5 bc bd
       0.1073604 -0.10464643 0.117274724 -0.092174076

network.0.bias f4 [128]
000000 cd 8b 18 be 02 89 1d be e9 9f a2 bd fe fa ce 3c
       -0.1489708 -0.15384296 -0.07940657 0.025266167
000010 a2 5c 38 be a9 79 09 3c 67 0d 4d 3c de b5 47 3d
       -0.18004087 0.008390822 0.012515402 0.048757426
000020 48 f8 19 3e 33 fb 70 bd ca 90 c7 bd eb 19 29 be
       0.15036118 -0.058833312 -0.09744413 -0.16513793
000030 00 76 7c bd 2f 62 94 bc ca ac 07 be 00 6e 1e bd
       -0.06163597 -0.018113224 -0.13249508 -0.038679123
000040 5a 16 39 3c 56 13 86 bc 56 35 03 be f3 e6 01 be
       0.011296833 -0.016366642 -0.12813315 -0.12685756
000050 b3 d2 2f be c9 ed b1 bd e1 bd 12 3e 43 67 e4 bc
       -0.17170219 -0.08687932 0.14330246 -0.02788127
000060 9e ce 3b be f1 4f 56 3e ac 80 10 3e c7 78 3b 3e
       -0.18340537 0.20928933 0.14111584 0.18307792
000070 8d 60 37 be de 75 84 bd 73 ac 43 bc 48 48 ff bd
       -0.17907925 -0.06467794 -0.011942971 -0.124649584
000080 c6 44 3f bd 24 1c 47 3e f7 7d 19 be f9 35 80 bd
       -0.046696447 0.19444329 -0.14989458 -0.062602945
000090 00 88 22 3e cc f5 57 bd 08 9d f9 bd ba eb de 3d
       0.15872192 -0.052724645 -0.121881545 0.10884805
0000a0 eb 64 07 3d 65 92 4c 3e 50 04 b4 3c 83 ad c5 3d
       0.033055227 0.1997772 0.021974713 0.09652235
0000b0 0a 20 4a 3e 83 5a ee 3d 06 9b b1 bd 9c 92 ee bc
       0.19738784 0.116383575 -0.086721465 -0.029122643
0000c0 4c 86 b8 bc ac 02 22 be 4f 83 24 be 9c 14 e1 3c
       -0.022524975 -0.15821332 -0.16065715 0.027475648
0000d0 ef 65 40 bc 2e e4 11 3e d7 00 3b be dc 3b 51 3e
       -0.011743053 0.142472 -0.18262039 0.20432991
0000e0 74 f0 3a 3e 14 a8 24 be da 22 01 be 95 0a 0c 3e
       0.18255788 -0.16079742 -0.12610951 0.13675912
0000f0 2c c1 9e bd 37 f4 d7 3c ca db 24 be e6 c4 e7 3d
       -0.07751688 0.026361568 -0.16099468 0.11316852
000100 72 30 15 3e 05 94 2f 3e b8 98 91 bc 00 e1 23 be
       0.14569262 0.17146309 -0.017773017 -0.160038
000110 25 46 0e bd 0a 3a 13 3e 74 d4 84 bb 2a df b9 bd
       -0.034734864 0.14377609 -0.0040536467 -0.09075768
000120 7b b8 c1 3d 65 6c 51 3e 67 da 1e bc 1d 87 cd 3d
       0.09459015 0.20451505 -0.009695626 0.100355364
000130 51 76 e1 bd 3c 20 be 3c 39 a2 06 bd 30 7b 51 3c
       -0.11008895 0.02320873 -0.03286955 0.012785718
000140 d5 e9 4a 3e de 7f ea bd 88 fc 30 be 88 d2 33 bd
       0.19815762 -0.1145017 -0.17283833 -0.04390195
000150 6b 61 4e 3e e6 08 90 bc 75 cd f7 bc f7 bb d9 3d
       0.2015435 -0.017582368 -0.030249337 0.106315546
000160 59 52 00 bc c0 75 14 3e 23 b5 31 3e 02 02 34 3d
       -0.007832133 0.14498043 0.17354254 0.043947227
000170 fb 2e ae 3d f6 c0 8f bd 0b c3 93 3d 09 b0 56 bd
       0.085050546 -0.07019226 0.07214936 -0.052413974
000180 b1 2c 0a 3e 18 e2 c6 3d e1 31 1a 3e 0e d2 4a 3e
       0.13493611 0.09711093 0.1505809 0.19806692
000190 f1 4d 26 be e0 74 92 3d e0 dd 02 be de 68 33 3e
       -0.1624067 0.071511984 -0.12779951 0.17520472
0001a0 a1 17 a0 3c 38 62 b2 bc d9 c8 a8 bd 11 b2 3b 3e
       0.019542517 -0.02177535 -0.08241434 0.18329646
0001b0 42 0d f1 bd ca c8 c6 3d 71 88 c5 bd 90 60 57 bd
       -0.11770107 0.09706266 -0.09645165 -0.052582324
0001c0 14 3b 01 be 5b 68 46 be 31 b2 19 be a4 ec e6 bd
       -0.12620193 -0.19375746 -0.15009381 -0.11275604
0001d0 0c f0 bd 3d 77 3f 04 be c6 ee 19 3e fb 64 4d 3e
       0.09274301 -0.12914835 0.15032491 0.20058052
0001e0 0f 84 10 3e 8f 23 1c 3d 4a 58 72 bc b0 db 38 be
       0.14112876 0.03811985 -0.014791558 -0.18052554
0001f0 43 44 35 bd e2 1a 2c be 2e 7d df bd a6 94 d2 3c
       -0.044254553 -0.1680713 -0.10912548 0.025705647

network.2.weight f4 [128, 128]
000000 e8 27 24 3b 8d 03 95 3d 73 94 b2 3d 88 7b 3c 3d
       0.00250482 0.07276068 0.08719721 0.046016246
000010 b9 76 8e 3d 46 80 9c 3d b6 7d e3 3c f6 6b a6 3d
       0.06956238 0.07641654 0.027769905 0.08126061
000020 21 92 4b bd 76 80 c2 3d ab 88 03 3c f4 47 c3 3d
       -0.049699906 0.09497158 0.00802819 0.09535208
000030 ef 3a 79 bd e4 3a 6d 3d 64 4a 91 3d f8 01 94 3d
       -0.06084722 0.05791749 0.07094267 0.07226938
000040 e9 88 1e bd 5e 67 fd 3c 61 65 a5 3d 63 3d 06 3d
       -0.038704786 0.030933078 0.08075977 0.032773387
000050 32 4d a7 bd db dd 6c bd 2d 9f b4 3d 0c c6 1c bd
       -0.08169021 -0.057828765 0.08819423 -0.03827481
000060 b9 b7 9c bc c0 2a 93 3c 6f dc cf 3b 42 ea d6 bc
       -0.019130575 0.01796472 0.0063434164 -0.02623475
000070 8e 04 6d bd 34 a9 0a bd 82 4a 85 3d 54 12 31 bd
       -0.05786567 -0.03385277 0.06508352 -0.04323037
000080 1d 6e 46 3d 35 97 a7 3d 94 27 88 bd e9 23 dc bc
       0.048444856 0.08183137 -0.06648174 -0.026872592
000090 50 00 ef 3c 8a 70 c6 3c 35 e0 fd 3b bc 0f 6b 3d
       0.029174954 0.024223585 0.007747675 0.057388052
0000a0 1c 39 d2 3d 01 10 23 3c 5e 65 59 3d 4c ba c0 3b
       0.10264799 0.009952546 0.053075187 0.0058815833
0000b0 94 04 df bc 68 3e 63 bd 4d d0 2f bc b8 14 67 3b
       -0.027223863 -0.055479437 -0.010730815 0.0035260152
0000c0 c1 2b c2 3d 4d 27 9f 3d d8 22 1f bd 50 20 47 bd
       0.09481002 0.07771168 -0.03885159 -0.0486148
0000d0 62 1b 20 3d 9f 52 57 bd 96 7d 71 bd d8 ea 78 3d
       0.039088614 -0.052569028 -0.05895766 0.06077084
0000e0 b1 7a 50 3d b1 57 2b 3d 57 c5 44 bd d7 b4 d4 bb
       0.050898258 0.041831676 -0.04803976 -0.0064912844
0000f0 da 20 ce 3d 74 5e 91 3d 72 94 30 3c de f1 e1 bb
       0.1006486 0.07098094 0.01077758 -0.006895288
000100 24 9a 4e bd 8c 4e a7 bc 44 eb 3e bc a9 49 5b 3d
       -0.05043997 -0.020423196 -0.011652771 0.053537045
000110 42 ac 20 bd 90 50 3b 3d 1e 2b 80 3c ac d8 20 bd
       -0.039226778 0.045731127 0.01564556 -0.039269134
000120 0b 62 9f bd 88 8c a5 3d bb f8 89 3c 6e 69 99 bd
       -0.07782372 0.08083445 0.016842237 -0.07490812
000130 19 5b 1d 3d 4d 60 c3 3d 7e 2c 43 bd c6 89 7f bd
       0.038416956 0.09539852 -0.047649853 -0.06238725
000140 7f 16 73 3c e7 d1 9a 3d 19 01 87 3d b8 f6 ca bc
       0.014836906 0.07559567 0.06592006 -0.024775848
000150 48 3b 19 bd 07 92 f9 3c 9a e2 96 bd 63 57 9d bd
       -0.03741005 0.03046514 -0.073674396 -0.07682683
000160 22 a9 5c 3d 99 24 3f 3d e8 9f ff bc 46 ae cf 3d
       0.053872235 0.04666576 -0.031204179 0.10140662
000170 96 bd 41 bb 80 cf 21 3d 2a e3 0e 3c 99 46 da 3c
       -0.0029562465 0.039504528 0.008721152 0.026644992
000180 57 0a 40 bd 3a ea 8f bd 1b 69 cf 3d fa 9e 71 3c
       -0.04688486 -0.07027097 0.10127469 0.014747376
000190 00 05 a6 3d df f0 73 bc 2c 1e 88 3d ef f9 9f bc
       0.081064224 -0.014888971 0.0664638 -0.019528357
0001a0 93 03 fb bc 7d af b1 3d 77 35 04 bd 2e c4 cb 3d
       -0.030641353 0.0867605 -0.03227755 0.09949528
0001b0 cc 21 dd 3d 60 25 a2 3d 6a db 80 bd 12 aa 02 3d
       0.10797462 0.07917285 -0.0629185 0.031900473
0001c0 13 e3 b5 bc a1 f3 82 3d ca 4c 6b 3d 54 06 5f bd
       -0.022203004 0.06394125 0.05744628 -0.054449394
0001d0 4c c2 91 bd 57 f4 bc 3d 90 f1 c1 bc e2 1c 0c 3d
       -0.07117137 0.092262916 -0.023674756 0.034207232
0001e0 2e ce 30 bd 30 5e 0b 3d 35 df 63 bd 38 e5 36 3b
       -0.04316538 0.03402537 -0.05563279 0.002790762
0001f0 67 8c 2f bd 62 1d 41 3d 43 b0 2e bd 85 29 d1 3d
       -0.042858507 0.047147162 -0.042648565 0.10212997
000200 12 58 51 3d 56 f0 a0 bc 8d d8 87 bd 0d 46 40 bd
       0.05110938 -0.019645851 -0.06633101 -0.046941806
000210 4b 01 9a 3d 20 9f 64 3c 58 05 85 bc c6 88 ce bb
       0.07519778 0.013953954 -0.0162379 -0.0063029258
000220 34 10 70 3d a0 ff 09 bd 17 61 5d 3d 1c bd c3 bc
       0.058609203 -0.03369105 0.05404767 -0.023893885
000230 ff b1 b0 bd 4f 6e 16 3c 21 4c 85 3d c6 02 58 bd
       -0.086277 0.009181573 0.06508661 -0.05273702
000240 e1 8b 2e bd fb 1f 4f 3c ac a5 99 bc 68 cb 24 ba
       -0.042613868 0.012641902 -0.018755756 -0.00062864134
000250 db b0 a1 3d 59 c4 61 bd 53 0a 76 3c 79 d2 3f bc
       0.07895061 -0.055118892 0.01501711 -0.011707895
000260 0b 5b 5a 3c b0 f1 73 3c 7d 82 c7 3c ca 18 8c 3d
       0.01332737 0.014889166 0.024354214 0.06840666
000270 8e 2c 86 3d 96 8c 5a 3d 52 bf ab bc a9 be 8c 3d
       0.06551467 0.05335673 -0.020965252 0.06872303
000280 fb c9 80 bd 26 c5 0b ba b7 57 72 bd 2a b7 a6 bc
       -0.06288525 -0.00053318066 -0.059165683 -0.020351011
000290 f4 24 a1 bd e4 d6 9f 3d 8e aa 77 3d 99 f2 25 3c
       -0.078683764 0.07804659 0.060465388 0.010128641
0002a0 31 92 c8 bc d5 46 73 bd 48 91 7f bd c0 cd d6 bb
       -0.024483772 -0.059393723 -0.06239441 -0.006555289
0002b0 68 07 14 bd 57 31 06 bd 26 43 d9 ba 35 f7 ee 3c
       -0.036139876 -0.032761898 -0.0016575798 0.029170612
0002c0 15 47 5e 3d c5 2c bc bd 30 3f 06 bc db 1c f5 bc
       0.054267008 -0.091882266 -0.008193776 -0.029920986
0002d0 fb 3f 53 bd d0 3c 15 3d c7 de 94 bd b2 42 5b bd
       -0.05157469 0.03643495 -0.07269054 -0.053530402
0002e0 c5 b1 8c 3d 7f b6 57 bd 38 04 93 3d 6b ac b4 bd
       0.06869844 -0.052664276 0.07178539 -0.088219486
0002f0 06 fd f4 3c 8d 41 77 bd 7a 94 65 bd 71 f2 76 3b
       0.029905807 -0.06036525 -0.0560498 0.0037681127
000300 6f e1 aa 3c 37 79 a3 bd 80 5a 9c bb 49 89 15 bd
       0.020859448 -0.07982104 -0.0047715306 -0.03650788
000310 45 24 1b bd 7f a9 79 3d 92 00 0d bb d6 aa 80 3d
       -0.037876386 0.06095266 -0.0021515233 0.06282584
000320 a8 18 ec bc f2 c6 34 3d 98 ec 96 bd 5b 8f 00 3d
       -0.02882035 0.04413504 -0.073693454 0.031386714
000330 45 61 14 bd c2 65 dc 3b a0 d9 06 bd 90 90 aa bb
       -0.036225576 0.0067259977 -0.032922387 -0.0052052215
000340 18 14 81 3d 90 00 2c bc ca 2e 7d bd 00 d5 32 ba
       0.06302661 -0.010498181 -0.0618122 -0.00068219006
000350 e3 97 d1 bd 69 44 a7 bd e1 3f b5 3b ae 38 05 3b
       -0.10234048 -0.08167345 0.0055312966 0.0020327973
000360 08 a7 b0 bc db 41 85 3d 7a 89 23 3d e3 0f 43 3d
       -0.021564022 0.065067016 0.03992603 0.047622573
000370 e9 97 97 3d 8a d9 df bc ee 12 4e 3d db a2 9e bd
       0.074020214 -0.02732541 0.05031102 -0.07745906
000380 93 6b 77 bd 31 27 ac 3d 44 e9 bd bd b1 02 38 bd
       -0.060405325 0.08405913 -0.092730075 -0.04492444
000390 cf a2 83 3d 23 12 a0 3d d7 ff 1a bd 26 ad 59 bd
       0.06427538 0.07815959 -0.037841644 -0.053143643
0003a0 a1 c1 f5 3b 96 bc 49 3d 10 c0 72 bd cb f4 61 3d
       0.007499889 0.049252115 -0.059265196 0.055165093
0003b0 b7 92 a4 bb 0b b3 a9 bc 73 cb 6f 3d d7 43 98 bd
       -0.0050223726 -0.020715257 0.058543634 -0.074348144
0003c0 1b bd 38 3c ea 9d 8d bd 55 ac 40 bd df b3 42 3d
       0.011275555 -0.06914885 -0.04703935 0.04753482
0003d0 aa 27 69 bd 1a d6 fd bc 6b 28 dc 3b 42 97 35 3c
       -0.056922592 -0.03098588 0.0067186854 0.011083426
0003e0 22 3d 3c 3c 32 31 98 3d 3e 11 a5 3c fd cd 4b bc
       0.011489185 0.07431258 0.020149823 -0.012439248
0003f0 dc df 5f 3d 47 92 9c 3d 74 76 d3 3c 55 cb 30 bd
       0.05465685 0.07645088 0.025813319 -0.043162663

network.2.bias f4 [128]
000000 8d 12 d4 3d 5f 7b 36 3d 59 c2 9a bc ff e2 3f bd
       0.10355101 0.04455125 -0.0188915 -0.04684734
000010 9a a6 a0 3d a9 a5 ae 3d f7 6e 07 3d 5c cd b4 bd
       0.07844277 0.08527691 0.03306481 -0.08828232
000020 35 b4 86 3d d3 16 aa bd 29 13 96 bd ec ff b3 bb
       0.065773405 -0.083051346 -0.07327873 -0.0054931547
000030 0d 5c 7b 3d 00 5a e0 39 d6 55 b5 bc ff c5 68 3c
       0.061367083 0.00042791665 -0.022135656 0.014207362
000040 3d 39 77 bd ee 36 06 bd 8b 95 47 3d 7c 99 6c bd
       -0.06035732 -0.03276723 0.0487266 -0.05776356
000050 d2 c1 ad bc 89 e8 87 3d ed 45 bb bb 9e 26 09 3d
       -0.021210585 0.066361494 -0.005715123 0.033484094
000060 f5 4c 0a bd 3a 01 1f 3c 07 c1 e0 3c ee f4 82 3d
       -0.0337648 0.009704882 0.027435793 0.06394373
000070 88 b5 99 bd 1a cb f2 bc 52 39 a1 bc 88 56 46 3d
       -0.075053275 -0.029637862 -0.019680653 0.048422366
000080 a7 2c 6f bd 1b 00 82 3d b2 8b 70 3d a2 9f 58 bc
       -0.058392193 0.06347676 0.058726974 -0.013221653
000090 a8 03 a7 3d d9 fc 53 3c b4 b5 89 bc e1 a7 ed 39
       0.08154994 0.012938702 -0.016810276 0.00045329242
0000a0 e6 b8 e8 3c 66 84 2f bc 8a e4 64 3d f2 60 66 bd
       0.028408479 -0.010712719 0.055882014 -0.056244798
0000b0 e4 84 c9 3d 5d 12 b2 bc 16 d2 19 bb df 88 67 3d
       0.098398 -0.021737272 -0.0023471168 0.056527015
0000c0 57 b2 18 bb 8e ac a9 3c 71 2b da 3c 1d 39 b4 bd
       -0.0023299658 0.020712163 0.026632043 -0.08799956
0000d0 77 14 ac bd 92 a2 8e 3d c1 30 96 3c e5 c3 cc 3d
       -0.08402341 0.069646016 0.018333795 0.099983014
0000e0 4f 21 56 bc 48 67 92 bd 83 d5 6c bd e1 38 aa bd
       -0.013069465 -0.071486056 -0.05782081 -0.0831163
0000f0 b0 bd 1d bc 34 d8 2a 3c 7a e7 a6 3d 22 25 9a bd
       -0.009627745 0.010427523 0.081496194 -0.07526614
000100 ae 2d 7c 3d b0 0e 84 bd 32 00 cb 3d 6e 8a 5a 3c
       0.061567 -0.06448114 0.09912147 0.013338668
000110 07 b2 dc bc 7a ae 6b 3c 34 4a fc 3b 9d 42 0b 3c
       -0.026940359 0.01438486 0.0076992754 0.008499769
000120 72 da 22 bd 7a cd 99 bd c3 f3 23 bd aa 56 95 bd
       -0.039759107 -0.07509895 -0.04002739 -0.072919205
000130 ff 88 8a bd a8 db 71 3d 19 35 25 3d bc 74 18 3c
       -0.06764411 0.05904737 0.04033384 0.009305175
000140 b5 38 c7 3c cc 2d 76 3c 08 eb f2 bc 9c cb a2 3c
       0.024319032 0.015025567 -0.029653087 0.01987248
000150 92 18 97 bd 42 73 50 3d 86 ad 69 3d 33 89 16 bd
       -0.07377733 0.05089117 0.05705025 -0.036751937
000160 b7 e1 87 3d 06 36 ec bc 94 4a 73 3d 23 11 c6 3d
       0.066348486 -0.028834354 0.059397295 0.09671237
000170 30 e8 9b bd 87 36 09 bd 0a 19 5b 39 81 11 b9 3c
       -0.076126456 -0.033499267 0.00020894795 0.022591354
000180 00 cb ad bc d2 42 88 3d 1c 1d 3e 3d a4 cc 92 3c
       -0.021214962 0.0665337 0.04641448 0.017919846
000190 94 cf 6a bd 30 ec 85 3d 07 1d 2d 3c fc 00 26 3d
       -0.05732687 0.0653919 0.010566003 0.040528283
0001a0 df be 96 bd d4 cf 06 3d 7b 5f 78 3d eb 5b a3 3d
       -0.073606245 0.032913044 0.060637932 0.07976516
0001b0 03 08 d7 3c c4 a3 17 3d 1e be ba 3c d9 64 87 3d
       0.026248937 0.037021413 0.022795733 0.06611032
0001c0 5d ba 9f 3c d1 5a 25 3d 51 6f 7b 3d 25 74 bd bc
       0.019498045 0.040369812 0.061385456 -0.023126671
0001d0 d6 0b 4c 3d 87 64 a2 bd ff a5 cd 3b ca 9d 3a bd
       0.049815975 -0.0792933 0.006275892 -0.045560636
0001e0 bc a8 c9 3d 5a 64 d3 3c 0e 23 b4 bd a3 c3 57 3c
       0.09846637 0.025804687 -0.08795749 0.013169202
0001f0 2c aa ef bc 80 e5 0a 3d 33 6a 9d 3c 76 33 b6 3d
       -0.029255949 0.033910275 0.019215679 0.08896534

network.4.weight f4 [8, 128]
000000 18 b6 0d 3c 66 ad 83 bd 25 8a a1 3d ca c5 f8 bc
       0.008649372 -0.064295575 0.07887677 -0.03036775
000010 22 5a 94 bd 15 91 75 bb 8a df 29 bd 0a 00 21 bd
       -0.07243754 -0.0037470509 -0.04147295 -0.039306678
000020 a5 9b d9 3c 3d 8f 39 3c 27 5c a0 bd 09 25 8c bd
       0.026563475 0.011325655 -0.07830077 -0.068430014
000030 ce 39 0b 3d bf 43 38 bd c8 44 b4 3c e9 97 67 bd
       0.033990674 -0.044986483 0.022005454 -0.056541357
000040 d7 ce cd bc a2 ec b3 bc 6a a7 94 bd 4b d8 9e 3d
       -0.025123043 -0.021963421 -0.07258494 0.07756098
000050 4f b3 39 3d af c9 32 bd 69 ad 8c 3b 49 01 52 3c
       0.045337018 -0.04364937 0.004293133 0.012817689
000060 d6 72 af bd 0e 4f a5 bd 0e 61 e3 3c c3 45 11 3d
       -0.08566825 -0.08071719 0.02775624 0.03546692
000070 91 c9 55 bd bd ba 9c 3d f6 9d 40 3d ce e8 5a 3c
       -0.05219418 0.07652805 0.047025643 0.013361169
000080 32 09 83 bd 5a d2 13 3d cb 52 ab bd fa 11 05 3d
       -0.06398238 0.03608928 -0.08365401 0.032487847
000090 bd 3f 07 bd 64 c7 46 ba 55 25 1f 3d bb cd 76 3d
       -0.03301977 -0.0007582812 0.038853962 0.060254794
0000a0 d5 eb 3b bd a0 f9 78 bd 7c 55 a8 3d f4 c4 db bc
       -0.045879204 -0.060784936 0.0821943 -0.026827313
0000b0 56 15 1d 3d a2 ce 56 3c 5a 17 a7 3d 87 05 27 3d
       0.038350426 0.013110789 0.08158751 0.040776756
0000c0 88 3e 97 3d 52 7c 0e 3d c7 60 86 3d 80 5c af bb
       0.07384974 0.03478653 0.065614276 -0.005351603
0000d0 f4 e8 81 bd 9c 58 b4 bd df 6a 1f bd 13 63 0d bc
       -0.063432604 -0.088059634 -0.03892028 -0.008629578
0000e0 a1 39 26 3d 02 b7 10 3c 10 dd 64 3c ca 66 e4 bc
       0.040582303 0.008832695 0.013968721 -0.027881045
0000f0 65 ed 93 3d 9b ca 6e 3d 24 6a b1 bd 2b 86 e6 3c
       0.07223014 0.05829869 -0.08662823 0.028140148
000100 2f dd 77 bc d4 3b 83 bd 47 d9 32 3d 7c 81 46 bb
       -0.015128418 -0.06407896 0.043664243 -0.003028958
000110 64 cb 84 3c 40 5f 51 bd 52 a8 48 3d 14 8e 6d 3d
       0.016210265 -0.051116228 0.048988648 0.057996824
000120 6b b4 7d bc b0 17 35 3c 3c 01 4d bd d4 f6 a1 3d
       -0.0154849095 0.011053011 -0.050050005 0.07908407
000130 7a 56 9c 3d b2 bc 8e bc b8 c4 4e 3d 05 4d 5b bd
       0.076336816 -0.017423961 0.050480574 -0.05354025
000140 93 44 85 bd 39 9f 87 3d 99 3c b3 bd 2d 21 9d 3d
       -0.0650722 0.06622166 -0.087517925 0.076723434
000150 06 ca e0 bc 08 eb ea bc 05 8b 27 3d 30 9a 22 bd
       -0.027440082 -0.028676525 0.040904064 -0.039697826
000160 69 a5 84 bd 1e c3 1a 3d d8 89 89 bd ae 6d 4a bd
       -0.06476862 0.037783735 -0.06715745 -0.049421005
000170 3c a7 1d bc 86 ee 67 3d 13 4d 48 bc d3 04 1e 3c
       -0.009622391 0.056623958 -0.012225407 0.009644705
000180 b2 d8 b0 bd ae 6d ad bc 39 52 57 3d 50 46 9c bb
       -0.08635081 -0.021170463 0.052568648 -0.004769124
000190 fa c6 8f 3d 65 c6 ff bc 07 73 a0 3d 2a 1d 5c bd
       0.07020374 -0.031222532 0.0783444 -0.05373875
0001a0 dd 37 82 3d 3d e3 94 bd 6c fa 88 3d d5 65 2f bd
       0.06358311 -0.07269905 0.06688389 -0.042821724
0001b0 59 60 67 3d c6 eb 93 bd 88 66 ce 3c 12 36 31 3d
       0.05648837 -0.072227046 0.025195375 0.043264456
0001c0 e3 34 1d bd e8 53 88 bc 34 d1 c2 bc 54 28 c8 3c
       -0.038380515 -0.016641572 -0.023781396 0.024433292
0001d0 64 52 46 bd 98 e9 97 bc 1c 0a 92 bd f8 c1 ab 3c
       -0.048418418 -0.018544003 -0.071308345 0.020966515
0001e0 4d a8 20 bd 73 75 3c 3d 02 53 63 bd 32 af d6 3c
       -0.039223004 0.046010446 -0.055499084 0.026206587
0001f0 a1 82 a3 3d 35 9a 8a bc 6c 3e df b9 5d 20 6f 3d
       0.079839 -0.016919235 -0.00042580382 0.058380473
000200 80 2c da 3d 22 22 54 bd 9d d6 26 3d a2 da 68 3d
       0.10653019 -0.051790364 0.040732015 0.05684913
000210 a4 37 92 3c 24 bd d4 3d ef 9b 92 3b 04 d1 09 3d
       0.017848797 0.10387638 0.004474155 0.0336466
000220 ac 6b ef 3d 33 5b d8 bc 6b 64 e4 3d c4 0c 82 3d
       0.11690459 -0.026410675 0.11151966 0.06350091
000230 f4 40 79 bd a8 be 71 bd 0d 63 d5 bc 2c 2e 67 3d
       -0.06085296 -0.059019715 -0.026048208 0.056440517
000240 bc 2e 5a bc 16 a6 31 3d a7 33 ae bb 98 6f 2e 3c
       -0.013316806 0.043371283 -0.005316216 0.010646723
000250 19 cb 95 bd 31 a9 94 3d 13 ac 42 3d 10 1f c2 bc
       -0.073141284 0.07258833 0.047527384 -0.023696452
000260 d2 4f c1 bb 70 38 bc 3d 1a 40 c9 bc ae f0 35 3d
       -0.005899408 0.09190452 -0.024566699 0.044418983
000270 00 3b cd b9 1b e1 2f bd 4e 25 89 bd fb 59 df 3c
       -0.00039144605 -0.042939287 -0.066965684 0.027264586
000280 8f 02 ad bc bd d6 3d bd 85 aa 65 bd ab 39 4e 3d
       -0.021119384 -0.04634737 -0.056070823 0.050347965
000290 33 db 26 3d fd 41 1c 3d 5b 8f 3f bd 10 1f 86 3d
       0.04073639 0.03814887 -0.046767574 0.065488935
0002a0 f4 91 90 3d 0a 84 cc bc 1a b4 8d 3d 0c 2c 9b 3c
       0.07059088 -0.024965305 0.06919117 0.018941902
0002b0 3d e1 cf 3d 20 f0 bf 3d 3c d3 8d 3d 0f 01 c8 3d
       0.10150383 0.09371972 0.069250554 0.09765827
0002c0 f4 dd 76 bd b0 af 5c bc e5 e3 2d 3d 00 76 e3 ba
       -0.060270265 -0.013469622 0.042453665 -0.0017353892
0002d0 84 9a ad bd a3 0d e8 3b b7 08 d1 3d fd 6a 66 3b
       -0.08476737 0.0070817037 0.1020674 0.0035158985
0002e0 b6 53 6f bd 12 cc 58 bd 69 b6 2f bd e1 c1 61 bd
       -0.058429442 -0.05292899 -0.04289857 -0.055116538
0002f0 76 79 87 bd 9d c7 62 bd 78 ea 2f 3d ed d1 f4 bc
       -0.06614964 -0.055366147 0.042948216 -0.029885257
000300 74 28 ba 3b e3 99 b0 bd da 08 de 3d 0d da 75 bd
       0.005681092 -0.086231016 0.10841532 -0.060022403
000310 a9 c5 89 3d 09 e6 76 3d c8 ee 7f bd 7f ff 5e bd
       0.06727154 0.060277972 -0.06248358 -0.05444288
000320 50 08 a6 bd da 97 11 3d 63 82 2b 3d ae 18 9a 3d
       -0.08107054 0.035545208 0.041872393 0.075242385
000330 0a 72 0a 3c 8a 4f 94 3d ec c2 32 bc 02 c1 9b bd
       0.008450041 0.07241733 -0.010910731 -0.07605173
000340 37 07 3d 3d c1 ce b0 3d e6 73 b1 3d 95 89 6b bd
       0.04614946 0.08633185 0.08664684 -0.057504255
000350 d2 ac 3a bc 94 73 b1 3c 5f fa be bc 39 f9 75 bd
       -0.011393743 0.021661557 -0.023312746 -0.06005213
000360 ef 99 2d bc 21 f6 4a bd 1b b5 62 bd 0f 21 b1 3d
       -0.010595783 -0.049551133 -0.055348497 0.086488836
000370 2a 1b af bd 67 86 11 bd b1 e5 e9 3c da d6 cb 3d
       -0.08550103 -0.035528567 0.028551908 0.09953089
000380 64 1b b6 3b b7 8e 87 bd 56 f2 e9 3d 71 c6 b3 bd
       0.0055574644 -0.066190176 0.11423175 -0.08778084
000390 14 5b 90 bd 15 f8 69 bb 33 73 45 3d e2 e4 a9 3d
       -0.07048622 -0.0035700847 0.048205566 0.08295609
0003a0 7a 0d b1 bd 91 4b 72 3d 42 55 67 3d 68 3f 5d 3d
       -0.086451486 0.059154097 0.056477793 0.054015547
0003b0 ec 4d 94 3d cb a8 4c bd 08 25 91 bd eb 32 9c bc
       0.07241425 -0.04996566 -0.07087141 -0.019067248
0003c0 b5 79 a1 3d f6 16 f2 3d 45 af 76 3c 2e 7e 7d bd
       0.07884542 0.11820786 0.015056436 -0.061887912
0003d0 2f b9 67 bd 2d 6d 90 bd f9 e8 a3 bd 18 dd a7 bd
       -0.05657309 -0.07052074 -0.080034204 -0.08196467
0003e0 6d bc a6 3c 5c 2b 9f 3d 1d 2c 9a 3d 3c ad 11 3d
       0.02035352 0.07771942 0.07527945 0.0355656
0003f0 a7 40 77 bd 0b e8 27 bd 32 a4 02 bc 92 ed a2 3d
       -0.06036439 -0.040992778 -0.0079737175 0.07955469

network.4.bias f4 [8]
000000 a8 7f b7 bd 8a 4a 29 bc cc ef 1f bc 03 bc 1d 3d
       -0.08959895 -0.010332713 -0.009761762 0.03850938
000010 c7 e7 82 bd 92 0b 0a 3d 3f 6e 37 3d 4b 80 1e 3d
       -0.06391864 0.03370244 0.044782873 0.03869657

exp_avg f4 [128, 26]
000000 26 b2 f1 3b 93 bc 9c 3a 09 2d 2b 3c 20 24 6f b9
       0.0073759733 0.0011958055 0.010447749 -0.00022806274
000010 04 7c 18 3b cc 64 58 3c 62 18 8d 3a 36 6c d0 bc
       0.0023267278 0.013207626 0.0010764713 -0.025442224
000020 a2 f3 85 3c 1c d3 78 3c a9 91 9b bc f7 08 41 3c
       0.016351525 0.015187051 -0.018990355 0.011781923
000030 7a 4c 94 3c c6 9a 4e bc ec 78 8b bc 62 29 bc 3b
       0.018102873 -0.012610143 -0.017025433 0.005742238
000040 db e7 c3 bc bc d8 33 3b a7 6b 91 bc 0f ea 9f bc
       -0.023914268 0.0027442416 -0.017751528 -0.019520788
000050 60 a3 53 bc 1b e0 be bb 54 f3 67 bb e0 90 d3 ba
       -0.01291737 -0.0058250553 -0.0035392838 -0.0016141199
000060 82 b2 06 bc 2c 74 fb bb 48 0d dd ba 6c 01 02 3c
       -0.0082212705 -0.007673761 -0.001686492 0.007934909
000070 0d 64 0a 3c 03 b8 30 bc ae d0 18 3c 60 a4 41 3c
       0.0084467055 -0.010786059 0.009327097 0.011818975
000080 d4 a7 bf bc 30 4c 0c be 74 b1 26 3c 58 2e 53 3c
       -0.023395456 -0.13700938 0.010174144 0.012889467
000090 ab 4d d4 bd 52 85 2a bd fc a4 d4 3c a1 b0 db bd
       -0.103663765 -0.04163105 0.025957577 -0.10727049
0000a0 a9 f4 02 be 9a 60 eb bc af bb e3 bd b1 f8 b8 bd
       -0.12788643 -0.028732587 -0.11119782 -0.09031809
0000b0 aa 41 fa bd b3 6a e2 bd ce b9 02 be 2d 48 78 bd
       -0.12219556 -0.110555075 -0.12766191 -0.060615707
0000c0 81 ab 5b bd 86 a7 d6 bc 78 76 92 bd e2 db 8a bd
       -0.053630356 -0.026202928 -0.07151502 -0.067802206
0000d0 ab 1a 1e bc 0e 9a 11 bc 55 73 09 bc 4e 36 15 bc
       -0.009649913 -0.008886827 -0.008389314 -0.0091071855
0000e0 58 c7 d9 bb c7 98 10 bc d0 1f 85 bc 31 95 5f bd
       -0.006646078 -0.008825487 -0.016250521 -0.05458564
0000f0 1b ed 01 bc e5 a2 04 bc 97 eb 31 bd 2f 3c 5c bc
       -0.0079300655 -0.008095478 -0.043437567 -0.013442083
000100 ea 37 67 bb e8 44 2f bd 26 bf 31 bd 09 7d cb bc
       -0.003528113 -0.042790323 -0.043395184 -0.024839895
000110 a1 f9 50 bd ac a6 01 bd ba c8 35 bd 43 c4 63 bd
       -0.051019315 -0.03165309 -0.04438088 -0.05560709
000120 25 7e 53 bd 93 03 d1 bc d7 48 b1 bc 60 0a 29 bc
       -0.051633973 -0.0255144 -0.021641178 -0.010317415
000130 cf 84 ec bc ea 41 e6 bc 1f 5a 9d bb 99 22 3a bb
       -0.028871922 -0.028107602 -0.004802003 -0.002840197
000140 b0 c6 b2 ba 44 00 00 bc c0 d7 c7 ba 60 d6 25 bc
       -0.0013639536 -0.007812563 -0.0015246794 -0.010121912
000150 4b 6e 1c bd e1 55 11 be ce 90 f5 bb 58 db 09 bc
       -0.03819112 -0.14192916 -0.0074940687 -0.008414112
000160 7a 0b bf bd a4 64 42 bd 16 a6 b7 3b 23 96 e5 bd
       -0.09328361 -0.04745926 0.005604516 -0.11210277
000170 28 c0 05 be 71 58 31 bd 4c ec d0 bd 26 05 e9 bd
       -0.13061583 -0.043297235 -0.1020132 -0.11377935
000180 56 70 ff bd f5 32 f6 bd 77 97 0e be 34 2f 87 bd
       -0.12472598 -0.12021438 -0.13924967 -0.066008
000190 54 cc 64 bd b5 69 cb bc 60 89 9c bd 11 a5 96 bd
       -0.055858925 -0.024830678 -0.0764339 -0.07355703
0001a0 00 00 00 00 00 00 00 00 00 00 00 00 00 00 00 00
       0.0 0.0 0.0 0.0
0001b0 00 00 00 00 00 00 00 00 00 00 00 00 00 00 00 00
       0.0 0.0 0.0 0.0
0001c0 00 00 00 00 00 00 00 00 00 00 00 00 00 00 00 00
       0.0 0.0 0.0 0.0
0001d0 00 00 00 00 00 00 00 00 00 00 00 00 00 00 00 00
       0.0 0.0 0.0 0.0
0001e0 00 00 00 00 00 00 00 00 00 00 00 00 00 00 00 00
       0.0 0.0 0.0 0.0
0001f0 00 00 00 00 00 00 00 00 00 00 00 00 00 00 00 00
       0.0 0.0 0.0 0.0
000200 00 00 00 00 00 00 00 00 f2 98 31 bc 04 a2 fb bb
       0.0 0.0 -0.010839688 -0.007679226
000210 93 0d 25 bc b2 6e 50 bc 12 f5 f6 bb 02 90 8d bc
       -0.010074037 -0.012721704 -0.007536539 -0.017280582
000220 20 3c ed bc 12 19 a5 bd 8c dc 68 bc e7 93 66 bc
       -0.028959334 -0.080614224 -0.014212739 -0.014073349
000230 57 92 6b bd e7 cd de bc 98 43 8a bb a7 e8 81 bd
       -0.057512607 -0.027197791 -0.0042194836 -0.06343203
000240 ed aa 8e bd 4e 04 10 bd aa 8e 87 bd 33 39 67 bd
       -0.06966195 -0.035160355 -0.06619008 -0.056451034
000250 00 15 86 bd 45 e1 8a bd aa 82 92 bd 8d 7f 1a bd
       -0.06546974 -0.06781248 -0.071538284 -0.0377193
000260 26 72 07 bd 02 94 78 bc f5 8a 2f bd a5 28 29 bd
       -0.033067845 -0.015172007 -0.04285713 -0.041298527
000270 b7 03 4f 3c e8 ff ab 3c 67 3f 72 3c 9c 7d 5f 3c
       0.012635163 0.020996049 0.014785624 0.013640787
000280 e7 df b8 3c d6 e9 eb 3c a9 36 8f 3c 74 e3 22 bd
       0.022567702 0.028798025 0.017482119 -0.039767697
000290 db 6c ac 3c 90 69 cc 3c b9 d6 c8 bc 10 e1 8b bc
       0.021048 0.02495268 -0.02451645 -0.017075092
0002a0 c2 74 9d 3c a2 b3 0c bd f0 1c 12 bd ae 8d f4 3b
       0.019220714 -0.034351 -0.03567213 0.0074631786
0002b0 aa fa ae bc b4 3c 40 bd 9a 44 2d bd 06 a0 dd bc
       -0.02135976 -0.04693289 -0.04230175 -0.027053844
0002c0 f8 63 52 bd 80 3e 99 bc 03 6a 84 bc b6 3e f1 bb
       -0.05136487 -0.01870656 -0.016163832 -0.007362212
0002d0 eb 5e bb bc 1d 74 ae bc 53 6a b6 bc d8 5e d8 bc
       -0.022872409 -0.021295602 -0.022267496 -0.026412413
0002e0 bb 60 46 bc 3e 10 ca bc 2c aa a9 bc 22 d3 44 bc
       -0.012108023 -0.024665948 -0.020711027 -0.012013229
0002f0 6b 26 0a bd f1 95 92 bd 32 33 79 bb 60 f4 23 bc
       -0.033728044 -0.07157505 -0.00380249 -0.010006994
000300 9d 16 80 bd 0a e1 87 3b de df ce 3a 3f 15 43 bd
       -0.06254313 0.0041467 0.001578327 -0.047627684
000310 ba 82 4f bd eb e0 fe bc c9 a9 a3 bd 9d 26 94 bc
       -0.05066178 -0.031113109 -0.07991368 -0.018084818
000320 26 8e 50 bd 3c a5 9e bd 63 f8 60 bd 8b 29 ed bc
       -0.050916813 -0.0774636 -0.05492438 -0.028950473
000330 e5 47 b4 bc 13 9c 33 bc c9 85 03 bd d7 49 03 bd
       -0.022006938 -0.010962504 -0.03211001 -0.03205284
000340 a0 19 2f 3c 2c 5c 39 3c 20 a6 45 3c cd 0e 11 3c
       0.010687262 0.011313479 0.012063533 0.008853626
000350 f8 af 56 3c bf eb a9 3c 45 cb fa 3b da a0 1e bd
       0.013103478 0.020742295 0.007653626 -0.03872762
000360 f4 37 93 3c 09 4f 8c 3c 8c 8c 96 bc 27 88 3c bc
       0.017971016 0.01712753 -0.018377565 -0.011507071
000370 c7 29 83 3c c9 16 07 bd 00 64 2f bd 21 e4 ba 3b
       0.016011132 -0.032980714 -0.042819977 0.0057034646
000380 7a 47 26 bc 91 81 4a bd 34 10 2e bd a3 b4 00 bd
       -0.010148877 -0.04943997 -0.04249592 -0.03142227
000390 9a 4a 38 bd 27 b4 8f bc c1 f7 5c bc 54 58 a5 bb
       -0.04499302 -0.017541958 -0.0134868035 -0.00504593
0003a0 86 5a b7 bc cb 88 aa bc dc 23 77 bc 30 57 b7 bc
       -0.022382032 -0.020817181 -0.015084233 -0.022380441
0003b0 6e 47 60 bc b0 b1 ac bc 73 c4 93 bc 60 8c c5 bc
       -0.013688905 -0.021080822 -0.01803801 -0.024114788
0003c0 ae 7a 2f bd 8c e7 e3 bd 25 78 44 bc 19 9d 82 bc
       -0.042841606 -0.111281484 -0.011991535 -0.01594405
0003d0 bf f9 9d bd 6d 00 37 bc 80 b5 fd b9 d3 cd a1 bd
       -0.07713651 -0.011169535 -0.00048391148 -0.07900586
0003e0 f2 f8 b8 bd 44 52 38 bd 75 c9 bc bd bb 60 73 bd
       -0.090318576 -0.04500033 -0.092181124 -0.05941842
0003f0 a6 30 a4 bd ff c3 c4 bd 3a 96 bd bd 15 e4 3b bd
       -0.080170915 -0.09607696 -0.09257169 -0.045871813

exp_avg_sq f4 [128, 26]
000000 d2 6e 60 3a 97 0d 50 3a d4 63 74 3a 89 cb 7f 3a
       0.00085614354 0.00079365954 0.0009322737 0.0009757807
000010 91 54 69 3a 7e 41 44 3b de 5e 5e 3b 9c 9f eb 3b
       0.0008900846 0.0029946263 0.0033931057 0.007190658
000020 1c c6 48 3b 11 9f 43 3b c3 92 91 3b 9d f0 86 3b
       0.003063566 0.002984945 0.004442544 0.004118039
000030 18 70 c1 3a a5 77 df 3b 2b a9 07 3c 7a 1d 63 3b
       0.0014758138 0.0068196827 0.008280079 0.003465502
000040 6c 7d 0b 3c 45 c0 02 3c 15 4d 03 3c 62 fa 05 3c
       0.00851379 0.007980411 0.008013983 0.008177372
000050 9f 32 0e 3c 68 39 49 3b ee 93 22 3b 6a 24 fd 39
       0.008679061 0.0030704383 0.0024807411 0.0004828305
000060 68 8d 60 3b 4b e9 5a 3b 9b 3d 95 3a f7 18 a5 3a
       0.0034263972 0.0033403214 0.0011386158 0.0012595941
000070 46 46 ae 3a 1a 28 b8 3a 7a a5 b9 3a a7 ad 8d 3b
       0.001329609 0.0014050037 0.0014163696 0.0043236795
000080 70 3d af 3b 14 d7 72 3c 72 bf 87 3b 73 f0 85 3b
       0.0053479 0.014821786 0.004142695 0.0040875017
000090 a2 48 1b 3c be e2 ed 3b 9b ab 14 3b 77 0e 66 3c
       0.009477766 0.007259696 0.0022685293 0.014041535
0000a0 9b 5f 8e 3c eb ad cb 3b 5a b3 84 3c 26 3a 85 3c
       0.017379573 0.006215801 0.016198803 0.016263079
0000b0 c9 66 90 3c 8a 10 93 3c 7a c8 8d 3c de fd c5 3b
       0.017627137 0.017952222 0.017307509 0.006042226
0000c0 d4 b8 9d 3b 36 be 75 3a 44 85 e3 3b 7a 43 dc 3b
       0.004813293 0.0009374352 0.0069433767 0.006721911
0000d0 75 2f 8f 39 69 74 9b 39 e8 3b 9b 39 ad df b3 39
       0.00027310444 0.00029650636 0.00029608537 0.00034308192
0000e0 bc a3 8a 39 e8 f3 97 3a 46 59 ab 3a f8 f3 66 3b
       0.00026443403 0.0011593075 0.001307287 0.0035240632
0000f0 79 75 99 3a eb 61 93 3a 63 18 1a 3b 32 cd 01 3b
       0.0011707983 0.0011244392 0.002351307 0.0019806144
000100 58 59 02 3a a5 64 5d 3b 3e bd 86 3b 0a ea c0 3a
       0.00049724197 0.0033781913 0.004111915 0.0014718187
000110 d0 30 7e 3b 25 06 7f 3b 65 97 8d 3b dd 93 8b 3b
       0.0038786419 0.0038913575 0.004321026 0.00425957
000120 af d9 7f 3b 8c 8a c4 3a 06 54 a1 3a 30 2c 81 39
       0.0039039662 0.0014994903 0.0012308366 0.0002463772
000130 53 21 dc 3a bd 87 d6 3a 19 bb 90 3a d1 ce 98 3a
       0.0016794599 0.0016367357 0.0011042088 0.0011658316
000140 d7 b0 a4 3a a4 d0 c5 3a bf 68 ae 3a 6d 87 84 3b
       0.0012564909 0.0015092087 0.0013306363 0.0040444643
000150 f1 2e 9e 3b 62 5a 55 3c 20 a6 86 3b d2 15 85 3b
       0.004827373 0.013022037 0.004109159 0.004061439
000160 5e b5 09 3c a6 a6 fa 3b b1 f7 0a 3b 79 f8 59 3c
       0.008405058 0.0076492606 0.0021204764 0.013303869
000170 91 1b 80 3c 12 48 af 3b 30 ad 7a 3c 9b 2a 85 3c
       0.015638145 0.0053491676 0.01530008 0.016255667
000180 08 9f 86 3c f3 83 85 3c 98 7c 85 3c 14 78 ba 3b
       0.016433254 0.01629827 0.016294762 0.005690584
000190 ad 51 95 3b f8 8e 69 3a 2d 42 d6 3b 9b c7 ce 3b
       0.0045568557 0.00089095486 0.0065386505 0.006310416
0001a0 00 00 00 00 00 00 00 00 00 00 00 00 00 00 00 00
       0.0 0.0 0.0 0.0
0001b0 00 00 00 00 00 00 00 00 00 00 00 00 00 00 00 00
       0.0 0.0 0.0 0.0
0001c0 00 00 00 00 00 00 00 00 00 00 00 00 00 00 00 00
       0.0 0.0 0.0 0.0
0001d0 00 00 00 00 00 00 00 00 00 00 00 00 00 00 00 00
       0.0 0.0 0.0 0.0
0001e0 00 00 00 00 00 00 00 00 00 00 00 00 00 00 00 00
       0.0 0.0 0.0 0.0
0001f0 00 00 00 00 00 00 00 00 00 00 00 00 00 00 00 00
       0.0 0.0 0.0 0.0
000200 00 00 00 00 00 00 00 00 a0 cc 9f 39 a2 75 9f 39
       0.0 0.0 0.000304793 0.00030414487
000210 0e 2a a6 39 ef 74 c2 39 00 b7 a0 39 4a 18 8f 3a
       0.0003169332 0.00037089686 0.00030653924 0.0010917273
000220 bf 4d 9f 3a 59 7c 49 3b c4 94 8e 3a 81 f5 8d 3a
       0.0012153907 0.0030744283 0.0010878076 0.0010830612
000230 16 f8 ee 3a 95 16 a9 3a c5 c5 15 3a 4d e1 2d 3b
       0.0018231894 0.0012900407 0.0005713369 0.0026531995
000240 71 47 5f 3b 18 ba 9b 3a 8e b5 38 3b 18 6a 58 3b
       0.0034069682 0.0011881022 0.0028184387 0.0033022221
000250 18 38 64 3b 6e 4c 49 3b 3e 4d 39 3b ad a6 97 3a
       0.0034823474 0.0030715722 0.00282748 0.0011570059
000260 77 25 6e 3a 73 97 35 39 49 65 ac 3a 25 20 a7 3a
       0.0009084562 0.00017317924 0.0013152744 0.0012750669
000270 f3 78 bb 39 a7 21 00 3a b7 e0 11 3a 61 9e be 39
       0.00035757534 0.0004887827 0.0005564796 0.00036357626
000280 ae ae f4 39 17 92 81 3a 19 d9 8b 3a f6 a6 25 3b
       0.00046669453 0.0009885457 0.0010669559 0.0025276518
000290 1d ac 88 3a b8 f2 7c 3a e4 9b fe 3a cc 60 bb 3a
       0.001042727 0.0009649205 0.0019425121 0.0014295815
0002a0 44 4d 1a 3a 46 14 24 3b e6 e1 3a 3b 6d 8a 9b 3a
       0.0005886147 0.0025036498 0.0028515994 0.0011866816
0002b0 5e 9e 8d 3b fd e5 4a 3b 39 11 6c 3b da 60 34 3b
       0.0043218574 0.0030959838 0.0036021008 0.0027523548
0002c0 78 a2 6d 3b 4e 80 91 3a ff b4 73 3a 33 71 47 39
       0.003626017 0.001110086 0.0009296685 0.00019020289
0002d0 fa 0f a4 3a 20 84 9f 3a c9 47 29 3b 01 b3 3d 3b
       0.0012516968 0.0012170114 0.002583014 0.0028945806
0002e0 0f ef 59 3b 83 bd 59 3b 02 89 40 3b e4 42 2e 3c
       0.0033254062 0.003322453 0.0029378538 0.010636065
0002f0 b5 06 42 3c 35 59 e0 3c a0 64 33 3c 1c 90 29 3c
       0.011842419 0.027386287 0.010949284 0.0103493
000300 0f 13 90 3c ee 1f 85 3c fb 5f a3 3b 7f a5 dc 3c
       0.017587213 0.016250577 0.004985807 0.026934383
000310 87 48 02 3d 44 0f 5a 3c 77 f6 02 3d 51 b0 03 3d
       0.03180745 0.013309304 0.03197333 0.03215057
000320 94 1e 07 3d 2a 91 06 3d cb 68 02 3d 45 17 43 3c
       0.032988146 0.032853283 0.03183822 0.011907403
000330 ea a8 1f 3c b9 5d fd 3a 1c fb 59 3c de 0e 54 3c
       0.009744862 0.00193303 0.013304498 0.012942998
000340 05 f3 a1 39 6d e1 b8 39 45 92 c6 39 1d fe b7 39
       0.00030889377 0.0003526317 0.00037874482 0.0003509381
000350 84 6e bc 39 2b fa c1 3a ac b2 d0 3a 63 1f 84 3b
       0.00035940495 0.0014799287 0.0015922389 0.004032062
000360 8f 0a c7 3a 21 37 c7 3a 3a 6d 41 3b 04 e2 2b 3b
       0.0015185642 0.0015198925 0.0029514567 0.0026227245
000370 2a cf 27 3a ed 65 8d 3b 0d 44 a5 3b cb d4 e9 3a
       0.0006401414 0.004315129 0.0050435127 0.0017839907
000380 5e ce ae 3b a1 34 b0 3b 03 fe ac 3b 4c ff b0 3b
       0.0053346595 0.0053773676 0.005279304 0.0054015275
000390 59 3b b3 3b f4 cd fa 3a 7f e0 d1 3a e0 8d a5 39
       0.0054697213 0.0019134865 0.001601234 0.00031576958
0003a0 e2 16 0b 3b 8c 32 07 3b 6a 49 b0 3a 69 bc ad 3a
       0.0021223356 0.0020629494 0.0013449613 0.0013255003
0003b0 5c 6b c0 3a bd ab cb 3a 70 39 a8 3a b3 fb 9b 3b
       0.0014680433 0.0015538853 0.00128345 0.0047602295
0003c0 f5 cf b8 3b 42 f9 85 3c 4c c5 a0 3b 00 5a 9d 3b
       0.005640025 0.016354207 0.004906332 0.0048019886
0003d0 b7 38 26 3c e9 35 0d 3c 44 fa 10 3b 08 2d 82 3c
       0.010145358 0.00861881 0.0022121826 0.015890613
0003e0 25 43 9a 3c 3f 96 da 3b da 02 94 3c 68 a7 a1 3c
       0.018830845 0.0066707428 0.018067766 0.019733146
0003f0 c2 d4 a7 3c ca 49 93 3c 21 f4 a0 3c 40 8c e0 3b
       0.020487193 0.017979521 0.01964766 0.0068526566

exp_avg f4 [128]
000000 17 93 93 bc e0 eb 1c be 6e 62 7a bd 86 fd 23 be
       -0.018014474 -0.15324354 -0.061129026 -0.1601468
000010 00 00 00 00 7d 95 b9 bd 9e 00 49 bd 54 58 8b bd
       0.0 -0.09061716 -0.049072854 -0.06803957
000020 02 fc 40 bd 11 26 e7 bd f0 9e 2b 3c df b7 47 bd
       -0.047115333 -0.112865575 0.010474905 -0.048759338
000030 88 32 0e be 1e a1 49 bc 08 b8 3b bc 2f 90 5d bd
       -0.13886464 -0.01230648 -0.011457451 -0.054092582
000040 76 7c 0a bc 8a 96 92 ba 00 00 00 00 1c 0a f5 3b
       -0.008452525 -0.001118378 0.0 0.007478012
000050 00 00 00 00 ec 2c df 3c 4a e6 83 bd b3 06 97 38
       0.0 0.0272431 -0.064404085 7.201489e-05
000060 2a 06 08 bc 51 ef 6c bd 9e 10 44 bd ce ee af bd
       -0.008302251 -0.057845417 -0.04786741 -0.0859047
000070 8d 5f 6e bd 00 00 00 00 57 be 0c 3b 00 00 00 00
       -0.058196593 0.0 0.0021475756 0.0
000080 ac fc a2 bd 6a c0 00 be b0 04 39 bd a6 4e 06 bb
       -0.079583496 -0.125734 -0.045170486 -0.0020493655
000090 3a a5 c3 bd d0 66 09 3c 03 5b 2b bd 06 f2 96 3c
       -0.09552999 0.008386329 -0.041834842 0.018425953
0000a0 94 a8 85 bd 38 3c 37 bd 7d 99 47 3a b2 fe 95 39
       -0.06526294 -0.044735163 0.0007614119 0.00028609257
0000b0 b6 3d f3 bd 3b c2 99 bc 8e b9 b6 bc 1b 3a 93 bb
       -0.11877005 -0.018769374 -0.022305276 -0.0044930107
0000c0 2b 22 90 bd b5 d4 02 bd 2f 2c 1b 3c 9a 5e 98 3c
       -0.07037767 -0.031941134 0.009470983 0.018599797
0000d0 a1 56 e2 bd 34 ca 9b bd 17 f9 55 3c a1 48 2d be
       -0.110516794 -0.076069266 0.013059876 -0.16922237
0000e0 2c 8e 17 be 79 2c 7b 38 12 5c d8 bd e8 af d9 bd
       -0.14800328 5.988448e-05 -0.10564436 -0.106292546
0000f0 91 88 ba bd 8d d0 d6 3b 7b 08 c1 37 d6 f5 0a be
       -0.09108079 0.006555623 2.3011342e-05 -0.13570341
000100 c2 cb ee bd cd 29 27 3d 8c 0c 84 35 3c 13 15 bd
       -0.116599575 0.04081135 9.838418e-07 -0.036395296
000110 f1 01 a1 3c 3c cc 4a bd 4c 48 b6 bd 10 3f 94 ba
       0.019654246 -0.04951118 -0.08900508 -0.0011310298
000120 ad 28 5d a8 17 a5 de bd e4 9c 39 bd 68 02 14 3c
       -1.22767846e-14 -0.10871332 -0.04531564 0.009033777
000130 9a 75 cf bd ff 26 b9 bd 00 96 b7 3a 00 00 00 00
       -0.101298526 -0.09040641 0.0014006495 0.0
000140 e8 6c 52 bd 47 73 27 34 9a 16 7e bc 9f 13 8d bd
       -0.051373392 1.5595025e-07 -0.015508318 -0.06888508
000150 d6 b2 ff bd 97 49 8d bc a0 5b 79 3c 28 8f 53 bb
       -0.12485282 -0.017247004 0.015219599 -0.0032281373
000160 a2 1c 24 bd 86 50 b2 bd 00 00 00 00 38 7d a4 bd
       -0.04006637 -0.08706765 0.0 -0.08031696
000170 32 54 d7 bb 9a bc 2b bd 37 ae 56 bd 97 0a c7 bd
       -0.006571316 -0.04192791 -0.052412238 -0.09718817
000180 00 c0 f4 bb e0 c2 c0 3a 63 72 94 bd 64 79 88 bd
       -0.0074691772 0.0014706515 -0.0724838 -0.066637784
000190 67 3c 5f bd 6e 12 9e bd df 9f eb 3b a1 87 00 3d
       -0.054500964 -0.07718359 0.007190689 0.031379346
0001a0 45 85 d1 bd 00 00 00 00 0f 2e f7 bd b2 de 6d bd
       -0.10230497 0.0 -0.12069332 -0.058073707
0001b0 c7 d5 b4 bd 71 ca cf 39 ba e3 39 bc 00 00 00 00
       -0.08829837 0.00039632947 -0.011345798 0.0
0001c0 be c4 6d b0 00 00 00 00 00 00 00 00 6a 56 3f bc
       -8.6499685e-10 0.0 0.0 -0.011678318
0001d0 38 e2 5e 3a 7a 6d c5 bd 93 cf 61 bd 64 22 b1 bd
       0.0008502337 -0.096400216 -0.0551296 -0.086491376
0001e0 03 99 a7 bc b4 66 ef 3c 81 3a 05 bb 80 7b 28 bb
       -0.020458704 0.029223777 -0.002032906 -0.0025708377
0001f0 a9 1e 67 bb 00 00 00 00 00 00 00 00 c0 dd 11 be
       -0.0035266078 0.0 0.0 -0.14244747

exp_avg_sq f4 [128]
000000 30 07 64 3c 64 c0 ea 3c 53 e9 e1 3b 4a 6b de 3c
       0.013917729 0.028656192 0.0068942695 0.027150769
000010 00 00 00 00 c0 6d b1 3b 7f 6d a7 3b 41 26 61 3d
       0.0 0.0054146945 0.0051094885 0.054968122
000020 a9 48 10 3c 1e d5 04 3d 36 ce 97 3b 43 f6 70 3c
       0.008806386 0.032429807 0.0046327366 0.014707151
000030 1e b2 54 3d 4a 29 22 39 07 65 db 3b bf 19 08 3d
       0.05192768 0.00015464905 0.006695393 0.03322768
000040 0e 9b e8 3a 0b e2 02 3a 00 00 00 00 fd 5e 25 3c
       0.0017746405 0.00049927895 0.0 0.010093448
000050 00 00 00 00 ac 54 86 3b e3 5c 2b 3d cc 96 04 38
       0.0 0.004099449 0.04183663 3.1611693e-05
000060 83 f9 b6 3b 1e ad 30 3c ab 42 ba 3b be 25 5f 3c
       0.0055839433 0.010783462 0.005684217 0.013619838
000070 e3 bd ae 3c 00 00 00 00 88 21 3f 36 00 00 00 00
       0.02133078 0.0 2.8480736e-06 0.0
000080 0f 49 e2 3c 04 88 35 3d e6 75 ca 3b 09 84 55 3a
       0.027622728 0.044319168 0.0061786054 0.000814498
000090 4d 67 52 3c 06 83 be 39 e0 1a 68 3c 2f 2e 06 3c
       0.012842012 0.00036337244 0.014166564 0.008189722
0000a0 c5 97 f7 3c a1 7a 92 3c 6e 99 9c 35 24 65 1d 3a
       0.030223737 0.01788074 1.166756e-06 0.0006004146
0000b0 b0 eb 4e 3d 06 be 6f 3c 04 63 b2 3b 91 61 6f 3a
       0.050517738 0.014632707 0.0054439325 0.0009131665
0000c0 ca 46 dc 3c 97 fd f1 3c 4b 67 2c 3b 89 58 f1 3a
       0.026889224 0.029539866 0.0026306685 0.0018413226
0000d0 03 b4 c5 3c 61 76 b5 3c 16 be 03 3a df 2e c9 3c
       0.024133688 0.022151174 0.00050255784 0.024558483
0000e0 03 64 0a 3d 8c 93 f0 37 1c f5 dd 3c 0d 12 0b 3d
       0.033786785 2.8678936e-05 0.027094416 0.03395276
0000f0 1a b7 67 3c 7b b6 e5 3b f6 d0 6c 39 ea 58 25 3d
       0.014142776 0.0070102788 0.00022584558 0.040368
000100 ba fb f8 3c a3 5e d9 3b bf f2 a6 30 cb 32 88 3c
       0.03039347 0.006633596 1.2147082e-09 0.016625782
000110 0f 5b 89 3b 2f 2b 8d 3c 29 a1 aa 3c 86 60 d0 3b
       0.0041917632 0.017232506 0.0208288 0.0063591627
000120 8a f3 6b 36 31 43 88 3d 50 97 b5 3c 06 eb 7c 3a
       3.5159487e-06 0.06653441 0.022166878 0.00096480583
000130 b1 39 94 3c 10 54 f5 3c a6 a2 57 37 00 00 00 00
       0.018093916 0.02994731 1.2852868e-05 0.0
000140 20 de b3 3c b7 da e1 35 25 c0 db 3b 85 d4 f7 3b
       0.021956503 1.6827461e-06 0.006706255 0.007563176
000150 f3 60 0a 3d 85 0c 91 3b fd 6e 9e 39 d0 3b b9 39
       0.033783864 0.0044265413 0.000302188 0.00035330513
000160 99 f5 f3 3c 1c c9 e4 3c 00 00 00 00 b8 48 66 3c
       0.029780196 0.027927928 0.0 0.014055423
000170 a9 e6 2b 3c de 24 f7 3a 57 f5 1d 3c b2 4b 41 3c
       0.010492005 0.0018855592 0.009641013 0.011797832
000180 e2 6f 41 3c 83 61 d7 35 b5 65 3b 3c b2 1e 23 3d
       0.01180646 1.6047128e-06 0.011437823 0.039824195
000190 d7 8a 52 3c 2b 84 3b 3b 3c b7 d5 3a bf 1f e7 3b
       0.012850485 0.0028612714 0.0016305218 0.007053345
0001a0 92 39 34 3c 00 00 00 00 4b b9 7b 3d 22 25 5c 3c
       0.011000054 0.0 0.061456006 0.0134365875
0001b0 7c 0e a5 3c 13 75 c1 39 63 a2 3a 3c 00 00 00 00
       0.020148508 0.00036899056 0.011391255 0.0
0001c0 be 69 4d 35 00 00 00 00 00 00 00 00 16 3a fc 3b
       7.6522326e-07 0.0 0.0 0.007697354
0001d0 99 c8 b9 39 11 7b a7 3c 26 fc a2 3c 24 06 7b 3c
       0.00035435407 0.020444425 0.019895624 0.015321288
0001e0 4e c6 f2 3b ac 0f 37 3c c2 c8 ba 38 3b 22 40 39
       0.0074088937 0.01117317 8.906565e-05 0.00018323299
0001f0 21 c3 06 39 00 00 00 00 00 00 00 00 27 58 94 3c
       0.00012851927 0.0 0.0 0.01810844
