models/reinforce/reinforce_low_lr/checkpoint_ep100.pth (torch, 259594 bytes, 18 tensors)

network.0.weight f4 [128, 26]
0.1689885 0.19602045 0.12279712 0.09556396 -0.12282695 0.087853394 0.09454672 0.0024019098
0.05584189 0.17757395 0.14661361 0.17778434 -0.15554607 -0.15015751 0.06709277 -0.08533303
0.08910041 0.06353523 -0.039487086 -0.07760432 0.18818724 -0.11946513 0.1831495 0.062154397
-0.081418805 -0.10220498 -0.1791917 -0.07088136 0.10450767 -0.18351819 0.14453726 -0.18129042
-0.004673616 0.11066058 0.070881195 -0.13396822 0.10169261 -0.18136753 0.09060238 -0.0121672945
0.02349339 0.12597874 -0.015116346 -0.13638498 0.08612587 0.028210942 0.17473757 0.16338435
0.025541903 -0.041853014 0.037271336 -0.15478657 0.1448883 -0.0023862117 0.15273 -0.17036997
0.16317518 0.123236485 0.0014427736 0.13692005 -0.150419 0.022232823 -0.064927265 0.1934187
0.09514092 -0.17989819 0.1845956 0.0790937 0.04604278 -0.06902237 0.16741103 -0.18951939
-0.09753683 0.12995476 0.119576715 0.05976051 -0.05264654 0.16730188 0.15817608 -0.09481194
0.01710915 -0.09993784 0.12556592 -0.17147677 -0.116657 0.0425845 -0.06298342 0.12859367
-0.10076183 -0.020681793 0.15977621 0.1013783 0.06942423 -0.06649732 -0.028772306 -0.038863413
0.13654505 -0.10293636 0.04074074 0.062441386 0.04754585 0.14046432 0.12926383 0.0716903
-0.010586485 -0.119691 -0.005336836 -0.072316304 -0.049589798 -0.045691162 -0.19320177 0.095779106
0.009255439 0.05993171 -0.18287717 0.033801705 0.18758176 0.15140162 -0.055067554 -0.043817237
0.13511176 0.060021326 -0.15009491 -0.07137432 -0.13880724 -0.068544805 -0.009607479 -0.15081088
-0.109360136 -0.01752849 -0.08087844 -0.09822961 -0.18876976 0.1911799 0.14052226 0.18453659
-0.14381857 0.16471615 0.040269535 -0.06528703 0.005026077 -0.14018226 0.10386634 0.09983718
0.096521586 -0.1336059 -0.091931164 0.14610335 -0.07597438 -0.103203334 -0.11493624 -0.000705227
0.18075755 -0.06792406 0.10112769 -0.02320922 0.0007272116 0.070922256 0.1273954 -0.11583601
0.13902463 -0.05590076 -0.041583266 0.078324944 0.03237936 -0.15053433 0.11132422 0.048507582
0.17189628 0.03788897 -0.12501732 -0.13548711 0.12079731 -0.024388414 0.07885542 -0.12255435
0.08354217 -0.08447608 -0.13177575 0.031518333 -0.044812024 -0.06674501 0.08097199 -0.19501011
-0.1367114 0.19210719 0.1399714 0.019617418 0.18040499 -0.012264645 0.038660605 -0.014511822
-0.13827385 0.02103176 0.07136464 -0.12382221 0.13237824 -0.1012613 0.19233836 0.0070603294
0.09895658 -0.14832415 0.14267176 -0.037512295 0.17350937 -0.14057425 -0.13106985 0.178928
-0.19275433 0.06493335 -0.18980253 -0.0852965 -0.043054484 -0.05548756 -0.07027328 0.052933346
0.1809911 0.141594 0.1803359 0.17245142 -0.04838064 -0.030665636 -0.053462636 -0.16420269
-0.02865983 0.18055454 -0.0068362937 0.08146353 0.19003555 0.012580751 -0.1622033 0.157954
0.023316799 0.06262954 -0.14399125 -0.046507794 -0.07326319 -0.008513206 0.06961618 -0.050877493
0.17482498 0.14342758 -0.16005789 -0.042712957 -0.14816813 -0.05265063 0.15383299 0.015905721
0.09879013 -0.16197449 0.060814157 0.1728379 0.076781295 -0.13758884 0.08657983 -0.12662289
00000000: 520b 2d3e 96b9 483e 0e7d fb3d 0ab7 c33d
00000010: b28c fbbd 7bec b33d b6a1 c13d 5c69 1d3b
00000020: 77ba 643d f2d5 353e e121 163e 190d 363e
00000030: 7847 1fbe e4c2 19be ef67 893d 15c3 aebd
00000040: 477a b63d c21e 823d 36bd 21bd 04ef 9ebd
00000050: 28b4 403e 22aa f4bd 8b8b 3b3e 9c95 7e3d
00000060: e7be a6bd d850 d1bd 077e 37be 3f2a 91bd
00000070: 1e08 d63d 31ec 3bbe 9301 143e 32a4 39be
00000080: 2225 99bb 04a2 e23d 292a 913d f72e 09be
00000090: 3744 d03d 69b8 39be be8d b93d 5559 47bc
000000a0: 3675 c03c 9200 013e 8daa 77bc 81a8 0bbe
000000b0: c362 b03d a21a e73c 68ee 323e 3a4e 273e
000000c0: 413d d13c 116e 2bbd d4a9 183d 5f80 1ebe
000000d0: 995d 143e fd61 1cbb 4165 1c3e 7775 2ebe
000000e0: 6517 273e 6963 fc3d 731b bd3a c534 0c3e
000000f0: 7007 1abe 9c21 b63c 96f8 84bd 8d0f 463e
00000100: 3ed9 c23d 3b37 38be a106 3d3e e1fb a13d
00000110: 5b97 3c3d 9a5b 8dbd cc6d 2b3e 5f11 42be
00000120: 64c1 c7bd dc12 053e a3e4 f43d 70c7 743d
00000130: e6a3 57bd 2f51 2b3e e9f8 213e c32c c2bd
00000140: 7d28 8c3c 36ac ccbd 5a94 003e 9b97 2fbe
00000150: dde9 eebd 166d 2e3d 74fd 80bd 0fae 033e
00000160: 385c cebd dd6c a9bc 609c 233e 6d9f cf3d
00000170: 4a2e 8e3d bf2f 88bd e6b3 ebbc 3e2f 1fbd
00000180: 77d2 0b3e 4cd0 d2bd c3df 263d 8ac2 7f3d
00000190: 70bf 423d e1d5 0f3e bd5d 043e 5dd2 923d
000001a0: f072 2dbc 8e20 f5bd a0e0 aebb 921a 94bd
000001b0: ac1e 4bbd a826 3bbd afd6 45be d627 c43d
000001c0: 20a4 173c f47a 753d 2744 3bbe a873 0a3d
000001d0: 6f15 403e 0709 1b3e 848e 61bd b479 33bd
000001e0: bd5a 0a3e ecd8 753d 7bb2 19be b32c 92bd
000001f0: 7c23 0ebe 3861 8cbd b068 1dbc 2b6e 1abe
00000200: 35f8 dfbd e897 8fbc 98a3 a5bd 9b2c c9bd
00000210: dc4c 41be aac4 433e 11e5 0f3e 29f7 3c3e
00000220: 2d45 13be 5aab 283e abf1 243d 35b5 85bd
00000230: cab1 a43b f08b 0fbe e0b7 d43d 6f77 cc3d
00000240: 1cad c53d fccf 08be 6846 bcbd 1e9c 153e
00000250: 7598 9bbd 455c d3bd b163 ebbd fcde 38ba
00000260: 8218 393e c51b 8bbd 091c cf3d 4321 bebc
00000270: 58a2 3e3a b03f 913d f173 023e 6e3b edbd
00000280: 795c 0e3e 32f8 64bd 3753 2abd d468 a03d
00000290: 38a0 043d ac25 1abe f4fd e33d e3af 463d
000002a0: 9405 303e 7731 1b3d 8a04 00be 22bd 0abe
000002b0: 9464 f73d 36ca c7bc f37e a13d c6fd fabd
000002c0: 2818 ab3d cc01 adbd 39f0 06be 5e19 013d
000002d0: d08c 37bd 9cb1 88bd a5d4 a53d bbb0 47be
000002e0: 13fe 0bbe bfb7 443e aa54 0f3e b5b4 a03c
000002f0: 16bc 383e a6f1 48bc 955a 1e3d fec2 6dbc
00000300: a997 0dbe cc4a ac3c a027 923d 8096 fdbd
00000310: 298e 073e 1662 cfbd 59f4 443e 565a e73b
00000320: bfa9 ca3d 49e2 17be 8c18 123e 7ea6 19bd
00000330: 71ac 313e b2f2 0fbe 2d37 06be e738 373e
00000340: 6461 45be c7fb 843d 985b 42be eeaf aebd
00000350: e659 30bd ec46 63bd 70eb 8fbd a3d0 583d
00000360: bb55 393e 04fe 103e f9a9 383e 1b97 303e
00000370: c72a 46bd 8036 fbbc a3fb 5abd c024 28be
00000380: 05c8 eabc 4ae3 383e fd02 e0bb 5ad6 a63d
00000390: ae98 423e 7f1f 4e3c 9f18 26be b2be 213e
000003a0: df02 bf3c eb43 803d 7172 13be f57e 3ebd
000003b0: 030b 96bd f97a 0bbc ee92 8e3d eb64 50bd
000003c0: 5205 333e aede 123e 37e6 23be c8f3 2ebd
000003d0: 63b9 17be 30a8 57bd 6586 1d3e b74c 823c
000003e0: 7b52 ca3d a4dc 25be 4418 793d 6bfc 303e
000003f0: 833f 9d3d 17e4 0cbe c450 b13d 6ea9 01be

network.0.bias f4 [128]
-0.16802011 -0.1834688 -0.09786907 0.001108907 -0.18004087 -0.0021969376 0.008354827 0.021406528
0.1551681 -0.09263105 -0.09417226 -0.18767126 -0.086796835 -0.025003012 -0.14890116 -0.06187822
0.005877166 -0.020880597 -0.12813315 -0.12542334 -0.17170219 -0.08846864 0.12013246 -0.027200617
-0.17713983 0.18814513 0.1484712 0.1751186 -0.19130313 -0.06467794 -0.009606257 -0.124649584
-0.07535642 0.16174063 -0.1564149 -0.060016602 0.14095126 -0.05251142 -0.14244337 0.09823332
0.009788168 0.17711851 0.021453356 0.09666224 0.17099607 0.09211502 -0.08207148 -0.026250646
-0.047602076 -0.18642542 -0.15360789 0.02612353 -0.035792336 0.11271825 -0.17681779 0.17041716
0.14734581 -0.15401675 -0.14689876 0.10725447 -0.10873093 0.007500262 -0.15963846 0.09246638
0.10940715 0.17541708 -0.015853703 -0.17982028 -0.02207314 0.14261235 -0.026025183 -0.081202075
0.09632622 0.17121068 -0.03419561 0.100670435 -0.14218701 -0.0045040958 -0.029609129 0.012785718
0.17465472 -0.11447183 -0.18990692 -0.061197802 0.17687248 -0.02411561 -0.031207884 0.10881287
-0.028961077 0.11829924 0.17354254 0.019157851 0.083635464 -0.07395111 0.04999462 -0.073734984
0.11939569 0.096388415 0.13575245 0.16870615 -0.18035005 0.06676609 -0.1255364 0.16753718
0.0093599595 -0.02177535 -0.11819979 0.16455998 -0.14765815 0.09726729 -0.10621399 -0.052582324
-0.12734623 -0.19375746 -0.15009381 -0.12413189 0.08902215 -0.16020896 0.12589699 0.17695187
0.13730972 0.04211889 -0.017776096 -0.1789013 -0.04285915 -0.1680713 -0.10912548 0.0002798356
00000000: 770d 2cbe 3fdf 3bbe 946f c8bd bf58 913a
00000010: a25c 38be 7ffa 0fbb afe2 083c be5c af3c
00000020: 63e4 1e3e 59b5 bdbd 63dd c0bd e52c 40be
00000030: 8ac2 b1bd 1ed3 ccbc 8c79 18be 0474 7dbd
00000040: 3e95 c03b c90d abbc 5635 03be fa6e 00be
00000050: b3d2 2fbe 0c2f b5bd 0208 f63d d4d3 debc
00000060: 2564 35be 1ea9 403e d608 183e 4a52 333e
00000070: f8e4 43be de75 84bd 9063 1dbc 4848 ffbd
00000080: 7754 9abd 569f 253e 3a2b 20be f8d3 75bd
00000090: 8755 103e 3716 57bd addc 11be 8d2e c93d
000000a0: 8d5e 203c 8e5e 353e f3be af3c daf6 c53d
000000b0: 9819 2f3e cda6 bc3d 1815 a8bd 980b d7bc
000000c0: 65fa 42bd 4ee6 3ebe 634b 1dbe 0301 d63c
000000d0: fc9a 12bd d3d8 e63d b90f 35be d681 2e3e
000000e0: d2e1 163e 91b6 1dbe a16c 16be 3ba8 db3d
000000f0: 52ae debd c2c4 f53b 4478 23be 035f bd3d
00000100: db10 e03d 89a0 333e a0df 81bc cf22 38be
00000110: bbd2 b4bc f908 123e c432 d5bc 464d a6bd
00000120: ae46 c53d da51 2f3e b210 0cbd 4d2c ce3d
00000130: 7999 11be 1897 93bb d88e f2bc 307b 513c
00000140: b0d8 323e 3570 eabd f676 42be 8caa 7abd
00000150: 0f1e 353e 1a8e c5bc ada7 ffbc 48d9 de3d
00000160: c83f edbc df46 f23d 23b5 313e edf0 9c3c
00000170: 1249 ab3d ae73 97bd 29c7 4c3d 5e02 97bd
00000180: ba85 f43d 4a67 c53d b102 0b3e 4ec1 2c3e
00000190: afad 38be a9bc 883d 9d8c 00be de8e 2b3e
000001a0: 845a 193c 3862 b2bc bb12 f2bd 6982 283e
000001b0: b333 17be 1334 c73d b886 d9bd 9060 57bd
000001c0: 0d67 02be 5b68 46be 31b2 19be dc38 febd
000001d0: 3f51 b63d d10d 24be 24eb 003e df32 353e
000001e0: eb9a 0c3e db84 2c3d 2d9f 91bc e731 37be
000001f0: 138d 2fbd e21a 2cbe 2e7d dfbd e6b6 9239

network.2.weight f4 [128, 128]
-0.01606444 0.052097995 0.06727541 0.023965014 0.06956238 0.061214805 0.02314107 0.06063856
-0.06742988 0.07421322 0.00270281 0.07247018 -0.08340686 0.0573204 0.05747346 0.051642545
-0.044054303 0.03057556 0.08075977 0.01806886 -0.08169021 -0.0703073 0.06634398 -0.036265597
-0.029671766 -0.0018225148 -0.008740422 -0.046495635 -0.07401093 -0.03385277 0.0642804 -0.04323037
0.025995892 0.06085139 -0.079845995 -0.03312064 0.0083778 0.022565162 -0.011727063 0.0389374
0.08079718 -0.011221633 0.055882145 0.0053989976 -0.048334993 -0.07656028 -0.01956582 0.00230166
0.073151514 0.060260717 -0.04307021 -0.053436752 0.021931773 -0.07442367 -0.058956154 0.041282758
0.025259323 0.03968099 -0.06373617 -0.027640816 0.086427815 0.061092626 0.0066434327 -0.029300874
-0.073470026 -0.029209929 -0.009735383 0.032198206 -0.045254145 0.027314385 0.0004929119 -0.051034074
-0.079282634 0.05854998 -0.0038915963 -0.078325726 0.01874127 0.074214704 -0.04859225 -0.06238725
-0.0003123793 0.07647478 0.05716483 -0.045299675 -0.058600985 0.015168408 -0.07182508 -0.0758665
0.034916915 0.0253612 -0.031204179 0.084788926 -0.018806227 0.027538514 -0.013474103 0.007856635
-0.06125533 -0.07047584 0.081803896 -0.0063638897 0.06328458 -0.018676108 0.06305707 -0.03237469
-0.050184652 0.0867605 -0.059404284 0.07886829 0.08615104 0.076466046 -0.079440415 0.031900473
-0.02319525 0.06394125 0.05744628 -0.07220738 -0.07219453 0.06989251 -0.04458634 0.013081433
-0.055791117 0.019022759 -0.05467743 -0.0016867766 -0.046011172 0.047147162 -0.042648565 0.08210304
0.058735743 -0.013127345 -0.0572093 -0.03379402 0.07519778 0.020578723 -0.011121118 0.005146146
0.06877972 -0.022305608 0.056538604 -0.012731829 -0.0754475 0.007168748 0.068349354 -0.04205871
-0.03736901 0.016241835 -0.018755756 0.008039121 0.07895061 -0.049836244 0.02747404 -0.013249099
0.018668985 0.026026677 0.033167917 0.07897736 0.07184062 0.05335673 -0.019644141 0.06872303
-0.051067267 0.010189532 -0.051559493 -0.016850363 -0.06758112 0.0798044 0.070299536 0.018759178
-0.012372728 -0.048279587 -0.061886776 -0.0053128325 -0.024520775 -0.022859618 0.0019085298 0.030064281
0.06510458 -0.081083976 -0.0038828428 -0.026250586 -0.044787616 0.04784352 -0.072558634 -0.04662211
0.07965123 -0.053189185 0.08052087 -0.077310614 0.034717992 -0.058456313 -0.053044338 0.015447946
0.032904733 -0.075081274 -0.0047715306 -0.02614381 -0.0330453 0.0698858 0.0057248655 0.06929065
-0.02802173 0.055553775 -0.06311377 0.032902345 -0.027655786 0.0157645 -0.03357792 -0.0052052215
0.068881065 -0.010496501 -0.056923367 0.007926494 -0.090835705 -0.07177125 0.006380503 0.00490895
-0.013910088 0.07695873 0.03992603 0.055578683 0.08242231 -0.022016536 0.061062846 -0.069089234
-0.05352733 0.08362331 -0.082956515 -0.03319172 0.07239439 0.082750164 -0.034152094 -0.046181835
0.017783152 0.049252115 -0.043813013 0.06552999 0.005593614 -0.019135572 0.065620184 -0.074348144
0.011120371 -0.06914885 -0.04703935 0.054708734 -0.055562224 -0.019823803 0.017787255 0.021548094
0.02000492 0.08259491 0.02002453 -0.012874573 0.054239888 0.07645088 0.025813319 -0.031810578
00000000: 9399 83bc b564 553d b1c7 893d 4752 c43c
00000010: b976 8e3d 60bc 7a3d 5792 bd3c 2460 783d
00000020: ad18 8abd 1afd 973d a121 313b 3f6b 943d
00000030: 37d1 aabd ccc8 6a3d 4a69 6b3d 2287 533d
00000040: 4972 34bd 9979 fa3c 6165 a53d 2505 943c
00000050: 324d a7bd 46fd 8fbd 5adf 873d 3c8b 14bd
00000060: 3412 f3bc 73e1 eeba fd33 0fbc 3572 3ebd
00000070: 0b93 97bd 34a9 0abd 71a5 833d 5412 31bd
00000080: 56f5 d43c 4f3f 793d 4c86 a3bd 82a9 07bd
00000090: 0a43 093c 93da b83c de22 40bc d37c 1f3d
000000a0: fe78 a53d f1da 37bc ade4 643d 13ea b03b
000000b0: eafa 45bd a3cb 9cbd 8048 a0bc 72d7 163b
000000c0: 76d0 953d f1d3 763d 636a 30bd 7fe0 5abd
000000d0: 43aa b33c 706b 98bd 027c 71bd 1c18 293d
000000e0: a4ec ce3c 8988 223d 1c88 82bd fe6e e2bc
000000f0: 1101 b13d 433c 7a3d 27b1 d93b 6308 f0bc
00000100: 7477 96bd a949 efbc 2881 1fbc 44e2 033d
00000110: 695c 39bd 6bc2 df3c c236 013a 1b09 51bd
00000120: ef5e a2bd 1bd2 6f3d 270a 7fbb 3d69 a0bd
00000130: 4b87 993c e1fd 973d ab08 47bd c689 7fbd
00000140: d7c6 a3b9 cf9e 9c3d ab25 6a3d 278c 39bd
00000150: 9607 70bd ea84 783c 0719 93bd e55f 9bbd
00000160: 0a05 0f3d 4bc2 cf3c e89f ffbc d1a5 ad3d
00000170: 840f 9abc 7398 e13c 7cc2 5cbc 1eb9 003c
00000180: dee6 7abd a355 90bd cd88 a73d 2d88 d0bb
00000190: 599b 813d a3fe 98bc 1124 813d 539b 04bd
000001a0: 6c8e 4dbd 7daf b13d e851 73bd b385 a13d
000001b0: f56f b03d 3b9a 9c3d a8b1 a2bd 12aa 023d
000001c0: f703 bebc a1f3 823d ca4c 6b3d 76e1 93bd
000001d0: bada 93bd ce23 8f3d 2ba0 36bd 8253 563c
000001e0: 3a85 64bd 9ed5 9b3c 71f5 5fbd d516 ddba
000001f0: 3676 3cbd 621d 413d 43b0 2ebd a325 a83d
00000200: e494 703d 1314 57bc 4d54 6abd 996b 0abd
00000210: 4b01 9a3d b694 a83c 5a35 36bc 00a1 a83b
00000220: 62dc 8c3d 40ba b6bc 0695 673d 2999 50bc
00000230: 3884 9abd d1e7 ea3b bffa 8b3d c145 2cbd
00000240: 3f10 19bd 990d 853c aca5 99bc 84b6 033c
00000250: dbb0 a13d 1721 4cbd 3d11 e13c c012 59bc
00000260: b3ef 983c e635 d53c 15db 073d e2be a13d
00000270: 2d21 933d 968c 5a3d c0ec a0bc a9be 8c3d
00000280: e92b 51bd fff1 263c 0c30 53bd c609 8abc
00000290: f867 8abd 7d70 a33d 34f9 8f3d d9ac 993c
000002a0: fcb6 4abc d1c0 45bd fd7c 7dbd 4517 aebb
000002b0: cbdf c8bc 1844 bbbc a227 fa3a 5e49 f63c
000002c0: 8d55 853d 5b0f a6bd 4b77 7ebb 780b d7bc
000002d0: 3873 37bd 91f7 433d 9f99 94bd d3f6 3ebd
000002e0: 2f20 a33d e7dc 59bd 20e8 a43d 0755 9ebd
000002f0: 7434 0e3d e36f 6fbd 0545 59bd 6219 7d3c
00000300: 1dc7 063d 36c4 99bd 805a 9cbb 8b2b d6bc
00000310: 825a 07bd 4920 8f3d a797 bb3b 42e8 8d3d
00000320: d48d e5bc 5b8c 633d cb41 81bd 9cc4 063d
00000330: 638e e2bc 8d24 813c 0089 09bd 9090 aabb
00000340: 8411 8d3d 84f9 2bbc 7a28 69bd 20de 013c
00000350: 1208 babd cefc 92bd 8a13 d13b 42db a03b
00000360: 23e7 63bc 8a9c 9d3d 7a89 233d 79a6 633d
00000370: 07cd a83d 065c b4bc 091d 7a3d a87e 8dbd
00000380: 793f 5bbd b342 ab3d 1be5 a9bd 0af4 07bd
00000390: 8343 943d eb78 a93d 11e3 0bbd 2a29 3dbd
000003a0: f9ad 913c 96bc 493d 4675 33bd 9634 863d
000003b0: a34a b73b 34c2 9cbc e063 863d d743 98bd
000003c0: 3732 363c ea9d 8dbd 55ac 40bd 4416 603d
000003d0: 3795 63bd 8765 a2bc 94b6 913c a185 b03c
000003e0: 5ce1 a33c 8527 a93d 7c0a a43c dfef 52bc
000003f0: a52a 5e3d 4792 9c3d 7476 d33c cf4b 02bd

network.2.bias f4 [128]
0.084367245 0.055459432 -0.040510844 -0.04684734 0.06955751 0.05833922 0.0370635 -0.08828232
0.04800874 -0.08164122 -0.087620124 -0.027201442 0.07374084 0.00042791665 -0.027551908 0.00040124377
-0.059883654 -0.038136296 0.04715461 -0.05776356 -0.018852763 0.047287125 -0.0022183657 0.043301087
-0.038723193 -0.003761643 0.033557877 0.03895876 -0.075053275 -0.028646616 -0.014115503 0.051909268
-0.060353298 0.06544804 0.054528482 -0.012762268 0.08241737 -0.0063463706 -0.015484932 -0.009923021
0.00027544235 -0.019373897 0.045246314 -0.056244798 0.07559033 -0.048983555 -0.002348654 0.037011534
-0.0016237196 0.01995486 0.007895774 -0.08799956 -0.082190186 0.06953861 0.00075305346 0.078861974
-0.009660037 -0.069068566 -0.05782081 -0.0831163 -0.009627745 0.008562185 0.07932521 -0.073204584
0.054284368 -0.06448114 0.083742015 0.019319996 -0.024797356 0.01736901 0.011330402 0.009184
-0.03918701 -0.07509895 -0.050288197 -0.07380738 -0.06642701 0.05966282 0.045908775 0.009786354
0.015209047 0.0017814822 -0.030097943 0.017165372 -0.07180772 0.030344784 0.058934353 -0.03437351
0.053775612 -0.028834354 0.060039375 0.08883789 -0.076125935 -0.034765895 -0.0050416877 0.020769052
-0.021564197 0.06950726 0.022147017 0.017919846 -0.05732631 0.045260802 0.011183601 0.038385816
-0.073606245 0.034856666 0.0611941 0.06989805 -0.0013397684 0.027366765 0.021893885 0.05664843
0.007521781 0.020698767 0.066398144 -0.020403795 0.052871533 -0.079488926 0.009418174 -0.045560636
0.08323783 0.026903493 -0.08795749 0.01360141 -0.029255949 0.039082903 0.021806464 0.075362444
00000000: bcc8 ac3d 6e29 633d b3ee 25bd ffe2 3fbd
00000010: 2b74 8e3d 1bf5 6e3d e6cf 173d 5ccd b4bd
00000020: d0a4 443d 8333 a7bd 2e72 b3bd 8fd5 debc
00000030: 7005 973d 005a e039 8ab4 e1bc 075e d239
00000040: 9048 75bd ce34 1cbd 3125 413d 7c99 6cbd
00000050: 1c71 9abc 25b0 413d 0062 11bb 7b5c 313d
00000060: 369c 1ebd e685 76bb fc73 093d 3993 1f3d
00000070: 88b5 99bd 4fac eabc b644 67bc d09e 543d
00000080: 0535 77bd 9f09 863d 4259 5f3d d518 51bc
00000090: 70ca a83d 37f5 cfbb 83b4 7dbc 2b94 22bc
000000a0: 3f69 9039 02b6 9ebc 3354 393d f260 66bd
000000b0: 1acf 9a3d fba2 48bd e0eb 19bb 6899 173d
000000c0: fdd2 d4ba 6078 a33c 475d 013c 1d39 b4bd
000000d0: 5453 a8bd 426a 8e3d 9068 453a 6382 a13d
000000e0: 2245 1ebc d273 8dbd 83d5 6cbd e138 aabd
000000f0: b0bd 1dbc 6848 0c3c 4175 a23d 49ec 95bd
00000100: 4959 5e3d b00e 84bd ef80 ab3d f844 9e3c
00000110: d323 cbbc 7449 8e3c 27a3 393c 7d78 163c
00000120: 8f82 20bd 7acd 99bd fffa 4dbd 5328 97bd
00000130: e20a 88bd 0061 743d d70a 3c3d f256 203c
00000140: 5e2f 793c a080 e93a f68f f6bc 659e 8c3c
00000150: ed0f 93bd a095 f83c 2665 713d 3dcb 0cbd
00000160: d143 5c3d 0636 ecbc d9eb 753d a4f0 b53d
00000170: eae7 9bbd af66 0ebd be34 a5bb dc23 aa3c
00000180: 66a7 b0bc d359 8e3d a96d b53c a4cc 923c
00000190: fece 6abd 6463 393d 6c3b 373c 723a 1d3d
000001a0: dfbe 96bd ddc5 0e3d aaa6 7a3d b526 8f3d
000001b0: 2b9b afba 4430 e03c ce5a b33c 2f08 683d
000001c0: 4679 f63b 7690 a93c c0fb 873d dc25 a7bc
000001d0: d28f 583d 17cb a2bd af4e 1a3c ca9d 3abd
000001e0: 9878 aa3d b764 dc3c 0e23 b4bd 73d8 5e3c
000001f0: 2caa efbc 6515 203d 78a3 b23c a057 9a3d

network.4.weight f4 [8, 128]
0.016575947 -0.06370128 0.08681093 -0.03036775 -0.06717575 0.0020179232 -0.039344683 -0.039306678
0.033976797 0.010827875 -0.07194206 -0.05771701 0.03402893 -0.044986483 0.028066035 -0.049867366
-0.025630271 -0.020017235 -0.072511986 0.07756098 0.04785134 -0.037599683 0.005000029 0.01250793
-0.074829616 -0.07191663 0.027561517 0.043167945 -0.05219418 0.076504774 0.04607701 0.014434088
-0.05192182 0.03566947 -0.06949571 0.03344996 -0.033658408 0.0058218935 0.039347995 0.06604805
-0.03679478 -0.04666475 0.08725453 -0.026827313 0.046984166 0.024985354 0.08158599 0.047787704
0.07456834 0.04149269 0.07236587 -0.005351603 -0.06462403 -0.08138903 -0.030685725 -0.0021576546
0.046804063 0.011995892 0.013968721 -0.027881045 0.07223014 0.058508363 -0.08477493 0.028847348
-0.007007353 -0.06407896 0.051717658 -0.0019114544 0.015060706 -0.052711703 0.04793617 0.057285942
-0.01765541 0.011053011 -0.04064412 0.07878302 0.07501068 -0.017512595 0.054726623 -0.053143546
-0.058377087 0.0718329 -0.07759166 0.07839329 -0.027055215 -0.02071423 0.040517613 -0.040087372
-0.054933593 0.037783735 -0.067257926 -0.043453697 -0.009621859 0.057696883 -0.006011185 0.02187265
-0.086246215 -0.02082828 0.05931745 -0.004769124 0.071923226 -0.02431784 0.08045068 -0.051627167
0.06358311 -0.07479417 0.06624223 -0.03600911 0.06379687 -0.05947766 0.023454538 0.0470295
-0.04424272 -0.009811504 -0.024331423 0.024332805 -0.04983651 -0.0065553575 -0.07307843 0.020966515
-0.03268335 0.045028802 -0.055499084 0.027948651 0.079839 -0.018316321 -6.84199e-05 0.063401856
0.07626761 -0.056654304 0.010791187 0.05684913 -0.010656577 0.07710646 -0.0009608676 0.0336466
0.08954138 -0.027279751 0.08502488 0.036822803 -0.0672141 -0.059019715 -0.050681934 0.022657424
-0.0136032 0.039746974 -0.007395227 0.010646723 -0.07605538 0.046396643 0.033064146 -0.028419577
-0.029120235 0.07069753 -0.027624954 0.016016705 -0.00039144605 -0.04375356 -0.07118842 0.025338802
-0.027269363 -0.049794294 -0.058088996 0.04789091 0.040678862 0.009464199 -0.046801545 0.038768973
0.042615853 -0.03947811 0.03810745 0.018941902 0.071669795 0.067611285 0.069252074 0.07124899
-0.061317183 -0.030188 0.016073573 -0.0017353892 -0.08478826 0.003329974 0.07466834 -0.021896815
-0.0713855 -0.054961976 -0.04289857 -0.055116538 -0.06614964 -0.07308508 0.027680313 -0.0350305
-0.019222707 -0.086231016 0.07937047 -0.07906716 0.06721897 0.059871577 -0.06763732 -0.0695329
-0.07747115 0.035545208 0.026977314 0.068240836 0.004989024 0.07206021 -0.027093448 -0.07609219
0.02145447 0.062083527 0.069092914 -0.07783406 -0.010441375 -0.007899023 -0.025446009 -0.06202017
-0.030303305 -0.049551133 -0.06016127 0.06284729 -0.08550051 -0.03827792 0.0030674266 0.08082157
0.0050243046 -0.068216965 0.0853857 -0.08778084 -0.07127391 -0.03386709 0.046594698 0.08159872
-0.086451486 0.0578655 0.056141984 0.029949654 0.037783373 -0.07066227 -0.07393779 -0.046788648
0.076328695 0.09061713 0.010325396 -0.063108504 -0.056906857 -0.074356765 -0.07958437 -0.08196467
-0.0072053308 0.078060694 0.07527945 0.020727001 -0.06036439 -0.047847223 -0.009151336 0.05033419
00000000: 48ca 873c d175 82bd eec9 b13d cac5 f8bc
00000010: 7193 89bd 223f 043b e427 21bd 0a00 21bd
00000020: 412b 0b3d 6667 313c 5c56 93bd ac68 6cbd
00000030: eb61 0b3d bf43 38bd beea e53c b941 4cbd
00000040: 93f6 d1bc 2ffb a3bc 2a81 94bd 4bd8 9e3d
00000050: c4ff 433d 2002 1abd 49d7 a33b 10ee 4c3c
00000060: 4540 99bd 0749 93bd b1c8 e13c dfd0 303d
00000070: 91c9 55bd 89ae 9c3d 3fbb 3c3d f47c 6c3c
00000080: f9ab 54bd 261a 123d c453 8ebd d302 093d
00000090: 66dd 09bd 95c5 be3b 5d2b 213d 3344 873d
000000a0: 20b6 16bd 8923 3fbd 81b2 b23d f4c4 dbbc
000000b0: 7872 403d 16ae cc3c 8e16 a73d 0abd 433d
000000c0: 49b7 983d 3df4 293d 8f34 943d 805c afbb
000000d0: 9a59 84bd 4baf a6bd a160 fbbc 7067 0dbb
000000e0: 9eb5 3f3d 6b8a 443c 10dd 643c ca66 e4bc
000000f0: 65ed 933d 77a6 6f3d 7a9e adbd 4651 ec3c
00000100: f09d e5bb d43b 83bd e5d5 533d c489 faba
00000110: 2ec1 763c 3ae8 57bd b858 443d aaa4 6a3d
00000120: 14a2 90bc b017 353c 737a 26bd fe58 a13d
00000130: 339f 993d 9376 8fbc 0629 603d 0cad 59bd
00000140: d01c 6fbd 211d 933d 60e8 9ebd a98c a03d
00000150: e6a2 ddbc e4b0 a9bc ccf5 253d a832 24bd
00000160: 0c02 61bd 1ec3 1a3d 86be 89bd 81fc 31bd
00000170: 00a5 1dbc 9153 6c3d 79f9 c4bb 462e b33c
00000180: dba1 b0bd 12a0 aabc dbf6 723d 5046 9cbb
00000190: 7c4c 933d 3536 c7bc 53c3 a43d 0277 53bd
000001a0: dd37 823d b02d 99bd 02aa 873d 4a7e 13bd
000001b0: efa7 823d d99e 73bd bb23 c03c 01a2 403d
000001c0: db37 35bd 6ec0 20bc b152 c7bc 9755 c73c
000001d0: 5e21 4cbd 53ce d6bb 25aa 95bd f8c1 ab3c
000001e0: fade 05bd 1f70 383d 0253 63bd 92f4 e43c
000001f0: a182 a33d 1c0c 96bc a77c 8fb8 d5d8 813d
00000200: 3132 9c3d 580e 68bd 85cd 303c a2da 683d
00000210: ec98 2ebc fee9 9d3d bce2 7bba 04d1 093d
00000220: 7961 b73d c979 dfbc 8621 ae3d 82d3 163d
00000230: 8ca7 89bd a8be 71bd dc97 4fbd 109c b93c
00000240: f5df 5ebc b9cd 223d a953 f2bb 986f 2e3c
00000250: ecc2 9bbd 680a 3e3d 456e 073d 2cd0 e8bc
00000260: 8f8d eebc dec9 903d ba4d e2bc 7735 833c
00000270: 003b cdb9 ef36 33bd 3ccb 91bd 5293 cf3c
00000280: 0064 dfbc 1af5 4bbd baee 6dbd 4229 443d
00000290: e19e 263d ba0f 1b3c fab2 3fbd 37cc 1e3d
000002a0: f68d 2e3d ccb3 21bd 8f16 1c3d 0c2c 9b3c
000002b0: 9dc7 923d c977 8a3d 08d4 8d3d feea 913d
000002c0: ba27 7bbd d34c f7bc baac 833c 0076 e3ba
000002d0: 78a5 adbd b13b 5a3b b7eb 983d f360 b3bc
000002e0: 9032 92bd cf1f 61bd 69b6 2fbd e1c1 61bd
000002f0: 7679 87bd a1ad 95bd d3c1 e23c 247c 0fbd
00000300: f078 9dbc e399 b0bd fc8c a23d f7ed a1bd
00000310: 19aa 893d e63b 753d 6f85 8abd 4467 8ebd
00000320: 32a9 9ebd da97 113d 87ff dc3c dac1 8b3d
00000330: f77a a33b 4e94 933d 14f3 ddbc 39d6 9bbd
00000340: 49c1 af3c 4c4b 7e3d 9680 8d3d 7767 9fbd
00000350: 4d12 2bbc e76a 01bc 2674 d0bc dd08 7ebd
00000360: a33e f8bc 21f6 4abd aa6b 76bd 14b6 803d
00000370: e41a afbd 4fc9 1cbd e106 493b c785 a53d
00000380: eca2 a43b 56b5 8bbd b3de ae3d 71c6 b3bd
00000390: 0ef8 91bd 38b8 0abd 15da 3e3d 3b1d a73d
000003a0: 7a0d b1bd 6004 6d3d 23f5 653d fa58 f53c
000003b0: bdc2 1a3d 61b7 90bd b26c 97bd 74a5 3fbd
000003c0: 3852 9c3d 7995 b93d da2b 293c 083f 81bd
000003d0: 2a17 69bd 5c48 98bd 21fd a2bd 18dd a7bd
000003e0: b21a ecbb 49de 9f3d 1d2c 9a3d accb a93c
000003f0: a740 77bd 73fb 43bd 7cef 15bc 392b 4e3d

network.4.bias f4 [8]
-0.08641166 -0.030836156 -0.018356442 0.033619773 -0.057315715 0.053012237 0.038410675 0.051080395
00000000: 99f8 b0bd 1b9c fcbc 4060 96bc e3b4 093d
00000010: e2c3 6abd 5c23 593d 8354 1d3d ad39 513d

exp_avg f4 [128, 26]
0.00065917545 0.0029686259 3.916805e-05 0.0007340461 0.0019004989 0.0026470954 0.0051456206 -0.0069501568
0.0036396277 0.0070610195 -0.0117373075 -9.356672e-05 0.002852409 -0.012634728 -0.0054820646 0.0020718793
-0.030491244 -0.006416657 -0.01881732 -0.0053666923 -0.024957355 -0.007373362 -0.0057087094 -0.0025046319
-0.009043558 -0.008960654 -0.00021721171 -0.00061037415 -0.0021383676 -0.0004161131 -0.0006205137 -0.0015150539
-0.0022165363 -0.01752474 -0.00053177885 -0.0010857161 -0.019221086 -0.010563894 -0.001561392 -0.018075325
-0.008980881 -0.012654169 -0.02119254 -0.015364223 -0.011491811 -0.016679596 -0.02000018 -0.012791759
-0.011949052 -0.0052448516 -0.01279569 -0.012855522 -0.0010768939 -0.00316254 -0.0013095934 -0.0006089788
-0.0019736716 -0.007334729 -0.007303389 -0.0021350752 -0.007829411 -0.009111387 0.005545444 0.0077097956
-0.0071009337 0.011203698 0.014508661 -0.0016445834 0.013696797 0.012701295 0.008596003 0.0065591233
0.005661632 0.007348414 0.0047443383 0.0020613184 0.007924312 0.0076254243 -0.0058176476 -0.0046927067
-0.00843674 -0.0057652737 -0.0038364672 -0.021193346 -0.024300138 -0.07259043 -0.022811571 -0.018586904
-0.06025552 -0.107400455 -0.015102226 -0.10425068 -0.09892685 -0.05074944 -0.11949438 -0.117359124
-0.11510005 -0.10266471 -0.1291309 -0.07234705 -0.0639635 -0.027495168 -0.07442263 -0.07454905
0.0 0.0 0.0 0.0 0.0 0.0 0.0 0.0
0.0 0.0 0.0 0.0 0.0 0.0 0.0 0.0
0.0 0.0 0.0 0.0 0.0 0.0 0.0 0.0
0.0 0.0 0.0036515659 0.003517581 0.003139399 0.0055988785 0.0014631064 0.0078070685
0.011462855 0.02273266 0.011513224 0.0063628363 0.012624878 0.02203078 0.0047278106 0.025087453
0.018931001 0.0103659 0.032663062 0.03485391 0.028708478 0.022075597 0.025635252 0.016609484
0.0137394145 0.005816254 0.017584054 0.017520644 0.0016471765 0.00029319353 0.00012314437 -3.203304e-05
-0.00043275725 0.0006394574 -0.0018812751 -0.0047562057 0.0016466012 -0.00070058124 -0.0005337944 0.0038095466
-0.00052877516 0.0018144771 0.0051463204 0.0012475832 -5.7409517e-05 0.00558128 0.004647977 -0.003395462
0.0011774733 0.00091164757 0.0007958312 0.00051986036 0.0011183 0.0008982152 0.005225238 0.0047718263
-0.003796042 0.001486449 0.004903089 -0.010273613 -0.0067556873 -0.054241233 -0.015292388 -0.008802895
-0.045296893 -0.080404945 1.6496051e-05 -0.08531482 -0.08607746 -0.027902454 -0.09530972 -0.11794835
-0.10384168 -0.0824199 -0.10763372 -0.056870103 -0.049433634 -0.020764247 -0.060817335 -0.06024746
-0.004603554 -0.0037500197 0.0037874903 -0.004738076 -0.002379675 -0.002299678 -0.0075178556 0.0046809157
-0.0010233666 -0.0012229257 0.03158632 0.029054621 0.00101974 0.04128538 0.034068692 0.02142478
0.047453158 0.04404038 0.035984244 0.03800863 0.054324113 0.026497379 0.024239443 0.010431687
0.02951575 0.028791297 -0.0018894749 -0.0018112812 -0.0037330112 -0.0031097145 -0.0021094265 -0.009792865
-0.0069811717 -0.025869219 -0.009789136 -0.008161649 -0.016385324 -0.023932965 -0.0053857947 -0.03139001
-0.035407163 -0.006906803 -0.025881577 -0.047132686 -0.040324446 -0.013845981 -0.031701025 -0.019609867
00000000: 84cc 2c3a 478d 423b 6048 2438 006d 403a
00000010: 291a f93a e47a 2d3b 989c a83b 24be e3bb
00000020: d286 6e3b 2060 e73b d64d 40bc 4039 c4b8
00000030: 7bef 3a3b e401 4fbc e4a2 b3bb 5ec8 073b
00000040: c6c8 f9bc d242 d2bb c826 9abc 14db afbb
00000050: 5e73 ccbc 3e9c f1bb 2010 bbbb c024 24bb
00000060: 6e2b 14bc b5cf 12bc 53c3 63b9 8401 20ba
00000070: db23 0cbb c129 dab9 f8a9 22ba c694 c6ba
00000080: 4f43 11bb 0b90 8fbc 1367 0bba 964e 8eba
00000090: 8a75 9dbc 2f14 2dbc 9fa7 ccba b412 94bc
000000a0: 8c24 13bc 6f53 4fbc fa9b adbc 39ba 7bbc
000000b0: 2648 3cbc a6a3 88bc 6bd7 a3bc 8794 51bc
000000c0: f5c5 43bc 01dd abbb 04a5 51bc f89f 52bc
000000d0: 9026 8dba 9e42 4fbb aaa6 abba e0a3 1fba
000000e0: b758 01bb 2b58 f0bb 4451 efbb 9eec 0bbb
000000f0: ee46 00bc ed47 15bc 8eb6 b53b 74a2 fc3b
00000100: f3ae e8bb b78f 373c bcb5 6d3c 108f d7ba
00000110: 8868 603c 1819 503c 40d6 0c3c eaed d63b
00000120: 3685 b93b f7ca f03b 6576 9b3b 2f17 073b
00000130: f9d4 013c b2de f93b f7a1 bebb 47c5 99bb
00000140: 413a 0abc 9fea bcbb 3d6d 7bbb ab9d adbc
00000150: 1511 c7bc 4baa 94bd 55df babc 9043 98bc
00000160: 7ece 76bd c5f4 dbbd 546f 77bc 6181 d5bd
00000170: 299a cabd a5de 4fbd 78b9 f4bd fb59 f0bd
00000180: 93b9 ebbd e041 d2bd e43a 04be b12a 94bd
00000190: 4cff 82bd 8c3d e1bc e46a 98bd 2cad 98bd
000001a0: 0000 0000 0000 0000 0000 0000 0000 0000
000001b0: 0000 0000 0000 0000 0000 0000 0000 0000
000001c0: 0000 0000 0000 0000 0000 0000 0000 0000
000001d0: 0000 0000 0000 0000 0000 0000 0000 0000
000001e0: 0000 0000 0000 0000 0000 0000 0000 0000
000001f0: 0000 0000 0000 0000 0000 0000 0000 0000
00000200: 0000 0000 0000 0000 1c4f 6f3b 3787 663b
00000210: 60be 4d3b cc76 b73b b4c5 bf3a 70d2 ff3b
00000220: b3ce 3b3c d839 ba3c f6a1 3c3c 577f d03b
00000230: 94d8 4e3c e579 b43c c0eb 9a3b 3484 cd3c
00000240: 3015 9b3c bcd5 293c b4c9 053d f9c2 0e3d
00000250: 0b2e eb3c e2d7 b43c 0501 d23c 9d10 883c
00000260: 481b 613c 4696 be3b 6f0c 903c 7487 8f3c
00000270: 12e6 d73a c5b7 9939 5120 0139 375b 06b8
00000280: b2e3 e2b9 42a1 273a 1e95 f6ba f2d9 9bbb
00000290: c5d2 d73a 36a7 37ba 56ee 0bba 96a9 793b
000002a0: 809d 0aba c0d3 ed3a 77a2 a83b f285 a33a
000002b0: 00cb 70b8 2ce3 b63b 0f4e 983b 6686 5ebb
000002c0: 7355 9a3a a2fb 6e3a 549f 503a 3d47 083a
000002d0: ec93 923a 3476 6b3a 7938 ab3b fb5c 9c3b
000002e0: 04c7 78bb f4d4 c23a 17aa a03b a852 28bc
000002f0: d05e ddbb 0e2c 5ebd ed8c 7abc 053a 10bc
00000300: 3c89 39bd 59ab a4bd 0061 8a37 89b9 aebd
00000310: 6149 b0bd b093 e4bc be31 c3bd e88e f1bd
00000320: f2aa d4bd c4cb a8bd 116f dcbd a0f0 68bd
00000330: ec7a 4abd c819 aabc 991b 79bd 0ac6 76bd
00000340: 69d9 96bb e4c2 75bb 8b37 783b dd41 9bbb
00000350: 52f4 1bbb 32b6 16bb 5858 f6bb 5e62 993b
00000360: 7c22 86ba 944a a0ba a860 013d f503 ee3c
00000370: cca8 853a dc1a 293d 9d8b 0b3d 0583 af3c
00000380: 3e5e 423d af63 343d 3764 133d f0ae 1b3d
00000390: f682 5e3d 0811 d93c cc91 c63c abe9 2a3c
000003a0: 04cb f13c badb eb3c 42a8 f7ba 8368 edba
000003b0: 89a5 74bb 5acc 4bbb 4e3e 0abb 4172 20bc
000003c0: 50c2 e4bb afeb d3bc 9d62 20bc 70b8 05bc
000003d0: 843a 86bc 110f c4bc 527b b0bb d092 00bd
000003e0: 1a07 11bd 7752 e2bb 9a05 d4bc 340e 41bd
000003f0: 3f2b 25bd 41da 62bc efd8 01bd dfa4 a0bc

exp_avg_sq f4 [128, 26]
3.983584e-05 4.7164798e-05 5.5710476e-05 5.0665858e-05 4.9074493e-05 0.00028437487 0.00032210423 0.00063737755
0.0003179014 0.0003010412 0.00048393637 0.0006360039 0.00011475247 0.0007756167 0.0008965788 0.0002522375
0.000981 0.00084794784 0.0010543383 0.0010039627 0.0010438724 0.00036284854 0.00031133287 6.2983505e-05
0.00039064253 0.00038318816 2.1916203e-07 5.2859303e-07 2.3324567e-06 2.473771e-07 3.4900074e-07 6.87144e-06
1.3940743e-05 0.00012832475 6.05999e-06 5.4626257e-06 0.00015556684 7.7048666e-05 3.8587814e-06 0.00020784141
0.00020931207 5.903043e-05 0.00031144553 0.00021718902 0.00031176017 0.00036879536 0.0003561976 8.8958965e-05
6.727174e-05 1.25148445e-05 0.00010378117 0.000100733516 2.8672424e-05 3.4312667e-05 3.1219333e-05 3.081714e-05
2.8415609e-05 0.00016949115 0.00017192858 0.000379121 0.00017185562 0.00017214577 0.0002478638 0.00035378488
5.8779224e-05 0.00041188303 0.0004429764 0.00016462893 0.0005656936 0.000477756 0.0005398905 0.0006087882
0.0004932494 0.0001917537 0.00016434201 3.3950342e-05 0.00020586234 0.00020237606 4.5764464e-05 4.9588354e-05
5.3657925e-05 5.425633e-05 4.5500616e-05 0.0003428691 0.00036793176 0.0011313228 0.00034368018 0.00029910685
0.000943935 0.0012143858 0.000109930006 0.0016791618 0.0017172868 0.0004160997 0.002070766 0.0025069832
0.0022008214 0.0018409769 0.0022670869 0.0007392767 0.00058633013 0.00011583401 0.00084626395 0.0008207834
0.0 0.0 0.0 0.0 0.0 0.0 0.0 0.0
0.0 0.0 0.0 0.0 0.0 0.0 0.0 0.0
0.0 0.0 0.0 0.0 0.0 0.0 0.0 0.0
0.0 0.0 1.8642708e-05 2.0536103e-05 2.3866529e-05 2.2988084e-05 2.4469613e-05 0.00014942113
0.00015937198 0.00038842947 0.0001670801 0.0001585448 0.00025309846 0.0002897456 5.5783465e-05 0.0004265922
0.0004440226 0.00012054075 0.0004982333 0.0006571379 0.000502286 0.00053348107 0.00046196766 0.00019295469
0.00015660182 3.083194e-05 0.00021278369 0.00020854025 1.7363638e-05 2.9652614e-05 3.7466853e-05 2.915594e-05
1.5268415e-05 7.819532e-05 9.4217765e-05 0.00026848653 8.283785e-05 6.498182e-05 0.00016164275 0.00020838907
5.376541e-05 0.00027495145 0.00023468984 9.251344e-05 0.000525257 0.00023115097 0.0004143583 0.00039460792
0.00038261796 0.0001160962 9.7307806e-05 2.0338795e-05 0.0001318236 0.00012788954 9.723465e-05 0.00010453696
0.00012573438 0.00011448634 0.00010173674 0.00055951823 0.00056297897 0.0014149975 0.0005721015 0.0005148654
0.0011204676 0.0014961835 0.00023937091 0.0020763723 0.002335487 0.0006097698 0.0028961804 0.0028168075
0.0024157267 0.0029364051 0.002560136 0.00091730535 0.00073809846 0.0001436309 0.001038213 0.0010091178
2.517443e-05 3.070355e-05 3.237136e-05 2.6562157e-05 2.0557118e-05 0.0002426899 0.00024604908 0.00073822646
0.00020469006 0.0002154347 0.0006212757 0.0006849482 7.1747374e-05 0.0009829486 0.0009873613 0.00024822378
0.0012722366 0.0012712696 0.0013399869 0.0013919056 0.0014152667 0.0004365025 0.00037717578 7.4366806e-05
0.00048704518 0.00047123284 4.0499117e-06 2.9995613e-06 6.9864527e-06 7.1821282e-06 7.3529445e-06 0.00011527998
0.00013049737 0.0005062447 8.1621634e-05 0.000104091225 0.00023746098 0.00033925287 3.5209145e-05 0.00063713035
0.00065919646 9.9546785e-05 0.0008187352 0.0012469083 0.00096881564 0.0006915666 0.0009292468 0.00023456253
00000000: 6815 2738 d1d2 4538 abaa 6938 0d82 5438
00000010: 56d5 4d38 2618 9539 19e0 a839 af15 273a
00000020: 01ac a639 11d5 9d39 d7b8 fd39 80b9 263a
00000030: 43a7 f038 c152 4b3a 6208 6b3a bf3e 8439
00000040: e694 803a d148 5e3a b931 8a3a 6697 833a
00000050: 8cd2 883a b53c be39 643a a339 0316 8438
00000060: 27cf cc39 a5e6 c839 cd52 6b34 a3e4 0d35
00000070: 4d87 1c36 40cf 8434 4c5e bb34 3891 e636
00000080: 09e3 6937 ea8e 0639 eb56 cb36 994b b736
00000090: a81f 2339 3095 a138 ae7a 8136 01f0 5939
000000a0: c87a 5b39 7197 7738 8349 a339 3cbd 6339
000000b0: be73 a339 e05a c139 08c0 ba39 7b8f ba38
000000c0: 3e14 8d38 d9f6 5137 17a5 d938 e540 d338
000000d0: 9085 f037 f2ea 0f38 81f1 0238 a741 0138
000000e0: 0e5e ee37 6fb9 3139 ba47 3439 c2c4 c639
000000f0: 2434 3439 0782 3439 b7f3 8139 347c b939
00000100: b689 7638 01f2 d739 493f e839 3ea0 2c39
00000110: 0e4b 143a 537b fa39 7087 0d3a 1697 1f3a
00000120: 684d 013a 7e11 4939 3953 2c39 e765 0e38
00000130: c0dc 5739 e934 5439 38f3 3f38 17fd 4f38
00000140: c20e 6138 4a91 6338 ead7 3e38 1dc3 b339
00000150: f7e6 c039 e548 943a f92f b439 71d1 9c39
00000160: 6872 773a 072c 9f3a 398a e638 5217 dc3a
00000170: 9516 e13a f527 da39 b0b5 073b 334c 243b
00000180: a83b 103b ef4c f13a 6893 143b 05cc 413a
00000190: f3b3 193a e9eb f238 d0d7 5d3a d729 573a
000001a0: 0000 0000 0000 0000 0000 0000 0000 0000
000001b0: 0000 0000 0000 0000 0000 0000 0000 0000
000001c0: 0000 0000 0000 0000 0000 0000 0000 0000
000001d0: 0000 0000 0000 0000 0000 0000 0000 0000
000001e0: 0000 0000 0000 0000 0000 0000 0000 0000
000001f0: 0000 0000 0000 0000 0000 0000 0000 0000
00000200: 0000 0000 0000 0000 e962 9c37 f244 ac37
00000210: fb34 c837 89d6 c037 1844 cd37 eead 1c39
00000220: 171d 2739 1fa6 cb39 3932 2f39 0c3f 2639
00000230: 4db2 8439 ffe8 9739 0af9 6938 3ca8 df39
00000240: b4cb e839 d3ca fc38 df9b 023a c743 2c3a
00000250: d8ab 033a 4fd9 0b3a 4034 f239 e153 4a39
00000260: 7b35 2439 8b51 0138 b01e 5f39 99ab 5a39
00000270: 21a8 9137 81be f837 ba25 1d38 e893 f437
00000280: ac14 8037 cbfc a338 c796 c538 a7c3 8c39
00000290: 3bb9 ad38 d946 8838 a57e 2939 0483 5a39
000002a0: 2b82 6138 5c27 9039 1317 7639 c603 c238
000002b0: 67b1 093a 1e61 7239 3b3e d939 61e3 ce39
000002c0: 1d9a c839 ac78 f338 bb11 cc38 3b9d aa37
000002d0: 213a 0a39 161a 0639 75ea cb38 da3a db38
000002e0: 91d7 0339 6318 f038 7f5b d538 a2ac 123a
000002f0: e194 133a 7077 b93a 15f9 153a 08f8 063a
00000300: a7dc 923a 961b c43a a4ff 7a39 bf13 083b
00000310: f80e 193b f5d8 1f3a d8cd 3d3b 309a 383b
00000320: 2b51 1e3b b470 403b f4c7 273b 5277 703a
00000330: f37c 413a a09b 1639 a614 883a 6044 843a
00000340: ad2d d337 b0c7 0038 7cc6 0738 ccd1 de37
00000350: 1372 ac37 937a 7e39 2600 8139 8a85 413a
00000360: 12a2 5639 50e6 6139 1bdd 223a 188e 333a
00000370: 1477 9638 48d6 803a 596a 813a 0824 8239
00000380: 2dc1 a63a bba0 a63a 80a2 af3a 9a70 b63a
00000390: 7880 b93a 60da e439 adbf c539 60f5 9b38
000003a0: 195a ff39 cd0f f739 7ae4 8736 124c 4936
000003b0: 2c6d ea36 03fe f036 50b9 f636 78c2 f138
000003c0: 1fd6 0839 82b5 043a 482c ab38 8d4b da38
000003d0: f2fe 7839 c0dd b139 88ad 1338 1805 273a
000003e0: edcd 2c3a c6c3 d038 64a0 563a 4d6f a33a
000003f0: 1ef8 7d3a 404a 353a b298 733a e6f4 7539

exp_avg f4 [128]
-0.018049616 -0.025821885 0.016005287 -0.14892954 0.0 0.03583923 0.0025921052 -0.12187832
0.05897912 -0.04484287 0.035097994 -0.015808193 -0.03718439 -0.002015113 0.003224459 -0.00855609
0.025024353 0.0023369656 0.0 -0.019657334 0.0 0.0063411724 -0.058036692 0.002654082
0.05228762 -0.02483048 0.073775455 0.058391098 0.00083530974 0.0 0.0 0.0
-0.05894512 -0.018288884 -0.005888243 -0.014401962 0.02029806 -0.002310542 -0.06310287 0.016878054
-0.08672355 -0.023130052 0.000106447245 -0.0077090147 -0.15950829 -0.072225116 0.039645396 -0.0048505473
-0.037717506 -0.044138964 0.03211163 -0.003654173 -0.011570725 -0.048493885 -0.007171549 -0.017888894
-0.033988167 -0.0011283013 -0.02965759 -0.091020845 -0.019226523 0.005493388 -0.003651888 -0.03453085
-0.02649506 0.039109163 0.0 0.0019559711 0.043163348 0.11843253 -0.006781751 0.085911885
0.0 -0.035098515 0.0009419676 0.0121586155 -0.0452453 -0.022181176 0.0 0.0
-0.0049884426 5.6982635e-06 -0.026205689 -0.011369703 -0.06807991 -0.003913164 -0.00025314873 0.007036176
-0.025386985 -0.07232797 0.0 0.010238245 0.06887315 -0.008601401 -0.008434728 -0.023697792
0.0007863913 0.0 -0.0070525073 -0.10847591 -0.0138416225 0.051728413 0.019766148 0.015215615
0.0017246492 0.0 -0.077941656 0.00047770888 -0.013429045 0.010996698 -0.031914543 0.0
0.0002572931 0.0 0.0 0.03465018 0.00044209007 -0.06215971 -0.024439331 -0.0055841245
0.0003472073 0.0853137 -0.0013666761 0.0042328816 -0.005162283 0.0 0.0 -0.05772749
00000000: cadc 93bc 6b88 d3bc 851d 833c fc80 18be
00000010: 0000 0000 28cc 123d 4fe0 293b 579b f9bd
00000020: 1794 713d 28ad 37bd eac2 0f3d 2f80 81bc
00000030: a94e 18bd fc0f 04bb 7251 533b d82e 0cbc
00000040: dfff cc3c c727 193b 0000 0000 6b08 a1bc
00000050: 0000 0000 9cc9 cf3b e2b7 6dbd 1bf0 2d3b
00000060: 8b2b 563d 4a69 cbbc 9617 973d 812b 6f3d
00000070: b0f8 5a3a 0000 0000 0000 0000 0000 0000
00000080: 7070 71bd 92d2 95bc 2af2 c0bb 35f6 6bbc
00000090: 1e48 a63c 766c 17bb 143c 81bd d843 8a3c
000000a0: 1e9c b1bd 3c7b bdbc 6e3c df38 e79b fcbb
000000b0: 2456 23be c3ea 93bd 3663 223d 57f1 9ebb
000000c0: ac7d 1abd 0fcb 34bd 7c87 033d da7a 6fbb
000000d0: 2393 3dbc 86a1 46bd 50ff eabb bb8b 92bc
000000e0: 2d37 0bbd 82e3 93ba 79f4 f2bc 2369 babd
000000f0: f180 9dbc e101 b43b 8454 6fbb 3870 0dbd
00000100: 2b0c d9bc ee30 203d 0000 0000 c02f 003b
00000110: 0dcc 303d c18c f23d 7339 debb 92f2 af3d
00000120: 0000 0000 76c3 0fbd 60ee 763a ee34 473c
00000130: 2353 39bd 4cb5 b5bc 0000 0000 0000 0000
00000140: 1776 a3bb b633 bf36 50ad d6bc fe47 3abc
00000150: 7b6d 8bbd 003a 80bb 0cb9 84b9 b98f e63b
00000160: 5ef8 cfbc b020 94bd 0000 0000 50be 273c
00000170: 5e0d 8d3d e4ec 0cbc d031 0abc df21 c2bc
00000180: d425 4e3a 0000 0000 b818 e7bb 9e28 debd
00000190: f9c7 62bc 2ce1 533d 9eec a13c ea4a 793c
000001a0: a00d e23a 0000 0000 e09f 9fbd 0075 fa39
000001b0: 7f05 5cbc 7f2b 343c d3b8 02bd 0000 0000
000001c0: 4ce5 8639 0000 0000 0000 0000 59ed 0d3d
000001d0: 53c8 e739 2e9b 7ebd fe34 c8bc 08fb b6bb
000001e0: 6009 b639 f3b8 ae3d 0a22 b3ba fcb3 8a3b
000001f0: 5e28 a9bb 0000 0000 0000 0000 a973 6cbd

exp_avg_sq f4 [128]
0.0015828916 0.00042416606 0.0008405774 0.0034268596 0.0 0.00087059627 0.0005611254 0.0042374935
0.002006017 0.0013002666 0.00068189984 0.0012749843 0.0035435834 1.8117676e-06 0.00060382194 0.0016279209
0.0005615089 4.2249147e-05 0.0 0.0019281897 0.0 0.0011299864 0.0017152338 1.1026139e-05
0.0014211683 0.001724024 0.002009578 0.003004184 0.0031408593 0.0 0.0 0.0
0.0028136186 0.0007332914 0.0012390639 0.00022831939 0.0020609004 1.7523027e-05 0.0025087465 0.00059290335
0.0017544882 0.0021033506 6.1190354e-07 5.8826125e-05 0.006505852 0.0018223677 0.0005513482 8.765371e-05
0.0022017225 0.0007885313 0.001043014 0.00018409896 0.0021458014 0.0012299226 5.7231246e-05 0.00014259107
0.00035706945 6.4943765e-07 0.0014250801 0.0014223405 0.00023285148 8.4760104e-05 5.418476e-05 0.0023915612
0.00071795087 0.0025297191 0.0 0.001587079 0.0011722702 0.0042328835 0.0006295467 0.0018896188
0.0 0.0018127022 0.001614211 0.0004932403 0.00092372275 0.00038625958 0.0 0.0
0.00052048016 2.3407424e-06 0.00033937694 0.0005173376 0.0033740276 0.0006502734 3.5875142e-05 1.1422566e-05
0.002428858 0.0034450574 0.0 0.00035633723 0.002763717 0.00016278273 0.00072433264 0.00094331434
0.00045152992 0.0 0.0011701527 0.0028220087 0.00114906 0.000563051 0.001139965 0.0006240416
0.0019958206 0.0 0.0011258536 0.0016668327 0.00097286626 6.557016e-05 0.0021045231 0.0
2.3400464e-07 0.0 0.0 0.00073513866 3.074159e-05 0.0006743528 0.0025424631 0.0008227951
0.0017975409 0.002982843 3.9089176e-05 2.2269027e-05 3.661848e-05 0.0 0.0 0.001196151
00000000: 0779 cf3a 9b62 de39 325a 5c3a 2a95 603b
00000010: 0000 0000 ba38 643a 7d18 133a acda 8a3b
00000020: 6177 033b b56d aa3a 86c1 323a 601d a73a
00000030: 773b 683b dc2b f335 ce49 1e3a f65f d53a
00000040: 3932 133a ad34 3138 0000 0000 4fbb fc3a
00000050: 0000 0000 0d1c 943a b2d1 e03a e8fc 3837
00000060: 7f46 ba3a a5f8 e13a 20b3 033b d8e1 443b
00000070: e0d6 4d3b 0000 0000 0000 0000 0000 0000
00000080: b064 383b 5a3a 403a 1668 a23a 0569 6f39
00000090: 2c10 073b 6afe 9237 c869 243b 126d 1b3a
000000a0: dbf6 e53a 5ed8 093b b141 2435 12bc 7638
000000b0: 0b2f d53b 83dc ee3a 5a88 103a bad2 b738
000000c0: c64a 103b 71b5 4e3a beb5 883a b00a 4139
000000d0: 93a0 0c3b 5b35 a13a 950b 7038 8084 1539
000000e0: 0d35 bb39 0455 2e35 c1c9 ba3a d46d ba3a
000000f0: 9829 7439 3cc1 b138 7144 6338 bdbb 1c3b
00000100: de34 3c3a a5c9 253b 0000 0000 8905 d03a
00000110: dca6 993a 00b4 8a3b 2a08 253a 16ad f73a
00000120: 0000 0000 3198 ed3a ef93 d33a cc4c 013a
00000130: fc25 723a e282 ca39 0000 0000 0000 0000
00000140: d570 083a a615 1d36 67ee b139 f09d 073a
00000150: ca1e 5d3b 1c77 2a3a a478 1638 8ca3 3f37
00000160: 7a2d 1f3b 79c6 613b 0000 0000 c6d2 ba39
00000170: 7a1f 353b a8b0 2a39 24e1 3d3a c148 773a
00000180: 52bb ec39 0000 0000 cf5f 993a 73f1 383b
00000190: 0e9c 963a b799 133a e16a 953a b996 233a
000001a0: 50cc 023b 0000 0000 6191 933a a079 da3a
000001b0: f307 7f3a b682 8938 0aec 093b 0000 0000
000001c0: b542 7b34 0000 0000 0000 0000 52b6 403a
000001d0: 88f0 0038 0dc7 303a 749f 263b d8b0 573a
000001e0: 779b eb3a cd7b 433b aff3 2338 5fce ba37
000001f0: cb96 1938 0000 0000 0000 0000 2bc8 9c3a
