models/reinforce/reinforce_low_lr/checkpoint_ep400.pth (torch, 259594 bytes, 18 tensors)

network.0.weight f4 [128, 26]
0	0x3e2de761	0.16982795
1	0x3e4a3736	0.19747624
2	0x3e000330	0.12501216
3	0x3dc5491e	0.096330866
4	0xbdf99a74	-0.12187663
5	0x3dbee4fd	0.0932102
6	0x3dccf0f9	0.100068994
7	0x3c591038	0.013248496
8	0x3d7a6a24	0.06113638
9	0x3e3b8d43	0.18315606
10	0x3e221f6d	0.158323
11	0x3e40a053	0.18811159
12	0xbe1a1559	-0.15047206
13	0xbe0d7adc	-0.13816398
14	0x3da2d987	0.07951646
15	0xbd9a30e1	-0.07528854
16	0x3dcfac3b	0.10140272
17	0x3d9c90e8	0.07644826
18	0xbce6efb2	-0.028190468
19	0xbd895fe3	-0.06707742
20	0x3e4ce191	0.20007922
21	0xbddca8d1	-0.10774387
22	0x3e474358	0.19459283
23	0x3d96eb79	0.073691316
24	0xbd8e58a0	-0.069504976
25	0xbdb903c1	-0.09033919
26	0xbe36a818	-0.1783756
27	0xbd8f3cbd	-0.06994007
28	0x3de6f5d0	0.11277354
29	0xbe3d4eec	-0.18487138
30	0x3e137aea	0.14402357
31	0xbe355991	-0.17709948
32	0x38c5e48e	9.436264e-05
33	0x3e03fa9e	0.12888572
34	0x3d97309c	0.073823184
35	0xbe05ceb9	-0.1306714
36	0x3df3c0d1	0.11902011
37	0xbe276459	-0.16346873
38	0x3dbc649a	0.09198876
39	0x3bc082ff	0.005874991
40	0x3d24f479	0.04027221
41	0x3e101c3c	0.1407327
42	0x3b40c899	0.002941644
43	0xbdf15598	-0.11783904
44	0x3dd1908d	0.10232649
45	0x3d351c77	0.0442166
46	0x3e43836e	0.19093105
47	0x3e3a36c1	0.1818495
48	0x3d34e3b8	0.044162482
49	0xbcc02171	-0.023453446
50	0x3d63053f	0.055424925
51	0xbe0bd3d6	-0.13655028
52	0x3e1773a4	0.14790207
53	0x3abb41cb	0.0014286576
54	0x3e219c23	0.15782218
55	0xbe2ac527	-0.1667677
56	0x3e291127	0.1651045
57	0x3e03027d	0.12793918
58	0x3be389fb	0.006943939
59	0x3e154872	0.14578417
60	0xbe14d708	-0.14535153
61	0x3cdb57c4	0.026775248
62	0xbd668124	-0.0562755
63	0x3e4e067d	0.20119663
64	0x3dca59b1	0.098803885
65	0xbe2f1bc7	-0.1710044
66	0x3e44e118	0.19226491
67	0x3db37de8	0.08764249
68	0x3d5faad3	0.05460627
69	0xbd75dffa	-0.060028054
70	0x3e347db7	0.17626081
71	0xbe396756	-0.18105826
72	0xbdb7a675	-0.08967296
73	0x3e0e2d9b	0.13884585
74	0x3e0368ba	0.12832919
75	0x3d8bc4d7	0.068246536
76	0xbd332b61	-0.04374254
77	0x3e346f85	0.17620666
78	0x3e209989	0.15683569
79	0xbdc44021	-0.09582544
80	0x3ca587ee	0.020206418
81	0xbdd0cc3a	-0.10195203
82	0x3dfcfd90	0.12353051
83	0xbe2ce142	-0.16882804
84	0xbde65b66	-0.112479016
85	0x3d6eb2b8	0.05827591
86	0xbd77c694	-0.060492113
87	0x3e063e25	0.13109644
88	0xbdad0586	-0.08448319
89	0xbba9df49	-0.0051840884
90	0x3e24cac4	0.16092974
91	0x3df2f9f9	0.11864085
92	0x3daf6ad8	0.08565301
93	0xbd5e0d49	-0.05421189
94	0xbc4a4881	-0.012346388
95	0xbcba3ad9	-0.022733139
96	0x3e1bd658	0.15218484
97	0xbdb0e596	-0.0863754
98	0x3d6733c9	0.05644587
99	0x3da2bfdb	0.0794675
100	0x3d83ec8b	0.06441601
101	0x3e20e5a4	0.15712601
102	0x3e15f665	0.14644773
103	0x3db5dfe6	0.08880596
104	0xbc2d72f0	-0.010586485
105	0xbdf5208e	-0.119691
106	0xbbaee0a0	-0.005336836
107	0xbd941a92	-0.072316304
108	0xbd4b1eac	-0.049589798
109	0xbd3b26a8	-0.045691162
110	0xbe45d6af	-0.19320177
111	0x3dc427d6	0.095779106
112	0x3c17a420	0.009255439
113	0x3d757af4	0.05993171
114	0xbe3b4427	-0.18287717
115	0x3d0a73a8	0.033801705
116	0x3e40156f	0.18758176
117	0x3e1b0907	0.15140162
118	0xbd618e84	-0.055067554
119	0xbd3379b4	-0.043817237
120	0x3e0a5abd	0.13511176
121	0x3d75d8ec	0.060021326
122	0xbe19b27b	-0.15009491
123	0xbd922cb3	-0.07137432
124	0xbe0e237c	-0.13880724
125	0xbd8c6138	-0.068544805
126	0xbc1d68b0	-0.009607479
127	0xbe1a6e2b	-0.15081088
128	0xbddff835	-0.109360136
129	0xbc8f97e8	-0.01752849
130	0xbda50c30	-0.08058965
131	0xbdcb2dfa	-0.09920879
132	0xbe40833e	-0.18800065
133	0x3e432cc1	0.19060041
134	0x3e0e3ae0	0.13889647
135	0x3e3d2eda	0.18474904
136	0xbe12f28f	-0.14350341
137	0x3e2adf41	0.16686727
138	0x3d24a838	0.04019949
139	0xbd8581b3	-0.06518879
140	0x3c02f764	0.007993553
141	0xbe0db1c0	-0.13837337
142	0x3dd3140c	0.10306558
143	0x3dd1b7e2	0.10240151
144	0x3dcab3bc	0.09897563
145	0xbe06a88c	-0.13150233
146	0xbdb99d1a	-0.09063168
147	0x3e185cdd	0.14879175
148	0xbd9553ae	-0.07291351
149	0xbdcde1f1	-0.100528605
150	0xbde78fed	-0.113067485
151	0x3afe4b2e	0.0019401067
152	0x3e3bcf29	0.18340744
153	0xbd85ea77	-0.06538861
154	0x3dd463f0	0.10370624
155	0xbca8e34c	-0.020616196
156	0xbaf6e3dd	-0.0018836219
157	0x3d8dc6c6	0.06922679
158	0x3e01442c	0.12623662
159	0xbdf15e58	-0.11785573
160	0x3e0bdb36	0.13657841
161	0xbd6883fc	-0.056766495
162	0xbd2d207e	-0.042267315
163	0x3da36a61	0.079792745
164	0x3cfa733c	0.030572526
165	0xbe1c0ac7	-0.15238486
166	0x3de5dbc7	0.1122356
167	0x3d4b5adf	0.04964721
168	0x3e2f41a7	0.17114888
169	0x3d23a9e2	0.039956935
170	0xbdfe173e	-0.12406777
171	0xbe0a7895	-0.13522561
172	0x3dfc4b32	0.1231903
173	0xbcbc555f	-0.022989927
174	0x3da74d92	0.08169092
175	0xbdf627ba	-0.12019296
176	0x3daf6b60	0.08565402
177	0xbda9c936	-0.08290331
178	0xbe0580ee	-0.13037464
179	0x3d05b675	0.032644708
180	0xbd2faabd	-0.042887438
181	0xbd84fca9	-0.064935036
182	0x3db30dcd	0.08742867
183	0xbe412557	-0.188619
184	0xbe023b18	-0.12717855
185	0x3e49d121	0.19708683
186	0x3e14c9cd	0.14530106
187	0x3ce61a8b	0.028088829
188	0x3e42795a	0.18991604
189	0x3bd025ea	0.006352176
190	0x3d4478da	0.047966816
191	0xbbbce7f9	-0.005764958
192	0xbdf3e646	-0.119091555
193	0x3d1df3ee	0.038562708
194	0x3da094ce	0.07840882
195	0xbdd5766f	-0.1042298
196	0x3e1acf48	0.15118134
197	0xbdb0d205	-0.08633808
198	0x3e572a28	0.21012175
199	0x3cd929ac	0.026509129
200	0x3deed2bd	0.11661289
201	0xbe05ce0d	-0.13066883
202	0x3e25156a	0.1612145
203	0xbc93ff1f	-0.018065987
204	0x3e454541	0.192647
205	0xbdf8f4a0	-0.121560335
206	0xbde45ac1	-0.111501224
207	0x3e4b39eb	0.19846313
208	0xbe4b3669	-0.19844975
209	0x3d739a13	0.05947311
210	0xbe4866ee	-0.19570515
211	0xbdb71c65	-0.08940963
212	0xbd470d59	-0.048596714
213	0xbd7e5fad	-0.062102962
214	0xbd9cbffd	-0.07653806
215	0x3d440973	0.047860574
216	0x3e320d77	0.17387949
217	0x3e0a0812	0.13479641
218	0x3e33128f	0.17487548
219	0x3e2c4b40	0.1682558
220	0xbd5ddb0e	-0.054163985
221	0xbd118c1b	-0.035534006
222	0xbd714bb8	-0.0589101
223	0xbe2f63dc	-0.17127937
224	0xbd086b49	-0.03330544
225	0x3e33de13	0.17565183
226	0xbc2d4fef	-0.01057814
227	0x3d9d1999	0.07670898
228	0x3e3e3a23	0.18576865
229	0x3bead852	0.0071669007
230	0xbe2b7289	-0.1674291
231	0x3e1cb34d	0.15302773
232	0x3c955c32	0.018232439
233	0x3d6b25e9	0.0574092
234	0xbe092eae	-0.13396713
235	0xbd1afd05	-0.037838954
236	0xbd6e6d99	-0.05820999
237	0xba9b7c6b	-0.0011862641
238	0x3d9d9e56	0.07696216
239	0xbd194cfc	-0.037426934
240	0x3e417131	0.18890835
241	0x3e2acae2	0.16678956
242	0xbe155aa8	-0.14585364
243	0xbced8984	-0.028996237
244	0xbdfcca8d	-0.12343321
245	0xbcf48d2e	-0.029852476
246	0x3e298664	0.16555172
247	0x3d2346ac	0.03986232
248	0x3dfa0f2c	0.12209925
249	0xbe0df991	-0.13864733
250	0x3da93a4b	0.082630716
251	0x3e486a5a	0.1957182
252	0x3dc8ace3	0.097986005
253	0xbdea5db2	-0.11443652
254	0x3dde2896	0.10847585
255	0xbdd0edea	-0.102016285

network.0.bias f4 [128]
0	0xbe1fc56f	-0.15602659
1	0xbe296596	-0.16542658
2	0xbdb63894	-0.0889751
3	0x3c967fc3	0.018371468
4	0xbe385ca2	-0.18004087
5	0x39c09906	0.00036735105
6	0x3c2ac461	0.010422797
7	0x3d27ee9e	0.040999047
8	0x3e19e82e	0.15029976
9	0xbd8ca52e	-0.06867443
10	0xbdc2a22d	-0.09503589
11	0xbe328549	-0.17433657
12	0xbd912b18	-0.070882976
13	0xbca282ae	-0.019837704
14	0xbe0e420b	-0.13892381
15	0xbd450bb6	-0.04810687
16	0x3c20c08b	0.009811531
17	0xbca64654	-0.020297207
18	0xbe033556	-0.12813315
19	0xbe019bd0	-0.12657094
20	0xbe2fd2b3	-0.17170219
21	0xbdb4b365	-0.08823279
22	0x3e0a446f	0.13502668
23	0xbceea182	-0.029129747
24	0xbe3e88fd	-0.18606944
25	0x3e4da564	0.20082623
26	0x3e0d445e	0.13795611
27	0x3e36a1dd	0.17835183
28	0xbe3f0509	-0.18654265
29	0xbd8475de	-0.06467794
30	0xbc37e71b	-0.011224533
31	0xbdff4848	-0.124649584
32	0xbd61e01b	-0.055145364
33	0x3e3c7860	0.18405294
34	0xbe1f29da	-0.15543309
35	0xbd7c4928	-0.061593205
36	0x3e1af989	0.15134253
37	0xbd588be2	-0.052867778
38	0xbe034bad	-0.12821837
39	0x3dd4a0eb	0.10382255
40	0x3cd2b0ea	0.025719125
41	0x3e448dbb	0.19194691
42	0x3cbb160a	0.022837657
43	0x3dc60acc	0.09670028
44	0x3e4254ca	0.18977657
45	0x3de136fa	0.10996814
46	0xbdb19c5c	-0.08672401
47	0xbcee74b5	-0.029108385
48	0xbcf6e248	-0.030137196
49	0xbe2bbfe1	-0.16772415
50	0xbe245f05	-0.16051872
51	0x3cd5bf24	0.02609212
52	0xbcb12e46	-0.02162851
53	0x3e0853cf	0.1331322
54	0xbe38c8f1	-0.18045403
55	0x3e43fbb1	0.19138981
56	0x3e2f00fc	0.1709022
57	0xbe21efee	-0.15814182
58	0xbe0a44a4	-0.13502747
59	0x3e02de77	0.12780176
60	0xbdb7e1f7	-0.08978646
61	0x3c9b31c1	0.018944623
62	0xbe23abdc	-0.15983528
63	0x3dd71e00	0.10503769
64	0x3e09cc0b	0.13456742
65	0x3e2f8428	0.17140257
66	0xbc81dfa0	-0.015853703
67	0xbe2b7d14	-0.16746932
68	0xbd03d0ed	-0.03218167
69	0x3e0ed021	0.13946582
70	0xbc514387	-0.012772447
71	0xbdb98d71	-0.09060181
72	0x3dc1b87b	0.09459015
73	0x3e478b80	0.19486809
74	0xbc9f4f65	-0.019447038
75	0x3dcb5174	0.09927645
76	0xbdf777d1	-0.120834
77	0x3c55e07d	0.01305401
78	0xbd05a65b	-0.032629352
79	0x3c517b30	0.012785718
80	0x3e4074a5	0.18794496
81	0xbde9e24e	-0.11420117
82	0xbe39f547	-0.18159972
83	0xbd5cab45	-0.053874273
84	0x3e45b73f	0.19308184
85	0xbcb1650d	-0.02165463
86	0xbcfb188c	-0.030651353
87	0x3dd6f97f	0.10496806
88	0xbc6c062c	-0.014405768
89	0x3e0bdea2	0.13659146
90	0x3e31b523	0.17354254
91	0x3d0297c1	0.031883005
92	0x3da5eb8a	0.08101566
93	0xbd915d5b	-0.07097884
94	0x3d814f1d	0.06313918
95	0xbd7eea1c	-0.062234983
96	0x3e02da9f	0.1277871
97	0x3dc60ae8	0.09670049
98	0x3e124538	0.14284217
99	0x3e42d732	0.19027403
100	0xbe2f95d8	-0.17147005
101	0x3d8aa493	0.06769671
102	0xbe042d29	-0.12907852
103	0x3e2fc04c	0.17163199
104	0x3c639eae	0.013892813
105	0xbcb26238	-0.02177535
106	0xbdbd2bab	-0.09236845
107	0x3e347902	0.17624286
108	0xbe02f2d2	-0.12787941
109	0x3dc5f774	0.096663386
110	0xbdce3828	-0.10069305
111	0xbd576090	-0.052582324
112	0xbe013fed	-0.12622042
113	0xbe46685b	-0.19375746
114	0xbe19b231	-0.15009381
115	0xbdf48fe4	-0.119415075
116	0x3dbc8bcc	0.09206352
117	0xbe0dde08	-0.1385423
118	0x3e10fcb9	0.14158906
119	0x3e43fe6b	0.19140022
120	0x3e0e8dbd	0.13921256
121	0x3d0f67cd	0.0350111
122	0xbc7a00ea	-0.015259007
123	0xbe3757b0	-0.17904544
124	0xbd321aab	-0.043482464
125	0xbe2c1ae2	-0.1680713
126	0xbddf7d2e	-0.10912548
127	0x3c8ade50	0.01695171

network.2.weight f4 [128, 128]
0	0xbb838c9a	-0.0040145637
1	0x3d84056f	0.06446349
2	0x3da30f45	0.07961897
3	0x3d22fab7	0.03978988
4	0x3d8e76b9	0.06956238
5	0x3d902570	0.07038391
6	0x3ccb2481	0.02479768
7	0x3d98bf5f	0.07458376
8	0xbd5c8458	-0.05383715
9	0x3db2efcd	0.087371446
10	0x3bc1b77f	0.005911767
11	0x3db5483f	0.088516705
12	0xbd8b0878	-0.06788725
13	0x3d6776f3	0.056509923
14	0x3d835956	0.06413524
15	0x3d87373b	0.06602331
16	0xbd21d438	-0.03950903
17	0x3cfadf77	0.030624134
18	0x3da56561	0.08075977
19	0x3ce160d7	0.027511997
20	0xbda74d32	-0.08169021
21	0xbd812472	-0.063057795
22	0x3da787a8	0.08180171
23	0xbd20a3c1	-0.039218668
24	0xbcba39fe	-0.022732731
25	0x3c4f687b	0.012659187
26	0x3b3b03bd	0.0028536164
27	0xbd00fe19	-0.031492326
28	0xbd7fceaa	-0.06245295
29	0xbd0aa934	-0.03385277
30	0x3d7f5b08	0.062342674
31	0xbd311254	-0.04323037
32	0x3d2d00a8	0.042236954
33	0x3d9c141f	0.07621025
34	0xbd8eadd4	-0.06966749
35	0xbcdee21c	-0.027207427
36	0x3cbe2b72	0.023214076
37	0x3cc383c0	0.023866534
38	0x3aa5a6ae	0.0012638175
39	0x3d51d2c3	0.05122639
40	0x3dc54f49	0.09634263
41	0x3b888e66	0.004167366
42	0x3d5c4942	0.0537808
43	0x3bb71371	0.0055870344
44	0xbd098ef3	-0.033583593
45	0xbd7f8b50	-0.062388718
46	0xbc7311d0	-0.01483579
47	0x3b3aed99	0.0028522967
48	0x3db457bb	0.08805796
49	0x3d902d04	0.07039836
50	0xbd20d633	-0.039266776
51	0xbd455d7a	-0.04818485
52	0x3d04e827	0.03244796
53	0xbd723b1e	-0.05913841
54	0xbd7259c1	-0.059167627
55	0x3d4d2314	0.05008228
56	0x3d2d75ba	0.0423486
57	0x3d28b425	0.041187424
58	0xbd55f0ce	-0.052231602
59	0xbc54d4bf	-0.012990176
60	0x3dbf5733	0.09342804
61	0x3d871a5c	0.065968245
62	0x3c23ef24	0.010005746
63	0xbc5c1b7d	-0.013434288
64	0xbd6ce9c4	-0.057840124
65	0xbcc16807	-0.023609174
66	0xbc1f8128	-0.009735383
67	0x3d41dfd4	0.0473326
68	0xbd262e86	-0.040571712
69	0x3d25e93f	0.040505644
70	0x3c20a511	0.00980498
71	0xbd2f9573	-0.042867135
72	0xbd9f620b	-0.07782372
73	0x3d9839bb	0.07432886
74	0x3c2c5c01	0.010519982
75	0xbd995d88	-0.07488543
76	0x3cfd8d04	0.03095103
77	0x3db144f5	0.08655731
78	0xbd44beb5	-0.048033435
79	0xbd7f89c6	-0.06238725
80	0x3c05e6a1	0.008172662
81	0x3d9cfa60	0.07664943
82	0x3d75a45d	0.059971202
83	0xbd0423df	-0.03226077
84	0xbd31b23b	-0.043382864
85	0x3cdb5544	0.026774056
86	0xbd93a800	-0.07209778
87	0xbd9c5a91	-0.07634462
88	0x3d41bdef	0.047300275
89	0x3d2459ed	0.040124822
90	0xbcff9fe8	-0.031204179
91	0x3dc2a342	0.09503795
92	0xbc0803e7	-0.008301712
93	0x3d0c1a0f	0.03420454
94	0x3b09f7f8	0.0021052342
95	0x3ca09be0	0.019605577
96	0xbd594c1e	-0.053051107
97	0xbd8bb30d	-0.068212606
98	0x3dc28526	0.09498052
99	0x3c11d9ec	0.008902054
100	0x3d98a69b	0.074536525
101	0xbc88dd0d	-0.016706968
102	0x3d888c93	0.066674374
103	0xbcc2a029	-0.023758011
104	0xbd15e4e5	-0.036595244
105	0x3db1af7d	0.0867605
106	0xbd2472bc	-0.04014848
107	0x3dbe74c3	0.09299614
108	0x3dceee28	0.101040184
109	0x3d9f6983	0.07783797
110	0xbd8d63da	-0.06903811
111	0x3d02aa12	0.031900473
112	0xbcbaf652	-0.022822533
113	0x3d82f3a1	0.06394125
114	0x3d6b4cca	0.05744628
115	0xbd7e5bd4	-0.062099293
116	0xbd9557e6	-0.07292156
117	0x3daf449d	0.08558009
118	0xbcf67db9	-0.030089246
119	0x3ce40999	0.027836608
120	0xbd3c1b16	-0.04592427
121	0x3cecf7b4	0.028926708
122	0xbd64f0f4	-0.055893853
123	0x3b4cd60f	0.0031255519
124	0xbd3018d5	-0.04299243
125	0x3d411d62	0.047147162
126	0xbd2eb043	-0.042648565
127	0x3dc5d923	0.09660556
128	0x3d51d2ad	0.051226307
129	0xbca14998	-0.019688413
130	0xbd87b710	-0.06626713
131	0xbd4021d6	-0.04690727
132	0x3d9a014b	0.07519778
133	0x3c65defd	0.014030215
134	0xbc8528f5	-0.016254881
135	0xbbcbe0d5	-0.0062218704
136	0x3d702b19	0.05863485
137	0xbd09b8fb	-0.033623677
138	0x3d5da305	0.054110546
139	0xbcc37355	-0.023858706
140	0xbdb09c9e	-0.08623622
141	0x3c166e57	0.0091815805
142	0x3d85d304	0.06534389
143	0xbd57f7d5	-0.052726585
144	0xbd2e8be1	-0.042613868
145	0x3c4f26a6	0.012643492
146	0xbc99a5ac	-0.018755756
147	0xba1a6407	-0.0005889539
148	0x3da1b0db	0.07895061
149	0xbd614f65	-0.055007357
150	0x3c7700ee	0.015075905
151	0xbc3fd279	-0.011707895
152	0x3c5a7022	0.013332399
153	0x3c74ad75	0.0149339335
154	0x3cc7641d	0.02433973
155	0x3d8c306c	0.06845173
156	0x3d864f1c	0.06558058
157	0x3d5a8c96	0.05335673
158	0xbcabbf52	-0.020965252
159	0x3d8cbea9	0.06872303
160	0xbd80a7bd	-0.062819935
161	0xba0e4f90	-0.0005428726
162	0xbd72607a	-0.05917404
163	0xbca69439	-0.02033435
164	0xbda111b3	-0.07864704
165	0x3da05e84	0.078305274
166	0x3d781dff	0.06057548
167	0x3c27edde	0.010249583
168	0xbcc81d4d	-0.024428034
169	0xbd732016	-0.05935677
170	0xbd7f91fa	-0.062395073
171	0xbbd6cdc0	-0.006555289
172	0xbd13d48a	-0.036091365
173	0xbd05b2c4	-0.032641187
174	0xbab8c321	-0.0014096239
175	0x3cf1421b	0.029450467
176	0x3d5ea36a	0.054355063
177	0xbdbbbd45	-0.0916696
178	0xbc063fd7	-0.008193932
179	0xbcf42c3e	-0.029806253
180	0xbd52e316	-0.051486097
181	0x3d1575ae	0.03648918
182	0xbd94de8e	-0.072690114
183	0xbd5bacf2	-0.05363173
184	0x3d8cf9b2	0.06883563
185	0xbd57b67a	-0.052664258
186	0x3d92ea36	0.071735784
187	0xbdb47d22	-0.0881293
188	0x3cf4ac05	0.029867182
189	0xbd766216	-0.060152136
190	0xbd659487	-0.05604985
191	0x3b79d199	0.0038119315
192	0x3cab5ffc	0.020919792
193	0xbda3472a	-0.07972558
194	0xbb9c5a80	-0.0047715306
195	0xbd152b55	-0.036418278
196	0xbd1b2363	-0.037875544
197	0x3d79f5cb	0.061025422
198	0xbb0c19b8	-0.0021377634
199	0x3d80bfd4	0.06286588
200	0xbcec18a8	-0.02882035
201	0x3d350674	0.044195607
202	0xbd96c6a1	-0.07362104
203	0x3d0089ec	0.031381533
204	0xbd13d3ea	-0.03609077
205	0x3bdfb679	0.0068271724
206	0xbd06d9a0	-0.032922387
207	0xbbaa9090	-0.0052052215
208	0x3d810ef4	0.0630168
209	0xbc2c0090	-0.010498181
210	0xbd7db512	-0.06194026
211	0xba10c294	-0.00055221585
212	0xbdd181db	-0.10229846
213	0xbda75041	-0.08169604
214	0x3bc6328b	0.0060485057
215	0x3b05d036	0.0020418293
216	0xbcaf7706	-0.02141906
217	0x3d856d20	0.065149546
218	0x3d23897a	0.03992603
219	0x3d42f72d	0.047599006
220	0x3d97c599	0.07410736
221	0xbce0567b	-0.027384987
222	0x3d4e683f	0.050392386
223	0xbd9e61fd	-0.077335335
224	0xbd76807e	-0.060181133
225	0x3dac2731	0.08405913
226	0xbdbdbdcf	-0.09264719
227	0xbd37cac9	-0.044871125
228	0x3d83d8cf	0.06437837
229	0x3da0122e	0.078159675
230	0xbd1b0124	-0.037842885
231	0xbd58f9d5	-0.052972633
232	0x3bf7f6b1	0.0075672497
233	0x3d49bc96	0.049252115
234	0xbd725a14	-0.059167936
235	0x3d623b2f	0.055232223
236	0xbba1b559	-0.0049349484
237	0xbca9b23c	-0.020714872
238	0x3d70473d	0.058661688
239	0xbd9843d7	-0.074348144
240	0x3c38bd1b	0.011275555
241	0xbd8d9dea	-0.06914885
242	0xbd40ac55	-0.04703935
243	0x3d431c40	0.047634363
244	0xbd692789	-0.05692247
245	0xbcfd803c	-0.030944936
246	0x3bded195	0.0067998865
247	0x3c35eb81	0.011103512
248	0x3c3c30a9	0.011486211
249	0x3d985a5f	0.07439112
250	0x3ca5113e	0.020149823
251	0xbc4bcdfd	-0.012439248
252	0x3d6071ed	0.054796148
253	0x3d9c9247	0.07645088
254	0x3cd37674	0.025813319
255	0xbd310409	-0.04321674

network.2.bias f4 [128]
0	0x3dc9c043	0.09851124
1	0x3d36a067	0.044586565
2	0xbcc2386c	-0.023708545
3	0xbd3fe2ff	-0.04684734
4	0x3d995739	0.074873395
5	0x3da15b91	0.07878793
6	0x3d08dcb8	0.03341362
7	0xbdb4cd5c	-0.08828232
8	0x3d77ec0f	0.060527857
9	0xbdaa16d3	-0.083051346
10	0xbda06b94	-0.07833019
11	0xbc6a5872	-0.014303314
12	0x3d7bad6f	0.061444696
13	0x39e05a00	0.00042791665
14	0xbcc63d44	-0.024199136
15	0x3c3148b4	0.010820556
16	0xbd77393d	-0.06035732
17	0xbd11ef50	-0.035628617
18	0x3d47958b	0.0487266
19	0xbd6c997c	-0.05776356
20	0xbcadc112	-0.021210227
21	0x3d74a7d8	0.05973038
22	0xbba843d6	-0.00513504
23	0x3d0978c3	0.033562433
24	0xbd13e063	-0.036102664
25	0x3b7bf622	0.0038446267
26	0x3ce0c620	0.027438223
27	0x3d6d84f2	0.057988115
28	0xbd99b588	-0.075053275
29	0xbcf1d0c3	-0.02951849
30	0xbc9c596a	-0.019085605
31	0x3d483c3c	0.04888557
32	0xbd75952b	-0.05995671
33	0x3d820122	0.06347872
34	0x3d72d186	0.05928185
35	0xbc53b142	-0.0129206795
36	0x3da703a8	0.08154994
37	0x3bfd08f4	0.0077220146
38	0xbc8a6d0a	-0.016897697
39	0xbb40c7b6	-0.0029415912
40	0x3c9d617f	0.019211529
41	0xbc6a69d1	-0.014307455
42	0x3d5a6a6c	0.053324148
43	0xbd6660f2	-0.056244798
44	0x3db8fd07	0.09032636
45	0xbcf0ad36	-0.029379468
46	0xbb19d216	-0.0023471168
47	0x3d533dcc	0.051572606
48	0xbb18b257	-0.0023299658
49	0x3ca3273c	0.01991617
50	0x3cb4e9e4	0.022084184
51	0xbdb4391d	-0.08799956
52	0xbdac146e	-0.08402334
53	0x3d89ec3b	0.067345105
54	0x3c53f1a4	0.01293603
55	0x3dc1c4d6	0.094613716
56	0xbc372628	-0.011178531
57	0xbd921543	-0.071329616
58	0xbd6cd583	-0.05782081
59	0xbdaa38e1	-0.0831163
60	0xbc1dbdb0	-0.009627745
61	0x3c2b58b5	0.010458161
62	0x3da0a8dc	0.07844707
63	0xbd997b7b	-0.07494255
64	0x3d6dab82	0.05802489
65	0xbd840eb0	-0.06448114
66	0x3dc168c6	0.09443812
67	0x3c707002	0.014675142
68	0xbcdd6560	-0.027025878
69	0x3c832ec2	0.016013507
70	0x3c05a921	0.008157999
71	0x3c00e1a1	0.007866294
72	0xbd1f45c5	-0.038884897
73	0xbd99cd7a	-0.07509895
74	0xbd3b6c05	-0.045757312
75	0xbd99a54f	-0.07502233
76	0xbd8aa172	-0.067690745
77	0x3d71dba8	0.05904737
78	0x3d29d1e1	0.04145992
79	0x3c1874bc	0.009305175
80	0x3ca90f43	0.02063716
81	0x3c10cade	0.00883743
82	0xbd003881	-0.031303886
83	0x3ca2105f	0.019783197
84	0xbd96b69c	-0.07359049
85	0x3d3caf01	0.046065334
86	0x3d69cfe4	0.057083026
87	0xbd1498e5	-0.036278624
88	0x3d7f224d	0.06228857
89	0xbcec3606	-0.028834354
90	0x3d722afc	0.059123024
91	0x3dbfe779	0.09370322
92	0xbd9be830	-0.076126456
93	0xbd11cd18	-0.035595983
94	0xbb2fa0a7	-0.0026798637
95	0x3ca392e0	0.019967496
96	0xbcad0d46	-0.021124493
97	0x3d8850c3	0.06656029
98	0x3d254a67	0.04035416
99	0x3c92cca4	0.017919846
100	0xbd69f646	-0.05711963
101	0x3d70fd65	0.058835406
102	0x3c2d34bf	0.010571658
103	0x3d1eeaee	0.038798265
104	0xbd96bedf	-0.073606245
105	0x3d073bf1	0.03301615
106	0x3d785f7b	0.060637932
107	0x3d9a904b	0.07547053
108	0x3c97cf9d	0.018531615
109	0x3d0cb774	0.034354642
110	0x3cbcf564	0.02306623
111	0x3d8496a0	0.06474042
112	0x3c164f13	0.009174126
113	0x3d0e99ee	0.034814768
114	0x3d7d447f	0.0618329
115	0xbcbf84ce	-0.023378756
116	0x3d4c0ead	0.049818683
117	0xbda081d0	-0.0783726
118	0x3bce5877	0.006297167
119	0xbd3a9dca	-0.045560636
120	0x3dc03a37	0.093861036
121	0x3cd36451	0.02580467
122	0xbdb4230e	-0.08795749
123	0x3c588465	0.013215159
124	0xbcefaa2c	-0.029255949
125	0x3d0a02e1	0.03369415
126	0x3c9d6a4e	0.01921573
127	0x3dae4b4f	0.08510458

network.4.weight f4 [8, 128]
0	0x3c614e50	0.013751581
1	0xbd83ab7a	-0.06429191
2	0x3dab00a6	0.08349733
3	0xbcf8c5ca	-0.03036775
4	0xbd8c3ffa	-0.0684814
5	0x38be6a18	9.0796675e-05
6	0xbd29f21b	-0.041490655
7	0xbd21000a	-0.039306678
8	0x3cfec4f4	0.031099774
9	0x3c398f3d	0.011325655
10	0xbd940e29	-0.07229263
11	0xbd7e4196	-0.062074266
12	0x3d0b3452	0.033985443
13	0xbd3843bf	-0.044986483
14	0x3cd4e115	0.025986234
15	0xbd5577b1	-0.0521161
16	0xbccdced7	-0.025123043
17	0xbc9f35e9	-0.019434886
18	0xbd94a76a	-0.07258494
19	0x3d9ed84b	0.07756098
20	0x3d39b37a	0.045337178
21	0xbd2160f2	-0.039399095
22	0x3badf1d9	0.0053083715
23	0x3c52079c	0.012819197
24	0xbda519a2	-0.0806153
25	0xbd993e17	-0.07482546
26	0x3ce3611d	0.027756268
27	0x3d24d9ec	0.04024689
28	0xbd55c991	-0.05219418
29	0x3d9cb872	0.07652368
30	0x3d3f96f4	0.04677482
31	0x3c6ab2f3	0.014324891
32	0xbd63c8f1	-0.055611555
33	0x3d13d15b	0.03608833
34	0xbd9e6558	-0.077341735
35	0x3d076280	0.03305292
36	0xbd073fbd	-0.03301977
37	0x3b6c0c7d	0.0036018186
38	0x3d21c50b	0.039494555
39	0x3d82953e	0.06376122
40	0xbd259af6	-0.040430985
41	0xbd59a3ad	-0.05313461
42	0x3db05b73	0.086111926
43	0xbcdbc4f4	-0.026827313
44	0x3d33b2ab	0.043871563
45	0x3c9b963f	0.018992541
46	0x3da7175a	0.08158751
47	0x3d39075e	0.04517304
48	0x3d973e88	0.07384974
49	0x3d1cb520	0.03825867
50	0x3d8ece3f	0.06972932
51	0xbbaf5c80	-0.005351603
52	0xbd81e8f4	-0.063432604
53	0xbda8ced6	-0.08242576
54	0xbd0b28a6	-0.033974312
55	0xbb90c719	-0.0044182655
56	0x3d3225a1	0.043492917
57	0x3c116de5	0.008876299
58	0x3c64dd10	0.013968721
59	0xbce466ca	-0.027881045
60	0x3d93ed65	0.07223014
61	0x3d7143e0	0.05890262
62	0xbdabf649	-0.083965845
63	0x3ce7db3c	0.028302781
64	0xbc2c77bc	-0.010526594
65	0xbd833bd4	-0.06407896
66	0x3d47d77e	0.048789494
67	0xbb1ada6d	-0.0023628727
68	0x3c84c7e5	0.016208598
69	0xbd525c6d	-0.051357675
70	0x3d49911c	0.049210653
71	0x3d6fcdd8	0.058545917
72	0xbc8161f2	-0.015793774
73	0x3c3517b0	0.011053011
74	0xbd2e38ec	-0.042534754
75	0x3da2c074	0.07946864
76	0x3d9c53cb	0.0763317
77	0xbc8ebcb2	-0.017423961
78	0x3d5843b2	0.052798934
79	0xbd5b4d05	-0.05354025
80	0xbd7a090a	-0.061043777
81	0x3d93ca09	0.072162695
82	0xbda79410	-0.081825376
83	0x3d9f206a	0.07769854
84	0xbce0499b	-0.027378848
85	0xbcc53198	-0.0240715
86	0x3d27813f	0.040894743
87	0xbd2206a2	-0.039557107
88	0xbd7183b0	-0.058963478
89	0x3d1ac31e	0.037783735
90	0xbd89a041	-0.06720019
91	0xbd3a7c9a	-0.045528986
92	0xbc1da73c	-0.009622391
93	0x3d6278b8	0.055290908
94	0xbbf3e2e0	-0.007442817
95	0x3c93b218	0.018029258
96	0xbdb10ef3	-0.086454295
97	0xbcadb79d	-0.021205718
98	0x3d69806b	0.057007235
99	0xbb9c4650	-0.004769124
100	0x3d90028d	0.070317365
101	0xbcd75f9e	-0.026290711
102	0x3da0732d	0.07834468
103	0xbd540852	-0.051765747
104	0x3d8237dd	0.06358311
105	0xbd94f4f5	-0.07273284
106	0x3d88fa6c	0.06688389
107	0xbd1cf789	-0.038322005
108	0x3d7e7250	0.062120736
109	0xbd87462d	-0.06605182
110	0x3ccd2cbb	0.025045743
111	0x3d3d961f	0.046285745
112	0xbd25d3e9	-0.040485296
113	0xbc496ac5	-0.012293522
114	0xbcc4145b	-0.023935487
115	0x3cc8355e	0.02443951
116	0xbd465495	-0.048420507
117	0xbc20b5f4	-0.009809006
118	0xbd9208cd	-0.07130585
119	0x3cabc1f8	0.020966515
120	0xbd0dee38	-0.03465101
121	0x3d3c7573	0.046010446
122	0xbd635302	-0.055499084
123	0x3cdf21bd	0.027237767
124	0x3da382a1	0.079839
125	0xbc8a9d4e	-0.016920712
126	0xb9df40b7	-0.0004258209
127	0x3d819ced	0.06328759
128	0x3dc976a7	0.09837084
129	0xbd542abb	-0.051798563
130	0x3d05dcfb	0.032681447
131	0x3d68daa2	0.05684913
132	0x3c1f1a08	0.009710796
133	0x3dc5b514	0.096536785
134	0x3b90cb2e	0.004418752
135	0x3d09d104	0.0336466
136	0x3ddf6b50	0.1090914
137	0xbcd85b33	-0.026410675
138	0x3dd27104	0.10275462
139	0x3d5a34f0	0.05327314
140	0xbd795229	-0.06086937
141	0xbd71bea8	-0.059019715
142	0xbd09a97f	-0.03360891
143	0x3d443d2c	0.0479099
144	0xbc5a2ebc	-0.013316806
145	0x3d2339b6	0.03984996
146	0xbbae33a7	-0.005316216
147	0x3c2e6f98	0.010646723
148	0xbd95cb19	-0.073141284
149	0x3d84e5cd	0.064891435
150	0x3d33a247	0.04385593
151	0xbcc22e9e	-0.02370387
152	0xbc55cc94	-0.0130492635
153	0x3da7cdfb	0.081935845
154	0xbcc94020	-0.02456671
155	0x3d16a690	0.03677994
156	0xb9cd3b00	-0.00039144605
157	0xbd2ff3c4	-0.042957082
158	0xbd89a0f2	-0.06720151
159	0x3ce3d73a	0.027812589
160	0xbcc85bb7	-0.024457796
161	0xbd3dd744	-0.04634787
162	0xbd70b44f	-0.058765706
163	0x3d4ee4b2	0.05051107
164	0x3d26db33	0.04073639
165	0x3cf899ab	0.030346712
166	0xbd3e6cd3	-0.0464905
167	0x3d6bc71e	0.05756294
168	0x3d73f02e	0.059555225
169	0xbd0de601	-0.034643177
170	0x3d78d32a	0.060748257
171	0x3c9b2c0c	0.018941902
172	0x3db9d6ed	0.09074197
173	0x3daf81d7	0.08569687
174	0x3d8dd33c	0.069250554
175	0x3db90176	0.09033482
176	0xbd76ddf4	-0.060270265
177	0xbc9583b6	-0.018251281
178	0x3d10466d	0.035223413
179	0xbae37600	-0.0017353892
180	0xbdad9a84	-0.08476737
181	0x3b91bfb3	0.004447901
182	0x3dc08983	0.09401228
183	0xbb6c3ab8	-0.0036045741
184	0xbd78970c	-0.060690925
185	0xbd58aead	-0.05290096
186	0xbd2fb669	-0.04289857
187	0xbd61c1e1	-0.055116538
188	0xbd877976	-0.06614964
189	0xbd769017	-0.06019601
190	0x3d122c2f	0.035686668
191	0xbcf6bff6	-0.030120831
192	0xbb0d3365	-0.0021545526
193	0xbdb099e3	-0.086231016
194	0x3dcc4b80	0.09975338
195	0xbd83bf03	-0.06432917
196	0x3d89c2c3	0.06726601
197	0x3d6fae9f	0.05851614
198	0xbd83fa8d	-0.06444273
199	0xbd6f1f3d	-0.0583794
200	0xbda60f4b	-0.08108386
201	0x3d1197da	0.035545208
202	0x3d0a94ac	0.03383319
203	0x3d917967	0.07103234
204	0x3c0a400a	0.00843812
205	0x3d944f8a	0.07241733
206	0xbc6df250	-0.014523104
207	0xbd9bc102	-0.07605173
208	0x3d1f3763	0.03887118
209	0x3d9a0e7b	0.07522293
210	0x3da576fe	0.080793366
211	0xbd7d1c5a	-0.061794616
212	0xbc376aa1	-0.011194856
213	0x3c63ec15	0.013911267
214	0xbcbf2cb5	-0.023336748
215	0xbd776e3b	-0.06040786
216	0xbc8ecad7	-0.017430706
217	0xbd4af621	-0.049551133
218	0xbd61e7b8	-0.055152625
219	0x3da385dd	0.07984517
220	0xbdaf1b2a	-0.08550103
221	0xbd0fa180	-0.035066128
222	0x3ca8d49c	0.020609193
223	0x3dba3954	0.09092966
224	0x3bb4a3c5	0.005512687
225	0xbd880f5a	-0.06643553
226	0x3dda5425	0.106605805
227	0xbdb3c671	-0.08778084
228	0xbd905936	-0.07048266
229	0xbc443c08	-0.011977203
230	0x3d4573ec	0.048206255
231	0x3da7327d	0.08163927
232	0xbdb10d7a	-0.086451486
233	0x3d72e307	0.05929854
234	0x3d675542	0.056477793
235	0x3d40b817	0.04705056
236	0x3d813559	0.063090034
237	0xbd6b3037	-0.057419028
238	0xbd91196a	-0.070849255
239	0xbcdb1bce	-0.026746657
240	0x3d98804c	0.07446346
241	0x3de2acfa	0.11068149
242	0x3c6e3686	0.014539367
243	0xbd82f604	-0.0639458
244	0xbd67e352	-0.056613274
245	0xbd993a0b	-0.07481774
246	0xbda3ee9f	-0.08004498
247	0xbda7dd18	-0.08196467
248	0x3c4a3c99	0.012343549
249	0x3d9f2b5c	0.07771942
250	0x3d9a2c1d	0.07527945
251	0x3d06b7e9	0.032890234
252	0xbd7740a7	-0.06036439
253	0xbd2831cf	-0.041063126
254	0xbc02a40c	-0.007973682
255	0x3d924456	0.0714194

network.4.bias f4 [8]
0	0xbdb34817	-0.087539844
1	0xbc7ce025	-0.0154343
2	0xbc43104c	-0.011905741
3	0x3d1acf69	0.037795458
4	0xbd814464	-0.063118726
5	0x3d19bca9	0.037533436
6	0x3d340ab3	0.043955516
7	0x3d2d8e22	0.042371877

exp_avg f4 [128, 26]
0	0xbbbd7b2e	-0.0057825064
1	0x3ae7e528	0.0017692195
2	0xbc586ac2	-0.013209047
3	0xbb97d621	-0.0046336805
4	0xbc197b50	-0.009367779
5	0xbc6cc574	-0.014451373
6	0xbcadd00e	-0.021217372
7	0xbda416e4	-0.080121785
8	0xbc781283	-0.015141132
9	0xbc6c02c5	-0.014404957
10	0xbd745842	-0.05965448
11	0xbd870e8c	-0.065945715
12	0xbc488db0	-0.012240812
13	0xbdb97346	-0.0905519
14	0xbdab887e	-0.08375643
15	0xbd3322e4	-0.043734446
16	0xbdca8f44	-0.09890607
17	0xbde4b546	-0.11167388
18	0xbdad1088	-0.08450419
19	0xbdbc02ba	-0.091802076
20	0xbdb20c03	-0.08693697
21	0xbd74dc42	-0.059780367
22	0xbd4967fa	-0.049171425
23	0xbcb3b0bd	-0.021934861
24	0xbd849fca	-0.0647579
25	0xbd82aa08	-0.06380087
26	0x3c70b38d	0.014691246
27	0x3ca7dea0	0.020491898
28	0x3c023fd5	0.007949789
29	0x3c89a547	0.016802443
30	0x3c88b014	0.016685523
31	0x3caf22c3	0.02137888
32	0x3ba5ea70	0.0050633475
33	0xbdd5caa8	-0.10439044
34	0x3c9c8872	0.019108031
35	0x3cd5beca	0.026091952
36	0xbd8906ba	-0.06690736
37	0xbdb9e617	-0.09077089
38	0x3c9af142	0.018913869
39	0xbdeba185	-0.11505417
40	0xbdf10da2	-0.117701784
41	0xbcd328a4	-0.025776215
42	0xbe0316c4	-0.12801653
43	0xbe123d05	-0.1428109
44	0xbdbdb368	-0.09262735
45	0xbe098e77	-0.13433252
46	0xbe01f95e	-0.12692782
47	0xbd958860	-0.07301402
48	0xbd770522	-0.06030763
49	0xbcdf4b68	-0.027257636
50	0xbda7d658	-0.0819518
51	0xbda37cd2	-0.07982792
52	0x3b434754	0.0029797154
53	0x3bbb56cb	0.0057171336
54	0xba452580	-0.00075205415
55	0x3b9d95cc	0.004809117
56	0x3b837e59	0.0040128645
57	0xba90b8f8	-0.0011041453
58	0xbc3090a5	-0.010776673
59	0xbd53ec42	-0.051738985
60	0xb9e2cd60	-0.00043259095
61	0x3ba729c0	0.0051014125
62	0xbd1470e2	-0.036240466
63	0xbd1452bd	-0.036211718
64	0x3ba8a30c	0.00514639
65	0xbd5d27aa	-0.053992905
66	0xbd4b02e4	-0.049563304
67	0xbc9674f4	-0.018366314
68	0xbd74ea26	-0.059793614
69	0xbd920d48	-0.071314394
70	0xbd3cee6c	-0.046125814
71	0xbd81d519	-0.06339473
72	0xbd5139d2	-0.051080532
73	0xbd111404	-0.03541948
74	0xbcecc8b6	-0.0289043
75	0xbc4f7bfc	-0.0126638375
76	0xbd1e6c3a	-0.03867743
77	0xbd1c5a10	-0.038171828
78	0xbc19711c	-0.009365346
79	0xbb01f073	-0.0019827157
80	0xbc9e9574	-0.019358374
81	0xbbb71dfa	-0.0055882903
82	0xbbaeb1c7	-0.0053312513
83	0xbc8a9c26	-0.01692016
84	0xbcd7812d	-0.026306713
85	0xbe29e42e	-0.1659095
86	0xbc5ad128	-0.013355531
87	0xbbdc703f	-0.006727248
88	0xbdbea2eb	-0.09308418
89	0xbe090f5e	-0.13384768
90	0xbbbb349a	-0.0057130577
91	0xbe25edea	-0.16204038
92	0xbe339ec3	-0.17541032
93	0xbd89e4aa	-0.06733067
94	0xbe3176ff	-0.1733055
95	0xbe477950	-0.19479871
96	0xbe159e68	-0.14611208
97	0xbe3ca94b	-0.18423955
98	0xbe427ab6	-0.18992123
99	0xbdd45d57	-0.10369366
100	0xbdb3bbf2	-0.08776082
101	0xbd1ffe95	-0.039061148
102	0xbdea6e68	-0.114468396
103	0xbde53ba9	-0.1119302
104	0x00000000	0.0
105	0x00000000	0.0
106	0x00000000	0.0
107	0x00000000	0.0
108	0x00000000	0.0
109	0x00000000	0.0
110	0x00000000	0.0
111	0x00000000	0.0
112	0x00000000	0.0
113	0x00000000	0.0
114	0x00000000	0.0
115	0x00000000	0.0
116	0x00000000	0.0
117	0x00000000	0.0
118	0x00000000	0.0
119	0x00000000	0.0
120	0x00000000	0.0
121	0x00000000	0.0
122	0x00000000	0.0
123	0x00000000	0.0
124	0x00000000	0.0
125	0x00000000	0.0
126	0x00000000	0.0
127	0x00000000	0.0
128	0x00000000	0.0
129	0x00000000	0.0
130	0x3b9db0f4	0.004812354
131	0x3b8b3a49	0.0042488915
132	0x3b392352	0.0028249812
133	0x3bb1b302	0.0054229507
134	0x3bf56efb	0.0074900365
135	0xbac901e4	-0.0015335646
136	0xbbdf4691	-0.006813832
137	0xbd230fab	-0.039809864
138	0x3a064c22	0.0005123039
139	0x3b6c8df5	0.0036095355
140	0xbcd1c96c	-0.02560874
141	0xbcf1d5a5	-0.029520819
142	0x3ba8c233	0.0051501035
143	0xbd1bb006	-0.038009666
144	0xbd1bbad8	-0.038019985
145	0xbc5ef1f4	-0.013607491
146	0xbd1ae9d1	-0.03782064
147	0xbd55fe58	-0.052244514
148	0xbd024e4b	-0.031812947
149	0xbd3e4188	-0.046449214
150	0xbd231498	-0.03981456
151	0xbcd07c5a	-0.02544992
152	0xbcb2df97	-0.021835132
153	0xbc1d0aa3	-0.0095850555
154	0xbcdefe10	-0.027220756
155	0xbcdd8726	-0.027041983
156	0x3bc6d43e	0.0060677817
157	0x3bed4c2d	0.007241747
158	0x3c6853e5	0.014180158
159	0x3c0e714d	0.008694005
160	0x3c4fd745	0.012685602
161	0x3c289168	0.010288574
162	0x3c0e99cc	0.00870366
163	0xb9524860	-0.00020054122
164	0x3c070507	0.008240945
165	0x3bdf47f2	0.0068139965
166	0x3aa35a74	0.001246287
167	0xbb8a232e	-0.0042156195
168	0x3bf7c8af	0.007561765
169	0xbaa01c50	-0.0012215469
170	0x3c182f7b	0.009288664
171	0x3c3ad94d	0.011404348
172	0x399b6660	0.0002964018
173	0x39b1fa60	0.00033946615
174	0x3a7818e8	0.00094641605
175	0xbb458056	-0.0030136309
176	0xbc24f4df	-0.010068147
177	0x3a4418b8	0.000748049
178	0xba208a78	-0.0006124149
179	0xba0686d8	-0.00051317876
180	0xb8237c80	-3.8978178e-05
181	0x3a02b4a8	0.00049860263
182	0xbcd2f4ec	-0.025751553
183	0xbc30901f	-0.010776549
184	0xbd35f21f	-0.044420358
185	0xbc8d8d96	-0.017279427
186	0xbccfd43b	-0.025369754
187	0xbcf933b2	-0.030420158
188	0xbd5e3418	-0.0542489
189	0xbe2ffcfd	-0.17186351
190	0xbd03a688	-0.03214124
191	0xbc977545	-0.018488536
192	0xbdc88914	-0.097917706
193	0xbde60582	-0.11231519
194	0xbce1072d	-0.027469242
195	0xbe2f966a	-0.17147222
196	0xbe2d0080	-0.16894722
197	0xbda039f2	-0.07823552
198	0xbe409565	-0.1880699
199	0xbe616fba	-0.22015277
200	0xbe18ac52	-0.14909485
201	0xbe30ab96	-0.17252955
202	0xbe22685e	-0.15860125
203	0xbddf2a84	-0.10896781
204	0xbdb0c503	-0.08631327
205	0xbd158556	-0.036504112
206	0xbdf8b9a0	-0.1214478
207	0xbdf36abb	-0.118855916
208	0xbc359b98	-0.01108446
209	0xbbc7b9c5	-0.0060951435
210	0xbc3ef66f	-0.011655434
211	0xbc18c431	-0.009324119
212	0xbbc9da44	-0.0061600525
213	0xbc1775e0	-0.009244412
214	0xbc152b12	-0.009104507
215	0xbd47d399	-0.04878578
216	0xbc0473f8	-0.00808429
217	0xbc0b439a	-0.008500004
218	0xbc8cae54	-0.01717297
219	0xbd15bfae	-0.036559753
220	0xbbbe060d	-0.005799061
221	0xbd242e54	-0.040083244
222	0xbd4658f7	-0.048424687
223	0xbc8a6ab6	-0.016896587
224	0xbd154822	-0.036445744
225	0xbd436843	-0.047706854
226	0xbd2e6ace	-0.042582326
227	0xbd2cdaf1	-0.042200986
228	0xbd771305	-0.060320873
229	0xbcc9b1f1	-0.024620982
230	0xbcacb638	-0.021082982
231	0xbc16b1a4	-0.009197626
232	0xbce3a083	-0.027786499
233	0xbcdc6fd8	-0.0269088
234	0xbc5fd636	-0.013661912
235	0xbbb46c9e	-0.0055061122
236	0xbd09b974	-0.033624128
237	0xbc048a8e	-0.008089675
238	0xbc6e2264	-0.014534567
239	0xbd2c4ffd	-0.04206847
240	0xbd636e45	-0.055525083
241	0xbe413a3b	-0.1886987
242	0xbd1c65ae	-0.038182907
243	0xbd0233d2	-0.0317877
244	0xbe00134b	-0.1250736
245	0xbe1531e6	-0.14569816
246	0xbcd30110	-0.025757343
247	0xbe45345e	-0.19258258
248	0xbe44a4c0	-0.19203472
249	0xbdd2e1f3	-0.10297003
250	0xbe523c08	-0.20530713
251	0xbe720fa3	-0.23638777
252	0xbe32872a	-0.17434373
253	0xbe52f8c7	-0.20602714
254	0xbe4c4ec6	-0.19951925
255	0xbe01fc6b	-0.12693946

exp_avg_sq f4 [128, 26]
0	0x3a060a3a	0.0005113218
1	0x3a10b6c9	0.0005520401
2	0x3a1fe368	0.0006099255
3	0x3a141c93	0.000565001
4	0x3a076e6d	0.0005166296
5	0x3b01b0be	0.0019789184
6	0x3b093da8	0.002094129
7	0x3b8cd452	0.0042977715
8	0x3b00e056	0.0019664965
9	0x3b0292ec	0.0019923998
10	0x3b4aa2a4	0.0030919695
11	0x3b3e6a11	0.002905492
12	0x3a7577ca	0.0009363858
13	0x3b949c7a	0.004535255
14	0x3bb54833	0.0055322885
15	0x3b0bf06d	0.0021353022
16	0x3bc50e26	0.0060136495
17	0x3bb39f35	0.0054816254
18	0x3ba4fa7f	0.0050347443
19	0x3bb52e61	0.0055292104
20	0x3bc0aacf	0.005879737
21	0x3b09de91	0.00210372
22	0x3ae23517	0.0017258254
23	0x39af222d	0.00033404064
24	0x3b1610f5	0.002289829
25	0x3b13343f	0.002246156
26	0x3920c82b	0.00015333357
27	0x391d9859	0.0001502944
28	0x39408fae	0.00018364072
29	0x3911a993	0.00013891449
30	0x3929ea81	0.00016204455
31	0x3a278ec7	0.000639182
32	0x3a54a972	0.00081124075
33	0x3b42eff7	0.002974508
34	0x3a291897	0.00064505026
35	0x3a33ed08	0.00068636285
36	0x3b1fe0d7	0.002439549
37	0x3af4d6d3	0.0018679745
38	0x39b6dcb3	0.0003487818
39	0x3b76c29f	0.0037652624
40	0x3b9077b0	0.004408799
41	0x3a940e1b	0.0011295708
42	0x3b9c7899	0.0047751185
43	0x3b9e0343	0.004822166
44	0x3b985803	0.0046491637
45	0x3ba0b5a1	0.0049044644
46	0x3ba1a40e	0.004932887
47	0x3ad27b13	0.0016058407
48	0x3aa37b32	0.0012472628
49	0x397a3c7d	0.00023864392
50	0x3af2c1e0	0.0018520914
51	0x3aeaa935	0.0017903211
52	0x390f6a37	0.00013677111
53	0x39191a9d	0.00014601131
54	0x3923f5f6	0.00015636519
55	0x39201e9e	0.00015270195
56	0x390120c7	0.00012314609
57	0x3a2a0574	0.0006485798
58	0x3a3c66f6	0.0007186973
59	0x3ada2942	0.0016644376
60	0x3a297914	0.00064648804
61	0x3a24585e	0.0006269271
62	0x3a928c3f	0.0011180713
63	0x3a8e8386	0.0010872937
64	0x39850361	0.00025370254
65	0x3ae1bc64	0.0017222282
66	0x3b040012	0.0020141643
67	0x3a3fa41e	0.0007310527
68	0x3b0eb332	0.002177429
69	0x3b06a1aa	0.0020543137
70	0x3b1181eb	0.0022202681
71	0x3b0fe463	0.0021956197
72	0x3afd2d5f	0.001931589
73	0x3a4ba981	0.00077690935
74	0x3a26ddc2	0.0006365442
75	0x3902ac4c	0.00012461952
76	0x3a60736e	0.0008562122
77	0x3a5bdba9	0.0008386919
78	0x3a1ff5ac	0.00061019766
79	0x3a1b5f5a	0.0005926989
80	0x3a39c3d8	0.0007086373
81	0x3a31ba6c	0.0006779793
82	0x3a1cbaa3	0.0005978739
83	0x3b24651b	0.0025084678
84	0x3b370b28	0.0027930234
85	0x3bfd02cf	0.007721282
86	0x3b1dd480	0.0024082959
87	0x3b1ec070	0.0024223588
88	0x3ba9d790	0.0051831678
89	0x3bafa481	0.0053601866
90	0x3a8a05bc	0.0010530273
91	0x3c10c7d9	0.00883671
92	0x3c1f7c1e	0.009734182
93	0x3b4fe130	0.0031719916
94	0x3c2d168b	0.010564457
95	0x3c407220	0.0117459595
96	0x3c36d061	0.01115808
97	0x3c2ada2e	0.010427995
98	0x3c37dad4	0.011221606
99	0x3b752dd9	0.003741136
100	0x3b45a543	0.0030158318
101	0x3a1a7f0c	0.0005893565
102	0x3b8df67a	0.004332361
103	0x3b885f53	0.004161754
104	0x00000000	0.0
105	0x00000000	0.0
106	0x00000000	0.0
107	0x00000000	0.0
108	0x00000000	0.0
109	0x00000000	0.0
110	0x00000000	0.0
111	0x00000000	0.0
112	0x00000000	0.0
113	0x00000000	0.0
114	0x00000000	0.0
115	0x00000000	0.0
116	0x00000000	0.0
117	0x00000000	0.0
118	0x00000000	0.0
119	0x00000000	0.0
120	0x00000000	0.0
121	0x00000000	0.0
122	0x00000000	0.0
123	0x00000000	0.0
124	0x00000000	0.0
125	0x00000000	0.0
126	0x00000000	0.0
127	0x00000000	0.0
128	0x00000000	0.0
129	0x00000000	0.0
130	0x38feff6f	0.00012159242
131	0x391f97bc	0.00015219947
132	0x392138ff	0.00015375389
133	0x39244547	0.00015666067
134	0x3929cd2e	0.00016193531
135	0x3a256ea8	0.00063107396
136	0x3a2c2708	0.00065670954
137	0x3ab6a205	0.0013933784
138	0x3a2530df	0.0006301533
139	0x3a209652	0.0006125915
140	0x3a50f4f2	0.000797107
141	0x3a3852b5	0.0007031367
142	0x39a24aa3	0.00030954657
143	0x3aa7d59c	0.001280475
144	0x3acfb5b2	0.0015846996
145	0x3a170818	0.0005761399
146	0x3ac2f07a	0.0014872693
147	0x3af42bc9	0.0018628772
148	0x3aca5970	0.0015438031
149	0x3ab9dd1b	0.0014180274
150	0x3ab6a906	0.0013935871
151	0x3a1455c7	0.0005658534
152	0x39ebc4d2	0.00044969335
153	0x38b21625	8.491826e-05
154	0x3a270fb9	0.00063728873
155	0x3a22b7d8	0.00062072044
156	0x397426ce	0.00023284109
157	0x399562bb	0.00028493055
158	0x399f87a1	0.00030427895
159	0x395013e6	0.00019843839
160	0x39874bda	0.0002580572
161	0x3a0a77f5	0.0005282157
162	0x3a1fa7ed	0.00060903915
163	0x3aa106ae	0.0012285316
164	0x3a15c44c	0.00057131494
165	0x3a0a8f03	0.00052855926
166	0x3a9013f3	0.0010992273
167	0x3a474f67	0.00076030794
168	0x39bbda2e	0.00035829976
169	0x3ab61a3a	0.0013893314
170	0x3ab283ce	0.0013619603
171	0x3a2168b5	0.0006157265
172	0x3b22e4a2	0.0024855514
173	0x3ac2e694	0.0014869743
174	0x3af45115	0.0018639887
175	0x3ab69811	0.0013930817
176	0x3b02d0f7	0.0019960979
177	0x3a1f9af6	0.00060884596
178	0x3a07245c	0.0005155259
179	0x38dd0b48	0.000105402025
180	0x3a33afac	0.0006854485
181	0x3a2e3ec4	0.0006646926
182	0x3a9f8abd	0.0012172085
183	0x3aa6a246	0.0012713156
184	0x3ae660b3	0.0017576426
185	0x3ab450dd	0.0013757009
186	0x3a96e471	0.0011512173
187	0x3bb5430f	0.0055316756
188	0x3bbf8128	0.005844254
189	0x3c643cc3	0.013930502
190	0x3bb0482d	0.005379698
191	0x3baf46fd	0.0053490386
192	0x3c2604e5	0.010133003
193	0x3c1f6d02	0.009730579
194	0x3b186659	0.0023254363
195	0x3c819f8d	0.01582315
196	0x3c9807ad	0.018558348
197	0x3bdb0eeb	0.006685128
198	0x3ca8b33f	0.020593284
199	0x3c9b8cb4	0.01898799
200	0x3c9b1ed3	0.018935597
201	0x3ca22529	0.01979311
202	0x3c9d7323	0.01921994
203	0x3be8937b	0.007097659
204	0x3bbccddd	0.0057618455
205	0x3a933731	0.0011231658
206	0x3c00a2d9	0.007851326
207	0x3bfa5869	0.007639934
208	0x397db6d3	0.00024196068
209	0x397f368c	0.00024339015
210	0x3995b194	0.000285518
211	0x3984abde	0.00025305053
212	0x397041f8	0.00022912759
213	0x3a97705e	0.0011553874
214	0x3aa005ba	0.0012208738
215	0x3b54a98d	0.0032449693
216	0x3a9897c5	0.001164191
217	0x3a9ab116	0.0011802043
218	0x3b254642	0.002521888
219	0x3b1658ad	0.0022941038
220	0x39e220b9	0.0004313046
221	0x3b752a7d	0.0037409358
222	0x3b88700c	0.0041637477
223	0x3aaffedc	0.0013427394
224	0x3b9a3417	0.0047059166
225	0x3b98502a	0.004648228
226	0x3b93e2e8	0.0045131333
227	0x3b9c4212	0.0047686184
228	0x3b9b8c0f	0.004746921
229	0x3ad86cd0	0.0016511921
230	0x3ab639cb	0.0013902722
231	0x398fdae2	0.00027438166
232	0x3af06681	0.0018341095
233	0x3ae91e09	0.001778544
234	0x3a0723f4	0.0005155199
235	0x3a04dbec	0.00050681713
236	0x3a14092d	0.0005647119
237	0x39f4b556	0.00046674412
238	0x39e406e5	0.00043492686
239	0x3b18c2cb	0.0023309465
240	0x3b31598d	0.0027061433
241	0x3c007d03	0.007842305
242	0x3b10e371	0.0022108222
243	0x3b18e9ab	0.0023332636
244	0x3ba69efd	0.005084871
245	0x3b996e4a	0.004682337
246	0x3a646075	0.0008711883
247	0x3c0dffbe	0.008666931
248	0x3c24fbde	0.010069815
249	0x3b4b255c	0.003099761
250	0x3c306fc6	0.010768836
251	0x3c44efd2	0.012020068
252	0x3c36caeb	0.011156778
253	0x3c1e7647	0.009671754
254	0x3c368708	0.011140592
255	0x3b71c0f3	0.0036888688

exp_avg f4 [128]
0	0xbe0476e8	-0.12935984
1	0xbe284ecc	-0.16436309
2	0xbd9df7c4	-0.07713273
3	0xbe6d0abd	-0.23148628
4	0x00000000	0.0
5	0xbd5e6932	-0.05429954
6	0xbae4ba70	-0.0017450582
7	0xbe7ad6e6	-0.2449604
8	0xbd6a8b53	-0.057261776
9	0xbe8cdc41	-0.2751179
10	0xbd45c608	-0.04828456
11	0xbdab907c	-0.083771676
12	0xbe42cbea	-0.190231
13	0xbb12e7fd	-0.0022416108
14	0xbcab300c	-0.020896934
15	0xbe18a12e	-0.14905235
16	0xbbeee194	-0.0072900746
17	0xbbb7dc53	-0.0056109815
18	0x00000000	0.0
19	0xbda5a79a	-0.08088608
20	0x00000000	0.0
21	0x3adf21d4	0.0017023631
22	0xbde5ba88	-0.11217219
23	0xba3f23bc	-0.00072913966
24	0x3856ce00	5.121343e-05
25	0xbe0b55dc	-0.13606972
26	0xbcf21da8	-0.029555157
27	0xbdb20bcc	-0.08693656
28	0xbd98ef0a	-0.07467468
29	0x00000000	0.0
30	0x37e755cf	2.7577304e-05
31	0x00000000	0.0
32	0xbe7a6fc2	-0.24456695
33	0xbe8339de	-0.25630087
34	0xbdc2d0c5	-0.09512476
35	0xbbb9ddc0	-0.0056721866
36	0xbdd734ab	-0.105080925
37	0x3b2d842a	0.002647648
38	0xbe15463a	-0.1457757
39	0xbda506dc	-0.08057949
40	0xbe3461c2	-0.17615417
41	0xbe457772	-0.19283846
42	0xb5a13472	-1.2010698e-06
43	0xbaaa05dc	-0.0012971717
44	0xbeaf91af	-0.34290835
45	0xbddaadd9	-0.1067769
46	0xbd37337b	-0.04472683
47	0x3c18801e	0.009307889
48	0xbe2a120c	-0.16608447
49	0xbe40d7b2	-0.18832281
50	0x3c97206b	0.018448075
51	0x3cb928af	0.022602407
52	0xbe5c03c4	-0.21485811
53	0xbe1a0e0e	-0.15044424
54	0x3b5754b5	0.0032856886
55	0xbe8f07ee	-0.27935737
56	0xbe558896	-0.20852885
57	0x3992a792	0.0002797214
58	0xbe0e7f2f	-0.13915704
59	0xbe50ece0	-0.2040286
60	0xbdddb38a	-0.1082526
61	0xbcd0c992	-0.025486741
62	0x3c247cfa	0.010039562
63	0xbe201155	-0.15631612
64	0xbe7279f4	-0.23679334
65	0x3d744fc0	0.059646368
66	0x00000000	0.0
67	0xbded4ab5	-0.11586515
68	0x3daa009b	0.08300897
69	0xbb517d50	-0.0031965561
70	0xbe47f7bf	-0.19528101
71	0x3d205159	0.03914008
72	0xaffe196f	-4.6220403e-10
73	0xbeb27a14	-0.34858763
74	0xbe233491	-0.15938021
75	0xbb63d0e5	-0.0034761962
76	0xbe42c851	-0.19021727
77	0xbe16c05e	-0.1472182
78	0x3695b016	4.461045e-06
79	0x00000000	0.0
80	0xbde53e5d	-0.111935355
81	0xb916183c	-0.00014314143
82	0xbd3a383c	-0.045463786
83	0xbde883d7	-0.113532715
84	0xbe6e0d43	-0.23247246
85	0xbd3b008a	-0.04565481
86	0x3be9d5ac	0.0071360674
87	0x3bd0e82c	0.0063753333
88	0xbe17bd66	-0.14818344
89	0xbdeca8c4	-0.11555627
90	0x00000000	0.0
91	0xbe055b1c	-0.13023037
92	0xbd393224	-0.045213833
93	0x3b3e9f92	0.002908681
94	0xbd31f441	-0.04344583
95	0xbe152834	-0.14566118
96	0xbced30c2	-0.028953914
97	0xa81faafe	-8.863351e-15
98	0xbd943757	-0.07237118
99	0xbe668ae8	-0.22513926
100	0xbdfda0b9	-0.12384171
101	0xbbfc80ba	-0.007705775
102	0xbc349adf	-0.011023252
103	0x3bda8108	0.0066682138
104	0xbdd70ab4	-0.10500088
105	0x00000000	0.0
106	0xbe92c23c	-0.28663814
107	0xbe3ca8f6	-0.18423828
108	0xbe3a7c65	-0.18211515
109	0xbb854136	-0.0040666116
110	0xbdaeca51	-0.085346825
111	0x00000000	0.0
112	0xb808976a	-3.2565942e-05
113	0x00000000	0.0
114	0x00000000	0.0
115	0xbdc5cc46	-0.09658103
116	0x3b56b1e1	0.0032759833
117	0xbe27006e	-0.16308758
118	0xbdc3a429	-0.095527954
119	0xbe19c2f0	-0.15015769
120	0xbd1b9453	-0.03798325
121	0x3c9b82c9	0.018983262
122	0xbb3cef90	-0.0028829314
123	0x3c0a7c64	0.008452509
124	0xba7ba3df	-0.0009599309
125	0x00000000	0.0
126	0x00000000	0.0
127	0xbe305824	-0.17221123

exp_avg_sq f4 [128]
0	0x3c17a4eb	0.009255628
1	0x3bfbcbd5	0.007684211
2	0x3b6657c1	0.003514752
3	0x3c93bc41	0.018034102
4	0x00000000	0.0
5	0x3b2b4273	0.0026132136
6	0x3b39d19b	0.0028353694
7	0x3d0444c1	0.03229213
8	0x3bfa2b59	0.007634562
9	0x3c90e599	0.017687606
10	0x3b30d5d1	0.0026982913
11	0x3bd1a8bb	0.006398288
12	0x3cc94a53	0.024571573
13	0x38817f4e	6.174912e-05
14	0x3b6e0623	0.0036319576
15	0x3c633e44	0.013869826
16	0x3ad3b9c0	0.001615338
17	0x397e4c23	0.00024251691
18	0x00000000	0.0
19	0x3c082043	0.008308473
20	0x00000000	0.0
21	0x3b50a963	0.0031839244
22	0x3c953229	0.018212395
23	0x37fe8b95	3.0344157e-05
24	0x3b846626	0.0040404974
25	0x3bd4aae5	0.006490099
26	0x3ba45289	0.005014722
27	0x3c36b76a	0.011152128
28	0x3c1835f1	0.009290204
29	0x00000000	0.0
30	0x3566c290	8.59648e-07
31	0x00000000	0.0
32	0x3c8bc803	0.017063146
33	0x3c72048b	0.014771591
34	0x3b88be30	0.0041730627
35	0x3a4cf27b	0.0007818115
36	0x3c15b2f7	0.009136907
37	0x39374cd9	0.00017480868
38	0x3c1c1492	0.009526389
39	0x3b836588	0.004009906
40	0x3c7f7271	0.01559125
41	0x3c330b05	0.01092792
42	0x354e169f	7.67739e-07
43	0x3a11e4e2	0.0005565417
44	0x3d0c4858	0.03424868
45	0x3c1e6ecb	0.00966997
46	0x3b2f35db	0.0026734981
47	0x3a3da0ae	0.0007233721
48	0x3c822ccc	0.015890501
49	0x3c5433da	0.0129518155
50	0x3b20ddc5	0.0024546247
51	0x3a711341	0.00091962895
52	0x3c4bdb7d	0.012442467
53	0x3c402188	0.0117267445
54	0x39bf179c	0.0003644795
55	0x3bffa0f8	0.0078011714
56	0x3c33fa28	0.010984935
57	0x37053e50	7.941926e-06
58	0x3c2f3e61	0.010696025
59	0x3c819edc	0.01582282
60	0x3b5ea686	0.0033973767
61	0x3b2d8049	0.002647417
62	0x394cabe3	0.00019518989
63	0x3c8ec722	0.017428938
64	0x3c477e0e	0.01217605
65	0x3bbdb8cf	0.005789853
66	0x00000000	0.0
67	0x3c2ff4d1	0.010739521
68	0x3b7e73b1	0.0038826282
69	0x3c62e791	0.013849155
70	0x3c1acba9	0.00944797
71	0x3bafd6e4	0.005366193
72	0x368263be	3.8859134e-06
73	0x3cfb29dd	0.03065961
74	0x3c1ecfb4	0.009693075
75	0x3a5d641e	0.00084453996
76	0x3c02e43f	0.007988988
77	0x3c1f8bb4	0.009737898
78	0x376185c4	1.344219e-05
79	0x00000000	0.0
80	0x3bc7f40e	0.0061020916
81	0x35f09713	1.7925362e-06
82	0x3b2edd74	0.002668229
83	0x3b463965	0.0030246612
84	0x3cab2144	0.020889886
85	0x3b225fda	0.002477637
86	0x39510583	0.00019933846
87	0x39019caf	0.00012360768
88	0x3c956e5f	0.018241106
89	0x3c8880ef	0.016663043
90	0x00000000	0.0
91	0x3b8a9241	0.0042288606
92	0x3bd09aee	0.0063661253
93	0x3ab2565c	0.0013606059
94	0x3b94b531	0.0045382013
95	0x3ba2d38d	0.0049690665
96	0x3b820d18	0.003968846
97	0x3545199d	7.342549e-07
98	0x3bbb0440	0.0057072937
99	0x3cc07896	0.023495
100	0x3bc1a6d9	0.0059097824
101	0x3af72c19	0.0018857747
102	0x3ad255f3	0.0016047343
103	0x3b90bf0a	0.004417305
104	0x3c07611e	0.008262901
105	0x00000000	0.0
106	0x3cd71621	0.02625567
107	0x3c0cc5bc	0.008592065
108	0x3c1f14b7	0.009709529
109	0x39c558d5	0.00037640953
110	0x3bf4a1a8	0.00746556
111	0x00000000	0.0
112	0x3563070f	8.457436e-07
113	0x00000000	0.0
114	0x00000000	0.0
115	0x3b807c36	0.003921057
116	0x3986a3ca	0.00025680504
117	0x3c0e2d84	0.008677844
118	0x3c248540	0.010041535
119	0x3bd7f218	0.006590139
120	0x3bc9ceb4	0.006158674
121	0x3c1359db	0.008993591
122	0x38c83281	9.54615e-05
123	0x390de12f	0.00013530695
124	0x38f761f0	0.0001179612
125	0x00000000	0.0
126	0x00000000	0.0
127	0x3c1ddfda	0.00963589
