models/reinforce/reinforce_low_lr/checkpoint_ep900.pth (torch, 259594 bytes, 18 tensors)

network.0.weight f4 [128, 26]
0.17268689 0.20109943 0.13037084 0.09961222 -0.11727071 0.09934727 0.107164815 0.027426975
0.066756636 0.18869025 0.17118245 0.20002949 -0.1474366 -0.12494801 0.09195573 -0.0646139
0.113303766 0.089302406 -0.016223907 -0.05471652 0.21149203 -0.09496816 0.20731418 0.08657933
-0.056450404 -0.077397674 -0.17509171 -0.06679073 0.119973384 -0.18299437 0.14752364 -0.1678973
0.011686017 0.14861073 0.081905715 -0.12196664 0.13827012 -0.14340582 0.095729 0.02577429
0.057891537 0.1587582 0.020109043 -0.09911572 0.12025229 0.06314404 0.20806718 0.2014001
0.06407255 -0.0030501513 0.0751663 -0.116923906 0.15545137 0.008528555 0.1685156 -0.1591373
0.17423448 0.13666102 0.016601766 0.16091897 -0.13702849 0.034961082 -0.04154597 0.21548876
0.104508564 -0.15610328 0.2062259 0.10076731 0.06792724 -0.04587866 0.18918997 -0.16714194
-0.076012984 0.15346627 0.14302106 0.08326313 -0.028921911 0.19093837 0.1572406 -0.09568126
0.024078079 -0.10269714 0.12396773 -0.16393888 -0.10547962 0.074226595 -0.0566811 0.13561128
-0.07022733 0.009092788 0.16042943 0.133534 0.09933094 -0.04302321 0.0010225382 -0.008987343
0.1664569 -0.071558185 0.069936566 0.0939847 0.0790557 0.17202821 0.16113119 0.103419766
-0.010586485 -0.119691 -0.005336836 -0.072316304 -0.049589798 -0.045691162 -0.19320177 0.095779106
0.009255439 0.05993171 -0.18287717 0.033801705 0.18758176 0.15140162 -0.055067554 -0.043817237
0.13511176 0.060021326 -0.15009491 -0.07137432 -0.13880724 -0.068544805 -0.009607479 -0.15081088
-0.109360136 -0.01752849 -0.076485544 -0.0957624 -0.18080164 0.1942045 0.14411774 0.19314899
-0.13352281 0.1829295 0.047729187 -0.057504017 0.023807174 -0.122663125 0.10701561 0.11867594
0.11359678 -0.11708489 -0.0761752 0.16322345 -0.058429632 -0.08519454 -0.09821762 0.017817464
0.19941863 -0.049029257 0.119922146 -0.004512477 -0.010226026 0.06317244 0.12400995 -0.12611069
0.12872255 -0.06426374 -0.048365775 0.087899685 0.02310741 -0.15882953 0.12026692 0.058726404
0.16647117 0.049134735 -0.114894144 -0.13747415 0.13112813 -0.015348796 0.08932528 -0.111702725
0.093962476 -0.07418261 -0.12169171 0.041453846 -0.03400192 -0.056116402 0.094943665 -0.18206964
-0.119233996 0.20383847 0.15282074 0.03592463 0.19866799 0.018771717 0.05519493 0.0014949267
-0.107990384 0.049331065 0.08283594 -0.09313821 0.16176331 -0.076039255 0.2198496 0.037695535
0.12627508 -0.120201916 0.17062414 -0.0071215066 0.20367761 -0.110245086 -0.10045015 0.20945972
-0.20467454 0.05383969 -0.19936246 -0.096902385 -0.055608667 -0.064605385 -0.077521056 0.053582862
0.17096987 0.13283147 0.17935154 0.17305687 -0.05961985 -0.030293752 -0.054846637 -0.17019151
-0.028522052 0.18056609 -0.0046459404 0.08197996 0.19079176 0.0119954785 -0.1626028 0.15784626
0.023198336 0.06228972 -0.12631342 -0.029986562 -0.047492646 0.0062944936 0.08651944 -0.025770696
0.20127462 0.18462513 -0.13516967 -0.018252784 -0.10678809 -0.013861318 0.17223564 0.05646455
0.13764657 -0.122622706 0.09802551 0.21089318 0.11289002 -0.098214 0.12305239 -0.08554936
00000000: d5d4 303e 02ed 4d3e ef7f 053e 7e01 cc3d
00000010: a02b f0bd 9576 cb3d 3a79 db3d 89ae e03c
00000020: b4b7 883d 0438 413e 744a 2f3e 88d4 4c3e
00000030: 9ff9 16be bee4 ffbd 4953 bc3d 4b54 84bd
00000040: ce0b e83d 2ee4 b63d 00e8 84bc 6e1e 60bd
00000050: 5e91 583e ab7e c2bd 2b4a 543e 8150 b13d
00000060: 8a38 67bd ac82 9ebd 3e4b 33be 94c9 88bd
00000070: 9bb4 f53d e062 3bbe 7010 173e 45ed 2bbe
00000080: b576 3f3c 692d 183e 2fbe a73d a5c9 f9bd
00000090: af96 0d3e fad8 12be 910d c43d 9b24 d33c
000000a0: ad1f 6d3d 8291 223e b8bb a43c 2ffd cabd
000000b0: d546 f63d aa51 813d 900f 553e d43b 4e3e
000000c0: 7838 833d 0ce5 47bb caf0 993d cd75 efbd
000000d0: a52e 1f3e 5abb 0b3c 5a8f 2c3e e3f4 22be
000000e0: 866a 323e def0 0b3e 6d00 883c f1c7 243e
000000f0: 3251 0cbe 5a33 0f3d 1b2c 2abd 16a9 5c3e
00000100: 9608 d63d 8ad9 1fbe e22c 533e 175f ce3d
00000110: 701d 8b3d 43eb 3bbd 04bb 413e 4227 2bbe
00000120: b2ac 9bbd 4326 1d3e 1d74 123e dc85 aa3d
00000130: a5ed ecbc 5985 433e ae03 213e 89f4 c3bd
00000140: 643f c53c e152 d2bd cbe2 fd3d 98df 27be
00000150: b305 d8bd 1d04 983d 712a 68bd afdd 0a3e
00000160: 59d3 8fbd ebf9 143c 9d47 243e 23bd 083e
00000170: 056e cb3d 1b39 30bd b006 863a a63f 13bc
00000180: ad73 2a3e 198d 92bd e73a 8f3d 0d7b c03d
00000190: f4e7 a13d 2a28 303e 93ff 243e becd d33d
000001a0: f072 2dbc 8e20 f5bd a0e0 aebb 921a 94bd
000001b0: ac1e 4bbd a826 3bbd afd6 45be d627 c43d
000001c0: 20a4 173c f47a 753d 2744 3bbe a873 0a3d
000001d0: 6f15 403e 0709 1b3e 848e 61bd b479 33bd
000001e0: bd5a 0a3e ecd8 753d 7bb2 19be b32c 92bd
000001f0: 7c23 0ebe 3861 8cbd b068 1dbc 2b6e 1abe
00000200: 35f8 dfbd e897 8fbc 74a4 9cbd 141f c4bd
00000210: 1124 39be 8bdd 463e 9a93 133e d9c8 453e
00000220: 34ba 08be df51 3b3e ae7f 433d 5589 6bbd
00000230: 4307 c33c ce36 fbbd 002b db3d 5f0c f33d
00000240: 6ea5 e83d 34ca efbd be01 9cbd 0c24 273e
00000250: e953 6fbd 7a7a aebd 5226 c9bd eef5 913c
00000260: 6634 4c3e e7d2 48bd be99 f53d 67dd 93bb
00000270: 108b 27bc 8d60 813d eef8 fd3d 2923 01be
00000280: d8cf 033e b59c 83bd 311b 46bd c004 b43d
00000290: c04b bd3c 35a4 22be 814e f63d 198b 703d
000002a0: 6b77 2a3e 8141 493d 9f4d ebbd 06c6 0cbe
000002b0: 7446 063e 8479 7bbc 2cf0 b63d 66c4 e4bd
000002c0: 666f c03d 0ded 97bd 8139 f9bd 82cb 293d
000002d0: 9945 0bbd 50da 65bd d371 c23d 7770 3abe
000002e0: f430 f4bd 08bb 503e 0a7d 1c3e b425 133d
000002f0: 9f6f 4b3e 25c7 993c 1414 623d 6bf1 c33a
00000300: 102a ddbd 5f0f 4a3d e4a5 a93d 3fbf bebd
00000310: 48a5 253e 78ba 9bbd 4120 613e a266 1a3d
00000320: 414e 013e 6c2c f6bd 18b8 2e3e 875b e9bb
00000330: dd90 503e 2dc8 e1bd cfb8 cdbd 9c7c 563e
00000340: 3496 51be 0287 5c3d ac25 4cbe c274 c6bd
00000350: eac5 63bd d44f 84bd 5cc3 9ebd b479 5b3d
00000360: ba12 2f3e f904 083e eea7 373e d235 313e
00000370: f233 74bd 9a2a f8bc dea6 60bd af46 2ebe
00000380: 14a7 e9bc 51e6 383e f93c 98bb 1ce5 a73d
00000390: ea5e 433e af88 443c 5981 26be 73a2 213e
000003a0: 700a be3c 8123 7f3d 4e58 01be 61a6 f5bc
000003b0: a687 42bd 0a42 ce3b 1b31 b13d 111d d3bc
000003c0: ef1a 4e3e 5f0e 3d3e eb69 0abe dd86 95bc
000003d0: b7b3 dabd 951a 63bc 8a5e 303e 5f47 673d
000003e0: 39f3 0c3e 9d21 fbbd 99c1 c83d 62f4 573e
000003f0: e232 e73d 6c24 c9bd e402 fc3d 8134 afbd

network.0.bias f4 [128]
-0.14281061 -0.14552718 -0.07407401 0.03326443 -0.18004087 0.01664175 0.019600585 0.05209063
0.15553996 -0.05207224 -0.10015935 -0.1603981 -0.05552945 -0.007831212 -0.131467 -0.034444846
0.0122310715 -0.015001144 -0.12813315 -0.12472457 -0.17170219 -0.08374226 0.14504465 -0.028875781
-0.18653409 0.21537596 0.1489194 0.19250895 -0.17453691 -0.06467794 -0.015322423 -0.124649584
-0.041603897 0.19986258 -0.14722572 -0.06362656 0.16723782 -0.053692825 -0.11786601 0.10936858
0.035940513 0.20597003 0.022122486 0.09559843 0.20414005 0.11741866 -0.085926645 -0.030366572
-0.016677154 -0.15509076 -0.16368483 0.028900174 -0.0028552841 0.14968623 -0.18386829 0.21522477
0.18987067 -0.16122708 -0.121949136 0.14191002 -0.06943786 0.03167774 -0.16216256 0.11851935
0.15293959 0.17104758 -0.017789153 -0.15361531 -0.03487918 0.14808579 0.005952257 -0.093188494
0.09561614 0.20894545 -0.0052178563 0.10013806 -0.10095969 0.027135976 -0.032853775 0.012785718
0.20488222 -0.11578255 -0.17055498 -0.036693033 0.21016476 -0.016701015 -0.03243866 0.106635906
-0.0057904553 0.14909855 0.17592527 0.053743973 0.087083496 -0.06626261 0.07638793 -0.04383525
0.13585787 0.09279884 0.15611057 0.20251401 -0.15779275 0.077261984 -0.12795264 0.17552207
0.029501624 -0.024062136 -0.07731277 0.18979017 -0.110297814 0.09861288 -0.095710956 -0.052582324
-0.13087152 -0.19375746 -0.15009381 -0.108374216 0.09955478 -0.12412058 0.15405437 0.20838882
0.14573023 0.037806552 -0.015864283 -0.1782224 -0.04489229 -0.1680713 -0.10672539 0.034899164
00000000: f23c 12be 1405 15be 1db4 97bd 4840 083d
00000010: a25c 38be 4754 883c 6891 a03c fc5c 553d
00000020: de45 1f3e b349 55bd 5820 cdbd 663f 24be
00000030: d972 63bd 7c4e 00bc 499f 06be 0a16 0dbd
00000040: d564 483c 5cc7 75bc 5635 03be 986f ffbd
00000050: b3d2 2fbe 1081 abbd 9686 143e e78c ecbc
00000060: cb02 3fbe 848b 5c3e 547e 183e 1121 453e
00000070: ceb9 32be de75 84bd e60a 7bbc 4848 ffbd
00000080: d968 2abd c7a8 4c3e 57c2 16be a44e 82bd
00000090: 6440 2b3e 02ed 5bbd bc63 f1bd a2fc df3d
000000a0: 5c36 133d cfe9 523e 373a b53c 1cc9 c33d
000000b0: 170a 513e 3279 f03d 4ffa afbd 51c3 f8bc
000000c0: 879e 88bc 1dd0 1ebe ff9c 27be 0fc0 ec3c
000000d0: b81f 3bbb 5947 193e f847 3cbe e263 5c3e
000000e0: 756d 423e b618 25be 78c0 f9bd dc50 113e
000000f0: 7035 8ebd 85c0 013d f10d 26be 46ba f23d
00000100: 329c 1c3e 1927 2f3e 8fba 91bc 554d 1dbe
00000110: 79dd 0ebd cda3 173e 270b c33b 9cd9 bebd
00000120: 65d2 c33d ccf5 553e 8dfa aabb 2f15 cd3d
00000130: f4c3 cebd 444c de3c ae91 06bd 307b 513c
00000140: a5cc 513e 671f edbd f7a5 2ebe 6f4b 16bd
00000150: 6e35 573e 91d0 88bc 66de 04bd ed63 da3d
00000160: dcbd bdbb 4aad 183e c125 343e a422 5c3d
00000170: d558 b23d b1b4 87bd 4671 9c3d 978c 33bd
00000180: 531e 0b3e 510d be3d 73db 1f3e d55f 4f3e
00000190: 6c94 21be 883b 9e3d 0406 03be 0fbc 333e
000001a0: 64ad f13c f51d c5bc 2856 9ebd 5b58 423e
000001b0: d2e3 e1bd 8df5 c93d 1b04 c4bd 9060 57bd
000001c0: 2f03 06be 5b68 46be 31b2 19be 4df3 ddbd
000001d0: 60e3 cb3d ee32 febd 6ec0 1d3e e163 553e
000001e0: 4e3a 153e 0bdb 1a3d d0f5 81bc ef7f 36be
000001f0: fae0 37bd e21a 2cbe d792 dabd 6df2 0e3d

network.2.weight f4 [128, 128]
0.0049807765 0.07174897 0.08884753 0.045969944 0.06956238 0.07887212 0.02039116 0.08244474
-0.05034421 0.09484413 0.009622794 0.09628415 -0.059924435 0.061197937 0.076103374 0.07249105
-0.042140577 0.027945103 0.08075977 0.03129402 -0.08169021 -0.0543832 0.08786723 -0.03756454
-0.01869495 0.018505711 0.004091164 -0.024806894 -0.05621984 -0.03385277 0.06429743 -0.04323037
0.049901377 0.08132755 -0.06887195 -0.026348101 0.030129882 0.02581549 0.010136531 0.06043038
0.102930404 0.010709035 0.050857134 0.006443512 -0.027468612 -0.052738924 -0.007329001 0.0027397387
0.096830875 0.07909091 -0.040429626 -0.04808004 0.039945915 -0.05120394 -0.056356594 0.059394587
0.052198563 0.042079814 -0.049761795 -0.004608298 0.09794314 0.07667901 0.0125193475 -0.006165211
-0.05036102 -0.018226836 -0.011668892 0.055185195 -0.03993453 0.048252188 0.01400748 -0.03503302
-0.07790468 0.08231222 0.017775446 -0.07443386 0.04034369 0.09698576 -0.047496073 -0.06238725
0.012876376 0.07446897 0.062873825 -0.022280259 -0.038105834 0.02678201 -0.07473501 -0.079230376
0.057419177 0.047628287 -0.028821576 0.099993505 -0.00076794607 0.03945144 0.010823051 0.027868792
-0.044230405 -0.068355754 0.10295557 0.01501228 0.0831237 -0.021086453 0.06757642 -0.016071582
-0.029647447 0.08904653 -0.031265073 0.10118208 0.10897172 0.0795863 -0.060444396 0.031900473
-0.022388358 0.06394125 0.05744628 -0.052811425 -0.0731517 0.09334267 -0.022346545 0.033781394
-0.0446922 0.036293164 -0.054766003 0.0013560756 -0.042588774 0.047147162 -0.045024093 0.101117454
0.051123798 -0.019596864 -0.0663115 -0.046926305 0.07519778 0.01398451 -0.016237838 -0.006291872
0.058619697 -0.033671066 0.054047633 -0.023867363 -0.086255044 0.009181573 0.0650944 -0.052715905
-0.042613868 0.012641902 -0.018755756 -0.0006218501 0.07895061 -0.055114426 0.015043258 -0.011707895
0.01332737 0.01490898 0.024358204 0.06842569 0.065536626 0.05335673 -0.020965252 0.06872303
-0.0628639 -0.00050120696 -0.059162885 -0.020351011 -0.07866718 0.07804659 0.060481556 0.010157007
-0.024461513 -0.059377223 -0.06239441 -0.006555289 -0.036127347 -0.032739323 -0.0016577889 0.029170597
0.05428557 -0.091857485 -0.008193776 -0.029921414 -0.05155662 0.03645226 -0.07269054 -0.053491827
0.06875374 -0.052664276 0.07183825 -0.08820473 0.0299466 -0.060355414 -0.0560498 0.0037899618
0.020885684 -0.07982109 -0.0047715306 -0.036493294 -0.037876386 0.06096668 -0.0021325494 0.062825836
-0.02882035 0.044155844 -0.07368038 0.031386714 -0.0362118 0.0067701405 -0.032922387 -0.0052052215
0.06308102 -0.010498181 -0.061807614 -0.0006440477 -0.102324076 -0.08165271 0.0055312617 0.0020327973
-0.021546839 0.065078616 0.03992603 0.04768379 0.074038215 -0.027301565 0.050334405 -0.077453144
-0.060404904 0.08405913 -0.092721455 -0.044909995 0.064291134 0.07815959 -0.037841644 -0.053123776
0.007511556 0.049252115 -0.05921933 0.055184294 -0.004997045 -0.020715257 0.05855603 -0.074348144
0.011275555 -0.06914885 -0.04703935 0.047564324 -0.056922592 -0.03094898 0.006731641 0.0111214835
0.011489644 0.074317485 0.020149823 -0.012439248 0.05465685 0.07645088 0.025813319 -0.043124203
00000000: c835 a33b 20f1 923d b2f5 b53d fb4a 3c3d
00000010: b976 8e3d b587 a13d 5d0b a73c cad8 a83d
00000020: bb35 4ebd a43d c23d eca8 1d3c a030 c53d
00000030: 5373 75bd b0aa 7a3d 16dc 9b3d 3076 943d
00000040: 999b 2cbd 21ed e43c 6165 a53d 292e 003d
00000050: 324d a7bd ebc0 5ebd bcf3 b33d 46dd 19bd
00000060: 2726 99bc 4a99 973c 2c0f 863b d437 cbbc
00000070: c646 66bd 34a9 0abd 5fae 833d 5412 31bd
00000080: 6365 4c3d 0f8f a63d bd0c 8dbd f9d7 d7bc
00000090: f1d2 f63c 027b d33c b113 263c d985 773d
000000a0: 2dcd d23d f374 2f3c 924f 503d 1924 d33b
000000b0: db05 e1bc c504 58bd 1e28 f0bb 308d 333b
000000c0: 444f c63d 6afa a13d 8999 25bd 93ef 44bd
000000d0: 549e 233d 39bb 51bd 2cd6 66bd bd47 733d
000000e0: 29ce 553d e25b 2c3d 06d3 4bbd 3501 97bb
000000f0: 6a96 c83d e309 9d3d f31d 4d3c 8a05 cabb
00000100: 5b47 4ebd 7250 95bc e12e 3fbc df09 623d
00000110: 6492 23bd 16a4 453d a17f 653c c97e 0fbd
00000120: 7d8c 9fbd 4f93 a83d d09d 913c c870 98bd
00000130: 6d3f 253d 78a0 c63d 3e8b 42bd c689 7fbd
00000140: 6ff7 523c 3083 983d fec3 803d 1785 b6bc
00000150: dd14 1cbd f265 db3c ab0e 99bd 8943 a2bd
00000160: 5f30 6b3d e115 433d 3a1b ecbc 65c9 cc3d
00000170: fd4f 49ba d597 213d 2b53 313c 184d e43c
00000180: f12a 35bd 1afe 8bbd 5fda d23d 11f6 753c
00000190: c23c aa3d 7fbd acbc 8265 8a3d 8da8 83bc
000001a0: 34df f2bc 075e b63d ce0f 00bd 8d38 cf3d
000001b0: 912c df3d 24fe a23d 8b94 77bd 12aa 023d
000001c0: ca67 b7bc a1f3 823d ca4c 6b3d cb50 58bd
000001d0: 8fd0 95bd 712a bf3d 1a10 b7bc 5c5e 0a3d
000001e0: 2b0f 37bd 24a8 143d 5152 60bd 59be b13a
000001f0: 9171 2ebd 621d 413d 2f6b 38bd ab16 cf3d
00000200: 3067 513d 9a89 a0bc 53ce 87bd cc35 40bd
00000210: 4b01 9a3d 491f 653c 3705 85bc 0c2c cebb
00000220: 351b 703d acea 09bd 0d61 5d3d 7d85 c3bc
00000230: 7ca6 b0bd 4f6e 163c 3650 853d a2ec 57bd
00000240: e18b 2ebd fb1f 4f3c aca5 99bc a703 23ba
00000250: dbb0 a13d aabf 61bd ff77 763c 79d2 3fbc
00000260: 0b5b 5a3c cb44 743c db8a c73c c522 8c3d
00000270: 1138 863d 968c 5a3d 52bf abbc a9be 8c3d
00000280: cabe 80bd 6e63 03ba c854 72bd 2ab7 a6bc
00000290: 421c a1bd e4d6 9f3d 82bb 773d 9369 263c
000002a0: 8363 c8bc 8835 73bd 4891 7fbd c0cd d6bb
000002b0: 45fa 13bd ab19 06bd 2a4a d9ba 2df7 ee3c
000002c0: 8c5a 5e3d c71f bcbd 303f 06bc c11d f5bc
000002d0: 092d 53bd f74e 153d c7de 94bd 3f1a 5bbd
000002e0: c3ce 8c3d 7fb6 57bd ef1f 933d aea4 b4bd
000002f0: 9252 f53c 3d37 77bd 7a94 65bd 0261 783b
00000300: 7418 ab3c 3d79 a3bd 805a 9cbb fe79 15bd
00000310: 4524 1bbd 33b8 793d 3ec2 0bbb d5aa 803d
00000320: a818 ecbc c2dc 343d bde5 96bd 5b8f 003d
00000330: d352 14bd 0ed8 dd3b a0d9 06bd 9090 aabb
00000340: 9f30 813d 9000 2cbc fb29 7dbd 4fd5 28ba
00000350: 498f d1bd 8939 a7bd 963f b53b ae38 053b
00000360: ff82 b0bc f047 853d 7a89 233d 1450 433d
00000370: 59a1 973d 88a7 dfbc 732b 4e3d c19f 9ebd
00000380: 226b 77bd 3127 ac3d bfe4 bdbd 8bf3 37bd
00000390: 12ab 833d 2312 a03d d7ff 1abd 5198 59bd
000003a0: 8023 f63b 96bc 493d f88f 72bd ed08 623d
000003b0: 40be a3bb 0bb3 a9bc 73d8 6f3d d743 98bd
000003c0: 1bbd 383c ea9d 8dbd 55ac 40bd cfd2 423d
000003d0: aa27 69bd b788 fdbc 1995 dc3b e236 363c
000003e0: 0f3f 3c3c c433 983d 3e11 a53c fdcd 4bbc
000003f0: dcdf 5f3d 4792 9c3d 7476 d33c 01a3 30bd

network.2.bias f4 [128]
0.10384891 0.044562493 -0.011539192 -0.04684734 0.079875566 0.08878885 0.033063006 -0.08828232
0.069223315 -0.083051346 -0.07344871 -0.0016157692 0.06127148 0.00042791665 -0.018735385 0.018989882
-0.06035732 -0.02675881 0.0487266 -0.05776356 -0.021210585 0.06910601 -0.0038375168 0.033483934
-0.028626345 0.009908616 0.027435793 0.070821054 -0.075053275 -0.029638516 -0.020644693 0.04764443
-0.0604272 0.06347676 0.058004726 -0.013446224 0.08154994 0.015570424 -0.0155224325 0.007106406
0.03463242 -0.01028564 0.05616436 -0.056244798 0.10382546 -0.020217998 -0.0023471168 0.056489654
-0.0023299658 0.021067133 0.030502182 -0.08799956 -0.08402341 0.06877541 0.021133687 0.10696652
-0.014382463 -0.07177683 -0.05782081 -0.0831163 -0.009627745 0.016845621 0.08247301 -0.07533579
0.06555134 -0.06448114 0.09967141 0.015719486 -0.027095456 0.014378724 0.0067475345 0.014040377
-0.04078562 -0.07509895 -0.036126867 -0.07371348 -0.06762749 0.05904737 0.042757366 0.009305175
0.026864966 0.020357445 -0.031295814 0.022928594 -0.07429955 0.05659648 0.0572098 -0.03735966
0.07035387 -0.028834354 0.059009515 0.09393556 -0.076126456 -0.025746934 -0.00093954353 0.018651688
-0.021877073 0.0665286 0.048759595 0.017919846 -0.05802788 0.07323352 0.010566003 0.03858367
-0.073606245 0.03265219 0.060637932 0.08056165 0.031246679 0.04158389 0.022825094 0.07268906
0.026833719 0.04169942 0.060427535 -0.023590297 0.04979127 -0.08012648 0.0053921905 -0.045560636
0.098620705 0.025804687 -0.08795749 0.016694618 -0.029255949 0.033719867 0.019215679 0.0915439
00000000: bdae d43d 2987 363d e10e 3dbc ffe2 3fbd
00000010: cd95 a33d eed6 b53d 136d 073d 5ccd b4bd
00000020: f4c4 8d3d d316 aabd 476c 96bd 38c8 d3ba
00000030: cef7 7a3d 005a e039 f37a 99bc ab90 9b3c
00000040: 3d39 77bd 4b35 dbbc 8b95 473d 7c99 6cbd
00000050: d2c1 adbc 7487 8d3d d97e 7bbb 7326 093d
00000060: cc81 eabc bf57 223c 07c1 e03c a10a 913d
00000070: 88b5 99bd 79cc f2bc 0f1f a9bc ce26 433d
00000080: 8382 77bd 1b00 823d 5d96 6d3d 8d4d 5cbc
00000090: a803 a73d 171b 7f3c cd51 7ebc dbdc e83b
000000a0: b9da 0d3d 1a85 28bc 9a0c 663d f260 66bd
000000b0: 71a2 d43d 37a0 a5bc 16d2 19bb b261 673d
000000c0: 57b2 18bb fb94 ac3c b6df f93c 1d39 b4bd
000000d0: 7714 acbd 1fda 8c3d 8e20 ad3c 4311 db3d
000000e0: 6ca4 6bbc bbff 92bd 83d5 6cbd e138 aabd
000000f0: b0bd 1dbc d4ff 893c 9ce7 a83d a749 9abd
00000100: c83f 863d b00e 84bd 8620 cc3d 27c6 803c
00000110: 4af7 ddbc bd94 6b3c 6c1a dd3b 9c09 663c
00000120: d30e 27bd 7acd 99bd c4f9 13bd 18f7 96bd
00000130: 4880 8abd a8db 713d 5922 2f3d bc74 183c
00000140: eb13 dc3c a8c4 a63c 0a30 00bd bfd4 bb3c
00000150: 5d2a 98bd b6d1 673d d354 6a3d 7106 19bd
00000160: b115 903d 0636 ecbc f6b3 713d 4961 c03d
00000170: 30e8 9bbd 3ceb d2bc b34b 76ba 6dcb 983c
00000180: 8c37 b3bc 2640 883d 24b8 473d a4cc 923c
00000190: a4ae 6dbd 75fb 953d 071d 2d3c e909 1e3d
000001a0: dfbe 96bd 4ebe 053d 7b5f 783d 82fd a43d
000001b0: 09f9 ff3c de53 2a3d b1fb ba3c 00de 943d
000001c0: 63d2 db3c 03cd 2a3d dd82 773d 7040 c1bc
000001d0: eef1 4b3d 5a19 a4bd f9b0 b03b ca9d 3abd
000001e0: a7f9 c93d 5a64 d33c 0e23 b4bd 27c3 883c
000001f0: 2caa efbc d81d 0a3d 336a 9d3c 5e7b bb3d

network.4.weight f4 [8, 128]
0.008356745 -0.0642911 0.079087436 -0.03036775 -0.072193466 -0.0037558253 -0.04147273 -0.039306678
0.026615344 0.011325655 -0.078864425 -0.0681986 0.033983603 -0.044986483 0.022205938 -0.05618655
-0.025123043 -0.020814938 -0.07258494 0.07756098 0.045337018 -0.04338146 0.0054224194 0.012817689
-0.08524827 -0.0808097 0.02775624 0.03539978 -0.05219418 0.07652805 0.046778414 0.013138241
-0.069639035 0.03608928 -0.08748453 0.032491744 -0.03301977 -0.0007319775 0.03932008 0.06123908
-0.045391973 -0.06303397 0.08299886 -0.026827313 0.038853645 0.012669776 0.08158751 0.040566992
0.07384974 0.033180412 0.06574134 -0.005351603 -0.063432604 -0.092263766 -0.039131746 -0.008642476
0.039567854 0.008713229 0.013968721 -0.027881045 0.07223014 0.05941752 -0.08368602 0.028136538
-0.014827306 -0.06407896 0.043881416 -0.0018845135 0.016669987 -0.051114578 0.050321337 0.061007567
-0.015457319 0.011053011 -0.050642487 0.07961548 0.07633774 -0.017423961 0.051813345 -0.05354025
-0.064862885 0.066644266 -0.08819947 0.077006556 -0.027812524 -0.028515436 0.04090786 -0.039573696
-0.06554731 0.037783735 -0.06711883 -0.049854625 -0.009622391 0.052859973 -0.012754451 0.00876363
-0.08627817 -0.021169608 0.05249794 -0.004769124 0.069916315 -0.030899704 0.0783444 -0.050743014
0.06358311 -0.073020235 0.06688389 -0.042901985 0.056548312 -0.07284635 0.025080401 0.04431035
-0.035522852 -0.016414512 -0.023547245 0.024944905 -0.048421256 -0.02867598 -0.07034972 0.020966515
-0.03937723 0.046010446 -0.055499084 0.02876416 0.079839 -0.01688484 -0.00042580382 0.05866552
0.105168976 -0.051796637 0.039197925 0.05684913 0.01645688 0.10261721 0.0044739926 0.0336466
0.11532603 -0.026410675 0.11068921 0.061856017 -0.06083117 -0.059019715 -0.027302431 0.055020504
-0.013316806 0.041014247 -0.005316216 0.010646723 -0.073141284 0.07079652 0.040428024 -0.023696452
-0.0053497003 0.08970033 -0.024566699 0.043079935 -0.00039144605 -0.0429392 -0.06678175 0.027177863
-0.02188589 -0.04634737 -0.05318546 0.050303217 0.04073639 0.036591444 -0.049956027 0.06405136
0.06866884 -0.027557798 0.06744167 0.018941902 0.0992651 0.0927045 0.069250554 0.09639776
-0.060270265 -0.014669211 0.041230265 -0.0017353892 -0.08476737 0.0073729674 0.10087473 0.0021457588
-0.059735678 -0.052446548 -0.04289857 -0.055116538 -0.06614964 -0.05838955 0.041687917 -0.029887969
0.0037622415 -0.086231016 0.10675814 -0.059870187 0.06832896 0.060278315 -0.06084668 -0.055341646
-0.080805264 0.035545208 0.041306805 0.07114099 0.0084529035 0.07241733 -0.011951131 -0.07605173
0.045079507 0.08465693 0.0855005 -0.058658738 -0.011814813 0.020412436 -0.023286488 -0.06011166
-0.012611045 -0.049551133 -0.05527411 0.08578605 -0.08550103 -0.04095594 0.027142828 0.098977186
0.0053755874 -0.06619151 0.11273009 -0.08778084 -0.07004188 -0.005296581 0.048205566 0.07960609
-0.086451486 0.059147503 0.056477793 0.05309572 0.07107473 -0.050236415 -0.07081596 -0.021036645
0.07411978 0.11717084 0.014796469 -0.057445563 -0.056507215 -0.067574546 -0.08063046 -0.08196467
0.018431943 0.07771942 0.07527945 0.034098234 -0.06036439 -0.041049384 -0.0079737175 0.07845169
00000000: bbea 083c 0dab 83bd 98f8 a13d cac5 f8bc
00000010: 2bda 93bd 4b24 76bb 4fdf 29bd 0a00 21bd
00000020: 6c08 da3c 3d8f 393c ac83 a1bd b5ab 8bbd
00000030: 6432 0b3d bf43 38bd 3ae9 b53c de23 66bd
00000040: d7ce cdbc 1784 aabc 6aa7 94bd 4bd8 9e3d
00000050: 4fb3 393d c2b0 31bd 8dae b13b 4901 523c
00000060: a596 aebd 8e7f a5bd 0e61 e33c 5cff 103d
00000070: 91c9 55bd bdba 9c3d b99a 3f3d c741 573c
00000080: e99e 8ebd 5ad2 133d 172b b3bd 1016 053d
00000090: bd3f 07bd 2ee2 3fba 180e 213d d4d5 7a3d
000000a0: efec 39bd f417 81bd 4efb a93d f4c4 dbbc
000000b0: 0025 1f3d e494 4f3c 5a17 a73d 9329 263d
000000c0: 883e 973d 2fe8 073d 65a3 863d 805c afbb
000000d0: f4e8 81bd c9f4 bcbd 9c48 20bd 2c99 0dbc
000000e0: e711 223d eec1 0e3c 10dd 643c ca66 e4bc
000000f0: 65ed 933d c95f 733d 9363 abbd 997e e63c
00000100: 3bee 72bc d43b 83bd 00bd 333d c801 f7ba
00000110: 7f8f 883c 855d 51bd bf1d 4e3d 12e3 793d
00000120: b240 7dbc b017 353c 7f6e 4fbd 710d a33d
00000130: f656 9c3d b2bc 8ebc 3b3a 543d 054d 5bbd
00000140: d5d6 84bd ca7c 883d eca1 b4bd 9db5 9d3d
00000150: 17d7 e3bc 3499 e9bc 008f 273d 0718 22bd
00000160: ab3d 86bd 1ec3 1a3d 9975 89bd 5d34 4cbd
00000170: 3ca7 1dbc b383 583d 0bf8 50bc 5495 0f3c
00000180: 9cb2 b0bd e36b adbc 1408 573d 5046 9cbb
00000190: 4930 8f3d 6021 fdbc 0773 a03d e8d7 4fbd
000001a0: dd37 823d a28b 95bd 6cfa 883d feb9 2fbd
000001b0: 349f 673d 7830 95bd 6a75 cd3c c57e 353d
000001c0: 6980 11bd ba77 86bc 27e6 c0bc 4259 cc3c
000001d0: 5e55 46bd e4e9 eabc 8413 90bd f8c1 ab3c
000001e0: 054a 21bd 7375 3c3d 0253 63bd d1a2 eb3c
000001f0: a182 a33d 1352 8abc 6c3e dfb9 424b 703d
00000200: d562 d73d b628 54bd 018e 203d a2da 683d
00000210: 94d0 863c f928 d23d 929a 923b 04d1 093d
00000220: 0e30 ec3d 335b d8bc 06b1 e23d bc5c 7d3d
00000230: 1b2a 79bd a8be 71bd 59a9 dfbc 2e5d 613d
00000240: bc2e 5abc 8efe 273d a733 aebb 986f 2e3c
00000250: 19cb 95bd c4fd 903d db97 253d 101f c2bc
00000260: 8a4c afbb ceb4 b73d 1a40 c9bc 9674 303d
00000270: 003b cdb9 04e1 2fbd dfc4 88bd 1ca4 de3c
00000280: 0a4a b3bc bdd6 3dbd ffd8 59bd bf0a 4e3d
00000290: 33db 263d e9e0 153d b19e 4cbd 5c2d 833d
000002a0: 40a2 8c3d e4c0 e1bc dc1e 8a3d 0c2c 9b3c
000002b0: 804b cb3d dbdb bd3d 3cd3 8d3d 306c c53d
000002c0: f4dd 76bd 2157 70bc 11e1 283d 0076 e3ba
000002d0: 849a adbd ef98 f13b 6997 ce3d dc9f 0c3b
000002e0: 66ad 74bd 31d2 56bd 69b6 2fbd e1c1 61bd
000002f0: 7679 87bd e129 6fbd f3c0 2a3d 9dd7 f4bc
00000300: f08f 763b e399 b0bd 03a4 da3d 713a 75bd
00000310: 0ef0 8b3d 65e6 763d 5e3a 79bd ecad 62bd
00000320: 3b7d a5bd da97 113d 5331 293d 5eb2 913d
00000330: 0c7e 0a3c 8a4f 943d adce 43bc 02c1 9bbd
00000340: 4aa5 383d 9d60 ad3d e31a af3d 2544 70bd
00000350: eb92 41bc fb37 a73c 4ec3 bebc a537 76bd
00000360: 8e9e 4ebc 21f6 4abd 1b67 62bd 99b0 af3d
00000370: 2a1b afbd 6ac1 27bd a35a de3c 8db4 ca3d
00000380: b225 b03b 6a8f 87bd 09df e63d 71c6 b3bd
00000390: 1e72 8fbd f18e adbb 3373 453d 8508 a33d
000003a0: 7a0d b1bd a744 723d 4255 673d e67a 593d
000003b0: a18f 913d b3c4 4dbd f507 91bd 0b55 acbc
000003c0: 1ccc 973d 44f7 ef3d e46c 723c 0a4c 6bbd
000003d0: 1c74 67bd 8664 8abd 9521 a5bd 18dd a7bd
000003e0: 96fe 963c 5c2b 9f3d 1d2c 9a3d 97aa 0b3d
000003f0: a740 77bd 6623 28bd 32a4 02bc 48ab a03d

network.4.bias f4 [8]
-0.08940448 -0.010849803 -0.0097774435 0.042277645 -0.06452045 0.030090448 0.049220815 0.03342452
00000000: b219 b7bd 5fc3 31bc 9231 20bc 532b 2d3d
00000010: 4c23 84bd 3e80 f63c c49b 493d 26e8 083d

exp_avg f4 [128, 26]
0.0005934781 0.0019995407 -0.0020244995 -0.00056975323 -0.0035308688 -0.004503956 -0.005368802 -0.031583253
-0.004190224 -0.004188307 -0.012489195 0.0018818349 -0.005204044 -0.021983415 -0.031683158 -0.013159931
-0.029343646 -0.009784146 -0.020203387 -0.011746971 -0.03515046 -0.008985328 -0.005926652 -0.0021712834
-0.012780793 -0.012112601 -0.0025541976 0.005905523 0.0065804124 -0.002964322 0.0030077193 -0.030746868
-0.04088489 -0.116945796 -0.021301664 -0.03833843 -0.04543163 -0.03528309 -0.019457275 -0.08997188
-0.11733194 -0.06681104 -0.11651804 -0.0651464 -0.0982005 -0.081370115 -0.11653424 -0.045329906
-0.035968278 -0.014871525 -0.05589876 -0.052605867 0.0040958226 0.004145582 0.0013074465 0.0027430109
0.003661474 0.0047550783 0.0039654905 -0.016751256 0.005136577 0.0037166586 0.001887809 0.008272461
0.0012998232 -0.008636654 -0.019364212 -4.2780768e-05 -0.01341318 0.00386426 -0.0059647877 -0.0021035145
-0.019569345 0.0006885226 0.002295774 0.0013576972 -0.002871655 -0.0018711444 -0.006890351 -0.0056948815
-0.0040798313 -0.010815869 -0.0062678577 -0.031916488 -0.039282195 -0.08424113 -0.024778275 -0.036312133
-0.040952742 -0.03748443 -0.015572028 -0.06954727 -0.0863581 -0.054360334 -0.08634477 -0.06274986
-0.07805719 -0.06459061 -0.08223944 -0.03946127 -0.03311712 -0.013894523 -0.046049256 -0.04401065
0.0 0.0 0.0 0.0 0.0 0.0 0.0 0.0
0.0 0.0 0.0 0.0 0.0 0.0 0.0 0.0
0.0 0.0 0.0 0.0 0.0 0.0 0.0 0.0
0.0 0.0 0.0017336194 0.002659573 0.0022464145 0.0011074201 0.004406824 -0.0005344476
-0.0031648085 -0.028846383 0.0009069466 -0.003197433 -0.005743177 -0.0018879417 -0.000948451 -0.019675095
-0.031843927 -0.009210451 -0.02712413 -0.0056156525 -0.017048866 -0.01915922 -0.031231306 -0.0071695414
-0.0045429594 -0.0017221998 -0.010963617 -0.00968343 -0.008379584 -0.0048616836 -0.012240147 0.0021172294
0.0049808277 0.0055408925 0.002552444 -0.045610942 0.006693281 -0.003543762 -0.012176401 -0.0660652
0.006392264 -0.03759831 -0.057181638 -0.0013676984 -0.036750194 -0.034995876 -0.045649156 -0.02419665
-0.032236814 -0.025163397 -0.026256332 -0.013276577 -0.026147764 -0.025289174 0.0055131325 0.0068496633
0.0008461625 0.00043707935 -0.0040920405 -0.0019777624 -0.004498884 -0.03729226 -0.001049404 -0.002169792
-0.0056026448 0.02968691 -0.008419202 -0.021247875 -0.034878008 -0.01710441 -0.03709852 -0.0012342623
-0.021673072 0.0008845832 -0.047688916 -0.000479877 0.004519108 0.0033911346 -0.008308774 -0.0067318426
-0.010976736 -0.011592761 -0.009800726 -0.012350063 -0.009973306 -0.038648326 -0.041771986 -0.06938985
-0.031784553 -0.039851613 -0.04706074 -0.05922167 -0.012906887 -0.06334554 -0.071518466 -0.054983452
-0.075594485 -0.068697095 -0.07355731 -0.06021987 -0.06134352 -0.044251774 -0.040889055 -0.018105678
-0.046092004 -0.045517825 0.0037074736 0.0053162007 0.0026721684 0.0009693762 -0.001989706 0.007656136
0.0064541837 -0.018149516 0.0062114308 0.006866188 -0.0020581963 0.026006985 -0.0030071246 -0.008396456
-0.019548979 -0.00260928 -0.015863014 0.01178392 0.0010066554 -0.0020491267 -0.028500978 0.0030205175
00000000: a493 1b3a ba0a 033b 77ad 04bb 7e5b 15ba
00000010: 2666 67bb ec95 93bb c7ec afbb 715d 01bd
00000020: 264e 89bb 113e 89bb 7b9f 4cbc e7a7 f63a
00000030: af86 aabb 9016 b4bc 33c6 01bd c09c 57bc
00000040: 1662 f0bc af4d 20bc 9381 a5bc 5e76 40bc
00000050: eef9 0fbd 3237 13bc 5c34 c2bb 174c 0ebb
00000060: 8866 51bc ee73 46bc 5364 27bb 1e83 c13b
00000070: 80a0 d73b 1245 42bb 281d 453b dbe0 fbbc
00000080: ea76 27bd 4781 efbd d480 aebc c208 1dbd
00000090: 8416 3abd 0085 10bd dd64 9fbc 2d43 b8bd
000000a0: ba4b f0bd 3ad4 88bd 03a1 eebd 7a6b 85bd
000000b0: 581d c9bd 60a5 a6bd 81a9 eebd daab 39bd
000000c0: 7953 13bd b2a7 73bc 19f6 64bd 4079 57bd
000000d0: 4036 863b aad7 873b a05e ab3a 16c4 333b
000000e0: 57f5 6f3b 7dd0 9b3b f2f0 813b ee39 89bc
000000f0: bb50 a83b 2f93 733b 5c70 f73a 3789 073c
00000100: d45e aa3a c180 0dbc b2a1 9ebc 806f 33b8
00000110: f4c2 5bbc 863f 7d3b 4474 c3bb 1edb 09bb
00000120: e44f a0bc f87d 343a b274 163b c2f4 b13a
00000130: 6032 3cbb 3041 f5ba 74c8 e1bb 219c babb
00000140: 1bb0 85bb 0b35 31bc 9a62 cdbb ddba 02bd
00000150: 5ee6 20bd 9d86 acbd cffb cabc 08bc 14bd
00000160: 10be 27bd 4689 19bd d221 7fbc cd6e 8ebd
00000170: 84dc b0bd f1a8 5ebd 87d5 b0bd 0083 80bd
00000180: 73dc 9fbd 1548 84bd 276d a8bd 24a2 21bd
00000190: d1a5 07bd daa5 63bc 259e 3cbd 8344 34bd
000001a0: 0000 0000 0000 0000 0000 0000 0000 0000
000001b0: 0000 0000 0000 0000 0000 0000 0000 0000
000001c0: 0000 0000 0000 0000 0000 0000 0000 0000
000001d0: 0000 0000 0000 0000 0000 0000 0000 0000
000001e0: 0000 0000 0000 0000 0000 0000 0000 0000
000001f0: 0000 0000 0000 0000 0000 0000 0000 0000
00000200: 0000 0000 0000 0000 9d3a e33a 3b4c 2e3b
00000210: 9538 133b da26 913a 1e67 903b 2c1a 0cba
00000220: ad68 4fbb 404f ecbc 28c0 6d3a 068c 51bb
00000230: 4331 bcbb d074 f7ba 78a1 78ba aa2d a1bc
00000240: c76e 02bd 6ee7 16bc 6c33 debc 8203 b8bb
00000250: 10aa 8bbc ccf3 9cbc ccd8 ffbc 79ee eabb
00000260: 1bdd 94bb 70bb e1ba bea0 33bc 40a7 1ebc
00000270: 864a 09bc c24e 9fbb e68a 48bc 37c1 0a3b
00000280: 3636 a33b 6090 b53b e846 273b 8ad2 3abd
00000290: 4f53 db3b 763e 68bb 877f 47bc 314d 87bd
000002a0: 3276 d13b af00 1abd 4b37 6abd 5844 b3ba
000002b0: 5f87 16bd d657 0fbd 9cfa 3abd 0e38 c6bc
000002c0: c00a 04bd 7823 cebc 8517 d7bc 0086 59bc
000002d0: d633 d6bc 3e2b cfbc 82a7 b43b 2473 e03b
000002e0: 01d1 5d3a cc27 e539 8616 86bb 599d 01bb
000002f0: 606b 93bb c5bf 18bd 288c 89ba 1233 0ebb
00000300: 6496 b7bb f631 f33c b1f0 09bc 0610 aebc
00000310: 3edc 0ebd 8c1e 8cbc 9ef4 17bd f8c6 a1ba
00000320: ba8b b1bc 60e3 673a 7455 43bd 0098 fbb9
00000330: 0715 943b cc3d 5e3b 8621 08bc ca96 dcbb
00000340: c5d7 33bc 90ef 3dbc 3993 20bc eb57 4abc
00000350: 1467 23bc b54d 1ebd 1a19 2bbd 441c 8ebd
00000360: 8530 02bd 723b 23bd c3c2 40bd 6c92 72bd
00000370: 6877 53bc 4ebb 81bd 4678 92bd 5436 61bd
00000380: 48d1 9abd 10b1 8cbd 37a5 96bd 1ca9 76bd
00000390: 5843 7bbd 5941 35bd 487b 27bd 5c52 94bc
000003a0: f8ca 3cbd e670 3abd 16f9 723b 8633 ae3b
000003b0: 8c1f 2f3b bc1d 7e3a ba65 02bb 53e0 fa3b
000003c0: 9e7d d33b 4bae 94bc 4289 cb3b c2fd e03b
000003d0: cee2 06bb 9a0c d53c 2e13 45bb 4a91 09bc
000003e0: 2e25 a0bc 7400 2bbb 27f3 81bc 5811 413c
000003f0: c0f1 833a a44a 06bb e27a e9bc e0f3 453b

exp_avg_sq f4 [128, 26]
0.0012967476 0.0012655251 0.0013261221 0.0013443477 0.0011856353 0.004286079 0.004827374 0.0125571275
0.004200347 0.004240294 0.0070128297 0.006868044 0.0020733748 0.010896178 0.012732745 0.005768607
0.013462795 0.012623046 0.01344153 0.013391623 0.012757441 0.0048308186 0.0039440487 0.0007845389
0.0053488794 0.005217895 0.0034897719 0.003906582 0.0036803398 0.003738711 0.0033821678 0.0119460905
0.013546217 0.0385812 0.011401296 0.011660125 0.022806052 0.020758087 0.0058534173 0.03416677
0.042172376 0.01763272 0.042325925 0.040348988 0.042607952 0.045379262 0.039631 0.014865324
0.012152219 0.0024616998 0.016663307 0.016227277 0.00054224994 0.0006014528 0.000561191 0.000596293
0.00048777275 0.0020327496 0.002294849 0.0068466873 0.0019672932 0.0019972576 0.003969353 0.0037466679
0.00090428605 0.00606263 0.00718135 0.0029519668 0.0075649004 0.006898825 0.007941783 0.0075457473
0.006917244 0.0026524614 0.0021654915 0.00043572808 0.002955858 0.0028796084 0.0016279431 0.001681853
0.0015986931 0.0018762145 0.0015798033 0.005739254 0.0065132016 0.018741746 0.005567768 0.0055419225
0.011188296 0.010629266 0.0027690271 0.017534042 0.020425264 0.00845618 0.02143679 0.02126736
0.021983173 0.02261488 0.020343527 0.0075309607 0.0061166277 0.0012173956 0.008548449 0.008287661
0.0 0.0 0.0 0.0 0.0 0.0 0.0 0.0
0.0 0.0 0.0 0.0 0.0 0.0 0.0 0.0
0.0 0.0 0.0 0.0 0.0 0.0 0.0 0.0
0.0 0.0 0.000518853 0.00054776657 0.0005115381 0.0005703376 0.00043489638 0.0017230678
0.0019037367 0.005754459 0.0016869833 0.0016456466 0.0032807747 0.0028704626 0.0008188994 0.004969091
0.0061565805 0.0023281213 0.0059901862 0.0059331832 0.006380377 0.006028174 0.0052969623 0.0021357008
0.0017176773 0.0003427214 0.0024111513 0.0023386716 0.0010696723 0.0012876375 0.0013265844 0.0010763004
0.0012709607 0.0032148324 0.0037108406 0.010631317 0.0032507018 0.002950074 0.0069640023 0.006210751
0.0018581344 0.009486522 0.010959407 0.004706155 0.014160089 0.011708538 0.013522196 0.010959262
0.012203294 0.004283864 0.0035686572 0.0007331434 0.0046992106 0.00459893 0.005037833 0.005447438
0.005476101 0.0054468233 0.0050048055 0.017853418 0.01995512 0.052242607 0.01771978 0.017797181
0.029827725 0.028947126 0.008538574 0.045955308 0.053343054 0.024760922 0.056719776 0.054130293
0.05917598 0.056365747 0.053186942 0.020315439 0.016731424 0.0033511317 0.022430109 0.021896642
0.00051056955 0.0005655393 0.00053525495 0.00052799645 0.0005026298 0.002244381 0.002505689 0.005984343
0.0022135205 0.0022472253 0.0036906502 0.0035613142 0.00093144644 0.0056753517 0.0067811823 0.0031109005
0.0070070424 0.0070302123 0.0071459566 0.0071585304 0.006871727 0.0025085032 0.0020721413 0.0004087603
0.0027943554 0.002723585 0.0024954234 0.0025256893 0.0025151747 0.0026255753 0.0021003888 0.00804627
0.009188249 0.028160894 0.007973522 0.007848852 0.015797546 0.015062287 0.0036895387 0.024902398
0.028748734 0.011878675 0.0298441 0.029605458 0.03221476 0.029539533 0.02847203 0.0107686985
00000000: a1f7 a93a fadf a53a 46d1 ad3a d334 b03a
00000010: 5267 9b3a 3d72 8c3b f32e 9e3b 69bc 4d3c
00000020: 10a3 893b 2af2 8a3b e1cb e53b 540d e13b
00000030: 75e1 073b e285 323c 019d 503c 9506 bd3b
00000040: 0e93 5c3c e4d0 4e3c dd39 5c3c 8a68 5b3c
00000050: 9604 513c d84b 9e3b 143d 813b 84a9 4d3a
00000060: a745 af3b e0fa aa3b a8b4 643b c902 803b
00000070: db31 713b 2905 753b 5ca7 5d3b 89b9 433c
00000080: f4f0 5d3c 5207 1e3d 80cc 3a3c 1c0a 3f3c
00000090: c2d3 ba3c dd0c aa3c 06ce bf3b 74f2 0b3d
000000a0: f1bc 2c3d 7e72 903c f35d 2d3d fb44 253d
000000b0: ad85 2e3d 9bdf 393d 1e54 223d b08d 733c
000000c0: 1a1a 473c 7854 213b 7d81 883c 11ef 843c
000000d0: c725 0e3a d0aa 1d3a e41c 133a 8c50 1c3a
000000e0: c0bb ff39 e137 053b 2d65 163b 2d5a e03b
000000f0: b4ed 003b 6ce4 023b 5911 823b a88a 753b
00000100: 9c0d 6d3a 07a9 c63b 8851 eb3b c975 413b
00000110: fce2 f73b 8a0f e23b 411e 023c 5142 f73b
00000120: 0caa e23b ebd4 2d3b ebea 0d3b 6f72 e439
00000130: 11b7 413b d0b7 3c3b b560 d53a 9f71 dc3a
00000140: 3d8b d13a 50eb f53a 6711 cf3a 5a10 bc3b
00000150: b26c d53b 4a88 993c d371 b63b 0499 b53b
00000160: 1d4f 373c 5f26 2e3c 9178 353b 8da3 8f3c
00000170: e252 a73c ca8b 0a3c 359c af3c e338 ae3c
00000180: 0e16 b43c d742 b93c 78a7 a63c 47c6 f63b
00000190: fe6d c83b 0591 9f3a cb0e 0c3c f8c8 073c
000001a0: 0000 0000 0000 0000 0000 0000 0000 0000
000001b0: 0000 0000 0000 0000 0000 0000 0000 0000
000001c0: 0000 0000 0000 0000 0000 0000 0000 0000
000001d0: 0000 0000 0000 0000 0000 0000 0000 0000
000001e0: 0000 0000 0000 0000 0000 0000 0000 0000
000001f0: 0000 0000 0000 0000 0000 0000 0000 0000
00000200: 0000 0000 0000 0000 a303 083a fe97 0f3a
00000210: be18 063a b582 153a ce02 e439 90d8 e13a
00000220: ce86 f93a e78f bc3b c41d dd3a bdb2 d73a
00000230: 4402 573b 5f1e 3c3b 69ab 563a c2d3 a23b
00000240: 24bd c93b 6593 183b 5349 c43b 266b c23b
00000250: 7b12 d13b fd87 c53b 2492 ad3b 1df7 0b3b
00000260: b023 e13a 4aaf b339 6804 1e3b 6644 193b
00000270: 3f34 8c3a f2c5 a83a c9e0 ad3a a612 8d3a
00000280: 5d96 a63a f0af 523b 9331 733b fa2e 2e3c
00000290: ba09 553b 0756 413b 4932 e43b 8e83 cb3b
000002a0: a58c f33a 5b6d 1b3c 168f 333c 1736 9a3b
000002b0: b8ff 673c 2bd5 3f3c 338c 5d3c 7a8e 333c
000002c0: 53f0 473c a85f 8c3b 22e0 693b 6c30 403a
000002d0: d6fb 993b 9fb2 963b 6814 a53b 6c80 b23b
000002e0: dd70 b33b 447b b23b 5aff a33b 5541 923c
000002f0: eb78 a33c 58fc 553d 1229 913c 65cb 913c
00000300: 4659 f43c 8622 ed3c 60e5 0b3c a23b 3c3d
00000310: 3f7e 5a3d 6bd7 ca3c ff52 683d bab7 5d3d
00000320: 8362 723d c5df 663d 8dda 593d 906c a63c
00000330: 5710 893c a99e 5b3b 59bf b73c 9660 b33c
00000340: bed7 053a b340 143a 5a50 0c3a 3e69 0a3a
00000350: eac2 033a 7716 133b 7c36 243b 4f18 c43b
00000360: b610 113b 2f46 133b d6de 713b f064 693b
00000370: 502c 743a 4df8 b93b ae34 de3b 40e0 4b3b
00000380: 559b e53b b25d e63b a128 ea3b 1b92 ea3b
00000390: 392c e13b b365 243b c3cc 073b e14e d639
000003a0: 8121 373b 2d7e 323b 428a 233b 0986 253b
000003b0: a1d5 243b d811 2c3b ada6 093b 81d4 033c
000003c0: 4f8a 163c adb1 e63c 60a3 023c 7998 003c
000003d0: db69 813c d0c7 763c 30cc 713b 1d00 cc3c
000003e0: 7782 eb3c c69e 423c 9d7b f43c 2587 f23c
000003f0: a0f3 033d e4fc f13c 2d3e e93c 326f 303c

exp_avg f4 [128]
-0.031404875 -0.1285312 -0.012338077 -0.09935323 0.0 -0.028107278 -0.053711876 -0.030354103
-0.090493634 -0.011994936 -4.770048e-05 -0.066752486 -0.15990902 -0.053432003 0.16728565 -0.029562706
-0.015016104 0.015201705 0.0 0.0006953515 0.0 0.002587431 0.009142276 0.0043840837
0.030576449 -0.031389024 -0.04757281 -0.027665261 -0.11887601 0.0 4.688469e-10 0.0
-0.017158136 -0.13671845 -0.015309139 0.0020204377 -0.064130105 0.0027338474 0.020178746 0.04425815
-0.015958194 -0.054621164 3.0632465e-05 0.004394875 -0.1309304 -0.013179254 0.012050813 -0.010770567
-0.07583575 -0.026281372 -0.004536825 -0.0108988155 -0.050040223 -0.06941655 0.0010127755 -0.09203592
-0.10333816 1.1563544e-08 -0.10572286 -0.035417266 -0.064359955 0.009257346 0.0014585983 -0.14026707
-0.07713519 -0.01568627 4.8969897e-25 -0.058412414 -0.016283475 -0.022026146 -0.1599774 0.057515275
-8.1312276e-14 -0.036166787 -0.036659002 -0.0023005975 -0.08370343 -0.06046511 -9.918553e-11 0.0
-0.13009633 4.217015e-09 -0.0097602615 -0.029375171 -0.14695936 0.005056861 -0.0041478286 0.01120535
0.0009794589 -0.031523313 -1.4709765e-06 -0.14731196 -0.02764808 -0.0028086929 -0.051840775 -0.08102661
-0.013415538 1.5457583e-15 -0.01096941 -0.06640805 -0.012299169 -0.023777837 0.014062098 0.011425318
-0.114589624 9.479608e-12 -0.095051095 -0.037787393 -0.03173071 -0.0014686313 0.03215947 0.0
0.00012784335 0.0 0.0 0.006192762 0.028706541 -0.079204336 -0.029339407 -0.14384772
-0.06566312 0.01819436 -1.3355186e-05 0.031058157 -0.0007211499 0.0 -8.9883724e-07 -0.15390952
00000000: 66a2 00bd af9d 03be a525 4abc b579 cbbd
00000010: 0000 0000 3c41 e6bc fc00 5cbd 2ba9 f8bc
00000020: ba54 b9bd 6886 44bc 0012 48b8 87b5 88bd
00000030: 31bf 23be 84db 5abd ee4c 2b3e 7d2d f2bc
00000040: 1b06 76bc 9210 793c 0000 0000 4048 363a
00000050: 0000 0000 e491 293b 7cc9 153c 5ca8 8f3b
00000060: 767b fa3c c791 00bd b5db 42bd 42a2 e2bc
00000070: 4475 f3bd 0000 0000 2be0 0030 0000 0000
00000080: 388f 8cbc ecff 0bbe 2fd3 7abc 5269 043b
00000090: a556 83bd 592a 333b e64d a53c 0948 353d
000000a0: c2ba 82bc 71ba 5fbd 5c7b 0038 e202 903b
000000b0: 9e12 06be cced 57bc c670 453c 0877 30bc
000000c0: c64f 9bbd 084c d7bc a6a9 94bb f290 32bc
000000d0: faf6 4cbd 442a 8ebd 1bbf 843a 547d bcbd
000000e0: f5a2 d3bd 01a9 4632 3a85 d8bd b211 11bd
000000f0: 27cf 83bd 20ac 173c 702e bf3a 2ca2 0fbe
00000100: 0ef9 9dbd 7e80 80bc f38d 1717 db41 6fbd
00000110: ec64 85bc 2d70 b4bc 1ed1 23be 2395 6b3d
00000120: 5619 b7a9 a023 14bd c027 16bd 9fc5 16bb
00000130: b46c abbd 43aa 77bd 7d1c daae 0000 0000
00000140: f937 05be 42e5 9031 81e9 1fbc 33a4 f0bc
00000150: 847c 16be 06b4 a53b 82ea 87bb a596 373c
00000160: 3061 803a 971e 01bd 5e6e c5b5 f2d8 16be
00000170: 3a7e e2bc 0c12 38bb fe56 54bd 48f1 a5bd
00000180: d8cc 5bbc 6ac4 de26 0ab9 33bc f200 88bd
00000190: 7482 49bc bdc9 c2bc b764 663c 4231 3b3c
000001a0: f7ad eabd 5cc4 262d 26aa c2bd f4c6 1abd
000001b0: 10f8 01bd 177f c0ba a6b9 033d 0000 0000
000001c0: b00d 0639 0000 0000 0000 0000 a7ec ca3b
000001d0: fb29 eb3c e235 a2bd 3259 f0bc d14c 13be
000001e0: 637a 86bd 570c 953c 1610 60b7 ad6d fe3c
000001f0: 8d0b 3dba 0000 0000 a047 71b5 759a 1dbe

exp_avg_sq f4 [128]
0.022237107 0.069728084 0.01237272 0.035783798 0.0 0.010141009 0.019360255 0.09378635
0.0115823615 0.050821226 0.011443021 0.03182295 0.105295725 0.0023505122 0.026692143 0.07389338
0.0022626342 0.0012067946 0.0 0.020942826 0.0 0.006042722 0.10218135 4.63595e-05
0.015035906 0.020100879 0.00899807 0.022447664 0.053265046 0.0 1.6933323e-05 0.0
0.045121398 0.101288445 0.015871536 0.000907386 0.017778648 0.0004839606 0.025653608 0.020253006
0.06112883 0.030860657 2.5750292e-06 0.00095419155 0.0670037 0.028815007 0.01615004 0.0011430003
0.043674063 0.067083955 0.002635068 0.005983223 0.041708946 0.04072227 0.0005175776 0.042665817
0.08590258 2.1222322e-05 0.076895155 0.06350066 0.036335554 0.021993564 0.0003379855 0.09008478
0.056403656 0.00978182 8.140847e-10 0.029930051 0.0044281804 0.029465264 0.038175557 0.010876131
2.827454e-06 0.11985969 0.042362016 0.0010831124 0.029055342 0.072132066 1.4366703e-05 0.0
0.06594142 1.3105945e-06 0.019423135 0.016491903 0.0562225 0.011272545 0.00046286106 0.0018583433
0.05517636 0.051615782 6.3651773e-06 0.044317134 0.02169534 0.0050549665 0.027016703 0.022440642
0.029940449 1.6202544e-05 0.02246612 0.06283473 0.03288064 0.0067273397 0.0017631437 0.014458158
0.016479863 1.8071145e-07 0.1192009 0.01931845 0.040258348 0.0005192329 0.029687831 0.0
9.649915e-06 0.0 0.0 0.019522358 0.0030591073 0.05332945 0.045480378 0.032903727
0.012162917 0.02518257 0.00010077506 0.0012055497 0.00016031464 0.0 1.2558824e-08 0.034280665
00000000: 982a b63c 99cd 8e3d f3b6 4a3c 0892 123d
00000010: 0000 0000 7a26 263c 6699 9e3c 0f13 c03d
00000020: f2c3 3d3c eb29 503d 827b 3b3c c858 023d
00000030: 49a5 d73d 0d0b 1a3b 7ba9 da3c 6a55 973d
00000040: b448 143b 4f2d 9e3a 0000 0000 4a90 ab3c
00000050: 0000 0000 0702 c63b 7544 d13d 2272 4238
00000060: 2959 763c 99aa a43c a46c 133c 2ae4 b73c
00000070: 732c 5a3d 0000 0000 090c 8e37 0000 0000
00000080: 37d1 383d 5170 cf3d 0605 823c a5dd 6d3a
00000090: 87a4 913c 18bc fd39 8427 d23c a2e9 a53c
000000a0: 3962 7a3d 7dcf fc3c aace 2c36 b622 7a3a
000000b0: 3c39 893d 730d ec3c 174d 843c bad0 953a
000000c0: 93e3 323d 5063 893d 1bb1 2c3b ea0e c43b
000000d0: 00d7 2a3d 65cc 263d 0bae 073a 5ac2 2e3d
000000e0: b1ed af3d 9706 b237 357b 9d3d a20c 823d
000000f0: 97d4 143d d92b b43c a533 b139 5e7e b83d
00000100: 8507 673d ed43 203c 1ec6 5f30 de2f f53c
00000110: 451a 913b 2361 f13c f95d 1c3d cd31 323c
00000120: 4abf 3d36 ff78 f53d cb83 2d3d 39f7 8d3a
00000130: 7805 ee3c fab9 933d 8508 7137 0000 0000
00000140: 4c0c 873d afe7 af35 441d 9f3c 071a 873c
00000150: 9049 663d 7bb0 383c 29ac f239 a793 f33a
00000160: 9b00 623d 126b 533d 7594 d536 e285 353d
00000170: 6dba b13c 22a4 a53b 2252 dd3c 70d5 b73c
00000180: ac45 f53c b3ea 8737 de0a b83c 7faf 803d
00000190: daad 063d 0471 dc3b 4919 e73a e9e1 6c3c
000001a0: c700 873c 9609 4234 9a1f f43d ba41 9e3c
000001b0: f0e5 243d 211d 083a e533 f33c 0000 0000
000001c0: 12e6 2137 0000 0000 0000 0000 5aed 9f3c
000001d0: 4e7b 483b fb6f 5a3d a249 3a3d 0fc6 063d
000001e0: f946 473c ad4b ce3c 3357 d338 8903 9e3a
000001f0: 221a 2839 0000 0000 4bc2 5732 e269 0c3d
