models/reinforce/reinforce_low_lr/checkpoint_ep600.pth (torch, 259594 bytes, 18 tensors)

network.0.weight f4 [128, 26]
0	0x3e2e17a0	0.170012
1	0x3e4bbb87	0.19895755
2	0x3e024c2e	0.12724373
3	0x3dc62945	0.0967584
4	0xbdf65eca	-0.12029798
5	0x3dc69de0	0.09698081
6	0x3dd587c0	0.10426283
7	0x3cba01e3	0.022705978
8	0x3d849cc7	0.064752154
9	0x3e3f28e3	0.18667941
10	0x3e2b3321	0.16718723
11	0x3e492d77	0.1964625
12	0xbe189a9a	-0.14902726
13	0xbe0462da	-0.12928334
14	0x3db34817	0.087539844
15	0xbd8cf950	-0.0688349
16	0x3de06887	0.10957437
17	0x3dae8149	0.08520753
18	0xbc9ed2bb	-0.019387593
19	0xbd6e951b	-0.058247667
20	0x3e555c41	0.20835973
21	0xbdcad5d6	-0.09904067
22	0x3e5049bf	0.20340632
23	0x3da94d07	0.08266645
24	0xbd789c4e	-0.06069594
25	0xbda71694	-0.08158603
26	0xbe350d1b	-0.1768078
27	0xbd8957d3	-0.06706204
28	0x3df0631c	0.117376536
29	0xbe3cf97a	-0.18454543
30	0x3e1578c5	0.14596851
31	0xbe2df93e	-0.1698961
32	0x3c07aa40	0.008280337
33	0x3e121b1a	0.14268151
34	0x3da4aa10	0.08040249
35	0xbdfdfb59	-0.124014564
36	0x3e0719ef	0.13193487
37	0xbe199a6e	-0.15000317
38	0x3dc21638	0.09476894
39	0x3c9a95a3	0.01887018
40	0x3d53cd9c	0.051709756
41	0x3e1c339d	0.15254064
42	0x3c720e27	0.014773882
43	0xbdd731b3	-0.10507526
44	0x3deadde2	0.11468102
45	0x3d676d02	0.056500442
46	0x3e4f8119	0.2026409
47	0x3e4787a3	0.19485335
48	0x3d6bd445	0.057575483
49	0xbc20853b	-0.00979739
50	0x3d8c1240	0.068394184
51	0xbdfd2a93	-0.12361636
52	0x3e1c849e	0.15284964
53	0x3bd37591	0.006453224
54	0x3e28c552	0.16481522
55	0xbe269bee	-0.1627042
56	0x3e2efd68	0.17088854
57	0x3e0a9c8a	0.13536277
58	0x3c72a46c	0.014809709
59	0x3e211e3c	0.1573419
60	0xbe0d9550	-0.1382649
61	0x3d0add53	0.033902477
62	0xbd38ee4b	-0.04514913
63	0x3e58bca3	0.21165709
64	0x3dd386f2	0.10328473
65	0xbe23e4bc	-0.16005224
66	0x3e4ee69d	0.2020516
67	0x3dc7d370	0.097571254
68	0x3d848f7a	0.064726785
69	0xbd4a0857	-0.04932436
70	0x3e3eb71f	0.18624543
71	0xbe2ee3e2	-0.17079118
72	0xbda23979	-0.07921118
73	0x3e194121	0.14966251
74	0x3e0ea97c	0.1393184
75	0x3da2b712	0.07945074
76	0xbd069382	-0.03285552
77	0x3e3f8746	0.18703946
78	0x3e1f0eb1	0.15532948
79	0xbdc646e1	-0.09681488
80	0x3cb02f44	0.021506913
81	0xbdd5b2b9	-0.10434479
82	0x3dfab58d	0.12241659
83	0xbe29ea84	-0.16593367
84	0xbddef71c	-0.10886976
85	0x3d8bdd33	0.068293
86	0xbd6f57b7	-0.05843326
87	0x3e088918	0.13333547
88	0xbd9a3241	-0.075291164
89	0x3b71b30d	0.0036880404
90	0x3e23d0c8	0.15997612
91	0x3e02d52d	0.12776633
92	0x3dc04b7c	0.093893975
93	0xbd44212d	-0.0478832
94	0xbb6ee06b	-0.0036449682
95	0xbc6694d1	-0.0140735665
96	0x3e24d9e8	0.1609875
97	0xbd9dd31a	-0.0770628
98	0x3d854f64	0.06509283
99	0x3db549f2	0.088519946
100	0x3d96ce95	0.07363621
101	0x3e2a8647	0.16652785
102	0x3e1f4683	0.15554242
103	0x3dc87603	0.09788134
104	0xbc2d72f0	-0.010586485
105	0xbdf5208e	-0.119691
106	0xbbaee0a0	-0.005336836
107	0xbd941a92	-0.072316304
108	0xbd4b1eac	-0.049589798
109	0xbd3b26a8	-0.045691162
110	0xbe45d6af	-0.19320177
111	0x3dc427d6	0.095779106
112	0x3c17a420	0.009255439
113	0x3d757af4	0.05993171
114	0xbe3b4427	-0.18287717
115	0x3d0a73a8	0.033801705
116	0x3e40156f	0.18758176
117	0x3e1b0907	0.15140162
118	0xbd618e84	-0.055067554
119	0xbd3379b4	-0.043817237
120	0x3e0a5abd	0.13511176
121	0x3d75d8ec	0.060021326
122	0xbe19b27b	-0.15009491
123	0xbd922cb3	-0.07137432
124	0xbe0e237c	-0.13880724
125	0xbd8c6138	-0.068544805
126	0xbc1d68b0	-0.009607479
127	0xbe1a6e2b	-0.15081088
128	0xbddff835	-0.109360136
129	0xbc8f97e8	-0.01752849
130	0xbda12c53	-0.07869782
131	0xbdc747c1	-0.09730483
132	0xbe3c912f	-0.18414758
133	0x3e443d8b	0.19164102
134	0x3e10fa85	0.14158066
135	0x3e4307bc	0.19045919
136	0xbe0c92cd	-0.13727875
137	0x3e359d09	0.17735685
138	0x3d39b949	0.045342717
139	0xbd763a46	-0.060114168
140	0x3c9743d0	0.018464953
141	0xbe03a8ce	-0.12857363
142	0x3dd73cdd	0.105096556
143	0x3de6733f	0.1125245
144	0x3ddcec96	0.10787313
145	0xbdfb04ca	-0.12256773
146	0xbda6c685	-0.08143333
147	0x3e2251b5	0.15851481
148	0xbd81f833	-0.06346168
149	0xbdba654c	-0.09101352
150	0xbdd4800f	-0.10375988
151	0x3c441595	0.011968036
152	0x3e465548	0.1936847
153	0xbd60b5e2	-0.054860957
154	0x3de91238	0.11380428
155	0xbc2d1d23	-0.010566029
156	0xbbc08cfa	-0.0058761807
157	0x3d85734d	0.065161325
158	0x3dfc73cb	0.12326773
159	0xbdfb016e	-0.12256132
160	0x3e06b3ff	0.131546
161	0xbd7a472b	-0.061103027
162	0xbd3c62c7	-0.04599264
163	0x3da9d6b6	0.08292906
164	0x3cd8dd8a	0.026472826
165	0xbe204b2b	-0.15653674
166	0x3deb791e	0.11497711
167	0x3d59109d	0.05299436
168	0x3e2bc4a7	0.16774236
169	0x3d31a282	0.04336787
170	0xbdf751d4	-0.12076154
171	0xbe0c578d	-0.13705273
172	0x3e01389a	0.12619248
173	0xbca7eab2	-0.020497654
174	0x3dae347a	0.08506103
175	0xbdee29e4	-0.11629084
176	0x3db6245e	0.08893655
177	0xbda371db	-0.079807006
178	0xbe027216	-0.12738833
179	0x3d1215c6	0.035665296
180	0xbd21fdec	-0.0395488
181	0xbd7c94fd	-0.061665524
182	0x3dbdebcd	0.09273491
183	0xbe3bf156	-0.18353781
184	0xbdf87d0c	-0.12133226
185	0x3e4de96b	0.20108573
186	0x3e1a23a5	0.1505266
187	0x3d0f7885	0.035027046
188	0x3e49eb90	0.19718766
189	0x3c86b214	0.016442336
190	0x3d5ef3a7	0.054431584
191	0x3a582012	0.0008244525
192	0xbde16cbc	-0.110070676
193	0x3d41d250	0.04731971
194	0x3da8c4cb	0.0824066
195	0xbdc340a4	-0.095338136
196	0x3e234f66	0.15948257
197	0xbda0c5cc	-0.07850227
198	0x3e5fa51c	0.21840328
199	0x3d112d6d	0.035443712
200	0x3dffdd36	0.124933645
201	0xbdf9f2d3	-0.12204518
202	0x3e2d78ce	0.16940615
203	0xbc179a9f	-0.009253173
204	0x3e4e7d80	0.20165062
205	0xbde60d1c	-0.11232969
206	0xbdd23d2a	-0.10265572
207	0x3e54420f	0.20728324
208	0xbe519dcd	-0.20470352
209	0x3d5dcf16	0.05415257
210	0xbe4cdbb5	-0.20005687
211	0xbdc38665	-0.09547118
212	0xbd604f92	-0.054763384
213	0xbd85821b	-0.06518956
214	0xbda258e4	-0.07927111
215	0x3d4900d7	0.049073067
216	0x3e2e7a8f	0.1703894
217	0x3e06c6af	0.1316173
218	0x3e341ae9	0.1758839
219	0x3e2d3974	0.16916448
220	0xbd709b6d	-0.058741976
221	0xbd0cc555	-0.034367878
222	0xbd6f1e61	-0.05837858
223	0xbe313215	-0.17304261
224	0xbd045a6c	-0.032312796
225	0x3e350248	0.17676651
226	0xbc162af1	-0.0091655115
227	0x3da09cb3	0.07842388
228	0x3e3fd572	0.18733767
229	0x3c05ee5a	0.008174503
230	0xbe2a77f1	-0.16647317
231	0x3e1da43a	0.15394679
232	0x3c9eaea0	0.019370377
233	0x3d6f9a62	0.05849684
234	0xbe048280	-0.12940407
235	0xbd042a0f	-0.032266673
236	0xbd501244	-0.05079867
237	0x3b375d05	0.0027979028
238	0x3daa3367	0.083105855
239	0xbcec24eb	-0.028826198
240	0x3e4a7df2	0.19774607
241	0x3e385045	0.1799937
242	0xbe0d2394	-0.13783103
243	0xbcabfc26	-0.020994257
244	0xbde2e97d	-0.110796906
245	0xbc92ac9d	-0.017904574
246	0x3e2e5d19	0.17027701
247	0x3d550b2f	0.05201262
248	0x3e08a656	0.13344702
249	0xbe029aa8	-0.12754309
250	0x3dc0d9eb	0.094165646
251	0x3e541a27	0.20713101
252	0x3ddfe295	0.10931889
253	0xbdd17fff	-0.102294914
254	0x3df4c38f	0.11951362
255	0xbdb7ee1f	-0.08980965

network.0.bias f4 [128]
0	0xbe16ad6d	-0.14714594
1	0xbe1c16f8	-0.15243137
2	0xbd9fca83	-0.07802298
3	0x3ce14123	0.02749688
4	0xbe385ca2	-0.18004087
5	0x3c2bdf9f	0.010490327
6	0x3c62a6ea	0.013833741
7	0x3d4c5a2e	0.04989069
8	0x3e1b19e0	0.1514659
9	0xbd6785e3	-0.05652417
10	0xbdc99c5b	-0.098442756
11	0xbe28558b	-0.16438882
12	0xbd764fed	-0.060134817
13	0xbc6d187d	-0.0144711705
14	0xbe07cd9c	-0.13262028
15	0xbd1a803d	-0.037719954
16	0x3c3b29be	0.011423526
17	0xbc7643c1	-0.015030802
18	0xbe033556	-0.12813315
19	0xbdff92fa	-0.124792054
20	0xbe2fd2b3	-0.17170219
21	0xbdafb181	-0.08578778
22	0x3e12499e	0.14285895
23	0xbcecd737	-0.028911216
24	0xbe3e02c4	-0.18555743
25	0x3e5777f8	0.21041858
26	0x3e114fbf	0.14190577
27	0x3e3fdb49	0.18735994
28	0xbe37589e	-0.17904899
29	0xbd8475de	-0.06467794
30	0xbc64bc91	-0.013960973
31	0xbdff4848	-0.124649584
32	0xbd353543	-0.044240247
33	0x3e47cfd3	0.19512872
34	0xbe1a41da	-0.15064183
35	0xbd7d9db0	-0.06191796
36	0x3e253f1d	0.16137357
37	0xbd5ea376	-0.054355107
38	0xbdf40887	-0.11915689
39	0x3ddfd2df	0.10928892
40	0x3d083d52	0.033261605
41	0x3e4ef36d	0.20210047
42	0x3cb86b94	0.022512235
43	0x3dc6fb65	0.097159185
44	0x3e4ba82c	0.19888371
45	0x3dee5450	0.11637175
46	0xbdb09d47	-0.08623748
47	0xbcec7dcc	-0.028868578
48	0xbca348f9	-0.019932257
49	0xbe21e540	-0.15810108
50	0xbe257019	-0.16156043
51	0x3ceb9f8d	0.028762603
52	0xbc0e92f7	-0.008702031
53	0x3e14614b	0.1449024
54	0xbe3ba1f1	-0.18323494
55	0x3e5501e3	0.20801501
56	0x3e3c6e94	0.18401557
57	0xbe24a002	-0.16076663
58	0xbe01db15	-0.1268123
59	0x3e0d4c83	0.13798718
60	0xbd99f4db	-0.075174056
61	0x3ce8aa5e	0.02840155
62	0xbe24c451	-0.16090514
63	0x3de8fd09	0.113763876
64	0x3e17705f	0.1478896
65	0x3e2f46c2	0.17116836
66	0xbc91ba8f	-0.017789153
67	0xbe21310e	-0.15741369
68	0xbd111a61	-0.035425548
69	0x3e15e07f	0.1463642
70	0xbad4f724	-0.001624797
71	0xbdb955fd	-0.09049604
72	0x3dc36b26	0.09541921
73	0x3e525836	0.20541462
74	0xbc16dc67	-0.009207821
75	0x3dcc2bbd	0.0996928
76	0xbddbc5a2	-0.10731055
77	0x3cbe8c24	0.023260184
78	0xbd078c73	-0.033092927
79	0x3c517b30	0.012785718
80	0x3e4c9065	0.19976957
81	0xbdeb9d63	-0.115046285
82	0xbe31090d	-0.17288609
83	0xbd2cd56d	-0.042195726
84	0x3e505a3e	0.20346925
85	0xbc9a55c4	-0.018839724
86	0xbd053407	-0.03252032
87	0x3dd97f8f	0.10620033
88	0xbbe42d9e	-0.006963446
89	0x3e1498b2	0.14511374
90	0x3e31b523	0.17354254
91	0x3d4087a7	0.04700437
92	0x3daf132a	0.08548577
93	0xbd8b6cfc	-0.068078965
94	0x3d93e80b	0.07221993
95	0xbd4ce4d1	-0.050022904
96	0x3e09a2d1	0.13441016
97	0x3dc1d0c5	0.09463648
98	0x3e1ac5a1	0.15114452
99	0x3e4c3aa7	0.19944249
100	0xbe25ff8f	-0.16210769
101	0x3d9357ce	0.07194482
102	0xbe040474	-0.12892324
103	0x3e3468bf	0.17618082
104	0x3cb0c463	0.02157802
105	0xbcb26238	-0.02177535
106	0xbda6c771	-0.08143509
107	0x3e3e2767	0.18569718
108	0xbdedd0af	-0.11612069
109	0x3dc6735a	0.0968997
110	0xbdc7dc37	-0.097587995
111	0xbd576090	-0.052582324
112	0xbe021737	-0.12704168
113	0xbe46685b	-0.19375746
114	0xbe19b231	-0.15009381
115	0xbde1a1a2	-0.11017157
116	0x3dc42e0e	0.09579097
117	0xbe0400d1	-0.12890936
118	0x3e1a1956	0.15048727
119	0x3e4fa898	0.20279157
120	0x3e12c73b	0.14333813
121	0x3d11e558	0.03561911
122	0xbc6ddb53	-0.014517623
123	0xbe37600c	-0.17907733
124	0xbd39532f	-0.045245346
125	0xbe2c1ae2	-0.1680713
126	0xbddf7d2e	-0.10912548
127	0x3ce91efe	0.028457161

network.2.weight f4 [128, 128]
0	0x3b7a6a98	0.0038210507
1	0x3d944663	0.07239988
2	0x3db42ff9	0.087982126
3	0x3d3cf3a0	0.046130776
4	0x3d8e76b9	0.06956238
5	0x3d9f8637	0.07789271
6	0x3cd84afc	0.026402943
7	0x3da78319	0.08179302
8	0xbd4be7ed	-0.04978173
9	0x3dc2f4f7	0.095193796
10	0x3c1ab08f	0.009441509
11	0x3dc47835	0.0959324
12	0xbd77edd7	-0.060529556
13	0x3d653de4	0.055967227
14	0x3d96438b	0.073371015
15	0x3d93d93e	0.0721917
16	0xbd21c921	-0.039498452
17	0x3cf366ef	0.029712168
18	0x3da56561	0.08075977
19	0x3d05051e	0.032475583
20	0xbda74d32	-0.08169021
21	0xbd6570b8	-0.0560157
22	0x3db3de1b	0.08782598
23	0xbd24b94b	-0.04021577
24	0xbc9ba155	-0.018997828
25	0x3c93dd77	0.018049939
26	0x3bb6ef1c	0.0055827033
27	0xbcd1892f	-0.02557811
28	0xbd6ab031	-0.057296935
29	0xbd0aa934	-0.03385277
30	0x3d81f957	0.06346386
31	0xbd311254	-0.04323037
32	0x3d491ec3	0.049101602
33	0x3da71953	0.08159127
34	0xbd8b008a	-0.06787212
35	0xbcd90474	-0.026491381
36	0x3cf28e31	0.029608818
37	0x3ccfa745	0.025348315
38	0x3c134b44	0.008990113
39	0x3d71f7ff	0.059074398
40	0x3dd2190d	0.10258684
41	0x3c27e94d	0.010248494
42	0x3d536c38	0.051616877
43	0x3bc37c53	0.0059657483
44	0xbcdfeb09	-0.027333753
45	0xbd5ec897	-0.054390516
46	0xbc1c9740	-0.009557545
47	0x3b711691	0.0036787132
48	0x3dc42c27	0.09578734
49	0x3da0b3b8	0.07846779
50	0xbd1f6a45	-0.038919706
51	0xbd4a43e3	-0.049381148
52	0x3d1ff543	0.03905226
53	0xbd551077	-0.052017655
54	0xbd6b0328	-0.057376057
55	0x3d76c7f4	0.060249284
56	0x3d514caf	0.05109852
57	0x3d2b5e59	0.041838024
58	0xbd478b44	-0.0487168
59	0xbbc340b4	-0.005958641
60	0x3dca8353	0.09888329
61	0x3d976744	0.07392743
62	0x3c251944	0.010076825
63	0xbbd24e67	-0.0064180377
64	0xbd4e1f15	-0.05032261
65	0xbc9c98e4	-0.019115873
66	0xbc3f2ee1	-0.011668892
67	0x3d5fbc1c	0.054622754
68	0xbd243060	-0.040085196
69	0x3d402c77	0.046917405
70	0x3c6c990c	0.014440786
71	0xbd19359c	-0.03740464
72	0xbd9f860a	-0.07789238
73	0x3da6f785	0.08152679
74	0x3c8f27a0	0.01747495
75	0xbd98bda0	-0.07458043
76	0x3d21654f	0.039403256
77	0x3dc50117	0.096193485
78	0xbd41b682	-0.047293194
79	0xbd7f89c6	-0.06238725
80	0x3c598b5c	0.013277855
81	0x3d9a83db	0.07544681
82	0x3d835c6b	0.06414112
83	0xbcc31a94	-0.023816384
84	0xbd1971c5	-0.037462015
85	0x3cef4aa3	0.029210394
86	0xbd942423	-0.07233455
87	0xbd9b25cb	-0.07575568
88	0x3d60a9c0	0.054849386
89	0x3d4107d1	0.047126595
90	0xbcff9fe8	-0.031204179
91	0x3dcdeee9	0.10055334
92	0xbaeceeff	-0.0018076597
93	0x3d28accb	0.041180413
94	0x3c1e656b	0.009667735
95	0x3ce0375d	0.02737015
96	0xbd3af46b	-0.04564325
97	0xbd8eae07	-0.06966787
98	0x3dd124ee	0.10212122
99	0x3c7686fb	0.01504683
100	0x3da89536	0.08231585
101	0xbc89f377	-0.016839726
102	0x3d86902b	0.065704666
103	0xbc9295fc	-0.017893784
104	0xbcf73417	-0.030176206
105	0x3db1af7d	0.0867605
106	0xbd02ed91	-0.031964842
107	0x3dcd3ee4	0.10021761
108	0x3dddc191	0.108279355
109	0x3da1ba25	0.078968324
110	0xbd7ec032	-0.06219501
111	0x3d02aa12	0.031900473
112	0xbcb4b619	-0.022059487
113	0x3d82f3a1	0.06394125
114	0x3d6b4cca	0.05744628
115	0xbd599aa0	-0.053125978
116	0xbd9200b9	-0.07129044
117	0x3dbce77a	0.09223838
118	0xbcbe7591	-0.02324942
119	0x3d0b71bc	0.034044012
120	0xbd345345	-0.044024725
121	0x3d10bce9	0.03533641
122	0xbd61ca5f	-0.055124637
123	0x3a278130	0.0006389795
124	0xbd2fd404	-0.042926803
125	0x3d411d62	0.047147162
126	0xbd2eb043	-0.042648565
127	0x3dd0e176	0.10199253
128	0x3d51657d	0.051122177
129	0xbca0951e	-0.019602355
130	0xbd87cf76	-0.06631367
131	0xbd40379e	-0.04692804
132	0x3d9a014b	0.07519778
133	0x3c6510ee	0.013981087
134	0xbc850537	-0.016237838
135	0xbbce368e	-0.0062931245
136	0x3d7019f9	0.05861852
137	0xbd09ed04	-0.0336733
138	0x3d5d610d	0.054047633
139	0xbcc38bbf	-0.023870347
140	0xbdb0a7c7	-0.08625751
141	0x3c166e4f	0.009181573
142	0x3d854fbf	0.06509351
143	0xbd57ef1b	-0.052718263
144	0xbd2e8be1	-0.042613868
145	0x3c4f1ffb	0.012641902
146	0xbc99a5ac	-0.018755756
147	0xba23372a	-0.00062261766
148	0x3da1b0db	0.07895061
149	0xbd61c031	-0.05511493
150	0x3c766ba0	0.015040308
151	0xbc3fd279	-0.011707895
152	0x3c5a5b0b	0.01332737
153	0x3c743b6b	0.0149067445
154	0x3cc789f0	0.024357766
155	0x3d8c21a8	0.06842357
156	0x3d8636c7	0.06553417
157	0x3d5a8c96	0.05335673
158	0xbcabbf52	-0.020965252
159	0x3d8cbea9	0.06872303
160	0xbd80c008	-0.06286627
161	0xba045465	-0.0005047976
162	0xbd72551a	-0.05916319
163	0xbca6b72a	-0.020351011
164	0xbda11d39	-0.07866902
165	0x3d9fd6e4	0.07804659
166	0x3d77b99b	0.06047974
167	0x3c265c2f	0.010153814
168	0xbcc868c5	-0.02446402
169	0xbd733776	-0.059379064
170	0xbd7f9148	-0.06239441
171	0xbbd6cdc0	-0.006555289
172	0xbd13fbbc	-0.036128744
173	0xbd061c56	-0.032741867
174	0xbad94a2a	-0.0016577889
175	0x3ceef72d	0.029170597
176	0x3d5e585a	0.054283477
177	0xbdbc213e	-0.09186028
178	0xbc063f30	-0.008193776
179	0xbcf51dc1	-0.029921414
180	0xbd532f27	-0.05155864
181	0x3d154cef	0.036450323
182	0xbd94dec7	-0.07269054
183	0xbd5b1eb8	-0.053496093
184	0x3d8ccb81	0.06874753
185	0xbd57b67f	-0.052664276
186	0x3d931cd7	0.07183235
187	0xbdb4a58b	-0.08820637
188	0x3cf548fb	0.029942026
189	0xbd773869	-0.06035653
190	0xbd65947a	-0.0560498
191	0x3b78379b	0.003787494
192	0x3cab1241	0.020882728
193	0xbda3793d	-0.07982109
194	0xbb9c5a80	-0.0047715306
195	0xbd157bb3	-0.036494922
196	0xbd1b2445	-0.037876386
197	0x3d79b68f	0.060965117
198	0xbb0be5d3	-0.0021346703
199	0x3d80aad5	0.062825836
200	0xbcec18a8	-0.02882035
201	0x3d34da4f	0.044153508
202	0xbd96e681	-0.07368184
203	0x3d008f5b	0.031386714
204	0xbd145473	-0.03621335
205	0x3bddae6c	0.0067651775
206	0xbd06d9a0	-0.032922387
207	0xbbaa9090	-0.0052052215
208	0x3d812d70	0.06307495
209	0xbc2c0090	-0.010498181
210	0xbd7d2a7a	-0.061808087
211	0xba29f63a	-0.0006483529
212	0xbdd1903f	-0.10232591
213	0xbda73abe	-0.08165501
214	0x3bb53f96	0.0055312617
215	0x3b0538ae	0.0020327973
216	0xbcb08711	-0.02154878
217	0x3d854744	0.065077335
218	0x3d23897a	0.03992603
219	0x3d4348dd	0.04767691
220	0x3d97a04a	0.074036196
221	0xbcdfad2a	-0.02730425
222	0x3d4e28b2	0.05033178
223	0xbd9ea019	-0.0774538
224	0xbd776b32	-0.060404964
225	0x3dac2731	0.08405913
226	0xbdbde540	-0.092722416
227	0xbd37f53d	-0.04491161
228	0x3d83aa26	0.064289376
229	0x3da01223	0.07815959
230	0xbd1affd7	-0.037841644
231	0xbd599aaa	-0.053126015
232	0x3bf6186e	0.0075102365
233	0x3d49bc96	0.049252115
234	0xbd729562	-0.059224494
235	0x3d6206ab	0.05518214
236	0xbba3d64e	-0.0049999123
237	0xbca9b30b	-0.020715257
238	0x3d6fd6fd	0.05855464
239	0xbd9843d7	-0.074348144
240	0x3c38bd1b	0.011275555
241	0xbd8d9dea	-0.06914885
242	0xbd40ac55	-0.04703935
243	0x3d42cf50	0.04756099
244	0xbd6927aa	-0.056922592
245	0xbcfd9172	-0.030953143
246	0x3bdc88cc	0.0067301746
247	0x3c3624ec	0.011117201
248	0x3c3c3eda	0.011489594
249	0x3d98337d	0.074316956
250	0x3ca5113e	0.020149823
251	0xbc4bcdfd	-0.012439248
252	0x3d5fdfdc	0.05465685
253	0x3d9c9247	0.07645088
254	0x3cd37674	0.025813319
255	0xbd30a781	-0.043128494

network.2.bias f4 [128]
0	0x3dd45d9f	0.10369419
1	0x3d3685d8	0.044561237
2	0xbc8a7bc9	-0.016904728
3	0xbd3fe2ff	-0.04684734
4	0x3da10007	0.07861333
5	0x3daf88bf	0.08571004
6	0x3d076d13	0.033063006
7	0xbdb4cd5c	-0.08828232
8	0x3d88e08e	0.066834554
9	0xbdaa16d3	-0.083051346
10	0xbd973743	-0.07383587
11	0xbbc1cee5	-0.0059145563
12	0x3d7b1970	0.061303556
13	0x39e05a00	0.00042791665
14	0xbca78f1b	-0.02045398
15	0x3c7c6004	0.015403751
16	0xbd77393d	-0.06035732
17	0xbd0656fc	-0.0327978
18	0x3d47958b	0.0487266
19	0xbd6c997c	-0.05776356
20	0xbcadc1d2	-0.021210585
21	0x3d87180d	0.06596384
22	0xbbc5e44d	-0.0060391785
23	0x3d092673	0.033483934
24	0xbd0611a7	-0.03273168
25	0x3c056da5	0.008143817
26	0x3ce0c107	0.027435793
27	0x3d87cc16	0.06630723
28	0xbd99b588	-0.075053275
29	0xbcf2cc79	-0.029638516
30	0xbca68fb3	-0.020332193
31	0x3d445d20	0.047940373
32	0xbd71ba4b	-0.059015553
33	0x3d82001b	0.06347676
34	0x3d74cb7a	0.059764363
35	0xbc589fb3	-0.013221669
36	0x3da703a8	0.08154994
37	0x3c717a3f	0.014738618
38	0xbc8ab05f	-0.016929803
39	0x3ae96611	0.0017806907
40	0x3cf1f6f4	0.029536702
41	0xbc072fb2	-0.008251118
42	0x3d620314	0.055178717
43	0xbd6660f2	-0.056244798
44	0x3dcaf38c	0.09909734
45	0xbcaefa7a	-0.02135967
46	0xbb19d216	-0.0023471168
47	0x3d6746d0	0.056464016
48	0xbb18b257	-0.0023299658
49	0x3cb42308	0.02198936
50	0x3ce2fcf9	0.027708517
51	0xbdb4391d	-0.08799956
52	0xbdac1477	-0.08402341
53	0x3d8f0e85	0.06985191
54	0x3c981b26	0.018567633
55	0x3dd28ce8	0.10280782
56	0xbc4afb7b	-0.012389059
57	0xbd92679a	-0.07148667
58	0xbd6cd583	-0.05782081
59	0xbdaa38e1	-0.0831163
60	0xbc1dbdb0	-0.009627745
61	0x3c6fce3f	0.014636575
62	0x3da38418	0.07984179
63	0xbd9a25c9	-0.07526738
64	0x3d7b60bf	0.06137156
65	0xbd840eb0	-0.06448114
66	0x3dc90f77	0.09817403
67	0x3c85dd5d	0.016340906
68	0xbcddc767	-0.027072622
69	0x3c6b94bd	0.014378724
70	0x3bfc7748	0.007704649
71	0x3c45142a	0.012028733
72	0xbd22da76	-0.03975912
73	0xbd99cd7a	-0.07509895
74	0xbd1ff6b7	-0.039053645
75	0xbd9b7834	-0.07591286
76	0xbd8a804e	-0.067627534
77	0x3d71dba8	0.05904737
78	0x3d22773b	0.03966449
79	0x3c1874bc	0.009305175
80	0x3cc7cb90	0.024389058
81	0x3c7ea1dc	0.01554152
82	0xbd03ce3e	-0.03217911
83	0x3cbba50d	0.02290585
84	0xbd971892	-0.07377733
85	0x3d5e4124	0.05426134
86	0x3d69ad86	0.05705025
87	0xbd160850	-0.03662902
88	0x3d8c2189	0.06842334
89	0xbcec3606	-0.028834354
90	0x3d71c3ae	0.059024505
91	0x3dc33ac4	0.09532693
92	0xbd9be830	-0.076126456
93	0xbce33eea	-0.02773996
94	0x392210c6	0.00015455773
95	0x3ca8d5f9	0.020609843
96	0xbcb06c88	-0.021536127
97	0x3d884026	0.0665286
98	0x3d3f8618	0.04675874
99	0x3c92cca4	0.017919846
100	0xbd6b880c	-0.05750279
101	0x3d891abb	0.066945516
102	0x3c2d1d07	0.010566003
103	0x3d20f608	0.039297134
104	0xbd96bedf	-0.073606245
105	0x3d06a7a5	0.032874722
106	0x3d785f7b	0.060637932
107	0x3da1ab9c	0.0789406
108	0x3ce82b5f	0.028340993
109	0x3d241cb2	0.04006643
110	0x3cbaad7a	0.022787798
111	0x3d8c8924	0.06862095
112	0x3cacd98a	0.021099824
113	0x3d24268d	0.040075827
114	0x3d787408	0.06065753
115	0xbcbf101c	-0.023323111
116	0x3d4bf1cd	0.049791146
117	0xbda22ae2	-0.079183355
118	0x3bc87fa2	0.0061187306
119	0xbd3a9dca	-0.045560636
120	0x3dcb9209	0.09939963
121	0x3cd3645a	0.025804687
122	0xbdb4230e	-0.08795749
123	0x3c4eef7e	0.012630342
124	0xbcefaa2c	-0.029255949
125	0x3d0adeaa	0.033903755
126	0x3c9d6a33	0.019215679
127	0x3db4c6bc	0.08826968

network.4.weight f4 [8, 128]
0	0x3c029fa7	0.007972634
1	0xbd83ab4d	-0.064291574
2	0x3da0b787	0.07847505
3	0xbcf8c5ca	-0.03036775
4	0xbd94d1c9	-0.07266576
5	0xbb88bb8e	-0.004172749
6	0xbd29df4f	-0.04147273
7	0xbd21000a	-0.039306678
8	0x3cd591b8	0.02607046
9	0x3c398f3d	0.011325655
10	0xbda24c15	-0.07924668
11	0xbd8ce3f8	-0.06879419
12	0x3d0b34b1	0.033985797
13	0xbd3843bf	-0.044986483
14	0x3cb2d83c	0.021831624
15	0xbd68274f	-0.056678113
16	0xbccdced7	-0.025123043
17	0xbcb8c471	-0.022554608
18	0xbd94a76a	-0.07258494
19	0x3d9ed84b	0.07756098
20	0x3d39b34f	0.045337018
21	0xbd33c911	-0.043892924
22	0x3ba215d7	0.004946451
23	0x3c520149	0.012817689
24	0xbdb1458b	-0.086558424
25	0xbda5f025	-0.081024446
26	0x3ce3610e	0.02775624
27	0x3d0efc7a	0.03490875
28	0xbd55c991	-0.05219418
29	0x3d9cbabd	0.07652805
30	0x3d3fc20a	0.04681591
31	0x3c574e72	0.013141261
32	0xbd8b177e	-0.0679159
33	0x3d13d25a	0.03608928
34	0xbdb00db0	-0.08596361
35	0x3d0511f2	0.032487817
36	0xbd073fbd	-0.03301977
37	0xba8dd434	-0.0010820688
38	0x3d1df75d	0.038565982
39	0x3d77c17d	0.06048726
40	0xbd3c18e2	-0.045922168
41	0xbd80808c	-0.06274518
42	0x3da895e6	0.08231716
43	0xbcdbc4f4	-0.026827313
44	0x3d1d071d	0.038336862
45	0x3c48149d	0.012211946
46	0x3da7175a	0.08158751
47	0x3d248bc4	0.040172353
48	0x3d973e88	0.07384974
49	0x3d094acd	0.0335186
50	0x3d855d62	0.06511952
51	0xbbaf5c80	-0.005351603
52	0xbd81e8f4	-0.063432604
53	0xbdbc152a	-0.09183724
54	0xbd2286be	-0.03967928
55	0xbc16dd7b	-0.0092080785
56	0x3d20e051	0.039276425
57	0x3c10b6bf	0.008832633
58	0x3c64dd10	0.013968721
59	0xbce466ca	-0.027881045
60	0x3d93ed65	0.07223014
61	0x3d709c52	0.05874283
62	0xbdae735d	-0.085180975
63	0x3ce685fc	0.02814006
64	0xbc7f4ac4	-0.01558179
65	0xbd833bd4	-0.06407896
66	0x3d31623b	0.04330657
67	0xbb33833d	-0.0027391457
68	0x3c84b8cf	0.016201405
69	0xbd515d85	-0.051114578
70	0x3d46d846	0.0485461
71	0x3d746a81	0.059671883
72	0xbc7db464	-0.015484903
73	0x3c3517b0	0.011053011
74	0xbd52667a	-0.05136726
75	0x3da68ca0	0.08132291
76	0x3d9c56f6	0.07633774
77	0xbc8ebcb2	-0.017423961
78	0x3d4e0d54	0.05030568
79	0xbd5b4d05	-0.05354025
80	0xbd86590f	-0.06559955
81	0x3d879215	0.0661966
82	0xbdb58143	-0.08862545
83	0x3d9c180e	0.076217756
84	0xbce0ca06	-0.027440082
85	0xbcee6b8b	-0.029104015
86	0x3d278b05	0.040904064
87	0xbd223847	-0.03960445
88	0xbd870aa7	-0.06593829
89	0x3d1ac31e	0.037783735
90	0xbd897c99	-0.06713218
91	0xbd4cda95	-0.050013144
92	0xbc1da73c	-0.009622391
93	0x3d5c11b0	0.053727806
94	0xbc5256dc	-0.012838092
95	0x3c104a7a	0.008806819
96	0xbdb0d0af	-0.08633553
97	0xbcad6be3	-0.021169608
98	0x3d5571ff	0.05211067
99	0xbb9c4650	-0.004769124
100	0x3d8febf1	0.07027424
101	0xbd01533c	-0.03157352
102	0x3da07307	0.0783444
103	0xbd5e047f	-0.054203507
104	0x3d8237dd	0.06358311
105	0xbd94f0b9	-0.07272477
106	0x3d88fa6c	0.06688389
107	0xbd325095	-0.04353388
108	0x3d657928	0.056023747
109	0xbd96a0a0	-0.073548555
110	0x3cce8981	0.025212051
111	0x3d31d376	0.043414555
112	0xbd140de8	-0.036146075
113	0xbc8bddfc	-0.017073624
114	0xbcc28285	-0.023743877
115	0x3cd07e9a	0.025450993
116	0xbd46564e	-0.04842215
117	0xbcccc7d9	-0.024997639
118	0xbd8f7126	-0.07004003
119	0x3cabc1f8	0.020966515
120	0xbd224dd6	-0.03962501
121	0x3d3c7573	0.046010446
122	0xbd635302	-0.055499084
123	0x3cd7e888	0.026355997
124	0x3da382a1	0.079839
125	0xbc8a748c	-0.016901277
126	0xb9df3e6c	-0.00042580382
127	0x3d6d68fb	0.057961445
128	0x3dd5513e	0.10415886
129	0xbd5427fc	-0.051795945
130	0x3d1c326c	0.038134024
131	0x3d68daa2	0.05684913
132	0x3c7825da	0.015145743
133	0x3dcfdffe	0.10150145
134	0x3b929a92	0.0044739926
135	0x3d09d104	0.0336466
136	0x3dea438f	0.11438667
137	0xbcd85b33	-0.026410675
138	0x3de00cde	0.10939954
139	0x3d7853fb	0.060626965
140	0xbd792a60	-0.060831428
141	0xbd71bea8	-0.059019715
142	0xbcea5d77	-0.02860902
143	0x3d5b5691	0.053549353
144	0xbc5a2ebc	-0.013316806
145	0x3d251543	0.04030348
146	0xbbae33a7	-0.005316216
147	0x3c2e6f98	0.010646723
148	0xbd95cb19	-0.073141284
149	0x3d8f50fa	0.06997867
150	0x3d3218e6	0.043480776
151	0xbcc21f10	-0.023696452
152	0xbbe8c7ff	-0.0071039195
153	0x3db616a0	0.08891034
154	0xbcc9401a	-0.024566699
155	0x3d2c4daf	0.042066272
156	0xb9cd3b00	-0.00039144605
157	0xbd2fe104	-0.0429392
158	0xbd88ecf7	-0.066858225
159	0x3ce1ec83	0.027578598
160	0xbcae53d6	-0.02128021
161	0xbd3dd6bd	-0.04634737
162	0xbd60e2f4	-0.05490394
163	0x3d4e39ab	0.050347965
164	0x3d26db33	0.04073639
165	0x3d11fb6a	0.035640158
166	0xbd4159d1	-0.047204796
167	0x3d8028ef	0.062578075
168	0x3d8a0ada	0.06740351
169	0xbce2b81d	-0.027675683
170	0x3d882d37	0.06649249
171	0x3c9b2c0c	0.018941902
172	0x3dc91713	0.09818854
173	0x3dbc0574	0.091807276
174	0x3d8dd33c	0.069250554
175	0x3dc39c59	0.09551305
176	0xbd76ddf4	-0.060270265
177	0xbc75619a	-0.014976883
178	0x3d250b42	0.04029394
179	0xbae37600	-0.0017353892
180	0xbdad9a84	-0.08476737
181	0x3c09ea02	0.008417608
182	0x3dcc7e91	0.09985078
183	0x3a9de33b	0.0012045869
184	0xbd6cc8b4	-0.057808593
185	0xbd58cc65	-0.0529293
186	0xbd2fb669	-0.04289857
187	0xbd61c1e1	-0.055116538
188	0xbd877976	-0.06614964
189	0xbd77d12c	-0.060502216
190	0x3d220830	0.03955859
191	0xbcf4d049	-0.029884474
192	0x3b33891b	0.0027394954
193	0xbdb099e3	-0.086231016
194	0x3dd8e35e	0.10590242
195	0xbd7d1457	-0.061786976
196	0x3d89c296	0.067265674
197	0x3d76e665	0.060278315
198	0xbd7ca9a1	-0.06168521
199	0xbd6d2b6f	-0.05790275
200	0xbda60850	-0.08107054
201	0x3d1197da	0.035545208
202	0x3d24297f	0.040078636
203	0x3d918efe	0.07107352
204	0x3c0a7e03	0.008452895
205	0x3d944f8a	0.07241733
206	0xbc3ec49c	-0.011643555
207	0xbd9bc102	-0.07605173
208	0x3d347a70	0.044062078
209	0x3daa9c99	0.0833065
210	0x3daeb1e6	0.08530025
211	0xbd76459a	-0.06012497
212	0xbc3aacea	-0.011393765
213	0x3c9e5db4	0.01933179
214	0xbcbefa5f	-0.023312746
215	0xbd76abcd	-0.060222436
216	0xbc534390	-0.012894526
217	0xbd4af621	-0.049551133
218	0xbd626610	-0.055273116
219	0x3dad6838	0.08467144
220	0xbdaf1b2a	-0.08550103
221	0xbd2e500d	-0.04255681
222	0x3cd67226	0.026177477
223	0x3dc8d666	0.09806518
224	0x3bb3bdb3	0.0054852604
225	0xbd878f6a	-0.06619151
226	0x3de50ca6	0.11184053
227	0xbdb3c671	-0.08778084
228	0xbd8fd79d	-0.07023547
229	0xbbd0295d	-0.006352587
230	0x3d457333	0.048205566
231	0x3da6e70f	0.0814954
232	0xbdb10d7a	-0.086451486
233	0x3d724898	0.059151262
234	0x3d675542	0.056477793
235	0x3d552a6f	0.05204242
236	0x3d8f1381	0.06986142
237	0xbd52eca7	-0.05149522
238	0xbd911b95	-0.07085339
239	0xbcb64fb4	-0.022254802
240	0x3d95370a	0.072858885
241	0x3dedc495	0.11609761
242	0x3c7874d9	0.015164577
243	0xbd7f642f	-0.062351402
244	0xbd677b89	-0.056514297
245	0xbd8e92b1	-0.06961573
246	0xbda5e93c	-0.081011266
247	0xbda7dd18	-0.08196467
248	0x3c90c8fa	0.017673958
249	0x3d9f2b5c	0.07771942
250	0x3d9a2c1d	0.07527945
251	0x3d0c652d	0.034276176
252	0xbd7740a7	-0.06036439
253	0xbd281e18	-0.041044325
254	0xbc02a432	-0.0079737175
255	0x3d9e362a	0.07725175

network.4.bias f4 [8]
0	0xbdb7da6e	-0.08977209
1	0xbc45cfbe	-0.012073455
2	0xbc04c23d	-0.008102951
3	0x3d252d2a	0.040326275
4	0xbd8521db	-0.06500598
5	0x3d044668	0.032293707
6	0x3d3f9c1f	0.046779748
7	0x3d19d6ef	0.037558492

exp_avg f4 [128, 26]
0	0xbc20f90e	-0.009825004
1	0xba7cd63e	-0.00096449617
2	0xbc0cc84e	-0.008592678
3	0x3aee4d72	0.001818104
4	0x3b2e536e	0.002660002
5	0xbcc117aa	-0.023570854
6	0xbce7697c	-0.028248541
7	0xbda2c82c	-0.07948336
8	0xbcb4ce12	-0.022070918
9	0xbca39006	-0.019966137
10	0xbd72fc16	-0.05932244
11	0xbd6b6edc	-0.05747877
12	0xbaebfba2	-0.001800407
13	0xbd8ff21b	-0.070286
14	0xbd779074	-0.060440496
15	0xbd28df29	-0.041228447
16	0xbd51de9c	-0.051237687
17	0xbdaddf3b	-0.084898435
18	0xbdab7f39	-0.08373875
19	0xbd9d1e01	-0.076717384
20	0xbd9a8252	-0.07544388
21	0xbd4a7570	-0.049428403
22	0xbd40c1ba	-0.047059752
23	0xbca4e6b2	-0.020129535
24	0xbd4b6482	-0.0496564
25	0xbd49af0c	-0.049239203
26	0xbcc02982	-0.023457292
27	0xbc3d2806	-0.011545187
28	0xbcb3c7f9	-0.02194594
29	0xbc66d03b	-0.014087732
30	0xbc0c829e	-0.008576063
31	0xbd57d524	-0.0526935
32	0xbd6ba006	-0.057525657
33	0xbdcc64a4	-0.09980133
34	0xbd4db87e	-0.050224774
35	0xbd4fa837	-0.05069753
36	0xbdbab49a	-0.09116478
37	0xbd8c0390	-0.06836617
38	0xbcbce377	-0.023057682
39	0xbdbada10	-0.09123623
40	0xbd8db2b6	-0.06918852
41	0xbdaf630f	-0.08563816
42	0xbd5424db	-0.05179296
43	0xbe0506e0	-0.12990904
44	0xbdfe3ef4	-0.12414351
45	0xbdf56ac2	-0.11983253
46	0xbd9a0bdc	-0.07521793
47	0xbd833ada	-0.064077094
48	0xbd7b352e	-0.061330013
49	0xbce7233f	-0.028215049
50	0xbd83ccb2	-0.06435527
51	0xbd82f705	-0.063947715
52	0xbc3e0f2f	-0.0116003
53	0xbbce3180	-0.006292522
54	0xbc3f5f50	-0.011680439
55	0xbbb18e6a	-0.0054185884
56	0xbbac2334	-0.00525322
57	0xbcb0b06d	-0.021568501
58	0xbcc8b2ea	-0.024499375
59	0xbd24f2a6	-0.04027047
60	0xbca14086	-0.019684087
61	0xbc9fe2d6	-0.019517343
62	0xbcf895c0	-0.030344844
63	0xbd00953e	-0.03139233
64	0xbc16a6e8	-0.009195067
65	0xbd0e5c26	-0.03475585
66	0xbcc4d88b	-0.024029037
67	0xbcd11532	-0.025522802
68	0xbc8068b2	-0.015674923
69	0xbd4f618e	-0.050630145
70	0xbd40f5f9	-0.047109578
71	0xbd17d4fe	-0.03706836
72	0xbd0bd5eb	-0.034139555
73	0xbcc839d3	-0.024441635
74	0xbcc0e6af	-0.023547499
75	0xbc30744a	-0.010769913
76	0xbcc8f030	-0.024528593
77	0xbcc795ec	-0.02436348
78	0xbc719f4c	-0.014747452
79	0xbc24007b	-0.01000988
80	0xbc909a55	-0.017651716
81	0xbc46dadf	-0.012137144
82	0xbc136421	-0.008996041
83	0xbd2c9b40	-0.042140245
84	0xbd38deb3	-0.045134258
85	0xbdc59599	-0.09647674
86	0xbd2dd2b2	-0.042437263
87	0xbd2f6a41	-0.04282594
88	0xbd9b397e	-0.07579325
89	0xbd9fe5d6	-0.078075096
90	0xbc8fcd67	-0.017553998
91	0xbdb10d2a	-0.08645089
92	0xbd8e4bb6	-0.069480345
93	0xbd8d45c9	-0.06898076
94	0xbd80373f	-0.06260537
95	0xbdd3fee2	-0.103513494
96	0xbdea8728	-0.1145156
97	0xbdcad4dc	-0.09903881
98	0xbdaefdaa	-0.08544476
99	0xbd77f9ea	-0.06054107
100	0xbd6ff122	-0.05857957
101	0xbcda362b	-0.026637157
102	0xbd7af73b	-0.061270934
103	0xbd7a2076	-0.061066113
104	0x00000000	0.0
105	0x00000000	0.0
106	0x00000000	0.0
107	0x00000000	0.0
108	0x00000000	0.0
109	0x00000000	0.0
110	0x00000000	0.0
111	0x00000000	0.0
112	0x00000000	0.0
113	0x00000000	0.0
114	0x00000000	0.0
115	0x00000000	0.0
116	0x00000000	0.0
117	0x00000000	0.0
118	0x00000000	0.0
119	0x00000000	0.0
120	0x00000000	0.0
121	0x00000000	0.0
122	0x00000000	0.0
123	0x00000000	0.0
124	0x00000000	0.0
125	0x00000000	0.0
126	0x00000000	0.0
127	0x00000000	0.0
128	0x00000000	0.0
129	0x00000000	0.0
130	0xbc3d67e8	-0.011560418
131	0xbc06069f	-0.0081802895
132	0xbc587e78	-0.013213746
133	0xbc364301	-0.011124373
134	0xbc1d2fc3	-0.009593907
135	0xbcd9dd6e	-0.026594844
136	0xbcd34dce	-0.025793936
137	0xbd411441	-0.047138456
138	0xbcc841c0	-0.024445415
139	0xbcd355b1	-0.025797697
140	0xbd244cd8	-0.040112346
141	0xbd26f6c0	-0.040762663
142	0xbc76f07f	-0.015071987
143	0xbd33f604	-0.04393579
144	0xbd08d36c	-0.033404753
145	0xbd0ce7dc	-0.034400806
146	0xbcee2516	-0.029070418
147	0xbd6babf2	-0.057537027
148	0xbd7b7bbc	-0.0613973
149	0xbd3f89b5	-0.046762187
150	0xbd18a7d6	-0.037269436
151	0xbcfebd5a	-0.03109615
152	0xbcf72f5c	-0.03017395
153	0xbc660eb7	-0.014041594
154	0xbd000366	-0.03125324
155	0xbcff2268	-0.031144336
156	0xb976ad78	-0.0002352501
157	0x3b8cd81b	0.0042982227
158	0x3b8a5de6	0.0042226193
159	0x3a32f1da	0.00068262
160	0x3b1d1b30	0.0023972504
161	0x3c2820d4	0.010261733
162	0x3bceaa9a	0.0063069584
163	0x3cbd2131	0.023087116
164	0x3c0d1e83	0.008613232
165	0x3c0719d4	0.008245904
166	0x3ccf834d	0.025331164
167	0x3d217732	0.039420314
168	0x3b75e14b	0.0037518318
169	0x3cf53482	0.029932264
170	0x3ccb5292	0.024819646
171	0x3cb34106	0.021881592
172	0x3d3c69f5	0.045999486
173	0x3d0ae0d8	0.033905834
174	0x3c8c58ca	0.017132182
175	0x3d1db69a	0.03850422
176	0x3d24f16e	0.040269308
177	0x3cb8982a	0.022533495
178	0x3cb9b84e	0.022670891
179	0x3c36256f	0.011117323
180	0x3cb0c0f6	0.021576386
181	0x3cb1b867	0.021694375
182	0xbca15db0	-0.019697994
183	0x3aeae12c	0.001791989
184	0xbc4d7c61	-0.012541861
185	0x3bda0c88	0.006654326
186	0x3bf924ad	0.007603249
187	0xbd16d72a	-0.03682629
188	0xbd4f949e	-0.05067884
189	0xbdc95058	-0.098297775
190	0xbd132d81	-0.035932068
191	0xbcf64519	-0.030062245
192	0xbd62c00a	-0.055358924
193	0xbd7cae2f	-0.061689552
194	0x39aa1310	0.0003243913
195	0xbd91966a	-0.07108767
196	0xbd1ec426	-0.03876128
197	0xbd425e0a	-0.047452964
198	0xbcb69cc8	-0.022291556
199	0xbdf29ec4	-0.118466884
200	0xbdc36ec8	-0.09542614
201	0xbd9d9ae6	-0.0769556
202	0xbdbd3745	-0.092390575
203	0xbd4b98f0	-0.0497064
204	0xbd418c51	-0.047252957
205	0xbca5d630	-0.020243734
206	0xbd4b8f57	-0.049697246
207	0xbd49633f	-0.049166914
208	0x3b700d6e	0.0036629098
209	0x3acf4da2	0.0015815983
210	0x3b3dc344	0.0028955499
211	0x3b0699b4	0.0020538392
212	0x3b0deade	0.0021654884
213	0xbb2e2660	-0.0026573166
214	0xbba3c488	-0.0049977936
215	0xbcc29918	-0.023754641
216	0xbbba56f2	-0.005686634
217	0xbbc59ec0	-0.0060308874
218	0xbc66a375	-0.014077057
219	0xbcd0e8d4	-0.025501646
220	0x3b0b9e11	0.0021303932
221	0xbcad99ce	-0.021191504
222	0xbca444c8	-0.020052329
223	0xbc7c4ab2	-0.015398668
224	0xbca29f3c	-0.01985132
225	0xbc904b98	-0.01761417
226	0xbcdf7c4a	-0.027280945
227	0xbcb3556c	-0.021891318
228	0xbcb3b85f	-0.0219385
229	0xbc7565fa	-0.014977926
230	0xbc77295a	-0.015085543
231	0xbbd7105d	-0.00656323
232	0xbc772704	-0.015084986
233	0xbc789880	-0.015173078
234	0xbc989ac4	-0.018628486
235	0xbbbfa149	-0.005848084
236	0xbc99a247	-0.018754138
237	0xbbbe5058	-0.0058079176
238	0xbb7a10e5	-0.0038157043
239	0xbd3832da	-0.04497037
240	0xbd43593e	-0.04769253
241	0xbdee8948	-0.11647278
242	0xbd29aaee	-0.041422777
243	0xbd1ee070	-0.03878826
244	0xbdb1e482	-0.086861625
245	0xbdc7c434	-0.0975422
246	0xbc57cee6	-0.013171887
247	0xbdd7d08b	-0.10537823
248	0xbda378e0	-0.079820395
249	0xbd8acb9d	-0.067771174
250	0xbd940b7a	-0.072287515
251	0xbe089539	-0.13338174
252	0xbe0d31e6	-0.13788566
253	0xbdde2b44	-0.10848096
254	0xbde11443	-0.10990193
255	0xbd98fc5a	-0.07470007

exp_avg_sq f4 [128, 26]
0	0x3a99a4e1	0.0011722111
1	0x3a87de9f	0.0010366029
2	0x3a998c59	0.00117148
3	0x3a9da324	0.0012026769
4	0x3a8715b6	0.0010306153
5	0x3b6d4705	0.003620566
6	0x3b82e378	0.0039944015
7	0x3c12075e	0.008912889
8	0x3b6a2d71	0.0035732652
9	0x3b690fa4	0.00355623
10	0x3bb12523	0.0054060384
11	0x3ba71817	0.0050993073
12	0x3ae6d3f0	0.001761077
13	0x3c06b710	0.008222356
14	0x3c259f58	0.010108791
15	0x3b8dd741	0.004328639
16	0x3c2489ce	0.010042621
17	0x3c20ba4f	0.009810044
18	0x3c1f8e09	0.009738454
19	0x3c2761be	0.010216175
20	0x3c28992e	0.010290427
21	0x3b7498ed	0.0037322596
22	0x3b46a32c	0.003030966
23	0x3a1b1711	0.0005916218
24	0x3b86e4ce	0.004116631
25	0x3b83e7fc	0.0040254574
26	0x3b14588d	0.0022635788
27	0x3b1da271	0.0024053121
28	0x3b1a39c6	0.002353297
29	0x3b18180a	0.0023207688
30	0x3b1235f3	0.0022309988
31	0x3be3068a	0.0069282698
32	0x3c04ae2e	0.008098168
33	0x3cc6d7c0	0.0242728
34	0x3bdb6359	0.006695193
35	0x3bdbb093	0.006704399
36	0x3c71db21	0.014761717
37	0x3c4cc215	0.012497445
38	0x3b71f9ed	0.003692265
39	0x3cb52c8a	0.022115964
40	0x3ceb9d6c	0.028761588
41	0x3c2ad169	0.010425904
42	0x3cda6872	0.026661132
43	0x3cdc3c9a	0.026884366
44	0x3ce3b4ef	0.027796237
45	0x3cf3180a	0.029674549
46	0x3cd07896	0.025448125
47	0x3c1f8e8e	0.0097385775
48	0x3c0024cd	0.007821274
49	0x3ac9c5e7	0.0015394063
50	0x3c33e144	0.0109790005
51	0x3c2f07e5	0.010683035
52	0x39c65c2e	0.00037834182
53	0x39c7904a	0.00038063742
54	0x39c3a863	0.00037318756
55	0x39e0f258	0.0004290517
56	0x39af0dd1	0.00033388895
57	0x3abb3ce7	0.0014285118
58	0x3acfd126	0.0015855178
59	0x3b95a23c	0.004566459
60	0x3abc4945	0.0014365098
61	0x3ab7d9bb	0.0014026681
62	0x3b43f198	0.002989864
63	0x3b2af5a3	0.0026086352
64	0x3a21e7dd	0.0006176213
65	0x3b8cfba7	0.0043024602
66	0x3baea7cc	0.0053300615
67	0x3afb31a8	0.0019164579
68	0x3ba48f8b	0.0050219945
69	0x3ba2edc9	0.004972194
70	0x3bb34c78	0.0054717623
71	0x3bb372e1	0.005476341
72	0x3b9ff5a1	0.004881576
73	0x3afdf6d6	0.0019375931
74	0x3ad08adc	0.0015910524
75	0x39a6720b	0.00031746956
76	0x3b0c3276	0.0021392382
77	0x3b090ffc	0.0020914068
78	0x3ad1cc6c	0.0016006357
79	0x3acc0bfa	0.0015567534
80	0x3acb4c22	0.001551036
81	0x3af28da9	0.0018505353
82	0x3ad03a04	0.0015886431
83	0x3ba1ecd4	0.004941562
84	0x3bb9955f	0.0056635584
85	0x3c827469	0.01592465
86	0x3ba166ae	0.0049255705
87	0x3b9fb48f	0.004873819
88	0x3c22a141	0.009926141
89	0x3c14a654	0.009072859
90	0x3b291d2e	0.0025804746
91	0x3c7e6d48	0.015528984
92	0x3c99cae3	0.018773502
93	0x3bdceb79	0.0067419377
94	0x3c94dd8e	0.018172052
95	0x3c9e2f68	0.019309714
96	0x3c9d4090	0.019195825
97	0x3ca08cf7	0.019598467
98	0x3c975970	0.018475264
99	0x3bdc44d3	0.0067220717
100	0x3bb06901	0.005383611
101	0x3a8a3c31	0.0010546503
102	0x3bfb316c	0.0076658037
103	0x3bf36810	0.0074281767
104	0x00000000	0.0
105	0x00000000	0.0
106	0x00000000	0.0
107	0x00000000	0.0
108	0x00000000	0.0
109	0x00000000	0.0
110	0x00000000	0.0
111	0x00000000	0.0
112	0x00000000	0.0
113	0x00000000	0.0
114	0x00000000	0.0
115	0x00000000	0.0
116	0x00000000	0.0
117	0x00000000	0.0
118	0x00000000	0.0
119	0x00000000	0.0
120	0x00000000	0.0
121	0x00000000	0.0
122	0x00000000	0.0
123	0x00000000	0.0
124	0x00000000	0.0
125	0x00000000	0.0
126	0x00000000	0.0
127	0x00000000	0.0
128	0x00000000	0.0
129	0x00000000	0.0
130	0x39f85ff9	0.0004737375
131	0x39e3f3ee	0.00043478556
132	0x39e64648	0.00043921382
133	0x3a041f22	0.00050400395
134	0x39ced698	0.00039451267
135	0x3abb6fd0	0.001430029
136	0x3ac815ab	0.0015265247
137	0x3b873a96	0.004126857
138	0x3ab98ff4	0.0014157281
139	0x3ab6a811	0.0013935586
140	0x3b1f58b2	0.002431434
141	0x3afd7e46	0.001934
142	0x3a408b09	0.00073449366
143	0x3b6b936e	0.003594603
144	0x3b99e11d	0.004696025
145	0x3ad99baa	0.0016602178
146	0x3b8262ed	0.003979078
147	0x3b943dbd	0.0045239613
148	0x3b9a8412	0.004715451
149	0x3b8f88a3	0.004380302
150	0x3b716cad	0.0036838457
151	0x3ad1946b	0.0015989667
152	0x3aa6189a	0.0012672127
153	0x397fe600	0.00024404377
154	0x3aea4082	0.0017872008
155	0x3ae43788	0.0017411569
156	0x39ef7778	0.00045674643
157	0x3a0dee25	0.00054142094
158	0x3a2745fa	0.0006380972
159	0x39d95eff	0.00041460243
160	0x3a0bd8be	0.00053347263
161	0x3a9c82b9	0.0011940814
162	0x3aa988aa	0.0012934406
163	0x3b6ae0b8	0.003583951
164	0x3aa094cc	0.0012251376
165	0x3a98def1	0.0011663121
166	0x3b2ef3db	0.0026695642
167	0x3b08c866	0.00208714
168	0x3a382e3a	0.0007025931
169	0x3b6220a1	0.0034504312
170	0x3b7dc745	0.003872351
171	0x3acf5aa5	0.0015819861
172	0x3bc20d76	0.005922015
173	0x3b8aaf8a	0.0042323517
174	0x3ba5f35e	0.005064412
175	0x3b762da1	0.0037563818
176	0x3b9c5a5f	0.0047715153
177	0x3acb1059	0.0015492543
178	0x3aa9516d	0.0012917944
179	0x398aa730	0.00026445976
180	0x3ae2499f	0.0017264372
181	0x3adc98f0	0.0016830247
182	0x3b74e363	0.0037366978
183	0x3b8038e2	0.003913031
184	0x3b88d62d	0.0041759224
185	0x3b8a0c11	0.004212864
186	0x3b78a222	0.0037938436
187	0x3c59b2ff	0.013287305
188	0x3c6d6374	0.0144890435
189	0x3d110969	0.035409365
190	0x3c5d263e	0.013497887
191	0x3c5594ed	0.013035995
192	0x3cb9ed8c	0.022696279
193	0x3cac0475	0.020998219
194	0x3bcb75bc	0.0062091034
195	0x3d09e349	0.03366402
196	0x3d27d827	0.040977623
197	0x3c8d64b0	0.017259926
198	0x3d258377	0.040408578
199	0x3d257ace	0.04040032
200	0x3d299e53	0.041410755
201	0x3d2cf361	0.04222429
202	0x3d20ec8b	0.039288085
203	0x3c78c175	0.0151828425
204	0x3c4d23d6	0.012520751
205	0x3b230198	0.0024872776
206	0x3c88a2cb	0.016679188
207	0x3c8589dc	0.016301088
208	0x39bf991d	0.00036544437
209	0x39d9998f	0.00041503875
210	0x39da0395	0.0004158287
211	0x39d75954	0.0004107455
212	0x39d13347	0.0003990179
213	0x3ad8e71b	0.0016548367
214	0x3ae83ba7	0.0017717973
215	0x3b913f23	0.0044325753
216	0x3ade7f1b	0.0016975136
217	0x3adfadcf	0.0017065349
218	0x3b4bcdca	0.0031098002
219	0x3b3788a8	0.0028005037
220	0x3a3e34ce	0.00072557933
221	0x3b9526dd	0.004551752
222	0x3bb199d4	0.005419949
223	0x3b04b3bb	0.002024873
224	0x3bbb08f1	0.005707853
225	0x3bc21451	0.005922832
226	0x3bb61713	0.00555695
227	0x3bbbb8b3	0.005728805
228	0x3bbabba9	0.0056986404
229	0x3b0460db	0.0020199332
230	0x3adcd574	0.0016848282
231	0x39af2495	0.00033405857
232	0x3b1316ff	0.0022444127
233	0x3b0f33c0	0.0021850914
234	0x3b0e36f9	0.0021700247
235	0x3afc5207	0.001925052
236	0x3b049e33	0.0020235896
237	0x3b0d1be2	0.0021531512
238	0x3ae3e27a	0.0017386221
239	0x3bd2472a	0.006417175
240	0x3becf9bb	0.0072319186
241	0x3ca9c7d3	0.020725166
242	0x3bd2b170	0.0064298436
243	0x3bcdfe7e	0.0062864413
244	0x3c501304	0.012699846
245	0x3c382092	0.011238234
246	0x3b3d017e	0.002884
247	0x3ca02368	0.019548133
248	0x3cc1b409	0.023645418
249	0x3c0fb605	0.008771424
250	0x3cb5b4a9	0.022180872
251	0x3cc7581b	0.024334004
252	0x3ccca951	0.02498308
253	0x3cbdb0ee	0.023155656
254	0x3cbe0a8e	0.023198392
255	0x3c0d53c5	0.008625929

exp_avg f4 [128]
0	0xbdcda302	-0.10040857
1	0xbe05772e	-0.13033745
2	0xbd4b5f12	-0.049651213
3	0xbdfcee3d	-0.12350128
4	0x00000000	0.0
5	0xbd808b29	-0.06276543
6	0x3d2f2583	0.042760383
7	0xbdcffb73	-0.10155382
8	0xbcf8004a	-0.030273575
9	0xbe1a273d	-0.1505403
10	0x3a62e6a0	0.00086555816
11	0xbd1e5b36	-0.038661204
12	0xbdd03df0	-0.10168064
13	0x3b895355	0.004190842
14	0x3d2a831f	0.041628953
15	0xbdca25b9	-0.09870476
16	0x3b21c994	0.00246868
17	0xbc865197	-0.016396327
18	0x00000000	0.0
19	0xbd5fc4e7	-0.05463114
20	0x00000000	0.0
21	0xbc1b21cf	-0.00946851
22	0xbccd22d8	-0.025041029
23	0xb7d6abbc	-2.5590758e-05
24	0x3d2a897c	0.04163502
25	0xbd957d56	-0.072992966
26	0xbd4f11f2	-0.050554223
27	0xbe18822e	-0.1489341
28	0xbc351744	-0.01105291
29	0x00000000	0.0
30	0x35d86f14	1.6125582e-06
31	0x00000000	0.0
32	0xbdeb6a08	-0.11494833
33	0xbdb8a16a	-0.09015162
34	0xbc202a22	-0.00977567
35	0xbc0df332	-0.008663939
36	0xbdbd31fe	-0.09238051
37	0xbb9b5793	-0.0047406643
38	0xbdb17158	-0.08664197
39	0xbd1bb776	-0.03801676
40	0xbd33ac55	-0.04386552
41	0xbde27e04	-0.11059192
42	0xb91d698e	-0.00015012009
43	0xbcefffa5	-0.029296705
44	0xbdeca85a	-0.11555548
45	0xbbc3201c	-0.0059547555
46	0xbd35cc1b	-0.044384103
47	0xba6fe3e1	-0.0009151083
48	0xbdef71a5	-0.11691598
49	0xbd822006	-0.06353764
50	0xbb5d1934	-0.0033736946
51	0xbbea757f	-0.00715512
52	0xbe44b52a	-0.19209734
53	0xbdea699c	-0.11445925
54	0x3b9efdc5	0.004852029
55	0xbe4b784e	-0.19870111
56	0xbdfbe57e	-0.122996315
57	0xbb3b430d	-0.00285739
58	0x3c5d336a	0.013501028
59	0xbde55252	-0.11197342
60	0xbddbc650	-0.107311845
61	0xbcfcd668	-0.030863956
62	0x3afe378e	0.0019395219
63	0xbd72aba5	-0.059245724
64	0xbe0e4eac	-0.13897198
65	0x3ca5a94b	0.020222327
66	0x2de5dc85	2.6132216e-11
67	0xbde51030	-0.11184728
68	0x3c93e4d5	0.018053452
69	0xbdbe39ae	-0.09288345
70	0xbe1037af	-0.14083742
71	0x3c2a09e0	0.010378331
72	0xb795c0ed	-1.7852022e-05
73	0xbdf53906	-0.11973767
74	0xbd734a22	-0.05939687
75	0xbb8402a1	-0.0040286337
76	0xbe03ea10	-0.12882257
77	0xbd367460	-0.044544578
78	0x331fc95e	3.7203215e-08
79	0x00000000	0.0
80	0xbdce1a6a	-0.10063632
81	0x381d4b2d	3.750173e-05
82	0xbb7560e0	-0.0037441775
83	0xbd94d885	-0.0726786
84	0xbe053052	-0.13006714
85	0x3ca52c5c	0.020162754
86	0x3b95e306	0.0045741824
87	0xbac3933a	-0.0014921196
88	0xbd5679db	-0.052362304
89	0xbcf8ef98	-0.030387685
90	0x00000000	0.0
91	0xbdf2e52a	-0.11860116
92	0xbce03b41	-0.027372004
93	0xbc7bcd4e	-0.015368773
94	0xbc9c18ac	-0.019054733
95	0xbdca91d6	-0.09891097
96	0x3d198d71	0.037488405
97	0x37fa0578	2.9804869e-05
98	0xbd7ac65c	-0.061224326
99	0xbdbb13e4	-0.09134653
100	0xbd8d9d46	-0.06914763
101	0x3d2ab8e5	0.041680235
102	0x3bec0ee1	0.007203922
103	0x3c1e4844	0.009660784
104	0xbd72e28d	-0.059298087
105	0x00000000	0.0
106	0xbde434a6	-0.111428544
107	0xbdd1b492	-0.10239519
108	0xbdf9d834	-0.121994406
109	0xba66e4fa	-0.0008807924
110	0xbd067df4	-0.032834962
111	0x00000000	0.0
112	0x3675be12	3.661848e-06
113	0x00000000	0.0
114	0x00000000	0.0
115	0xbda9a831	-0.08284033
116	0xbc5cd8bc	-0.013479408
117	0xbd34cb57	-0.044139232
118	0xbd02a149	-0.031892095
119	0xbda1cf3f	-0.07900857
120	0xbd8f10bc	-0.06985614
121	0x3cc156f7	0.023601038
122	0xb90aa6da	-0.00013222863
123	0xbbb771c1	-0.0055982773
124	0x3bf89660	0.0075862855
125	0x00000000	0.0
126	0x00000000	0.0
127	0xbdc27e58	-0.094967544

exp_avg_sq f4 [128]
0	0x3c8976e6	0.016780328
1	0x3d38df1a	0.04513464
2	0x3c0fdc35	0.008780529
3	0x3d01cf3d	0.03169178
4	0x00000000	0.0
5	0x3bf06234	0.0073359255
6	0x3be6bdfe	0.007041692
7	0x3d8cb3a9	0.06870205
8	0x3c183217	0.009289286
9	0x3d236808	0.039894134
10	0x3be8fbe5	0.0071101063
11	0x3ca9a4a9	0.020708399
12	0x3d911c51	0.07085479
13	0x39bf9a49	0.0003654531
14	0x3c4806ec	0.012208682
15	0x3d40eb2f	0.04709929
16	0x3b0131c2	0.0019713496
17	0x3a39ec5b	0.00070924097
18	0x00000000	0.0
19	0x3c4f9a6f	0.012671097
20	0x00000000	0.0
21	0x3b9ddddc	0.0048177075
22	0x3d81af41	0.06332255
23	0x38036737	3.132896e-05
24	0x3c0cdaa7	0.008597053
25	0x3c6d9966	0.014501905
26	0x3be5b7fe	0.007010459
27	0x3c8692c1	0.0164274
28	0x3d089365	0.03334369
29	0x00000000	0.0
30	0x36a44799	4.895916e-06
31	0x00000000	0.0
32	0x3d07c00e	0.033142142
33	0x3d84433a	0.06458135
34	0x3c15abb6	0.009135177
35	0x3a55221d	0.00081303885
36	0x3c6bfd5c	0.014403667
37	0x39ee5dd7	0.00045464814
38	0x3c90cf7b	0.01767706
39	0x3c3130c1	0.0108148465
40	0x3d29d4e7	0.041462805
41	0x3cb72c62	0.02236003
42	0x35b1e55a	1.3254278e-06
43	0x3a2c2c3d	0.00065678713
44	0x3d6c87ee	0.05774682
45	0x3c9c6eef	0.019095866
46	0x3c05afbd	0.008159575
47	0x3a81f11f	0.0009913779
48	0x3d057df4	0.03259082
49	0x3d2edccb	0.042691033
50	0x3b2c1cc1	0.0026262256
51	0x3b4707c3	0.0030369617
52	0x3d0081cf	0.031373795
53	0x3cec5915	0.028851071
54	0x3a18ba68	0.00058261165
55	0x3d077bdb	0.033077102
56	0x3d5b5c08	0.053554565
57	0x37e0855e	2.6764985e-05
58	0x3d358110	0.044312537
59	0x3d38a14f	0.04507571
60	0x3cb83239	0.022484886
61	0x3c37baf5	0.011214008
62	0x398772dd	0.00025834786
63	0x3d6fefea	0.05857841
64	0x3d2732f4	0.040820077
65	0x3bf2d0d4	0.007410148
66	0x30970dbd	1.0990601e-09
67	0x3cadb1c7	0.021202935
68	0x3b892f84	0.0041865725
69	0x3ca9401d	0.020660454
70	0x3cde80a6	0.027160954
71	0x3bffddb0	0.0078084096
72	0x367e502e	3.789562e-06
73	0x3db0b7d5	0.08628813
74	0x3cf5d1f5	0.030007342
75	0x3a858dc6	0.0010189347
76	0x3cbc7ddd	0.023009235
77	0x3d3c867b	0.046026688
78	0x37431afa	1.1629187e-05
79	0x00000000	0.0
80	0x3d1856ca	0.037192143
81	0x35d742f4	1.6038234e-06
82	0x3c3bc527	0.011460579
83	0x3c33cb71	0.010973797
84	0x3d2e04c9	0.042485032
85	0x3bd61f67	0.006534505
86	0x39ab351e	0.00032655237
87	0x3a134cfe	0.0005619078
88	0x3d1ab560	0.03777063
89	0x3d167502	0.03673268
90	0x00000000	0.0
91	0x3cbaeabd	0.02281701
92	0x3c660a61	0.01404056
93	0x3b2b86f5	0.002617297
94	0x3c7f5f0d	0.015586627
95	0x3c877125	0.016533444
96	0x3c8ee07c	0.017441027
97	0x36d2aa1f	6.2782924e-06
98	0x3c81ca7b	0.01584362
99	0x3d43c7bc	0.047797903
100	0x3ca28c81	0.019842388
101	0x3b6a6e24	0.0035771215
102	0x3ad13bf6	0.0015963304
103	0x3c1af532	0.009457873
104	0x3c491f18	0.01227548
105	0x00000000	0.0
106	0x3dab1d0d	0.0835515
107	0x3c7c41c2	0.015396537
108	0x3ce1c856	0.027561348
109	0x39b35bec	0.00034210028
110	0x3c8ea375	0.017411927
111	0x00000000	0.0
112	0x355ea418	8.294023e-07
113	0x00000000	0.0
114	0x00000000	0.0
115	0x3c2eb833	0.010664034
116	0x3a3adbf0	0.000712811
117	0x3d033e9b	0.032042127
118	0x3cede7cc	0.029041193
119	0x3ca93503	0.02065516
120	0x3c0db76c	0.008649688
121	0x3c8328dc	0.016010694
122	0x38b08f82	8.4190644e-05
123	0x39d4b477	0.00040570248
124	0x39307f32	0.00016832052
125	0x00000000	0.0
126	0x00000000	0.0
127	0x3cbc0294	0.022950448
