models/reinforce/reinforce_low_lr/final_model.pth (torch, 259454 bytes, 18 tensors)

network.0.weight f4 [128, 26]
000000 b6 a9 2f 3e 2c 08 4e 3e df 4e 05 3e cc 1d cb 3d
       0.17154583 0.20120305 0.13018368 0.09917793
000010 0a 80 f1 bd dd 6d cb 3d 7e e9 db 3d 06 94 e4 3c
       -0.11792 0.09933064 0.107378945 0.027902614
000020 aa da 88 3d 03 2b 41 3e 62 c6 2f 3e f9 ed 4c 3e
       0.06682332 0.18864064 0.17165521 0.20012654
000030 bb 33 17 be b1 02 ff bd 79 49 bd 3d a9 16 83 bd
       -0.14765827 -0.12451685 0.092425294 -0.064008065
000040 34 f5 e8 3d ac d1 b7 3d ac 19 83 bc 4f d6 5d bd
       0.11374894 0.089755386 -0.016003452 -0.05415946
000050 da fc 58 3e 9d a8 c1 bd c2 a9 54 3e 66 f5 b1 3d
       0.21190205 -0.094559886 0.20767882 0.08689384
000060 dc 86 65 bd 11 a8 9d bd 4f 10 35 be 41 47 8b bd
       -0.056036815 -0.07698072 -0.17682002 -0.068007
000070 25 76 f2 3d 4e 03 3d be 0e 3b 15 3e 77 22 2c be
       0.118389405 -0.18458292 0.14573309 -0.16810022
000080 8a 2e 41 3c ee 4a 19 3e 36 43 a7 3d fb 2b fa bd
       0.011790881 0.1496999 0.08167116 -0.1221542
000090 05 b6 0e 3e cd 8d 11 be 20 03 c3 3d 50 70 de 3c
       0.13936622 -0.14214249 0.095220804 0.027153164
0000a0 5f da 71 3d cd dc 23 3e 90 67 b2 3c 92 c0 c7 bd
       0.059046146 0.16002198 0.021777898 -0.09753527
0000b0 b5 fb f7 3d 82 d6 83 3d 03 19 56 3e 65 87 4f 3e
       0.12108556 0.064373985 0.20907979 0.20266493
0000c0 9a ae 85 3d 25 b8 e5 ba ea 92 9c 3d ba cf ec bd
       0.06527443 -0.0017526193 0.07645209 -0.11563058
0000d0 c7 5f 1e 3e 25 3e 15 3c 4c de 2c 3e 7e c7 22 be
       0.15466224 0.009109055 0.16881675 -0.15896413
0000e0 c1 0b 32 3e 17 83 0c 3e 79 37 8e 3c 8d 32 26 3e
       0.17387296 0.13721882 0.017360436 0.16230221
0000f0 de a6 0b be 9c df 10 3d 96 34 25 bd c4 db 5d 3e
       -0.13637874 0.0353695 -0.040333353 0.21665865
000100 78 a4 d6 3d b4 69 1e be 0c 99 54 3e 17 55 d1 3d
       0.10480589 -0.1547001 0.20761508 0.10221308
000110 f3 30 8e 3d ec 72 35 bd 39 ce 42 3e 4c d4 29 be
       0.0694293 -0.04429905 0.1902398 -0.16584891
000120 ee 30 99 bd 6a 82 1e 3e 47 c6 13 3e 58 1e ad 3d
       -0.07480036 0.15479437 0.14431106 0.08453053
000130 fc db e1 bc 0c e8 44 3e 06 2e 1f 3e 46 57 c6 bd
       -0.027570717 0.19229144 0.155449 -0.09684615
000140 7d 7e b8 3c 9e 8d d5 bd 49 e5 f9 3d 12 96 28 be
       0.022521252 -0.10427402 0.12201936 -0.16463497
000150 ad f1 d8 bd 20 1d 9a 3d c8 25 6b bd 8d 22 0a 3e
       -0.10592971 0.075250864 -0.057409078 0.13489743
000160 a5 18 8e bd b9 67 26 3c 26 e7 22 3e d5 d8 09 3e
       -0.06938294 0.010156565 0.15908489 0.13461621
000170 8c b6 cd 3d 87 eb 2d bd 3c 64 1a 3b e8 5b fa bb
       0.10044584 -0.042460945 0.002355828 -0.0076403506
000180 28 61 2b 3e 9d 9c 90 bd 87 79 90 3d 86 97 c2 3d
       0.16736281 -0.070611216 0.070544295 0.09501557
000190 eb eb a3 3d e6 31 31 3e 16 10 26 3e b3 f1 d5 3d
       0.08003982 0.17304191 0.16217074 0.10446491
0001a0 f0 72 2d bc 8e 20 f5 bd a0 e0 ae bb 92 1a 94 bd
       -0.010586485 -0.119691 -0.005336836 -0.072316304
0001b0 ac 1e 4b bd a8 26 3b bd af d6 45 be d6 27 c4 3d
       -0.049589798 -0.045691162 -0.19320177 0.095779106
0001c0 20 a4 17 3c f4 7a 75 3d 27 44 3b be a8 73 0a 3d
       0.009255439 0.05993171 -0.18287717 0.033801705
0001d0 6f 15 40 3e 07 09 1b 3e 84 8e 61 bd b4 79 33 bd
       0.18758176 0.15140162 -0.055067554 -0.043817237
0001e0 bd 5a 0a 3e ec d8 75 3d 7b b2 19 be b3 2c 92 bd
       0.13511176 0.060021326 -0.15009491 -0.07137432
0001f0 7c 23 0e be 38 61 8c bd b0 68 1d bc 2b 6e 1a be
       -0.13880724 -0.068544805 -0.009607479 -0.15081088
000200 35 f8 df bd e8 97 8f bc 68 82 9f bd 4e 43 c5 bd
       -0.109360136 -0.01752849 -0.07788545 -0.09631978
000210 88 0c 3a be e5 f4 45 3e d7 2c 12 3e 6e ef 45 3e
       -0.18168843 0.19331701 0.14274918 0.19329616
000220 49 58 08 be 5c e1 3c 3e 20 b7 43 3d 5d 80 6b bd
       -0.13314928 0.18445343 0.047782063 -0.057495464
000230 b8 57 ce 3c e5 f9 f7 bd 5f bf da 3d 2e 7c f6 3d
       0.025188312 -0.121082105 0.106810324 0.12035404
000240 ad dd eb 3d 5d e1 ec bd a4 13 98 bd e5 d1 28 3e
       0.11516891 -0.11566422 -0.07425621 0.16486318
000250 58 7d 6a bd 21 38 ab bd b1 20 c6 bd 13 43 9f 3c
       -0.057248443 -0.08360315 -0.09674204 0.019441163
000260 0f d1 4d 3e e5 5a 42 bd 09 ee f8 3d 80 f0 3c bb
       0.20099281 -0.047449965 0.121547766 -0.0028829873
000270 d5 2c 50 bc 27 83 7b 3d 91 62 f9 3d 21 ba 03 be
       -0.012706001 0.061404373 0.12177003 -0.12863971
000280 51 7a 00 3e 17 9d 89 bd b1 46 50 bd 0e 67 b7 3d
       0.1254666 -0.06719416 -0.050848667 0.08955203
000290 47 58 a5 3c 4f 8b 25 be 6c 01 f8 3d 6f 1e 79 3d
       0.020183695 -0.16166423 0.12109646 0.06082004
0002a0 42 bb 26 3e 33 aa 4f 3d e7 8d e7 bd 88 d1 0d be
       0.1628237 0.050699424 -0.113063626 -0.13849461
0002b0 8c 48 07 3e e7 72 5f bc e2 db b8 3d 40 1f e2 bd
       0.13211268 -0.013638235 0.09026314 -0.11041117
0002c0 7e 44 c4 3d 93 3f 95 bd 98 5e f6 bd 3f ff 2f 3d
       0.09583376 -0.072875164 -0.12029761 0.04296803
0002d0 16 85 05 bd e0 43 60 bd 09 a2 c1 3d 69 af 39 be
       -0.032597624 -0.05475223 0.09454734 -0.1813332
0002e0 c0 38 f3 bd 3f 10 51 3e e8 88 1c 3e 33 42 15 3d
       -0.118760586 0.20416354 0.152866 0.036440086
0002f0 69 26 4c 3e 60 a7 9f 3c 57 f4 64 3d f1 11 00 3b
       0.19936527 0.01948899 0.055897083 0.0019541944
000300 42 f7 db bd 44 5e 4b 3d 1f 52 aa 3d 0d 68 bd bd
       -0.1074052 0.049650446 0.083164446 -0.09248362
000310 6a 59 26 3e 45 88 99 bd fb e0 61 3e 9c 19 1e 3d
       0.16245046 -0.074966945 0.2205848 0.03859864
000320 e2 d7 01 3e 02 e1 f4 bd 17 29 2f 3e 2d 75 d5 bb
       0.12680009 -0.11956979 0.17105518 -0.0065142126
000330 de 20 51 3e d6 c9 e0 bd 65 6c cc bd da 23 57 3e
       0.20422694 -0.10975997 -0.09981612 0.2100977
000340 93 fe 53 be 48 21 53 3d 24 ec 4e be 8f 49 cc bd
       -0.20702581 0.05154541 -0.20207268 -0.09974968
000350 8c 62 70 bd 5f 63 88 bd b2 6d a2 bd e8 90 5b 3d
       -0.05868773 -0.066595785 -0.07931079 0.05360499
000360 a1 e6 2c 3e 0d 38 06 3e 88 43 37 3e 47 ba 31 3e
       0.16884853 0.13107319 0.17896855 0.17356215
000370 12 95 7f bd 08 6f f7 bc d4 f8 5f bd b1 42 2f be
       -0.062398024 -0.030204311 -0.05468066 -0.17115285
000380 e9 98 e7 bc f6 3c 39 3e b4 75 94 bb 37 91 a7 3d
       -0.028271155 0.18089661 -0.004530633 0.081819944
000390 93 22 43 3e c6 53 44 3c a8 8a 26 be ba a7 21 3e
       0.19056158 0.011982864 -0.1626383 0.15786639
0003a0 46 5e be 3c eb 3e 7f 3d 9f 9c 01 be bc fc ef bc
       0.023238312 0.062315863 -0.12657402 -0.029295318
0003b0 21 4e 40 bd f8 97 d8 3b 97 bf b1 3d 49 75 cd bc
       -0.04694951 0.006609913 0.08679121 -0.02508034
0003c0 eb ee 4e 3e 3e 0b 3e 3e 9f a6 09 be e2 f6 90 bc
       0.20208327 0.18558976 -0.13442467 -0.017695848
0003d0 71 fa d8 bd e4 dc 59 bc fb db 30 3e ba c9 6a 3d
       -0.10594643 -0.013297293 0.17271416 0.057321288
0003e0 b8 f2 0d 3e f0 de f8 bd ba af ca 3d 43 b8 58 3e
       0.13862121 -0.12151897 0.098967984 0.2116404
0003f0 84 a0 e8 3d e9 1b c7 bd 34 7e fd 3d bc 67 ad bd
       0.11358741 -0.0972212 0.12377587 -0.084670514

network.0.bias f4 [128]
000000 f1 cb 11 be 9d 9b 13 be 75 d4 94 bd 0b af 0c 3d
       -0.14237954 -0.1441483 -0.072670855 0.03434662
000010 a2 5c 38 be 7c 13 96 3c ce 62 ad 3c 67 0b 58 3d
       -0.18004087 0.018319838 0.021165278 0.05274525
000020 52 5d 1f 3e 58 c7 51 bd 58 77 d0 bd 22 8c 23 be
       0.15562943 -0.0512155 -0.10179013 -0.15971425
000030 7c 96 5e bd 75 ef b9 bb 13 8c 05 be a9 a6 08 bd
       -0.05434273 -0.0056742975 -0.13041715 -0.033362065
000040 22 af 54 3c 6c a5 6c bc 56 35 03 be f1 4f 00 be
       0.012981208 -0.0144437365 -0.12813315 -0.12530495
000050 b3 d2 2f be 6f af a9 bd bc 38 15 3e 74 d5 f0 bc
       -0.17170219 -0.082854144 0.14572424 -0.029398657
000060 f2 5e 3e be 7a 68 5d 3e b0 df 19 3e de 46 46 3e
       -0.18590906 0.21621886 0.15026736 0.19362971
000070 61 fc 31 be de 75 84 bd 50 c3 7e bc 48 48 ff bd
       -0.17381431 -0.06467794 -0.015549496 -0.124649584
000080 1e 5c 27 bd f0 53 4d 3e 91 28 16 be 88 bb 84 bd
       -0.040859334 0.20051551 -0.14663912 -0.06481081
000090 0b f6 2c 3e 1a cd 61 bd f8 2b ef bd 2f 09 e0 3d
       0.16890733 -0.05512724 -0.11678308 0.10939252
0000a0 06 bd 15 3d 89 e5 53 3e 91 9d b1 3c 32 33 c3 3d
       0.03655722 0.2069303 0.021681579 0.09531249
0000b0 76 a2 51 3e 9f 88 f1 3d 67 25 af bd 50 cf f9 bc
       0.2047213 0.117936365 -0.08552056 -0.030494362
0000c0 08 c1 7e bc 77 7a 1e be 08 92 27 be d7 17 fc 3c
       -0.015548952 -0.15476404 -0.163643 0.030773086
0000d0 3a fa e0 ba 9b 95 1a 3e 5e 90 3c be 03 02 5e 3e
       -0.0017164417 0.15096132 -0.18414447 0.21680455
0000e0 e7 93 43 3e ab 6f 24 be c0 77 f9 bd 9a 58 12 3e
       0.19099389 -0.16058223 -0.121810436 0.14291611
0000f0 dc 42 8c bd 64 6f 07 3d d7 92 25 be a8 8f f4 3d
       -0.0684869 0.033065215 -0.16169296 0.11941463
000100 8a f7 1d 3e f8 a8 2f 3e 8f ba 91 bc c9 58 1c be
       0.1542646 0.171543 -0.017789153 -0.15268244
000110 d7 be 0e bd b5 0a 19 3e 25 9b d7 3b 69 48 bf bd
       -0.034849968 0.1494549 0.006579774 -0.09339983
000120 65 d2 c3 3d 8a a1 56 3e bc 2d 92 bb 38 81 cc 3d
       0.09561614 0.2096006 -0.0044610184 0.09985584
000130 dd ae cb bd 75 58 e5 3c 92 b9 0f bd 30 7b 51 3c
       -0.09945462 0.027996281 -0.035089083 0.012785718
000140 b0 e0 52 3e 53 5a ee bd 81 7f 2d be 50 89 11 bd
       0.20593524 -0.11638322 -0.1694317 -0.035531342
000150 0d 14 58 3e 67 99 85 bc 70 5e 00 bd 5f 52 db 3d
       0.21101399 -0.0163085 -0.031340063 0.107090704
000160 c8 07 a6 bb b0 ac 19 3e d9 25 34 3e 34 f8 60 3d
       -0.0050668456 0.15007281 0.17592563 0.054924205
000170 e3 f6 b3 3d 71 cb 83 bd be 1a 9e 3d ca 86 2d bd
       0.08787324 -0.06435288 0.077199444 -0.042364873
000180 f1 70 0b 3e 51 0d be 3d 7b f6 20 3e e7 df 4f 3e
       0.13617302 0.09279884 0.15719025 0.20300256
000190 59 e2 20 be 67 46 a2 3d e4 67 03 be 60 44 34 3e
       -0.15711345 0.079235844 -0.128326 0.17604208
0001a0 5e 08 fa 3c f5 1d c5 bc d8 cc 9c bd 1f 23 43 3e
       0.030521568 -0.024062136 -0.07656258 0.19056366
0001b0 1e c1 df bd 05 fe cc 3d ba 07 c4 bd 90 60 57 bd
       -0.10925506 0.10009388 -0.09571786 -0.052582324
0001c0 cb 13 06 be 5b 68 46 be 31 b2 19 be f5 59 dd bd
       -0.13093488 -0.19375746 -0.15009381 -0.108081736
0001d0 e6 50 ce 3d 7b 74 fc bd cf a6 1e 3e b6 2c 56 3e
       0.10074024 -0.123269044 0.1549332 0.20915493
0001e0 19 be 15 3e 86 31 1b 3d 91 fb 83 bc 68 25 37 be
       0.14623298 0.037889026 -0.016111167 -0.17885363
0001f0 16 47 34 bd e2 1a 2c be ec 8f da bd ac 41 15 3d
       -0.044013105 -0.1680713 -0.10671982 0.036439583

network.2.weight f4 [128, 128]
000000 99 de c5 3b 38 04 94 3d c7 41 b8 3d 25 e4 3d 3d
       0.0060384986 0.07227367 0.08996921 0.046360154
000010 b9 76 8e 3d 41 a6 a3 3d 27 c4 a0 3c b6 a4 aa 3d
       0.06956238 0.07990695 0.019624783 0.08332197
000020 39 01 4f bd 6e fa c2 3d e9 49 2b 3c b6 e5 c5 3d
       -0.050538275 0.09520422 0.010454633 0.096629545
000030 9a 31 74 bd 9a 83 77 3d 5e 15 a0 3d 91 c7 94 3d
       -0.059617616 0.06042824 0.078165755 0.07264627
000040 64 52 31 bd 2a 20 ee 3c 61 65 a5 3d 2c 93 02 3d
       -0.043291464 0.029068071 0.08075977 0.031878635
000050 32 4d a7 bd 0e 01 56 bd a8 20 b5 3d 53 a9 12 bd
       -0.08169021 -0.0522471 0.08844119 -0.03580601
000060 f2 4c 98 bc 94 44 9b 3c 70 19 5f 3b d9 7e c6 bc
       -0.018591378 0.018953599 0.0034042262 -0.024230408
000070 02 51 67 bd 34 a9 0a bd ea 9c 83 3d 54 12 31 bd
       -0.05647374 -0.03385277 0.06426413 -0.04323037
000080 78 fa 4e 3d 1d 43 a5 3d 82 c9 8e bd 87 6e d4 bc
       0.050531834 0.080694415 -0.06972028 -0.02593161
000090 97 3c fb 3c aa 84 dc 3c a7 ee 3d 3c 43 29 7c 3d
       0.03066854 0.026918728 0.011592544 0.061562788
0000a0 87 30 d3 3d 16 82 34 3c d2 bd 4f 3d 3e 9d c9 3b
       0.1031199 0.011017343 0.050718136 0.006152778
0000b0 1c 91 df bc 4c e7 52 bd 0a 50 c0 bb f8 83 3d 3b
       -0.027290873 -0.051490113 -0.0058689164 0.002891777
0000c0 15 9a c8 3d 39 45 a5 3d 21 44 2c bd b7 5d 41 bd
       0.09795014 0.08069844 -0.04205716 -0.047208514
0000d0 6d fa 24 3d 00 56 4e bd 15 e8 65 bd 35 e6 74 3d
       0.040277887 -0.050374985 -0.056129534 0.059789855
0000e0 b6 25 59 3d de 44 2c 3d 2e f8 4e bd 2b 47 71 bb
       0.05301448 0.042057864 -0.05052965 -0.00368161
0000f0 8a 97 c7 3d 21 1f a2 3d 28 b5 51 3c ec a1 b6 bb
       0.09745701 0.079160936 0.012799539 -0.005573502
000100 5d b9 4c bd 9d c6 8f bc e1 2e 3f bc 73 9a 64 3d
       -0.049981464 -0.01755076 -0.011668892 0.055811357
000110 05 9b 23 bd b1 0c 4a 3d 2d ef 64 3c 56 a3 08 bd
       -0.03994276 0.04932851 0.01397304 -0.033358894
000120 7d 8c 9f bd 18 12 aa 3d 9e 57 97 3c f5 0e 97 bd
       -0.07790468 0.08304232 0.018474396 -0.073759
000130 69 f2 29 3d 8c 40 c9 3d 8d b1 35 bd c6 89 7f bd
       0.041490946 0.098267645 -0.04435878 -0.06238725
000140 c1 6c 52 3c 72 81 94 3d 93 e2 82 3d 1b 89 aa bc
       0.012843312 0.07251252 0.06390872 -0.02081733
000150 58 66 1b bd b1 43 d4 3c a8 bc 96 bd d2 82 a1 bd
       -0.0379394 0.025911184 -0.07360202 -0.0788628
000160 a7 89 70 3d fd 4c 46 3d 61 1a ec bc ed 4e cc 3d
       0.058725026 0.048413265 -0.028821172 0.099759914
000170 14 a0 c3 39 2b 81 29 3d 3e df 3e 3c be 01 ee 3c
       0.00037312566 0.04138295 0.011649905 0.029053565
000180 e0 74 2e bd 1a fe 8b bd fe 7f d5 3d d8 26 7d 3c
       -0.04259193 -0.068355754 0.10424803 0.015451156
000190 9b c9 ac 3d de af ba bc d6 56 88 3d 14 74 6a bc
       0.08436891 -0.022788938 0.06657188 -0.014309902
0001a0 e3 09 ec bc 07 5e b6 3d a2 b1 f8 bc 15 59 d1 3d
       -0.028813308 0.08904653 -0.03035814 0.10222069
0001b0 4a 69 e0 3d cd d6 a1 3d 05 44 72 bd 12 aa 02 3d
       0.10957582 0.07902298 -0.0591469 0.031900473
0001c0 3a 6b b7 bc a1 f3 82 3d ca 4c 6b 3d f0 ba 55 bd
       -0.022389997 0.06394125 0.05744628 -0.05218023
0001d0 c0 c4 93 bd ce f7 bf 3d 02 24 b0 bc a9 fe 08 3d
       -0.072152615 0.09373437 -0.021501545 0.033445988
0001e0 db f4 38 bd 6e e8 1b 3d aa fc 5f bd f3 d8 9a 3a
       -0.045155387 0.03806346 -0.05468432 0.0011813923
0001f0 86 26 2e bd 62 1d 41 3d fd 70 38 bd 93 5a ce 3d
       -0.042517208 0.047147162 -0.04502963 0.100758694
000200 30 67 51 3d 9a 89 a0 bc 53 ce 87 bd cc 35 40 bd
       0.051123798 -0.019596864 -0.0663115 -0.046926305
000210 4b 01 9a 3d 49 1f 65 3c 37 05 85 bc 0c 2c ce bb
       0.07519778 0.01398451 -0.016237838 -0.006291872
000220 35 1b 70 3d ac ea 09 bd 0d 61 5d 3d 7d 85 c3 bc
       0.058619697 -0.033671066 0.054047633 -0.023867363
000230 7c a6 b0 bd 4f 6e 16 3c 36 50 85 3d a2 ec 57 bd
       -0.086255044 0.009181573 0.0650944 -0.052715905
000240 e1 8b 2e bd fb 1f 4f 3c ac a5 99 bc a7 03 23 ba
       -0.042613868 0.012641902 -0.018755756 -0.0006218501
000250 db b0 a1 3d aa bf 61 bd ff 77 76 3c 79 d2 3f bc
       0.07895061 -0.055114426 0.015043258 -0.011707895
000260 0b 5b 5a 3c cb 44 74 3c db 8a c7 3c c5 22 8c 3d
       0.01332737 0.01490898 0.024358204 0.06842569
000270 11 38 86 3d 96 8c 5a 3d 52 bf ab bc a9 be 8c 3d
       0.065536626 0.05335673 -0.020965252 0.06872303
000280 ca be 80 bd 6e 63 03 ba c8 54 72 bd 2a b7 a6 bc
       -0.0628639 -0.00050120696 -0.059162885 -0.020351011
000290 42 1c a1 bd e4 d6 9f 3d 82 bb 77 3d 93 69 26 3c
       -0.07866718 0.07804659 0.060481556 0.010157007
0002a0 83 63 c8 bc 88 35 73 bd 48 91 7f bd c0 cd d6 bb
       -0.024461513 -0.059377223 -0.06239441 -0.006555289
0002b0 45 fa 13 bd ab 19 06 bd 2a 4a d9 ba 2d f7 ee 3c
       -0.036127347 -0.032739323 -0.0016577889 0.029170597
0002c0 8c 5a 5e 3d c7 1f bc bd 30 3f 06 bc c1 1d f5 bc
       0.05428557 -0.091857485 -0.008193776 -0.029921414
0002d0 09 2d 53 bd f7 4e 15 3d c7 de 94 bd 3f 1a 5b bd
       -0.05155662 0.03645226 -0.07269054 -0.053491827
0002e0 c3 ce 8c 3d 7f b6 57 bd ef 1f 93 3d ae a4 b4 bd
       0.06875374 -0.052664276 0.07183825 -0.08820473
0002f0 92 52 f5 3c 3d 37 77 bd 7a 94 65 bd 02 61 78 3b
       0.0299466 -0.060355414 -0.0560498 0.0037899618
000300 74 18 ab 3c 3d 79 a3 bd 80 5a 9c bb fe 79 15 bd
       0.020885684 -0.07982109 -0.0047715306 -0.036493294
000310 45 24 1b bd 33 b8 79 3d 3e c2 0b bb d5 aa 80 3d
       -0.037876386 0.06096668 -0.0021325494 0.062825836
000320 a8 18 ec bc c2 dc 34 3d bd e5 96 bd 5b 8f 00 3d
       -0.02882035 0.044155844 -0.07368038 0.031386714
000330 d3 52 14 bd 0e d8 dd 3b a0 d9 06 bd 90 90 aa bb
       -0.0362118 0.0067701405 -0.032922387 -0.0052052215
000340 9f 30 81 3d 90 00 2c bc fb 29 7d bd 4f d5 28 ba
       0.06308102 -0.010498181 -0.061807614 -0.0006440477
000350 49 8f d1 bd 89 39 a7 bd 96 3f b5 3b ae 38 05 3b
       -0.102324076 -0.08165271 0.0055312617 0.0020327973
000360 ff 82 b0 bc f0 47 85 3d 7a 89 23 3d 14 50 43 3d
       -0.021546839 0.065078616 0.03992603 0.04768379
000370 59 a1 97 3d 88 a7 df bc 73 2b 4e 3d c1 9f 9e bd
       0.074038215 -0.027301565 0.050334405 -0.077453144
000380 22 6b 77 bd 31 27 ac 3d bf e4 bd bd 8b f3 37 bd
       -0.060404904 0.08405913 -0.092721455 -0.044909995
000390 12 ab 83 3d 23 12 a0 3d d7 ff 1a bd 51 98 59 bd
       0.064291134 0.07815959 -0.037841644 -0.053123776
0003a0 80 23 f6 3b 96 bc 49 3d f8 8f 72 bd ed 08 62 3d
       0.007511556 0.049252115 -0.05921933 0.055184294
0003b0 40 be a3 bb 0b b3 a9 bc 73 d8 6f 3d d7 43 98 bd
       -0.004997045 -0.020715257 0.05855603 -0.074348144
0003c0 1b bd 38 3c ea 9d 8d bd 55 ac 40 bd cf d2 42 3d
       0.011275555 -0.06914885 -0.04703935 0.047564324
0003d0 aa 27 69 bd b7 88 fd bc 19 95 dc 3b e2 36 36 3c
       -0.056922592 -0.03094898 0.006731641 0.0111214835
0003e0 0f 3f 3c 3c c4 33 98 3d 3e 11 a5 3c fd cd 4b bc
       0.011489644 0.074317485 0.020149823 -0.012439248
0003f0 dc df 5f 3d 47 92 9c 3d 74 76 d3 3c 01 a3 30 bd
       0.05465685 0.07645088 0.025813319 -0.043124203

network.2.bias f4 [128]
000000 95 59 d5 3d 29 87 36 3d e2 20 34 bc ff e2 3f bd
       0.10417477 0.044562493 -0.010994168 -0.04684734
000010 af 94 a5 3d fe 0e b7 3d 13 6d 07 3d 5c cd b4 bd
       0.08085 0.089384064 0.033063006 -0.08828232
000020 66 58 8f 3d d3 16 aa bd b4 4b 95 bd b3 1d 7c ba
       0.069992825 -0.083051346 -0.0728983 -0.00096174626
000030 ba fe 7a 3d 00 5a e0 39 95 9d 99 bc 8f 89 a7 3c
       0.061278082 0.00042791665 -0.018751899 0.020451335
000040 3d 39 77 bd b8 a1 d1 bc 8b 95 47 3d 7c 99 6c bd
       -0.06035732 -0.025589809 0.0487266 -0.05776356
000050 d2 c1 ad bc 09 11 8e 3d 5c 5f 44 bb 73 26 09 3d
       -0.021210585 0.06936843 -0.0029964065 0.033483934
000060 16 e9 e0 bc 76 20 27 3c 07 c1 e0 3c 7c 69 92 3d
       -0.027454894 0.01020061 0.027435793 0.07149026
000070 88 b5 99 bd 79 cc f2 bc ea 24 a9 bc 5d c1 44 3d
       -0.075053275 -0.029638516 -0.020647485 0.048035968
000080 7e 2f 71 bd 1b 00 82 3d d2 2c 6c 3d 92 57 5c bc
       -0.058883183 0.06347676 0.05765993 -0.013448613
000090 a8 03 a7 3d 52 79 81 3c 60 3d 7c bc 86 d8 f9 3b
       0.08154994 0.01580492 -0.015395492 0.0076246886
0000a0 29 45 13 3d 08 19 20 bc 52 7e 65 3d f2 60 66 bd
       0.03595463 -0.009771593 0.05602867 -0.056244798
0000b0 25 73 d5 3d 23 49 a2 bc 16 d2 19 bb 75 f5 66 3d
       0.10422353 -0.019810265 -0.0023471168 0.05638643
0000c0 57 b2 18 bb a7 55 aa 3c c8 34 f9 3c 1d 39 b4 bd
       -0.0023299658 0.020792795 0.030420676 -0.08799956
0000d0 77 14 ac bd 80 5d 8e 3d ae 8d b3 3c fc 98 dc 3d
       -0.08402341 0.069514275 0.021918144 0.10771367
0000e0 6a 73 66 bc bb ff 92 bd 83 d5 6c bd e1 38 aa bd
       -0.014065603 -0.07177683 -0.05782081 -0.0831163
0000f0 b0 bd 1d bc aa 59 8e 3c 3d 22 aa 3d a7 49 9a bd
       -0.009627745 0.01737674 0.08307312 -0.07533579
000100 2b 62 86 3d b0 0e 84 bd 4a ed cb 3d 17 7c 83 3c
       0.06561693 -0.06448114 0.09957369 0.016050382
000110 5c 36 de bc bd 94 6b 3c 30 74 d5 3b 66 50 64 3c
       -0.02712553 0.014378724 0.006514095 0.013935184
000120 d3 0e 27 bd 7a cd 99 bd 42 3d 0e bd e8 81 96 bd
       -0.04078562 -0.07509895 -0.03472639 -0.073489964
000130 48 80 8a bd a8 db 71 3d 30 ff 2d 3d bc 74 18 3c
       -0.06762749 0.05904737 0.042479694 0.009305175
000140 fa cf e1 3c f3 0f a5 3c 4d 4f fd bc f4 b0 bf 3c
       0.027564991 0.020149207 -0.030921603 0.023399808
000150 5d 2a 98 bd 9e e7 6d 3d d3 54 6a 3d 3f ca 18 bd
       -0.07429955 0.058082215 0.0572098 -0.037302252
000160 5e f4 90 3d 06 36 ec bc 4f 87 71 3d 98 89 c0 3d
       0.07077859 -0.028834354 0.05896693 0.09401244
000170 30 e8 9b bd 57 ce d6 bc 72 79 b4 ba dd 11 97 3c
       -0.076126456 -0.026221437 -0.0013769104 0.018441135
000180 8c 37 b3 bc 26 40 88 3d ab 51 48 3d a4 cc 92 3c
       -0.021877073 0.0665286 0.04890601 0.017919846
000190 6f b0 6d bd 65 ba 97 3d 07 1d 2d 3c c2 f1 1c 3d
       -0.05802959 0.07408599 0.010566003 0.038316496
0001a0 df be 96 bd 4e be 05 3d 7b 5f 78 3d 1f de a6 3d
       -0.073606245 0.03265219 0.060637932 0.08147835
0001b0 40 5c 01 3d 83 40 2d 3d b1 fb ba 3c 05 e4 96 3d
       0.031582117 0.04229785 0.022825094 0.0736771
0001c0 73 52 e2 3c 20 1d 2c 3d c3 b1 77 3d 5c 7f c3 bc
       0.027627205 0.042019963 0.06047226 -0.02386444
0001d0 ee f1 4b 3d a8 be a3 bd 0c af b0 3b ca 9d 3a bd
       0.04979127 -0.07995349 0.005391961 -0.045560636
0001e0 72 11 ca 3d 5a 64 d3 3c 0e 23 b4 bd 4b d8 89 3c
       0.09866609 0.025804687 -0.08795749 0.01682677
0001f0 2c aa ef bc 84 1a 0a 3d 33 6a 9d 3c 1d cd bb 3d
       -0.029255949 0.033716694 0.019215679 0.09169982

network.4.weight f4 [8, 128]
000000 34 14 e4 3b 0d ab 83 bd 24 8e 9e 3d ca c5 f8 bc
       0.006960416 -0.0642911 0.07741955 -0.03036775
000010 9f e4 96 bd 1c 11 a9 bb 4f df 29 bd 0a 00 21 bd
       -0.07367825 -0.0051595103 -0.04147273 -0.039306678
000020 e5 b1 cd 3c 3d 8f 39 3c d9 20 a4 bd f2 1e 8f bd
       0.02510924 0.011325655 -0.08014078 -0.06988324
000030 b3 32 0b 3d bf 43 38 bd 9c 94 a8 3c 39 57 6d bd
       0.033983897 -0.044986483 0.020578675 -0.05794451
000040 d7 ce cd bc 16 f3 bd bc 6a a7 94 bd 4b d8 9e 3d
       -0.025123043 -0.023187201 -0.07258494 0.07756098
000050 4f b3 39 3d 66 df 37 bd 65 5f 81 3b 49 01 52 3c
       0.045337018 -0.044890784 0.0039481395 0.012817689
000060 fa cf b2 bd 23 df a8 bd 0e 61 e3 3c 87 a6 0a 3d
       -0.08731075 -0.08245685 0.02775624 0.03385022
000070 91 c9 55 bd bd ba 9c 3d b8 9a 3f 3d d4 6c 55 3c
       -0.05219418 0.07652805 0.04677841 0.013026435
000080 36 86 8f bd 5a d2 13 3d eb 6d b3 bd 17 16 05 3d
       -0.070080206 0.03608928 -0.087611996 0.03249177
000090 bd 3f 07 bd 30 58 0c bb 7a 18 21 3d 44 40 73 3d
       -0.03301977 -0.0021414869 0.039329983 0.05938746
0000a0 d4 3a 41 bd 88 b1 83 bd 9c cd a6 3d f4 c4 db bc
       -0.047175243 -0.06430346 0.081446856 -0.026827313
0000b0 20 1a 18 3d c1 96 37 3c 5a 17 a7 3d 04 a2 20 3d
       0.03713429 0.011205376 0.08158751 0.03921701
0000c0 88 3e 97 3d d4 aa 03 3d bc ab 83 3d 80 5c af bb
       0.07384974 0.032145336 0.0642924 -0.005351603
0000d0 f4 e8 81 bd aa 4f be bd 6f 64 26 bd 80 51 25 bc
       -0.063432604 -0.092925385 -0.040623125 -0.010090232
0000e0 ed 52 20 3d ee c1 0e 3c 10 dd 64 3c ca 66 e4 bc
       0.039141584 0.008713229 0.013968721 -0.027881045
0000f0 65 ed 93 3d 87 2f 6c 3d 68 4a b0 bd 99 7e e6 3c
       0.07223014 0.057662513 -0.08607942 0.028136538
000100 c9 3a 89 bc d4 3b 83 bd e8 73 2d 3d 0d f9 41 bb
       -0.016751664 -0.06407896 0.042346865 -0.0029597909
000110 06 49 89 3c 85 5d 51 bd a0 b5 4d 3d 68 67 71 3d
       0.016758453 -0.051114578 0.05022204 0.058936507
000120 b2 40 7d bc b0 17 35 3c e6 4e 56 bd 27 36 9a 3d
       -0.015457319 0.011053011 -0.052321337 0.0752986
000130 f6 56 9c 3d b2 bc 8e bc 89 17 4e 3d 05 4d 5b bd
       0.07633774 -0.017423961 0.050315414 -0.05354025
000140 f8 e9 87 bd 3e af 84 3d 29 40 b8 bd 7f 6e 9b 3d
       -0.06636423 0.06478737 -0.089966126 0.07589435
000150 17 d7 e3 bc 97 14 f6 bc 00 8f 27 3d 4e 19 22 bd
       -0.027812524 -0.030039115 0.04090786 -0.039574914
000160 9e 28 89 bd 1e c3 1a 3d 88 75 89 bd be 46 51 bd
       -0.066972 0.037783735 -0.067118704 -0.051092856
000170 3c a7 1d bc 1e 38 52 3d 22 af 64 bc 8d ee fb 3b
       -0.009622391 0.05132305 -0.013957771 0.0076883496
000180 9c b2 b0 bd e3 6b ad bc 1d 1b 51 3d 50 46 9c bb
       -0.08627817 -0.021169608 0.051051248 -0.004769124
000190 78 2f 8f 3d c9 53 05 bd 07 73 a0 3d 10 af 51 bd
       0.06991476 -0.032550607 0.0783444 -0.051192343
0001a0 dd 37 82 3d a2 8b 95 bd 6c fa 88 3d 9b 5a 35 bd
       0.06358311 -0.073020235 0.06688389 -0.04427586
0001b0 be 3b 61 3d 96 37 98 bd 6a 75 cd 3c 8f e7 2e 3d
       0.054988615 -0.07432477 0.025080401 0.0427013
0001c0 12 7e 19 bd cc 6b 92 bc 00 b1 c0 bc 23 7a c2 3c
       -0.037473746 -0.017873667 -0.0235219 0.02373988
0001d0 5c 55 46 bd 95 42 eb bc 84 13 90 bd f8 c1 ab 3c
       -0.04842125 -0.028718272 -0.07034972 0.020966515
0001e0 ac 08 27 bd 73 75 3c 3d 02 53 63 bd 31 e7 dd 3c
       -0.040779755 0.046010446 -0.055499084 0.02708778
0001f0 a1 82 a3 3d 79 51 8a bc 6c 3e df b9 38 ed 69 3d
       0.079839 -0.016884552 -0.00042580382 0.057110995
000200 9c 00 d8 3d b6 28 54 bd bf f3 20 3d a2 da 68 3d
       0.10546991 -0.051796637 0.039294954 0.05684913
000210 20 82 86 3c b8 64 d2 3d 92 9a 92 3b 04 d1 09 3d
       0.01641947 0.10273117 0.0044739926 0.0336466
000220 ba 7e ec 3d 33 5b d8 bc e9 54 e3 3d 9a ea 7d 3d
       0.11547609 -0.026410675 0.1110018 0.06199131
000230 51 2c 79 bd a8 be 71 bd 01 b3 de bc 21 31 61 3d
       -0.06083328 -0.059019715 -0.027184965 0.054978494
000240 bc 2e 5a bc da 52 2a 3d a7 33 ae bb 98 6f 2e 3c
       -0.013316806 0.04158292 -0.005316216 0.010646723
000250 19 cb 95 bd e1 27 91 3d 7b 1f 1e 3d 10 1f c2 bc
       -0.073141284 0.070876844 0.03860424 -0.023696452
000260 e5 9a a3 bb 78 05 b8 3d 1a 40 c9 bc 7d 4c 31 3d
       -0.00499283 0.08985418 -0.024566699 0.043285836
000270 00 3b cd b9 04 e1 2f bd c4 c4 88 bd 16 f2 e1 3c
       -0.00039144605 -0.0429392 -0.06678155 0.027581256
000280 a9 58 ae bc bd d6 3d bd 22 7f 57 bd 50 0a 4e 3d
       -0.02128251 -0.04634737 -0.052611478 0.050302804
000290 33 db 26 3d fd 6b 16 3d 60 51 4a bd 1a fd 82 3d
       0.04073639 0.03672408 -0.04939401 0.063959315
0002a0 50 a9 8c 3d 27 9b e0 bc ae bd 89 3d 0c 2c 9b 3c
       0.06868231 -0.027417732 0.06725632 0.018941902
0002b0 6b 0c cb 3d c9 d6 be 3d 3c d3 8d 3d fc f1 c5 3d
       0.09914478 0.09318311 0.069250554 0.096652955
0002c0 f4 dd 76 bd d8 ec 6a bc 57 9d 29 3d 00 76 e3 ba
       -0.060270265 -0.0143386945 0.041409817 -0.0017353892
0002d0 84 9a ad bd 8d e3 07 3c 5b 1d cf 3d 22 60 19 3b
       -0.08476737 0.008293998 0.10113021 0.0023403247
0002e0 1a 5e 73 bd 31 d2 56 bd 69 b6 2f bd e1 c1 61 bd
       -0.059415914 -0.052446548 -0.04289857 -0.055116538
0002f0 76 79 87 bd 46 a3 70 bd 61 f6 2a 3d 9d d7 f4 bc
       -0.06614964 -0.05874946 0.04173887 -0.029887969
000300 7a 69 83 3b e3 99 b0 bd 85 ce da 3d dd b5 76 bd
       0.0040103765 -0.086231016 0.10683922 -0.060232032
000310 33 c1 8b 3d 65 e6 76 3d 0e 5e 76 bd 68 eb 62 bd
       0.06823959 0.060278315 -0.06014829 -0.055400282
000320 3b 7d a5 bd da 97 11 3d 08 5b 2b 3d a2 90 8d 3d
       -0.080805264 0.035545208 0.04183486 0.06912352
000330 0c 7e 0a 3c 8a 4f 94 3d b5 ce 3b bc 02 c1 9b bd
       0.0084529035 0.07241733 -0.011462857 -0.07605173
000340 ea 89 39 3d e5 6a ad 3d be a0 b0 3d f5 da 70 bd
       0.04529754 0.08467654 0.08624409 -0.058802564
000350 eb 92 41 bc 6f ff a8 3c 4e c3 be bc 53 35 76 bd
       -0.011814813 0.020629613 -0.023286488 -0.060109448
000360 07 7f 4a bc 21 f6 4a bd d1 65 62 bd d8 c1 b0 3d
       -0.012359387 -0.049551133 -0.05527288 0.08630723
000370 2a 1b af bd 0d be 28 bd b6 82 e0 3c 8e 96 cc 3d
       -0.08550103 -0.04119687 0.027406078 0.099896535
000380 b2 25 b0 3b 6a 8f 87 bd 6e 47 e7 3d 71 c6 b3 bd
       0.0053755874 -0.06619151 0.11292921 -0.08778084
000390 03 72 8f bd 7f db a7 bb 33 73 45 3d e9 72 a2 3d
       -0.07004168 -0.0051226015 0.048205566 0.079320736
0003a0 7a 0d b1 bd a7 44 72 3d 42 55 67 3d ed cf 5a 3d
       -0.086451486 0.059147503 0.056477793 0.05342095
0003b0 75 de 91 3d a0 1b 4c bd f5 07 91 bd 4e af ae bc
       0.071225084 -0.049831033 -0.07081596 -0.021323826
0003c0 c1 75 97 3d 47 6a f0 3d 89 bd 73 3c 8b 24 6d bd
       0.07395507 0.11739021 0.014876732 -0.05789618
0003d0 f3 73 67 bd ec 20 89 bd 78 21 a5 bd 18 dd a7 bd
       -0.056507062 -0.066957325 -0.08063024 -0.08196467
0003e0 c2 f2 97 3c 5c 2b 9f 3d 1d 2c 9a 3d d0 3b 0a 3d
       0.018548373 0.07771942 0.07527945 0.033748448
0003f0 a7 40 77 bd 99 23 28 bd 32 a4 02 bc 28 1d a1 3d
       -0.06036439 -0.041049574 -0.0079737175 0.07866889

network.4.bias f4 [8]
000000 9d 2b b9 bd 75 b1 30 bc 7b 70 22 bc 2c c9 30 3d
       -0.09041522 -0.010784497 -0.009914513 0.043160602
000010 2f 07 85 bd 4f bf ef 3c f5 3e 4c 3d 23 94 09 3d
       -0.06495511 0.029266028 0.049864728 0.03358854

exp_avg f4 [128, 26]
000000 d7 58 1e bc 0b ed 6a bc 2c 1e 01 bc 34 9e a6 bb
       -0.009664736 -0.014338742 -0.007880729 -0.0050847773
000010 e4 d6 fd bb e9 30 d6 bc b5 f0 0d bd a7 4d 02 bd
       -0.007746564 -0.026146369 -0.034653384 -0.031812336
000020 c7 90 bc bc b8 aa eb bc e2 77 28 bc 39 00 1f bc
       -0.023018254 -0.028767928 -0.010282489 -0.009704643
000030 6c 2e a8 bc f4 ea 86 bc dd c0 90 bc f1 84 b6 bc
       -0.020529948 -0.016469456 -0.01767009 -0.022280188
000040 35 8c 67 bc 08 2c ad bc 52 30 8a bc 0b a4 01 bc
       -0.014132549 -0.02113916 -0.016868744 -0.007912646
000050 eb 41 d1 bc 55 9c 31 bc 33 28 19 bc 45 74 5b bb
       -0.025544127 -0.010840495 -0.009347963 -0.003348605
000060 5a 56 3b bc d7 f4 37 bc 60 64 27 bd 0b 3f 17 bd
       -0.011434162 -0.011227808 -0.04086721 -0.036925357
000070 c4 df 27 3b ab c0 e1 bc 93 8e a5 bc 1e 94 0c bd
       0.0025615552 -0.027557692 -0.020209586 -0.034320943
000080 26 8e 7d bd 10 a2 8f bd 81 ff 2a bd ba 2b 43 bd
       -0.06190314 -0.07013333 -0.041747574 -0.047649123
000090 0a 73 0f bd 56 1f 9d bc 7c 04 2c bd 25 ef 40 bd
       -0.03502182 -0.019179981 -0.041996464 -0.047103066
0000a0 42 ee 67 bd 94 29 65 bd 9e ef 09 bd 4e ff 8d bc
       -0.056623705 -0.055947855 -0.033675782 -0.017333653
0000b0 0c 9f 17 bd 0b 69 84 bd f7 04 7c bd ac 9e fe bc
       -0.037016913 -0.06465348 -0.061528172 -0.03108152
0000c0 b1 36 f2 bc f2 86 12 bc 66 f0 05 bd 61 cd 03 bd
       -0.029567095 -0.008943306 -0.032699965 -0.032178286
0000d0 11 21 1d bc a9 9a 45 bc 49 f9 ea bb fb ca 01 bc
       -0.009590403 -0.0120608 -0.0071708304 -0.0079219295
0000e0 89 c1 0e bc 64 27 c2 bc b8 41 eb bc b9 65 ee bc
       -0.008713135 -0.023700424 -0.02871786 -0.02910124
0000f0 98 a3 ac bc 38 2f cb bc 10 92 63 bc 46 5e ec bb
       -0.021074101 -0.02480279 -0.0138898045 -0.0072133867
000100 04 08 98 bc 9d ce 8c bc 4b 5c 8f bc db 8f bc bc
       -0.01855851 -0.017188365 -0.017500063 -0.023017814
000110 3b fc 8d bc 32 2d a6 bc d0 91 72 bc e8 3a 5c bc
       -0.017332187 -0.020285223 -0.014805272 -0.013441779
000120 92 07 d8 bc dc ad 41 bc 8c dc 2d bc 10 cf 6a bb
       -0.026370797 -0.011821236 -0.0106116645 -0.0035828985
000130 01 ed 46 bc 83 61 46 bc 24 44 40 bc d9 b2 15 bc
       -0.012141467 -0.01210821 -0.011734996 -0.009136879
000140 a2 9d 88 3b 73 b9 b8 bb 7c 59 5c bb 6c 46 7f bb
       0.004169182 -0.0056373416 -0.0033622673 -0.0038951887
000150 f6 d8 71 bc 39 2e ce bc 41 b2 eb bb d4 09 26 bc
       -0.0147612 -0.025168525 -0.0071928804 -0.010134179
000160 76 7f 0d bc 8c 0b 8d bb 9a 88 13 bc 2a 4d 83 bc
       -0.008636346 -0.004304355 -0.009004736 -0.016028006
000170 3c 85 d9 bc 60 84 74 bc 00 1b a3 39 d0 99 92 3a
       -0.026552789 -0.014924139 0.000311099 0.0011184756
000180 16 90 69 bc 80 a7 be bc ee 17 7c bc 9e a8 22 bc
       -0.014255544 -0.02327323 -0.015386565 -0.009927897
000190 21 e7 15 bc c0 b2 ef ba f2 eb 32 bc 6a b2 2e bc
       -0.009149344 -0.0018287525 -0.010920512 -0.010662654
0001a0 00 00 00 00 00 00 00 00 00 00 00 00 00 00 00 00
       0.0 0.0 0.0 0.0
0001b0 00 00 00 00 00 00 00 00 00 00 00 00 00 00 00 00
       0.0 0.0 0.0 0.0
0001c0 00 00 00 00 00 00 00 00 00 00 00 00 00 00 00 00
       0.0 0.0 0.0 0.0
0001d0 00 00 00 00 00 00 00 00 00 00 00 00 00 00 00 00
       0.0 0.0 0.0 0.0
0001e0 00 00 00 00 00 00 00 00 00 00 00 00 00 00 00 00
       0.0 0.0 0.0 0.0
0001f0 00 00 00 00 00 00 00 00 00 00 00 00 00 00 00 00
       0.0 0.0 0.0 0.0
000200 00 00 00 00 00 00 00 00 38 0d 08 bc 6e 37 19 bc
       0.0 0.0 -0.008303933 -0.009351594
000210 8a 3b 95 ba d0 7b d5 bb d8 6e 99 bb cc a5 47 bc
       -0.0011385542 -0.0065150037 -0.004682403 -0.012185525
000220 66 0a 9d bc 98 e8 da bc 52 b0 3e bc f9 01 78 bc
       -0.019169997 -0.026722237 -0.011638718 -0.015137189
000230 e4 c9 3f bc cc 9a c8 bb 14 dd 40 bc aa 0a 91 bc
       -0.011705849 -0.006121969 -0.011771459 -0.01770528
000240 47 66 af bc 6a e6 90 bc 03 cf 4b bc 74 be 40 bc
       -0.021411074 -0.017687995 -0.012439492 -0.011764158
000250 da d6 5c bc 16 51 a0 bc 19 62 ad bc 48 72 38 bc
       -0.013478959 -0.019569915 -0.02116494 -0.0112577155
000260 2e e7 1f bc 64 68 40 bb e4 77 49 bc 6e 34 45 bc
       -0.009759707 -0.0029359097 -0.012296651 -0.012036426
000270 f8 96 0a bb 58 0f dc bb b8 31 a5 3b 1a 97 13 bc
       -0.0021147113 -0.0067156963 0.0050413273 -0.009008193
000280 28 d5 74 ba 8c 13 f1 3c 44 23 ed 3c 70 b5 9b 3a
       -0.0009339624 0.029428266 0.02894748 0.0011879634
000290 69 1f 98 3c 57 2a cf 3c 30 dc 2a 3b fd f8 f4 bb
       0.018569665 0.025288744 0.0026071183 -0.007475971
0002a0 69 01 7b 3c c4 5a 42 3b 80 ab 2d ba d7 f7 66 3c
       0.01532016 0.0029656151 -0.0006624982 0.014097176
0002b0 b8 4a 4d 3b c0 52 3e ba 01 9e fb 3c 06 f1 e5 3a
       0.0031325053 -0.00072602555 0.03071499 0.0017543144
0002c0 b0 c0 c8 ba e0 4f 88 39 c8 ba c0 ba 98 0b 97 ba
       -0.0015316214 0.00025999453 -0.0014704103 -0.0011523841
0002d0 30 2b af 3a f8 1d 48 3a 82 8a cf bc 73 6c ea bc
       0.0013364311 0.000763386 -0.0253346 -0.028616166
0002e0 ac f6 94 bc 6c f8 7b bc bc e7 b5 bc 00 15 7a bd
       -0.018184029 -0.015379053 -0.022205226 -0.061055183
0002f0 11 55 97 bd 4c b8 77 bd d2 09 61 bd be 53 83 bd
       -0.07389272 -0.060478494 -0.054941006 -0.06412457
000300 91 7f d2 bc f2 5d 4d bc b6 75 3b bd 66 bf 00 bd
       -0.025695594 -0.012534605 -0.045766555 -0.03143253
000310 09 d7 ff bc a4 6a 53 bd ef b8 05 bd 6d 05 25 bd
       -0.031230466 -0.051615372 -0.03264707 -0.040288378
000320 eb 22 09 bd 5a ef 98 bc 65 a6 5b bd 37 4d b2 bc
       -0.033480566 -0.01866882 -0.053625483 -0.021765335
000330 f0 38 a1 bc 03 94 d1 bb 47 30 b4 bc 3a ff b3 bc
       -0.01968047 -0.006395818 -0.021995677 -0.021972287
000340 6a 7f 08 bb d0 e0 53 ba 91 c9 a6 3b 20 b4 db b9
       -0.0020827898 -0.0008082511 0.0050899466 -0.0004190514
000350 74 50 29 3b 41 af 53 3c 6c 96 0c 3c 00 17 8c b9
       0.0025835307 0.012920202 0.008580785 -0.00026720017
000360 50 b6 02 3c 45 b1 1c 3c 88 a0 95 3a b1 48 f7 bb
       0.007978037 0.009563749 0.001141564 -0.0075465073
000370 4b 9e 95 3b a8 97 39 bb 28 ce fd bb e4 d2 56 3b
       0.004565989 -0.0028319154 -0.007745523 0.003277951
000380 98 75 db 3a 54 7b 61 3b 60 90 35 3b a0 ab e4 bb
       0.001674342 0.0034405785 0.0027704462 -0.006978467
000390 e0 e1 ad 3a cc 91 d8 ba 74 66 2a bb 9c 31 7b ba
       0.0013266169 -0.0016522943 -0.0026001008 -0.00095822825
0003a0 dc db f9 ba b0 a9 f8 ba 02 27 26 bc f1 e7 59 bc
       -0.0019062716 -0.0018971469 -0.010141136 -0.013299928
0003b0 8e 25 0e bc 0c f8 61 bb 13 b8 04 bc 78 79 03 bd
       -0.008675946 -0.0034480123 -0.008100527 -0.032098264
0003c0 2f 1e 2b bd b4 21 3a bd f7 bc dc bc 70 f5 0f bd
       -0.041776832 -0.045442298 -0.026945574 -0.035146177
0003d0 28 18 79 bc ca 40 5a bc ce 89 bc bc 8c 6a d5 bc
       -0.015203513 -0.013321111 -0.02301493 -0.026051782
0003e0 94 b3 fa bc b9 fb eb bc d6 84 9b bc a4 a9 e4 bc
       -0.030603208 -0.028806554 -0.01898424 -0.027912922
0003f0 86 de f6 bc b7 3c 8a bc 90 fa 08 bd 86 1d 8a bc
       -0.030135404 -0.016874654 -0.03344208 -0.016859781

exp_avg_sq f4 [128, 26]
000000 f0 73 ce 3a 9f 95 b1 3a 2e 73 c2 3a ba 89 ca 3a
       0.0015751105 0.0013548619 0.0014835352 0.0015452423
000010 80 2c c3 3a 05 29 99 3b fc 11 aa 3b bd 93 56 3c
       0.0014890581 0.0046740794 0.005190132 0.013096747
000020 00 b6 96 3b c3 ca 94 3b ba 52 e8 3b e9 4d e7 3b
       0.004599333 0.0045407726 0.00708994 0.007058848
000030 a2 7c 15 3b df 71 37 3c 92 aa 5f 3c b9 d6 c7 3b
       0.0022809883 0.011196583 0.013651507 0.006098595
000040 a2 32 5f 3c 07 78 58 3c 4b 46 5e 3c da 40 62 3c
       0.013622912 0.0132122105 0.013566564 0.013809407
000050 26 48 58 3c 47 62 a3 3b 7c 0b 85 3b 16 dc 51 3a
       0.013200795 0.004986081 0.004060207 0.00080055126
000060 ba b4 b4 3b 09 81 b0 3b 66 0a aa 3b 37 83 9d 3b
       0.0055147083 0.005386476 0.005189228 0.004806902
000070 5a b7 9a 3b fb a7 a6 3b e4 16 a0 3b e6 c6 73 3c
       0.0047215642 0.005085943 0.0048855413 0.014878964
000080 a1 ad 8a 3c ee 10 30 3d 70 05 6f 3c 2c e7 68 3c
       0.016928496 0.042984895 0.014588699 0.014215272
000090 21 e4 cf 3c a1 e2 be 3c d4 d9 f1 3b 31 cf 19 3d
       0.025377335 0.023301424 0.0073807035 0.03755111
0000a0 c8 2a 48 3d 2a e0 a2 3c 76 30 3e 3d ae 91 36 3d
       0.048868924 0.01988228 0.046432935 0.044572525
0000b0 bd bb 3e 3d d4 9a 4b 3d 2a f8 36 3d 12 eb 87 3c
       0.04656576 0.049708202 0.04467026 0.016591582
0000c0 47 1f 5f 3c 74 e6 33 3b 75 ed 96 3c fb 61 93 3c
       0.013618297 0.0027450593 0.018423775 0.017991057
0000d0 b9 a7 2c 3a b3 7c 26 3a e6 b9 25 3a ec b5 28 3a
       0.0006586272 0.0006350979 0.00063219515 0.00064358
0000e0 fe a6 23 3a fa 0b 14 3b aa 25 26 3b 7c d3 ec 3b
       0.00062428403 0.0022590146 0.002535204 0.0072273593
0000f0 f1 7b 0e 3b 19 2f 0e 3b 1a f2 85 3b 7e 6c 80 3b
       0.0021741355 0.0021695553 0.0040876986 0.0039191833
000100 04 5c 85 3a 21 87 cf 3b 74 78 01 3c 57 c3 4b 3b
       0.0010174518 0.0063332473 0.007902253 0.0031091773
000110 6f 61 ff 3b 0b 54 ef 3b 9b e2 05 3c 04 af 01 3c
       0.0077935974 0.00730372 0.008171703 0.007915262
000120 c6 cd ef 3b 9d ba 36 3b 50 a3 14 3b 81 12 ed 39
       0.0073182313 0.0027882226 0.002268035 0.0004521795
000130 3c 42 4b 3b d4 59 46 3b 61 6c 0e 3b c2 0b f9 3a
       0.003101482 0.0030265944 0.002173208 0.0019000696
000140 dd 09 fc 3a ad a9 12 3b d1 5a 10 3b 14 59 e4 3b
       0.0019229014 0.0022378967 0.0022026787 0.0069686268
000150 e8 5b fc 3b a2 47 a4 3c a0 64 dd 3b 62 8b d6 3b
       0.0077013858 0.020053688 0.00675638 0.0065473774
000160 7c 70 3d 3c d2 b5 35 3c 16 4f 58 3b b3 da 94 3c
       0.011562463 0.011090713 0.0033006123 0.01817069
000170 b8 15 b6 3c dc 09 15 3c bc 0b b4 3c 03 16 b4 3c
       0.022227153 0.009096589 0.021978252 0.021983152
000180 a9 43 b9 3c 88 c5 c0 3c c9 28 b0 3c 7a f4 00 3c
       0.02261527 0.02353169 0.021503823 0.007870788
000190 e3 ab d1 3b e1 14 a6 3a 9b ce 11 3c 61 a0 0d 3c
       0.0063986643 0.0012671017 0.008899356 0.008644194
0001a0 00 00 00 00 00 00 00 00 00 00 00 00 00 00 00 00
       0.0 0.0 0.0 0.0
0001b0 00 00 00 00 00 00 00 00 00 00 00 00 00 00 00 00
       0.0 0.0 0.0 0.0
0001c0 00 00 00 00 00 00 00 00 00 00 00 00 00 00 00 00
       0.0 0.0 0.0 0.0
0001d0 00 00 00 00 00 00 00 00 00 00 00 00 00 00 00 00
       0.0 0.0 0.0 0.0
0001e0 00 00 00 00 00 00 00 00 00 00 00 00 00 00 00 00
       0.0 0.0 0.0 0.0
0001f0 00 00 00 00 00 00 00 00 00 00 00 00 00 00 00 00
       0.0 0.0 0.0 0.0
000200 00 00 00 00 00 00 00 00 53 e0 2c 3a a1 c8 1c 3a
       0.0 0.0 0.0006594706 0.0005980824
000210 bc c2 1b 3a 25 57 2d 3a a5 31 14 3a 1b d0 ff 3a
       0.00059417984 0.0006612412 0.00056531496 0.0019516976
000220 83 ee 0d 3b 16 27 cc 3b bb 36 00 3b f0 84 f0 3a
       0.0021657057 0.0062302453 0.0019563872 0.0018350165
000230 94 c7 64 3b c1 d2 4f 3b cc 96 74 3a ee 16 af 3b
       0.0034908997 0.0031711312 0.0009330332 0.0053433096
000240 76 cb e3 3b 8f be 25 3b eb 76 d4 3b 7c 6c d1 3b
       0.0069517447 0.0025290584 0.0064839027 0.006391106
000250 55 2f df 3b 2d 07 d5 3b 5f 72 bd 3b 00 90 18 3b
       0.0068110623 0.0065010996 0.0057814564 0.002327919
000260 16 ab f5 3a 00 c1 c2 39 d3 f7 2a 3b 24 65 26 3b
       0.0018743004 0.0003714636 0.0026087656 0.0025389874
000270 e6 21 b9 3a e3 b0 cf 3a 8b 65 de 3a f6 b9 bc 3a
       0.0014124482 0.0015845563 0.0016967518 0.0014398682
000280 a7 a3 e3 3a e1 2e 8d 3b 7f 9e 9e 3b da 3d 58 3c
       0.0017367498 0.004308567 0.0048406716 0.01319834
000290 85 1d 8b 3b 74 93 80 3b c6 d4 08 3c b0 f5 06 3c
       0.0042454624 0.003923828 0.00835151 0.008237287
0002a0 ca ae 2a 3b a6 b3 40 3c 4c 72 6c 3c fe b8 bd 3b
       0.0026044124 0.0117615815 0.014431547 0.005789875
0002b0 a7 07 90 3c 84 bd 77 3c ed 9d 87 3c 33 8e 64 3c
       0.017581774 0.015120868 0.016554797 0.013949919
0002c0 c4 0c 81 3c 57 07 b1 3b 49 30 94 3b 60 ee 70 3a
       0.015753157 0.0054024863 0.0045223576 0.0009190794
0002d0 22 57 c0 3b b0 df bc 3b 50 3d be 3b 0e 6a b9 3b
       0.005869762 0.0057639703 0.005805649 0.0056583947
0002e0 4d 32 c2 3b c7 d0 bf 3b 9b be c5 3b 15 c3 9e 3c
       0.0059264065 0.0058537456 0.006034685 0.019380132
0002f0 ab 0c b0 3c 9e 89 5e 3d 06 66 9b 3c a5 ac 9a 3c
       0.021490416 0.05433046 0.018969547 0.018881151
000300 17 ad f8 3c e2 f5 f2 3c ed f0 18 3c e1 97 41 3d
       0.030355973 0.029658262 0.009334785 0.047263984
000310 c6 53 6b 3d 20 d8 d2 3c 1d aa 6b 3d 43 0f 66 3d
       0.05745294 0.025737822 0.05753528 0.0561669
000320 6c 09 76 3d bb ef 6e 3d aa d0 62 3d 1e f6 ab 3c
       0.06006758 0.058334094 0.05537478 0.020991381
000330 d4 27 8d 3c b0 65 60 3b f4 c7 bd 3c a7 71 b9 3c
       0.017230906 0.0034240298 0.023166634 0.022637201
000340 68 6f 3e 3a 63 4a 2f 3a f3 6f 27 3a e2 69 2c 3a
       0.00072645256 0.00066868047 0.0006387226 0.0006577057
000350 3d a8 35 3a 09 a1 30 3b be 24 41 3b 6e 6d d1 3b
       0.00069296715 0.0026951453 0.0029471363 0.006391219
000360 e0 f3 2d 3b f8 c3 2b 3b f5 f6 7a 3b 43 9f 75 3b
       0.0026543066 0.0026209336 0.003829417 0.003747896
000370 cf e5 93 3a f7 54 c0 3b 3a b7 ee 3b f8 cb 5c 3b
       0.0011283698 0.0058695036 0.007285026 0.003369091
000380 67 ab ed 3b 9f 54 f0 3b 00 46 f0 3b 61 83 f5 3b
       0.007253099 0.0073343064 0.0073325634 0.007492468
000390 63 3a ea 3b d3 69 2b 3b 09 ae 0d 3b 1d 15 df 39
       0.0071480735 0.0026155605 0.0021618626 0.00042549605
0003a0 5d 45 3e 3b 32 bd 39 3b c4 19 39 3b 63 00 2a 3b
       0.0029033043 0.002834153 0.0028244117 0.0025940172
0003b0 6b 93 31 3b 8a 7f 3a 3b b9 e2 1f 3b d7 af 0a 3c
       0.0027095925 0.0028457367 0.0024396612 0.008464775
0003c0 bb 50 1d 3c 7d 2c ea 3c 9a af 0a 3c e0 42 06 3c
       0.009601767 0.028585667 0.008464718 0.008194655
0003d0 62 83 80 3c 90 01 7b 3c 55 2f 81 3b 17 fe cc 3c
       0.015687648 0.015320197 0.00394241 0.025023503
0003e0 b7 ae f5 3c 1e 44 47 3c aa 49 f5 3c 18 e3 f6 3c
       0.029990537 0.0121622365 0.029942352 0.030137584
0003f0 ed f4 03 3d b8 51 f4 3c 89 b8 e9 3c f6 c0 32 3c
       0.032216 0.029824123 0.028530376 0.010910263

exp_avg f4 [128]
000000 5d bd c0 bc 62 cf 89 bd 2c 27 c9 bc cc 92 bb bc
       -0.023527795 -0.06729008 -0.024554811 -0.022897147
000010 00 00 00 00 c8 33 cf bc 14 d3 8a 3b d7 ec 37 bd
       0.0 -0.025293246 0.0042365883 -0.044903602
000020 dc 90 84 bb af 70 18 bd b8 f1 0c 3d 02 ea 44 bd
       -0.004045589 -0.03721684 0.03441021 -0.04807473
000030 6d e3 b9 bd 5e 14 3b bc 5b 76 4e bd a9 44 82 bd
       -0.09076581 -0.01141843 -0.05040584 -0.06360752
000040 b0 0e 54 3b e8 75 ee 3a 00 00 00 00 9f a9 21 3d
       0.0032357387 0.0018193098 0.0 0.039468404
000050 00 00 00 00 a7 c5 f5 bc 50 33 77 bd e1 43 bd b8
       0.0 -0.030001475 -0.06035167 -9.024866e-05
000060 f4 59 b0 bc 76 cc f6 bc 3e a9 52 bc 96 8c 55 bc
       -0.021527268 -0.030126791 -0.012857733 -0.013034007
000070 69 22 62 bd 00 00 00 00 67 ba d9 33 00 00 00 00
       -0.055208597 0.0 1.0138756e-07 0.0
000080 62 91 fe bc c2 a0 8d bd 3c 43 ec bc 90 46 17 3b
       -0.031075183 -0.06915428 -0.028840654 0.002308283
000090 64 7a 12 bd b0 38 5d 3b 82 44 88 bc be ec 20 bc
       -0.035761252 0.0033755712 -0.01663423 -0.009822069
0000a0 6e c5 02 bd f5 08 fa bc f5 2d d7 38 f4 82 1e 3b
       -0.031926565 -0.03052185 0.00010260559 0.002418694
0000b0 e0 8e 51 bd a0 06 19 bd 1f ae 74 3c 2a 45 70 bb
       -0.051161647 -0.037359834 0.014934092 -0.0036662319
0000c0 f0 ba 16 bd 52 9d 44 bd 9d 2a 2a 3b 32 d3 a0 bd
       -0.03679937 -0.048001595 0.002596534 -0.07852782
0000d0 73 18 18 bd fa 5c 54 bd 21 ff 47 b8 d0 6c 29 bd
       -0.03713269 -0.05184648 -4.7682905e-05 -0.041363537
0000e0 c8 24 9e bd 8c 2f a2 ba f2 34 3c bd fc 1d 2a bd
       -0.07721859 -0.0012373789 -0.04594893 -0.0415325
0000f0 8a dc 37 bd e9 50 63 bd 9c 14 87 bb ff 8a 87 bd
       -0.044888057 -0.055497084 -0.00412233 -0.06618308
000100 73 4f 55 bd f9 c0 e1 bc 56 e8 83 0f d4 b7 0b bd
       -0.05207772 -0.027557837 1.300709e-29 -0.03411086
000110 c8 f9 84 bb c6 11 f2 bc b6 cf 1c bd f6 6d 21 bc
       -0.0040580966 -0.02954949 -0.038284026 -0.009852877
000120 d9 5c 1f a2 bf 0a 60 bd 89 cf 2f bd f1 6c 1e 3c
       -2.1597671e-18 -0.05469775 -0.04292253 0.009669528
000130 32 5a 2d bd 17 d8 79 bd 43 9d 85 3a 00 00 00 00
       -0.042322345 -0.060997095 0.0010193962 0.0
000140 4c 8d 92 bd 21 36 5e 36 f3 13 8f bc f6 3f eb bc
       -0.071558565 3.3112085e-06 -0.017465567 -0.028717022
000150 6a 4d 75 bd 5f 33 83 bc 12 f2 51 bc 86 5d 2d bb
       -0.05988828 -0.016015707 -0.012814062 -0.002645345
000160 4b bd 0f bd 58 38 7c bd 3a d6 2b ae 63 25 80 bd
       -0.035092633 -0.06157717 -3.907117e-11 -0.06257131
000170 20 8c 0d bd 3b c4 ee 3b 1e dc 45 bd e5 2f 12 bd
       -0.03455746 0.007286576 -0.048305623 -0.035690207
000180 70 15 86 bd 7a e3 41 1f 90 b4 b9 bc 1c b7 2c bd
       -0.06547058 4.1057504e-20 -0.022669107 -0.042166814
000190 83 30 fa bc 48 65 97 bb 81 fa b3 3c e0 94 72 bd
       -0.03054071 -0.004620228 0.021970036 -0.05922401
0001a0 74 8b f2 bc e3 25 91 25 e7 ea 8e bd a2 8f 92 bc
       -0.029607512 2.5179163e-16 -0.06978398 -0.017890755
0001b0 b1 f5 30 bd 4e 0f fb 3b 82 53 18 bc 00 00 00 00
       -0.04320306 0.0076617366 -0.009297254 0.0
0001c0 e3 e4 39 35 00 00 00 00 00 00 00 00 aa 4f 5d bc
       6.9250945e-07 0.0 0.0 -0.013507763
0001d0 6f e9 02 3c 06 be 58 bd 28 49 72 bd f8 ed 24 bd
       0.007990225 -0.052915595 -0.0591518 -0.040266007
0001e0 7c bc 6a bc fa 8b 0e bd 3e 74 82 3a e4 1a 2a bb
       -0.014327165 -0.03480146 0.0009952856 -0.002595597
0001f0 7c d9 05 bd 00 00 00 00 4f 00 d2 ad d6 6c 3c bd
       -0.032678112 0.0 -2.3874373e-11 -0.04600223

exp_avg_sq f4 [128]
000000 47 30 bb 3c c3 f2 9c 3d 58 c3 53 3c 76 e4 17 3d
       0.022850169 0.076634906 0.012924992 0.03708311
000010 00 00 00 00 b2 a9 32 3c 70 a2 c4 3c 51 8b c5 3d
       0.0 0.010904716 0.024003237 0.09645713
000020 df 41 44 3c 1e 2d 51 3d 6f 59 44 3c e1 28 0b 3d
       0.0119785955 0.051068418 0.011984213 0.033974532
000030 96 f0 e7 3d 19 b0 4b 3b f4 b7 fb 3c 8c c4 a0 3d
       0.11325185 0.0031080304 0.030727364 0.07849988
000040 51 a1 18 3b 10 a7 a6 3a 00 00 00 00 92 b5 b3 3c
       0.0023289511 0.0012714583 0.0 0.021937165
000050 00 00 00 00 98 96 d0 3b 41 2b e0 3d 92 1f 32 38
       0.0 0.0063656084 0.1094575 4.246791e-05
000060 40 05 82 3c 6d dd b1 3c 98 de 25 3c 69 9a bf 3c
       0.015871644 0.02171203 0.010123871 0.023389058
000070 65 6c 6a 3d 00 00 00 00 cf 9f 81 37 00 00 00 00
       0.05723228 0.0 1.5452415e-05 0.0
000080 5a e6 3d 3d 81 02 df 3d 99 26 8d 3c 56 a9 64 3a
       0.04636226 0.108891495 0.017230319 0.0008722743
000090 27 e7 99 3c ec bd 0a 3a b9 da da 3c af bd b1 3c
       0.01878698 0.0005292583 0.026715623 0.021696893
0000a0 90 b6 84 3d 2b 7c 04 3d 1f 22 22 36 a5 3a 64 3a
       0.064801335 0.03234498 2.4159742e-06 0.00087062485
0000b0 9f af 8b 3d b2 b9 fd 3c a2 d7 8d 3c f2 ad 96 3a
       0.068206064 0.030972335 0.017314736 0.0011495932
0000c0 b0 9b 3b 3d b7 0a 93 3d 37 f8 2a 3b 3a 7e d8 3b
       0.045802772 0.07179778 0.002608789 0.0066068443
0000d0 a7 e9 30 3d 91 b0 30 3d 67 7a f9 39 f7 5b 36 3d
       0.04319158 0.043137137 0.00047584178 0.0445213
0000e0 f8 31 bd 3d 82 40 ae 37 6d 93 ae 3d f5 51 8a 3d
       0.092380464 2.0772455e-05 0.08524213 0.06753913
0000f0 1b a8 1d 3d d3 71 cf 3c 09 f8 b0 39 58 03 c7 3d
       0.038490396 0.02532283 0.00033754137 0.09717435
000100 31 b9 72 3d 1a 79 23 3c 1b 78 4a 30 80 83 02 3d
       0.059258644 0.009977603 7.365785e-10 0.03186369
000110 23 fa 92 3b ea d9 fe 3c 5b 9b 2a 3d cb ca 3c 3c
       0.004485385 0.031109769 0.041652065 0.011522959
000120 99 ae 2b 36 d8 3c ff 3d 49 b1 34 3d 53 dd 91 3a
       2.5582615e-06 0.12462777 0.044114385 0.0011128582
000130 57 eb f9 3c 3e 8f 9f 3d 06 58 c7 37 00 00 00 00
       0.030507727 0.07790993 2.3763638e-05 0.0
000140 c5 67 96 3d 55 0b a9 35 a0 36 a9 3c f7 f1 94 3c
       0.07344011 1.2594779e-06 0.02065593 0.018181784
000150 64 f7 72 3d a9 9e 4b 3c a3 7b 41 3a ca b6 ef 3a
       0.05931796 0.012427964 0.0007380789 0.0018288728
000160 dd 62 6d 3d c1 1c 61 3d e8 3e c1 36 ec c5 4a 3d
       0.05795561 0.054959062 5.7591715e-06 0.04950516
000170 26 f3 bc 3c 43 19 c7 3b 9f e4 f3 3c a2 06 c6 3c
       0.023065161 0.0060760095 0.029772101 0.024173085
000180 a9 39 08 3d 07 f4 75 37 51 94 c5 3c 86 31 84 3d
       0.033258114 1.4659955e-05 0.024118574 0.06454758
000190 e3 50 11 3d 32 b5 07 3c 14 f4 f2 3a 94 a7 77 3c
       0.03547753 0.008282946 0.0018535876 0.015115637
0001a0 e4 5d 92 3c 57 90 2f 34 e0 7b 00 3e d0 05 a2 3c
       0.017867036 1.6350656e-07 0.12547255 0.019778162
0001b0 3f 99 2d 3d 4e fb 0b 3a 2d 48 06 3d 00 00 00 00
       0.042382475 0.00053398765 0.032783676 0.0
0001c0 72 83 12 37 00 00 00 00 00 00 00 00 62 60 a9 3c
       8.732883e-06 0.0 0.0 0.020675842
0001d0 1b 2b 64 3b 13 81 6f 3d 72 33 47 3d e0 67 11 3d
       0.0034815732 0.058472704 0.048633046 0.035499454
0001e0 13 e4 56 3c ba 02 e0 3c b3 64 c2 38 9b 1d ae 3a
       0.013115901 0.02734505 9.2693976e-05 0.001328397
0001f0 79 21 9f 39 00 00 00 00 a0 37 43 32 6d 64 19 3d
       0.00030351782 0.0 1.13631415e-08 0.03744929
