models/reinforce/reinforce_low_gamma/checkpoint_ep900.pth (torch, 259594 bytes, 18 tensors)

network.0.weight f4 [128, 26]
0.13336977 0.13981783 -0.12793295 0.07698132 0.11042475 0.11714114 0.018068017 -0.0029693574
-0.16560775 0.13601795 -0.0700983 -0.14564209 -0.10844554 -0.10669329 -0.1364664 -0.07033379
-0.007029919 -0.102947965 -0.08395483 -0.18021171 0.13201335 -0.13491745 0.16908436 -0.20599294
0.0026243364 -0.0788605 0.043238968 -0.052953374 -0.16647452 -0.20307823 -0.19724698 -0.030207038
0.17750014 -0.07376125 -0.04251211 -0.21250743 0.13835937 0.038563207 -0.23224115 0.061501805
0.16557181 -0.37811744 0.11191173 -0.12111687 0.092379995 0.024233203 0.014733245 0.18476857
0.034410052 0.11624084 0.11251676 0.03220458 0.012179247 0.085762374 -0.1608777 0.024593595
0.1202106 -0.15873662 0.10865445 -0.14428681 0.14868398 -0.0684097 -0.04135714 0.089369595
-0.07360398 -0.043374322 -0.10328242 -0.108666025 0.078132786 -0.14972961 -0.13029955 0.16713963
0.1758197 0.15321095 -0.11638452 0.08813018 0.08269438 0.0762266 -0.18124495 0.049704
-0.1804154 -0.06964122 0.16807441 -0.071532995 -0.0025175149 0.0023391077 0.090832874 -0.18830168
-0.041827608 0.035700116 0.10933755 -0.17247236 -0.01025503 0.064201444 0.1096132 0.026125029
-0.10847049 -0.01420019 0.0052137324 -0.131044 0.03320394 -0.07013257 0.011673083 -0.054911185
-0.028406635 -0.08287467 0.1161912 -0.035027318 0.08491367 -0.066026 -0.0910584 0.10243174
0.08389591 0.035382602 0.15550056 0.09835649 -0.103495985 -0.030522028 -0.0029241524 -0.06321563
-0.17283279 -0.19803137 0.16822866 0.17358302 -0.06429561 0.11462966 -0.070151135 -0.15283838
-0.16720466 -0.14739159 -0.076858215 -0.18947674 -0.022134181 0.16750409 0.047732364 -0.11286244
-0.16410506 0.23980975 -0.11829739 0.030896502 0.021751156 -0.097988375 -0.16388042 -0.066448726
0.23824152 -0.22032093 0.14435619 0.107511394 0.15144604 0.23007818 -0.08765542 -0.06336176
0.069406636 0.2160292 0.11490861 -0.07400932 0.08187502 0.080585055 0.041850656 0.19877926
-0.057017133 0.07049324 -0.014879223 -0.12042061 0.10737218 0.12455731 -0.057208423 -0.035984036
-0.08822409 -0.00089491886 0.23182647 -0.32787675 0.183048 0.17535278 0.21142147 0.18492159
-0.17312244 -0.14999801 -0.036874514 0.20204031 -0.01040067 0.07037864 -0.19193336 0.042951453
0.091993876 -0.17552128 -0.2907764 -0.066102676 0.065670244 -0.009099933 -0.0065077962 -0.12618299
0.16919778 -0.07947884 -0.13271599 -0.07442171 -0.088893674 0.27114087 0.115195364 -0.13783142
0.19929592 0.13010871 0.15617403 -0.08492679 -0.03959975 0.014217938 -0.11192493 -0.045542058
-0.22674036 0.10613707 -0.08028866 -0.2529413 0.07256558 -0.19104464 0.049532562 0.21176223
-0.21791875 0.114477076 -0.027831152 0.011903715 0.08755037 -0.10454958 0.10932492 -0.23258324
0.053888436 -0.10701845 0.07082123 0.022639986 0.16559212 0.047585968 0.12640598 -0.12403593
-0.12741186 0.14531599 -0.04510416 0.06393005 0.108445875 0.21154271 0.18175334 0.16915727
0.22612499 -0.045896992 0.024919657 -0.077888094 -0.055582028 0.19689947 0.16452932 0.10477559
0.058848 0.2391417 -0.017729498 0.03720998 0.16546968 -0.053183336 -0.004109579 0.01727315
00000000: 1692 083e 682c 0f3e db00 03be 62a8 9d3d
00000010: 5f26 e23d b2e7 ef3d 6103 943c 8d99 42bb
00000020: 1495 29be 4a48 0b3e b38f 8fbd 3323 15be
00000030: b218 debd 0382 dabd d9bd 0bbe 290b 90bd
00000040: 3c5b e6bb 62d6 d2bd 83f0 abbd 6b89 38be
00000050: 822e 073e cd27 0abe 7324 2d3e d0ef 52be
00000060: 0ffd 2b3b 9d81 a1bd 581b 313d a3e5 58bd
00000070: 4c78 2abe bdf3 4fbe 1dfb 49be c074 f7bc
00000080: 99c2 353e 2310 97bd 2e21 2ebd 8c9b 59be
00000090: 14ae 0d3e 74f4 1d3d a0d0 6dbe 51e9 7b3d
000000a0: a88b 293e 9c98 c1be fa31 e53d 1f0c f8bd
000000b0: b931 bd3d b684 c63c b563 713c f933 3d3e
000000c0: 8ef1 0c3d ad0f ee3d 306f e63d f3e8 033d
000000d0: 778b 473c 2fa4 af3d 20bd 24be 8278 c93c
000000e0: fa30 f63d da8b 22be 3986 de3d ecbf 13be
000000f0: 9d40 183e 631a 8cbd 1b66 29bd 6807 b73d
00000100: afbd 96bd 46a9 31bd bc85 d3bd 4b8c debd
00000110: 1504 a03d b852 19be 3f6d 05be a726 2b3e
00000120: 140a 343e 55e3 1c3e 025b eebd 997d b43d
00000130: ac5b a93d b11c 9c3d 4798 39be 6c96 4b3d
00000140: d1be 38be 0ea0 8ebd b31b 2c3e e47f 92bd
00000150: e4fc 24bb b74b 193b 9606 ba3d 28d2 40be
00000160: 6d53 2bbd 493a 123d 5eec df3d 989c 30be
00000170: b704 28bc 0c7c 833d e37c e03d 2804 d63c
00000180: c725 debd eaa7 68bc f5d7 aa3b 6630 06be
00000190: db00 083d aaa1 8fbd 7540 3f3c 8dea 60bd
000001a0: 08b5 e8bc 32ba a9bd a7f5 ed3d ce78 0fbd
000001b0: 38e7 ad3d a438 87bd d47c babd bbc7 d13d
000001c0: 9ed1 ab3d 59ed 103d 8a3b 1f3e 216f c93d
000001d0: b4f5 d3bd 5509 fabc 23a3 3fbb 3277 81bd
000001e0: 14fb 30be bcc8 4abe 2244 2c3e bfbf 313e
000001f0: 6bad 83bd f5c2 ea3d 66ab 8fbd aa81 1cbe
00000200: b337 2bbe d2ed 16be d767 9dbd 3106 42be
00000210: be52 b5bc 3186 2b3e 0383 433d 6c24 e7bd
00000220: 280b 28be b090 753e e745 f2bd a91a fd3c
00000230: 7b2f b23c 21ae c8bd 45d0 27be 4516 88bd
00000240: 96f5 733e cf9b 61be 1cd2 133e ef2e dc3d
00000250: ac14 1b3e 9d99 6b3e af84 b3bd cfc3 81bd
00000260: 1125 8e3d c236 5d3e 3555 eb3d 3392 97bd
00000270: 17ae a73d c709 a53d 986b 2b3d ca8c 4b3e
00000280: cc8a 69bd c35e 903d fcc7 73bc 159f f6bd
00000290: f2e5 db3d e717 ff3d 6153 6abd ff63 13bd
000002a0: d5ae b4bd fd98 6aba eb63 6d3e 76df a7be
000002b0: ef70 3b3e ae8f 333e df7e 583e 165c 3d3e
000002c0: 0247 31be 1499 19be bb09 17bd a8e3 4e3e
000002d0: 9267 2abc ad22 903d 2e8a 44be dded 2f3d
000002e0: 4967 bc3d dabb 33be a5e0 94be d760 87bd
000002f0: 1f7e 863d e317 15bc 5a3f d5bb 1d36 01be
00000300: 2f42 2d3e cdc5 a2bd b3e6 07be 696a 98bd
00000310: e30d b6bd fad2 8a3e 8ceb eb3d ae23 0dbe
00000320: 3b14 4c3e 383b 053e 16ec 1f3e 19ee adbd
00000330: 5933 22bd 5bf2 683c e638 e5bd 4f8a 3abd
00000340: a02e 68be 645e d93d 626e a4bd 8681 81be
00000350: 439d 943d 35a1 43be a8e2 4a3d 33d8 583e
00000360: 1826 5fbe f572 ea3d 28fe e3bc cd07 433c
00000370: 9c4d b33d 171e d6bd bee5 df3d 4d2a 6ebe
00000380: 1fba 5c3d 7d2c dbbd b90a 913d 7e77 b93c
00000390: fb90 293e 81e9 423d 9270 013e 8d06 febd
000003a0: 4178 02be b7cd 143e 24bf 38bd c2ed 823d
000003b0: df18 de3d a79e 583e 8c1d 3a3e 9037 2d3e
000003c0: 4f8d 673e 7cfe 3bbd 4f24 cc3c cb83 9fbd
000003d0: fba9 63bd 04a0 493e 607a 283e 9694 d63d
000003e0: 9a0a 713d 90e1 743e 743d 91bc 7e69 183d
000003f0: e270 293e c5d6 59bd a6a9 86bb 6c80 8d3c

network.0.bias f4 [128]
0.16331495 -0.047446776 -0.024493257 -0.0005339 -0.19838797 -0.029603524 0.0012386058 0.17835477
-0.16059105 0.06009866 0.088723965 0.0099439975 -0.15085907 -0.092056684 -0.0030143003 0.12868626
-0.009926522 0.043477364 0.21072653 0.13118958 0.09713465 0.10373042 -0.031983435 -0.15331146
0.11147403 0.07656222 -0.08469148 -0.16989313 0.18965708 0.14545234 -0.1483722 -0.19352551
0.22245196 -0.1339919 0.009087537 -0.09174149 -0.16170679 -0.043695677 0.020174071 -0.06895567
-0.0140617285 0.03830484 0.12335404 0.15085429 0.08752297 0.11866249 0.03853193 -0.10708762
-0.0999494 0.09512313 0.15029049 0.1895453 0.16983391 2.8202368e-05 -0.099552445 -0.13238971
-0.061000023 -0.07063639 -0.008697822 -0.1100845 -0.17752732 0.09218997 -0.061740752 -0.10799273
0.14984119 -0.005705761 0.15687433 0.07831894 -0.02649431 0.21372548 -0.06703228 -0.030768206
-0.08787347 0.1642329 0.12713291 0.1922873 0.038965814 -0.06941903 0.08736577 -0.053357173
0.0016896842 0.11042243 0.09366585 0.19360138 0.15688902 -0.02523501 0.15028651 0.038535897
-0.18522723 0.08327177 -0.15123354 0.1337678 0.039633423 -0.17619428 -0.16551071 -0.13011773
-0.17648438 -0.003276806 -0.06088195 0.09787682 -0.01876167 -0.092262335 -0.1511437 -0.08092362
0.13929409 0.1949682 0.16929008 0.16490902 -0.1443414 0.18760888 -0.1251881 0.20825568
0.016968876 0.17070776 0.20782712 0.111658596 0.13898964 0.19981174 0.07088448 0.014002289
-0.03319391 -0.1487009 -0.040934257 0.1230777 -0.19721255 0.16677073 -0.15461455 -0.15710448
00000000: 093c 273e 8d57 42bd 15a6 c8bc 6cf5 0bba
00000010: 3726 4bbe 1783 f2bc b758 a23a a2a2 363e
00000020: fb71 24be 032a 763d e9b4 b53d 26ec 223c
00000030: cd7a 1abe 3788 bcbd 918b 45bb 55c6 033e
00000040: daa2 22bc 5215 323d b2c8 573e 9056 063e
00000050: 88ee c63d 9d70 d43d 1001 03bd aefd 1cbe
00000060: 7f4c e43d a7cc 9c3d ba72 adbd 77f8 2dbe
00000070: 7735 423e 75f1 143e e2ee 17be 8d2b 46be
00000080: 72ca 633e 2c35 09be e5e3 143c f6e2 bbbd
00000090: 7796 25be 3dfa 32bd 1844 a53c a138 8dbd
000000a0: 2a63 66bc 89e5 1c3d 0ba1 fc3d 8c79 1a3e
000000b0: 3e3f b33d 5205 f33d a8d3 1d3d c150 dbbd
000000c0: 45b2 ccbd eacf c23d c0e5 193e 2a18 423e
000000d0: f1e8 2d3e 2094 ec37 27e2 cbbd 2b91 07be
000000e0: 29db 79bd d0a9 90bd 4f81 0ebc fb73 e1bd
000000f0: b9c9 35be 18ce bc3d dfe3 7cbd 4b2b ddbd
00000100: f86f 193e 64f7 babb aaa3 203e ae65 a03d
00000110: 980a d9bc dada 5a3e 3848 89bd 9b0d fcbc
00000120: 01f7 b3bd ab2c 283e 212f 023e f6e6 443e
00000130: 9e9a 1f3d 902b 8ebd d3ec b23d 0d8d 5abd
00000140: 6578 dd3a 2825 e23d e2d3 bf3d 713f 463e
00000150: 84a7 203e a7b9 cebc b5e4 193e d1d7 1d3d
00000160: 35ac 3dbe 648a aa3d f7dc 1abe 6dfa 083e
00000170: a856 223d 466c 34be a47b 29be 953d 05be
00000180: 52b8 34be afbf 56bb 5a5f 79bd a473 c83d
00000190: 13b2 99bc 09f4 bcbd 6ac5 1abe 48bb a5bd
000001a0: 1ca3 0e3e bea5 473e 615a 2d3e e9dd 283e
000001b0: 3bce 13be 8b1c 403e 4f31 00be fa40 553e
000001c0: 5002 8b3c 04ce 2e3e a2d0 543e 43ad e43d
000001d0: 4d53 0e3e 739b 4c3e e22b 913d db69 653c
000001e0: 56f6 07bd 0c45 18be aeaa 27bd 2910 fc3d
000001f0: 16f2 49be f2c5 2a3e 4753 1ebe ffdf 20be

network.2.weight f4 [128, 128]
0.07499125 0.028356982 -0.04404058 0.05683123 0.02456482 0.037018873 0.041448783 0.029558165
0.079681866 -0.008757922 0.060337078 0.07834644 0.084139876 -0.012444514 -0.026637202 -0.0678879
-0.05702208 -0.08191444 -0.09772525 0.039159246 0.034359954 0.045543943 -0.04429857 -0.08055208
0.059230797 -0.055312056 -0.041921645 0.052811783 -0.06127058 0.06600227 -0.036318455 0.059600182
0.00012653212 0.000814403 -0.07665072 -0.032166913 0.08041828 0.0010486468 0.048972033 0.0051295883
-0.059641827 -0.010368599 -0.07728065 0.0846088 0.017260555 -0.06379105 -0.009555779 0.025777899
0.06667634 -0.09662834 -0.059957407 0.052691013 -0.088311106 0.036303487 0.046176426 0.04957719
-0.036914896 -0.0767539 -0.020718215 0.028021274 -0.039155226 -0.07157333 -0.03325521 -0.06311335
-0.024970353 0.05259915 0.007467981 0.028817758 -0.039527357 -0.012913892 0.08499683 -0.061199535
0.07822604 0.096559785 0.04228615 -0.086210094 -0.004566225 0.024005214 -0.0461901 0.07432606
-0.038167153 0.0059860037 0.044989962 -0.06398802 -0.05249032 -0.09570849 -0.018494412 0.062951684
-0.04800151 0.024901759 -0.04103201 -0.041826654 -0.014186911 0.040410705 -0.010507084 0.061520856
-0.010038779 0.03487958 0.024743473 0.06706947 -0.034455907 -0.03236347 -0.06094757 0.026136203
-0.009055357 0.026534446 -0.0046843765 -0.009851585 0.036373615 0.084114365 -0.04624903 -0.08297883
0.08595864 -0.039101936 -0.01663501 -0.04305793 -0.05064813 0.08001443 0.004499136 0.016199673
-0.049820244 0.001308632 0.013452542 0.045199744 0.02482431 -0.051830318 -0.046020713 -0.07694536
-0.017454583 -0.05508413 -0.075940154 -0.04001526 -0.081914835 -0.03215352 -0.055959344 -0.053172387
-0.056447133 -0.038811382 -0.06536519 -0.05193884 0.007374354 0.009560701 -0.033096086 -0.021363623
0.012505142 0.01498446 -0.01669251 0.08900195 -0.14295796 0.075668186 0.033542998 0.03345093
0.065150104 -0.005823479 -0.0132694915 0.029299451 -0.16008306 -0.04122619 -0.05682831 0.055877015
0.023626473 -0.055330683 0.10884766 0.0014263971 0.16030797 -0.07882252 -0.062407956 -0.076405965
0.10979049 -0.10201166 0.026238626 -0.015980981 0.070171475 -0.05984391 -0.022215232 0.007804254
0.05628615 0.08126162 -0.0415863 0.07771081 0.03884988 -0.07898491 -0.07387047 -0.102735475
-0.009701361 -0.01146286 0.0035898173 0.0032449113 -0.065985784 -0.10212315 0.09983321 0.0514579
0.014614933 -0.029883265 0.053676344 0.03775552 0.07702952 0.0012606141 0.08565301 0.013981542
-0.041400734 0.0050779358 0.017077036 0.025824182 -0.002799577 0.09870923 0.04082145 0.08970421
0.07283746 -0.009421794 -0.011939101 0.04756024 0.027957259 -0.043984838 -0.0799218 0.0051880353
0.15913223 0.050193157 0.16498657 0.090100326 0.057157643 -0.017826192 -0.06066867 0.10831162
-0.06916912 0.15708789 -0.019499151 0.028155887 0.044208586 0.006224929 0.08719405 -0.00049446966
-0.08074784 -0.104141295 -0.096030705 0.0100095 0.04403879 -0.007814265 0.03475169 -0.027767176
-0.03118835 -0.056480423 -0.035364017 0.008148646 0.06981761 -0.002389647 0.021657983 -0.030367306
-0.046447482 -0.10206611 0.08762454 -0.050051756 0.068121485 -0.10991402 -0.027599115 0.08134321
00000000: 0395 993d e74c e83c e563 34bd ddc7 683d
00000010: 293c c93c 1aa1 173d 33c6 293d f723 f23c
00000020: 3f30 a33d 637d 0fbc 0324 773d 1974 a03d
00000030: 8751 ac3d 13e4 4bbc 4336 dabc d008 8bbd
00000040: fc8f 69bd c2c2 a7bd 2d24 c8bd 7265 203d
00000050: 06bd 0c3d 498c 3a3d 6b72 35bd 7df8 a4bd
00000060: fe9b 723d e58e 62bd 08b6 2bbd 2b51 583d
00000070: dcf6 7abd 332c 873d a9c2 14bd 521f 743d
00000080: b5ad 0439 a97d 553a 0dfb 9cbd 74c1 03bd
00000090: 57b2 a43d bf72 893a e696 483d 1b16 a83b
000000a0: fd4a 74bd 0ee1 29bc 5145 9ebd 6147 ad3d
000000b0: 0266 8d3c e2a4 82bd d88f 1cbc 2c2c d33c
000000c0: 9b8d 883d 14e5 c5bd e695 75bd 88d2 573d
000000d0: 74dc b4bd f7b2 143d 7e23 3d3d 7411 4b3d
000000e0: 1334 17bd 2631 9dbd 3fb9 a9bc df8c e53c
000000f0: 3b61 20bd 0a95 92bd 9d36 08bd 9241 81bd
00000100: a08e ccbc 3572 573d f7b5 f43b 3813 ec3c
00000110: 70e7 21bd ca94 53bc d112 ae3d 5dac 7abd
00000120: f934 a03d 23c1 c53d 3e34 2d3d eb8e b0bd
00000130: 46a0 95bb 95a6 c43c d531 3dbd 4338 983d
00000140: 2955 1cbd 3d26 c43b 6547 383d 270c 83bd
00000150: 1700 57bd d002 c4bd 9881 97bc d0ec 803d
00000160: 3b9d 44bd c6fe cb3c 2e11 28bd 6d52 2bbd
00000170: 3870 68bc b285 253d e825 2cbc 4bfd 7b3d
00000180: b179 24bc e4dd 0e3d d3b2 ca3c b85b 893d
00000190: a321 0dbd 8f8f 04bd 29a4 79bd 971b d63c
000001a0: ec5c 14bc c45e d93c 667f 99bb 8b68 21bc
000001b0: 80fc 143d 2744 ac3d 9f6f 3dbd cef0 a9bd
000001c0: 150b b03d 5a29 20bd 2546 88bc 835d 30bd
000001d0: 6a74 4fbd 9bde a33d 7d6d 933b 2db5 843c
000001e0: 5010 4cbd 6786 ab3a 0d68 5c3c 5e23 393d
000001f0: 5a5c cb3c 074c 54bd 3780 3cbd 8795 9dbd
00000200: eafc 8ebc e69f 61bd 8386 9bbd 0be7 23bd
00000210: f7c2 a7bd 69b3 03bd a035 65bd 4acb 59bd
00000220: 1c35 67bd aff8 1ebd 2fde 85bd d2bd 54bd
00000230: 91a4 f13b 7da4 1c3c c38f 07bd c402 afbc
00000240: 5ee2 4c3c 6181 753c bbbe 88bc a846 b63d
00000250: 9263 12be ecf7 9a3d 6264 093d d803 093d
00000260: 6b6d 853d e2d2 bebb 4868 59bc 6705 f03c
00000270: d0ec 23be cbdc 28bd cdc4 68bd 4cdf 643d
00000280: 4e8c c13c 6da2 62bd 86eb de3d f2f5 ba3a
00000290: c627 243e b46d a1bd 7c9f 7fbd bb7a 9cbd
000002a0: d6d9 e03d 7deb d0bd 63f2 d63c 8cea 82bc
000002b0: 10b6 8f3d e31e 75bd b8fc b5bc d4ba ff3b
000002c0: 4e8c 663d 7e6c a63d 6556 2abd d826 9f3d
000002d0: 0d21 1f3d d7c2 a1bd 6749 97bd fa66 d2bd
000002e0: 75f2 1ebc b8ce 3bbc 2443 6b3b 94a8 543b
000002f0: 8e23 87bd f125 d1bd 5b75 cc3d 85c5 523d
00000300: 7973 6f3c c0cd f4bc badb 5b3d 88a5 1a3d
00000310: a7c1 9d3d 313b a53a d86a af3d d612 653c
00000320: d193 29bd d064 a63b 24e5 8b3c 3c8d d33c
00000330: 1c79 37bb 1128 ca3d 6534 273d d7b6 b73d
00000340: ce2b 953d de5d 1abc 389c 43bc 87ce 423d
00000350: 9f06 e53c 7229 34bd 0aae a3bd 6500 aa3b
00000360: 8ff3 223e 5797 4d3d 3df2 283e 8586 b83d
00000370: 221e 6a3d 3c08 92bc b67f 78bd 7cd2 dd3d
00000380: 8aa8 8dbd a6db 203e afbc 9fbc 2da7 e63c
00000390: 1014 353d 7dfa cb3b cb92 b23d 4c9f 01ba
000003a0: 205f a5bd 0848 d5bd bfab c4bd e3fe 233c
000003b0: 0562 343d 6707 00bc ca57 0e3d fd77 e3bc
000003c0: b67e ffbc 0458 67bd dcd9 10bd e681 053c
000003d0: 89fc 8e3d a09b 1cbb 156c b13c dbc4 f8bc
000003e0: b73f 3ebd 0908 d1bd 7f74 b33d 1203 4dbd
000003f0: 4783 8b3d 9a1a e1bd 8a17 e2bc 4597 a63d

network.2.bias f4 [128]
0.053523656 -0.08777562 -0.08813101 0.0011289605 -0.08196581 0.011757815 0.08078265 0.016378459
-0.054732963 -0.08777183 -0.006206885 0.0011602555 0.015831169 -0.050021555 -0.04682367 0.01594422
-0.037973303 0.0144378515 0.017827705 0.021395206 0.0654448 -0.0055381604 -0.04621012 -0.07148814
-0.020541552 0.03539857 0.008210019 0.046095617 -0.022691201 -0.0121985525 -0.0012551323 0.016702313
0.005094248 -0.022713201 0.062147547 0.06380191 0.087472565 0.03923936 -0.0932827 -0.09064713
0.0045494786 0.10322882 0.06746018 0.037482694 -0.01633925 0.053463776 0.10259519 0.09827919
-0.0014217729 -0.03844416 -0.05664524 -0.037244037 0.06568019 -0.0419844 0.10946437 -0.07536717
0.009068506 0.06400915 -0.090343945 -0.07664085 -0.06398801 0.012998691 0.023087587 -0.052971896
-0.07777648 0.009503197 0.04407431 0.06992412 0.089457005 -0.06758953 -0.034442816 0.02516345
-0.034767564 -0.06844828 -0.09234733 0.06007793 0.024110314 0.055356365 0.007578753 -0.026975663
-0.08274803 0.09303542 0.004359344 0.010963786 -0.050909054 -0.028534858 -0.028011505 0.052404683
0.008006643 0.009955153 0.09979494 0.040097572 -0.051433854 0.0012719798 0.041381434 0.01917112
0.08722213 0.053519722 -0.07301037 0.11023459 -0.073676 0.07885605 -0.0177634 0.05129675
0.092284 -0.045047004 -0.03838305 -0.07208709 0.016805187 0.06354631 -0.06489268 -0.029038815
-0.016024405 -0.081079446 -0.034098413 0.084047295 0.055867836 0.07878792 -0.01869394 0.05559116
-0.06205397 0.051868733 0.0038971435 0.0460371 0.10446071 -0.07212466 -0.054473482 -0.0075602713
00000000: 9f3b 5b3d b4c3 b3bd 087e b4bd a1f9 933a
00000010: b1dd a7bd daa3 403c 6071 a53d 1e2c 863c
00000020: ac2f 60bd b8c1 b3bd 2063 cbbb b713 983a
00000030: 5eb0 813c 67e3 4cbd 2dca 3fbd 749d 823c
00000040: e589 1bbd bd8c 6c3c 680b 923c 0045 af3c
00000050: ec07 863d 7579 b5bb d346 3dbd 6068 92bd
00000060: c246 a8bc 17fe 103d 5183 063c c2ce 3c3d
00000070: e6e2 b9bc 70dc 47bc 4083 a4ba 4ad3 883c
00000080: a6ed a63b 0911 babc 6d8e 7e3d 93aa 823d
00000090: d124 b33d 73b9 203d 000b bfbd 34a5 b9bd
000000a0: cb13 953b a269 d33d 9028 8a3d 7487 193d
000000b0: e4d9 85bc d5fc 5a3d 6d1d d23d 9a46 c93d
000000c0: c85a baba a077 1dbd d704 68bd 348d 18bd
000000d0: 5683 863d d6f7 2bbd db2e e03d 1a5a 9abd
000000e0: 1294 143c 3b17 833d 3f06 b9bd e1f5 9cbd
000000f0: 250c 83bd 76f8 543c 2e22 bd3c 0ff9 58bd
00000100: 4649 9fbd 4cb3 1b3c 4487 343d 6134 8f3d
00000110: 3c35 b73d 616c 8abd e913 0dbd 9423 ce3c
00000120: 6f68 0ebd 9d2e 8cbd 9920 bdbd 4714 763d
00000130: fe82 c53c 5bbd 623d 3057 f83b 11fc dcbc
00000140: cd77 a9bd 5b89 be3d d4d8 8e3b 74a1 333c
00000150: 0386 50bd efc1 e9bc 6278 e5bc 4ba6 563d
00000160: 4b2e 033c f01a 233c 4a61 cc3d 5a3d 243d
00000170: 4eac 52bd 8fb8 a63a 947f 293d c10c 9d3c
00000180: 84a1 b23d 7f37 5b3d 7686 95bd acc2 e13d
00000190: 71e3 96bd 487f a13d 8d84 91bc 8a1c 523d
000001a0: 65ff bc3d 3583 38bd 8c37 1dbd 65a2 93bd
000001b0: 08ab 893c 9124 823d 74e6 84bd cfe2 edbc
000001c0: 9d45 83bc fb0c a6bd c7aa 0bbd fd20 ac3d
000001d0: acd5 643d 905b a13d 0924 99bc 8eb3 633d
000001e0: 4e2c 7ebd 4f74 543d 3867 7f3b 6691 3c3d
000001f0: 7fef d53d 18b6 93bd 961f 5fbd 27bc f7bb

network.4.weight f4 [8, 128]
-0.05931524 -0.10429985 -0.05809157 -0.09801595 0.058203835 -0.007893712 -0.018392636 0.024131859
0.072794355 0.06534503 0.028707355 0.06532895 0.022828804 0.032671064 0.03281686 -0.061762832
-0.103699 -0.01896988 -0.06852066 0.07779213 -0.028377572 0.025266178 0.01957147 0.03278834
-0.08382806 0.035290003 -0.052953616 0.010853052 -0.07623795 -0.007310167 0.023437917 -0.045772113
0.072952814 -0.065398104 0.08741302 0.05414334 -0.11619897 -0.019435901 0.07695097 -0.049897965
0.045898493 -0.0043975716 -0.11869888 0.030953744 0.012501441 4.0556897e-05 -0.06016116 -0.026276851
-0.09010241 0.06681796 -0.027104132 -0.08956476 0.06783087 -0.020836286 -0.083707325 -0.023736013
0.008836715 -0.08259965 -0.08744301 0.03463631 -0.06114988 -0.013085504 0.065224215 -0.014241382
0.0063052843 -0.08648975 -0.016967572 -0.07020614 -0.031485897 -0.039721392 -0.009057335 0.0054908213
0.05088918 0.08620121 0.025952034 0.075072095 -0.094450526 0.00032309841 0.022946812 0.023318527
-0.14156325 -0.038148064 -0.043610044 -0.058697086 0.070288494 -0.03619077 -0.06490265 -0.1273125
0.05329128 0.017621258 -0.1297988 0.009955667 -0.013316475 0.0829925 -0.14376213 -0.06745296
-0.028180715 -0.04856884 -0.048194356 -0.0938997 -0.035179667 0.026262546 -0.085508175 0.068114385
0.02819262 0.056039847 0.0038767625 -0.03306379 -0.017519057 0.030310439 -0.04658021 -0.034848426
-0.08853308 0.019479306 0.08537225 -0.06828327 -0.04126294 -0.04832259 -0.02945813 0.056062333
0.026299305 -0.018370938 -0.053528745 0.03818717 -0.040504873 0.010962376 0.05717846 0.0009123059
-0.07101713 0.005682879 0.08186064 0.11834221 -0.04236381 0.121878855 0.05921668 -0.002208154
0.046423025 0.07712281 0.010984808 -0.036370218 -0.07737918 0.02727265 -0.007870583 0.05718179
0.07967697 0.113935776 0.13165382 0.019069998 0.08783615 -0.06997347 -0.04309426 -0.012535318
-0.08607309 0.02491513 0.06516718 -0.032124043 0.12000365 -0.06887747 0.08187046 0.12563044
-0.037122373 -0.052494578 0.06448466 0.04151147 -0.03519299 -0.061572522 -0.0011188977 -0.040105842
0.09545962 0.10296077 0.077118516 -0.05392754 -0.06700019 -0.090802625 0.12394539 0.1099159
0.1012527 -0.020162992 0.033807453 -0.05374302 -0.064704664 -0.0705265 0.04299892 -0.012605468
0.1080642 -0.065041475 -0.049437873 -0.0515481 0.044603545 0.022921385 -0.006942469 0.018418778
-0.005277374 0.07254368 0.08152606 0.013032146 0.08716545 0.038674645 -0.02576614 0.023836741
-0.0639252 0.0043692887 0.034619592 0.05528265 0.114267856 -0.008543673 -0.024910832 -0.02264499
-0.02226396 0.12741019 0.00050888717 0.12107816 0.077852376 -0.059008844 -0.013024997 0.14339483
0.022936106 -0.022521395 0.03513969 0.08422927 -0.03243281 0.0056491713 0.042483676 -0.014899449
0.10223752 0.11750172 0.04944527 0.13453715 0.05286201 -0.049615856 0.04252612 0.0191864
0.01724145 0.085872285 0.051958226 0.05776091 0.08314508 -0.07867077 -0.04051971 -0.048982795
0.061635327 -0.04459839 -0.0011924207 0.027211873 0.06393021 0.0915446 0.022731027 -0.06894332
-0.0322108 -0.027770996 0.020460995 0.004525899 0.1161546 0.005763126 0.035457097 0.075030945
00000000: 89f4 72bd 299b d5bd 6df1 6dbd 96bc c8bd
00000010: 2567 6e3d a154 01bc 27ac 96bc 2db0 c53c
00000020: 3515 953d 9dd3 853d b02b eb3c 2fcb 853d
00000030: 7903 bb3c 18d2 053d f96a 063d 06fb 7cbd
00000040: 2460 d4bd b966 9bbc 8f54 8cbd 7b51 9f3d
00000050: 1578 e8bc 04fb ce3c 5954 a03c 114d 063d
00000060: 0cae abbd 408c 103d e4e5 58bd 00d1 313c
00000070: a422 9cbd 208a efbb e000 c03c 8a7b 3bbd
00000080: 4968 953d 71ef 85bd 9905 b33d 68c5 5d3d
00000090: baf9 edbd 0a38 9fbc 7898 9d3d cf61 4cbd
000000a0: 0f00 3c3d 8119 90bb 6618 f3bd b592 fd3c
000000b0: d8d2 4c3c a31b 2a38 8c6b 76bd 8d42 d7bc
000000c0: 9d87 b8bd dbd7 883d 7c09 debc bb6d b7bd
000000d0: e9ea 8a3d dcb0 aabc bf6e abbd 0772 c2bc
000000e0: dec7 103c 012a a9bd 5215 b3bd cede 0d3d
000000f0: 4c78 7abd 9564 56bc 4694 853d af54 69bc
00000100: 8f9c ce3b 8a21 b1bd 94ff 8abc 3dc8 8fbd
00000110: 5bf7 00bd e6b2 22bd 3765 14bc 59ec b33b
00000120: 2c71 503d 438a b03d 5c99 d43c 66bf 993d
00000130: 476f c1bd 8965 a939 f4fa bb3c 7f06 bf3c
00000140: f5f5 10be 2541 1cbd 72a0 32bd 5b6c 70bd
00000150: 6af3 8f3d c63c 14bd aeeb 84bd 355e 02be
00000160: f547 5a3d 755a 903c fae9 04be 181d 233c
00000170: 582d 5abc f9f7 a93d 6136 13be c724 8abd
00000180: 3edb e6bc 1ff0 46bd 7267 45bd 7c4e c0bd
00000190: 8e18 10bd 8d24 d73c e91e afbd 8e7f 8b3d
000001a0: 36f4 e63c 0a8a 653d 4811 7e3b e66d 07bd
000001b0: 2084 8fbc 994d f83c e4ca 3ebd 39bd 0ebd
000001c0: d550 b5bd 1193 9f3c a5d7 ae3d 19d8 8bbd
000001d0: 5403 29bd e8ed 45bd 2d52 f1bc 9ea1 653d
000001e0: a471 d73c a67e 96bc f540 5bbd 266a 1c3d
000001f0: 70e8 25bd 8a9b 333c f633 6a3d d027 6f3a
00000200: 6e71 91bd 7237 ba3b 8da6 a73d 675d f23d
00000210: ad85 2dbd 9f9b f93d 308d 723d adb6 10bb
00000220: 1226 3e3d 90f2 9d3d a0f9 333c f0f8 14bd
00000230: fa78 9ebd e46a df3c 9ef3 00bc 7437 6a3d
00000240: ae2d a33d 2957 e93d 42d0 063e af38 9c3c
00000250: 70e3 b33d 404e 8fbd 9b83 30bd ef60 4dbc
00000260: 1747 b0bd d11a cc3c 5f76 853d 8094 03bd
00000270: 79c4 f53d a20f 8dbd b3ab a73d 44a5 003e
00000280: a10d 18bd 8e04 57bd 8910 843d ee07 2a3d
00000290: 8626 10bd 7833 7cbd faa7 92ba 0646 24bd
000002a0: 5580 c33d 19dd d23d 50f0 9d3d 20e3 5cbd
000002b0: 6537 89bd baf6 b9bd 15d7 fd3d 961b e13d
000002c0: 935d cf3d dc2c a5bc af79 0a3d a421 5cbd
000002d0: e183 84bd 3370 90bd a31f 303d 2a87 4ebc
000002e0: c350 dd3d 7734 85bd 5e7f 4abd 1a24 53bd
000002f0: 35b2 363d a1c5 bb3c a77d e3bb fae2 963c
00000300: d2ed acbb c891 943d 23f7 a63d c884 553c
00000310: cd83 b23d 4e69 1e3d 8313 d3bc 4545 c33c
00000320: 37eb 82bd 402c 8f3b 46cd 0d3d 0f70 623d
00000330: 4405 ea3d c3fa 0bbc cd11 ccbc fc81 b9bc
00000340: e962 b6bc d177 023e d766 053a d4f7 f73d
00000350: 1171 9f3d 42b3 71bd cc66 55bc 18d6 123e
00000360: 80e4 bb3c ca7e b8bc a3ee 0f3d 6580 ac3d
00000370: 44d8 04bd af1c b93b 5d03 2e3d d21c 74bc
00000380: e861 d13d bea4 f03d 2087 4a3d 1bc4 093e
00000390: d685 583d ff39 4bbd de2f 2e3d cc2c 9d3c
000003a0: f13d 8d3c cfdd af3d 26d2 543d b496 6c3d
000003b0: f847 aa3d 241e a1bd fff7 25bd 2fa2 48bd
000003c0: 5375 7c3d cdac 36bd 004b 9cba 6feb de3c
000003d0: d8ed 823d bc7b bb3d 6b36 ba3c 2832 8dbd
000003e0: 79ef 03bd 0080 e3bc d19d a73c fe4d 943b
000003f0: 77e2 ed3d 9bd8 bc3b 763b 113d d3a9 993d

network.4.bias f4 [8]
0.041577052 0.044447616 -0.015052478 0.092646174 -0.021892061 -0.124533296 -0.033965513 -0.071216404
00000000: b34c 2a3d b40e 363d ab9e 76bc 47bd bd3d
00000010: fb56 b3bc 500b ffbd 6c1f 0bbd e8d9 91bd

exp_avg f4 [128, 26]
4.415108e-33 7.3454335e-33 2.3395844e-33 3.9428094e-33 5.6970756e-33 7.96711e-33 6.632591e-33 7.124899e-33
6.221262e-33 7.0386104e-33 4.297018e-33 4.6298696e-33 3.930033e-33 6.875333e-33 5.5110073e-33 7.16935e-33
8.867565e-33 5.9695086e-33 5.7334193e-33 5.098526e-33 8.07363e-33 4.715616e-33 3.7724894e-33 1.5718707e-33
4.9108995e-33 4.9108517e-33 -0.0029597806 -0.01089949 -0.010774961 -0.007005279 -0.011059778 -0.06705775
-0.057504553 -0.0071295723 -0.064826705 -0.070791155 0.011173949 0.0026527867 -0.00062452466 0.012722328
0.06431591 0.041029878 0.012227677 0.026175633 0.04118211 -0.036326744 -0.092146285 0.0012987815
0.0015641004 0.0027629528 0.007438857 0.0070415027 -0.00063361094 -0.000686466 -0.00022620104 -0.00047466392
-0.00077193853 -0.0054142275 -0.004903074 -0.004059033 -0.006125966 -0.0060801296 0.0017956984 -0.0021772191
-0.0012513201 -0.0030017612 7.080333e-05 -0.0046774475 -0.007454939 -0.0033533168 -0.00042187842 -0.0035595193
-0.0024735816 -0.0019651698 -0.0011007341 -8.155941e-06 -0.002271412 -0.0022188402 0.0 0.0
9.4e-44 0.0 0.0 0.0 1.5e-44 1.313e-42 0.0 0.0
5.27e-43 6.22e-43 0.0 1.216e-42 1.127e-42 5.69e-43 2.035e-42 1.791e-42
6.59e-43 1.494e-42 1.969e-42 6.43e-43 5.16e-43 2.14e-43 8.56e-43 7.74e-43
-3.834521e-06 -3.9826686e-05 -2.0933372e-05 5.2997384e-05 -4.3469332e-05 -0.00010966671 -0.0002615545 -0.0005420961
-5.046948e-05 -9.8670585e-05 -0.0002388813 -0.00039460236 5.564789e-17 -0.00035366378 -0.0005950317 2.412221e-06
-0.00021642912 -0.00016554659 -0.000641307 -0.00044501913 -0.00019538097 -0.00025261854 -0.00025182366 -0.00010629725
-0.00025261732 -0.0002526175 -0.0063608475 0.00351544 -0.023731137 0.014194951 -0.025561437 -0.060837355
-0.040821638 0.024274118 -0.07034662 -0.06526241 0.041799154 0.033102013 -0.011809709 0.03817562
0.091642566 0.024927309 0.028949283 0.063585475 0.06864393 -0.020426326 -0.020185545 0.022368755
0.026186038 0.013111148 0.023806315 0.024305683 -0.016953623 0.026996482 -0.040428188 0.011501169
-0.030965375 -0.02829385 -0.012023202 -0.0013861638 -0.04011156 -0.03562109 0.0061153173 0.019625654
-0.023554862 0.011727145 0.009119147 0.0126097705 0.008822183 0.03720185 0.023165807 -0.043420173
0.013396427 0.005402336 0.010631858 0.004181155 0.00723874 0.0078098224 -0.066519804 -0.13677457
0.00983371 -0.12804434 -0.05710649 -0.13278855 -0.14672793 -0.058002815 -0.10650376 -0.11021499
-0.051649936 -0.070206486 -0.054780096 -0.0747845 -0.048889037 -0.13892683 -0.10961033 -0.13914691
-0.07359799 0.009406622 -0.11952492 -0.05306919 -0.05463226 -0.020494174 -0.05461789 -0.05625433
0.0016472184 0.00020769052 0.0016639037 0.001404985 0.0006164687 0.0012308713 0.003877216 0.036847185
-0.0014920318 -0.008336487 0.027832903 0.021856692 0.007488829 0.043786343 0.083502576 0.06610062
0.050779395 0.07080638 0.0708542 0.0015244521 -0.026939819 0.026161807 0.021453444 0.008589858
0.029814474 0.029831767 -0.0023211092 0.013774137 0.0014057201 -0.00078644534 0.005955607 0.03106459
0.02650832 0.00918375 0.033737846 0.031820968 -0.020613857 0.0029462986 -0.0023542969 -0.0027624257
-0.041399278 -0.0039724316 -0.005684864 -0.011608247 -0.018076919 0.0050485693 0.041750133 -0.0012219884
00000000: 7b65 b709 068f 180a 755d 4209 24c7 a309
00000010: b3a5 ec09 6c78 250a e7c0 090a 76fa 130a
00000020: e735 010a ac2f 120a bc7d b209 3851 c009
00000030: 473f a309 8acb 0e0a 15eb e409 cee6 140a
00000040: 102c 380a b4f6 f709 2c28 ee09 d4c8 d309
00000050: c8ae 270a 08e1 c309 fdb3 9c09 fe95 0209
00000060: a4fd cb09 22fd cb09 e1f8 41bb c693 32bc
00000070: 7689 30bc 8a8c e5bb 1234 35bc 9355 89bd
00000080: e589 6bbd 309f e9bb ddc3 84bd f4fa 90bd
00000090: f012 373c 60da 2d3b 24b7 23ba 5071 503c
000000a0: 0fb8 833d f20e 283d 9856 483c 486e d63c
000000b0: 92ae 283d 5acb 14bd 31b7 bcbd e03b aa3a
000000c0: 8002 cd3a a812 353b a8c1 f33b 68bc e63b
000000d0: e918 26ba f4f3 33ba 6130 6db9 50dc f8b9
000000e0: eb5b 4aba d569 b1bb f7a9 a0bb a301 85bb
000000f0: 54bc c8bb d33b c7bb a45d eb3a adaf 0ebb
00000100: 5603 a4ba 32b9 44bb 407c 9438 4645 99bb
00000110: 9048 f4bb 52c3 5bbb 902f ddb9 d346 69bb
00000120: d01b 22bb 14ca 00bb 8246 90ba 80d5 08b7
00000130: f8db 14bb f669 11bb 0000 0000 0000 0000
00000140: 4300 0000 0000 0000 0000 0000 0000 0000
00000150: 0b00 0000 a903 0000 0000 0000 0000 0000
00000160: 7801 0000 bc01 0000 0000 0000 6403 0000
00000170: 2403 0000 9601 0000 ac05 0000 fe04 0000
00000180: d601 0000 2a04 0000 7d05 0000 cb01 0000
00000190: 7001 0000 9900 0000 6302 0000 2802 0000
000001a0: 49aa 80b6 940b 27b8 139a afb7 8249 5e38
000001b0: d752 36b8 defc e5b8 4021 89b9 741b 0eba
000001c0: 31af 53b8 5eed ceb8 367c 7ab9 a2e2 ceb9
000001d0: b750 8024 f36b b9b9 e7fb 1bba a4e1 2136
000001e0: 40f1 62b9 9396 2db9 621d 28ba 7551 e9b9
000001f0: 2edf 4cb9 e371 84b9 3307 84b9 e7eb deb8
00000200: b971 84b9 bf71 84b9 a86e d0bb 4c63 663b
00000210: cd67 c2bc f191 683c 3866 d1bc 9730 79bd
00000220: 9734 27bd 84da c63c e411 90bd 4ca8 85bd
00000230: 9735 2b3d fa95 073d 827d 41bc 0a5e 1c3d
00000240: 19af bb3d 5b34 cc3c 0c27 ed3c 1a39 823d
00000250: 3095 8c3d 1c55 a7bc 285c a5bc ae3e b73c
00000260: 1a84 d63c 24d0 563c 7605 c33c b61c c73c
00000270: 53e2 8abc ba27 dd3c 0798 25bd 666f 3c3c
00000280: 19ab fdbc 81c8 e7bc f7fc 44bc f0af b5ba
00000290: 054c 24bd 6ce7 11bd 0063 c83b fbc5 a03c
000002a0: 20f6 c0bc 3623 403c 7a68 153c 3699 4e3c
000002b0: eb8a 103c f860 183d 38c6 bd3c 5ad9 31bd
000002c0: b07c 5b3c 1406 b13b 3f31 2e3c 1202 893b
000002d0: f432 ed3b 8ae9 ff3b 893b 88bd a20e 0cbe
000002e0: 921d 213c 0e1e 03be 7fe8 69bd b9f9 07be
000002f0: d93f 16be 5c94 6dbd a51e dabd 66b8 e1bd
00000300: e28e 53bd 6bc8 8fbd 1861 60bd 9e28 99bd
00000310: df3f 48bd d642 0ebe 617b e0bd 877c 0ebe
00000320: 8bba 96bd 3b1e 1a3c 7bc9 f4bd 145f 59bd
00000330: 14c6 5fbd 66e3 a7bc 02b7 5fbd f16a 66bd
00000340: 7ae7 d73a 80c7 5939 5817 da3a 7927 b83a
00000350: 849a 213a 3055 a13a e418 7e3b 13ed 163d
00000360: 4890 c3ba c395 08bc d401 e43c ce0c b33c
00000370: da64 f53b 4f59 333d 6603 ab3d c35f 873d
00000380: 0efe 4f3d ef02 913d 021c 913d 20d0 c73a
00000390: e5b0 dcbc 4951 d63c 22bf af3c 7abc 0c3c
000003a0: 7c3d f43c c061 f43c c01d 18bb ebac 613c
000003b0: 2440 b83a 7429 4eba 4127 c33b 2b7b fe3c
000003c0: fa27 d93c 7077 163c b230 0a3d b456 023d
000003d0: 64de a8bc b016 413b 8c4a 1abb d009 35bb
000003e0: 4a92 29bd 2c2b 82bb 1848 babb 8430 3ebc
000003f0: 0c16 94bc 786e a53b 3002 2b3d 202b a0ba

exp_avg_sq f4 [128, 26]
4.1978583e-06 5.368505e-06 3.9825754e-06 3.2904825e-06 3.5025898e-06 9.480837e-06 8.023474e-06 8.053957e-06
6.3899547e-06 7.5579737e-06 2.5402815e-06 1.8764076e-06 1.1449531e-06 5.7727666e-06 9.277982e-06 6.3112498e-06
8.189878e-06 5.0420394e-06 4.792757e-06 5.4368024e-06 7.566634e-06 2.161627e-06 1.5607588e-06 2.771703e-07
2.8780087e-06 2.7136375e-06 0.00095040567 0.00073772407 0.001640462 0.0007451796 0.00064898224 0.014064219
0.0184891 0.13871601 0.012605846 0.012098186 0.08946141 0.08651968 0.001735204 0.12590624
0.1907221 0.030332197 0.16162609 0.1640343 0.16146097 0.16453767 0.16477707 0.055264715
0.045917578 0.009662111 0.06190228 0.060333207 0.00035544825 0.0003710475 0.00033461326 0.0003543703
0.00034351271 0.001027586 0.0010992016 0.002648565 0.0010422645 0.0009992922 0.0014156934 0.0015933695
0.000457525 0.0022359563 0.0031104838 0.0011077641 0.0026782078 0.0027012818 0.0027122002 0.0029769922
0.0029422226 0.0010229864 0.0008485486 0.00016941733 0.0011146566 0.0010938431 0.0 0.0
1.4821477e-09 0.0 0.0 0.0 4.3529166e-11 2.9887696e-07 0.0 0.0
4.85133e-08 6.706395e-08 0.0 2.562881e-07 2.194435e-07 5.6040516e-08 7.158116e-07 5.552206e-07
7.548185e-08 3.859181e-07 6.712017e-07 7.1974824e-08 4.606384e-08 7.9971985e-09 1.2710682e-07 1.0364371e-07
1.1283061e-05 1.1179955e-05 1.5371665e-05 1.386068e-05 9.655751e-06 2.8462164e-05 3.414695e-05 0.00046089615
4.1374773e-05 3.8538717e-05 0.00034913732 0.00048292347 3.0251415e-06 0.00046752312 0.0006727612 8.4323125e-05
0.00033820418 0.00037607827 0.0009240921 0.0010900061 0.00052779174 0.00022678767 0.00020081337 4.4252807e-05
0.00023549364 0.00023306861 0.010314951 0.010729934 0.011529283 0.010879908 0.010769228 0.034238774
0.03695178 0.1326459 0.033243172 0.03301385 0.079097874 0.07989268 0.012940492 0.11685836
0.17409167 0.042557064 0.14518909 0.14635311 0.15330993 0.14800599 0.15410338 0.051589824
0.042721514 0.008792948 0.05759129 0.056191366 0.0054642297 0.0062132175 0.0060973116 0.007125285
0.0063163326 0.017227031 0.01855237 0.045167092 0.017191984 0.01684601 0.027159898 0.024922645
0.008068882 0.038108602 0.053258084 0.018881805 0.045997426 0.047327954 0.050801676 0.04636583
0.04843727 0.017277285 0.0143978745 0.0029341662 0.018973082 0.01860617 0.015856521 0.02096698
0.019490542 0.021700602 0.0181622 0.054642778 0.058461744 0.10431926 0.054357726 0.05267925
0.06301521 0.05782336 0.027407173 0.08634691 0.113441974 0.05643057 0.09949612 0.10772262
0.114741534 0.105002075 0.10510173 0.040236298 0.034064997 0.0068491893 0.04324819 0.042605486
0.0007556212 0.001116796 0.0016829318 0.0006256247 0.0009273902 0.008460471 0.010649413 0.08280621
0.007592007 0.008447416 0.05297808 0.048700303 0.0026563315 0.074431725 0.11301823 0.01877415
0.09509766 0.09363467 0.09829796 0.09659969 0.10187082 0.03250529 0.02669009 0.005538837
0.03655569 0.0355818 0.0045918566 0.004545575 0.0047074878 0.00441382 0.0045803627 0.012775724
0.013088388 0.03967165 0.012608715 0.012273384 0.022272816 0.024359012 0.005716834 0.034106735
0.049608797 0.014223601 0.042798124 0.04304129 0.0427703 0.043223355 0.04486622 0.015295871
00000000: 54db 8c36 1b23 b436 10a2 8536 0fd2 5c36
00000010: 090e 6b36 e30f 1f37 8f9c 0637 7b1f 0737
00000020: 4b69 d636 809a fd36 b479 2a36 e0d8 fb35
00000030: 4aac 9935 b0b3 c136 a1a8 1b37 39c5 d336
00000040: 4267 0937 ca2e a936 78d1 a036 c76d b636
00000050: e4e4 fd36 7810 1136 447b d135 ffcd 9434
00000060: d023 4136 f01b 3636 a524 793a d363 413a
00000070: c504 d73a 2858 433a 7620 2a3a 9c6d 663c
00000080: 7476 973c 920b 0e3e c088 4e3c 7837 463c
00000090: 8b37 b73d 3b31 b13d c96f e33a 91ed 003e
000000a0: a74c 433e 3a7b f83c 4f81 253e 9cf8 273e
000000b0: 0656 253e 907c 283e 52bb 283e 415d 623d
000000c0: 1214 3c3d d54d 1e3c 3f8d 7d3d f41f 773d
000000d0: 755b ba39 2789 c239 086f af39 c7ca b939
000000e0: 7f19 b439 11b0 863a 1613 903a 8c93 2d3b
000000f0: 989c 883a affa 823a ca8e b93a 9cd8 d03a
00000100: f7df ef39 1f89 123b 42d9 4b3b 6532 913a
00000110: df84 2f3b fd07 313b 2bbf 313b a419 433b
00000120: 4ed2 403b ba15 863a 2271 5e3a 9ea5 3139
00000130: ab19 923a 495f 8f3a 0000 0000 0000 0000
00000140: 70b4 cb30 0000 0000 0000 0000 0000 0000
00000150: 7c71 3f2e 5675 a034 0000 0000 0000 0000
00000160: f05c 5033 cc04 9033 0000 0000 f897 8934
00000170: 2ca0 6b34 33b1 7033 3326 4035 780a 1535
00000180: 9618 a233 2e30 cf34 a12c 3435 9490 9a33
00000190: bad7 4533 0d64 0932 db7a 0834 bb92 de33
000001a0: 614c 3d37 8b91 3b37 66f2 8037 2b8b 6837
000001b0: 22ff 2137 08c2 ee37 0239 0f38 6fa4 f139
000001c0: d389 2d38 a2a4 2138 6b0c b739 e430 fd39
000001d0: 8903 4b36 e41d f539 3d5c 303a a2d6 b038
000001e0: ff50 b139 5f2c c539 c53e 723a 89de 8e3a
000001f0: 815b 0a3a dacd 6d39 6e91 5239 179c 3938
00000200: d8ee 7639 e163 7439 0a00 293c 9bcc 2f3c
00000210: 51e5 3c3c a441 323c 6b71 303c f53d 0c3d
00000220: c05a 173d 54d4 073e fe29 083d 8839 073d
00000230: 11fe a13d c69e a33d 5b04 543c 7053 ef3d
00000240: 1645 323e 5150 2e3d 73ac 143e 97dd 153e
00000250: 47fd 1c3e e28e 173e 47cd 1d3e da4f 533d
00000260: c1fc 2e3d 4c10 103c d8e4 6b3d eb28 663d
00000270: 480d b33b 3f98 cb3b f5cb c73b 397b e93b
00000280: 3df9 ce3b b41f 8d3c 24fb 973c 2101 393d
00000290: 34d6 8c3c a500 8a3c 6f7e de3c 932a cc3c
000002a0: 5833 043c c417 1c3d 2625 5a3d 04ae 9a3c
000002b0: cc67 3c3d f5da 413d 6b15 503d 19ea 3d3d
000002c0: 2966 463d 1889 8d3c 10e5 6b3c 244b 403b
000002d0: 706d 9b3c f76b 983c 89e5 813c f2c2 ab3c
000002e0: a1aa 9f3c 76c5 b13c e5c8 943c 1bd1 5f3d
000002f0: 9575 6f3d 56a5 d53d 35a6 5e3d 32c6 573d
00000300: 1e0e 813d 30d8 6c3d 0285 e03c a6d6 b03d
00000310: 4454 e83d be23 673d 9fc4 cb3d ad9d dc3d
00000320: 9cfd ea3d 540b d73d 933f d73d d1ce 243d
00000330: bd87 0b3d 2a6f e03b 0425 313d 1783 2e3d
00000340: e114 463a 7561 923a d295 dc3a f700 243a
00000350: 1a1c 733a ca9d 0a3c e07a 2e3c 4d96 a93d
00000360: 5fc6 f83b 0867 0a3c 8bff 583d f879 473d
00000370: d915 2e3b a96f 983d 1a76 e73d 3fcc 993c
00000380: 90c2 c23d 89c3 bf3d 7150 c93d 0fd6 c53d
00000390: a6a1 d03d 4424 053d 2da5 da3c 227f b53b
000003a0: 6bbb 153d 39be 113d 4977 963b 0cf3 943b
000003b0: 4541 9a3b cea1 903b de16 963b 4551 513c
000003c0: ae70 563c bd7e 223d c994 4e3c 4e16 493c
000003d0: 7b75 b63c 8d8c c73c 4854 bb3b 81b3 0b3d
000003e0: 9832 4b3d 1b0a 693c 164d 2f3d 104c 303d
000003f0: e92f 2f3d f90a 313d a4c5 373d 889b 7a3c

exp_avg f4 [128]
9.821917e-33 0.01817482 -0.004288228 1.739e-42 -0.00050523394 0.054536566 0.01675308 -0.10683503
0.06255182 -0.0039463043 2.3120317e-35 -0.0009619084 -0.08460076 0.041960828 -0.027500026 0.0
2.2957539e-07 1.3296012e-32 0.06786437 0.024010634 0.035763852 0.030697547 0.0 0.0
0.017393641 0.05194832 0.0 0.011649616 0.055599935 0.038956836 2.4964429e-29 -0.008885408
0.04410024 0.022551678 2.0811945e-05 2.0935301e-28 -0.0037364885 2.9560214e-24 0.0 0.14341882
0.0138349235 -0.013686341 0.038879797 0.014922127 0.04119465 0.0 0.0 0.0061129313
0.0 0.08724636 -0.0019961037 0.030804522 0.038107086 0.013292506 0.0 5.1139656e-24
-0.006664151 0.0 -3.8821698e-05 0.03768659 5.4700223e-35 0.040288053 0.00060181675 0.050485924
0.038895123 0.023018992 4.100036e-10 0.034386225 0.0 0.025464222 0.021647975 0.06303485
-0.023676075 -0.035368305 0.0 0.017616149 0.031374756 0.07649063 0.048383538 -0.02298408
7.394491e-33 0.07492716 -2.1097894e-05 0.09964307 0.02333039 0.06788107 5.1144652e-05 0.017790515
-0.0013980232 0.018599639 -0.05026823 -0.06227663 0.0 0.0 0.0 -0.09415154
4.15e-43 -0.07731251 6.0796398e-21 0.0493479 7.66753e-24 -0.08532807 -0.014755432 1.6819989e-30
0.06335014 0.1650695 0.069147296 5.1335576e-09 0.070180774 0.05312743 8.219529e-38 0.0033395663
0.0 0.0300911 0.040884268 2.5799207e-09 0.02453442 0.035974942 0.036497697 2.2134535e-25
0.000477003 0.07247064 0.032006174 0.02854672 4.0530236e-35 0.019628674 0.0 0.03428012
00000000: 45fe 4b0a 5ce3 943c 4484 8cbb d904 0000
00000010: ad71 04ba bc61 5f3d c13d 893c 53cc dabd
00000020: 2b1b 803d 0050 81bb 7ddb f505 9428 7cba
00000030: 2a43 adbd 1edf 2b3d bc47 e1bc 0000 0000
00000040: 3481 7634 dd12 8a0a 7afc 8a3d f3b1 c43c
00000050: 1e7d 123d 6c79 fb3c 0000 0000 0000 0000
00000060: 1c7d 8e3c c3c7 543d 0000 0000 08de 3e3c
00000070: c2bc 633d 3491 1f3d 5d2b fd0f 1a94 11bc
00000080: 74a2 343d 4cbe b83c 5095 ae37 78b1 8411
00000090: e0df 74bb 09b6 6418 0000 0000 62dc 123e
000000a0: e0ab 623c ad3c 60bc 6c40 1f3d f07b 743c
000000b0: b9bb 283d 0000 0000 0000 0000 fc4e c83b
000000c0: 0000 0000 38ae b23d 10d1 02bb c459 fc3c
000000d0: 2d16 1c3d d0c8 593c 0000 0000 43d6 c518
000000e0: f35e dabb 0000 0000 7bd4 22b8 415d 1a3d
000000f0: 0b6b 9106 1605 253d 3dc3 1d3a 54ca 4e3d
00000100: 7e50 1f3d 5392 bc3c e066 e12f 92d8 0c3d
00000110: 0000 0000 589a d03c 1857 b13c 6a18 813d
00000120: 54f4 c1bc 5bde 10bd 0000 0000 be4f 903c
00000130: d182 003d 1fa7 9c3d d12d 463d 1c49 bcbc
00000140: dc93 190a 6973 993d 62fb b0b7 aa11 cc3d
00000150: 601f bf3c 3b05 8b3d 2784 5638 6abd 913c
00000160: e03d b7ba 455e 983c 0fe6 4dbd c815 7fbd
00000170: 0000 0000 0000 0000 0000 0000 86d2 c0bd
00000180: 2801 0000 0556 9ebd abae e51d 0621 4a3d
00000190: c54f 1419 7cc0 aebd c4c0 71bc c075 080e
000001a0: b8bd 813d fb07 293e 199d 8d3d 4063 b031
000001b0: f0ba 8f3d 269c 593d c2c1 df01 a0dc 5a3b
000001c0: 0000 0000 9c81 f63c 4376 273d 724a 3131
000001d0: 68fc c83c 765a 133d 9c7e 153d 9201 8916
000001e0: 4216 fa39 7d6b 943d e818 033d d0da e93c
000001f0: e67e 5706 50cc a03c 0000 0000 5069 0c3d

exp_avg_sq f4 [128]
1.1781158e-05 0.25695124 0.004563182 5.230365e-07 0.00095413014 0.23848648 0.07777265 0.17621815
0.15190145 0.06960558 2.216591e-06 0.0022852458 0.4368827 0.45928589 0.022396822 0.0
1.674027e-06 3.6681122e-05 0.017659178 0.0153482 0.04711062 0.32897952 0.0 0.0
0.025048269 0.023678327 0.0 0.1577562 0.1805488 0.035799272 6.3327724e-07 0.040027604
0.041943822 0.008700434 6.423046e-06 2.3417044e-05 0.07736772 0.00013851888 0.0 0.06242097
0.052147802 0.0066762175 0.033298336 0.48610616 0.15428424 0.0 0.0 0.101308756
0.0 0.30949605 0.045920532 0.0419976 0.11031081 0.052115172 0.0 7.910378e-05
0.14389841 0.0 5.712905e-05 0.04117664 8.8704e-06 0.19020568 9.007234e-05 0.035273712
0.022367414 0.025465956 5.06573e-05 0.015138339 0.0 0.027093984 0.20776536 0.10650919
0.50292367 0.26460814 0.0 0.05306651 0.027809355 0.2980064 0.16452242 0.038749933
1.0667048e-05 0.42027488 0.00048861926 0.04402919 0.025172396 0.08160266 0.00046834344 0.054102305
0.13977537 0.016391002 0.12048402 0.23991401 0.0 0.0 0.0 0.1491718
8.2700235e-06 0.9309585 1.6599324e-06 0.48462382 3.7256364e-06 0.3496466 0.023980094 3.2126954e-05
0.029200956 0.30576605 0.05044799 0.000693343 0.17565688 0.102764726 6.367816e-06 0.10513306
0.0 0.03243861 0.030738339 1.8403653e-05 0.0072300653 0.22797634 0.0637278 3.635125e-07
0.00040168202 0.15240528 0.13839221 0.08645446 1.7460882e-06 0.4036513 0.0 0.06616925
00000000: b0a7 4537 1d8f 833e bf86 953b cb66 0c35
00000010: 971e 7a3a cd35 743e 4447 9f3d 8872 343e
00000020: 0e8c 1b3e 5f8d 8e3d bec0 1436 10c4 153b
00000030: 17af df3e 8527 eb3e 8a79 b73c 0000 0000
00000040: 21af e035 0eda 1938 fba9 903c 0477 7b3c
00000050: 11f7 403d 0170 a83e 0000 0000 0000 0000
00000060: 0732 cd3c 0df9 c13c 0000 0000 d78a 213e
00000070: c9e1 383e 42a2 123d 7bfe 2935 fcf3 233d
00000080: 49cd 2b3d 448c 0e3c 8c85 d736 b86f c437
00000090: f872 9e3d 613f 1139 0000 0000 22ad 7f3d
000000a0: ef98 553d 2cc4 da3b d663 083d e8e2 f83e
000000b0: b0fc 1d3e 0000 0000 0000 0000 f77a cf3d
000000c0: 0000 0000 4476 9e3e 2b17 3c3d ad05 2c3d
000000d0: a2ea e13d b876 553d 0000 0000 85e4 a538
000000e0: 1b5a 133e 0000 0000 da9d 6f38 d6a8 283d
000000f0: 14d2 1437 47c5 423e 38e5 bc38 2b7b 103d
00000100: de3b b73c fb9d d03c dd78 5438 cc06 783c
00000110: 0000 0000 34f4 dd3c 71c0 543e 7d21 da3d
00000120: 9bbf 003f b87a 873e 0000 0000 455c 593d
00000130: 72d0 e33c 4b94 983e 9178 283e 40b8 1e3d
00000140: 9ff6 3237 452e d73e af16 003a f457 343d
00000150: 5736 ce3c 4c1f a73d fe8b f539 619a 5d3d
00000160: 4621 0f3e 6c46 863c 53c0 f63d 05ac 753e
00000170: 0000 0000 0000 0000 0000 0000 7ec0 183e
00000180: 7bbf 0a37 4c53 6e3f d8ca de35 9d20 f83e
00000190: f205 7a36 e104 b33e e771 c43c 0ec0 0638
000001a0: d836 ef3c 5e8d 9c3e 8da2 4e3d 76c1 353a
000001b0: 66df 333e 5076 d23d 1fab d536 0050 d73d
000001c0: 0000 0000 59de 043d f8ce fb3c 8b61 9a37
000001d0: 2fea ec3b a172 693e b983 823d c728 c334
000001e0: d998 d239 2110 1c3e b0b6 0d3e 090f b13d
000001f0: 225b ea35 62ab ce3e 0000 0000 be83 873d
