models/reinforce/reinforce_low_gamma/checkpoint_ep500.pth (torch, 259594 bytes, 18 tensors)

network.0.weight f4 [128, 26]
0	0x3e089216	0.13336977
1	0x3e0f2c68	0.13981783
2	0xbe0300db	-0.12793295
3	0x3d9da862	0.07698132
4	0x3de2265f	0.11042475
5	0x3defe7b2	0.11714114
6	0x3c940361	0.018068017
7	0xbb42998d	-0.0029693574
8	0xbe299514	-0.16560775
9	0x3e0b484a	0.13601795
10	0xbd8f8fb3	-0.0700983
11	0xbe152333	-0.14564209
12	0xbdde18b2	-0.10844554
13	0xbdda8203	-0.10669329
14	0xbe0bbdd9	-0.1364664
15	0xbd900b29	-0.07033379
16	0xbbe65b3c	-0.007029919
17	0xbdd2d662	-0.102947965
18	0xbdabf083	-0.08395483
19	0xbe38896b	-0.18021171
20	0x3e072e82	0.13201335
21	0xbe0a27cd	-0.13491745
22	0x3e2d2473	0.16908436
23	0xbe52efd0	-0.20599294
24	0x3b2bfd0f	0.0026243364
25	0xbda1819d	-0.0788605
26	0x3d221bff	0.03957748
27	0xbd50d221	-0.050981645
28	0xbe22efb9	-0.1591176
29	0xbe3fb143	-0.18719964
30	0xbe4f9150	-0.20270276
31	0xbd10bef5	-0.03533836
32	0x3e2f11c3	0.1709662
33	0xbdc61715	-0.09672371
34	0xbd1e86a1	-0.03870261
35	0xbe56810a	-0.20947662
36	0x3dffd31b	0.12491437
37	0x3d3113b5	0.043231685
38	0xbe4879d3	-0.19577722
39	0x3d6858ea	0.05672542
40	0x3e176203	0.14783482
41	0xbe84e908	-0.2595904
42	0x3de3f0cf	0.11129915
43	0xbe068d22	-0.13139775
44	0x3da19156	0.07889049
45	0x3cb5a72d	0.022174442
46	0xb9b9e9cc	-0.00035460142
47	0x3e36ac58	0.17839181
48	0x3cdbca98	0.026830003
49	0x3de5e8f0	0.1122607
50	0x3dd91cf2	0.10601224
51	0x3ccf83dc	0.02533143
52	0x3af6185d	0.0018775571
53	0x3dacc896	0.08436696
54	0xbe16a9f8	-0.14713275
55	0x3ce91277	0.028451188
56	0x3df97c66	0.1218193
57	0xbe2cecab	-0.16887157
58	0x3dc93fc7	0.09826618
59	0xbe0a6479	-0.1351489
60	0x3e0c3097	0.1369041
61	0xbd9cf608	-0.07664114
62	0xbcf06c01	-0.029348375
63	0x3de74681	0.112927444
64	0xbda3b800	-0.079940796
65	0xbcf5ca54	-0.030003704
66	0xbd91257d	-0.070872284
67	0xbdd5774f	-0.10423147
68	0x3dbaf2bb	0.091283284
69	0xbe0e9009	-0.13922133
70	0xbde8ef38	-0.11373752
71	0x3e38c248	0.18042862
72	0x3e45c68f	0.19314025
73	0x3e2bcf6e	0.16778347
74	0xbdce38ff	-0.10069465
75	0x3dd7dfe9	0.10540754
76	0x3dc4e217	0.09613436
77	0x3db7a683	0.089673065
78	0xbe399847	-0.18124495
79	0x3d4b966c	0.049704
80	0xbe38bed1	-0.1804154
81	0xbd8ea00e	-0.06964122
82	0x3e2c1bb3	0.16807441
83	0xbd927fe4	-0.071532995
84	0xbb24fce4	-0.0025175149
85	0x3b194bb7	0.0023391077
86	0x3dba0696	0.090832874
87	0xbe40d228	-0.18830168
88	0xbd2b536d	-0.041827608
89	0x3d123a49	0.035700116
90	0x3ddfec5e	0.10933755
91	0xbe309c98	-0.17247236
92	0xbc2804b7	-0.01025503
93	0x3d837c0c	0.064201444
94	0x3de07ce3	0.1096132
95	0x3cd60428	0.026125029
96	0xbdde25c7	-0.10847049
97	0xbc68a7ea	-0.01420019
98	0x3baad7f5	0.0052137324
99	0xbe063066	-0.131044
100	0x3d0800db	0.03320394
101	0xbd8fa1aa	-0.07013257
102	0x3c3f4075	0.011673083
103	0xbd60ea8d	-0.054911185
104	0xbd04e1b2	-0.032441802
105	0xbdafd451	-0.08585418
106	0x3dfbd265	0.12295989
107	0xbd2269a3	-0.039651524
108	0x3da5369f	0.08067059
109	0xbda65c99	-0.0812313
110	0xbde2f4de	-0.11081861
111	0x3dd384b1	0.10328043
112	0x3d906aa5	0.07051591
113	0x3c9394ad	0.01801523
114	0x3e27e169	0.16394581
115	0x3df422ec	0.11920723
116	0xbdd2018d	-0.10254202
117	0xbc92affd	-0.017906183
118	0x3c1616aa	0.009160677
119	0xbd485e06	-0.048917793
120	0xbe2f451e	-0.1711621
121	0xbe38a127	-0.18030225
122	0x3e3ac805	0.18240364
123	0x3e3cb49b	0.1842827
124	0xbd3e3031	-0.046432678
125	0x3e037be8	0.12840235
126	0xbd709d2b	-0.058743637
127	0xbe0c59ca	-0.13706127
128	0xbe1e79d0	-0.15476155
129	0xbe09cb63	-0.13456492
130	0xbdc3bbba	-0.095572904
131	0xbe53978f	-0.20663284
132	0xbcbe8362	-0.023256008
133	0x3e249f12	0.16076306
134	0x3d021169	0.031754885
135	0xbde86a79	-0.11348433
136	0xbe2bd290	-0.16779542
137	0x3e659aac	0.22422284
138	0xbdec5618	-0.115398586
139	0x3d222ebd	0.039595354
140	0x3c96242c	0.018327795
141	0xbdba2af5	-0.09090225
142	0xbe27562c	-0.16341466
143	0xbd85e6ef	-0.06538188
144	0x3e6de3d0	0.23231435
145	0xbe114ccd	-0.14189453
146	0x3e18952d	0.14900656
147	0x3dde7eba	0.10864015
148	0x3e14cc60	0.14531088
149	0x3e6b8961	0.23001625
150	0xbdc56c15	-0.09639756
151	0xbd8039cb	-0.06261023
152	0x3d8cf57c	0.0688276
153	0x3e5f8e6e	0.21831676
154	0x3dea38fb	0.114366494
155	0xbd9904fe	-0.07471655
156	0x3ce76c08	0.028249756
157	0x3d08b9d1	0.033380333
158	0xbb39b89b	-0.0028338793
159	0x3e0f16a0	0.13973475
160	0xbdf507b8	-0.11964363
161	0x3d7ca917	0.061684694
162	0xbcd032cc	-0.025414847
163	0xbdfe82c6	-0.12427287
164	0x3dcca206	0.09991841
165	0x3dfa394a	0.12217958
166	0xbd486d46	-0.048932336
167	0xbcb759d8	-0.022381708
168	0xbde19965	-0.11015586
169	0x3c697540	0.014249146
170	0x3e5b0e68	0.21392214
171	0xbe70dda5	-0.2352205
172	0x3e4e3287	0.20136462
173	0x3e3b9460	0.1831832
174	0x3e5d0683	0.21584515
175	0x3e4fc3cd	0.20289536
176	0xbe2e3435	-0.17012103
177	0xbe0b48fd	-0.13602062
178	0xbcd0cfd1	-0.02548972
179	0x3e5a85a4	0.21340042
180	0x3b67a5df	0.003534667
181	0x3dac3b4f	0.0840975
182	0xbdff9aea	-0.124807194
183	0x3dc03685	0.09385399
184	0x3e21266a	0.1573731
185	0xbddbfd61	-0.107416876
186	0xbe67e610	-0.22646356
187	0xbdabedd1	-0.08394969
188	0x3d370e4c	0.04469137
189	0xbca47727	-0.020076348
190	0xbce910b5	-0.02845035
191	0xbe167a91	-0.14695193
192	0x3e2447fd	0.16043086
193	0xbd9ec059	-0.07751531
194	0xbe03e09a	-0.12878647
195	0xbdc7774e	-0.097395524
196	0xbd450f95	-0.048110563
197	0x3e2d13b5	0.16902049
198	0x3db62270	0.08893287
199	0xbe157273	-0.1459444
200	0x3e41f261	0.18940116
201	0x3dce2734	0.10066071
202	0x3e11ee3e	0.14251038
203	0xbdd2a108	-0.102846205
204	0xbd4b23de	-0.049594752
205	0x3c14b447	0.009076185
206	0xbe09a374	-0.13441259
207	0xbd8a3bfc	-0.06749722
208	0xbe5fda82	-0.21860698
209	0x3de30d5b	0.11086532
210	0xbd93828f	-0.072026365
211	0xbe7e9c44	-0.24864298
212	0x3da040f9	0.078248926
213	0xbe50cf7d	-0.2039165
214	0x3d1a1103	0.03761388
215	0x3e36af56	0.17840323
216	0xbe66315b	-0.22479765
217	0x3dee97ac	0.11650023
218	0xbd80ce29	-0.06289322
219	0x3bff2def	0.007787458
220	0x3e188172	0.1489313
221	0xbdf904b2	-0.12159099
222	0x3d90f04f	0.07077085
223	0xbdded8a7	-0.10881167
224	0x3d0b65d8	0.034032673
225	0xbe124bfe	-0.14286801
226	0x3d51876f	0.05115455
227	0x3c5682c3	0.013092699
228	0x3e1694f3	0.14705257
229	0x3cdac19c	0.026703648
230	0x3dd2215f	0.10260271
231	0xbe13c5f4	-0.14430982
232	0xbe1728f8	-0.14761722
233	0x3dfe20b5	0.12408582
234	0xbd5b3d92	-0.053525515
235	0x3d6a3a0f	0.057184275
236	0x3db91b06	0.090383574
237	0x3e403bcc	0.1877281
238	0x3e285e6a	0.16442266
239	0x3e21993a	0.15781108
240	0x3e5b178e	0.21395704
241	0xbce4de02	-0.027937893
242	0x3c244ad5	0.010027607
243	0xbdc8b384	-0.09799865
244	0xbd255a2c	-0.040369198
245	0x3e5418af	0.20712541
246	0x3e145fb0	0.14489627
247	0x3ded630d	0.11591158
248	0x3d7f4b15	0.062327463
249	0x3e46f5c4	0.1942969
250	0xbc2f2faa	-0.010692516
251	0x3d399b45	0.045314092
252	0x3e38b32e	0.18037102
253	0xbd1ab105	-0.037766475
254	0x3c2f3f31	0.010696218
255	0x3cedd832	0.029033754

network.0.bias f4 [128]
0	0x3e273c09	0.16331495
1	0xbd55e7e9	-0.05222312
2	0xbc363bc5	-0.011122649
3	0xba0bf56c	-0.0005339
4	0xbe3e3b01	-0.18577196
5	0xbce9c5a5	-0.028536627
6	0x3c8634ee	0.01638266
7	0x3e1f1c2c	0.1553809
8	0xbe35e54a	-0.17763248
9	0x3d91e379	0.07123465
10	0x3db5b4e9	0.088723965
11	0x3c592fcc	0.013256025
12	0xbe14fced	-0.14549609
13	0xbdbe28d8	-0.09285134
14	0xbc33d241	-0.010975421
15	0x3e03c655	0.12868626
16	0x3c544abe	0.012957273
17	0x3d321552	0.043477364
18	0x3e6f6ab2	0.23380545
19	0x3e1bffbe	0.15234277
20	0x3dd8a19f	0.10577702
21	0x3dda9985	0.10673813
22	0xbd030110	-0.031983435
23	0xbe1cfdae	-0.15331146
24	0x3e04ee59	0.12981547
25	0x3db92c2e	0.0904163
26	0xbdad72ba	-0.08469148
27	0xbe2796f3	-0.16366176
28	0x3e3f413b	0.18677227
29	0x3e1f66a0	0.15566492
30	0xbe17eee2	-0.1483722
31	0xbe348f6d	-0.17632838
32	0x3e6dc5d4	0.23219997
33	0xbdec87b3	-0.1154932
34	0x3c4e139c	0.012577917
35	0xbdbbe2f6	-0.09174149
36	0xbe1284a8	-0.14308417
37	0xbd32f7c6	-0.043693326
38	0x3ca54418	0.020174071
39	0xbd769a92	-0.060206003
40	0x3bcdc5e2	0.006279693
41	0x3cb5f0a4	0.022209473
42	0x3e078976	0.13236031
43	0x3e1ca393	0.15296774
44	0x3dbd08b5	0.09230176
45	0x3df30552	0.11866249
46	0x3d1dd3a8	0.03853193
47	0xbdcee1d5	-0.10101668
48	0xbdccb245	-0.0999494
49	0x3dc5e979	0.09663672
50	0x3e2543d5	0.16139157
51	0x3e51a9bb	0.20474903
52	0x3e3393c9	0.17536844
53	0x3c26e379	0.01018607
54	0xbdcbe227	-0.099552445
55	0xbe078fc4	-0.13238436
56	0xbd517cdf	-0.051144477
57	0xbd90a9d0	-0.07063639
58	0xbc19a2a2	-0.009377154
59	0xbde6ffdf	-0.11279272
60	0xbe35c9b9	-0.17752732
61	0x3de11903	0.10991099
62	0xbd6f1174	-0.058366254
63	0xbde6c364	-0.112677366
64	0x3e211be9	0.15733303
65	0x3b746706	0.0037292852
66	0x3e279986	0.16367158
67	0x3d8d9efe	0.06915091
68	0xbcd90a98	-0.02649431
69	0x3e6ba43d	0.2301187
70	0xbd8df856	-0.06932132
71	0xbce2af19	-0.027671384
72	0xbdbc4c1f	-0.091942064
73	0x3e173217	0.14765202
74	0x3e022f21	0.12713291
75	0x3e549ec3	0.20763688
76	0x3d38c777	0.0451121
77	0xbd8a5968	-0.06755334
78	0x3dbb6eca	0.09151991
79	0xbd1b3636	-0.037893496
80	0x3add7865	0.0016896842
81	0x3de3a763	0.11115911
82	0x3ddbd262	0.10733487
83	0x3e49c6fe	0.19704816
84	0x3e2f9434	0.17146379
85	0xbced35f7	-0.028956397
86	0x3e2872e8	0.16450083
87	0x3d4b9e3a	0.049711443
88	0xbe27174e	-0.16317484
89	0x3dcb87e2	0.09938027
90	0xbe22432e	-0.1584594
91	0x3e0eb1db	0.13935034
92	0x3d2256a8	0.039633423
93	0xbe346c46	-0.17619428
94	0xbe297ba4	-0.16551071
95	0xbdfa5e2a	-0.122249916
96	0xbe34b852	-0.17648438
97	0xbc1ff7a3	-0.009763631
98	0xbd6a2318	-0.057162374
99	0x3dce804a	0.10083063
100	0xbc9963be	-0.018724319
101	0xbdaab125	-0.08334569
102	0xbe0d6fa1	-0.13812114
103	0xbda5bb48	-0.08092362
104	0x3e18fa46	0.14939222
105	0x3e204ca0	0.1565423
106	0x3e3a998e	0.18222639
107	0x3e338820	0.17532396
108	0xbe16d404	-0.14729315
109	0x3e447614	0.19185668
110	0xbe00314f	-0.1251881
111	0x3e5f4afd	0.2180595
112	0x3c8b0250	0.016968876
113	0x3e3b266d	0.18276377
114	0x3e5c2b4c	0.21500891
115	0x3de5d52e	0.112223014
116	0x3e2e14eb	0.17000167
117	0x3e5124ff	0.20424269
118	0x3db27a58	0.087147415
119	0x3c657853	0.014005738
120	0xbd0bf376	-0.03416773
121	0xbe0fda15	-0.14048035
122	0xbd1c7a38	-0.038202494
123	0x3dfaa70a	0.122388914
124	0xbe49f216	-0.19721255
125	0x3e29585e	0.16537616
126	0xbe1e5347	-0.15461455
127	0xbe144cef	-0.14482473

network.2.weight f4 [128, 128]
0	0x3d999503	0.07499125
1	0x3cb7d3ca	0.022439856
2	0xbd36a18f	-0.044587668
3	0x3d68c7dd	0.05683123
4	0x3cc67cfe	0.024229523
5	0x3ce4456b	0.027865132
6	0x3d0ad3a8	0.033893257
7	0x3cdd7c0c	0.02703669
8	0x3d95edcb	0.07320746
9	0xbc9e6631	-0.019335838
10	0x3d772403	0.060337078
11	0x3da07419	0.07834644
12	0x3d1c7187	0.038194206
13	0xbc8f769c	-0.017512612
14	0xbd070cb7	-0.03297111
15	0xbd8b08d0	-0.0678879
16	0xbd698ffc	-0.05702208
17	0xbda7c2c2	-0.08191444
18	0xbdc38941	-0.095476635
19	0x3d017664	0.031607047
20	0x3d04f1c4	0.03245713
21	0x3d137d56	0.0360082
22	0xbd35726b	-0.04429857
23	0xbda4f87d	-0.08055208
24	0x3d48495f	0.048898097
25	0xbd6c314d	-0.057664204
26	0xbd2bb608	-0.041921645
27	0x3d35bafb	0.04436777
28	0xbd8acae2	-0.06776978
29	0x3d770e43	0.060316335
30	0xbd14c2a9	-0.036318455
31	0x3d4e35e8	0.050344378
32	0xbbb3e4ba	-0.005489913
33	0xb91c4df5	-0.0001490636
34	0xbd9cfb0d	-0.07665072
35	0xbd03c174	-0.032166913
36	0x3d91898b	0.07106312
37	0x3a8972bf	0.0010486468
38	0x3d4896e6	0.048972033
39	0x3b896f19	0.004194152
40	0xbd8f4dd6	-0.06997268
41	0xbda754c1	-0.081704624
42	0xbdaad0ee	-0.083406314
43	0x3d9a8b9d	0.0754616
44	0x3c07ebfb	0.008296008
45	0xbd82a4e2	-0.06379105
46	0xbc1c8fd8	-0.009555779
47	0x3bf696f7	0.0075253206
48	0x3d888d9b	0.06667634
49	0xbdd04b2c	-0.10170588
50	0xbd8780f3	-0.06616392
51	0x3d2a1c8c	0.04153113
52	0xbdc062fe	-0.09393881
53	0x3ccd89de	0.025090154
54	0x3d3d237e	0.046176426
55	0x3d4b1174	0.04957719
56	0xbd9d736f	-0.07688033
57	0xbd9d3126	-0.0767539
58	0xbca9b93f	-0.020718215
59	0x3cd91cbd	0.026502961
60	0xbd20613b	-0.039155226
61	0xbd9657f4	-0.073409945
62	0xbd08369d	-0.03325521
63	0xbd87b362	-0.066260114
64	0xbcef6ec1	-0.029227616
65	0x3d47e318	0.048800558
66	0x3bf4b5f7	0.007467981
67	0x3cc76638	0.024340734
68	0xbd21e770	-0.039527357
69	0xbca491f4	-0.020089127
70	0x3d81662a	0.063183144
71	0xbd828156	-0.06372325
72	0x3d6f8b89	0.05848268
73	0x3daae2ac	0.083440155
74	0x3d2d343e	0.04228615
75	0xbdc958eb	-0.09831413
76	0xbbc98bce	-0.006150699
77	0x3caaa27e	0.020829435
78	0xbd6c6357	-0.057711925
79	0x3d88238b	0.06647404
80	0xbd1c5529	-0.038167153
81	0xb9e723e4	-0.00044086494
82	0x3d384765	0.044989962
83	0xbd7f430b	-0.062319797
84	0xbd72ef48	-0.059310228
85	0xbdc59d4f	-0.09649145
86	0xbc97b0bd	-0.018516893
87	0x3d496055	0.049164135
88	0xbd9884c8	-0.07447201
89	0x3c7ef14c	0.015560459
90	0xbd61cad7	-0.055125084
91	0xbd7871b1	-0.0606553
92	0xbc687038	-0.014186911
93	0x3d2585b2	0.040410705
94	0xbc2c25e8	-0.010507084
95	0x3d3019b6	0.04299327
96	0xbc2479b1	-0.010038779
97	0x3caf4150	0.021393448
98	0x3ccab2d3	0.024743473
99	0x3d75b32a	0.059985317
100	0xbd0d21a3	-0.034455907
101	0xbd284c60	-0.041088462
102	0xbd9b70c2	-0.07589866
103	0x3cd61b97	0.026136203
104	0xbc70e13d	-0.0147021385
105	0x3ccbecad	0.02489313
106	0xbbfbcc53	-0.0076842695
107	0xbc21688b	-0.009851585
108	0x3d0cd7ca	0.03438548
109	0x3da50c0a	0.08058937
110	0xbd3d6f9f	-0.04624903
111	0xbdc0fcd6	-0.09423225
112	0x3db00b15	0.08595864
113	0xbd315f66	-0.04330387
114	0xbcb82916	-0.022480529
115	0xbd305d83	-0.04305793
116	0xbd69fbc7	-0.05712488
117	0x3d9636ae	0.07334648
118	0x3a5e96b4	0.00084910844
119	0x3c84b52d	0.016199673
120	0xbd4c1050	-0.049820244
121	0xb9a98026	-0.0003232967
122	0x3c0e9152	0.008701639
123	0x3d368be9	0.044567022
124	0x3ccb5c5a	0.02482431
125	0xbd872e5b	-0.066006385
126	0xbd3c8037	-0.046020713
127	0xbdad604a	-0.08465631
128	0xbc8efcea	-0.017454583
129	0xbcc9d75d	-0.024638826
130	0xbd6d1a4e	-0.057886414
131	0xbd23e70b	-0.04001526
132	0xbd3bae5a	-0.04582057
133	0xbc72126b	-0.014774899
134	0xbd800f49	-0.062529154
135	0xbc24d855	-0.010061343
136	0xbc9bbe0b	-0.019011518
137	0xbd4c78c7	-0.04991987
138	0xbd85de2f	-0.06536519
139	0xbd68ad26	-0.056805752
140	0xbce45cfb	-0.027876368
141	0x3bd31bed	0.006442538
142	0xbcfd3506	-0.030909073
143	0xbcaf02c4	-0.021363623
144	0x3c4ce25e	0.012505142
145	0x3c758161	0.01498446
146	0xbc10978d	-0.008825195
147	0x3dbb727f	0.09152698
148	0xbdf06b5a	-0.11739226
149	0x3d7a5211	0.06111342
150	0x3d096462	0.033542998
151	0x3d0903d8	0.03345093
152	0x3d8d138a	0.068884924
153	0x3c0645ed	0.008195383
154	0xbc596848	-0.0132694915
155	0x3d08e877	0.03342482
156	0xbdd1f267	-0.10251313
157	0xbcbfed75	-0.023428658
158	0xbd68c4cd	-0.05682831
159	0x3bed7dff	0.007247686
160	0x3ceea76a	0.029132564
161	0xbd7b4f0d	-0.061354686
162	0x3daf39b7	0.0855593
163	0x3abaf5ed	0.0014263965
164	0x3e0a82c8	0.13526452
165	0xbda16e08	-0.07882315
166	0xbd7f9f7c	-0.062407956
167	0xbd8c6f61	-0.06857181
168	0x3dadcc6b	0.08486255
169	0xbdae83ad	-0.08521209
170	0x3d0d8048	0.034546167
171	0x3b96c862	0.004601524
172	0x3d948c60	0.07253337
173	0xbd751ee3	-0.05984391
174	0xbcb5fcb8	-0.022215232
175	0x3c0d496a	0.00862346
176	0x3d668c4e	0.05628615
177	0x3da8aef3	0.08236494
178	0xbd572630	-0.052526653
179	0x3d9fe688	0.07807642
180	0x3d3afab7	0.045649257
181	0xbd8a7245	-0.067600764
182	0xbd974967	-0.07387047
183	0xbdd26798	-0.10273665
184	0xbcac17a9	-0.021007376
185	0xbc3bceb8	-0.01146286
186	0x3b5b920e	0.0033503803
187	0x3cc15c4f	0.023603586
188	0xbd87238e	-0.065985784
189	0xbdb246c2	-0.08704902
190	0x3dcdcc05	0.10048679
191	0x3d80bebc	0.0628638
192	0x3d102531	0.03519172
193	0xbcc156dd	-0.02360099
194	0x3d7897a3	0.060691487
195	0x3d96f896	0.07371633
196	0x3d9dc1a7	0.07702952
197	0x3c84e3ab	0.016221842
198	0x3d96106d	0.07327352
199	0x3d1529ad	0.0364167
200	0xbcd8cdfb	-0.026465407
201	0xbbe67b79	-0.007033762
202	0x3c8be524	0.017077036
203	0x3c307148	0.010769196
204	0x3cf62125	0.030045101
205	0x3dccec1f	0.10005974
206	0x3d2eab4a	0.042643823
207	0x3d9f2ff5	0.07772819
208	0x3d952bce	0.07283746
209	0x3a8b071e	0.001060698
210	0x3c386ae9	0.011255958
211	0x3d87488b	0.06605633
212	0x3cdef5c0	0.027216792
213	0xbc7c9f65	-0.015418862
214	0xbda4221f	-0.080143206
215	0xbb4effee	-0.0031585651
216	0x3dea709c	0.1144726
217	0x3d4dd970	0.050256193
218	0x3df474e9	0.11936361
219	0x3d5abec9	0.053404603
220	0x3d6a1e22	0.057157643
221	0xbc92083c	-0.017826192
222	0xbd787fb6	-0.06066867
223	0x3da7b129	0.081880875
224	0xbd8da88a	-0.06916912
225	0x3e18a588	0.14906895
226	0xbc4c7bad	-0.0124806585
227	0x3cbf183b	0.023326984
228	0x3d34fce7	0.0441865
229	0x3ce6b5dc	0.02816289
230	0x3d977369	0.073950596
231	0xba019f4c	-0.00049446966
232	0xbd8ffe59	-0.07030935
233	0xbd6b1d3d	-0.05740093
234	0xbda5cb36	-0.080954
235	0x3c04edc8	0.008113332
236	0x3d33bbdb	0.043880325
237	0x3d0db2dc	0.0345944
238	0x3d0e57ca	0.03475169
239	0xbd1742e3	-0.036929023
240	0xbcff7eb6	-0.03118835
241	0xbd4f9312	-0.050677367
242	0xbcbfffa5	-0.02343733
243	0x3c0581e6	0.008148646
244	0x3d8ec9ac	0.069720596
245	0xbb724e64	-0.0036972994
246	0x3d68d758	0.056845993
247	0xbcf8c4db	-0.030367306
248	0xbd44d8df	-0.048058387
249	0xbd9cb151	-0.07651008
250	0x3d7f33b3	0.062305164
251	0xbcccac29	-0.024984436
252	0x3d8b8347	0.068121485
253	0xbdafb1c1	-0.08578826
254	0xbce2178a	-0.027599115
255	0x3dac9bd2	0.08428158

network.2.bias f4 [128]
0	0x3d4824d3	0.048863243
1	0xbda1400b	-0.07873543
2	0xbdb47e08	-0.08813101
3	0x3b107be8	0.002204651
4	0xbda40db5	-0.08010427
5	0xbb9818ff	-0.0046416516
6	0x3da0fd37	0.07860797
7	0x3c862c1e	0.016378459
8	0xbd5b1fe3	-0.053497206
9	0xbdb3c1b8	-0.08777183
10	0xbbcb6320	-0.006206885
11	0x3b5ee013	0.003400807
12	0x3c81b05e	0.015831169
13	0xbd4ce367	-0.050021555
14	0xbd443d16	-0.04790982
15	0x3c9fb3a9	0.019494848
16	0xbd1e2760	-0.03861177
17	0x3c6c3093	0.014415878
18	0x3c717ef4	0.014739741
19	0x3caf4500	0.021395206
20	0x3d866b39	0.0656342
21	0xbbb57975	-0.0055381604
22	0xbd3d46d3	-0.04621012
23	0xbd8d531f	-0.0690062
24	0xbc987140	-0.01860869
25	0x3d0c0e4b	0.03419332
26	0x3b906d9d	0.004407598
27	0x3d3ccec2	0.046095617
28	0xbced31ca	-0.028954405
29	0xbc47dc70	-0.0121985525
30	0xbaa48340	-0.0012551323
31	0x3c70ad03	0.014689687
32	0x3ba6eda6	0.005094248
33	0xbcece1f4	-0.028916337
34	0x3d7e8e6d	0.062147547
35	0x3d871f4a	0.06597765
36	0x3dc2c5d4	0.09510389
37	0x3d2e8a91	0.042612616
38	0xbdbf0b00	-0.0932827
39	0xbdb9a534	-0.09064713
40	0x3b9513cb	0.0045494786
41	0x3dcd8521	0.10035158
42	0x3d9802a0	0.07422376
43	0x3d198774	0.037482694
44	0xbc85d9e4	-0.01633925
45	0x3d619a2a	0.055078663
46	0x3dd09a08	0.10185629
47	0x3dcabc86	0.09899239
48	0xbb57d748	-0.0032934714
49	0xbd1d77a0	-0.03844416
50	0xbd6804d7	-0.05664524
51	0xbd171c37	-0.036892142
52	0x3d77b27c	0.06047295
53	0xbd2bf7d6	-0.0419844
54	0x3ddce660	0.10786128
55	0xbd9a5a1a	-0.07536717
56	0x3c03a109	0.008033999
57	0x3d83173b	0.06400915
58	0xbdb2beb1	-0.08727778
59	0xbd9cf5e1	-0.07664085
60	0xbd830c25	-0.06398801
61	0x3c54f876	0.012998691
62	0x3cbd222e	0.023087587
63	0xbd6c56a5	-0.05769982
64	0xbd8e6b31	-0.06954039
65	0x3c128b12	0.00894429
66	0x3d34d6f0	0.044150293
67	0x3d8f3461	0.06992412
68	0x3db83bb6	0.08995764
69	0xbd8a6c61	-0.06758953
70	0xbd0486c4	-0.032355085
71	0x3cce2394	0.02516345
72	0xbd0e686f	-0.034767564
73	0xbd8c2e9d	-0.06844828
74	0xbdbac1b5	-0.09118978
75	0x3d8d8c98	0.06911582
76	0x3cbdb10e	0.023155715
77	0x3d62bd5b	0.055356365
78	0x3c2545f7	0.010087482
79	0xbd179e4c	-0.037016198
80	0xbd943326	-0.07236318
81	0x3dbc356e	0.091898784
82	0x3b8eda18	0.004359495
83	0x3ab72dfc	0.0013975496
84	0xbd508603	-0.050909054
85	0xbce9c1ef	-0.028534858
86	0xbce57862	-0.028011505
87	0x3d5ce3e5	0.053928275
88	0x3c032e4b	0.008006643
89	0x3c231af0	0.009955153
90	0x3dd8e8fa	0.10591312
91	0x3d243d5a	0.040097572
92	0xbd52ac4e	-0.051433854
93	0x3c22910e	0.009922279
94	0x3d22329c	0.039599046
95	0x3c9d0cc1	0.01917112
96	0x3dad7434	0.084694296
97	0x3d4f9434	0.050678447
98	0xbd85314d	-0.06503544
99	0x3de01e54	0.10943285
100	0xbd96e371	-0.073676
101	0x3dadc167	0.08484154
102	0xbc9bc5d4	-0.01901523
103	0x3d521c8a	0.05129675
104	0x3db7ea34	0.089802176
105	0xbd388330	-0.045046985
106	0xbd1d378c	-0.03838305
107	0xbd93a265	-0.07208709
108	0x3c8deaa8	0.017323807
109	0x3d822491	0.06354631
110	0xbd868051	-0.06567443
111	0xbcede2cf	-0.029038815
112	0xbcaadff7	-0.020858748
113	0xbda60cfb	-0.081079446
114	0xbd0baac7	-0.034098413
115	0x3dae0a9d	0.08498118
116	0x3d64d5ac	0.055867836
117	0x3d9be0ae	0.076112136
118	0xbc67071e	-0.014100818
119	0x3d63b38e	0.05559116
120	0xbd7e2c4e	-0.06205397
121	0x3d5a1b03	0.053248417
122	0x3cda1e5c	0.026625805
123	0x3d4924bb	0.049107295
124	0x3ddcba34	0.10777703
125	0xbd93b618	-0.07212466
126	0xbd5f1f96	-0.054473482
127	0xbb828cd4	-0.003984073

network.4.weight f4 [8, 128]
0	0xbd72cc1a	-0.059276678
1	0xbd3e1a9c	-0.046412095
2	0xbd6df16d	-0.05809157
3	0xbdb944aa	-0.090463
4	0x3d6e8e66	0.05824127
5	0x3c9f571a	0.019450713
6	0xbcd33aef	-0.025784938
7	0x3cc5b02d	0.024131859
8	0x3d299836	0.041404925
9	0x3d85d39d	0.06534503
10	0x3ceb2bb0	0.028707355
11	0x3d85bb34	0.06529847
12	0x3cbb0379	0.022828804
13	0x3d05d218	0.032671064
14	0x3cf0db22	0.029401366
15	0xbd6565f3	-0.05600543
16	0xbdd11758	-0.102095306
17	0xbc66ce8a	-0.014087329
18	0xbd8b6c6d	-0.0680779
19	0x3d9f517b	0.07779213
20	0xbce86d88	-0.028372541
21	0x3ccefb04	0.025266178
22	0x3ca05459	0.01957147
23	0x3d064211	0.03277785
24	0xbdab8c76	-0.083764
25	0x3d29c759	0.04144988
26	0xbd66eecf	-0.05638009
27	0x3c31d100	0.010853052
28	0xbca76a87	-0.020436538
29	0xbbef8a20	-0.007310167
30	0x3cc000e0	0.023437917
31	0xbd1778af	-0.036980327
32	0x3d956849	0.072952814
33	0xbd9d39de	-0.07677053
34	0x3db30599	0.08741302
35	0x3d5dedea	0.05418197
36	0xbdee8a31	-0.11647452
37	0xbcbee078	-0.023300394
38	0x3d9d9878	0.07695097
39	0xbd4c61cf	-0.049897965
40	0x3d3c000f	0.045898493
41	0xbb9bb15a	-0.0047513666
42	0xbde50a22	-0.11183573
43	0x3cfd92b5	0.030953744
44	0x3c4cd2d8	0.012501441
45	0xbbb48815	-0.0055093863
46	0xbd6363d4	-0.055515125
47	0xbca2b03c	-0.019859426
48	0xbda3d47c	-0.079995126
49	0x3d88d7db	0.06681796
50	0xbcde097c	-0.027104132
51	0xbdb6cc08	-0.089256346
52	0x3d76365c	0.060110435
53	0xbcaab0dc	-0.020836286
54	0xbdaa4cd9	-0.08315439
55	0xbcc27207	-0.023736013
56	0x3cb1cdf4	0.021704651
57	0xbda92a01	-0.08259965
58	0xbdb30763	-0.08741643
59	0x3d0ddece	0.03463631
60	0xbd7a784c	-0.06114988
61	0xbc566495	-0.013085504
62	0x3d859446	0.065224215
63	0xbca67dbe	-0.02032363
64	0x3a2fe00c	0.0006709106
65	0xbdb10e07	-0.08645254
66	0xbc4decb4	-0.012568641
67	0xbd8fc83d	-0.07020614
68	0xbca9033a	-0.020631421
69	0xbd22b2e6	-0.039721392
70	0xbc1431d9	-0.009045088
71	0x3bb3ec59	0.0054908213
72	0x3d50712c	0.05088918
73	0x3db08a43	0.08620121
74	0x3cd494d8	0.02594988
75	0x3d99742f	0.074928634
76	0xbdaf2044	-0.08551076
77	0x39a96589	0.00032309841
78	0x3d025011	0.03181464
79	0x3ceb7f53	0.028747236
80	0xbdff4a2f	-0.12465321
81	0xbd0e4c2a	-0.034740604
82	0xbd32a072	-0.043610044
83	0xbca794eb	-0.020456752
84	0x3d8ff36a	0.070288494
85	0xbd143cc6	-0.03619077
86	0xbd84ebae	-0.06490265
87	0xbdf0f7f9	-0.11766047
88	0x3d5a47f5	0.05329128
89	0x3c905a75	0.017621258
90	0xbe0007d9	-0.12502994
91	0x3c231d18	0.009955667
92	0xbc5a2d58	-0.013316475
93	0x3d755a17	0.05990037
94	0xbe104f17	-0.1409267
95	0xbd8a24c7	-0.06745296
96	0xbcdeb22d	-0.02718457
97	0xbd37dddc	-0.044889316
98	0xbcced021	-0.025245728
99	0xbdbad578	-0.09122747
100	0xbd10188e	-0.035179667
101	0x3ca7364b	0.020411631
102	0xbdb0b21c	-0.08627722
103	0x3d8b7f8e	0.068114385
104	0x3cb72614	0.022357024
105	0x3d658a0a	0.056039847
106	0x3b7e1148	0.0038767625
107	0xbd076de6	-0.03306379
108	0xbc8f9c2f	-0.017530529
109	0x3cf84d99	0.030310439
110	0xbd62f129	-0.05540577
111	0xbd0ebd39	-0.034848426
112	0xbdb143e2	-0.08655526
113	0x3c9f9311	0.019479306
114	0x3daed7a5	0.08537225
115	0xbd8b9cf6	-0.06817047
116	0xbd290354	-0.04126294
117	0xbd3ed977	-0.04659411
118	0xbcf1c632	-0.029513452
119	0x3d65a19e	0.056062333
120	0x3cd771a4	0.026299305
121	0xbcb73334	-0.022363283
122	0xbd015f04	-0.031584755
123	0x3cf3c18f	0.029755382
124	0xbd0c58fe	-0.034264557
125	0x3c339b8a	0.010962376
126	0x3d6a33f6	0.05717846
127	0x3bae073c	0.005310921
128	0xbd8b50a1	-0.06802488
129	0x3c33486b	0.010942559
130	0x3da7a68d	0.08186064
131	0x3dd0a70a	0.1018811
132	0xbd416511	-0.047215525
133	0x3dd19929	0.10234291
134	0x3d7a970e	0.061179213
135	0xbb10b6ad	-0.002208154
136	0x3d7a4992	0.06110532
137	0x3d9df290	0.07712281
138	0x3c33f9a0	0.010984808
139	0xbd15be1a	-0.036558248
140	0xbd9e78fa	-0.07737918
141	0x3cdf6ae4	0.02727265
142	0x3b1e8a68	0.0024191383
143	0x3d3bdd79	0.04586551
144	0x3d89ee0e	0.067348585
145	0x3ddd8646	0.10816626
146	0x3df5d442	0.120033756
147	0x3c9c38af	0.019069998
148	0x3db50c04	0.088401824
149	0xbd8f4e40	-0.06997347
150	0xbd30839b	-0.04309426
151	0xbc66cdec	-0.014087182
152	0xbdbc181d	-0.09184287
153	0x3b4eebd1	0.0031573663
154	0x3d832f12	0.06405462
155	0xbd039480	-0.032124043
156	0x3dd68197	0.10473936
157	0xbd8d0fa2	-0.06887747
158	0x3da7abb3	0.08187046
159	0x3db7e98c	0.089800924
160	0xbd180da1	-0.037122373
161	0xbd4172a0	-0.047228456
162	0x3d841089	0.06448466
163	0x3d2110bf	0.03932261
164	0xbd112790	-0.03543812
165	0xbd38c4c3	-0.04510952
166	0xba92a7fa	-0.0011188977
167	0xbd244606	-0.040105842
168	0x3dc38055	0.09545962
169	0x3dcb8a7b	0.099385224
170	0x3da26154	0.0792872
171	0xbd5ce320	-0.05392754
172	0xbd893765	-0.06700019
173	0xbd88d286	-0.06680779
174	0x3de78a3d	0.11305664
175	0x3dcca3b0	0.099921584
176	0x3dc00d95	0.093775906
177	0xbca52cdc	-0.020162992
178	0x3d0a79af	0.033807453
179	0xbd3511ee	-0.044206552
180	0xbccfe5c1	-0.02537811
181	0xbd907033	-0.0705265
182	0x3d336415	0.043796618
183	0xbc4e872a	-0.012605468
184	0x3da7f38c	0.0820075
185	0xbd853477	-0.065041475
186	0xbd2f948e	-0.042866282
187	0xbd53241a	-0.0515481
188	0x3d36b235	0.044603545
189	0x3cbbc5a1	0.022921385
190	0xbbe37da7	-0.006942469
191	0x3caf96b1	0.02143416
192	0xbcc09b3e	-0.023511525
193	0x3d916c1e	0.071007
194	0x3da32166	0.079653546
195	0x3c5584c8	0.013032146
196	0x3d5fe04f	0.054657277
197	0x3d1e694e	0.038674645
198	0xbcd5302c	-0.026023947
199	0x3cc34545	0.023836741
200	0xbd82eb37	-0.0639252
201	0x3b8f2c40	0.0043692887
202	0x3d0c4985	0.0342498
203	0x3d8c1234	0.068394095
204	0x3dcec474	0.10096064
205	0xbc0bfac3	-0.008543673
206	0xbc18585b	-0.009298409
207	0xbd135fbf	-0.035979982
208	0xbc510b0a	-0.01275898
209	0x3dfa83f7	0.122322015
210	0x3a05699a	0.0005089283
211	0x3dc9bc1d	0.09850333
212	0x3d9f7111	0.077852376
213	0xbd71b342	-0.059008844
214	0xbc5566cc	-0.013024997
215	0x3e05457d	0.13014789
216	0x3cbbe480	0.022936106
217	0xbcb87eca	-0.022521395
218	0x3cf94a31	0.030430885
219	0x3dac8065	0.08422927
220	0xbd04d844	-0.03243281
221	0x3ac4bbc9	0.0015009578
222	0x3d31adf0	0.04337877
223	0xbc741cd2	-0.014899449
224	0x3dcf5d8a	0.10125263
225	0x3dd81345	0.1055055
226	0x3d6d6278	0.057955235
227	0x3e0022d2	0.12513283
228	0x3d5885d6	0.05286201
229	0xbd2a9e3e	-0.041654818
230	0x3d3a5c6f	0.045498308
231	0x3c9d2ccc	0.0191864
232	0x3caec390	0.021333486
233	0x3dafddcf	0.085872285
234	0x3d54d226	0.051958226
235	0x3d6c96b4	0.05776091
236	0x3daae36f	0.08344161
237	0xbda11e24	-0.07867077
238	0xbcdc8963	-0.02692098
239	0xbd48a22f	-0.048982795
240	0x3d616a3f	0.055032965
241	0xbd36accd	-0.04459839
242	0xba9c4b00	-0.0011924207
243	0x3cff13ae	0.031137314
244	0x3d82edd8	0.06393021
245	0x3db23e90	0.08703339
246	0x3cb50700	0.022098064
247	0xbd8d3228	-0.06894332
248	0xbd03ef79	-0.0322108
249	0xbcb317d0	-0.02186194
250	0x3d30e746	0.04318931
251	0x3ca77c85	0.020445118
252	0x3ddf5d65	0.109064855
253	0x3bbcd89b	0.005763126
254	0x3d113b76	0.035457097
255	0x3d96d2c8	0.07364422

network.4.bias f4 [8]
0	0x3d2c12e9	0.04201022
1	0x3d29706c	0.04136698
2	0xbc64be47	-0.013961381
3	0x3db37fa5	0.08764581
4	0xbc64986e	-0.013952358
5	0xbdf7c593	-0.12098231
6	0xbcf9e542	-0.030504826
7	0xbd86c1ab	-0.06579908

exp_avg f4 [128, 26]
0	0x281fcafd	8.870289e-15
1	0x2884ec8e	1.4757533e-14
2	0x27a95987	4.700399e-15
3	0x280eb309	7.9214055e-15
4	0x284e30b6	1.144586e-14
5	0x28902c8b	1.6006529e-14
6	0x28700c6e	1.33253716e-14
7	0x2880eee6	1.431446e-14
8	0x2861296b	1.249899e-14
9	0x287ebe46	1.4141091e-14
10	0x281b84d4	8.633031e-15
11	0x282790c2	9.301752e-15
12	0x280e3ca6	7.8957345e-15
13	0x2878d58b	1.381307e-14
14	0x284774b3	1.1072024e-14
15	0x2881bcd1	1.4403763e-14
16	0x28a07802	1.7815613e-14
17	0x28580ce8	1.1993207e-14
18	0x284f8164	1.15188654e-14
19	0x283886f2	1.02433134e-14
20	0x28921a03	1.6220537e-14
21	0x282aab3b	9.474025e-15
22	0x280888f6	7.579215e-15
23	0x27638ef1	3.1580067e-15
24	0x2831bc90	9.866362e-15
25	0x2831bc29	9.8662745e-15
26	0x3a8aeae7	0.0010598571
27	0x3a453a56	0.00075236463
28	0x3c8e6a8d	0.017384792
29	0x3b56054a	0.003265696
30	0x3b774656	0.0037731132
31	0x3c63c509	0.013901957
32	0x3c4495d8	0.011998616
33	0x3e42e36f	0.19032072
34	0x3c024e61	0.007953257
35	0x3c373cae	0.011183901
36	0x3e173a49	0.14768328
37	0x3e18273b	0.14858715
38	0x3b72d64a	0.0037053996
39	0x3e37a355	0.179334
40	0x3e49fb2d	0.19724722
41	0x3deb08da	0.11476298
42	0x3e28a247	0.16468154
43	0x3e61e7d7	0.22061096
44	0x3e3ea036	0.18615803
45	0x3e408ed0	0.18804479
46	0x3e210639	0.1572503
47	0x3df66f7c	0.12032983
48	0x3ddc7fac	0.10766539
49	0x3d553d33	0.052060317
50	0x3e028a0b	0.12747972
51	0x3e0139b1	0.12619664
52	0xba551d86	-0.00081297045
53	0xbac6e1da	-0.001517351
54	0xba9eeb0d	-0.0012124494
55	0xbb02953e	-0.001992538
56	0xba356955	-0.0006920298
57	0xb9c266e6	-0.0003707923
58	0xba8a72ca	-0.0010562774
59	0x3b4ceda4	0.0031269575
60	0xbb1c64b7	-0.0023863742
61	0xbac7908c	-0.0015225573
62	0x3b3711a6	0.0027934103
63	0x3b92467d	0.0044639693
64	0xbb8747c1	-0.004128427
65	0x3b4b07ba	0.0030979947
66	0x3b86153f	0.004091888
67	0xba7d6043	-0.0009665528
68	0x3b0ac946	0.0021177097
69	0x3b7a91d2	0.0038233888
70	0x3b7ac910	0.0038266815
71	0x3bc48acc	0.005997991
72	0x3b61127a	0.0034343288
73	0x3b1f66ac	0.0024322672
74	0x3b286819	0.0025696813
75	0x3a9e728f	0.0012088584
76	0x3b19c929	0.0023465848
77	0x3b1ce964	0.0023942823
78	0x00000000	0.0
79	0x00000000	0.0
80	0x16662f74	1.8594226e-25
81	0x00000000	0.0
82	0x00000000	0.0
83	0x00000000	0.0
84	0x151dca79	3.186562e-26
85	0x184c4b8f	2.640453e-24
86	0x00000000	0.0
87	0x00000000	0.0
88	0x17a49db6	1.0638063e-24
89	0x17c18c04	1.2507678e-24
90	0x00000000	0.0
91	0x183d2e1e	2.445096e-24
92	0x182f0de6	2.2625237e-24
93	0x17b0ed32	1.143361e-24
94	0x189e14db	4.08631e-24
95	0x188b3961	3.5988596e-24
96	0x17cd55c7	1.3269468e-24
97	0x18682521	3.0004043e-24
98	0x18991399	3.956936e-24
99	0x17c88221	1.2957546e-24
100	0x17a0680c	1.0366023e-24
101	0x1705ac0a	4.319176e-25
102	0x18053a72	1.7219354e-24
103	0x17f09c12	1.5549034e-24
104	0x3831726b	4.230665e-05
105	0x38d66725	0.00010223527
106	0xb9b05cb2	-0.000336384
107	0x38a353a2	7.7880235e-05
108	0x38d69f78	0.000102340186
109	0x39d229ac	0.0004008537
110	0x3a15f6ab	0.00057206553
111	0x3b251f65	0.0025195715
112	0x3a2f8362	0.0006695298
113	0x39c26e19	0.00037084593
114	0xb8ef9940	-0.00011424953
115	0xbb202598	-0.002443647
116	0x3956d0d4	0.00020486425
117	0x39551ab7	0.00020323215
118	0x371c23e1	9.306678e-06
119	0xbb4d70ad	-0.0031347678
120	0xba128c16	-0.00055903324
121	0xb9265c62	-0.00015865409
122	0xbaa08e56	-0.0012249451
123	0xbb8737b1	-0.004126512
124	0x3a96abb6	0.0011495266
125	0xb9326f24	-0.00017016806
126	0xba5a0781	-0.0008317158
127	0xb9cac21d	-0.00038673068
128	0x39196eb9	0.00014632464
129	0x390c85ec	0.0001340133
130	0x3caa5672	0.020793173
131	0xbc35bc7e	-0.011092303
132	0x3d158ba0	0.03651011
133	0x3d10ff8e	0.035399966
134	0x3cde7e1b	0.027159741
135	0x3d904db8	0.07046074
136	0x3d77167c	0.060324177
137	0x3e70db77	0.23521219
138	0x3d519dd4	0.051175907
139	0x3d3b2135	0.045685966
140	0x3e40d9f4	0.18833143
141	0x3e3a2f68	0.18182147
142	0x3b7caf7c	0.0038556745
143	0x3e632b3a	0.22184458
144	0x3e888f8b	0.26672015
145	0x3e104bac	0.14091367
146	0x3e5da367	0.21644364
147	0x3e919190	0.28431368
148	0x3e54057d	0.20705219
149	0x3e7a6e05	0.24456032
150	0x3e508914	0.20364791
151	0x3e1cb83a	0.15304652
152	0x3e0cb2ec	0.13740128
153	0x3d84724c	0.06467113
154	0x3e214e44	0.15752512
155	0x3e20d97a	0.1570796
156	0x3c76c06c	0.015060525
157	0xbb8d83ea	-0.004318704
158	0x3caa16af	0.02076277
159	0x3cd904f8	0.026491627
160	0x3c6e73b6	0.014553955
161	0x3d3da0a5	0.04629578
162	0x3d285caf	0.041104015
163	0x3dffa648	0.124828875
164	0x3d17f7e8	0.037101656
165	0x3cf56ef8	0.02996014
166	0x3dbfca25	0.09364728
167	0x3dc50633	0.09620323
168	0x3bc5dca2	0.0060382644
169	0x3deafbd2	0.11473812
170	0x3e06fcd0	0.13182378
171	0x3d9d60b7	0.076844625
172	0x3def7972	0.11693086
173	0x3e1ae91a	0.15127984
174	0x3dce4e16	0.100734875
175	0x3dfb9ad2	0.12285389
176	0x3de57e49	0.112057276
177	0x3da27bc4	0.07933763
178	0x3d91cb15	0.07118813
179	0x3d06fd7c	0.032956585
180	0x3da59bf7	0.080863886
181	0x3da5bb50	0.08092368
182	0x3c6af85a	0.014341438
183	0x3ba6b9f9	0.0050880876
184	0x3c75b36b	0.01499639
185	0x3c1590f0	0.009128794
186	0x3c35230d	0.01105572
187	0xbc1d3a8d	-0.009596479
188	0xbc91ac1d	-0.017782265
189	0xbd9d29d2	-0.07673992
190	0xbc33fdae	-0.010985775
191	0xbc097b3c	-0.008391198
192	0xbd55dfc0	-0.052215338
193	0xbd5d058b	-0.053960364
194	0xbbc3325a	-0.00595693
195	0xbd8e30b9	-0.06942887
196	0xbd6f9e3e	-0.05850052
197	0xbd78f88a	-0.0607839
198	0xbda21eb2	-0.07916011
199	0xbdc935d3	-0.09824719
200	0xbd5e6e9d	-0.054304708
201	0xbd3d8760	-0.04627168
202	0xbd939b07	-0.072073035
203	0xbd2f93c5	-0.042865533
204	0xbd1d82c9	-0.038454805
205	0xbc97438a	-0.018464822
206	0xbd400be4	-0.04688634
207	0xbd3caf17	-0.046065416
208	0xb89c0efa	-7.441449e-05
209	0xb8947c9e	-7.080402e-05
210	0x3a865492	0.0010248593
211	0xb653de54	-3.1570862e-06
212	0xb91b6e6e	-0.0001482309
213	0xb808137c	-3.2443073e-05
214	0x3a40794d	0.0007342294
215	0x3c4f60aa	0.012657324
216	0xb9a66edd	-0.00031744587
217	0xba0a471b	-0.0005274878
218	0x3bb6cf37	0.005578901
219	0xb9eb2cc8	-0.00044856058
220	0xadd35241	-2.402445e-11
221	0x3c016ace	0.007898999
222	0x3c249cfa	0.010047192
223	0x3baef2a5	0.005338984
224	0x3c6b1734	0.014348794
225	0x3c8098c6	0.015697848
226	0x3c232033	0.009956407
227	0x3b87c3f3	0.004143232
228	0x3c1b4012	0.009475725
229	0x3b4a26c9	0.0030845872
230	0x3b151764	0.0022749538
231	0x3a87de98	0.0010366021
232	0x3ba529aa	0.005040367
233	0x3b939190	0.0045034364
234	0x3b998b76	0.0046858145
235	0x3c6d84e3	0.014497015
236	0xbb7b3d08	-0.0038335938
237	0xbafbccf8	-0.0019210866
238	0xbc2017f8	-0.00977134
239	0xbbd60617	-0.0065314877
240	0xbb4ae7d4	-0.0030960934
241	0xbd88044a	-0.06641443
242	0xb976d0c0	-0.00023538154
243	0xbb2c0128	-0.0026245806
244	0xbd87e4cd	-0.06635437
245	0xbd4a734b	-0.04942636
246	0x3c0eed26	0.008723533
247	0xbd89c8d7	-0.0672776
248	0xbdba3ce6	-0.09093647
249	0xbd306f30	-0.043074787
250	0xbd8f3f49	-0.069944926
251	0xbdb1a3de	-0.08673833
252	0xbd912a0c	-0.07088098
253	0xbd7c00ee	-0.061524324
254	0xbd3cbd02	-0.04607869
255	0xbd3b9e0e	-0.04580503

exp_avg_sq f4 [128, 26]
0	0x36d22cac	6.263688e-06
1	0x37066484	8.0104255e-06
2	0x36c7655b	5.9424615e-06
3	0x36a4bea3	4.909774e-06
4	0x36af5d4e	5.2262685e-06
5	0x376d56cf	1.41465125e-05
6	0x3748db1a	1.19719425e-05
7	0x37499e7c	1.2017434e-05
8	0x371ff69b	9.534556e-06
9	0x373d3400	1.1277385e-05
10	0x367e5e7b	3.7903944e-06
11	0x363be474	2.7998149e-06
12	0x35e54c3e	1.7084019e-06
13	0x3710834c	8.613639e-06
14	0x376842be	1.3843817e-05
15	0x371dfe30	9.417112e-06
16	0x374d0593	1.222025e-05
17	0x36fc70b6	7.5233065e-06
18	0x36eff5a2	7.1513505e-06
19	0x37081a3a	8.112338e-06
20	0x373d6b77	1.1290299e-05
21	0x365873ec	3.2253984e-06
22	0x361c4908	2.3288321e-06
23	0x34de089e	4.1356992e-07
24	0x369017e9	4.294318e-06
25	0x3687dd28	4.0490595e-06
26	0x39f160d7	0.00046039253
27	0x398a0a59	0.0002632912
28	0x3a1293e9	0.00055914983
29	0x3998105f	0.00029003897
30	0x39d0e73b	0.00039845132
31	0x3b6573e6	0.0035011708
32	0x3b97d0e0	0.004633054
33	0x3d2af4ca	0.041737355
34	0x3b45dbd9	0.0030190854
35	0x3b376ace	0.0027987245
36	0x3cda41b5	0.02664266
37	0x3cdddf8d	0.027084136
38	0x3a023950	0.00049676467
39	0x3d1c6fd7	0.038192596
40	0x3d80cc63	0.06288984
41	0x3c1db7f3	0.009626376
42	0x3d47eca6	0.04880967
43	0x3d54d008	0.051956207
44	0x3d4e07cc	0.050300404
45	0x3d3cd387	0.046100166
46	0x3d5b405d	0.05352818
47	0x3c8acb7f	0.016942738
48	0x3c682695	0.014169355
49	0x3b3f29d9	0.002916923
50	0x3c99bfda	0.01876824
51	0x3c95bf16	0.018279593
52	0x398357fe	0.00025051826
53	0x398d0a5d	0.00026901337
54	0x3987e48d	0.0002591949
55	0x39876f72	0.0002583224
56	0x39720859	0.00023082028
57	0x3a533fa6	0.00080584956
58	0x3a617a1d	0.0008601265
59	0x3b112fd1	0.0022153745
60	0x3a53688f	0.00080645917
61	0x3a4e539a	0.0007870734
62	0x3a8221b8	0.0009928262
63	0x3a8daa07	0.0010808118
64	0x39b489b2	0.00034434866
65	0x3ae2b877	0.0017297406
66	0x3b24cffc	0.0025148382
67	0x3a594c63	0.00082892756
68	0x3b0965d2	0.002096523
69	0x3b0a4c59	0.0021102636
70	0x3b0f2587	0.0021842436
71	0x3b12911a	0.002236432
72	0x3b0ed4d8	0.0021794345
73	0x3a4559c2	0.00075283286
74	0x3a1eb9b5	0.0006054894
75	0x38f604b8	0.00011731073
76	0x3a5e6b54	0.0008484621
77	0x3a584973	0.0008250691
78	0x00000000	0.0
79	0x00000000	0.0
80	0x3117f9cb	2.2115383e-09
81	0x00000000	0.0
82	0x00000000	0.0
83	0x00000000	0.0
84	0x2e8ed3e8	6.4950545e-11
85	0x34ef6c1d	4.4595882e-07
86	0x00000000	0.0
87	0x00000000	0.0
88	0x339b7373	7.23875e-08
89	0x33d6e487	1.00067204e-07
90	0x00000000	0.0
91	0x34cd4e37	3.8241134e-07
92	0x34afca52	3.2743498e-07
93	0x33b391f9	8.361889e-08
94	0x358f5ab3	1.0680727e-06
95	0x355e62e0	8.2845327e-07
96	0x33f1ddb2	1.1262763e-07
97	0x351a930d	5.758346e-07
98	0x35866b9d	1.0015098e-06
99	0x33e6a0e6	1.0739477e-07
100	0x33939a26	6.8732604e-08
101	0x324d00c9	1.1932749e-08
102	0x344ba4ce	1.8965804e-07
103	0x34260d69	1.5464833e-07
104	0x3789ed43	1.6442156e-05
105	0x37893db7	1.636041e-05
106	0x37a9ab1d	2.022605e-05
107	0x37aa3124	2.0288462e-05
108	0x376d8040	1.4156161e-05
109	0x380ac915	3.3089036e-05
110	0x3812f5d7	3.503807e-05
111	0x39b17d5b	0.00033853468
112	0x384e0a92	4.912407e-05
113	0x38401529	4.5796074e-05
114	0x39571c78	0.00020514603
115	0x3950a182	0.00019896592
116	0x3696e3a4	4.496849e-06
117	0x399435d7	0.00028268874
118	0x3a004026	0.00048923714
119	0x388b9414	6.655618e-05
120	0x3947aeb0	0.00019043195
121	0x3993a3c5	0.00028160043
122	0x3a0eb01d	0.0005443113
123	0x3a2d629a	0.0006614119
124	0x397f7acd	0.00024364442
125	0x390e193d	0.00013551577
126	0x38ee4d15	0.00011363082
127	0x37b8f24d	2.204734e-05
128	0x3913f346	0.00014109639
129	0x39126d7a	0.00013964428
130	0x3beea590	0.00728292
131	0x3be26c5a	0.006909889
132	0x3be98b11	0.0071271737
133	0x3bdd371d	0.006750955
134	0x3be4fa39	0.0069878367
135	0x3c960cea	0.018316705
136	0x3c9eeee2	0.019401018
137	0x3d66e1b5	0.056367595
138	0x3c935f5f	0.017989812
139	0x3c90ec2a	0.017690737
140	0x3d017412	0.031604834
141	0x3cfda596	0.030962747
142	0x3c0a06e7	0.008424497
143	0x3d4186b9	0.047247622
144	0x3d9a9ac7	0.07549053
145	0x3ca96774	0.020679213
146	0x3d6d1997	0.057885733
147	0x3d775d64	0.0603918
148	0x3d7899d9	0.060693596
149	0x3d6e5cac	0.058193848
150	0x3d85d6d4	0.06535116
151	0x3cac2222	0.02101237
152	0x3c8d149a	0.017221738
153	0x3b62b1fd	0.0034590953
154	0x3cbeef22	0.023307387
155	0x3cba8923	0.02277047
156	0x3ab02e20	0.0013441481
157	0x3a98923f	0.0011640264
158	0x3ab0244d	0.0013438553
159	0x3aa63b34	0.0012682439
160	0x3aa59e00	0.0012635589
161	0x3b5bb89f	0.003352679
162	0x3b65be48	0.0035056043
163	0x3c207c6b	0.009795289
164	0x3b565480	0.0032704175
165	0x3b50e2d5	0.0031873484
166	0x3ba84229	0.00513484
167	0x3baa6ca3	0.005200939
168	0x3ac63a67	0.0015123606
169	0x3c01fc2d	0.007933659
170	0x3c4a5f98	0.012351893
171	0x3b7427bd	0.0037255131
172	0x3c1d26bb	0.009591754
173	0x3c28271a	0.010263229
174	0x3c26c99d	0.010179904
175	0x3c2129f3	0.009836662
176	0x3c2f1402	0.010685923
177	0x3b676c7b	0.0035312462
178	0x3b3d363a	0.0028871433
179	0x3a167c0f	0.0005740532
180	0x3b803ff8	0.0039138757
181	0x3b7ae4bf	0.0038283316
182	0x3a86ed29	0.0010294068
183	0x3aa5c250	0.0012646411
184	0x3aae84e2	0.0013314749
185	0x3a9e54fb	0.001207977
186	0x3a731689	0.00092730724
187	0x3b6dd4e8	0.0036290232
188	0x3b77137b	0.003770082
189	0x3c44b896	0.012006899
190	0x3b617ff5	0.0034408544
191	0x3b4f4179	0.0031624718
192	0x3bc5efb6	0.0060405387
193	0x3ba110ad	0.004915318
194	0x3ab4cc10	0.0013793726
195	0x3c11f833	0.008909273
196	0x3c6602cd	0.014038754
197	0x3b817ba9	0.003951509
198	0x3c33da91	0.010977403
199	0x3c47427f	0.01216185
200	0x3c44ab7b	0.012003775
201	0x3c4470b1	0.011989758
202	0x3c48580d	0.012228024
203	0x3b7c6444	0.0038511911
204	0x3b483324	0.003054806
205	0x3a1dd7bf	0.00060212234
206	0x3b8f9ea9	0.0043829274
207	0x3b8be6dc	0.004269464
208	0x389c10ca	7.441787e-05
209	0x38520da3	5.00806e-05
210	0x3948401b	0.00019097367
211	0x37dafe78	2.6106121e-05
212	0x3894af65	7.08986e-05
213	0x39ae9e0e	0.00033305626
214	0x39fe6459	0.0004852142
215	0x3c5f2840	0.013620436
216	0x39884f71	0.0002599913
217	0x39a4f68a	0.00031464203
218	0x3bc02dad	0.00586482
219	0x3bdac18d	0.006675905
220	0x38b01e63	8.397994e-05
221	0x3c2bf124	0.010494504
222	0x3c8ba115	0.017044583
223	0x3b3414d7	0.0027478242
224	0x3c666750	0.014062718
225	0x3c3560cf	0.011070444
226	0x3c71daf1	0.014761672
227	0x3c612ab7	0.013743094
228	0x3c96507e	0.018348929
229	0x3b8a3d93	0.004218766
230	0x3b5a1254	0.0033275085
231	0x3a293665	0.0006454944
232	0x3ba31b12	0.0049775923
233	0x3b9c483e	0.004769354
234	0x3b588ffb	0.0033044803
235	0x3b4f8386	0.0031664087
236	0x3b499575	0.003075925
237	0x3b401a9f	0.0029312742
238	0x3b4bb248	0.0031081606
239	0x3c043532	0.008069323
240	0x3c09d7be	0.008413253
241	0x3cc7f645	0.024409423
242	0x3bfff1b4	0.0078107957
243	0x3bfae382	0.0076565156
244	0x3c643cf4	0.013930548
245	0x3c54c0a2	0.01298538
246	0x3b6ca02e	0.0036106217
247	0x3ca59fc6	0.020217787
248	0x3d045e61	0.03231657
249	0x3c072269	0.00824795
250	0x3ccdf7fc	0.025142662
251	0x3ccda0ce	0.025101092
252	0x3cd09ae2	0.025464479
253	0x3cc3f819	0.023922013
254	0x3ce236c8	0.027614012
255	0x3c141551	0.009038285

exp_avg f4 [128]
0	0x28b1bd22	1.973297e-14
1	0x3e832b86	0.25619143
2	0x3b91058c	0.00442571
3	0x188720f9	3.4929976e-24
4	0x3998372d	0.00029032808
5	0x3ea24371	0.3169208
6	0x3e27d870	0.16391158
7	0xbdcb210a	-0.09918411
8	0x3c38e1b4	0.011284281
9	0xbdc4d5c4	-0.09611085
10	0x24563703	4.645045e-17
11	0x3b5f0551	0.0034030268
12	0x3eb7cf94	0.35900557
13	0xbec7ceea	-0.3902505
14	0xbc9dc882	-0.019260649
15	0x00000000	0.0
16	0xae166e5a	-3.4204063e-11
17	0x28f09b43	2.6712687e-14
18	0x3c620fc8	0.013797708
19	0xbc94821f	-0.018128453
20	0x3de40a8c	0.11134824
21	0xbeb06f5f	-0.3445997
22	0x00000000	0.0
23	0x00000000	0.0
24	0x3db0f6ca	0.08640821
25	0x3dc81c5f	0.09771036
26	0x00000000	0.0
27	0xbe551dac	-0.208121
28	0x3e80be9b	0.2514542
29	0xbd6e80f6	-0.058228455
30	0x2e5c95f4	5.0155394e-11
31	0x3c74d448	0.01494319
32	0xbd270c98	-0.040783495
33	0x3db97946	0.09056334
34	0x3311f986	3.3987384e-08
35	0x2fe73b01	4.206058e-10
36	0xbd9b26f4	-0.07575789
37	0x36c7467f	5.938869e-06
38	0x00000000	0.0
39	0xbdba4abc	-0.09096286
40	0xbd3bd3d0	-0.045856297
41	0x2cb91f1a	5.261469e-12
42	0x3ce7752e	0.028254118
43	0x3ed691a7	0.41908
44	0xbe3b5dc4	-0.18297487
45	0x00000000	0.0
46	0x00000000	0.0
47	0x3dbfbc79	0.0936212
48	0x00000000	0.0
49	0xbe83b6af	-0.25725314
50	0xbdbba604	-0.09162524
51	0xbd769306	-0.060198806
52	0xbdda8b00	-0.106710434
53	0x3dd1c392	0.1024238
54	0x00000000	0.0
55	0x372c5ff7	1.02743425e-05
56	0x3e63177f	0.22176932
57	0x00000000	0.0
58	0x3a000e01	0.0004884899
59	0x3cc2a354	0.023759522
60	0x24fd67ad	1.09896893e-16
61	0x3e9f650f	0.3113179
62	0x3930080e	0.00016787669
63	0x3d789880	0.06069231
64	0x3cd8f2a8	0.026482895
65	0xbc930a48	-0.017949238
66	0xba1798d7	-0.0005782968
67	0x3d0c39f1	0.034234945
68	0x00000000	0.0
69	0x3deb3f57	0.114866905
70	0xbe85357a	-0.26017362
71	0x3e2941ad	0.1652896
72	0x3ea99799	0.33123472
73	0xbe299c1c	-0.16563457
74	0x00000000	0.0
75	0xbd6f6443	-0.058445226
76	0x3d6334ff	0.055470463
77	0xbe8da496	-0.27664632
78	0xbe2fe21b	-0.17176096
79	0xbd21dddf	-0.039518233
80	0x2885cfcf	1.4856089e-14
81	0xbea1385f	-0.3148832
82	0xbc4ae400	-0.012383461
83	0xbb169d58	-0.0022981968
84	0xbd628840	-0.05530572
85	0xbdfe78c5	-0.12425379
86	0xba046c00	-0.00050514936
87	0xbdcfa2c5	-0.10138468
88	0x3c49d74e	0.012319399
89	0x3d23970a	0.039938964
90	0x3a4e6548	0.00078733684
91	0xbe730192	-0.23731068
92	0x00000000	0.0
93	0x00000000	0.0
94	0x00000000	0.0
95	0xbe1389fa	-0.14408103
96	0x17814825	8.354641e-25
97	0xbef124c0	-0.4709835
98	0xb9c6c7f2	-0.00037914474
99	0xbeb566d2	-0.35430008
100	0x37813937	1.5404641e-05
101	0x3ec5bf77	0.3862264
102	0x3d1b8ae2	0.037974246
103	0x2c6dcb65	3.3792632e-12
104	0x3d4ced9e	0.050031297
105	0xbc330041	-0.0109253535
106	0x3dce3602	0.10068895
107	0x3cc9547a	0.024576414
108	0xbe77a1f4	-0.24182874
109	0x3e42dbea	0.19029203
110	0x2042f576	1.6513655e-19
111	0xbe0dd1f2	-0.13849619
112	0x00000000	0.0
113	0xbd87410b	-0.06604203
114	0xbcc7f71f	-0.024409829
115	0x1ddc7564	5.8354894e-21
116	0x3d1fec93	0.039043974
117	0xbe880070	-0.26562834
118	0x3e0859fe	0.1331558
119	0x34eebf0e	4.4469965e-07
120	0x3a7394ee	0.00092919066
121	0x3e8a2d81	0.26987842
122	0xbe26f336	-0.16303715
123	0x3da981c6	0.082767054
124	0x24bbc2d2	8.142836e-17
125	0x3e966acf	0.29378363
126	0x00000000	0.0
127	0xbe02192a	-0.12704912

exp_avg_sq f4 [128]
0	0x37937649	1.7578846e-05
1	0x3d9fa11b	0.077944
2	0x3b6758f5	0.0035300825
3	0x35517eca	7.804307e-07
4	0x3a173c33	0.0005769163
5	0x3dc579d2	0.09642376
6	0x3c84a349	0.016191142
7	0x3c94f2cf	0.018182186
8	0x3caf7376	0.02141736
9	0x3d290109	0.041260753
10	0x365df4d3	3.3074073e-06
11	0x3b2c906b	0.0026331197
12	0x3d6c1f21	0.057646874
13	0x3e28a4eb	0.16469161
14	0x3bd52242	0.006504328
15	0x00000000	0.0
16	0x343b3ad7	1.7437138e-07
17	0x3865908b	5.473247e-05
18	0x3c058cd3	0.008151251
19	0x3c51d9d4	0.012808282
20	0x3c9488ec	0.018131696
21	0x3e16b2e2	0.14716676
22	0x00000000	0.0
23	0x00000000	0.0
24	0x3c3386e3	0.0109574525
25	0x3bee7e2a	0.0072782235
26	0x00000000	0.0
27	0x3d996656	0.07490222
28	0x3d308f3a	0.04310534
29	0x3d012f30	0.031539142
30	0x357da69e	9.4492304e-07
31	0x3a857f92	0.0010185114
32	0x3ce3a1df	0.027787147
33	0x3be331b6	0.0069334162
34	0x371a1b9a	9.185542e-06
35	0x38128d8a	3.494093e-05
36	0x3d1b3f8e	0.037902407
37	0x3958b9e0	0.00020668609
38	0x00000000	0.0
39	0x3cbb2bef	0.022848098
40	0x3c7237b1	0.014783786
41	0x375228e7	1.2526499e-05
42	0x3c96aa57	0.018391771
43	0x3e42ac87	0.19011126
44	0x3dcdb606	0.10044484
45	0x00000000	0.0
46	0x00000000	0.0
47	0x3c4422f4	0.011971224
48	0x00000000	0.0
49	0x3defc145	0.11706785
50	0x3ccee0e1	0.025253715
51	0x3cbfe15b	0.023422888
52	0x3d05a1cf	0.032625016
53	0x3c566106	0.013084656
54	0x00000000	0.0
55	0x38f787e0	0.000118031865
56	0x3cea0267	0.028565599
57	0x00000000	0.0
58	0x38b27429	8.509338e-05
59	0x3c8d3d0a	0.01724102
60	0x375e0ebd	1.3235663e-05
61	0x3da7cafd	0.08193014
62	0x3909b001	0.00013130905
63	0x3c83bb98	0.016080663
64	0x3c261178	0.010136001
65	0x3c945217	0.01810555
66	0x38942c08	7.0653914e-05
67	0x3b8ae459	0.004238647
68	0x00000000	0.0
69	0x3c427791	0.011869327
70	0x3d7db4ef	0.06194013
71	0x3cf42e1f	0.029807149
72	0x3e0a35ad	0.13497038
73	0x3d987655	0.07444445
74	0x00000000	0.0
75	0x3d0da572	0.03458161
76	0x3c2d8020	0.010589629
77	0x3dbd6424	0.09247616
78	0x3da38787	0.07984834
79	0x3c987f31	0.018615337
80	0x37858458	1.5916463e-05
81	0x3e34b42e	0.17646858
82	0x3a1e441e	0.0006037372
83	0x3c940278	0.018067583
84	0x3c4dcb82	0.012560727
85	0x3c7a9ee1	0.015296669
86	0x3956e716	0.00020494717
87	0x3d084a63	0.033274066
88	0x3c86102c	0.016365133
89	0x3c09ac06	0.00840283
90	0x3afd892d	0.001934325
91	0x3db343a2	0.08753134
92	0x00000000	0.0
93	0x00000000	0.0
94	0x00000000	0.0
95	0x3dad6e60	0.08468318
96	0x374f073a	1.2339844e-05
97	0x3e7ffc18	0.2499851
98	0x361baa21	2.3195828e-06
99	0x3e257a74	0.16159993
100	0x36ba882f	5.559086e-06
101	0x3e04381e	0.12912032
102	0x3bd6e924	0.0065585542
103	0x3849100f	4.793709e-05
104	0x3c91b6ae	0.017787304
105	0x3ac637dc	0.0015122849
106	0x3cb96121	0.022629322
107	0x3a7c59ab	0.00096263987
108	0x3d467f17	0.048461046
109	0x3d140c72	0.03614468
110	0x371f68b3	9.501516e-06
111	0x3d7c4487	0.06158879
112	0x00000000	0.0
113	0x3c7c3de1	0.015395612
114	0x3c86cc12	0.01645473
115	0x37e638ce	2.7444588e-05
116	0x3baf0282	0.005340875
117	0x3e166a65	0.14689024
118	0x3d024740	0.03180623
119	0x3511999b	5.4240235e-07
120	0x3a1bcd9e	0.000594342
121	0x3d7d846b	0.06189386
122	0x3d7c99af	0.06167
123	0x3d3a6476	0.045505963
124	0x362ed7d6	2.6053654e-06
125	0x3e05ec26	0.13078365
126	0x00000000	0.0
127	0x3cdf8007	0.027282728
