models/reinforce/reinforce_large/checkpoint_ep800.pth (torch, 904778 bytes, 18 tensors)

network.0.weight f4 [256, 26]
0	0xbe1739d8	-0.1476816
1	0x3dbba690	0.09162629
2	0x3e171ab1	0.14756276
3	0xbdb366f8	-0.08759874
4	0xbc377a4d	-0.011198592
5	0x3e4d9ef9	0.20080175
6	0xbcb5596b	-0.022137364
7	0x3bca3e88	0.006172005
8	0x3e252427	0.16127072
9	0xbca04369	-0.019563394
10	0xbe1bec39	-0.1522683
11	0xbccbb4db	-0.024866512
12	0x3e359374	0.1773203
13	0xbe076ed4	-0.13225871
14	0xbe21d0c1	-0.1580229
15	0x3e6bb555	0.23018391
16	0x3d0a35df	0.03374278
17	0x3c618c45	0.013766353
18	0x3e443b7a	0.19163314
19	0xbd02f9c6	-0.031976484
20	0x3e4ddd8a	0.20104042
21	0x3e396aef	0.18107198
22	0x3e3d692f	0.18497156
23	0x3e42638c	0.18983287
24	0xbe006e79	-0.12542142
25	0xbe108bf5	-0.1411589
26	0xbbb97aa0	-0.00566037
27	0x3e228006	0.1586915
28	0xbd1549c7	-0.036447313
29	0xbd940184	-0.072268516
30	0x3c26b120	0.010174066
31	0xbdc39b71	-0.095511325
32	0xbe1cca12	-0.15311459
33	0xbdb8ff2d	-0.09033046
34	0xbd0efe4a	-0.034910478
35	0x3e4a11f2	0.19733408
36	0xbdac6098	-0.08416861
37	0x3d5062b6	0.050875388
38	0xbe12d477	-0.14338861
39	0x3d9aacb4	0.07552472
40	0x3cb8bbe8	0.022550538
41	0x3d02cd3d	0.03193401
42	0xbe040006	-0.12890634
43	0x3e0b077b	0.13577072
44	0xbd2229c0	-0.039590597
45	0xbd7bcf00	-0.061476707
46	0xbe481cc2	-0.1954222
47	0xbda70759	-0.08155698
48	0xbdf6c147	-0.120485835
49	0xbe468dd2	-0.19390038
50	0x3dd28ba2	0.10280539
51	0x3d53940b	0.051654857
52	0xbda9244c	-0.08258876
53	0xbd13b52c	-0.03606145
54	0xbe0ab7e7	-0.13546716
55	0xbdb79003	-0.08963015
56	0xbe4719f8	-0.194435
57	0xbdf05160	-0.11734271
58	0xbe218630	-0.15773845
59	0xbd91214e	-0.070864305
60	0x3dd7f67a	0.105450585
61	0xbe225b47	-0.15855132
62	0x3e2212c7	0.15827475
63	0xbddc038f	-0.10742866
64	0xbd6524f4	-0.055943444
65	0xbde0ddf9	-0.10979838
66	0x3e31db42	0.17368796
67	0xbe21fad4	-0.1581834
68	0x3d047809	0.032341037
69	0xbdd7f2cd	-0.105443574
70	0xbe11bc8f	-0.14232086
71	0x3da47fb1	0.08032168
72	0x3cadfa9f	0.02123767
73	0x3d0a00a9	0.033692036
74	0xbdee024c	-0.11621532
75	0x3d20bb65	0.039241213
76	0x3d807ad8	0.062734306
77	0x3c1e8d68	0.009677269
78	0x3db743b7	0.089484625
79	0x3d359a64	0.04433669
80	0x3e1ec3db	0.155044
81	0x3cca6f6d	0.024711335
82	0xbd5e2939	-0.05423853
83	0x3de432c9	0.11142499
84	0x3db4456d	0.088023044
85	0xbe42e961	-0.1903434
86	0x3ca9a5b8	0.020708904
87	0xbe014162	-0.12622598
88	0x3e0ebb83	0.13938718
89	0xbdbbf70d	-0.091779806
90	0xbe11af1c	-0.14226955
91	0xbdc07efb	-0.093992196
92	0xbdc24afc	-0.094869584
93	0xbe2730d0	-0.16327214
94	0x3d1c678f	0.0381847
95	0x3cd3b90f	0.025845079
96	0xbdad2a54	-0.08455339
97	0x3ac48c81	0.0014995487
98	0xbd1d9f5d	-0.03848206
99	0xbd303f6d	-0.043029238
100	0x3ce217fb	0.027599325
101	0xbd72fc5b	-0.059322696
102	0xbd09f4eb	-0.033680838
103	0x3cad0863	0.021122163
104	0x3dc90d8f	0.09817039
105	0xbe29cccf	-0.16582035
106	0x3cf6f6ae	0.030146923
107	0xbe45e4f9	-0.19325627
108	0x3e0fef39	0.140561
109	0xbc7f36f6	-0.015577069
110	0xbdcef848	-0.1010595
111	0x3d413eb5	0.047178943
112	0xbc893bdf	-0.016752182
113	0xbd3c0641	-0.0459044
114	0xbe0166ca	-0.12636867
115	0x3d451cf9	0.048123334
116	0x3dd468a0	0.10371518
117	0x3e4b238a	0.19837776
118	0xbe46013f	-0.19336413
119	0xbd6817ed	-0.056663442
120	0x3e26bcd2	0.16282967
121	0xbc929206	-0.017891895
122	0x3e185ef8	0.14879978
123	0x3e0c6364	0.1370979
124	0xbe147285	-0.1449681
125	0x3e2b6a9d	0.16739888
126	0x3ded3958	0.11583203
127	0xbdc5701e	-0.09640525
128	0xbe127f7c	-0.14306444
129	0xbc832e9c	-0.016013436
130	0x3cd6d323	0.026223725
131	0xbdecf5e3	-0.11570337
132	0x3e2840db	0.1643099
133	0xbd8de27d	-0.06927965
134	0x3e10652c	0.14101094
135	0xbdf10371	-0.117682345
136	0xbe15f982	-0.14645961
137	0x3d92969f	0.07157635
138	0x3e084b7a	0.13310042
139	0x3c9ded8f	0.019278316
140	0xbe43711f	-0.19086121
141	0x3ddbbbe0	0.10729194
142	0x3d9a7c1d	0.07543204
143	0xbe3f348c	-0.18672389
144	0xbdf5dbd5	-0.1200482
145	0x3dcd94b3	0.10038128
146	0x3d80df04	0.06292537
147	0xbdbfb9ea	-0.09361632
148	0x3dc04636	0.09388392
149	0x3d5dd111	0.05415446
150	0x3d3cc94c	0.04609041
151	0xbdcf2c32	-0.101158515
152	0xbdc39ac7	-0.09551006
153	0xbe4a7f64	-0.19775158
154	0xbe4f0f3b	-0.20220654
155	0xbd4333ae	-0.047656707
156	0x3d8cd3ee	0.0687636
157	0x3e0698ff	0.13144301
158	0x3e2a0a97	0.16605602
159	0xbdbfbad5	-0.09361807
160	0x3e297e11	0.16551997
161	0x3d1bb2a5	0.038012166
162	0x3da0c062	0.07849194
163	0x3b88016b	0.0041505597
164	0xbd091a7c	-0.033472523
165	0x3e5dc727	0.21658002
166	0x3de9a326	0.11408071
167	0x3c2acb68	0.010424472
168	0xbdbdacd7	-0.09261482
169	0xbe10372a	-0.14083543
170	0x3dd55a05	0.104175605
171	0x3dec3189	0.115328856
172	0x3ca59f4a	0.020217557
173	0xbc44bb8c	-0.012007605
174	0x3c1060f8	0.008812182
175	0x3d005fb0	0.031341255
176	0x3d805477	0.062661104
177	0x3dcac822	0.099014536
178	0xbe1a72f2	-0.1508291
179	0xbda5ad77	-0.080897264
180	0x3e1a7130	0.1508224
181	0x3e0de095	0.13855202
182	0x3df775a3	0.12082984
183	0x3dc7e7ce	0.0976101
184	0x3dbc122c	0.091831535
185	0xbe33439c	-0.1750626
186	0x3de6f682	0.112774864
187	0xbe360806	-0.17776498
188	0x3cbfa272	0.02339289
189	0xbd1d28df	-0.038369056
190	0x3e458178	0.1928767
191	0x3e28912c	0.16461629
192	0x3e3ea40b	0.18617265
193	0xbb5cdbb2	-0.0033700285
194	0x3d15bcaf	0.036556896
195	0xbc06666b	-0.008203129
196	0x3e391d26	0.18077525
197	0x3e563483	0.20918469
198	0xbd7da002	-0.061920173
199	0x3e67f5b3	0.2265232
200	0x3e2985b7	0.16554914
201	0x3d8936aa	0.066998795
202	0x3e5e4fa7	0.21710072
203	0xbd0600be	-0.03271555
204	0x3dc7d4ad	0.097573616
205	0x3e38c6ac	0.18044537
206	0x3bc0f2db	0.0058883256
207	0xbd202257	-0.03909525
208	0xbdae5137	-0.08511584
209	0x3d414db8	0.04719326
210	0xbe1203f2	-0.14259318
211	0xbcd2bc65	-0.0257246
212	0x3dad677f	0.08467006
213	0x3c2db0de	0.01060125
214	0xbd8dd96f	-0.06926238
215	0xbd3d1962	-0.046166785
216	0xbd1a91e0	-0.037736773
217	0xbdb5882e	-0.08863865
218	0xbd867f8a	-0.06567295
219	0x3e4506b4	0.19240838
220	0x3e07f3ce	0.13276598
221	0x3cfa3af4	0.03054569
222	0xbdb8b7e8	-0.09019452
223	0x3de851bd	0.11343715
224	0x3e24ca9f	0.16092919
225	0x3e1f4011	0.15551783
226	0x3d27fce4	0.04101266
227	0xbe109234	-0.14118272
228	0xbe288bc4	-0.16459566
229	0xbe042383	-0.12904172
230	0xbe2291af	-0.15875886
231	0x3c8b34f1	0.016993018
232	0xbb9bf691	-0.0047596176
233	0x3e516ea2	0.2045236
234	0x3d06d674	0.032919362
235	0xbd61e05c	-0.055145606
236	0x3d9b4ff2	0.07583608
237	0xbcbbd158	-0.022926971
238	0xbd9a16fc	-0.07523915
239	0xbc07a950	-0.008280113
240	0xbda2f32a	-0.07956536
241	0xbd6720cc	-0.056427762
242	0xbe098ec6	-0.1343337
243	0x3e23b387	0.15986453
244	0x3e0fb25f	0.14032887
245	0xbda17a38	-0.078846395
246	0xbe3e1bf2	-0.18565348
247	0xbdbd3d7a	-0.09240241
248	0xbe403c9b	-0.18773119
249	0xbe293a7d	-0.16526218
250	0x3e4612e7	0.19343148
251	0xbe2e475e	-0.17019412
252	0xbb1a0000	-0.0023498535
253	0x3e227959	0.15866603
254	0xbcd38200	-0.025818825
255	0x3e29b813	0.16574125

network.0.bias f4 [256]
0	0xbdbf536a	-0.09342082
1	0x3d522a79	0.051310036
2	0xbe2d7bfd	-0.16941829
3	0x3c9608fd	0.018314833
4	0xbd64efbc	-0.05589269
5	0x3d787cbe	0.06066584
6	0x3dd08d04	0.101831466
7	0x3d9eacb9	0.07747788
8	0x3e29f780	0.1659832
9	0xbe26258d	-0.16225262
10	0x3b7f0d21	0.0038917738
11	0x3e4c2546	0.19936094
12	0xbdb6a00c	-0.08917245
13	0x3e2be71f	0.16787384
14	0x3e48a558	0.19594324
15	0x3da4dc27	0.08049803
16	0x3e2bc587	0.1677457
17	0x3d86cd8a	0.06582172
18	0x3df05339	0.117346235
19	0xbe09f4eb	-0.13472335
20	0x3be24aa3	0.00690587
21	0x3d15490d	0.03644662
22	0x3e31ce23	0.17363791
23	0x3d9f628d	0.07782469
24	0x3e09eab3	0.13468437
25	0x3dc55145	0.096346416
26	0x3de5150d	0.11185656
27	0x3e3ff589	0.18746008
28	0x3da7aa76	0.0818681
29	0xbdc58363	-0.09644201
30	0xbda223ab	-0.079169594
31	0x3e192aa0	0.14957666
32	0xbde1a13c	-0.11017081
33	0xbd1ded20	-0.03855622
34	0xbe0042d8	-0.12525499
35	0xbbdef3e0	-0.0068039745
36	0x3dfdcb29	0.12392265
37	0xbcfc80e3	-0.030823177
38	0xbd970bd7	-0.07375305
39	0x3e01ffb6	0.12695202
40	0x3e2ead9c	0.17058414
41	0xbe2f4bdd	-0.17118783
42	0xbe2c7559	-0.1684164
43	0x3e4c2a80	0.19938087
44	0x3d93ae2a	0.072109535
45	0xbd620f70	-0.055190504
46	0xbca8c925	-0.020603726
47	0x3e0aa481	0.13539316
48	0xbd1c534b	-0.038165372
49	0x3d256bc1	0.040385965
50	0x3e0f8451	0.14015318
51	0x3cc0b2b4	0.023522712
52	0xbe44e6c6	-0.19228658
53	0x3e0df3e8	0.13862574
54	0xbdc006b1	-0.09376276
55	0xbd9c3dfb	-0.07629009
56	0xbc33a055	-0.010963519
57	0xbdca3381	-0.09873105
58	0xbe48a877	-0.19595514
59	0xbdcdcce8	-0.100488484
60	0x3e390c08	0.18070996
61	0xbe2528fd	-0.16128917
62	0x3e678e50	0.22612882
63	0xbdda3e25	-0.106563844
64	0xbe0ee70e	-0.13955328
65	0xbc82febd	-0.01599061
66	0x3c93161d	0.01795488
67	0x3d74d56f	0.05977386
68	0x3ddb4330	0.107061744
69	0xbda9800b	-0.082763754
70	0xbe580a03	-0.21097569
71	0xbcad4557	-0.021151228
72	0xbd257b14	-0.04040058
73	0xbdcc1240	-0.099644184
74	0x3dd564c4	0.1041961
75	0x3cd80b45	0.026372561
76	0xbd7b985b	-0.061424594
77	0xbdbae33d	-0.091253735
78	0x3d453904	0.048150077
79	0x3dd783f7	0.10523217
80	0x3dc4d4f4	0.0961093
81	0xbe14e672	-0.14541033
82	0xbddffd51	-0.10936988
83	0xbe246ed7	-0.16057907
84	0x3bf6fa73	0.00753718
85	0x3c143b6f	0.009047373
86	0xbd699438	-0.057026118
87	0xbde06a7f	-0.109578125
88	0x3e3c8b79	0.1841258
89	0x3d8a1106	0.06741528
90	0x3e5744ea	0.21022382
91	0x3d05a7d5	0.03263076
92	0x3e007a39	0.12546624
93	0x3e4cba02	0.19992831
94	0xbd363799	-0.044486616
95	0xbd8d615a	-0.06903334
96	0x39fe05a4	0.00048450858
97	0x3dd3fcaf	0.1035093
98	0x3db870ae	0.09005867
99	0x3e1f5e5c	0.15563339
100	0xbe059b85	-0.13047607
101	0x3d977087	0.0739451
102	0xbd625f1c	-0.055266485
103	0x3e3ca640	0.18422794
104	0xbe44662a	-0.19179597
105	0xbe4e2736	-0.20132145
106	0xbe06b47d	-0.13154788
107	0x3df1ca5f	0.11806177
108	0x3d19d081	0.03755236
109	0x3e26acca	0.16276851
110	0xbe38bde8	-0.18041193
111	0xbc540fc5	-0.012943213
112	0x3bf27a59	0.007399839
113	0x3de341b7	0.110965185
114	0xbdc180ed	-0.09448419
115	0x3d8ef748	0.06980759
116	0x3dacd7b6	0.08439581
117	0x3d89d9fa	0.06731029
118	0xbe29a01e	-0.16564986
119	0xbdf4ab78	-0.119467676
120	0xbe1e4e0e	-0.15459463
121	0x3dba17be	0.0908656
122	0x3e1ca5e7	0.15297662
123	0xbe075169	-0.1321465
124	0x3d9cce09	0.076564856
125	0x3d0911cd	0.03346424
126	0x3e02e94c	0.12784308
127	0x3e214643	0.15749459
128	0x3dfa16c6	0.12211375
129	0xbe290a21	-0.1650777
130	0xbd011901	-0.031517986
131	0xbd5afa83	-0.053461563
132	0x3e0b6e5c	0.13616318
133	0xbdeac3e6	-0.11463146
134	0xbe414b77	-0.18876444
135	0xbe2d0eb0	-0.16900134
136	0x3de08a2d	0.10963855
137	0x3dfb7572	0.1227826
138	0x3e17cc8e	0.14824125
139	0x3da97d8d	0.082759
140	0x3de29b95	0.11064831
141	0x3dabf464	0.08396223
142	0xbe1d505d	-0.15362687
143	0x3c9faa8c	0.019490503
144	0xbe46c155	-0.19409688
145	0x3e0425b5	0.12905009
146	0xbdf1e7d8	-0.11811799
147	0xbddee637	-0.10883754
148	0x3d78367d	0.06059884
149	0xbe05f7a6	-0.13082752
150	0x3dab401b	0.083618365
151	0xbcf9e0be	-0.030502673
152	0xbe23a97d	-0.15982623
153	0xbc26f373	-0.010189879
154	0x3c0039d0	0.007826284
155	0xbccb64af	-0.024828283
156	0x3d75fadc	0.06005369
157	0x3d50f8a1	0.05101836
158	0x3e052f26	0.13006267
159	0x3d11f6ed	0.035635877
160	0x3d92b580	0.07163525
161	0xbe0c08ad	-0.13675185
162	0xbd17fe52	-0.037107773
163	0xbdea6599	-0.114451595
164	0xbd8ba8c8	-0.06819302
165	0xbdcd7631	-0.10032309
166	0x3d241ee0	0.040068507
167	0x3d1a5719	0.03768072
168	0xbb557477	-0.003257064
169	0x3e198f6a	0.14996114
170	0x3e4fdd58	0.2029928
171	0x3df0e89d	0.117631175
172	0xbd8c9ea6	-0.06866197
173	0x3e17de65	0.1483093
174	0xbd0e022e	-0.034670047
175	0xbda87823	-0.08226039
176	0x3e13f9ae	0.14450714
177	0xb954d361	-0.0002029664
178	0xbd7d8b3b	-0.06190036
179	0xbe286d7e	-0.16448018
180	0x3e2f811b	0.17139094
181	0x3e1b102b	0.15142886
182	0xbd52706b	-0.05137674
183	0xbd6e5d67	-0.058194544
184	0x3e369250	0.17829251
185	0x3d2af26e	0.041735105
186	0x3e492e2d	0.19646521
187	0xbe3aec29	-0.1825415
188	0xbdbf65ae	-0.09345566
189	0x3e16a5de	0.14711711
190	0xbdceab32	-0.10091247
191	0xbdcaa41f	-0.09894585
192	0xbd436224	-0.047701016
193	0x3e48172d	0.19540091
194	0x3dde53fb	0.10855862
195	0x3db792d5	0.08963553
196	0xbd3ea76e	-0.046546392
197	0x3d0af11b	0.033921342
198	0xbdf5a1b5	-0.11993734
199	0x3d8f95c5	0.07010988
200	0x3e06313a	0.13104716
201	0xbe2f7687	-0.17135058
202	0xbdd1eba1	-0.10250021
203	0xbdea5011	-0.11441053
204	0x3d983953	0.07432809
205	0xbe49a11b	-0.19690363
206	0x3d5e5401	0.05427933
207	0x3e2f02e2	0.17090943
208	0x3e52a8ff	0.2057228
209	0x3e0d28be	0.13785073
210	0x3e37ec82	0.17961314
211	0xbe2dc79a	-0.16970673
212	0x3d0badcb	0.03410129
213	0x3e289f31	0.16466977
214	0xbe359fd6	-0.17736754
215	0x3d8a6f3e	0.06759499
216	0xbbc3b868	-0.0059729107
217	0x3d2ee565	0.042699236
218	0xbddaf3e7	-0.10691052
219	0x3e23f4e9	0.16011395
220	0xbe1c2b65	-0.15250929
221	0xbe0ad5a0	-0.13558054
222	0xbde5937e	-0.112097725
223	0x3e4891bd	0.19586845
224	0xbd5d90cd	-0.05409317
225	0xbdc9d773	-0.09855547
226	0xbddb0a8e	-0.106953725
227	0x3c64a4c5	0.0139553
228	0x3e58304b	0.21112172
229	0x3880c365	6.139911e-05
230	0x3dd76730	0.10517728
231	0xbe026cc2	-0.127368
232	0xbd3b0e4c	-0.04566793
233	0x3dc47ae6	0.095937535
234	0xbb9bc8e5	-0.004754173
235	0x3df0175a	0.11723204
236	0x3c8a1007	0.016853346
237	0x3e262b1b	0.16227381
238	0xbd5e7b58	-0.05431685
239	0xbe373287	-0.17890368
240	0x3e1197f4	0.14218122
241	0x3e1759b3	0.14780311
242	0xbd9fef73	-0.07809343
243	0xbb0a4bfe	-0.0021102424
244	0xbdcf2d2d	-0.101160385
245	0x3d34a335	0.04410096
246	0xbe048988	-0.12943089
247	0x3cf3079c	0.029666714
248	0xbdfda026	-0.123840615
249	0x3d7b2a8d	0.061319876
250	0x3e03f3bb	0.12885945
251	0xbdc368bd	-0.095414616
252	0xbd067ff8	-0.032836884
253	0xbd2b0694	-0.04175432
254	0xbda406f7	-0.08009141
255	0x3ca0225d	0.019547636

network.2.weight f4 [256, 256]
0	0x3bc0a684	0.005879225
1	0x3d537343	0.051623594
2	0x3c46ceda	0.012134278
3	0x3d6307cb	0.055427354
4	0x3bc57218	0.006025564
5	0xbd03f3cc	-0.032214925
6	0x3c39804f	0.011322095
7	0xbccdde16	-0.025130313
8	0x3dbaf753	0.091292046
9	0x3cace6f8	0.021106228
10	0xbcc6c717	-0.024264855
11	0xbd10b831	-0.03533191
12	0x3bd97c1c	0.0066371094
13	0x3ce9c91b	0.028538277
14	0x3d29d59c	0.04146348
15	0x3d1aefe8	0.03782645
16	0xbd41d139	-0.04731867
17	0xbd020940	-0.031747103
18	0xbc7a1b15	-0.015265246
19	0x3bce2120	0.00629057
20	0x3dae1c62	0.08501507
21	0x3cb8f67a	0.022578467
22	0x3cd994f6	0.026560288
23	0xbcce1b64	-0.025159545
24	0x3cc02f7c	0.023460142
25	0x3d97da2b	0.07414659
26	0xbd1129ec	-0.03544037
27	0x3c421ea0	0.011848122
28	0xbc74e0f7	-0.014946214
29	0x3b0223c1	0.0019857737
30	0x3d8e3427	0.06943541
31	0x3d8380ea	0.06421073
32	0x3da8eb36	0.08247988
33	0x3cb24688	0.021762148
34	0xbd1431a9	-0.036180172
35	0xbcf1f990	-0.029537946
36	0x3d9e12b5	0.07718412
37	0xbc1c006e	-0.009521587
38	0x3ca98b78	0.020696387
39	0xbce31f09	-0.02772476
40	0x3b203041	0.0024442824
41	0x3d0e1309	0.034686122
42	0x3c911789	0.017711418
43	0x3d4b2572	0.049596258
44	0x3d20ad10	0.039227545
45	0xbc386e2d	-0.011256737
46	0x3d49f979	0.04931018
47	0xbc85b4c9	-0.016321557
48	0x3cbaf277	0.022820694
49	0x3d5368b1	0.051613513
50	0x39620170	0.00021553575
51	0x3d898cc5	0.06716303
52	0x3d6750ea	0.05647365
53	0x3d206ada	0.0391644
54	0xbd4760e4	-0.048676386
55	0xbd2d12b5	-0.04225417
56	0x3b1c6f97	0.0023870224
57	0xbd41e267	-0.047335055
58	0xbb834790	-0.0040063336
59	0xbc06b9e0	-0.008223027
60	0xbceff823	-0.029293125
61	0xbb65390d	-0.0034976632
62	0xbd07c5fc	-0.033147797
63	0x3c4ac59a	0.012376213
64	0x3c11bbae	0.008894844
65	0x3d57461f	0.052557107
66	0x3d3764bf	0.044773813
67	0x3d5679fb	0.052362423
68	0x3d1deb82	0.038554676
69	0xbd3eafde	-0.04655444
70	0x3c58456b	0.013200144
71	0xbc9abb18	-0.018888041
72	0xbd33fc58	-0.043941826
73	0x3c809cb0	0.015699714
74	0xba9e3d33	-0.0012072682
75	0x3c8d0a2a	0.01721676
76	0x3d8dbf15	0.06921212
77	0x3b662a60	0.0035120472
78	0xbc69e001	-0.014274598
79	0x3d54ca4e	0.051950745
80	0x3d5187b5	0.05115481
81	0x3d49e6d9	0.04929242
82	0x3d5b4e4a	0.05354146
83	0x3d1e3673	0.038626146
84	0xbd55b546	-0.05217483
85	0x3be3eb06	0.006955507
86	0x3cbd53bc	0.023111217
87	0xbd4d43d1	-0.050113503
88	0x3d3c1303	0.04591657
89	0x3c05a052	0.008155899
90	0x3d5c208a	0.05374197
91	0x3d5fb72d	0.05461805
92	0xbc39e7ac	-0.011346739
93	0x3acef0b2	0.0015788286
94	0x3d9d9a5f	0.076954596
95	0xbbcf1e20	-0.00632073
96	0x3d48d41a	0.0490304
97	0x3d46bdb8	0.048520774
98	0x3db3b41c	0.087745875
99	0xbcbaa066	-0.022781562
100	0x3d2e0fed	0.042495657
101	0x3d043d77	0.03228518
102	0xbb1a1000	-0.0023508072
103	0x3c11c619	0.008897328
104	0xbc2268a2	-0.009912642
105	0xbd549501	-0.051899914
106	0x3bf96c1f	0.007611766
107	0x3d06cb9f	0.032909032
108	0x3cc914c6	0.024546038
109	0x3c91335c	0.017724685
110	0xbc8b5b00	-0.017011166
111	0xbbc0483c	-0.005867986
112	0xbc8edd50	-0.017439514
113	0x3c1e217b	0.009651537
114	0xbd50b1e0	-0.050950885
115	0xbc385154	-0.011249859
116	0xbc1f1b9e	-0.009711174
117	0x3b913b19	0.004432094
118	0x3d9d8d5e	0.07692979
119	0x3cb218a8	0.021740273
120	0xbca50bed	-0.020147288
121	0x3bf141b0	0.007362567
122	0xbcc0ce8c	-0.02353599
123	0xbd2f9d89	-0.042874847
124	0xbc958f33	-0.01825676
125	0x3d5b882a	0.053596653
126	0x3d79663d	0.060888518
127	0xbcd36faa	-0.025810082
128	0xbca4e249	-0.020127432
129	0xbcbaf769	-0.022823052
130	0xbd025d4e	-0.031827264
131	0x3c8807f4	0.016605355
132	0x3d27bdd7	0.04095253
133	0xbd61c49c	-0.055119142
134	0xbcc759a3	-0.024334734
135	0x3d2fd8e8	0.042931467
136	0x3d616204	0.055025116
137	0x3c629385	0.013829117
138	0xbb5593ab	-0.0032589238
139	0x3bf4ee8a	0.007474725
140	0x3d49b85a	0.049248077
141	0xbc877370	-0.016534537
142	0xbd3f56b8	-0.04671356
143	0x3cf2a547	0.029619826
144	0x3cb42448	0.021989956
145	0x3d6cede4	0.057844058
146	0xbd81d6df	-0.063398115
147	0x3ce124c6	0.027483355
148	0x3cb9d8c1	0.022686364
149	0xbc8624d6	-0.016374987
150	0x3c176eda	0.009242738
151	0xbd1fcb34	-0.03901215
152	0xbd424f12	-0.04743869
153	0x3d056c64	0.032574072
154	0x3d5d5d50	0.054044068
155	0x3d0cab7a	0.03434322
156	0xbd628402	-0.055301674
157	0xbd515f8b	-0.051116508
158	0x3d8d0b35	0.06886903
159	0xbb9d4d53	-0.0048004775
160	0xbd139969	-0.036034975
161	0xbca44ccc	-0.02005615
162	0x3ccbe504	0.024889477
163	0xbd8d7537	-0.069071226
164	0xbd2e9226	-0.042619847
165	0xb9b98f0b	-0.00035392525
166	0xbd8d6274	-0.06903544
167	0x3d0dae98	0.034590334
168	0xbc9dfc98	-0.019285485
169	0xbcc71fd1	-0.024307163
170	0x3c6ddbd3	0.014517742
171	0x3d1d5323	0.038409363
172	0x3d0a8797	0.033820715
173	0x3d86af56	0.065764114
174	0x3d2958f1	0.041344587
175	0x3d643268	0.055712134
176	0xbbcc399f	-0.006232455
177	0x3c099dab	0.008399407
178	0x3d1cbbb9	0.038264964
179	0x3b9156f3	0.004435414
180	0x3d7d4259	0.061830852
181	0xbbfcc26d	-0.007713607
182	0x3d9bfae8	0.07616216
183	0xbd3eb78a	-0.046561755
184	0xbd23c590	-0.039983332
185	0x3c176200	0.009239674
186	0x3d14a289	0.036287818
187	0xbcc3d364	-0.02390451
188	0xbba61e98	-0.005069565
189	0x3c693541	0.014233888
190	0xbd22217f	-0.039582726
191	0x3da7e911	0.08198751
192	0x3d1cf62e	0.038320713
193	0x3d80940f	0.0627824
194	0xba915289	-0.001108722
195	0x3cf00fb3	0.029304361
196	0x3d2b3df5	0.041807134
197	0xbbd3b1fe	-0.0064604273
198	0x38f6526c	0.00011745546
199	0x3d80e192	0.06293024
200	0xbd264feb	-0.04060356
201	0xba136f7c	-0.00056242174
202	0xbcbdcd4a	-0.023169179
203	0x3d238ad4	0.03992732
204	0xbc36c373	-0.011154997
205	0xba421420	-0.00074035116
206	0x3da36689	0.079785414
207	0x3c46d554	0.012135822
208	0x3c55c7d4	0.013048131
209	0x3cec1a6e	0.028821196
210	0xbd0f10f8	-0.034928292
211	0xbd101cc8	-0.035183698
212	0x3cac5b06	0.021039497
213	0x3d86d54e	0.065836534
214	0x3ccd8968	0.025089934
215	0xbd622c4c	-0.055218026
216	0xbd0a1747	-0.033713605
217	0x3d91be39	0.0711636
218	0x3be25470	0.0069070384
219	0xbd08bc0f	-0.03338247
220	0x3d11161c	0.035421476
221	0x3cde6f65	0.027152726
222	0xbcac2ee9	-0.021018462
223	0xbcedebbb	-0.02904307
224	0x3d196ba9	0.03745619
225	0x3d896024	0.067077905
226	0x3d0fba5c	0.035089836
227	0x3c8883e2	0.01666445
228	0xbcf9c2b3	-0.030488348
229	0xbc784d0d	-0.015155089
230	0x3da8f7be	0.08250378
231	0x3c41e4e8	0.011834361
232	0xbac3ba0c	-0.0014932766
233	0x3cf7505b	0.030189684
234	0xbc49f7cf	-0.012327149
235	0x3d5261f1	0.051362935
236	0x3d2b8527	0.04187503
237	0x3d8e93b7	0.06961768
238	0xbcd2d308	-0.025735393
239	0xbb1dfbc2	-0.0024106358
240	0xbca40fbc	-0.020027034
241	0x3c60cbe3	0.013720485
242	0x3cfb1144	0.030647881
243	0x3d334016	0.04376229
244	0xbd1d69b5	-0.03843089
245	0x3d8be6d2	0.06831135
246	0xbc9ed6f0	-0.0193896
247	0xbd59d687	-0.053183105
248	0xbd277f1d	-0.04089271
249	0x3d55aefc	0.05216883
250	0x3c9b76b2	0.018977497
251	0xbce3fe4b	-0.027831217
252	0x3d53836e	0.051639013
253	0xbcd9a10f	-0.026566057
254	0x3ca225d7	0.019793434
255	0x3c9dae53	0.019248163

network.2.bias f4 [256]
0	0x3da64e69	0.08120424
1	0x3d66cf60	0.056350112
2	0xbc957aed	-0.018247092
3	0xbd8547ca	-0.06507833
4	0xbc037978	-0.008024566
5	0x3c83da40	0.01609528
6	0xbc53a160	-0.012916893
7	0x3d35d677	0.044393983
8	0x3b8ae264	0.0042384136
9	0x3d039469	0.032123957
10	0xbc3b7ac8	-0.011442848
11	0xbcf25fd4	-0.02958671
12	0x3d669330	0.056292713
13	0xbd85b917	-0.06529444
14	0xbc6fda85	-0.014639501
15	0xbcae9525	-0.021311352
16	0x3ace1714	0.001572343
17	0xbd2bd8ed	-0.041954923
18	0x3c6e44f1	0.014542804
19	0xbd8728f1	-0.06599606
20	0xbcddd363	-0.027078336
21	0x3c8b03a7	0.016969515
22	0x3cce73ae	0.025201645
23	0xbd0a1a44	-0.033716455
24	0xbca5e23f	-0.020249484
25	0x3d86c066	0.06579666
26	0x3d11949a	0.035542108
27	0x3da136db	0.07871791
28	0x3d268642	0.040655382
29	0xbd90da2c	-0.07072863
30	0xbaece985	-0.0018074965
31	0x3caf33b5	0.02138696
32	0x3b057d08	0.0020368714
33	0xbca86614	-0.020556487
34	0xbcd54a58	-0.026036426
35	0xbc211ada	-0.009833062
36	0xbcf36cb6	-0.029714923
37	0xbc921fbc	-0.017837398
38	0x3d04da9e	0.032435052
39	0x3c7e462f	0.015519663
40	0xbccea6ab	-0.025225958
41	0xbc619a14	-0.013769645
42	0x3d1c53d8	0.038165897
43	0x3dab12f0	0.083532214
44	0x3d671b47	0.056422498
45	0x3c34ec64	0.011042688
46	0x3cbb2b01	0.022847654
47	0x3d168310	0.036746085
48	0x3d0c890b	0.03431038
49	0x3ce684ee	0.028139558
50	0x3c9a56f4	0.01884029
51	0x3cc0d426	0.02353866
52	0xbd6e04c4	-0.058110014
53	0x3beb878f	0.0071877907
54	0xbd2f2559	-0.042760227
55	0xbcaa53cb	-0.020791909
56	0xbc3d30f7	-0.011547319
57	0xbc607866	-0.01370058
58	0x3d51c775	0.051215608
59	0xbccc9d2a	-0.024977285
60	0x3da21536	0.07914202
61	0xbc0ce422	-0.008599313
62	0x3c9e28b8	0.019306526
63	0x3d18b86d	0.037285257
64	0x3d30856e	0.043096
65	0xbd377b84	-0.044795528
66	0xbd4ce9ae	-0.05002754
67	0xbd6bfbdc	-0.05761324
68	0xbd10b74c	-0.035331056
69	0x3c07e161	0.008293481
70	0xbc838436	-0.016054254
71	0xbd012f69	-0.031539354
72	0x3db32f3e	0.08749245
73	0xbcde6bf8	-0.027151093
74	0x3d0a51fa	0.033769585
75	0xbd0c2d8c	-0.034223124
76	0xbc5f887a	-0.013643378
77	0xbcb47d57	-0.022032423
78	0xbd71abc3	-0.059001695
79	0xbced73a4	-0.028985806
80	0xbd29a71d	-0.041419137
81	0xbb76b160	-0.0037642345
82	0xbc9567fe	-0.018238064
83	0x3ccdfd78	0.025145277
84	0x3c05c268	0.008164026
85	0xbd353376	-0.04423853
86	0x3d98e1ab	0.07464918
87	0xbd4996db	-0.049216133
88	0x3c9092d9	0.017648147
89	0x3d8c539f	0.06851887
90	0x3d766d18	0.060162634
91	0x3d4b66ac	0.049658462
92	0x3cde18d7	0.027111454
93	0xbb7ec71f	-0.003887601
94	0x3d447e44	0.04797198
95	0xbd4ed911	-0.05049998
96	0x3c84c176	0.01620553
97	0xbd0d9409	-0.034565005
98	0xbcefef8d	-0.029289031
99	0xbd579b16	-0.052638136
100	0xbd236bae	-0.039897613
101	0xbd4f1919	-0.050561044
102	0x3bad4499	0.0052877185
103	0x3bb762a5	0.005596476
104	0x3b60d1d6	0.003430476
105	0x3d35190c	0.04421334
106	0xbcf01bc1	-0.02931011
107	0xbd860b63	-0.065451406
108	0x3cd96adc	0.026540212
109	0xbbfdf464	-0.007750081
110	0x3da2cf58	0.07949704
111	0xbc62d54f	-0.013844802
112	0xbd5b05f0	-0.05347246
113	0x3d9df430	0.07712591
114	0x3cc3143a	0.023813356
115	0xbd6aae70	-0.057295263
116	0xbd2e4194	-0.04254301
117	0x3d8c8e83	0.068631195
118	0xbd08a76c	-0.03336279
119	0x3ce52a6b	0.027974328
120	0x3d0a3e46	0.033750795
121	0xbcb8c259	-0.02255361
122	0x3d39788a	0.04528097
123	0xbd40700a	-0.04698185
124	0x3b1e2ef5	0.0024136875
125	0xbca5f169	-0.020256715
126	0x3c96f4a3	0.018427199
127	0x3d88aed5	0.066739716
128	0x3d813c6f	0.06310355
129	0xbd1927c0	-0.037391424
130	0x3d81b576	0.06333439
131	0x3d0ed618	0.034872144
132	0xbd587e9a	-0.05285511
133	0xbcde58c7	-0.027141942
134	0xbcd87183	-0.026421314
135	0x3c8a74c4	0.016901381
136	0xbd7cd723	-0.061728608
137	0x3c27b1e2	0.010235282
138	0xbd170870	-0.03687328
139	0xbce9e487	-0.028551353
140	0x3d4dd0b8	0.050247878
141	0xbd1a1578	-0.03761813
142	0x3d018dec	0.031629488
143	0xbd0db581	-0.034596924
144	0x3d62a034	0.055328563
145	0x3cfda58e	0.030962732
146	0x3cd4b482	0.02596498
147	0xbd39d416	-0.045368277
148	0xbd52bdc8	-0.05145052
149	0xbd0d926a	-0.03456346
150	0xbc1f154f	-0.00970967
151	0x3b1a5ec0	0.002355501
152	0x3cf2a547	0.029619826
153	0x3d01a18e	0.03164821
154	0xbcbb4a3d	-0.022862548
155	0x3c50aebf	0.012736975
156	0x3d944195	0.07239071
157	0xbd1e8280	-0.038698673
158	0x3cb11d9d	0.021620566
159	0xbbb5b432	-0.0055451626
160	0x3d53175a	0.05153594
161	0x3b9345b0	0.0044943914
162	0xbcdbcf9e	-0.026832398
163	0xbd14dfb4	-0.036346152
164	0x3d53b377	0.051684823
165	0xbd6c095a	-0.057626106
166	0xbc0fc1a0	-0.008774191
167	0xbd227adf	-0.03966796
168	0x3d273572	0.040822454
169	0x3d3690c1	0.04457164
170	0xbc509438	-0.012730651
171	0x3d661730	0.056174457
172	0xbd88ce6e	-0.06679998
173	0x3cf217cc	0.029552363
174	0x3d2c9591	0.042134825
175	0xbd0a1896	-0.033714853
176	0xbc3c2e0f	-0.011485591
177	0x3c79197c	0.01520383
178	0x3caa9fe7	0.0208282
179	0xbc50c8b0	-0.01274316
180	0xbbd770a9	-0.0065747094
181	0x3d5ec3f7	0.054386105
182	0xbd73c957	-0.059518185
183	0x3d67c345	0.056582708
184	0x3dae205e	0.08502267
185	0xbc89d065	-0.016823003
186	0xbd7859c4	-0.060632482
187	0x3cd619b8	0.02613531
188	0x3cf96783	0.030444866
189	0xbce5290e	-0.027973678
190	0x3cb6cc1d	0.022314126
191	0x3aa4ceb0	0.0012573805
192	0x3cc12b14	0.023580112
193	0x3cc91dbc	0.024550311
194	0xbd7fb7fa	-0.062431313
195	0x3d147c90	0.036251605
196	0xbd501ee9	-0.05081073
197	0x3ce8dfba	0.028426994
198	0xbc6b39b0	-0.0143570155
199	0xbc62a9c5	-0.0138344215
200	0x3d53eef4	0.051741555
201	0x3c326b30	0.010889813
202	0x3cfd28ac	0.030903183
203	0x3bc4cb4c	0.00600568
204	0xbb93aad5	-0.0045064487
205	0x3a4be958	0.00077786064
206	0x3d3d70dd	0.046250213
207	0xbc839cc7	-0.016065968
208	0xbcb41584	-0.021982916
209	0x3d469530	0.04848212
210	0x3ce6e504	0.028185375
211	0xbcfe132e	-0.031015005
212	0x3a4399c3	0.0007461572
213	0x3d4d4f46	0.05012443
214	0x3d6295ec	0.055318758
215	0x3d3b52fb	0.045733433
216	0x3d0b74be	0.03404688
217	0xbcc72c58	-0.024313137
218	0x3d366057	0.04452547
219	0xbc560a34	-0.013063956
220	0x3d3aed3f	0.04563641
221	0xbd17445a	-0.03693042
222	0x3d27c84a	0.040962495
223	0xbd451a19	-0.04812059
224	0x3b72ee9d	0.0037068494
225	0x3c33dd50	0.010978058
226	0xbd6f7390	-0.05845982
227	0xbd6b5e6c	-0.057463095
228	0xbd1b6ff2	-0.037948556
229	0xbcbb277b	-0.022845974
230	0x3bdfc320	0.0068286806
231	0x3d63110b	0.055436175
232	0xbd598a71	-0.053110544
233	0xbbb90670	-0.0056465194
234	0xbbd64afb	-0.0065397
235	0x3a48f93c	0.00076665333
236	0xbd111eef	-0.03542989
237	0xbb6bb840	-0.0035967976
238	0xbca7c1a4	-0.020478077
239	0xbd398433	-0.04529209
240	0xbd78742c	-0.060657665
241	0xbcdd0a54	-0.026982464
242	0x3d48e4ac	0.049046203
243	0x3d13c12e	0.036072902
244	0xbd55ba34	-0.05217953
245	0x3d3824eb	0.044957083
246	0xbc8592a9	-0.016305285
247	0x3d8bc7d1	0.06825221
248	0xbd691318	-0.056902975
249	0x3d16c102	0.03680516
250	0x3c82832d	0.01593169
251	0x3d1d319a	0.03837738
252	0x3d4385b5	0.047734935
253	0x3a047fea	0.0005054461
254	0x3c0e1317	0.008671544
255	0xbb42dcb4	-0.00297336

network.4.weight f4 [8, 256]
0	0xbba99cbc	-0.005176155
1	0x3c22b9f8	0.009932034
2	0x3cfe398f	0.031033305
3	0x3c993281	0.01870084
4	0xbd425f18	-0.04745397
5	0x3d64f7f2	0.05590052
6	0x3c2417c0	0.010015428
7	0xbc197e15	-0.009368439
8	0x3ca58697	0.020205779
9	0xbd11de4f	-0.0356124
10	0x3d50b5ce	0.050954632
11	0x3cdc7904	0.026913173
12	0x3c98a802	0.0186348
13	0x3d556a26	0.052103184
14	0x3d2e4017	0.04254159
15	0xbd80f29b	-0.06296273
16	0x3c30a248	0.010780878
17	0x3c2651eb	0.010151367
18	0xbcb0a31e	-0.021562155
19	0x3ccce819	0.025013017
20	0x3cf6a392	0.030107293
21	0xbb67ab33	-0.0035349845
22	0x3d5f693d	0.054543722
23	0x3d24c320	0.04022515
24	0xbd33b960	-0.04387796
25	0xbcf56810	-0.029956847
26	0x3b961590	0.004580207
27	0x3d554c76	0.052074872
28	0xbd49bec5	-0.049254198
29	0xbd6e4a52	-0.058176346
30	0xba17833e	-0.00057797495
31	0x3d05adca	0.03263644
32	0xbcd32cd3	-0.02577821
33	0xbcf38585	-0.029726753
34	0x3d4c347a	0.049854733
35	0x3c3bd566	0.011464452
36	0xbcf5d648	-0.030009404
37	0xbd1c566e	-0.038168363
38	0x3c8968d8	0.016773626
39	0xb9daab19	-0.00041707678
40	0xbd48d875	-0.049034555
41	0x3d4908e5	0.049080748
42	0x3d75506e	0.059891157
43	0xbb24561b	-0.0025075737
44	0x3d4a2eb6	0.049360953
45	0x3ad49abe	0.0016220433
46	0xbcf128f1	-0.029438468
47	0xbc613e30	-0.013747737
48	0xbcd8919f	-0.026436625
49	0x3b0125d8	0.0019706395
50	0xbcff3110	-0.031151325
51	0xbd0c5be6	-0.03426733
52	0x3d21bd0e	0.039486937
53	0x3ced1349	0.02893986
54	0x3d65adea	0.05607406
55	0xbd0404af	-0.03223103
56	0x3d32a496	0.043613993
57	0x3d4bc724	0.049750462
58	0xbd162a6d	-0.036661554
59	0xbd2d08ea	-0.04224483
60	0x3d270ed9	0.040785644
61	0x3ce30367	0.027711583
62	0xbd5d3715	-0.05400761
63	0x3c08700a	0.008327493
64	0xbc9849a0	-0.018589795
65	0x3d52d641	0.05147386
66	0x3cd4cc82	0.025976423
67	0xbd528b79	-0.051402543
68	0x3ccdccd5	0.025122086
69	0xbd714982	-0.058907993
70	0x3cd823aa	0.026384193
71	0xbcfedfd9	-0.031112598
72	0xbd538263	-0.05163802
73	0x3ce850cd	0.028358841
74	0xbbd6e0cb	-0.006557559
75	0x3cbfc5ee	0.02340981
76	0x3cca591d	0.024700696
77	0x3c97b443	0.018518573
78	0x3d0daeac	0.03459041
79	0xbae59740	-0.001751639
80	0x3c2e62b4	0.01064365
81	0x3ba0bed3	0.0049055605
82	0x3c5804e3	0.013184759
83	0x3ccccda3	0.025000399
84	0xbbcb5880	-0.0062056184
85	0xbbf6e4c0	-0.0075345933
86	0xbd3ae9a3	-0.04563297
87	0x3c57e04e	0.013176037
88	0xbd2792c3	-0.040911447
89	0x3d31112e	0.043229274
90	0x3ce3278d	0.02772882
91	0xbb6e5b02	-0.0036370163
92	0x3c835160	0.016030014
93	0x3d577205	0.052598972
94	0x3ca245f5	0.019808749
95	0xbd582fe9	-0.052780066
96	0xbd169757	-0.036765423
97	0x3d3c1f2a	0.045928158
98	0xbd4110ce	-0.047135167
99	0x3ca2a359	0.01985328
100	0x3cca7ae8	0.02471681
101	0xbcd761ab	-0.026291689
102	0xbd66dfac	-0.056365654
103	0x3d0a4131	0.033753578
104	0xbc67b0ba	-0.014141256
105	0xbd793bf7	-0.060848203
106	0xbd1bdb7e	-0.03805112
107	0x3d2ced12	0.042218275
108	0xbd46f781	-0.048575882
109	0x3c9e8f3b	0.019355407
110	0x3ca48de2	0.020087186
111	0xbc4285be	-0.011872707
112	0xbd5e2303	-0.05423261
113	0xbc7f5112	-0.0155832935
114	0x3d2b9dcc	0.041898534
115	0xbd545892	-0.05184228
116	0x3cd30f2c	0.02576407
117	0xbc7b00cf	-0.015320017
118	0x3d1c77be	0.038200133
119	0xbd2c4489	-0.042057548
120	0x3d304934	0.043038562
121	0xbd379b3c	-0.044825777
122	0x3d2f68ff	0.04282474
123	0xbd18654a	-0.03720597
124	0x3c361f9a	0.011115933
125	0x3c7da185	0.015480404
126	0x3d2a27ec	0.04154198
127	0x3d6e9ffe	0.05825805
128	0x3b83aad3	0.0040181666
129	0xbcf3358c	-0.02968862
130	0xbd40d5d4	-0.047078922
131	0xbcc2ca6a	-0.02377816
132	0xbcd65eb4	-0.026168205
133	0x3cbd63e7	0.023118926
134	0xbcc177a9	-0.023616629
135	0x3ce1460f	0.027499227
136	0xbb805bd6	-0.0039171977
137	0x3d6ba36d	0.0575289
138	0x3cbeaa13	0.023274457
139	0x3b926f21	0.004468814
140	0x3c79fe37	0.015258363
141	0xbd59481e	-0.053047292
142	0xbce846d8	-0.028354093
143	0x3cad551e	0.021158751
144	0xbbbf41bc	-0.0058366936
145	0xbb9eb203	-0.004842998
146	0x3d050909	0.03247932
147	0x3c2899ab	0.010290544
148	0x3c8ce2b7	0.01719795
149	0xbd4bbb14	-0.04973896
150	0x3a23eaf6	0.00062529685
151	0x3d08de2c	0.033415005
152	0x3cccf551	0.02501932
153	0x3ce067d9	0.027393268
154	0xbcfe590e	-0.031048324
155	0xbd744880	-0.059639454
156	0x3d21940e	0.039447837
157	0x3c589da3	0.013221177
158	0xbd5ba1d0	-0.053621113
159	0x3ca3a353	0.01997534
160	0x3d58c858	0.052925438
161	0xbcf9e788	-0.03050591
162	0xbc2116c8	-0.009832092
163	0x3c31eff4	0.010860432
164	0x3c5b27f2	0.013376223
165	0x3c8cefa4	0.017204113
166	0xbc427508	-0.011868723
167	0xbcf1cd7f	-0.029516933
168	0xbd66c68e	-0.0563417
169	0x3ca78516	0.020449203
170	0x3d246cc6	0.040142797
171	0xbbee8870	-0.007279448
172	0x3d184c74	0.037182286
173	0x3ca5cfe4	0.020240732
174	0xbb053d26	-0.0020330637
175	0xbd600466	-0.054691695
176	0x3b818b11	0.0039533456
177	0xbc45bb81	-0.01206863
178	0xbc6dd1e8	-0.014515378
179	0x3d16ee06	0.03684809
180	0xbccf435c	-0.025300674
181	0x3c9634d5	0.01833574
182	0xbd537229	-0.051622543
183	0x3bbaddb0	0.0057026967
184	0x3d197d66	0.037473105
185	0x3cbe10e2	0.02320141
186	0x3d766c6e	0.060162
187	0xbd635e34	-0.05550976
188	0x3ce5c0fe	0.028046127
189	0xbd6866a4	-0.05673851
190	0x3ca0ae4a	0.019614358
191	0x3cbe7f43	0.023254042
192	0x3d7a919a	0.061174013
193	0x3d4bc6a6	0.049749993
194	0xbca37ca0	-0.019956887
195	0xbc00cce5	-0.007861351
196	0x3cf52cb6	0.029928546
197	0xbcf220ba	-0.02955662
198	0x3c903570	0.017603606
199	0xbcc9dd46	-0.024641644
200	0x3d018590	0.031621516
201	0xbc9868c0	-0.018604636
202	0xbd26bd7c	-0.04070805
203	0xbd67883d	-0.05652641
204	0x3c33de6f	0.010978325
205	0x3d540d54	0.051770523
206	0x3d1feac7	0.03904226
207	0x3d346f78	0.044051617
208	0x3c64795f	0.013944953
209	0x3cbaf143	0.02282012
210	0x3d17fd2f	0.03710669
211	0xbcbd27a4	-0.023090191
212	0x3c21aae5	0.009867405
213	0x3d661784	0.05617477
214	0x3cf37cd1	0.029722603
215	0x3d0f3f37	0.034972396
216	0xbd3b7666	-0.04576721
217	0x3d592cae	0.053021125
218	0x3d4b9d0d	0.049710322
219	0xbd0dffba	-0.034667708
220	0x3d63ce6a	0.055616774
221	0x3d00108c	0.03126578
222	0x3cc06182	0.023483995
223	0xbafa3555	-0.001908938
224	0x3b0b8909	0.0021291396
225	0xbcb4cdb8	-0.02207075
226	0x3cfa6896	0.030567449
227	0xbcad9875	-0.021190861
228	0x3d219c10	0.039455473
229	0xb9aaba33	-0.00032563656
230	0x3d3b13e4	0.045673266
231	0x3d4fab34	0.05070038
232	0xbcda285a	-0.02663057
233	0x3d394020	0.04522717
234	0xbd29af86	-0.041427158
235	0xbcef3076	-0.029197913
236	0x3d2f0215	0.042726595
237	0x3d0db01c	0.03459178
238	0x3d244ac0	0.04011035
239	0xbc17ed11	-0.00927283
240	0xbc91933d	-0.017770404
241	0x3c280204	0.010254387
242	0xbd204e68	-0.039137274
243	0xbd385d60	-0.045010924
244	0x3d6d513e	0.057938807
245	0xbb57e7f9	-0.0032944663
246	0x3d647bd3	0.05578215
247	0xbc16cb70	-0.009203777
248	0x3c0fffc8	0.00878901
249	0xbb5e7332	-0.0033943173
250	0x3d4d184e	0.050072007
251	0xbd4b6af3	-0.04966254
252	0xbb04836b	-0.0020219933
253	0x3ad1ed56	0.0016016166
254	0x3d51a493	0.05118234
255	0xbd847540	-0.06467676

network.4.bias f4 [8]
0	0x3c1f147a	0.009709472
1	0xbc7ac20c	-0.015305053
2	0x3b9d1201	0.004793406
3	0x3d9109f1	0.07081974
4	0x3c78e550	0.015191391
5	0xbd5916e2	-0.05300034
6	0xbd035a71	-0.032068674
7	0xbd9b8b7b	-0.07594963

exp_avg f4 [256, 26]
0	0xba44ee60	-0.0007512327
1	0x3c79162a	0.015203038
2	0x3c828bee	0.015935864
3	0xbc159776	-0.009130349
4	0x3b73c5a0	0.003719665
5	0xbc19f069	-0.009395697
6	0xbc5a4974	-0.013323177
7	0x3d823953	0.0635859
8	0xbc2cd809	-0.010549554
9	0xbc412392	-0.011788266
10	0x3da206e5	0.07911471
11	0x3dcd7310	0.10031712
12	0xbcbefb3b	-0.023313155
13	0x3db1d2c3	0.08682778
14	0x3daacca2	0.08339812
15	0x3ac37bbc	0.0014914195
16	0x3d9ef990	0.07762444
17	0x3d56a720	0.052405477
18	0x3dc0d549	0.09415681
19	0x3da80cff	0.08205604
20	0x3dce85e9	0.10084135
21	0x3d71ed82	0.059064396
22	0x3d79a55c	0.060948715
23	0x3d00c8bd	0.03144144
24	0x3d79fc30	0.06103152
25	0x3d75615e	0.05990731
26	0x00000000	0.0
27	0x0926dd2e	2.0085521e-33
28	0xb60cb030	-2.096418e-06
29	0x00000000	0.0
30	0x00000000	0.0
31	0xb485c3cb	-2.491564e-07
32	0xb4f255a2	-4.513832e-07
33	0xb7a43eee	-1.9579627e-05
34	0x2271068f	3.2665063e-18
35	0xb349904b	-4.6930193e-08
36	0xb5cdc8db	-1.5332147e-06
37	0xb7a6d4f4	-1.9887906e-05
38	0x00000000	0.0
39	0xb794014b	-1.7643577e-05
40	0xb7c8dd2b	-2.3944847e-05
41	0xb6e458e4	-6.8052777e-06
42	0xb703f2a1	-7.8647e-06
43	0xb7dca5fc	-2.6303336e-05
44	0xb79163e3	-1.733186e-05
45	0xb7b83d32	-2.1963006e-05
46	0xb736811b	-1.0878105e-05
47	0xb71b5b00	-9.2599075e-06
48	0xb6f8919a	-7.407926e-06
49	0xb64f23fc	-3.086635e-06
50	0xb74f243c	-1.2346598e-05
51	0xb73a6d60	-1.111193e-05
52	0x00000000	0.0
53	0x00000000	0.0
54	0x0f306bf8	8.698264e-30
55	0x00000000	0.0
56	0x00000000	0.0
57	0x00020aef	1.87593e-40
58	0x00032d9d	2.9187e-40
59	0x105250f8	4.1477574e-29
60	0x00000000	0.0
61	0x00000000	0.0
62	0x111cab21	1.2358963e-28
63	0x1040ec3f	3.804732e-29
64	0x00000000	0.0
65	0x10ef3247	9.434634e-29
66	0x11224fd8	1.280415e-28
67	0x10685cc7	4.5825406e-29
68	0x114c324a	1.6108259e-28
69	0x104d068e	4.043417e-29
70	0x1087024e	5.325166e-29
71	0x1107475a	1.0671609e-28
72	0x112901fb	1.333236e-28
73	0x10aadac9	6.739027e-29
74	0x10a56975	6.5243507e-29
75	0x1009d7dc	2.7184778e-29
76	0x10aadac9	6.739027e-29
77	0x10aadac9	6.739027e-29
78	0x17c3c3b3	1.2650981e-24
79	0x18014d24	1.6711805e-24
80	0x17a75fe7	1.0816331e-24
81	0x17a104be	1.0405578e-24
82	0x173a6f29	6.0240145e-25
83	0x18111405	1.8750918e-24
84	0x1821133f	2.081848e-24
85	0x182a9d8a	2.2051522e-24
86	0x180e50a5	1.8393785e-24
87	0x1809ba99	1.7801043e-24
88	0x1800117e	1.6552444e-24
89	0x17f2c7b5	1.5689297e-24
90	0x174b5a63	6.570692e-25
91	0x17f0e113	1.5566453e-24
92	0x181558ca	1.9302626e-24
93	0x16e7a640	3.7424981e-25
94	0x17de1788	1.4352354e-24
95	0x17e81dba	1.5000153e-24
96	0x17a98ac4	1.0956398e-24
97	0x181d3878	2.0320284e-24
98	0x17b6038e	1.1762372e-24
99	0x17ac0e82	1.1118902e-24
100	0x17ac0e82	1.1118902e-24
101	0x17307417	5.7015193e-25
102	0x17ac0e82	1.1118902e-24
103	0x17ac0e82	1.1118902e-24
104	0x3bd73163	0.0065671667
105	0x3b810864	0.003937768
106	0x3b1903d0	0.002334822
107	0x3bb0c774	0.0053948704
108	0x3baf3171	0.00534647
109	0x3c430a76	0.01190435
110	0x3bc5a752	0.006031909
111	0xbcd4e286	-0.025986921
112	0x3c31ba28	0.010847606
113	0x3c1ba59f	0.009499936
114	0xbcfe75a4	-0.031061955
115	0xbd4be73e	-0.049781077
116	0x3c163f9a	0.009170437
117	0xbd27a9d2	-0.040933438
118	0xbcbe88ce	-0.023258593
119	0xbc081a5c	-0.008307066
120	0xbd25a069	-0.040436182
121	0xbd06afa8	-0.032882363
122	0xbd773272	-0.060350843
123	0xbd2bbac2	-0.041926153
124	0xbd2e5a76	-0.04256674
125	0xbce36496	-0.027757924
126	0xbcdc0ffa	-0.026863087
127	0xbc64ee21	-0.01397279
128	0xbcf2b804	-0.029628761
129	0xbceece38	-0.029151067
130	0x21b91f68	1.2544401e-18
131	0x22133877	1.9952107e-18
132	0xb43872b9	-1.7178071e-07
133	0x211aeb78	5.248887e-19
134	0x212f9073	5.9483483e-19
135	0xb3607364	-5.225901e-08
136	0xb39c31b0	-7.273354e-08
137	0xb6141271	-2.2064453e-06
138	0xb2f8e79d	-2.8976325e-08
139	0xb32353a3	-3.8027462e-08
140	0xb35ea9a6	-5.1842697e-08
141	0xb5b2ff6d	-1.3336372e-06
142	0x21ad348e	1.1736847e-18
143	0xb5e477ff	-1.7022247e-06
144	0xb59ca664	-1.1671332e-06
145	0xb509e31e	-5.1366976e-07
146	0xb5bcaa77	-1.4056703e-06
147	0xb58a3dc5	-1.0299779e-06
148	0xb6257916	-2.4657397e-06
149	0xb616071c	-2.235588e-06
150	0xb5d2e666	-1.5713274e-06
151	0xb53ab4eb	-6.955367e-07
152	0xb5155d8b	-5.564295e-07
153	0xb478f141	-2.3184568e-07
154	0xb578f20a	-9.273941e-07
155	0xb5600c54	-8.346444e-07
156	0xbb571c25	-0.0032823172
157	0x3b16e16b	0.0023022543
158	0x3b53098c	0.0032201735
159	0xbbc73f4f	-0.006080545
160	0xbb3eb3c8	-0.0029098857
161	0xbc7a29c2	-0.015268745
162	0xbc503bbf	-0.012709557
163	0x3ce28c76	0.027654868
164	0xbc7041ff	-0.014664172
165	0xbc7ce389	-0.015435108
166	0x3d2db5bd	0.042409647
167	0x3d44315d	0.04789864
168	0xbc9646ee	-0.018344369
169	0x3d33ee9b	0.043928724
170	0x3d4cab86	0.049968265
171	0xbb8d618b	-0.0043146065
172	0x3d1d2bfd	0.03837203
173	0x3c9f9bd7	0.01948349
174	0x3d42abbc	0.04752706
175	0x3d368f9f	0.04457056
176	0x3d2f67e7	0.0428237
177	0x3cee86ad	0.029116953
178	0x3cf50352	0.02990881
179	0x3c8147f4	0.01578138
180	0x3cf8dce4	0.030378766
181	0x3cf28d52	0.029608402
182	0xbb1f0d35	-0.0024269347
183	0x38ffe3d0	0.00012201781
184	0x3a235628	0.0006230795
185	0xbb955049	-0.00455669
186	0xbb36901f	-0.00278569
187	0xbc20a207	-0.009804255
188	0xbc220e1b	-0.009891058
189	0xbb20f0ad	-0.0024557516
190	0xbc23440f	-0.009964957
191	0xbc29ca7b	-0.0103632165
192	0x3c3dc128	0.011581697
193	0x3c5f582d	0.013631863
194	0xbc2f31de	-0.010693042
195	0x3c0eeab9	0.008722954
196	0x3c8e1c73	0.01734755
197	0xbbe29287	-0.00691444
198	0x3b8591aa	0.0040762024
199	0xbbd8d7ac	-0.006617507
200	0x3bee662e	0.0072753644
201	0x3c1d9704	0.009618524
202	0x3bb8aab6	0.0056355847
203	0x3bb9a4b5	0.0056653866
204	0x3be833fd	0.0070862756
205	0x3b8f787e	0.0043783775
206	0x3bbdeb4b	0.0057958714
207	0x3bb2114f	0.0054341923
208	0xb89fbe00	-7.617101e-05
209	0x3cbf194c	0.023327492
210	0x3cb59998	0.022167966
211	0xbbc0c32f	-0.0058826427
212	0x3c1453bc	0.009053167
213	0xbaed9410	-0.0018125791
214	0xbc843ce3	-0.016142314
215	0x3c4d3568	0.01252494
216	0xbbb16da4	-0.0054146815
217	0xbba9a40e	-0.0051770275
218	0x3cfd1cf7	0.0308976
219	0x3c4ba872	0.012430297
220	0xba86b430	-0.0010277089
221	0x3cb74de4	0.022376008
222	0x3d46759d	0.04845201
223	0xbaa972d0	-0.0012927894
224	0x3cd554c1	0.02604139
225	0x3b06a4a0	0.0020544901
226	0x3c27583c	0.010213908
227	0x3ce86dbc	0.028372638
228	0x3ce880b8	0.02838169
229	0x3c68ca21	0.014208348
230	0x3c851426	0.01624496
231	0x3c002b9e	0.007822899
232	0x3c680691	0.014161722
233	0x3c5eafa0	0.013591677
234	0x00000000	0.0
235	0x00000000	0.0
236	0x00000000	0.0
237	0x00000000	0.0
238	0x00000000	0.0
239	0x00000000	0.0
240	0x00000000	0.0
241	0x00000000	0.0
242	0x00000000	0.0
243	0x00000000	0.0
244	0x00000000	0.0
245	0x00000000	0.0
246	0x00000000	0.0
247	0x00000000	0.0
248	0x00000000	0.0
249	0x00000000	0.0
250	0x00000000	0.0
251	0x00000000	0.0
252	0x00000000	0.0
253	0x00000000	0.0
254	0x00000000	0.0
255	0x00000000	0.0

exp_avg_sq f4 [256, 26]
0	0x3b280852	0.0025639725
1	0x3b25d7cd	0.002530563
2	0x3b2edb00	0.0026680827
3	0x3b27633f	0.0025541333
4	0x3b1955ba	0.0023397044
5	0x3c1acf8c	0.009448897
6	0x3c1fdeb7	0.009757689
7	0x3cc40a17	0.023930592
8	0x3c111010	0.008853927
9	0x3c113d1f	0.00886467
10	0x3c4591ee	0.012058718
11	0x3c4ed00e	0.012622846
12	0x3b75a821	0.0037484246
13	0x3c9a1b26	0.018811774
14	0x3caa1d91	0.020766051
15	0x3c29488b	0.010332237
16	0x3cc6bc49	0.024259703
17	0x3cc4dbbd	0.02403056
18	0x3cdbe68e	0.026843335
19	0x3cc54dd2	0.02408496
20	0x3cde6195	0.02714614
21	0x3c089cee	0.008338196
22	0x3be290d7	0.006914239
23	0x3ab7c053	0.0014019109
24	0x3c16127e	0.009159682
25	0x3c12ba6c	0.008955579
26	0x00000000	0.0
27	0x302f417a	6.3757677e-10
28	0x3427479d	1.557914e-07
29	0x00000000	0.0
30	0x00000000	0.0
31	0x327a98ec	1.4586686e-08
32	0x32da42bf	2.5408893e-08
33	0x373deb00	1.1319993e-05
34	0x3211dee4	8.49079e-09
35	0x324871f7	1.1667445e-08
36	0x3636efa3	2.72596e-06
37	0x3665425b	3.4162283e-06
38	0x00000000	0.0
39	0x3724f6b0	9.832598e-06
40	0x372eb0ab	1.0412342e-05
41	0x36243e51	2.4474177e-06
42	0x36bbf4c0	5.601527e-06
43	0x37b79753	2.1885766e-05
44	0x370b3c13	8.299033e-06
45	0x36c57c3b	5.88552e-06
46	0x3670a8d0	3.5861049e-06
47	0x36464c19	2.9548594e-06
48	0x360ae8d5	2.0699129e-06
49	0x34bfd142	3.5728777e-07
50	0x368f583c	4.272004e-06
51	0x367ea6cb	3.7946036e-06
52	0x00000000	0.0
53	0x00000000	0.0
54	0x3203eaec	7.678619e-09
55	0x00000000	0.0
56	0x00000000	0.0
57	0x2bea2a7f	1.6638495e-12
58	0x2c8dc2dc	4.0290948e-12
59	0x35135dac	5.489808e-07
60	0x00000000	0.0
61	0x00000000	0.0
62	0x363f3b7f	2.849585e-06
63	0x3537e1b9	6.850128e-07
64	0x00000000	0.0
65	0x35f2e787	1.8097788e-06
66	0x362920dd	2.5202091e-06
67	0x33da819f	1.0174994e-07
68	0x36862376	3.9976394e-06
69	0x35199d01	5.722541e-07
70	0x34dc49c4	4.1031865e-07
71	0x36143bf2	2.2088611e-06
72	0x3666b2cd	3.4376746e-06
73	0x35719936	9.000245e-07
74	0x3572bd41	9.0427426e-07
75	0x34472d89	1.8549885e-07
76	0x3577dcae	9.23358e-07
77	0x3577dcae	9.23358e-07
78	0x31757574	3.5718957e-09
79	0x31d62a29	6.2330128e-09
80	0x31338115	2.6121303e-09
81	0x31260f27	2.4164792e-09
82	0x305e9e91	8.0988466e-10
83	0x3206ced5	7.846855e-09
84	0x32262d1d	9.672729e-09
85	0x323b4263	1.0899927e-08
86	0x3201b8c6	7.550801e-09
87	0x31f2fe02	7.0720043e-09
88	0x31e6b370	6.7142807e-09
89	0x31bd4e5d	5.509533e-09
90	0x30846dc6	9.635464e-10
91	0x31ca5c87	5.889493e-09
92	0x321086f0	8.412584e-09
93	0x2fac17c9	3.1303518e-10
94	0x31ab896b	4.9923776e-09
95	0x31cc70e0	5.950014e-09
96	0x31861537	3.902325e-09
97	0x3224295f	9.555463e-09
98	0x315ee9f1	3.2438232e-09
99	0x314e7dc0	3.0048426e-09
100	0x314669ec	2.8873002e-09
101	0x304d8980	7.4773965e-10
102	0x314e7dc0	3.0048426e-09
103	0x314e7dc0	3.0048426e-09
104	0x39eaf415	0.00044813813
105	0x39afc1e7	0.0003352307
106	0x39e6e1cd	0.00044037253
107	0x3998af21	0.0002912218
108	0x39d975d8	0.00041477266
109	0x3b112451	0.002214689
110	0x3b0faf27	0.0021924467
111	0x3c1c080c	0.009523403
112	0x3af1126c	0.0018392331
113	0x3af76cb9	0.0018877006
114	0x3ba29232	0.0049612755
115	0x3bb1d4e1	0.0054269885
116	0x3a54713a	0.000810403
117	0x3bfdcb6a	0.007745196
118	0x3c077e1f	0.008269816
119	0x3b33df73	0.0027446419
120	0x3c2ff7c9	0.010740229
121	0x3c16ac0b	0.009196292
122	0x3c34a970	0.011026725
123	0x3c28b506	0.010297066
124	0x3c13a6f7	0.0090119755
125	0x3b601b56	0.003419598
126	0x3b378648	0.0028003622
127	0x3a1488e2	0.0005666149
128	0x3b79ef7a	0.0038137124
129	0x3b73ae37	0.0037182698
130	0x358b2cf4	1.036939e-06
131	0x35827b97	9.721724e-07
132	0x3603fdc6	1.9668237e-06
133	0x35a79aa5	1.2487477e-06
134	0x360eb5cf	2.1265475e-06
135	0x3633a89e	2.6771227e-06
136	0x36563f1e	3.1925224e-06
137	0x3812e13e	3.5018886e-05
138	0x365e27a6	3.3103656e-06
139	0x36763d39	3.6692493e-06
140	0x359d35d0	1.1713073e-06
141	0x374cd09d	1.2207919e-05
142	0x3606f2f6	2.0108978e-06
143	0x37bdbfb5	2.2619826e-05
144	0x3762722b	1.34972315e-05
145	0x371e7247	9.444141e-06
146	0x380a34a0	3.2950775e-05
147	0x3784a94f	1.5814467e-05
148	0x382aa008	4.06802e-05
149	0x381e9bba	3.7815167e-05
150	0x3811e951	3.4787987e-05
151	0x3691cb62	4.3450136e-06
152	0x364909b1	2.9956975e-06
153	0x350ca91f	5.240017e-07
154	0x36e052e4	6.68537e-06
155	0x36c220ea	5.7854822e-06
156	0x3acebac0	0.0015772209
157	0x3aba899f	0.0014231688
158	0x3acaa24c	0.0015459745
159	0x3abc8b34	0.0014384747
160	0x3aa48a7b	0.0012553477
161	0x3bc48bac	0.0059980955
162	0x3bd204ae	0.0064092493
163	0x3c9d886a	0.019230086
164	0x3bbf57c8	0.0058393218
165	0x3bbb03d9	0.005707246
166	0x3c19f78c	0.009397399
167	0x3c242ba6	0.010020172
168	0x3b1451dc	0.00226318
169	0x3c76cac8	0.015062995
170	0x3c8f0b86	0.01746155
171	0x3bf154ad	0.0073648305
172	0x3c9eb3cc	0.019372843
173	0x3c94f87a	0.01818489
174	0x3c9e08c3	0.019291287
175	0x3c9faa42	0.019490365
176	0x3c9ef54f	0.019404082
177	0x3bd63ba2	0.0065378705
178	0x3baeaeed	0.0053309114
179	0x3a8d6270	0.0010786783
180	0x3bef8e9a	0.0073107006
181	0x3be9c86b	0.0071344874
182	0x3a686a67	0.0008865953
183	0x3a5a6b0c	0.0008331991
184	0x3a6611a7	0.0008776434
185	0x3a62dea8	0.0008654394
186	0x3a4856eb	0.00076423463
187	0x3b556e06	0.00325668
188	0x3b67148f	0.0035260057
189	0x3c15a755	0.009134133
190	0x3b537dc4	0.0032271007
191	0x3b4ecc4b	0.0031554874
192	0x3b9604b0	0.0045781955
193	0x3b9ccfed	0.004785529
194	0x3ab033bb	0.0013443151
195	0x3bed3b6a	0.0072397487
196	0x3c0c8403	0.008576396
197	0x3b883c3a	0.00415757
198	0x3c156f8e	0.009120835
199	0x3c10f15d	0.008846608
200	0x3c14bb23	0.00907782
201	0x3c148576	0.009065023
202	0x3c14e714	0.009088296
203	0x3b518636	0.0031970865
204	0x3b2b9205	0.0026179564
205	0x3a07e94e	0.00051846064
206	0x3b67d162	0.0035372605
207	0x3b62d966	0.0034614443
208	0x39f87ba9	0.0004739438
209	0x3a5b3c04	0.000836313
210	0x3a1d24e8	0.0005994574
211	0x3a0b034b	0.000530292
212	0x3a3ed591	0.00072797487
213	0x3b25bc75	0.002528933
214	0x3b26b8c9	0.002543973
215	0x3c322723	0.010873589
216	0x3b0c5f0b	0.0021418955
217	0x3b0f608d	0.0021877617
218	0x3bc28b6f	0.005937032
219	0x3bd372bd	0.006452887
220	0x3a9958c3	0.0011699427
221	0x3c14904a	0.009067604
222	0x3c199e98	0.009376191
223	0x3b6013e4	0.0034191543
224	0x3c44d39c	0.012013342
225	0x3c485b18	0.01222875
226	0x3c4f27e4	0.012643788
227	0x3c349187	0.011021025
228	0x3c29505f	0.010334103
229	0x3b819a1e	0.00395514
230	0x3b56d4fc	0.0032780757
231	0x3a320365	0.0006790667
232	0x3b901df5	0.0043981024
233	0x3b8c5c46	0.004283461
234	0x00000000	0.0
235	0x00000000	0.0
236	0x00000000	0.0
237	0x00000000	0.0
238	0x00000000	0.0
239	0x00000000	0.0
240	0x00000000	0.0
241	0x00000000	0.0
242	0x00000000	0.0
243	0x00000000	0.0
244	0x00000000	0.0
245	0x00000000	0.0
246	0x00000000	0.0
247	0x00000000	0.0
248	0x00000000	0.0
249	0x00000000	0.0
250	0x00000000	0.0
251	0x00000000	0.0
252	0x00000000	0.0
253	0x00000000	0.0
254	0x00000000	0.0
255	0x00000000	0.0
