models/reinforce/reinforce_large/checkpoint_ep300.pth (torch, 904778 bytes, 18 tensors)

network.0.weight f4 [256, 26]
000000 27 b4 27 be a8 2a 9c 3d c2 d9 05 3e c9 9f d6 bd
       -0.16377316 0.076253235 0.1307135 -0.10479695
000010 85 65 d6 bc 6f 70 32 3e 9b 8b 3b bd 07 69 25 3c
       -0.026171455 0.17425703 -0.045787435 0.010095841
000020 bd 87 0f 3e c3 13 3e bd cf 8f 16 be a8 fc fa bc
       0.14016624 -0.046405565 -0.14703296 -0.030638054
000030 de c9 13 3e 41 18 0a be c1 64 1e be 76 20 40 3e
       0.14432475 -0.13485815 -0.15468122 0.18762383
000040 f4 65 05 3d 9c cb 06 3c fa fd 46 3e 3e c2 b6 bc
       0.032567933 0.008227255 0.19432822 -0.022309419
000050 b9 6f 4b 3e 67 50 37 3e 1b b7 3c 3e bf e5 41 3e
       0.19866838 0.17901765 0.18429224 0.18935297
000060 98 fa 02 be 79 db 12 be a0 7a b9 bb 06 80 22 3e
       -0.12790906 -0.14341535 -0.00566037 0.1586915
000070 46 66 14 bd 84 01 94 bd 20 b1 26 3c 4e 17 c6 bd
       -0.036230348 -0.072268516 0.010174066 -0.09672414
000080 2e 2e 1e be 6a 3b b6 bd 43 67 16 bd 2c 06 49 3e
       -0.15447304 -0.08898051 -0.03671957 0.1963126
000090 54 69 b4 bd 4d 23 66 3d 77 d4 12 be 84 ca 9c 3d
       -0.08809152 0.05618601 -0.14338861 0.07655814
0000a0 63 34 d3 3c 76 a0 fb 3c e0 dd f6 bd 92 c2 0b 3e
       0.025781816 0.030716162 -0.12054038 0.13648441
0000b0 74 e3 1f bd a4 29 6a bd bd 0f 47 be 8c f8 a5 bd
       -0.039035276 -0.057168618 -0.19439597 -0.08104047
0000c0 ea 4d f6 bd 4a 74 46 be 87 62 d5 3d 37 61 58 3d
       -0.1202658 -0.19380298 0.10419183 0.052827086
0000d0 4c 24 a9 bd 2c b5 13 bd 57 b4 0a be 03 90 b7 bd
       -0.08258876 -0.03606145 -0.13545357 -0.08963015
0000e0 f8 19 47 be 60 51 f0 bd 30 86 21 be 48 1d 91 bd
       -0.194435 -0.11734271 -0.15773845 -0.07085663
0000f0 7a f6 d7 3d 47 5b 22 be 68 15 22 3e 41 00 dc bd
       0.105450585 -0.15855132 0.15828478 -0.10742236
000100 f4 24 65 bd ee d8 e0 bd 27 de 31 3e aa f5 21 be
       -0.055943444 -0.10978876 0.173699 -0.1581637
000110 a3 83 04 3d f6 ee d7 bd 91 b9 11 be db 84 a4 3d
       0.0323521 -0.10543625 -0.14230944 0.08033153
000120 59 0f ae 3c e6 0a 0a 3d 60 fd ed bd 7c c4 20 3d
       0.021247553 0.0337018 -0.11620593 0.039249882
000130 e3 7f 80 3d da b5 1e 3c 32 46 c9 3d 84 9f 59 3d
       0.062743925 0.0096869115 0.09827842 0.05313064
000140 90 c4 27 3e 88 3c 09 3d 04 25 3a bd 5e 35 f6 3d
       0.16383576 0.033504993 -0.045445457 0.12021898
000150 06 48 c6 3d 16 ed 39 be 18 b0 f1 3c 2f 80 f0 bd
       0.09681706 -0.18156847 0.029502913 -0.11743199
000160 73 53 17 3e 34 fb a9 bd 06 ae 08 be f5 3c af bd
       0.14777927 -0.08299866 -0.13347635 -0.085565485
000170 18 63 b0 bd 9e 31 1e be 30 f8 3e 3d ba f3 0a 3d
       -0.08612651 -0.15448615 0.04662341 0.033923842
000180 38 3e 9e bd 0c 10 26 3c 0b f6 f4 bc 8e bb 0d bd
       -0.07726711 0.010135662 -0.029902479 -0.034602694
000190 ea 41 14 3d 70 82 4f bd 1b e2 ce bc 24 10 f2 3c
       0.036195673 -0.050661504 -0.0252543 0.029548712
0001a0 2d 04 e7 3d c3 a5 20 be 59 cf 07 3d 18 e8 39 be
       0.11280093 -0.15688233 0.033156727 -0.18154943
0001b0 e2 00 20 3e 49 92 7f bc 82 77 d7 bd 01 c8 e5 3c
       0.15625337 -0.015598842 -0.10520841 0.02804947
0001c0 d7 11 7f bc 34 a8 4b bd c9 33 0e be 03 34 1b 3d
       -0.015568218 -0.049720958 -0.13886942 0.0378914
0001d0 fe a2 f0 3d 76 ef 3d 3e 35 d0 41 be 23 df 86 bd
       0.11749838 0.18548378 -0.18927081 -0.06585529
0001e0 b9 f8 1a 3e e3 0d fd bc 7f 2c 0c 3e e6 33 f8 3d
       0.15133943 -0.03089041 0.13688849 0.12119274
0001f0 49 be 1b be 7c ea 1d 3e 9e 77 d1 3d 76 ac de bd
       -0.15209307 0.1542148 0.10227893 -0.10872738
000200 5a f5 1f be c4 6b ed bc b3 8c ee 3c 55 bb e8 bd
       -0.15620938 -0.02898205 0.029119825 -0.11363856
000210 3b 3e 2a 3e 14 f5 8a bd e4 ad 11 3e 07 b5 e9 bd
       0.16625302 -0.06785026 0.1422649 -0.11411481
000220 cf 77 12 be 1e 97 8b 3d 6e de 0b 3e 1c 7d b8 3c
       -0.14303516 0.06815933 0.13659069 0.022520594
000230 cd 31 42 be b5 86 d1 3d 5a fd a0 3d 50 08 41 be
       -0.1896431 0.102307715 0.07860823 -0.18850827
000240 a4 69 f5 bd 47 94 d2 3d 8f e4 6b 3d b3 8d c5 bd
       -0.1198304 0.10282188 0.057591017 -0.096461676
000250 69 46 b3 3d f8 43 54 3d 46 1e 1e 3d 8a f0 d3 bd
       0.08753664 0.051822633 0.03860309 -0.103486136
000260 eb 14 c8 bd 0a b8 4c be b0 2a 52 be 40 31 4f bd
       -0.09769615 -0.1999208 -0.20524096 -0.050584078
000270 ab ac 6a 3d 1b e7 fb 3d ce 08 1e 3e ab 9d dc bd
       0.057293575 0.12299939 0.15433046 -0.1077226
000280 05 72 1b 3e 34 5a aa 3c ff b3 83 3d a2 21 ad 3b
       0.15180214 0.020794965 0.06430816 0.0052835504
000290 1c 3b 3a bd cc 36 4b 3e 74 f1 ec 3d 20 64 a8 3b
       -0.045466527 0.19845122 0.11569491 0.005138889
0002a0 f1 3d ec bd 88 ff 14 be fc 97 cb 3d f8 c0 b6 3d
       -0.11535252 -0.14550602 0.09941098 0.089235246
0002b0 01 a6 9f 3c 3c 0e 86 bc 9b dd eb 3b c8 42 0e 3d
       0.019488337 -0.01636421 0.0071980483 0.034731656
0002c0 7b ca 69 3d bd 68 c0 3d b7 b2 1d be 31 e7 a7 bd
       0.057077866 0.09394977 -0.15400206 -0.08198393
0002d0 aa 88 14 3e fb 17 08 3e 49 47 e7 3d 68 a4 bd 3d
       0.14505258 0.13290398 0.112928934 0.09259874
0002e0 fa 60 ab 3d 20 2d 3c be 25 0e d8 3d e8 d8 41 be
       0.08368106 -0.18376589 0.10549573 -0.189304
0002f0 5f cc 68 3c 82 4d 2c bd 16 95 3e 3e 06 69 1c 3e
       0.014208882 -0.042066105 0.1861156 0.15274438
000300 ab 65 40 3e af ec f2 bb 1b 83 ca 3c ac aa 51 bc
       0.18788783 -0.007413469 0.02472072 -0.012797039
000310 f1 e8 36 3e ea eb 46 3e 6a 1b 87 bd 9e b4 64 3e
       0.17862298 0.19425932 -0.06597026 0.22334525
000320 9c e6 26 3e 7e 36 87 3d 1b 1b 5a 3e c5 38 18 bd
       0.16298908 0.066021904 0.21299402 -0.037163515
000330 bd 03 c2 3d 66 70 38 3e 1c 81 a2 39 47 c2 35 bd
       0.09473369 0.18011627 0.00030995242 -0.04437473
000340 3f 7d df bd a5 b7 0b 3c 71 06 37 be 66 a7 88 bd
       -0.10912561 0.008527671 -0.17873551 -0.06672554
000350 d9 3c 57 3d de bc 0c bd ee 9e 00 be b0 b6 92 bd
       0.052548263 -0.034359805 -0.12560627 -0.07163751
000360 e4 e6 b0 bd 57 7d 10 be 44 e6 98 bd f6 56 3c 3e
       -0.08637789 -0.14110313 -0.07465795 0.18392548
000370 09 b9 b9 3d a6 6a 5b 3c 9c 20 b0 bd e6 0f 7b 3d
       0.09068496 0.013392126 -0.0859997 0.06129446
000380 cd 80 12 3e 0e a7 0c 3e 84 f5 e1 3c 35 55 25 be
       0.14306946 0.13735601 0.027582891 -0.16145785
000390 9f fa 33 be af 13 15 be a2 a2 30 be 43 3a fc 3b
       -0.17576073 -0.1455829 -0.1724954 0.007697375
0003a0 ed 34 bb bc 10 f2 3e 3e 74 d6 06 3d 5c e0 61 bd
       -0.022852385 0.18647027 0.032919362 -0.055145606
0003b0 f2 4f 9b 3d 58 d1 bb bc fc 16 9a bd 50 a9 07 bc
       0.07583608 -0.022926971 -0.07523915 -0.008280113
0003c0 2a f3 a2 bd cc 20 67 bd c6 8e 09 be 87 b3 23 3e
       -0.07956536 -0.056427762 -0.1343337 0.15986453
0003d0 5f b2 0f 3e 38 7a a1 bd f2 1b 3e be 7a 3d bd bd
       0.14032887 -0.078846395 -0.18565348 -0.09240241
0003e0 9b 3c 40 be 7d 3a 29 be e7 12 46 3e 5e 47 2e be
       -0.18773119 -0.16526218 0.19343148 -0.17019412
0003f0 00 00 1a bb 59 79 22 3e 00 82 d3 bc 13 b8 29 3e
       -0.0023498535 0.15866603 -0.025818825 0.16574125

network.0.bias f4 [256]
000000 49 a6 c4 bd 1f 66 56 3d 78 79 2d be 77 11 db 3c
       -0.09602029 0.052343484 -0.16940868 0.026741726
000010 f0 df 8c bd 84 2d 71 3d 66 fc c6 3d 2d 44 95 3d
       -0.0687865 0.058881298 0.0971611 0.07288394
000020 c9 66 18 3e 8d 25 26 be 8c 54 56 39 64 4b 4a 3e
       0.1488296 -0.16225262 0.00020440127 0.19755322
000030 0c a0 b6 bd 10 db 26 3e ac 9a 4b 3e f8 f8 af 3d
       -0.08917245 0.16294503 0.19883221 0.08592409
000040 d9 38 2a 3e 8a cd 86 3d cf 1c f4 3d eb f4 09 be
       0.16623248 0.06582172 0.11919557 -0.13472335
000050 80 61 5d 3c ec 12 ea 3c 45 bc 2f 3e 82 6a a1 3d
       0.013512015 0.028573476 0.17161663 0.07881643
000060 06 94 09 3e fa 44 ca 3d 86 55 e0 3d dc 31 3b 3e
       0.13435373 0.098764375 0.10953812 0.18280739
000070 60 dd a8 3d 3f 6b d6 bd f7 c7 a3 bd 73 68 1b 3e
       0.08245349 -0.10469674 -0.07997125 0.15176563
000080 eb fe e5 bd 20 ed 1d bd fb 40 00 be e0 f3 de bb
       -0.11230262 -0.03855622 -0.12524788 -0.0068039745
000090 1a 02 fd 3d 05 70 ea bc 83 b5 8f bd 09 5a fd 3d
       0.123539165 -0.028617868 -0.070170425 0.123706885
0000a0 c9 5c 2d 3e bf ab 3d be 23 6a 30 be 0f 53 46 3e
       0.16929926 -0.18522547 -0.17227988 0.19367622
0000b0 3e f7 8c 3d 17 4e 63 bd 7f 4d ad bc 87 85 01 3e
       0.06883095 -0.055494394 -0.021155117 0.12648593
0000c0 35 f2 13 bd 50 33 44 3d 8b c8 0b 3e b9 ee 9d 3c
       -0.03611966 0.047900498 0.1365072 0.01927887
0000d0 c6 e6 44 be f6 58 14 3e b1 06 c0 bd 3e 25 8f bd
       -0.19228658 0.14487061 -0.09376276 -0.06989525
0000e0 55 a0 33 bc bc 89 ec bd 77 a8 48 be e8 cc cd bd
       -0.010963519 -0.11549708 -0.19595514 -0.100488484
0000f0 f6 bb 35 3e 2c b8 2d be 79 7d 59 3e 29 65 e3 bd
       0.17747483 -0.16964787 0.2123927 -0.11103279
000100 6e 16 0e be 7d 5c 74 bc a7 9d 49 3c 52 53 70 3d
       -0.13875744 -0.014914629 0.012305654 0.05867321
000110 88 40 d0 3d 0b 80 a9 bd 9f 01 56 be f8 f7 d5 bc
       0.10168558 -0.082763754 -0.20899056 -0.026119217
000120 14 7b 25 bd 7c 26 c3 bd 1e d9 ec 3d 00 c1 e2 3c
       -0.04040058 -0.09528825 0.11564849 0.02767992
000130 1b df 64 bd 50 7e f1 bd 1f 61 51 3d a9 3d db 3d
       -0.055876832 -0.1179167 0.051118013 0.1070512
000140 9f a4 be 3d ee c0 21 be 51 fd df bd 91 9b 1d be
       0.09308743 -0.15796253 -0.10936988 -0.15391375
000150 0e d2 ed bb 94 c2 da 3b 38 94 69 bd 34 15 fc bd
       -0.0072577065 0.0066760276 -0.057026118 -0.12308732
000160 a5 83 3a 3e 08 89 83 3d ba f8 51 3e 79 96 29 3d
       0.18214281 0.06422621 0.20505038 0.041403268
000170 3a 31 fe 3d cb 0d 4f 3e 0f 68 35 bd 5a 61 8d bd
       0.12411733 0.20220105 -0.04428869 -0.06903334
000180 57 c9 fc ba 19 93 cd 3d 5d 74 bb 3d 1a fd 15 3e
       -0.0019286078 0.10037822 0.09153054 0.14647332
000190 c1 f3 08 be 42 77 96 3d 1c 5f 62 bd 7e 56 37 3e
       -0.13374235 0.073469654 -0.055266485 0.17904088
0001a0 10 72 40 be 6f 06 49 be e4 4b 0a be a2 a5 f1 3d
       -0.18793511 -0.1963136 -0.13505512 0.1179917
0001b0 84 33 0b 3d 12 cf 28 3e e8 bd 38 be cf 39 60 bc
       0.033984676 0.16485241 -0.18041193 -0.013685658
0001c0 49 ce 18 3c 5d 41 db 3d ed 80 c1 bd 25 21 87 3d
       0.009326526 0.107058264 -0.09448419 0.06598119
0001d0 41 7e a7 3d 08 68 58 3d 67 07 25 be f4 f9 f8 bd
       0.08178378 0.052833587 -0.16116105 -0.1215705
0001e0 c1 4d 1a be be 17 ba 3d e7 a5 1c 3e 7a 5e f9 bd
       -0.15068723 0.0908656 0.15297662 -0.12176223
0001f0 78 89 9d 3d 04 97 06 3d 98 5c fc 3d 44 50 25 3e
       0.07692236 0.032858863 0.12322348 0.161439
000200 da 38 ee 3d cb 2c 26 be 7e 3e 0e bd d4 70 35 bd
       0.11631937 -0.16228025 -0.034727566 -0.044297054
000210 8c 87 08 3e d6 21 e8 bd 5a 1b 37 be 3f 21 35 be
       0.13332957 -0.11334579 -0.17881528 -0.17688464
000220 02 0c e9 3d 66 50 f0 3d 9a 2c 17 3e ce 26 a0 3d
       0.113792434 0.11734085 0.14763108 0.078199014
000230 4b 73 e0 3d 3a 57 ac 3d b3 46 1b be 95 9f b8 3c
       0.109594904 0.08415075 -0.15163688 0.022537032
000240 55 c1 46 be 84 3d 09 3e fd 5a ee bd 4b a2 05 be
       -0.19409688 0.13402373 -0.116384484 -0.13050191
000250 d1 82 4b 3d a6 f7 05 be 19 5b a2 3d fb 48 71 bd
       0.049685303 -0.13082752 0.07927532 -0.05890749
000260 b5 93 24 be 10 0b 1b bc d0 39 00 3c 4f e6 ec bc
       -0.16071971 -0.009463087 0.007826284 -0.028918413
000270 dc fa 75 3d 66 d7 6e 3d 17 7d 06 3e 7a f7 ee 3c
       0.06005369 0.05831089 0.13133655 0.02917074
000280 c0 5a 83 3d 08 f1 0d be a7 ae 2a bd 74 67 00 be
       0.064137936 -0.13861477 -0.041670468 -0.12539464
000290 ad 1b 80 bd 49 0b c7 bd 4f 12 be 3c 07 43 2d 3d
       -0.06255279 -0.09718949 0.02320209 0.04230025
0002a0 b3 34 1f bc 3c bb 19 3e 50 56 4a 3e eb 59 f0 3d
       -0.009717154 0.1501283 0.19759488 0.117359005
0002b0 b4 66 81 bd ec b6 14 3e 9f 91 12 bd 2c d7 a1 bd
       -0.06318417 0.14522904 -0.035783406 -0.07902369
0002c0 de 10 19 3e 34 71 01 3c fa b5 67 bd c6 27 2b be
       0.1494784 0.007900525 -0.05657003 -0.16714391
0002d0 17 b8 34 3e 9c d3 19 3e 39 79 6d bd ce 3e 50 bd
       0.1764835 0.15022129 -0.057976935 -0.050841145
0002e0 61 05 33 3e c4 24 14 3d 3f f2 4a 3e 29 ec 3a be
       0.1748252 0.036167875 0.19818972 -0.1825415
0002f0 10 5b e1 bd b3 3e 15 3e 24 56 c9 bd fd fa ca bd
       -0.11003697 0.14574699 -0.09830883 -0.099111535
000300 61 7d 82 bd 85 8b 45 3e fb 53 de 3d e8 bc b1 3d
       -0.063715704 0.19291504 0.10855862 0.08678609
000310 cc eb 43 bd 38 fb e9 3c 18 e5 f6 bd c0 96 a1 3d
       -0.047832295 0.028562173 -0.12055415 0.078900814
000320 eb 4e 04 3e 87 76 2f be 38 51 da bd 24 24 e2 bd
       0.1292073 -0.17135058 -0.106600225 -0.110420495
000330 0c 4c 80 3d 07 09 46 be 3f f3 4d 3d 2a 65 28 3e
       0.06264505 -0.19339381 0.050280806 0.16444841
000340 42 49 4f 3e 27 d4 0c 3e 59 cf 32 3e 84 99 36 be
       0.2024279 0.13752805 0.1746191 -0.17831999
000350 76 86 fe 3c 1e aa 24 3e 92 c2 31 be 3e 6f 8a 3d
       0.031069975 0.1608052 -0.17359379 0.06759499
000360 3d f5 52 bc 1f a6 35 3d e7 f3 da bd 95 b3 23 3e
       -0.012875852 0.04434788 -0.10691052 0.15986474
000370 f0 0f 1f be 91 29 09 be fd 36 e3 bd 99 17 45 3e
       -0.15533423 -0.13394763 -0.110944726 0.19247283
000380 48 e2 6c bd ac 10 cd bd 8e 0a db bd 95 b6 e5 bb
       -0.057832986 -0.100129455 -0.106953725 -0.007010291
000390 e6 32 4f 3e 8b 67 8a 38 dd f4 d1 3d c2 6c 02 be
       0.2023426 6.599639e-05 0.10251782 -0.127368
0003a0 2d a2 46 bd 0e be c4 3d 1f 23 0a bc e2 47 e7 3d
       -0.048494507 0.096065626 -0.008431225 0.112930074
0003b0 fb 73 9e 3c 30 ce 22 3e 58 7b 5e bd ee b5 2a be
       0.019342413 0.15898967 -0.05431685 -0.16670963
0003c0 57 cb 13 3e 21 96 16 3e 73 ef 9f bd f2 53 fb 3a
       0.14433037 0.14705707 -0.07809343 0.0019174798
0003d0 49 db dc bd a0 cc 30 3d bd e9 06 be d7 1c 11 3d
       -0.10784013 0.043163896 -0.13175102 0.035427894
0003e0 7a 22 0d be 58 03 6c 3d 36 58 00 3e b7 20 c9 bd
       -0.13782683 0.057620376 0.1253365 -0.09820693
0003f0 8a c7 44 bd 4b 28 24 bd 63 ad b8 bd d7 9a 7d 3c
       -0.048041858 -0.04007749 -0.09017446 0.015478811

network.2.weight f4 [256, 256]
000000 5c 30 4b bc 96 b2 3e 3d 52 ce 46 3c e9 8c 82 3d
       -0.0124016665 0.04655703 0.0121341515 0.06374533
000010 4d ad 23 bc b5 f1 f3 bc 0c 46 25 3c 46 48 d0 bc
       -0.009990049 -0.02977834 0.010087501 -0.025425088
000020 64 73 a0 3d f8 e6 ac 3c ca b6 d3 bc f1 7a 04 bd
       0.07834509 0.021106228 -0.025843997 -0.03234381
000030 1c 7c d9 3b e4 54 b6 3c b3 0a 35 3d b6 85 18 3d
       0.0066371094 0.022257276 0.044199657 0.03723689
000040 71 96 3e bd 40 09 02 bd ac b5 60 bb 20 21 ce 3b
       -0.04653019 -0.031747103 -0.0034287972 0.00629057
000050 27 85 b4 3d da d6 ae 3c 73 db c0 3c 79 4b c0 bc
       0.08814459 0.021342684 0.023542142 -0.023473488
000060 bb df b3 3c fc ca a4 3d 79 69 13 bd 7a 8d 78 3c
       0.021957269 0.08046529 -0.03598926 0.015170449
000070 d6 19 17 bc ab 09 2f 3b 2a 37 8a 3d 6d fd 83 3d
       -0.009222468 0.0026708643 0.06748803 0.064448215
000080 8d ff a8 3d 88 46 b2 3c 43 2b 14 bd 90 f9 f1 bc
       0.082518674 0.021762148 -0.03617407 -0.029537946
000090 65 b8 9a 3d 6b 5c 0a bc 36 8b d2 3c b3 01 0a bd
       0.07554702 -0.008444886 0.025701147 -0.033693027
0000a0 e9 70 ad b9 d0 c6 c7 3c 8f a4 5b 3d dc 15 15 3d
       -0.00033081256 0.024386793 0.053623732 0.0363978
0000b0 fb dd 30 3d a1 a8 68 bc 44 57 36 3d 17 73 95 bc
       0.043180447 -0.0142003605 0.044516817 -0.018243356
0000c0 de c9 e4 3c 80 13 6d 3d c2 f6 e6 bb 47 ea 7b 3d
       0.027928289 0.057879925 -0.007048459 0.06150272
0000d0 ea 50 67 3d f9 ad 1b 3d e4 60 47 bd e9 23 31 bd
       0.05647365 0.03800771 -0.048676386 -0.043247137
0000e0 97 6f 1c 3b 5a c6 e4 bc 90 47 83 bb e0 b9 06 bc
       0.0023870224 -0.027926613 -0.0040063336 -0.008223027
0000f0 db f6 e9 bc ff 24 2e bc 14 1c b1 bc 06 a6 8e 3c
       -0.028560093 -0.010628938 -0.021619834 0.01741315
000100 c5 74 2d 3c c9 eb 50 3d 1e f8 2e 3d 4d e8 39 3d
       0.010586922 0.051006112 0.04271709 0.045387555
000110 9d a2 39 3d de af 3e bd 58 5c 68 3c 8d 72 ee bc
       0.045321096 -0.04655444 0.014182173 -0.029107356
000120 58 fc 33 bd 98 43 8e 3c 86 5b 48 bb 24 b3 7e 3c
       -0.043941826 0.017366216 -0.003057213 0.01554564
000130 14 0e 7d 3d 13 b9 e3 bc 50 62 92 bc 16 f4 6b 3d
       0.061781004 -0.027798211 -0.017869145 0.057605825
000140 74 cf 45 3d 07 47 80 3d 4a 4e 5b 3d 30 7d 11 3d
       0.048293546 0.062635474 0.05354146 0.03551978
000150 7c b0 d6 bc bc 36 68 3c bc 53 bd 3c c3 7d aa bc
       -0.026207201 0.014173206 0.023111217 -0.020811921
000160 b8 0c 28 3d 4a 89 17 3c 29 d4 33 3d 2b d4 62 3d
       0.041027755 0.009249041 0.043903504 0.05537812
000170 4c a7 af bc 29 40 34 3c 9e 94 97 3d 20 1e cf bb
       -0.021442078 0.011001625 0.07401393 -0.00632073
000180 12 46 25 3d 9e 9a 5f 3d bb 7a b3 3d cd df de bc
       0.040350027 0.054590814 0.08763643 -0.027206326
000190 38 d5 32 3d 21 21 10 3d 00 10 1a bb fd 96 67 3c
       0.043660372 0.035187844 -0.0023508072 0.0141351195
0001a0 34 98 54 bc ca b9 4b bd 5f 1d b9 3b 26 17 00 3d
       -0.012975741 -0.04973773 0.0056492533 0.031272076
0001b0 85 11 d8 3c 4d cc ba 3c 00 5b 8b bc 2b c3 1f bb
       0.026375541 0.022802496 -0.017011166 -0.0024377804
0001c0 2d c5 0a bc fa 26 74 3c e0 b1 50 bd a1 54 18 bc
       -0.008469862 0.014901871 -0.050950885 -0.009297521
0001d0 58 d7 90 bc d2 e9 e6 3c df 8b 9a 3d 46 31 87 3c
       -0.017680809 0.028187666 0.075462095 0.016502988
0001e0 38 b1 b0 bc b0 41 f1 3b 8c ce c0 bc 7e 9d 3b bd
       -0.02156888 0.007362567 -0.02353599 -0.045804493
0001f0 19 ab b4 bc 17 fd 77 3d 25 49 70 3d f6 0f 48 bd
       -0.022054242 0.0605441 0.058663506 -0.048843347
000200 77 91 a8 bc dc 12 ab bc fc 45 2a bd 1e 1b 4a 3c
       -0.020577176 -0.020883016 -0.04157065 0.012335567
000210 59 01 18 3d cf 0d 4f bd 58 6c 0c bd 56 7f 27 3d
       0.03711066 -0.05055028 -0.034283012 0.04089292
000220 c1 07 5e 3d 9c 6a 39 3c d6 9e 1a 38 5c 17 16 3c
       0.054206613 0.011316922 3.686439e-05 0.009160843
000230 5d c7 42 3d 13 22 8a bc ea 5c 42 bd bf bf 11 3d
       0.04755341 -0.016861951 -0.04745189 0.035583254
000240 48 24 b4 3c a8 56 6a 3d f9 cb 3a bd 8b 89 b0 3c
       0.021989956 0.057211548 -0.04560468 0.02154996
000250 9a a5 c7 3c d6 24 86 bc 3b 29 28 3c 17 f2 b4 bc
       0.024370957 -0.016374987 0.010263736 -0.022088094
000260 08 75 43 bd e4 92 f0 3c 50 5d 5d 3d d4 f8 fb 3c
       -0.04771903 0.029366918 0.054044068 0.030758299
000270 02 84 62 bd 4a f7 4d bd 5e 27 80 3d f0 6a 94 bb
       -0.055301674 -0.05028466 0.06257509 -0.0045293495
000280 1c fd c2 bc 2e 2e bf bc 9d cb d2 3c 61 35 2f bd
       -0.023802333 -0.02333745 0.025731856 -0.042775515
000290 a3 b5 26 bd 60 d9 6a bb 21 21 41 bd 49 2c 1d 3d
       -0.040700566 -0.0035835132 -0.047150735 0.03837231
0002a0 0d 4c b9 bc 3c 49 db bc ad 77 68 3c f1 9c f0 3c
       -0.022619272 -0.02676832 0.014188689 0.02937171
0002b0 4b 13 0e 3d 3d 0a 86 3d 61 49 26 3d 8c d5 56 3d
       0.034686368 0.065449215 0.040597323 0.052449748
0002c0 aa 65 90 bc 40 18 0f 3c 3f db 06 3d 52 f7 92 3c
       -0.017626602 0.008733809 0.032923933 0.017940197
0002d0 11 ea 80 3d 8b ab e8 3a b0 1c a8 3d 87 c9 2c bd
       0.062946446 0.0017751319 0.08208597 -0.04218438
0002e0 1c 8e 32 bd fe 23 26 3c bf 3c 16 3d 64 d3 c3 bc
       -0.043592557 0.010140417 0.036679026 -0.02390451
0002f0 41 fc 95 3c 81 6f 00 3c b5 86 01 bd d1 b6 af 3d
       0.01830876 0.007839085 -0.031622607 0.08579791
000300 0d 0b be 3c 01 56 72 3d cb 52 91 ba cc 55 b8 3c
       0.023198629 0.05916405 -0.0011087296 0.022501849
000310 f9 30 4b 3d 07 b2 5c bc f7 ed be 3b 5d 7a 76 3d
       0.04960725 -0.013470179 0.0058267075 0.06017529
000320 14 a9 02 bd 7c 6f 13 ba 14 cf 9a bc 43 3a 25 3d
       -0.031899527 -0.00056242174 -0.01889757 0.040338766
000330 83 f8 41 3c 52 56 53 ba 24 7a a2 3d 29 55 4b bb
       0.011839035 -0.0008061874 0.07933453 -0.0031026101
000340 4c 00 7e 3c 28 f1 16 3d 01 b3 2e bd dc ec 04 bd
       0.0155030005 0.03685108 -0.04265118 -0.03245245
000350 fd 79 00 3d 7d 52 6a 3d 33 95 dc 3c 4c 2c 62 bd
       0.031366337 0.057207573 0.026926612 -0.055218026
000360 b7 bd 0c bd 66 f0 93 3d 70 54 e2 3b b2 b9 e9 bc
       -0.034360614 0.07223587 0.0069070384 -0.02853093
000370 9b b2 19 3d 90 ce e7 3c 87 f1 97 bc 22 39 cb bc
       0.037523847 0.028296739 -0.018547786 -0.024807516
000380 b2 77 1a 3d 02 75 77 3d 5c ba 0f 3d ad 8f 03 3d
       0.037711807 0.06041432 0.035089836 0.03211944
000390 dd 86 24 bd bb 54 78 bc a7 45 b7 3d e8 e4 41 3c
       -0.04016768 -0.01515692 0.08948832 0.011834361
0003a0 cc 84 96 38 df 3b 37 3d 2f 76 f8 bb a9 c1 4c 3d
       7.177293e-05 0.044734832 -0.007582448 0.049989376
0003b0 e0 54 28 3d 6f 52 8a 3d 08 d3 d2 bc 9a 47 53 3c
       0.041096568 0.06754004 -0.025735393 0.012895489
0003c0 f3 1e b8 bc 4f 9e 8f 3c 44 11 fb 3c fd 62 2f 3d
       -0.022475695 0.017531542 0.030647881 0.042819012
0003d0 67 26 c1 bc 10 1a 86 3d d0 0a 92 bc cf d3 64 bd
       -0.023577882 0.0654794 -0.017827421 -0.05586606
0003e0 99 e1 9f bc 8b 35 50 3d 8a 80 98 3c 85 01 b3 bc
       -0.019516753 0.050832313 0.01861598 -0.02185131
0003f0 3a 55 45 3d 89 d8 e8 bc 1b 5a 4c 3d e6 bc 88 3c
       0.04817698 -0.028423565 0.04989062 0.016691636

network.2.bias f4 [256]
000000 00 7c a3 3d 6e f2 65 3d de 37 53 bc ca 47 85 bd
       0.079826355 0.056139402 -0.012891738 -0.06507833
000010 78 79 03 bc fc 05 1e 3c 60 a1 53 bc 77 d6 35 3d
       -0.008024566 0.0096449815 -0.012916893 0.044393983
000020 cc cb 81 bb 69 94 03 3d c8 7a 3b bc 2f ee d3 bc
       -0.003961062 0.032123957 -0.011442848 -0.02587041
000030 da e8 68 3d 17 b9 85 bd f9 51 93 bc 47 40 dd bc
       0.05686269 -0.06529444 -0.017983424 -0.027008189
000040 14 17 ce 3a ed d8 2b bd 03 46 8b 3c e9 28 87 bd
       0.001572343 -0.041954923 0.017001158 -0.065996
000050 46 45 fd bc a7 03 8b 3c b4 6a ce 3c 44 1a 0a bd
       -0.030916821 0.016969515 0.025197364 -0.033716455
000060 76 66 f9 bc e8 39 62 3d 9a 94 11 3d 32 53 90 3d
       -0.030444365 0.055231005 0.035542108 0.07047118
000070 42 86 26 3d 16 ed 74 bd 34 bc 48 bc 6a d4 95 3c
       0.040655382 -0.059796415 -0.012251902 0.018289763
000080 08 7d 05 3b 79 67 a5 bc 58 4a d5 bc da 1a 21 bc
       0.0020368714 -0.020190941 -0.026036426 -0.009833062
000090 b6 6c f3 bc bc 1f 92 bc 9e da 04 3d e1 39 80 3c
       -0.029714923 -0.017837398 0.032435052 0.015652599
0000a0 ab a6 ce bc c8 1d 3e bc 5e 15 16 3d 35 25 9d 3d
       -0.025225958 -0.01160378 0.03664147 0.07673112
0000b0 99 71 67 3d 64 ec 34 3c 29 2c bb 3c 10 83 16 3d
       0.05650482 0.011042688 0.022848206 0.036746085
0000c0 ee 40 0d 3d fc 4a c6 3c f4 56 9a 3c a7 4f c4 3c
       0.03448575 0.024205677 0.01884029 0.023963762
0000d0 c4 04 6e bd e0 c7 a5 3b 95 46 3d bd 3c 2e ba bc
       -0.058110014 0.0050592273 -0.04620989 -0.022727124
0000e0 f7 30 3d bc 66 78 60 bc 1d a6 54 3d 10 ba dd bc
       -0.011547319 -0.01370058 0.05191623 -0.02706626
0000f0 a3 b2 95 3d 96 86 95 b9 62 2d 9e 3c da df 23 3d
       0.07309463 -0.0002851977 0.01930875 0.040008403
000100 6e 85 30 3d ba e7 0f bd ae e9 4c bd ac fb 6b bd
       0.043096 -0.0351331 -0.05002754 -0.05761306
000110 4c b7 10 bd 52 c4 20 3c 07 f1 82 bc 69 2f 01 bd
       -0.035331056 0.009812431 -0.015984071 -0.031539354
000120 54 be a8 3d f8 6b de bc 8d 82 0b 3d 8c 2d 0c bd
       0.08239427 -0.027151093 0.03406005 -0.034223124
000130 7a 88 5f bc 57 7d b4 bc c3 ab 71 bd a4 73 ed bc
       -0.013643378 -0.022032423 -0.059001695 -0.028985806
000140 22 51 24 bd ab 1b 72 bb 94 67 95 bc 78 fd cd 3c
       -0.040116437 -0.003694276 -0.018237866 0.025145277
000150 68 c2 05 3c 76 33 35 bd d8 9b 87 3d db 96 49 bd
       0.008164026 -0.04423853 0.06621522 -0.049216133
000160 d9 92 90 3c 36 40 80 3d d8 67 68 3d 5f 02 31 3d
       0.017648147 0.06262247 0.056739658 0.043215152
000170 90 cd f5 3c 1f c7 7e bb c9 fb 1e 3d 11 d9 4e bd
       0.030005246 -0.003887601 0.03881434 -0.05049998
000180 54 e7 24 3c 09 94 0d bd 8d ef ef bc 16 9b 57 bd
       0.010064919 -0.034565005 -0.029289031 -0.052638136
000190 ae 6b 23 bd 19 19 4f bd 75 af ce 3a a5 62 b7 3b
       -0.039897613 -0.050561044 0.0015768843 0.005596476
0001a0 d6 d1 60 3b 38 d3 26 3d c1 1b f0 bc 63 0b 86 bd
       0.003430476 0.040728778 -0.02931011 -0.065451406
0001b0 47 42 e3 3c 64 f4 fd bb 45 36 9a 3d 4f d5 62 bc
       0.027741564 -0.007750081 0.07529882 -0.013844802
0001c0 f0 05 5b bd c5 0f 89 3d 1d 59 d9 3c 74 6b 6b bd
       -0.05347246 0.06692461 0.02653175 -0.057475522
0001d0 94 41 2e bd d0 59 8c 3d e9 c0 0e bd 6b 2a e5 3c
       -0.04254301 0.06853068 -0.034851942 0.027974328
0001e0 46 3e 0a 3d 40 69 f9 bc 8a 78 39 3d 0a 70 40 bd
       0.033750795 -0.030445695 0.04528097 -0.04698185
0001f0 c7 16 22 3a 68 09 5b bc 2e a9 c6 3c 2f 6e 7a 3d
       0.00061832037 -0.013368942 0.024250593 0.061140236
000200 d6 1a 86 3d c0 27 19 bd 7c bb 52 3d 18 d6 0e 3d
       0.06548087 -0.037391424 0.05144833 0.034872144
000210 9a 7e 58 bd 6e 8b 07 bd 0d a6 03 bd 61 90 b2 3c
       -0.05285511 -0.033091955 -0.03214078 0.02179736
000220 23 d7 7c bd e2 b1 27 3c 70 08 17 bd 87 e4 e9 bc
       -0.061728608 0.010235282 -0.03687328 -0.028551353
000230 81 b7 3b 3d 78 15 1a bd eb c1 03 3d 24 fb 23 bd
       0.0458293 -0.03761813 0.032167356 -0.04003443
000240 34 a0 62 3d 51 bc ed 3c 82 b4 d4 3c 16 d4 39 bd
       0.055328563 0.02902046 0.02596498 -0.045368277
000250 c8 bd 52 bd 63 42 0a bd 96 3c 86 bb c0 5e 1a 3b
       -0.05145052 -0.033754718 -0.004096578 0.002355501
000260 47 a5 f2 3c 8e a1 01 3d 3d 4a bb bc bf ae 50 3c
       0.029619826 0.03164821 -0.022862548 0.012736975
000270 0b 64 88 3d 87 39 10 bd 35 4e c0 3c 9e 18 ce bb
       0.06659707 -0.035211112 0.023474792 -0.0062895557
000280 5a 17 53 3d b0 45 93 3b 71 cf db bc b4 df 14 bd
       0.05153594 0.0044943914 -0.026832314 -0.036346152
000290 35 d0 6f 3d 5a 09 6c bd a0 c1 0f bc 43 12 29 bd
       0.05854817 -0.057626106 -0.008774191 -0.04127718
0002a0 72 35 27 3d 08 38 46 3d 38 94 50 bc 30 17 66 3d
       0.040822454 0.04839328 -0.012730651 0.056174457
0002b0 94 c8 87 bd cc 17 f2 3c 91 95 2c 3d a2 1c 0a bd
       -0.06630054 0.029552363 0.042134825 -0.033718713
0002c0 47 0c 3b bc 48 0a 82 3c c0 6a 76 3c b0 c8 50 bc
       -0.011416501 0.015874043 0.0150401 -0.01274316
0002d0 a9 70 d7 bb f7 c3 5e 3d 57 c9 73 bd 81 7c 58 3d
       -0.0065747094 0.054386105 -0.059518185 0.05285311
0002e0 f1 55 9e 3d 24 1a 2c bc c4 59 78 bd b8 19 d6 3c
       0.07731236 -0.010504279 -0.060632482 0.02613531
0002f0 35 77 c0 3c 0e 29 e5 bc 1d cc b6 3c ff cd 96 3a
       0.023494342 -0.027973678 0.022314126 0.0011505483
000300 14 2b c1 3c bc 1d c9 3c fa b7 7f bd 2a 20 0b 3d
       0.023580112 0.024550311 -0.062431313 0.03396622
000310 f6 60 45 bd 53 dd eb 3c b0 39 6b bc ce bf 4c bc
       -0.048188172 0.028792059 -0.0143570155 -0.012496902
000320 ff 77 4c 3d 30 6b 32 3c ac 28 fd 3c 4c cb c4 3b
       0.049919125 0.010889813 0.030903183 0.00600568
000330 44 ee 66 39 15 c0 25 3a dd 70 3d 3d fe f0 88 bc
       0.0002202327 0.0006322873 0.046250213 -0.016716477
000340 e5 c0 a8 bc 30 95 46 3d 04 e5 e6 3c 2e 13 fe bc
       -0.020599792 0.04848212 0.028185375 -0.031015005
000350 5f c3 f5 bb 1d b3 31 3d ec 95 62 3d fb 52 3b 3d
       -0.0075000967 0.043383706 0.055318758 0.045733433
000360 be 74 0b 3d 58 2c c7 bc 57 60 36 3d 34 0a 56 bc
       0.03404688 -0.024313137 0.04452547 -0.013063956
000370 84 a1 38 3d 5a 44 17 bd 4e b6 1c 3d 4a 50 41 bd
       0.04507591 -0.03693042 0.038259797 -0.04719571
000380 b2 16 e1 3b 50 dd 33 3c b6 4a 6b bd 33 cd 60 bd
       0.0068691606 0.010978058 -0.057444297 -0.054883193
000390 63 57 02 bd 7b 27 bb bc 20 c3 df 3b f1 5f 63 3d
       -0.03182162 -0.022845974 0.0068286806 0.05551142
0003a0 7b 63 63 bd 70 06 b9 bb ed 57 3c bc a9 a6 7d 3a
       -0.055514794 -0.0056465194 -0.0114955725 0.00096760184
0003b0 d6 c8 f5 bc 40 b8 6b bb a4 c1 a7 bc e0 81 39 bd
       -0.030002993 -0.0035967976 -0.020478077 -0.045289874
0003c0 0d ce 75 bd 49 84 e9 bc ac e4 48 3d 1f 7c 13 3d
       -0.06001096 -0.028505461 0.049046203 0.036007043
0003d0 34 ba 55 bd eb 24 38 3d a9 92 85 bc b0 0f 8e 3d
       -0.05217953 0.044957083 -0.016305285 0.06936586
0003e0 18 13 69 bd 01 c2 16 3d 3b 1b 95 3c 62 a5 1d 3d
       -0.056902975 0.03680611 0.018201461 0.0384878
0003f0 89 c7 44 3d eb 6b f0 39 09 fc cc 3b b4 dc 42 bb
       0.048041854 0.00045856772 0.006255631 -0.00297336

network.4.weight f4 [8, 256]
000000 59 b4 1b bb d3 91 4a 3c 77 b1 02 3d 81 32 99 3c
       -0.0023758619 0.012363869 0.031907525 0.01870084
000010 18 5f 42 bd 05 25 75 3d c0 17 24 3c 15 7e 19 bc
       -0.04745397 0.059849758 0.010015428 -0.009368439
000020 9c 2a cb 3c 4f de 11 bd ce b5 50 3d 45 a4 c4 3c
       0.024800591 -0.0356124 0.050954632 0.024004111
000030 99 63 ce 3c 26 6a 55 3d 7e 0a 31 3d c1 ea 72 bd
       0.025193976 0.052103184 0.043222897 -0.05930591
000040 48 a2 30 3c eb 51 26 3c 46 c8 90 bc 19 e8 cc 3c
       0.010780878 0.010151367 -0.017673623 0.025013017
000050 8e fc 17 3d 33 ab 67 bb e3 6b 5f 3d 20 c3 24 3d
       0.03710609 -0.0035349845 0.05454625 0.04022515
000060 d4 aa 1d bd 16 3d c4 bc 90 15 96 3b 8d ac 65 3d
       -0.038492993 -0.02395491 0.004580207 0.05607276
000070 c5 be 49 bd 92 fd 41 bd 2d 4d 3b 3b a4 9a 19 3d
       -0.049254198 -0.047360964 0.0028579936 0.037500992
000080 d3 2c d3 bc 6d 6a f4 bc 7a 34 4c 3d 66 d5 3b 3c
       -0.02577821 -0.029835904 0.049854733 0.011464452
000090 48 d6 f5 bc 6e 56 1c bd d8 68 89 3c 71 04 6a 3b
       -0.030009404 -0.038168363 0.016773626 0.0035708214
0000a0 75 d8 48 bd 7b e1 52 3d d0 83 84 3d 38 63 8f 38
       -0.049034555 0.051484566 0.06470454 6.837252e-05
0000b0 e4 34 4a 3d be 9a d4 3a 61 28 f1 bc 30 3e 61 bc
       0.049366847 0.0016220433 -0.0294382 -0.013747737
0000c0 20 67 da bc 48 54 5d 3c 10 31 ff bc a9 a4 0c bd
       -0.026660502 0.013508864 -0.031151325 -0.03433672
0000d0 0e bd 21 3d d0 36 06 3d 81 9d 57 3d 90 cc 0f bd
       0.039486937 0.032767117 0.05264044 -0.035107195
0000e0 96 a4 32 3d 24 c7 4b 3d 71 bd 16 bd c3 90 1f bd
       0.043613993 0.049750462 -0.03680176 -0.038956415
0000f0 fd 43 31 3d 15 dd 0b 3d 9a 36 5d bd bd f8 3d 3c
       0.04327773 0.034146387 -0.05400715 0.011594948
000100 a0 49 98 bc e0 44 2b 3d 82 cc d4 3c a9 8b 52 bd
       -0.018589795 0.04181373 0.025976423 -0.05140272
000110 d5 cc cd 3c c7 8a 67 bd 84 23 d8 3c d9 df fe bc
       0.025122086 -0.056528833 0.026384123 -0.031112598
000120 9e c1 44 bd cd 50 e8 3c 53 00 d7 bb ee c5 bf 3c
       -0.04803621 0.028358841 -0.006561318 0.02340981
000130 1d 59 ca 3c 43 b4 97 3c ac ae 0d 3d 40 97 e5 ba
       0.024700696 0.018518573 0.03459041 -0.001751639
000140 d1 cc 29 3c c9 ba 6a 3c b5 04 58 3c a3 cd cc 3c
       0.010363773 0.01432676 0.013184716 0.025000399
000150 80 58 cb bb c0 e4 f6 bb 53 31 1d bd 4e e0 57 3c
       -0.0062056184 -0.0075345933 -0.038377117 0.013176037
000160 c3 92 27 bd 77 33 46 3d bd 90 16 3d dd 98 a2 39
       -0.040911447 0.048388924 0.036759127 0.0003101294
000170 3f 25 b8 3c 05 72 57 3d 68 38 b7 3c e9 2f 58 bd
       0.022478698 0.052598972 0.022365764 -0.052780066
000180 bd 0d f5 bc 2a 1f 3c 3d ce 10 41 bd 59 a3 a2 3c
       -0.029913777 0.045928158 -0.047135167 0.01985328
000190 e8 7a ca 3c ab 61 d7 bc 3c b0 5b bd 31 41 0a 3d
       0.02471681 -0.026291689 -0.053634867 0.033753578
0001a0 ba b0 67 bc ee 23 4e bd 7e db 1b bd 12 ed 2c 3d
       -0.014141256 -0.050327234 -0.03805112 0.042218275
0001b0 9e ec 48 bd 3b 8f 9e 3c 87 e9 ce 3c be 85 42 bc
       -0.04905378 0.019355407 0.025257839 -0.011872707
0001c0 03 23 5e bd 77 51 3f bc d7 71 3b 3d 0a 57 54 bd
       -0.05423261 -0.011677138 0.045762863 -0.05184082
0001d0 2c 0f d3 3c 25 b3 73 bc c7 f7 10 3d 89 44 2c bd
       0.02576407 -0.014874254 0.03539255 -0.042057548
0001e0 34 49 30 3d 7b 49 6d bd ff 68 2f 3d 4a 65 18 bd
       0.043038562 -0.057931405 0.04282474 -0.03720597
0001f0 1d 22 55 3c 46 2d 7e 3c 57 2d 25 3d dc 01 55 3d
       0.0130086215 0.015513724 0.040326443 0.052003726
000200 98 fc 05 3c 8c 35 f3 bc 2f 0c 29 bd 6a ca c2 bc
       0.008177899 -0.02968862 -0.041271385 -0.02377816
000210 b4 5e d6 bc 69 68 ee 3c 74 c9 a1 bc 8d 71 ec 3c
       -0.026168205 0.029102521 -0.01974938 0.028862739
000220 d6 5b 80 bb 6d a3 6b 3d 13 aa be 3c 21 6f 92 3b
       -0.0039171977 0.0575289 0.023274457 0.004468814
000230 1f fd 94 3c 1e 48 59 bd 5c 6b e8 bc b8 74 ca 3c
       0.018187104 -0.053047292 -0.028371505 0.024713859
000240 bc 41 bf bb 50 c7 25 ba 09 09 05 3d ab 99 28 3c
       -0.0058366936 -0.00063239504 0.03247932 0.010290544
000250 b7 e2 8c 3c da 8e 4b bd d5 80 84 3b 2c de 08 3d
       0.01719795 -0.04969678 0.0040436783 0.033415005
000260 51 f5 cc 3c d9 67 e0 3c 0e 59 fe bc 80 48 74 bd
       0.02501932 0.027393268 -0.031048324 -0.059639454
000270 92 e1 20 3d af fa 6c 3c af 79 46 bd b2 ec b5 3c
       0.03927762 0.0144640645 -0.04845589 0.022207592
000280 58 c8 58 3d 88 e7 f9 bc 24 17 21 bc f4 ef 31 3c
       0.052925438 -0.03050591 -0.009832177 0.010860432
000290 10 5c 5f 3c a4 ef 8c 3c 08 75 42 bc 7a 90 da bc
       0.013632789 0.017204113 -0.011868723 -0.02668022
0002a0 8e c6 66 bd 6b 58 b9 3c c6 6c 24 3d 70 88 ee bb
       -0.0563417 0.022625169 0.040142797 -0.007279448
0002b0 e0 2d 18 3d e4 cf a5 3c 26 3d 05 bb 9b 04 60 bd
       0.037153125 0.020240732 -0.0020330637 -0.054691892
0002c0 71 d1 83 3b 0a 93 46 bc 1a b4 5f bc 06 ee 16 3d
       0.00402277 -0.012120018 -0.013653779 0.03684809
0002d0 5c 43 cf bc d5 34 96 3c 29 72 53 bd 7c 97 1a 3b
       -0.025300674 0.01833574 -0.051622543 0.0023588827
0002e0 34 8b 27 3d 79 57 b8 3c 6e 6c 76 3d 34 5e 63 bd
       0.04090424 0.022502648 0.060162 -0.05550976
0002f0 c9 42 1f 3d a4 66 68 bd 4a ae a0 3c 95 35 d3 3c
       0.03888205 -0.05673851 0.019614358 0.025782386
000300 9a 91 7a 3d a6 c6 4b 3d a0 7c a3 bc 06 bb 97 bb
       0.061174013 0.049749993 -0.019956887 -0.004630449
000310 9c bb 2a 3d 3b 66 f4 bc 70 35 90 3c 32 49 c4 bc
       0.041682824 -0.029833904 0.017603606 -0.023960683
000320 5a 8c 1f 3d c0 68 98 bc 7c bd 26 bd 3d 88 67 bd
       0.03895221 -0.018604636 -0.04070805 -0.05652641
000330 ec 16 46 3c 4b b0 6c 3d c7 ea 1f 3d 08 98 3e 3d
       0.012090426 0.057785314 0.03904226 0.046531707
000340 69 23 8d 3c 43 f1 ba 3c 2f fd 17 3d a4 27 bd bc
       0.017228799 0.02282012 0.03710669 -0.023090191
000350 ba c4 47 3c 30 86 74 3d d1 7c f3 3c 37 3f 0f 3d
       0.012192899 0.059698284 0.029722603 0.034972396
000360 66 76 3b bd ae 2c 59 3d 0d 9d 4b 3d ba ff 0d bd
       -0.04576721 0.053021125 0.049710322 -0.034667708
000370 6f d0 63 3d 8c 10 00 3d 17 76 f8 3c 0b 41 ec ba
       0.0556187 0.03126578 0.030329747 -0.0018024755
000380 22 8a ba 3b b8 cd b4 bc bb 68 fa 3c 68 02 ae bc
       0.0056927362 -0.02207075 0.030567518 -0.021241382
000390 b3 e1 2f 3d 33 ba aa b9 e4 13 3b 3d 37 a8 4f 3d
       0.042939853 -0.00032563656 0.045673266 0.05069753
0003a0 6e 32 a5 bc 20 40 39 3d 50 01 0b bd 00 cf ef bc
       -0.020165648 0.04522717 -0.0339368 -0.02927351
0003b0 02 72 3b 3d 1c b0 0d 3d c0 4a 24 3d 41 ea 17 bc
       0.045763023 0.03459178 0.04011035 -0.009272159
0003c0 5a 73 91 bc e6 d2 46 3c 68 4e 20 bd 28 52 3b bd
       -0.0177552 0.012135243 -0.039137274 -0.045732647
0003d0 3e 51 6d 3d f9 e7 57 bb d3 7b 64 3d f7 ac c0 bb
       0.057938807 -0.0032944663 0.05578215 -0.005879994
0003e0 c8 ff 0f 3c 48 72 5e bb 4b 31 55 3d 37 f6 3e bd
       0.00878901 -0.0033942629 0.052048963 -0.046621528
0003f0 28 4c fa ba 0f 49 08 3c f9 f1 5c 3d 40 75 84 bd
       -0.0019096183 0.0083182 0.0539417 -0.06467676

network.4.bias f4 [8]
000000 74 e4 55 3c 05 64 a7 bc d2 3e 1b 3b 98 2a 85 3d
       0.013054956 -0.020433435 0.0023688567 0.06502265
000010 f0 75 bd 3c 30 9c 61 bd 1f ba b0 bc f2 cd 93 bd
       0.023127526 -0.055080593 -0.021573124 -0.07217015

exp_avg f4 [256, 26]
000000 0d 26 85 3a a0 b3 eb b8 1d b2 46 3b cc b2 21 3a
       0.0010158435 -0.00011239131 0.0030318566 0.00061683054
000010 5c 04 11 ba ef 35 e7 bc ca fb f0 bc 3c 60 dd bc
       -0.00055319606 -0.02822396 -0.029416937 -0.027023427
000020 be bc d2 bc a0 d8 de bc 98 8c af bc 68 c5 c6 bc
       -0.025724765 -0.027202904 -0.021429345 -0.024264053
000030 dd 50 93 bc 48 a9 ca bc a2 b1 d5 bc 3d 3a 10 bd
       -0.017982895 -0.024738923 -0.026085678 -0.03521179
000040 8c cf f7 bc 76 35 ad bc 3f 8d f4 bc 52 6f 5b bb
       -0.030250333 -0.021143656 -0.029852508 -0.00334831
000050 c5 e6 ef bc 0d 36 82 bc a8 a5 82 bc d7 2d 06 bc
       -0.029284844 -0.015894914 -0.015948132 -0.00818964
000060 1f c4 8e bc 37 93 89 bc 00 00 00 00 f4 0a 27 2f
       -0.017427502 -0.01679383 0.0 1.5192453e-10
000070 c6 91 7e 33 00 00 00 00 00 00 00 00 cb c8 dd b3
       5.9271564e-08 0.0 0.0 -1.03276385e-07
000080 30 da f2 b3 73 94 12 36 d2 c2 7a b3 d1 07 c9 b3
       -1.1308691e-07 2.1842104e-06 -5.838485e-08 -9.361214e-08
000090 fd 43 e6 34 16 c2 9e 34 00 00 00 00 7b c7 cd 35
       4.2890306e-07 2.957101e-07 0.0 1.5331747e-06
0000a0 ac 0f c4 35 44 78 01 36 70 63 ff 34 19 d2 da 35
       1.4607699e-06 1.9292502e-06 4.7569802e-07 1.6303412e-06
0000b0 0c 36 5c 34 78 89 18 b4 d7 62 22 35 72 15 33 35
       2.0508759e-07 -1.4206114e-07 6.0493534e-07 6.6713903e-07
0000c0 3a 72 0e 35 09 69 6d 34 75 17 75 35 c4 2b 5a 35
       5.3065344e-07 2.2110557e-07 9.1303747e-07 8.1275016e-07
0000d0 00 00 00 00 00 00 00 00 64 9c 30 35 00 00 00 00
       0.0 0.0 6.579269e-07 0.0
0000e0 00 00 00 00 bc df 82 23 24 9f cb 23 b1 8a 52 36
       0.0 1.4189383e-17 2.2076703e-17 3.1373168e-06
0000f0 00 00 00 00 00 00 00 00 25 d6 1c 37 36 21 41 36
       0.0 0.0 9.348184e-06 2.8778572e-06
000100 00 00 00 00 fe 73 ef 36 6c 7c 22 37 92 9c 68 36
       0.0 7.1362583e-06 9.684922e-06 3.466183e-06
000110 5c 6a 4c 37 dc 3e 4d 36 64 27 87 36 7b 6c 07 37
       1.2184111e-05 3.058397e-06 4.027899e-06 8.071885e-06
000120 61 30 29 37 b9 09 ab 36 da 96 a5 36 b3 fd 09 36
       1.0084449e-05 5.097329e-06 4.9349446e-06 2.0562263e-06
000130 b9 09 ab 36 b9 09 ab 36 00 00 00 00 00 00 00 00
       5.097329e-06 5.097329e-06 0.0 0.0
000140 50 c9 7e 20 00 00 00 00 00 00 00 00 00 00 00 00
       2.1581246e-19 0.0 0.0 0.0
000150 00 00 00 00 6e 0a d0 21 00 00 00 00 00 00 00 00
       0.0 1.4097389e-18 0.0 0.0
000160 06 d2 b8 22 a2 08 71 21 00 00 00 00 58 a3 a5 22
       5.009567e-18 8.16654e-19 0.0 4.4896287e-18
000170 62 d2 14 22 02 70 21 a0 ff 09 96 22 72 fc e5 22
       2.0169116e-18 -1.3674291e-19 4.0668165e-18 6.233786e-18
000180 68 fe 03 23 85 35 8b 22 92 99 3c 22 35 a0 6c 22
       7.155397e-18 3.773269e-18 2.556005e-18 3.2068777e-18
000190 0b e5 2a 22 88 69 8e 21 35 a0 6c 22 35 a0 6c 22
       2.316055e-18 9.650228e-19 3.2068777e-18 3.2068777e-18
0001a0 37 24 28 3b ea db 8c 3b 8a 15 97 3b e1 c6 47 3b
       0.0025656351 0.0042986767 0.004610722 0.0030483531
0001b0 3c b7 b0 3b 83 75 87 ba eb e2 3a bb e8 4c c2 bb
       0.005392937 -0.0010334704 -0.0028516601 -0.005929578
0001c0 2d b5 0e 3a ab d4 bd ba f8 6f e0 b8 8f b8 ac bb
       0.00054438674 -0.0014482936 -0.00010702008 -0.0052710245
0001d0 bf 5e 72 3b e3 80 75 bb 26 6c 75 ba 8c a7 86 3a
       0.0036982743 -0.0037460856 -0.00093621237 0.0010273322
0001e0 a5 07 83 bb 2e 3a 2c 3a 30 85 92 bb 77 df bd 3a
       -0.003998714 0.0006569949 -0.0044714436 0.0014486153
0001f0 a0 e2 23 bb 29 70 13 bb 4e f7 ec ba ff 52 8c ba
       -0.0025006905 -0.0022497273 -0.0018079074 -0.0010705887
000200 71 07 49 bb 4f d7 45 bb 13 97 0d ad 0b cc 1b b6
       -0.0030674601 -0.0030188148 -8.048467e-12 -2.3215568e-06
000210 c5 f0 7a b6 e2 7a a4 ac 12 e0 df ac 8c 0a 51 b6
       -3.739305e-06 -4.674803e-12 -6.362918e-12 -3.1149566e-06
000220 84 84 de b7 79 e1 da b8 0c 00 ef b5 9d 58 2c b6
       -2.652617e-05 -0.000104370476 -1.7806901e-06 -2.5681577e-06
000230 f4 b9 32 b7 c5 b1 b8 b8 3c ce 0f ad ad a9 aa b8
       -1.0652922e-05 -8.806916e-05 -8.174402e-12 -8.137836e-05
000240 bd 0c 4c b8 2e 2e e2 b8 2b 52 1e b9 1b 11 94 b8
       -4.8649254e-05 -0.000107851214 -0.00015098664 -7.060376e-05
000250 37 52 00 b9 bc 28 fe b8 11 c4 49 b9 0c 39 34 b8
       -0.00012237659 -0.00012119251 -0.00019241894 -4.2968473e-05
000260 a0 2d 10 b8 0e 4c 70 b7 49 48 70 b8 96 43 58 b8
       -3.4374767e-05 -1.4322823e-05 -5.728778e-05 -5.1561357e-05
000270 26 50 cd bb 0d 62 30 bc 76 a3 b1 bb 14 bf e1 bb
       -0.006265658 -0.010765565 -0.0054210974 -0.0068892334
000280 1e 58 57 bc 00 65 2e bd 63 f6 0c bd 64 b2 0c bd
       -0.013143567 -0.04257679 -0.03441466 -0.034349814
000290 48 79 1e bd a1 61 16 bd e0 1d ef bc 0d 0d 98 bc
       -0.03868988 -0.0367142 -0.02918905 -0.01856091
0002a0 da 12 da bc 45 ed 08 bd a4 8c 44 bd 0d a0 3f bd
       -0.026620317 -0.033429403 -0.047985688 -0.046783496
0002b0 1c ed 39 bd 4a 87 07 bd 13 ff a8 bc 82 10 26 bc
       -0.04539214 -0.033088006 -0.020629441 -0.010135772
0002c0 83 c4 43 bd d2 25 a7 bc 08 fd 93 bc cc f1 0e bc
       -0.04779483 -0.020403776 -0.01806499 -0.008724641
0002d0 22 47 c0 bc ae ae ba bc 36 ba cc bb f0 99 0c bc
       -0.023471419 -0.022788372 -0.006247784 -0.008581623
0002e0 71 4b 96 bb 2c 72 b9 bb 26 6d 13 bc 92 d8 ff bc
       -0.00458663 -0.0056593623 -0.008998191 -0.031231198
0002f0 81 80 de bc 73 03 b0 bc 7e 7a e4 bc 86 fa ea bc
       -0.027160885 -0.02148602 -0.02789044 -0.028683912
000300 29 95 40 bc 5f 2f 35 bc d8 97 bd bc 05 e0 90 bc
       -0.011754313 -0.011058657 -0.023143694 -0.017684946
000310 5c d9 c9 bc 5f 91 00 bd 8a 61 ca bc e4 34 bb bc
       -0.024639778 -0.031388637 -0.024704713 -0.022852369
000320 b5 df 2b bc 61 be ba bb d0 03 d8 bc d1 33 25 bc
       -0.010490348 -0.0056989645 -0.026369005 -0.010083155
000330 8c b8 0b bc 07 ff 8b bb 33 21 4b bc 96 18 41 bc
       -0.008527886 -0.004272345 -0.012398052 -0.011785647
000340 1c 73 b0 b9 bc d7 b4 b9 49 8a b3 b7 7a af 1b ba
       -0.000336551 -0.0003449301 -2.1402857e-05 -0.0005938929
000350 98 3a 6d ba 4b 80 4a bb 0d 80 ba bb 7d 8b ad b9
       -0.00090495637 -0.0030899222 -0.0056915344 -0.00033101058
000360 2e da 44 bb f7 81 bd bb 2b 5d 56 3c fd 8f 0a 3c
       -0.0030037272 -0.0057833153 0.013083736 0.008457181
000370 ac 81 52 bb ac 84 fc 3b df a0 76 3c 04 33 c5 bb
       -0.0032120747 0.0077062454 0.015053003 -0.0060180444
000380 f0 20 d7 3b bc 9b 47 3c b5 a7 ae 3b 85 43 10 3c
       0.0065652058 0.012183126 0.005330051 0.00880516
000390 d0 4d 86 3b bf 3b be 3b 93 53 c6 3b 01 b2 75 3b
       0.0040986314 0.005805462 0.0060524433 0.0037490132
0003a0 fc 79 b2 3b 1a 37 b5 3b 00 00 00 00 00 00 00 00
       0.0054466706 0.0055302503 0.0 0.0
0003b0 00 00 00 00 00 00 00 00 00 00 00 00 00 00 00 00
       0.0 0.0 0.0 0.0
0003c0 00 00 00 00 00 00 00 00 00 00 00 00 00 00 00 00
       0.0 0.0 0.0 0.0
0003d0 00 00 00 00 00 00 00 00 00 00 00 00 00 00 00 00
       0.0 0.0 0.0 0.0
0003e0 00 00 00 00 00 00 00 00 00 00 00 00 00 00 00 00
       0.0 0.0 0.0 0.0
0003f0 00 00 00 00 00 00 00 00 00 00 00 00 00 00 00 00
       0.0 0.0 0.0 0.0

exp_avg_sq f4 [256, 26]
000000 e6 0e 12 3a a8 e1 d8 39 55 51 d9 39 12 61 d4 39
       0.0005571678 0.00041366857 0.00041450062 0.00040508114
000010 ed a2 c0 39 4a a5 e1 3a e5 db e6 3a 3f 22 57 3b
       0.00036742483 0.0017215398 0.0017613141 0.0032826809
000020 63 32 ca 3a 12 f1 d5 3a e2 d1 ef 3a 81 c9 0c 3b
       0.0015426393 0.0016322455 0.0018296803 0.002148241
000030 c8 ba 37 3a 79 3b 38 3b 1a 9b 8a 3b d7 3c 0b 3b
       0.00070087286 0.002811162 0.0042299153 0.002124598
000040 de dc 6b 3b bf 66 70 3b 4c f6 8c 3b 7c 42 74 3b
       0.0035989801 0.0036682335 0.004301822 0.0037271073
000050 d4 d5 85 3b b1 98 a9 3a 28 12 8e 3a bb af 6b 39
       0.004084328 0.0012939182 0.0010839151 0.00022476811
000060 c5 15 b9 3a c5 51 b6 3a 00 00 00 00 55 82 90 30
       0.0014120868 0.0013909867 0.0 1.0514422e-09
000070 77 1c 88 33 00 00 00 00 00 00 00 00 c0 10 c1 32
       6.338171e-08 0.0 0.0 2.2475774e-08
000080 56 6f 23 33 d6 83 76 36 ac 50 62 32 ed 0f 9d 32
       3.8052654e-08 3.6733595e-06 1.3173274e-08 1.8284448e-08
000090 d9 c8 31 36 04 39 21 36 00 00 00 00 b0 9f c1 36
       2.6491964e-06 2.4024057e-06 0.0 5.7704383e-06
0000a0 5e a3 06 37 2a f5 1e 36 d4 52 5d 36 72 d6 61 37
       8.025059e-06 2.368654e-06 3.2979779e-06 1.34609745e-05
0000b0 d9 7b b3 36 cc 77 96 36 2a 0d 30 36 6d f2 13 36
       5.3490335e-06 4.4842945e-06 2.6233706e-06 2.2045817e-06
0000c0 d1 e3 e2 35 21 77 9b 34 bc c8 31 36 b2 64 2a 36
       1.6904615e-06 2.8957678e-07 2.6491898e-06 2.5390586e-06
0000d0 00 00 00 00 00 00 00 00 68 8c 59 32 00 00 00 00
       0.0 0.0 1.2662987e-08 0.0
0000e0 00 00 00 00 91 15 41 2c 14 c8 e9 2c 49 06 73 35
       0.0 2.7438921e-12 6.6444714e-12 9.05337e-07
0000f0 00 00 00 00 00 00 00 00 d0 ae 9d 36 34 9f 97 35
       0.0 0.0 4.6993155e-06 1.1296711e-06
000100 00 00 00 00 2d 4a 48 36 ea 74 8b 36 fd 2b 34 34
       0.0 2.9845498e-06 4.1561334e-06 1.6779809e-07
000110 f9 35 dd 36 cf 53 7d 35 26 a4 35 35 e8 74 74 36
       6.5925965e-06 9.43718e-07 6.766662e-07 3.6426882e-06
000120 9c 39 be 36 74 36 c7 35 5a 27 c8 35 00 3c a4 34
       5.669148e-06 1.4842503e-06 1.4912614e-06 3.0591036e-07
000130 97 60 cc 35 97 60 cc 35 00 00 00 00 00 00 00 00
       1.5227296e-06 1.5227296e-06 0.0 0.0
000140 94 21 01 2c 00 00 00 00 00 00 00 00 00 00 00 00
       1.8350642e-12 0.0 0.0 0.0
000150 00 00 00 00 57 30 ac 2e 00 00 00 00 00 00 00 00
       0.0 7.830241e-11 0.0 0.0
000160 87 e5 87 30 87 22 e7 2d 00 00 00 00 94 4d 5a 30
       9.887778e-10 2.6276993e-11 0.0 7.9418183e-10
000170 0a 3a 30 2f e1 5e 4f 2b 11 1f 33 30 a1 6e d2 30
       1.6027726e-10 7.3672844e-13 6.516397e-10 1.5310954e-09
000180 65 a0 0a 31 4d 32 1a 30 e6 82 8d 2f 13 c2 de 2f
       2.0172817e-09 5.6096355e-10 2.574076e-10 4.0519463e-10
000190 0b 61 68 2f c6 5f 21 2e 13 c2 de 2f 13 c2 de 2f
       2.1134754e-10 3.6692226e-11 4.0519463e-10 4.0519463e-10
0001a0 ce 29 fa 38 d6 16 9b 38 a5 e3 15 39 4f 64 db 38
       0.00011928716 7.3952295e-05 0.00014294552 0.00010461418
0001b0 97 c2 1a 39 4a a7 e7 39 58 6c eb 39 64 91 ed 3a
       0.00014759075 0.00044184393 0.00044903415 0.0018124995
0001c0 a2 30 da 39 e6 12 de 39 73 05 63 3a 31 a0 9a 3a
       0.00041616434 0.0004235722 0.0008660175 0.0011797008
0001d0 73 f7 70 39 f7 ae d2 3a e9 c0 f5 3a ba 7e 6b 3a
       0.00022980366 0.0016073872 0.0018749508 0.00089834223
0001e0 7f fe 1c 3b 38 06 01 3b ab af 15 3b e0 3e 27 3b
       0.0023955402 0.0019687545 0.0022840302 0.0025519654
0001f0 5f ad c4 3a aa 71 37 3a fa b3 18 3a 08 0e e7 38
       0.0015005282 0.0006997833 0.00058251584 0.00011017552
000200 9d d3 4d 3a d1 63 48 3a 38 84 d6 35 7c 5c c6 35
       0.0007851662 0.00076442683 1.5982723e-06 1.4779066e-06
000210 8b 6e 3b 36 2e df 07 36 88 58 68 36 7e 47 8b 36
       2.7929516e-06 2.0246475e-06 3.4622226e-06 4.1508456e-06
000220 e2 7c 8c 36 55 e6 2f 37 90 ab ab 36 f6 b2 bf 36
       4.1868634e-06 1.0484441e-05 5.1161696e-06 5.7130774e-06
000230 ac 88 cc 35 df 6f c8 36 22 e0 50 36 c5 f3 4b 37
       1.5238961e-06 5.973488e-06 3.1124878e-06 1.21565e-05
000240 0e b9 46 37 63 f4 3f 37 ef cc a2 37 e5 2c 38 37
       1.1844806e-05 1.1441388e-05 1.9407335e-05 1.09777075e-05
000250 ea 69 8d 37 d4 71 e1 37 b3 33 63 37 3d d4 45 36
       1.685783e-05 2.6875096e-05 1.35422915e-05 2.9478826e-06
000260 05 5d 15 36 e8 de d2 34 f7 74 84 36 47 da 6b 36
       2.2256875e-06 3.9277734e-07 3.947523e-06 3.5144783e-06
000270 88 7b 6a 3a c7 1e 39 3a 5c 8b 33 3a e4 80 52 3a
       0.0008944799 0.0007061776 0.0006849074 0.00080300705
000280 35 0c 27 3a 7d 13 32 3b 65 ba 41 3b 5e 04 df 3b
       0.00063723634 0.002717226 0.0029560563 0.0068059405
000290 5e 11 1d 3b cf 48 2d 3b f8 2d 83 3b 48 eb 88 3b
       0.002396665 0.0026441102 0.0040032826 0.0041784383
0002a0 26 1a 8b 3a 88 a6 bf 3b d4 a7 0e 3c ee bf 70 3b
       0.0010612651 0.0058487095 0.0087070055 0.0036735493
0002b0 1e 90 e8 3b 7e 80 f8 3b 3e 12 ee 3b e1 70 00 3c
       0.007097258 0.007583677 0.007265358 0.007839412
0002c0 9f 31 f0 3b 51 7c 29 3b 26 47 10 3b c9 42 f3 39
       0.007330134 0.0025861452 0.0022015064 0.0004639833
0002d0 1c 10 3b 3b f7 43 36 3b ba d6 18 3a e6 8e 03 3a
       0.0028543537 0.0027811506 0.00058303366 0.0005018547
0002e0 b6 09 06 3a da 42 10 3a bd 34 f4 39 c2 04 f3 3a
       0.00051131414 0.0005503126 0.000465786 0.0018540847
0002f0 fd 45 08 3b 33 ea 9b 3b 78 1e da 3a 2b 53 f8 3a
       0.002079367 0.0047581433 0.001664116 0.0018945684
000300 fc cb 36 3b 32 ff 3d 3b 05 fd 4d 3a 59 92 86 3b
       0.002789258 0.002899122 0.0007857832 0.0041068015
000310 15 7d c6 3b ff 3b 32 3b c3 d5 a7 3b 86 16 b3 3b
       0.0060573914 0.0027196405 0.005121918 0.0054653315
000320 7e c9 a7 3b 7f 62 af 3b 2e b4 9d 3b ca ee f2 3a
       0.0051204553 0.005352318 0.004812739 0.00185343
000330 66 77 cc 3a b2 11 a7 39 f8 09 05 3b 62 45 02 3b
       0.0015599548 0.00031865906 0.0020300131 0.001987778
000340 45 a0 dc 34 a0 30 4b 35 99 e5 7c 36 a2 04 40 35
       4.1094805e-07 7.569415e-07 3.768457e-06 7.1532315e-07
000350 71 ec 9c 34 c8 4b 6f 37 be d9 1f 38 5c 5d e9 39
       2.9229298e-07 1.4263154e-05 3.8111342e-05 0.0004451078
000360 05 61 77 37 ad 94 90 37 80 91 d1 39 f2 2f ec 39
       1.4744936e-05 1.723537e-05 0.00039971992 0.0004504915
000370 24 ba 8c 36 a6 bf 0c 3a 79 8d 3a 3a b0 49 8d 39
       4.1939948e-06 0.0005369134 0.0007116418 0.00026948517
000380 9a 60 41 3a 3d 14 60 3a 8b 60 11 3a fc 53 0c 3a
       0.00073767605 0.00085479376 0.0005545697 0.0005353091
000390 06 56 e0 39 97 16 81 39 79 d1 60 39 b8 01 4b 38
       0.00042788702 0.00024621628 0.0002144034 4.8400572e-05
0003a0 df 80 8b 39 d0 c4 89 39 00 00 00 00 00 00 00 00
       0.00026608162 0.00026277313 0.0 0.0
0003b0 00 00 00 00 00 00 00 00 00 00 00 00 00 00 00 00
       0.0 0.0 0.0 0.0
0003c0 00 00 00 00 00 00 00 00 00 00 00 00 00 00 00 00
       0.0 0.0 0.0 0.0
0003d0 00 00 00 00 00 00 00 00 00 00 00 00 00 00 00 00
       0.0 0.0 0.0 0.0
0003e0 00 00 00 00 00 00 00 00 00 00 00 00 00 00 00 00
       0.0 0.0 0.0 0.0
0003f0 00 00 00 00 00 00 00 00 00 00 00 00 00 00 00 00
       0.0 0.0 0.0 0.0
