models/reinforce/reinforce_large/checkpoint_ep200.pth (torch, 904778 bytes, 18 tensors)

network.0.weight f4 [256, 26]
000000 0a ec 29 be 6c 32 99 3d 37 f6 06 3e af 04 d5 bd
       -0.16593948 0.0748032 0.13179861 -0.10401284
000010 0f 21 e4 bc 16 60 2e 3e 81 f8 48 bd ee 2e 46 3c
       -0.027847795 0.17028841 -0.049065117 0.01209615
000020 ab 8a 0b 3e 1f d8 53 bd b1 64 19 be 41 1a f9 bc
       0.13627116 -0.05171978 -0.14979817 -0.030408027
000030 6f 44 10 3e 93 51 09 be 1c c6 1c be a0 9a 39 3e
       0.14088605 -0.13410024 -0.15309948 0.18125391
000040 bc 56 06 3d 31 2c 1e 3c 93 ce 47 3e 1b 16 ab bc
       0.03279756 0.009654091 0.19512396 -0.020884564
000050 f4 7f 4f 3e 20 aa 37 3e e5 a8 3b 3e f5 57 40 3e
       0.20263654 0.17935991 0.18326147 0.18783553
000060 e3 02 02 be 1d ee 11 be a0 7a b9 bb 94 d6 22 3e
       -0.12696414 -0.1425099 -0.00566037 0.15902168
000070 9c e6 19 bd 84 01 94 bd 20 b1 26 3c d3 8e c6 bd
       -0.037573442 -0.072268516 0.010174066 -0.0969521
000080 8f 4b 1e be 54 6e b7 bd de 16 17 bd 3c b5 48 3e
       -0.15458511 -0.0895659 -0.036887042 0.19600385
000090 73 f0 b5 bd 35 70 5d 3d 77 d4 12 be 18 4e 9a 3d
       -0.08883753 0.054062087 -0.14338861 0.075344265
0000a0 63 6b ce 3c e9 39 e9 3c fe ab f8 bd 94 30 0a 3e
       0.02519769 0.028469997 -0.1214218 0.13495094
0000b0 72 e5 27 bd f4 0e 74 bd 96 6f 48 be 58 a3 a8 bd
       -0.0409903 -0.059584573 -0.19573817 -0.0823428
0000c0 c5 c7 f8 bd 5a b3 47 be 3d a0 d2 3d aa df 52 3d
       -0.12147478 -0.19502011 0.10284469 0.051482834
0000d0 4c 24 a9 bd 2c b5 13 bd 3c 41 09 be 03 90 b7 bd
       -0.08258876 -0.03606145 -0.13403791 -0.08963015
0000e0 f8 19 47 be 60 51 f0 bd 30 86 21 be b3 7a 8f bd
       -0.194435 -0.11734271 -0.15773845 -0.07005825
0000f0 7a f6 d7 3d 47 5b 22 be 1f 27 23 3e 82 a8 da bd
       0.105450585 -0.15855132 0.15932892 -0.106766716
000100 f4 24 65 bd 89 cc de bd b2 0b 33 3e 90 dc 1f be
       -0.055943444 -0.10878856 0.1748493 -0.15611482
000110 79 38 09 3d 48 5f d6 bd c4 82 10 be c3 9d a6 3d
       0.033501122 -0.10467392 -0.14112383 0.081355594
000120 14 76 b6 3c 35 31 0e 3d 5a fc eb bd 64 74 24 3d
       0.0222731 0.034714896 -0.115227416 0.04015006
000130 48 8c 82 3d 0a 19 2f 3c 32 46 c9 3d 84 9f 59 3d
       0.06374413 0.010687122 0.09827842 0.05313064
000140 90 c4 27 3e 88 3c 09 3d 04 25 3a bd 5e 35 f6 3d
       0.16383576 0.033504993 -0.045445457 0.12021898
000150 06 48 c6 3d 16 ed 39 be 18 b0 f1 3c 2f 80 f0 bd
       0.09681706 -0.18156847 0.029502913 -0.11743199
000160 73 53 17 3e 34 fb a9 bd 06 ae 08 be f5 3c af bd
       0.14777927 -0.08299866 -0.13347635 -0.085565485
000170 18 63 b0 bd 9e 31 1e be 30 f8 3e 3d ba f3 0a 3d
       -0.08612651 -0.15448615 0.04662341 0.033923842
000180 38 3e 9e bd 0c 10 26 3c 0b f6 f4 bc 8e bb 0d bd
       -0.07726711 0.010135662 -0.029902479 -0.034602694
000190 ea 41 14 3d 70 82 4f bd 1b e2 ce bc 24 10 f2 3c
       0.036195673 -0.050661504 -0.0252543 0.029548712
0001a0 df 2d 02 3e ab db 0c be b8 2e 3c 3d b1 2a 2f be
       0.12712811 -0.13755672 0.045942992 -0.17106129
0001b0 d3 4d 35 3e 2c df b7 bb 37 49 c0 bd 35 ca f2 3c
       0.17705469 -0.005611321 -0.093889646 0.029637435
0001c0 1d 43 ba bb c1 fb 18 bd f0 da 0e be da 40 1d 3d
       -0.00568427 -0.037349466 -0.13950706 0.038391925
0001d0 24 48 04 3e 5f d0 3e 3e bc 80 3b be 32 d6 85 bd
       0.12918144 0.18634175 -0.18310827 -0.06534995
0001e0 0b 19 17 3e ca f4 03 bd 75 97 0e 3e f1 94 fc 3d
       0.14755647 -0.03221587 0.13924964 0.12333096
0001f0 19 ca 19 be e9 78 1e 3e 65 89 d1 3d b2 c9 de bd
       -0.150185 0.15475811 0.10231284 -0.10878314
000200 a2 49 1f be 3d 2f e8 bc c6 8b ee 3c 10 d5 e8 bd
       -0.15555432 -0.028342837 0.029119384 -0.113687634
000210 e9 fe 2a 3e 2f f5 8a bd d7 ad 11 3e c9 9c e9 bd
       0.16698803 -0.06785046 0.14226471 -0.114068575
000220 b2 a8 12 be 52 d6 93 3d 0a e3 0b 3e 5e b0 b8 3c
       -0.14322165 0.07218613 0.13660827 0.022545036
000230 ba 90 40 be 93 1f d9 3d 32 fd a0 3d 2d 64 3c be
       -0.18805209 0.106017254 0.07860793 -0.18397589
000240 60 ae ec bd 32 38 df 3d 32 04 79 3d 5d be b8 bd
       -0.11556697 0.1089939 0.060795017 -0.09020684
000250 83 6d bd 3d d6 d9 65 3d d9 4e 31 3d 4c 7e cc bd
       0.09249403 0.056115948 0.043288086 -0.09985027
000260 0a 40 c1 bd 06 55 49 be c6 bd 4d be 08 a5 3e bd
       -0.094360426 -0.1966134 -0.20091924 -0.046544105
000270 39 91 59 3d 7c a2 f1 3d f5 a4 19 3e 87 2a e2 bd
       0.05311701 0.117985696 0.15004332 -0.11043268
000280 7c b2 14 3e 5a fc 53 3c 16 68 69 3d 55 38 83 ba
       0.14521211 0.012938583 0.05698403 -0.0010011295
000290 19 a3 5c bd 29 c5 42 3e 1c 52 e1 3d 7e bf 62 3b
       -0.05386648 0.19020523 0.11001989 0.0034599002
0002a0 f7 e7 f9 bd ce d4 19 be 9e 7b bf 3d d4 df a9 3d
       -0.12202447 -0.15022585 0.0934975 0.08294645
0002b0 ce 0b 64 3c 70 f5 a6 bc cc c0 73 3b b1 d6 f4 3c
       0.01391883 -0.020380706 0.0037193773 0.02988753
0002c0 c2 d5 5f 3d 57 8f b6 3d d0 20 22 be ca d9 af bd
       0.054647215 0.08914059 -0.1583283 -0.08586462
0002d0 62 86 0f 3e 58 fd 02 3e 73 60 e8 3d 5a 04 bb 3d
       0.14016107 0.12791955 0.11346521 0.09131689
0002e0 24 66 a6 3d 20 34 3c be 65 52 d7 3d 6f b2 45 be
       0.081249505 -0.18379259 0.105137624 -0.19306348
0002f0 e5 c8 2e 3c 59 f5 44 bd 74 e2 39 3e db 38 19 3e
       0.010668014 -0.048085544 0.18152791 0.14963095
000300 64 c5 3d 3e d4 88 14 bc 1f be a9 3c 7c 7d 84 bc
       0.1853233 -0.0090658255 0.02072054 -0.016173117
000310 38 cd 31 3e 3c ee 44 3e c5 1b 92 bd 73 eb 60 3e
       0.17363441 0.19231504 -0.07134203 0.21964817
000320 a6 7b 24 3e 31 14 81 3d b9 dd 57 3e 22 12 25 bd
       0.16062793 0.06302679 0.21080674 -0.040300496
000330 59 09 bd 3d 61 2e 36 3e f1 9d 4e bb a6 f5 43 bd
       0.092302985 0.1779113 -0.0031527246 -0.04784169
000340 62 1f 04 be 8e 5f d7 bb 07 89 48 be 24 db b5 bd
       -0.12902597 -0.0065726703 -0.19583522 -0.088796884
000350 7c 2f 27 3d 97 69 7b bd 64 01 1e be 08 70 bd bd
       0.04081677 -0.061379995 -0.15430218 -0.09249884
000360 7a 29 ec bd 60 3b 2a be d3 e1 b1 bd b6 dd 2f 3e
       -0.115313485 -0.16624212 -0.08685651 0.1717442
000370 e8 bb 8e 3d 1c 77 d4 ba 60 e8 c7 bd dd 0e 0b 3d
       0.06969434 -0.0016209814 -0.09761119 0.03394972
000380 94 70 f7 3d 53 20 fa 3d cb 6e 58 3c d2 61 34 be
       0.120820194 0.122131966 0.013210009 -0.1761544
000390 4b 0b 40 be 47 fa 24 be 43 a7 3f be 22 94 9d bb
       -0.18754308 -0.16111098 -0.18716149 -0.0048089186
0003a0 4a e2 1c bd ee 00 2f 3e 74 d6 06 3d 5c e0 61 bd
       -0.038301744 0.17090198 0.032919362 -0.055145606
0003b0 f2 4f 9b 3d 58 d1 bb bc fc 16 9a bd 50 a9 07 bc
       0.07583608 -0.022926971 -0.07523915 -0.008280113
0003c0 2a f3 a2 bd cc 20 67 bd c6 8e 09 be 87 b3 23 3e
       -0.07956536 -0.056427762 -0.1343337 0.15986453
0003d0 5f b2 0f 3e 38 7a a1 bd f2 1b 3e be 7a 3d bd bd
       0.14032887 -0.078846395 -0.18565348 -0.09240241
0003e0 9b 3c 40 be 7d 3a 29 be e7 12 46 3e 5e 47 2e be
       -0.18773119 -0.16526218 0.19343148 -0.17019412
0003f0 00 00 1a bb 59 79 22 3e 00 82 d3 bc 13 b8 29 3e
       -0.0023498535 0.15866603 -0.025818825 0.16574125

network.0.bias f4 [256]
000000 e1 18 c3 bd 51 6d 51 3d 44 73 2c be 77 11 db 3c
       -0.0952623 0.051129643 -0.16840845 0.026741726
000010 2a 1e 8b bd 01 df 81 3d da 51 bd 3d 27 5a 8e 3d
       -0.06792863 0.06341363 0.092441276 0.06950789
000020 33 07 09 3e 8d 25 26 be 9a 54 56 39 36 69 48 3e
       0.13381653 -0.16225262 0.00020440147 0.19571385
000030 df 7f b6 bd 8e 8b 23 3e da a6 4c 3e ae a0 ae 3d
       -0.08911108 0.15971205 0.19985524 0.08526741
000040 37 74 2e 3e 8a cd 86 3d ea 44 fc 3d eb f4 09 be
       0.1703652 0.06582172 0.12317832 -0.13472335
000050 23 37 3c 3c 76 78 02 3d 04 1e 2e 3e ed 79 a1 3d
       0.011487755 0.03185316 0.17003638 0.078845836
000060 fc 23 07 3e 63 3d c7 3d fb 4b d9 3d f4 a5 36 3e
       0.1319732 0.097285055 0.10610195 0.17836744
000070 55 c5 a4 3d 50 cb da bd 5a 11 ab bd 37 cb 1b 3e
       0.080454506 -0.1068331 -0.08352919 0.15214239
000080 84 9b ed bd 20 ed 1d bd 48 ed f8 bd e0 f3 de bb
       -0.11601928 -0.03855622 -0.12154633 -0.0068039745
000090 9c 5d fa 3d fe be 06 bd 52 fe 93 bd 1c 29 f6 3d
       0.12224886 -0.032896988 -0.07226242 0.1201956
0000a0 72 a4 2b 3e bd c0 43 be 05 9f 3d be f8 a7 44 3e
       0.1676195 -0.19116493 -0.18517692 0.192047
0000b0 62 b7 86 3d ba b7 70 bd 49 35 c6 bc 8a 23 01 3e
       0.06577946 -0.058768965 -0.02419533 0.12611213
0000c0 cd 76 27 bd 2c 95 4e 3d 56 67 0f 3e 60 d7 7d 3c
       -0.04088478 0.05043523 0.14004263 0.015493244
0000d0 c6 e6 44 be be f5 13 3e b1 06 c0 bd 2d b6 8e bd
       -0.19228658 0.14449212 -0.09376276 -0.06968341
0000e0 55 a0 33 bc b8 5d f1 bd 77 a8 48 be e8 cc cd bd
       -0.010963519 -0.117854536 -0.19595514 -0.100488484
0000f0 2a c8 31 3e 11 14 36 be 28 9e 5c 3e c7 0c e0 bd
       0.17361513 -0.17781092 0.21544707 -0.10939937
000100 02 16 0e be 94 85 8b bc 5c dd 26 3c d2 be 63 3d
       -0.13875583 -0.017031468 0.010184612 0.055601902
000110 94 f6 dd 3d 0b 80 a9 bd bb e7 51 be be 2f f8 bc
       0.10838047 -0.082763754 -0.20498554 -0.030296203
000120 14 7b 25 bd f0 70 bf bd 58 6b ef 3d 85 87 f5 3c
       -0.04040058 -0.09347713 0.11690396 0.029971847
000130 b8 94 63 bd 94 e2 07 be 7f 2d 57 3d 03 cf cf 3d
       -0.05556175 -0.13270026 0.052533623 0.10146906
000140 bc f6 b6 3d f9 26 24 be 51 fd df bd a9 1c 1a be
       0.089337796 -0.16030492 -0.10936988 -0.15049995
000150 9a 1b db bb 03 7c 79 3b 38 94 69 bd c7 40 03 be
       -0.00668664 0.0038068302 -0.057026118 -0.1281768
000160 14 f2 37 3e a9 00 7c 3d 1a 87 4d 3e 17 a8 26 3d
       0.17963439 0.061524067 0.20071068 0.040687647
000170 3a 31 fe 3d 2c 43 4e 3e e0 6f 3f bd 5a 61 8d bd
       0.12411733 0.20142812 -0.04673755 -0.06903334
000180 67 37 a1 bb b3 53 c6 3d 2e cc b7 3d a0 db 17 3e
       -0.0049199346 0.09683933 0.08974491 0.14829874
000190 46 e1 0b be 68 aa 8f 3d 1c 5f 62 bd 67 e5 32 3e
       -0.13660154 0.07014924 -0.055266485 0.17470323
0001a0 db 1e 45 be d6 2d 47 be 9d 3b 08 be bf 12 f5 3d
       -0.19250052 -0.19451079 -0.1330399 0.11966466
0001b0 61 5b f9 3c e2 1d 22 3e e8 bd 38 be c0 87 87 bc
       0.03043908 0.15831712 -0.18041193 -0.016544223
0001c0 6a 9c 25 3c 02 9d d4 3d ed 80 c1 bd b5 c0 86 3d
       0.010108093 0.10381509 -0.09448419 0.06579725
0001d0 44 b0 a3 3d e8 59 43 3d 09 0f 24 be 52 6b fe bd
       0.079926044 0.047693163 -0.1602136 -0.124228135
0001e0 58 51 1b be be 17 ba 3d e7 a5 1c 3e 70 9d f8 bd
       -0.15167749 0.0908656 0.15297662 -0.12139404
0001f0 69 aa 9a 3d c8 30 01 3d ed 46 f5 3d 5a 6c 2a 3e
       0.075520344 0.031540662 0.11976419 0.16642895
000200 51 97 e9 3d 7b 2a 22 be 72 c2 08 bd 03 47 2c bd
       0.114058144 -0.15836518 -0.033388563 -0.04205991
000210 0e 76 06 3e c1 b5 e1 bd 5a 1b 37 be c5 55 3c be
       0.13130972 -0.11020995 -0.17881528 -0.18392093
000220 8a 0f e9 3d 1c 5e e7 3d 59 0d 19 3e b8 ea 9a 3d
       0.11379917 0.11297247 0.14946498 0.075643
000230 2f 7a db 3d 06 44 a9 3d 1a a2 1c be 6c 67 ec 3c
       0.10716664 0.082649276 -0.15296212 0.02885791
000240 55 c1 46 be 8a 05 09 3e 91 71 0b be 77 b1 01 be
       -0.19409688 0.13381019 -0.13617541 -0.12665354
000250 3b 5f 44 3d a6 f7 05 be 7d 8d 9b 3d 14 19 83 bd
       0.04794238 -0.13082752 0.07595346 -0.06401268
000260 d2 63 28 be 10 0b 1b bc d0 39 00 3c c4 3a 05 bd
       -0.16444328 -0.009463087 0.007826284 -0.032526746
000270 dc fa 75 3d 93 0c 6a 3d c1 c4 01 3e fc f9 ca 3c
       0.06005369 0.057140898 0.12672712 0.024777405
000280 23 a9 79 3d 42 75 10 be 90 a2 38 bd ba c1 05 be
       0.060952317 -0.1410723 -0.045076907 -0.13062182
000290 fc 2d 74 bd 49 0b c7 bd 0d 19 e3 3c 5e ad 25 3d
       -0.059614167 -0.09718949 0.027721906 0.04044854
0002a0 23 a2 a1 bb 2b 23 18 3e 1c 91 45 3e 57 d9 ec 3d
       -0.0049326583 0.14857166 0.19293636 0.11564892
0002b0 7c b4 78 bd b3 fe 10 3e e1 51 01 bd 0b b6 a0 bd
       -0.060719 0.1415966 -0.031572226 -0.07847222
0002c0 f2 c4 18 3e b1 5d e8 3b fa b5 67 bd a7 f7 27 be
       0.14918879 0.007091247 -0.05657003 -0.16403066
0002d0 73 7f 38 3e e1 2c 16 3e 24 bf 7e bd 6b ca 43 bd
       0.18017368 0.14665557 -0.062194005 -0.047800463
0002e0 85 f6 2f 3e 68 36 05 3d a0 e0 49 3e 29 ec 3a be
       0.17183883 0.03252259 0.19714594 -0.1825415
0002f0 fa 1c f6 bd 1a 3c 16 3e 90 16 d1 bd c2 02 cf bd
       -0.120172456 0.14671364 -0.102093816 -0.10107948
000300 e1 73 81 bd a0 36 41 3e 8a 03 df 3d bc 4f ac 3d
       -0.0632093 0.18868494 0.10889347 0.084136456
000310 76 b0 4c bd 5e 16 d3 3c b4 f2 fb bd ad 7a a4 3d
       -0.049972974 0.025767501 -0.12302151 0.08031211
000320 ec 35 04 3e 87 76 2f be 6f fa d7 bd 4f 5a db bd
       0.12911195 -0.17135058 -0.10545813 -0.10710584
000330 5a 8a 7a 3d d9 b5 46 be 09 05 1c 3d 6c 69 2a 3e
       0.0611671 -0.19405307 0.03809074 0.16641778
000340 cf fb 4a 3e 97 e2 0b 3e f8 fe 2a 3e 60 5c 3a be
       0.1982262 0.13660656 0.16698825 -0.18199301
000350 2c 09 e9 3c b0 5a 20 3e ef 42 2e be 3e 6f 8a 3d
       0.028446756 0.15659595 -0.1701772 0.06759499
000360 16 7f 7d bc 4a 2d 36 3d e7 f3 da bd 0b 6f 22 3e
       -0.015472194 0.044476785 -0.10691052 0.15862672
000370 d0 df 21 be 90 b9 0c be 33 25 df bd 67 2c 42 3e
       -0.15808034 -0.13742661 -0.10895767 0.1896225
000380 53 1c 77 bd 4f 45 d7 bd 8e 0a db bd 2a c0 f5 bb
       -0.060329746 -0.105112664 -0.106953725 -0.0074997144
000390 df c1 4a 3e 28 f8 2f 3a 4f ec ca 3d c2 6c 02 be
       0.19800518 0.00067126984 0.099083535 -0.127368
0003a0 3d 58 46 bd 33 3f c4 3d 00 3e 34 bc 75 00 df 3d
       -0.048423994 0.09582367 -0.01100111 0.10888759
0003b0 35 84 88 3c 1e 57 20 3e 58 7b 5e bd 32 51 35 be
       0.016664604 0.15658233 -0.05431685 -0.17706755
0003c0 16 84 12 3e 22 47 15 3e 73 ef 9f bd 42 3e 5c ba
       0.143082 0.14577916 -0.07809343 -0.0008401611
0003d0 03 ee de bd 20 b7 22 3d 71 ac 09 be ff f3 11 3d
       -0.10885241 0.039725423 -0.13444687 0.035633083
0003e0 cd 0f 0e be 73 1a 84 3d 82 fb fd 3d ee ec cb bd
       -0.13873215 0.06450357 0.12401487 -0.099573
0003f0 0c 1e 70 bd d9 70 2c bd 42 5c b1 bd 9d df 44 3c
       -0.058622405 -0.042099807 -0.08660175 0.012016204

network.2.weight f4 [256, 256]
000000 87 73 36 bc 4b 3a 3e 3d 70 95 46 3c e9 8c 82 3d
       -0.011135942 0.04644231 0.01212059 0.06374533
000010 6f 89 74 bc 3d 55 e0 bc c4 df 1b 3c e4 ed d7 bc
       -0.014925345 -0.027384395 0.009513799 -0.026358552
000020 f0 13 80 3d f8 e6 ac 3c ca b6 d3 bc 60 61 ff bc
       0.06253803 0.021106228 -0.025843997 -0.031174362
000030 fa 46 d7 3b 57 d2 b3 3c e5 98 2a 3d 45 fd 27 3d
       0.0065697404 0.021950884 0.041649718 0.04101302
000040 ca 79 3d bd 40 09 02 bd 11 f3 fb bb 20 21 ce 3b
       -0.046258725 -0.031747103 -0.007688888 0.00629057
000050 29 89 b0 3d e2 58 86 3c eb 22 a8 3c a5 71 c7 bc
       0.08619911 0.016399805 0.020524463 -0.024346182
000060 37 6d 97 3c 49 df a2 3d 2a b4 17 bd 77 d7 67 3c
       0.018484695 0.079527445 -0.037037052 0.014150492
000070 66 54 22 bc 00 3f 0d 3b 12 df 85 3d 55 cd 82 3d
       -0.0099078175 0.0021552444 0.06536688 0.0638682
000080 03 cc a5 3d 88 46 b2 3c 13 83 02 bd 90 f9 f1 bc
       0.08095553 0.021762148 -0.031863283 -0.029537946
000090 fb be 97 3d 86 83 41 bc f8 0a cf 3c e0 3d 16 bd
       0.074094735 -0.011811143 0.025273785 -0.036680102
0000a0 a3 26 17 bb 16 a6 cf 3c 9a d5 25 3d 64 b2 1b 3d
       -0.00230638 0.02534775 0.04048691 0.038011923
0000b0 74 27 2c 3d fd fb 7a bc eb a2 3f 3d f1 dc ad bc
       0.042029813 -0.015318868 0.04678623 -0.021223517
0000c0 af 17 bc 3c 18 c0 6c 3d 0f 53 a2 bb 71 ff 66 3d
       0.022960512 0.057800382 -0.004953749 0.05639595
0000d0 ea 50 67 3d 3b ea 1e 3d e4 60 47 bd 79 51 39 bd
       0.05647365 0.0387976 -0.048676386 -0.045243714
0000e0 97 6f 1c 3b cb 36 d7 bc 90 47 83 bb e0 b9 06 bc
       0.0023870224 -0.026271245 -0.0040063336 -0.008223027
0000f0 ae 5d 02 bd 65 99 30 bc ef 67 e1 bc ef a7 c1 3c
       -0.03182762 -0.01077876 -0.02751538 0.023639647
000100 7a 75 2d 3c 7e 93 43 3d a6 bf 20 3d 33 e3 30 3d
       0.010587091 0.04774808 0.03924527 0.043185424
000110 86 9f 36 3d de af 3e bd fa e6 72 3c 94 a7 e7 bc
       0.044585727 -0.04655444 0.014825577 -0.02827815
000120 58 fc 33 bd 88 b2 62 3c 4e c7 ee bb e0 03 19 3c
       -0.043941826 0.0138365105 -0.0072869426 0.009339303
000130 d7 f5 80 3d 32 d0 1e bd 25 0d 95 bc d8 e3 67 3d
       0.0629689 -0.03877277 -0.018194744 0.056613773
000140 44 12 40 3d c0 8d 6d 3d 4a 4e 5b 3d 63 a9 15 3d
       0.04689242 0.05799651 0.05354146 0.036538493
000150 59 4f b3 bc 5f e7 4a 3c bc 53 bd 3c a5 0a a6 bc
       -0.021888422 0.012384265 0.023111217 -0.020268748
000160 52 ff 21 3d b3 a9 d5 3b 91 4b 21 3d 87 96 57 3d
       0.039550133 0.006520474 0.039378706 0.05263379
000170 4c a7 af bc 4a 84 21 3c bd f1 90 3d 20 1e cf bb
       -0.021442078 0.0098582 0.07077358 -0.00632073
000180 04 19 18 3d f2 42 59 3d eb 60 b0 3d 91 00 08 bd
       0.03713323 0.05304236 0.08612236 -0.033203665
000190 6f b9 2b 3d b0 3a 09 3d 00 10 1a bb 3a 93 51 3c
       0.04192489 0.033503234 -0.0023508072 0.012791449
0001a0 98 cb 09 bc ae ae 3f bd 9b c9 de 3b fd 2d 0a 3d
       -0.008410357 -0.046797447 0.0067989356 0.033735264
0001b0 e9 b4 cf 3c cb e3 96 3c 00 5b 8b bc 13 72 94 bb
       0.02535482 0.018419167 -0.017011166 -0.0045302003
0001c0 63 88 17 bc 7d bc 4d 3c e0 b1 50 bd 4e ef 52 bc
       -0.009248826 0.012557146 -0.050950885 -0.0128744375
0001d0 5b b8 6b bc 1e 1f 12 3d f0 a5 91 3d ae 08 a2 3c
       -0.0143872155 0.035674207 0.07111728 0.01977953
0001e0 75 5c bc bc b0 41 f1 3b 8c ce c0 bc c5 01 34 bd
       -0.022993306 0.007362567 -0.02353599 -0.043947
0001f0 e0 8b ba bc 1b 07 62 3d ee ea 62 3d b2 ec 5c bd
       -0.022771776 0.055182558 0.055399828 -0.053936668
000200 9a fd c5 bc 70 64 b8 bc 57 cb 22 bd 9c 9b 0d 3c
       -0.024168778 -0.02250883 -0.0397447 0.008643057
000210 63 8f 11 3d ee 89 48 bd 58 6c 0c bd 15 3f 38 3d
       0.035537135 -0.048959665 -0.034283012 0.044982035
000220 05 0f 5e 3d 3e a0 2e 3c c4 87 c7 ba b1 0b e7 3b
       0.054213542 0.010658322 -0.0015222956 0.0070509543
000230 59 4e 3f 3d 23 4d 8d bc 1e 66 42 bd f2 de ef 3c
       0.046705578 -0.017248696 -0.047460668 0.029281113
000240 48 24 b4 3c d4 c7 5c 3d 94 7f 3b bd e2 7e bc 3c
       0.021989956 0.05390151 -0.045775965 0.023009721
000250 95 34 91 3c d6 24 86 bc 9a 3c ea 3b 37 0d 49 bc
       0.017725268 -0.016374987 0.0071483376 -0.012271217
000260 82 91 4d bd e4 92 f0 3c 50 5d 5d 3d 6b 15 e9 3c
       -0.050187595 0.029366918 0.054044068 0.028452596
000270 02 84 62 bd 3a 72 71 bd 13 3d 79 3d 26 95 be bb
       -0.055301674 -0.058946826 0.06084926 -0.0058161197
000280 0d 2d 02 bd 30 e1 c6 bc 6a 2c c0 3c 04 ce 40 bd
       -0.031781245 -0.0242773 0.023458678 -0.04707147
000290 6a d5 2a bd 60 d9 6a bb d9 51 38 bd eb 8e 15 3d
       -0.041707434 -0.0035835132 -0.04499993 0.03651325
0002a0 28 31 da bc ce df eb bc ff 55 36 3c 1c 9a ff 3c
       -0.026634768 -0.028793242 0.0111289015 0.031201415
0002b0 42 d7 13 3d 42 ed 81 3d 44 af 4e 3d f2 80 5a 3d
       0.036093958 0.063440815 0.050460115 0.053345628
0002c0 24 4d 8f bc f2 ec 2d 3c 3f db 06 3d da 4c 77 3c
       -0.017492838 0.010615574 0.032923933 0.015094006
0002d0 4d 0c 84 3d 00 12 dd ba da 96 a9 3d f8 87 2f bd
       0.06447659 -0.0016866326 0.08280726 -0.04285428
0002e0 5e 6d 2d bd 13 52 de 3b d8 86 16 3d 64 d3 c3 bc
       -0.04234063 0.0067846864 0.03674969 -0.02390451
0002f0 39 fc cd 3c ef 88 6c 3c f3 3a dd bc f8 2f ac 3d
       0.025144683 0.014436944 -0.027005648 0.08407587
000300 43 90 ae 3c ca d7 67 3d 4e 2e b1 ba 52 95 a8 3c
       0.021309024 0.056602277 -0.0013517828 0.020579014
000310 b2 5d 47 3d e9 da 7d bc 09 cf cf 3b a7 3d 7a 3d
       0.04867334 -0.015494087 0.006341819 0.061093953
000320 bd 89 0c bd d7 ec 14 ba 93 e3 a8 bc 8e 6b 1a 3d
       -0.034311045 -0.0005681044 -0.020616328 0.03770023
000330 5a b6 10 3c ce 1a c0 3a 3d cf 91 3d da 33 a5 bb
       0.0088325385 0.0014656426 0.07119606 -0.0050415816
000340 30 c6 48 3c 3b 2c 12 3d 0b 54 34 bd 13 63 09 bd
       0.012254283 0.035686713 -0.044025462 -0.03354175
000350 c1 4b fc 3c 3b 53 5e 3d c0 f3 d4 3c 4c 2c 62 bd
       0.030797841 0.054278594 0.025995135 -0.055218026
000360 db cb 02 bd c4 e4 95 3d 70 54 e2 3b fa dc f0 bc
       -0.031932693 0.07319024 0.0069070384 -0.029402245
000370 42 93 13 3d e1 03 da 3c f4 31 98 bc 0f 7b d2 bc
       0.036029108 0.026613178 -0.018578507 -0.025693445
000380 dd ba 05 3d d6 27 71 3d 5c ba 0f 3d b1 22 fa 3c
       0.03264891 0.05887588 0.035089836 0.03053412
000390 68 f7 23 bd fa bf ac bc c1 dc b0 3d e8 e4 41 3c
       -0.040030867 -0.021087635 0.086358555 0.011834361
0003a0 62 a0 8d 38 36 6b 36 3d d7 4c 06 bc cd a6 42 3d
       6.7532776e-05 0.044535838 -0.008197031 0.047522355
0003b0 a2 05 23 3d 52 90 83 3d 08 d3 d2 bc 70 1b 3b 3c
       0.039800294 0.06424011 -0.025735393 0.011420116
0003c0 de 8f b8 bc af 9a 88 3c 44 11 fb 3c ed d3 2c 3d
       -0.022529539 0.016675321 0.030647881 0.042194296
0003d0 f7 96 b3 bc f9 cb 82 3d 71 cf a1 bc 6c fc 64 bd
       -0.021922572 0.06386561 -0.019752236 -0.05590479
0003e0 4c 91 99 bc 33 f1 30 3d 96 d1 8a 3c 8b d6 b1 bc
       -0.01874604 0.043198776 0.016945641 -0.021708747
0003f0 2d 27 3b 3d 45 82 f4 bc e5 1e 4c 3d a9 2d 71 3c
       0.045691658 -0.029847274 0.04983415 0.014720359

network.2.bias f4 [256]
000000 a9 1a 9f 3d d8 32 5c 3d 7f 2f 20 bc ca 47 85 bd
       0.07768757 0.053759426 -0.009776949 -0.06507833
000010 78 79 03 bc 2c 25 e6 3b 60 a1 53 bc 77 d6 35 3d
       -0.008024566 0.007023474 -0.012916893 0.044393983
000020 b1 a0 09 bc 69 94 03 3d c8 7a 3b bc 2f ee d3 bc
       -0.008400128 0.032123957 -0.011442848 -0.02587041
000030 4d c1 62 3d 41 86 85 bd 7e f1 a0 bc 8e 21 f4 bc
       0.055360127 -0.065197475 -0.019646402 -0.029801156
000040 14 17 ce 3a ed d8 2b bd 29 a6 82 3c 6b f6 84 bd
       0.001572343 -0.041954923 0.015948372 -0.06492313
000050 15 f0 06 bd a7 03 8b 3c d4 6a ce 3c 44 1a 0a bd
       -0.032943804 0.016969515 0.025197424 -0.033716455
000060 cb 40 0d bd 60 c3 51 3d 9a 94 11 3d 88 88 88 3d
       -0.03448562 0.051211715 0.035542108 0.06666666
000070 42 86 26 3d 16 ed 74 bd 85 f3 89 bc 45 3b 8b 3c
       0.040655382 -0.059796415 -0.016839752 0.016996035
000080 08 7d 05 3b 00 de a2 bc 58 4a d5 bc 1f 1a 21 bc
       0.0020368714 -0.019881248 -0.026036426 -0.009832888
000090 b6 6c f3 bc bc 1f 92 bc 9e da 04 3d dd 80 7c 3c
       -0.029714923 -0.017837398 0.032435052 0.015411583
0000a0 9a a6 ce bc 6b a0 3a bc db 70 0a 3d 85 d1 94 3d
       -0.025225926 -0.011390786 0.033799034 0.07266525
0000b0 ce 1e 68 3d 64 ec 34 3c 3c d5 c2 3c 10 83 16 3d
       0.056670003 0.011042688 0.023783319 0.036746085
0000c0 c3 81 0d 3d b4 d6 bc 3c f4 56 9a 3c 84 3a d2 3c
       0.03454758 0.023051597 0.01884029 0.025662668
0000d0 c4 04 6e bd d3 a7 96 3b a4 c5 34 bd b0 68 a9 bc
       -0.058110014 0.004597643 -0.044133797 -0.020679802
0000e0 ed 30 3d bc 66 78 60 bc f4 73 52 3d f7 b5 f6 bc
       -0.011547309 -0.01370058 0.051380113 -0.030116064
0000f0 d0 eb 8e 3d ca 04 10 3b 7a db c2 3c a1 15 23 3d
       0.069785714 0.002197551 0.023786295 0.03981555
000100 6e 85 30 3d ba e7 0f bd ae e9 4c bd 7f 3e 64 bd
       0.043096 -0.0351331 -0.05002754 -0.055723663
000110 4c b7 10 bd 8f c8 33 3c 07 f1 82 bc 69 2f 01 bd
       -0.035331056 0.01097311 -0.015984071 -0.031539354
000120 08 d7 a0 3d f8 6b de bc 5d 83 0b 3d 8c 2d 0c bd
       0.07853514 -0.027151093 0.034060825 -0.034223124
000130 7a 88 5f bc 57 7d b4 bc c3 ab 71 bd a4 73 ed bc
       -0.013643378 -0.022032423 -0.059001695 -0.028985806
000140 18 c2 23 bd 0d 49 b2 bb 7d 38 93 bc 78 fd cd 3c
       -0.039980024 -0.0054408372 -0.017971272 0.025145277
000150 68 c2 05 3c 76 33 35 bd 05 40 80 3d db 96 49 bd
       0.008164026 -0.04423853 0.06262211 -0.049216133
000160 d9 92 90 3c 5d a3 70 3d f4 1d 5f 3d 43 62 1f 3d
       0.017648147 0.058749545 0.054471925 0.03891207
000170 ce f3 f3 3c 1f c7 7e bb 8b 65 0b 3d 11 d9 4e bd
       0.029779341 -0.003887601 0.034032386 -0.05049998
000180 45 3b d9 3b 09 94 0d bd 8d ef ef bc 16 9b 57 bd
       0.00662938 -0.034565005 -0.029289031 -0.052638136
000190 ae 6b 23 bd 19 19 4f bd 63 9c 28 3a a5 62 b7 3b
       -0.039897613 -0.050561044 0.0006431995 0.005596476
0001a0 d6 d1 60 3b a0 d1 20 3d c1 1b f0 bc 63 0b 86 bd
       0.003430476 0.039262414 -0.02931011 -0.065451406
0001b0 ea f3 ea 3c 64 f4 fd bb c7 7e 92 3d 88 85 62 bc
       0.02868076 -0.007750081 0.07153087 -0.013825782
0001c0 f0 05 5b bd e9 33 7e 3d cb f0 e0 3c 74 6b 6b bd
       -0.05347246 0.062061224 0.027458569 -0.057475522
0001d0 94 41 2e bd ac 8e 89 3d 5f d4 0f bd 6b 2a e5 3c
       -0.04254301 0.067166656 -0.035114642 0.027974328
0001e0 46 3e 0a 3d f7 20 e5 bc 8a 78 39 3d 0a 70 40 bd
       0.033750795 -0.02796982 0.04528097 -0.04698185
0001f0 96 68 e3 b8 4c d7 23 bc df cb b1 3c be d6 7e 3d
       -0.00010843684 -0.010000061 0.021703659 0.062216513
000200 42 3c 83 3d c0 27 19 bd 33 ab 40 3d 18 d6 0e 3d
       0.06407978 -0.037391424 0.04703827 0.034872144
000210 9a 7e 58 bd a6 f7 16 bd 1e 2f 12 bd 51 13 c0 3c
       -0.05285511 -0.03685727 -0.035689466 0.02344671
000220 23 d7 7c bd e2 b1 27 3c 70 08 17 bd 87 e4 e9 bc
       -0.061728608 0.010235282 -0.03687328 -0.028551353
000230 66 32 33 3d 78 15 1a bd 44 c2 03 3d a7 b7 2e bd
       0.043749236 -0.03761813 0.032167688 -0.042655613
000240 34 a0 62 3d 87 ff dc 3c 82 b4 d4 3c 16 d4 39 bd
       0.055328563 0.026977314 0.02596498 -0.045368277
000250 c8 bd 52 bd 8b 49 07 bd 1f 97 46 bb c0 5e 1a 3b
       -0.05145052 -0.03302912 -0.0030302478 0.002355501
000260 47 a5 f2 3c 8e a1 01 3d 58 f5 ba bc bf ae 50 3c
       0.029619826 0.03164821 -0.022822067 0.012736975
000270 1e b0 83 3d a8 10 07 bd ef c4 be 3c 68 cc f9 bb
       0.06430076 -0.03297487 0.023287265 -0.007623244
000280 22 1a 53 3d b0 45 93 3b e7 c5 c5 bc b4 df 14 bd
       0.051538594 0.0044943914 -0.024142219 -0.036346152
000290 09 ba 6e 3d 5a 09 6c bd a0 c1 0f bc 01 70 33 bd
       0.058282886 -0.057626106 -0.008774191 -0.043807987
0002a0 72 35 27 3d ca d8 49 3d 38 94 50 bc 30 17 66 3d
       0.040822454 0.04927901 -0.012730651 0.056174457
0002b0 94 c8 87 bd cc 17 f2 3c 91 95 2c 3d 18 14 06 bd
       -0.06630054 0.029552363 0.042134825 -0.032734007
0002c0 c4 d5 01 bc 7b cb 83 3c 41 44 62 3c b0 c8 50 bc
       -0.007924501 0.016088238 0.013810218 -0.01274316
0002d0 9e 70 d7 bb f7 c3 5e 3d 57 c9 73 bd d7 f2 5c 3d
       -0.0065747043 0.054386105 -0.059518185 0.053942528
0002e0 72 29 98 3d 4d 67 c9 bb c4 59 78 bd b8 19 d6 3c
       0.0742978 -0.0061463476 -0.060632482 0.02613531
0002f0 00 dd a1 3c 0e 29 e5 bc 1d cc b6 3c 1c ab 0c 3a
       0.019758701 -0.027973678 0.022314126 0.00053660735
000300 14 2b c1 3c bc 1d c9 3c fa b7 7f bd 8a 78 fa 3c
       0.023580112 0.024550311 -0.062431313 0.030575056
000310 f6 60 45 bd 53 dd eb 3c b0 39 6b bc 58 ce 2a bc
       -0.048188172 0.028792059 -0.0143570155 -0.010425173
000320 74 b1 43 3d 30 6b 32 3c ac 28 fd 3c 4c cb c4 3b
       0.047776654 0.010889813 0.030903183 0.00600568
000330 ef 84 9a 3a 5e a4 9c 3a dd 70 3d 3d 77 8f 9c bc
       0.0011788885 0.0011950841 0.046250213 -0.019111378
000340 d3 39 a8 bc 30 95 46 3d 04 e5 e6 3c 2e 13 fe bc
       -0.020535385 0.04848212 0.028185375 -0.031015005
000350 00 59 25 bc c6 31 26 3d ec 95 62 3d fb 52 3b 3d
       -0.01009202 0.04057481 0.055318758 0.045733433
000360 be 74 0b 3d 58 2c c7 bc 57 60 36 3d 34 0a 56 bc
       0.03404688 -0.024313137 0.04452547 -0.013063956
000370 8a a1 38 3d 5a 44 17 bd 3f 4d 14 3d 0e 55 40 bd
       0.04507593 -0.03693042 0.03620648 -0.046956114
000380 b8 92 c3 3b 50 dd 33 3c b6 4a 6b bd 50 f3 5d bd
       0.005968418 0.010978058 -0.057444297 -0.05418712
000390 2e 21 fc bc 78 27 bb bc ad c8 df 3b ac 64 66 3d
       -0.03077754 -0.022845969 0.0068293423 0.056248352
0003a0 76 12 6e bd 70 06 b9 bb f5 15 66 bc a6 34 7d 3a
       -0.058123074 -0.0056465194 -0.014043321 0.00096590293
0003b0 d6 fb f9 bc 40 b8 6b bb a4 c1 a7 bc a0 6f 36 bd
       -0.030515593 -0.0035967976 -0.020478077 -0.044540048
0003c0 94 7a 75 bd c0 b5 e5 bc ac e4 48 3d 37 f3 16 3d
       -0.059931353 -0.028040767 0.049046203 0.03685304
0003d0 34 ba 55 bd eb 24 38 3d a9 92 85 bc df d6 89 3d
       -0.05217953 0.044957083 -0.016305285 0.067304365
0003e0 18 13 69 bd fb 8e 18 3d 8c 8c 95 3c 45 06 1a 3d
       -0.056902975 0.03724573 0.018255495 0.037603635
0003f0 71 a4 4d 3d 2b 7b 8c ba a0 ad 4a 3b b1 dc 42 bb
       0.05020565 -0.0010717859 0.0030926242 -0.0029733593

network.4.weight f4 [8, 256]
000000 5e e0 91 ba 86 c5 56 3c 5e fb 0a 3d 81 32 99 3c
       -0.0011129489 0.013108617 0.03393113 0.01870084
000010 18 5f 42 bd 27 b4 7a 3d c0 17 24 3c 15 7e 19 bc
       -0.04745397 0.061206963 0.010015428 -0.009368439
000020 4f 36 d5 3c 4f de 11 bd ce b5 50 3d 45 a4 c4 3c
       0.026026873 -0.0356124 0.050954632 0.024004111
000030 0a fb d9 3c b2 ad 55 3d d0 34 33 3d 40 d3 6d bd
       0.026608963 0.052167602 0.043751538 -0.05806279
000040 48 a2 30 3c eb 51 26 3c c5 b1 86 bc 3e 7f cd 3c
       0.010780878 0.010151367 -0.016442189 0.025085088
000050 b9 9a 1f 3d 33 ab 67 bb e7 6b 5f 3d 20 c3 24 3d
       0.038965914 -0.0035349845 0.054546263 0.04022515
000060 47 86 14 bd f6 ec af bc 90 15 96 3b 59 ef 6e 3d
       -0.03626087 -0.021475296 0.004580207 0.05833373
000070 c5 be 49 bd 92 fd 41 bd c7 ec 89 3b 0b e5 24 3d
       -0.049254198 -0.047360964 0.0042091343 0.040257495
000080 d3 2c d3 bc 68 d6 ef bc 7a 34 4c 3d 66 d5 3b 3c
       -0.02577821 -0.029277042 0.049854733 0.011464452
000090 48 d6 f5 bc 6e 56 1c bd d8 68 89 3c 0c 1d b8 3b
       -0.030009404 -0.038168363 0.016773626 0.005618697
0000a0 75 d8 48 bd cd a3 56 3d 09 6f 88 3d af 98 84 3a
       -0.049034555 0.052402306 0.06661803 0.0010116304
0000b0 3b 57 4a 3d be 9a d4 3a cc 6e e9 bc 30 3e 61 bc
       0.049399596 0.0016220433 -0.028495215 -0.013747737
0000c0 c4 f3 d9 bc 6d 8f a7 3c 10 31 ff bc 55 a3 0e bd
       -0.026605494 0.020454133 -0.031151325 -0.034823734
0000d0 0e bd 21 3d 07 79 10 3d b6 a2 59 3d c2 32 12 bd
       0.039486937 0.03527167 0.05313369 -0.035692938
0000e0 96 a4 32 3d 24 c7 4b 3d 68 26 19 bd 60 64 1b bd
       0.043613993 0.049750462 -0.037390143 -0.037937522
0000f0 79 44 36 3d 60 d4 17 3d 9a f8 4e bd 11 f7 43 3c
       0.044498894 0.03706777 -0.050530054 0.011960761
000100 a0 49 98 bc e0 44 2b 3d 82 cc d4 3c f9 27 60 bd
       -0.018589795 0.04181373 0.025976423 -0.05472562
000110 d5 cc cd 3c fc ed 61 bd 84 23 d8 3c d9 df fe bc
       0.025122086 -0.0551586 0.026384123 -0.031112598
000120 b6 57 3f bd cd 50 e8 3c 1b 03 d7 bb ee c5 bf 3c
       -0.046714507 0.028358841 -0.0065616495 0.02340981
000130 1d 59 ca 3c 43 b4 97 3c ac ae 0d 3d 40 97 e5 ba
       0.024700696 0.018518573 0.03459041 -0.001751639
000140 88 6f 30 3c 5a 05 96 3c d1 0c 58 3c a3 cd cc 3c
       0.010768779 0.018313099 0.013186649 0.025000399
000150 80 58 cb bb c0 e4 f6 bb 2a e8 13 bd 4e e0 57 3c
       -0.0062056184 -0.0075345933 -0.03611008 0.013176037
000160 c3 92 27 bd 29 4f 4f 3d a3 e5 25 3d 12 9b e3 3a
       -0.040911447 0.050612602 0.0405022 0.001736494
000170 61 e4 b7 3c 05 72 57 3d 6b ea c1 3c e9 2f 58 bd
       0.022447767 0.052598972 0.02367135 -0.052780066
000180 81 ef dd bc 2a 1f 3c 3d ce 10 41 bd 59 a3 a2 3c
       -0.027091743 0.045928158 -0.047135167 0.01985328
000190 e8 7a ca 3c ab 61 d7 bc ae 19 56 bd 31 41 0a 3d
       0.02471681 -0.026291689 -0.052270584 0.033753578
0001a0 ba b0 67 bc 42 47 3a bd 7e db 1b bd 12 ed 2c 3d
       -0.014141256 -0.045478113 -0.03805112 0.042218275
0001b0 24 84 4d bd 3b 8f 9e 3c cd 23 df 3c 24 7b 42 bc
       -0.050174847 0.019355407 0.02723875 -0.011870179
0001c0 03 23 5e bd 9b b5 20 bc 1b c4 40 3d 0a 57 54 bd
       -0.05423261 -0.009808923 0.04706202 -0.05184082
0001d0 2c 0f d3 3c d3 1c 75 bc c1 d5 11 3d 89 44 2c bd
       0.02576407 -0.0149604855 0.035604242 -0.042057548
0001e0 34 49 30 3d 56 35 72 bd ff 68 2f 3d 4a 65 18 bd
       0.043038562 -0.059132896 0.04282474 -0.03720597
0001f0 06 5b 6c 3c e1 b0 74 3c b7 66 1b 3d ea 40 4e 3d
       0.014425999 0.014934749 0.037939753 0.050354876
000200 fd 27 14 3c 8c 35 f3 bc fa a0 1d bd 6a ca c2 bc
       0.009042737 -0.02968862 -0.038483597 -0.02377816
000210 b4 5e d6 bc 31 e7 fe 3c 66 10 94 bc ae 64 e7 3c
       -0.026168205 0.0311161 -0.018074226 0.02824625
000220 d6 5b 80 bb 6d a3 6b 3d 13 aa be 3c 21 6f 92 3b
       -0.0039171977 0.0575289 0.023274457 0.004468814
000230 cb 54 a1 3c 1e 48 59 bd 74 6b e8 bc 1d f0 d9 3c
       0.019693753 -0.053047292 -0.02837155 0.026603753
000240 bc 41 bf bb 54 86 2c 3a 09 09 05 3d ab 99 28 3c
       -0.0058366936 0.0006581296 0.03247932 0.010290544
000250 b7 e2 8c 3c c1 ef 4b bd d2 5c 95 3b 2c de 08 3d
       0.01719795 -0.049789194 0.004558184 0.033415005
000260 51 f5 cc 3c d9 67 e0 3c c8 59 fe bc 80 48 74 bd
       0.02501932 0.027393268 -0.03104867 -0.059639454
000270 14 a3 20 3d 82 84 79 3c 21 42 46 bd 4d 9b bd 3c
       0.039218023 0.015229346 -0.04840291 0.023145342
000280 31 c9 58 3d 88 e7 f9 bc ef e7 4c bc f4 ef 31 3c
       0.052926246 -0.03050591 -0.012506469 0.010860432
000290 7f 11 31 3c a4 ef 8c 3c 08 75 42 bc 2c c8 cf bc
       0.010807394 0.017204113 -0.011868723 -0.025364004
0002a0 8e c6 66 bd 97 80 c5 3c c6 6c 24 3d 70 88 ee bb
       -0.0563417 0.024109168 0.040142797 -0.007279448
0002b0 e0 2d 18 3d e4 cf a5 3c 26 3d 05 bb f9 ea 60 bd
       0.037153125 0.020240732 -0.0020330637 -0.054911587
0002c0 f9 e7 86 3b fa de 46 bc ab 3a 4a bc 06 ee 16 3d
       0.0041170088 -0.012138123 -0.012343089 0.03684809
0002d0 5c 43 cf bc d5 34 96 3c 29 72 53 bd 8c e1 85 3a
       -0.025300674 0.01833574 -0.051622543 0.0010214313
0002e0 1f c2 2d 3d 70 aa b6 3c 6e 6c 76 3d 34 5e 63 bd
       0.042421456 0.022298068 0.060162 -0.05550976
0002f0 ec 44 31 3d a4 66 68 bd 4a ae a0 3c bb 4a d7 3c
       0.04327862 -0.05673851 0.019614358 0.026280751
000300 9a 91 7a 3d a6 c6 4b 3d a0 7c a3 bc cc d3 78 bb
       0.061174013 0.049749993 -0.019956887 -0.0037968038
000310 9c bb 2a 3d 3b 66 f4 bc 70 35 90 3c 53 e1 be bc
       0.041682824 -0.029833904 0.017603606 -0.023300802
000320 df b3 28 3d c0 68 98 bc 7c bd 26 bd 3d 88 67 bd
       0.041187163 -0.018604636 -0.04070805 -0.05652641
000330 9e ba 46 3c d6 8f 7e 3d c7 ea 1f 3d 76 51 44 3d
       0.012129454 0.06214889 0.03904226 0.04792925
000340 32 17 92 3c 43 f1 ba 3c 2f fd 17 3d a4 27 bd bc
       0.017833326 0.02282012 0.03710669 -0.023090191
000350 20 3a 68 3c 24 93 7d 3d d1 7c f3 3c 37 3f 0f 3d
       0.014174014 0.061907902 0.029722603 0.034972396
000360 66 76 3b bd ae 2c 59 3d 0d 9d 4b 3d ba ff 0d bd
       -0.04576721 0.053021125 0.049710322 -0.034667708
000370 6f d0 63 3d 8c 10 00 3d 9c 1f 09 3d b5 5e ec ba
       0.0556187 0.03126578 0.03347741 -0.0018033596
000380 0e a0 f6 3b b8 cd b4 bc bb 68 fa 3c 09 e0 b2 bc
       0.007526404 -0.02207075 0.030567518 -0.021835344
000390 db 0a 32 3d d6 ba aa b9 3a 14 3b 3d eb 8a 4f 3d
       0.043467384 -0.0003256413 0.045673586 0.050669592
0003a0 f3 e0 91 bc 20 40 39 3d 98 5e fb bc 2c ce ef bc
       -0.01780746 0.04522717 -0.030684754 -0.029273115
0003b0 0a 8c 3f 3d 1c b0 0d 3d c0 4a 24 3d d4 0a 14 bc
       0.04676441 0.03459178 0.04011035 -0.009035785
0003c0 4f b6 91 bc c4 07 3c 3c 68 4e 20 bd 11 a8 3c bd
       -0.017787127 0.011476461 -0.039137274 -0.046058718
0003d0 3e 51 6d 3d f9 e7 57 bb d3 7b 64 3d fc 0f 9b bb
       0.057938807 -0.0032944663 0.05578215 -0.00473213
0003e0 c8 ff 0f 3c c3 22 5d bb a7 c8 58 3d 69 2a 3e bd
       0.00878901 -0.0033742643 0.052925732 -0.046427164
0003f0 d9 e1 13 bb 39 d3 1a 3c 5b 7d 5f 3d 40 75 84 bd
       -0.0022565036 0.0094497735 0.054562908 -0.06467676

network.4.bias f4 [8]
000000 f8 c3 6e 3c 66 4a c4 bc 91 79 68 3a 30 a2 83 3d
       0.01457309 -0.023961257 0.00088682125 0.06427419
000010 92 7c d4 3c f4 62 5a bd 3d d6 9a bc 4d f8 8f bd
       0.025938306 -0.053317025 -0.018900985 -0.070297815

exp_avg f4 [256, 26]
000000 10 af 18 3b 90 0a 3f 3c 75 4e 47 3c cb a8 1d 3c
       0.0023297705 0.011660233 0.012164702 0.009622763
000010 fe 67 98 3b e2 91 aa 3c 5a 39 bb 3c fd 20 93 3c
       0.0046510687 0.020821515 0.022854496 0.017960066
000020 e0 db c6 3c 06 4a 7b 3c 01 ab f7 3c 41 13 2f 3c
       0.024274766 0.015337473 0.030232908 0.010685743
000030 34 a4 7b 3c f1 1f a3 3c d1 ee ee 3c 97 76 4f 3c
       0.015358973 0.019912692 0.02916661 0.012662551
000040 56 62 8d 3c 93 48 4a 3c 7c 3e 8e 3c a6 53 c8 3c
       0.017258804 0.012346405 0.01736378 0.02445395
000050 d4 d7 f6 3c 49 da 6a 3c 81 fe 68 3c 83 17 ff 3b
       0.030132212 0.01433427 0.014220835 0.0077847852
000060 e0 0e 6e 3c 04 62 67 3c 00 00 00 00 44 ec bf 36
       0.014529914 0.01412249 0.0 5.7197485e-06
000070 7a 72 8f 34 00 00 00 00 00 00 00 00 30 2b 4e b6
       2.6719118e-07 0.0 0.0 -3.072153e-06
000080 c5 81 87 37 d8 c6 a9 b9 07 37 4b b2 c2 ba 02 b5
       1.6153683e-05 -0.00032382342 -1.1828667e-08 -4.870054e-07
000090 1a af ff b8 2a 3a 6a b8 00 00 00 00 ba 94 75 b9
       -0.00012191963 -5.5844117e-05 0.0 -0.00023420426
0000a0 7f 2f a8 b9 60 fd ef b7 70 fa 96 b8 8c f9 ce b9
       -0.00032078844 -2.8609007e-05 -7.199205e-05 -0.0003947731
0000b0 ab 9c dc b8 dc 25 b6 b9 e3 dd 99 b8 e9 5f 02 b9
       -0.00010519599 -0.00034741953 -7.336938e-05 -0.00012433495
0000c0 9a 73 ad b8 29 91 10 b8 c2 38 2f b9 1d a5 2c b9
       -8.270815e-05 -3.4467466e-05 -0.00016710444 -0.00016464708
0000d0 00 00 00 00 00 00 00 00 7f 82 98 2e 00 00 00 00
       0.0 0.0 6.9353405e-11 0.0
0000e0 00 00 00 00 ec 5d 16 2b 2d f3 69 2b ce 21 2e 30
       0.0 5.342105e-13 8.3115703e-13 6.334887e-10
0000f0 00 00 00 00 00 00 00 00 24 12 c7 30 f0 db 36 30
       0.0 0.0 1.4484312e-09 6.6523764e-10
000100 00 00 00 00 73 15 9d 30 c3 d8 b9 30 d1 94 8a 2f
       0.0 1.142935e-09 1.3522129e-09 2.5207794e-10
000110 d2 f5 c3 30 9a b6 1f 30 12 d1 18 30 f1 4d af 30
       1.4257984e-09 5.8103355e-10 5.5594385e-10 1.2755078e-09
000120 c8 f5 d5 30 8b 9d 5a 30 e1 47 59 30 ae 4b c9 2f
       1.5567645e-09 7.953182e-10 7.9046286e-10 3.661546e-10
000130 c2 67 60 30 c2 67 60 30 00 00 00 00 00 00 00 00
       8.1638174e-10 8.1638174e-10 0.0 0.0
000140 22 5e 12 28 00 00 00 00 00 00 00 00 00 00 00 00
       8.12504e-15 0.0 0.0 0.0
000150 00 00 00 00 fb 06 6f 29 00 00 00 00 00 00 00 00
       0.0 5.3074715e-14 0.0 0.0
000160 30 59 54 2a 9d 77 0a 29 00 00 00 00 1d 4f 3e 2a
       1.8860326e-13 3.0745903e-14 0.0 1.6902838e-13
000170 eb fc aa 29 95 7b b9 a7 f7 62 2c 2a e4 1e 84 2a
       7.593391e-14 -5.1481803e-15 1.5311004e-13 2.3469345e-13
000180 52 a7 97 2a 8e f1 1f 2a d2 b0 d8 29 5c ef 07 2a
       2.693909e-13 1.4205843e-13 9.6230004e-14 1.2073453e-13
000190 3b 59 c4 29 b4 9f 23 29 5c ef 07 2a 5c ef 07 2a
       8.7196275e-14 3.633179e-14 1.2073453e-13 1.2073453e-13
0001a0 62 4b 9d 38 34 05 d3 ba 34 71 17 bb d2 0b de 38
       7.5003845e-05 -0.0016099573 -0.0023108246 0.000105879866
0001b0 de ca 3d ba 2e a1 c4 bb 98 62 26 bc 9d a1 ad bc
       -0.00072400074 -0.0060006594 -0.0101553425 -0.021195227
0001c0 02 2f df bb 93 a9 a6 bb 30 54 82 3a 33 2f 71 3b
       -0.0068110237 -0.005086133 0.0009943303 0.0036801815
0001d0 74 2a 9c bb 96 f1 42 bc fa c0 63 bc 3a 63 bd bb
       -0.004765803 -0.011898419 -0.01390099 -0.005779651
0001e0 f6 ea 9b bc cb 98 4a bc 0e a8 33 bc f3 f4 7b bc
       -0.019032937 -0.01236553 -0.01096536 -0.015378225
0001f0 3a 91 64 bc 6a 35 40 bb 14 d5 b6 ba a0 06 dd b8
       -0.01395064 -0.0029328712 -0.0013949 -0.00010539335
000200 23 97 bd bb cf 04 93 bb e9 ad a2 b4 d3 a1 0f b4
       -0.005785839 -0.004486657 -3.0301388e-07 -1.3376784e-07
000210 f3 be ea 37 7a fa 3c b4 34 9c 80 b4 5f 4b ec b4
       2.7983891e-05 -1.7599987e-07 -2.395551e-07 -4.4013265e-07
000220 52 e5 8b 35 0c a9 08 39 4c f2 a8 b4 a2 bc df b4
       1.0423048e-06 0.00013032946 -3.1468733e-07 -4.1674235e-07
000230 f6 89 0d 39 70 89 b4 38 85 39 a5 b4 09 7b 49 39
       0.00013498202 8.6086686e-05 -3.0775496e-07 0.00019214688
000240 b3 4a 46 37 18 0f 12 b8 50 66 06 3a 18 d1 c8 38
       1.1819112e-05 -3.482317e-05 0.000512694 9.57569e-05
000250 45 cb d4 39 e6 2e 0e b9 f7 8a 08 3a 08 d5 19 39
       0.0004058724 -0.00013559646 0.00052086957 0.00014670577
000260 1e 1f f6 38 ee 19 4d 38 9b 56 20 39 a8 c4 32 39
       0.0001173599 4.8899958e-05 0.00015291052 0.00017048663
000270 13 99 52 bb 5a 45 e3 3b cf 72 8d 3b a2 ec e5 3a
       -0.0032134696 0.0069357576 0.0043166648 0.0017541836
000280 e7 91 2e bb 18 51 d5 3c a4 6b 08 3d f3 67 fd 3c
       -0.0026637258 0.026039645 0.03330578 0.030933356
000290 ef 14 cc 3c 13 a4 88 3c 4a 9b 34 3c e2 b1 f1 3b
       0.024912326 0.0166798 0.011023352 0.0073759416
0002a0 ec c7 47 3c 64 e2 c2 3c 2a c3 00 3d b0 44 a1 3c
       0.012193661 0.023789592 0.031436123 0.019686073
0002b0 9d 3a 53 3c f2 89 a1 3c 5a 5e d2 3c 1e 66 29 3d
       0.012892392 0.019719098 0.025679756 0.041357152
0002c0 52 dc 19 3d b8 81 10 3c 24 a5 05 3c 97 ab 9b 3b
       0.03756363 0.00881999 0.008157048 0.0047506797
0002d0 9c 63 50 3c 36 d0 2c 3c ba 43 45 ba 22 ec 1b 3a
       0.012719061 0.010547688 -0.00075250457 0.00059479673
0002e0 16 1f 27 ba 04 fe 0b bb 42 2b ec ba 90 b6 6d 3c
       -0.00063751766 -0.0021361122 -0.0018018263 0.014508858
0002f0 d6 4b 8d 3c 1d 27 33 bc a6 dc 19 3c c4 b7 18 3c
       0.017248075 -0.010934618 0.009390986 0.009321157
000300 d0 d4 4a bc 28 db 60 bc c7 fd fb 3a 6d f6 35 bc
       -0.01237984 -0.013724126 0.0019225412 -0.011106116
000310 2e 06 be bc 44 e0 20 3b de 23 9b bc b0 45 40 bc
       -0.023196306 0.0024547735 -0.018938001 -0.011735365
000320 c2 d0 ac bc 80 f6 58 bb 00 0e 8b 36 36 ff 17 bc
       -0.021095637 -0.003310591 4.1441526e-06 -0.009277156
000330 70 59 11 bc 1b c2 8e bb 39 ac 13 bc 9e 65 16 bc
       -0.008871421 -0.0043566353 -0.009013229 -0.009179501
000340 4b b8 c8 b6 15 55 cb 38 46 06 97 b8 3f ac aa ad
       -5.981919e-06 9.695642e-05 -7.2014096e-05 -1.9403255e-11
000350 69 e1 5f ad 87 5f f3 b7 27 93 e2 39 e3 67 92 39
       -1.27261335e-11 -2.901234e-05 0.00043215716 0.00027924692
000360 bd 56 7f 37 db 57 31 b7 9b 46 be ba 50 d4 01 ba
       1.521938e-05 -1.0570478e-05 -0.0014516892 -0.00049525965
000370 2a 65 98 2f 40 1e e5 b9 cc df aa b9 81 4d a9 38
       2.772052e-10 -0.00043700822 -0.00032591668 8.072984e-05
000380 3a ef 10 ba 66 36 83 39 99 53 87 39 78 d1 bf 3a
       -0.00055288116 0.00025026797 0.00025811492 0.001463457
000390 94 06 17 ba 06 80 42 ba f0 4c 5a ba e0 cc c7 b9
       -0.0005761173 -0.00074195897 -0.00083275046 -0.00038108882
0003a0 aa ad d5 b9 4a b5 02 ba 00 00 00 00 00 00 00 00
       -0.00040755916 -0.00049861206 0.0 0.0
0003b0 00 00 00 00 00 00 00 00 00 00 00 00 00 00 00 00
       0.0 0.0 0.0 0.0
0003c0 00 00 00 00 00 00 00 00 00 00 00 00 00 00 00 00
       0.0 0.0 0.0 0.0
0003d0 00 00 00 00 00 00 00 00 00 00 00 00 00 00 00 00
       0.0 0.0 0.0 0.0
0003e0 00 00 00 00 00 00 00 00 00 00 00 00 00 00 00 00
       0.0 0.0 0.0 0.0
0003f0 00 00 00 00 00 00 00 00 00 00 00 00 00 00 00 00
       0.0 0.0 0.0 0.0

exp_avg_sq f4 [256, 26]
000000 bf c2 d9 39 ab 4b ab 39 4e db ab 39 0c 7a 9d 39
       0.00041534562 0.0003267204 0.00032779056 0.00030036306
000010 c3 33 92 39 c7 3e a5 3a d7 03 a4 3a 76 3f 1f 3b
       0.00027885856 0.001260721 0.0012513351 0.00242993
000020 7f 0d 95 3a 0e 08 96 3a 13 4d a3 3a d4 5c d3 3a
       0.001137182 0.0011446492 0.0012458883 0.0016125687
000030 ad 64 f6 39 6f 5b 06 3b a7 5b 4a 3b 0b 1f c6 3a
       0.00046995786 0.0020501276 0.0030877383 0.0015115453
000040 77 7e 2b 3b 9e d1 36 3b 92 f0 4e 3b f4 9d 31 3b
       0.0026167908 0.0027895938 0.0031576497 0.0027102204
000050 99 85 37 3b 95 20 79 3a 2e df 4f 3a 74 67 29 39
       0.0028003214 0.00095034513 0.00079296797 0.00016155635
000060 41 ae 87 3a a7 b9 85 3a 00 00 00 00 0b b7 9f 30
       0.0010351614 0.0010202423 0.0 1.1620797e-09
000070 6d 7d 91 33 00 00 00 00 00 00 00 00 1b f5 d1 32
       6.7749035e-08 0.0 0.0 2.4442263e-08
000080 64 48 32 33 01 42 80 36 60 0e 78 32 fa 35 ab 32
       4.1509693e-08 3.822381e-06 1.4438768e-08 1.9931566e-08
000090 79 a2 41 36 7e f0 26 36 00 00 00 00 62 29 cc 36
       2.8853813e-06 2.4875912e-06 0.0 6.0844914e-06
0000a0 02 23 12 37 72 15 0f 36 2e 99 70 36 c5 57 6e 37
       8.710429e-06 2.1321143e-06 3.585195e-06 1.4206341e-05
0000b0 d4 e3 bc 36 c2 40 9c 36 72 47 3b 36 35 4a 1d 36
       5.6293593e-06 4.656701e-06 2.7906758e-06 2.3438017e-06
0000c0 50 5e f2 35 61 fe a5 34 b1 8a 3b 36 14 6c 34 36
       1.8057854e-06 3.091873e-07 2.79459e-06 2.6885e-06
0000d0 00 00 00 00 00 00 00 00 b1 13 68 32 00 00 00 00
       0.0 0.0 1.3508655e-08 0.0
0000e0 00 00 00 00 c6 66 55 2c ca 30 01 2d 0f d0 84 35
       0.0 3.0326171e-12 7.343634e-12 9.895319e-07
0000f0 00 00 00 00 00 00 00 00 36 fa aa 36 81 53 a6 35
       0.0 0.0 5.095523e-06 1.2392267e-06
000100 00 00 00 00 96 85 59 36 70 97 96 36 6e 9f 38 34
       0.0 3.2413277e-06 4.487978e-06 1.7194336e-07
000110 cb e2 ee 36 7e 94 8a 35 55 db 43 35 93 a1 84 36
       7.119355e-06 1.0325018e-06 7.296233e-07 3.9527163e-06
000120 65 67 ce 36 c5 40 d8 35 f4 89 d9 35 98 f6 b2 34
       6.151315e-06 1.6112105e-06 1.620791e-06 3.3334504e-07
000130 0c f6 dd 35 0c f6 dd 35 00 00 00 00 00 00 00 00
       1.6537392e-06 1.6537392e-06 0.0 0.0
000140 0a b8 0e 2c 00 00 00 00 00 00 00 00 00 00 00 00
       2.0281576e-12 0.0 0.0 0.0
000150 00 00 00 00 b3 4e be 2e 00 00 00 00 00 00 00 00
       0.0 8.6541795e-11 0.0 0.0
000160 43 32 96 30 bb 74 ff 2d 00 00 00 00 1f 46 71 30
       1.0928222e-09 2.9041982e-11 0.0 8.777494e-10
000170 2c c5 42 2f ec 30 65 2b 27 f8 45 30 27 93 e8 30
       1.7714247e-10 8.1425036e-13 7.202083e-10 1.6922045e-09
000180 a6 36 19 31 f7 6b 2a 30 de 66 9c 2f 9f 32 f6 2f
       2.2295494e-09 6.1999067e-10 2.8449326e-10 4.4783108e-10
000190 61 6a 80 2f ce 5a 32 2e 9f 32 f6 2f 9f 32 f6 2f
       2.335865e-10 4.0553165e-11 4.4783108e-10 4.4783108e-10
0001a0 0e 60 51 38 75 ba 01 38 0b 06 80 38 f4 8e 77 38
       4.991894e-05 3.092965e-05 6.104641e-05 5.9022525e-05
0001b0 fa 3b 81 38 71 ae 24 39 00 5f 10 39 c1 e4 20 3a
       6.162371e-05 0.00015705243 0.000137683 0.00061376026
0001c0 98 47 16 39 be ce 07 39 b7 70 8d 39 3b 61 14 3a
       0.00014331785 0.00012951621 0.00026977595 0.00056602404
0001d0 a8 67 bd 38 b7 c9 1d 3a 5a a4 4e 3a 5d 5d 6c 39
       9.03153e-05 0.00060191326 0.00078827667 0.00022541494
0001e0 0b 7e 6e 3a 11 8c 48 3a 43 77 88 3a b7 0f 82 3a
       0.00090977614 0.0007650266 0.0010411519 0.0009922896
0001f0 43 cc 21 3a 12 75 8d 39 c6 3c 6b 39 a6 92 31 38
       0.00061721 0.0002698084 0.00022433986 4.2336666e-05
000200 c2 40 9b 39 9b 72 97 39 c6 16 ed 35 4c 39 db 35
       0.00029612152 0.00028886352 1.7664504e-06 1.6333447e-06
000210 da 28 4e 36 39 2b 16 36 af 65 80 36 16 ea 99 36
       3.072017e-06 2.23769e-06 3.826535e-06 4.5870065e-06
000220 b4 e7 9a 36 8c c0 16 37 25 ba bd 36 cd db d3 36
       4.6165314e-06 8.9855275e-06 5.654309e-06 6.313878e-06
000230 ad d0 d4 35 1e 43 b4 36 bb da 66 36 4d 82 2e 37
       1.5855964e-06 5.3722315e-06 3.4399989e-06 1.0401546e-05
000240 55 2b 23 37 62 19 f2 36 44 1b 95 37 2a 3f f5 36
       9.725646e-06 7.215117e-06 1.777488e-05 7.3089222e-06
000250 80 59 51 37 89 0b be 37 93 db 15 37 53 09 38 36
       1.2478209e-05 2.2655136e-05 8.932216e-06 2.7423564e-06
000260 27 ee 0e 36 bb 4b ca 34 25 37 67 36 09 d7 52 36
       2.1298272e-06 3.7680533e-07 3.445378e-06 3.1417605e-06
000270 15 17 21 3a 1c cc 11 3a aa 76 06 3a ca 11 21 3a
       0.0006145102 0.00055617257 0.00051293767 0.00061443134
000280 40 ba f0 39 41 1a fc 3a c1 a4 02 3b e7 50 94 3b
       0.00045915134 0.0019233898 0.0019934627 0.004526246
000290 9a 90 da 3a e0 74 ec 3a b3 0d 2c 3b e0 4e 38 3b
       0.0016675175 0.0018040203 0.0026253283 0.0028123185
0002a0 93 85 42 3a a2 3f 80 3b c3 77 c9 3b bc 65 27 3b
       0.0007420417 0.0039138356 0.00614831 0.0025542816
0002b0 69 21 a2 3b 17 c6 ab 3b b5 9d 9e 3b bd 49 a9 3b
       0.0049478305 0.00524212 0.0048405775 0.005166261
0002c0 c5 41 9b 3b 7c 29 e4 3a 51 43 c3 3a d1 7a 9e 39
       0.004738065 0.0017407383 0.0014897381 0.00030227614
0002d0 76 a1 fa 3a 37 fe f3 3a 0d b7 c4 39 d8 d7 d2 39
       0.0019121605 0.0018615191 0.00037520417 0.00040215137
0002e0 c4 0d d0 39 de 1b db 39 79 8b b7 39 73 2f ae 3a
       0.00039683108 0.00041791698 0.00035008395 0.0013289287
0002f0 9c 9b b8 3a 5b 22 53 3b 25 3a 9f 3a 8c 8f af 3a
       0.0014084461 0.0032216522 0.0012148066 0.0013394221
000300 3f af 00 3b 6f 07 0e 3b 6f 78 14 3a 2f d2 3e 3b
       0.0019635705 0.0021671911 0.0005663698 0.0029116978
000310 a3 82 92 3b d6 0e f5 3a a6 1d 6f 3b 53 11 82 3b
       0.0044711395 0.0018696438 0.0036486178 0.0039693504
000320 b4 33 74 3b e2 32 76 3b 7b 50 53 3b ef b3 ae 3a
       0.0037262263 0.003756695 0.0032244015 0.0013328771
000330 b4 05 93 3a 24 61 6c 39 1c dc bd 3a d2 5a ba 3a
       0.001121691 0.00022542902 0.0014485153 0.001421774
000340 7b ef d8 31 82 31 9b 32 91 31 8c 34 7c 8f b1 2f
       6.313653e-09 1.8066888e-08 2.6113096e-07 3.2298064e-10
000350 db 62 31 2f b6 18 4a 34 4e 6a 72 34 ef fb bb 37
       1.6133177e-10 1.8821706e-07 2.257668e-07 2.2409453e-05
000360 97 94 05 32 21 28 a8 31 52 5c 38 37 a9 f3 16 38
       7.775404e-09 4.8940056e-09 1.098875e-05 3.5989713e-05
000370 86 d5 04 34 e2 03 0b 38 a1 31 13 38 70 d7 a8 36
       1.2371137e-07 3.31438e-05 3.509375e-05 5.0318704e-06
000380 b9 f7 68 38 c5 7a 94 38 5c 1d 2d 38 e4 11 c9 37
       5.554382e-05 7.0800575e-05 4.1273757e-05 2.3969398e-05
000390 e6 df aa 37 67 f1 71 37 60 7a 3b 37 74 e6 0c 36
       2.036984e-05 1.4420925e-05 1.1174561e-05 2.0995767e-06
0003a0 ae 05 8c 37 47 b1 89 37 00 00 00 00 00 00 00 00
       1.6691945e-05 1.6414224e-05 0.0 0.0
0003b0 00 00 00 00 00 00 00 00 00 00 00 00 00 00 00 00
       0.0 0.0 0.0 0.0
0003c0 00 00 00 00 00 00 00 00 00 00 00 00 00 00 00 00
       0.0 0.0 0.0 0.0
0003d0 00 00 00 00 00 00 00 00 00 00 00 00 00 00 00 00
       0.0 0.0 0.0 0.0
0003e0 00 00 00 00 00 00 00 00 00 00 00 00 00 00 00 00
       0.0 0.0 0.0 0.0
0003f0 00 00 00 00 00 00 00 00 00 00 00 00 00 00 00 00
       0.0 0.0 0.0 0.0
