models/reinforce/reinforce_large/checkpoint_ep100.pth (torch, 904778 bytes, 18 tensors)

network.0.weight f4 [256, 26]
0	0xbe2bb9f1	-0.1677015
1	0x3d9b853d	0.075937726
2	0x3e071ce0	0.13194609
3	0xbdd6092e	-0.1045097
4	0xbcf24b96	-0.029577058
5	0x3e2d3d44	0.16917902
6	0xbd49ff43	-0.049315702
7	0x3c1e2fd5	0.009654959
8	0x3e0b381a	0.1359562
9	0xbd5eed50	-0.054425538
10	0xbe1eb9ea	-0.15500608
11	0xbd0f9187	-0.035050895
12	0x3e1754ad	0.14778395
13	0xbe0d1b11	-0.13779856
14	0xbe223f2f	-0.15844415
15	0x3e3346c1	0.17507459
16	0x3cfcd772	0.030864451
17	0x3b930751	0.004486956
18	0x3e440194	0.19141227
19	0xbcdb2625	-0.026751587
20	0x3e4dd2b7	0.20099913
21	0x3e33e855	0.17569096
22	0x3e375eb0	0.17907214
23	0x3e3b054b	0.18263738
24	0xbe05d5a7	-0.13069783
25	0xbe15b466	-0.14619598
26	0xbbb97aa0	-0.00566037
27	0x3e2eaaf9	0.17057408
28	0xbd04ba12	-0.032404013
29	0xbd940184	-0.072268516
30	0x3c26b120	0.010174066
31	0xbdc7d1a5	-0.097567834
32	0xbe1a3c7e	-0.15062138
33	0xbdaa2519	-0.08307857
34	0xbd1a5c8b	-0.037685912
35	0x3e4802c3	0.19532304
36	0xbda69837	-0.081345014
37	0x3d73fe49	0.059568677
38	0xbe12d477	-0.14338861
39	0x3da65758	0.08122128
40	0x3d0346b6	0.032049857
41	0x3d11d0e7	0.035599615
42	0xbdf00bbe	-0.1172099
43	0x3e10db08	0.14146054
44	0xbd0fa532	-0.035069652
45	0xbd692586	-0.05692055
46	0xbe42d83b	-0.19027798
47	0xbd9ab33f	-0.0755372
48	0xbdea07e5	-0.11427287
49	0xbe405f2c	-0.18786305
50	0x3ddf5712	0.10905279
51	0x3d6d2645	0.057897825
52	0xbda9244c	-0.08258876
53	0xbd13b52c	-0.03606145
54	0xbe093913	-0.13400678
55	0xbdb79003	-0.08963015
56	0xbe4719f8	-0.194435
57	0xbdf04902	-0.11732675
58	0xbe218201	-0.15772249
59	0xbd8f6944	-0.070025
60	0x3dd7f67a	0.105450585
61	0xbe225b47	-0.15855132
62	0x3e232fe4	0.15936238
63	0xbdda9823	-0.10673549
64	0xbd6524f4	-0.055943444
65	0xbddebb2b	-0.10875543
66	0x3e33146d	0.1748826
67	0xbe1fd441	-0.15608312
68	0x3d0955bc	0.03352903
69	0xbdd64fa3	-0.10464408
70	0xbe1079dd	-0.14108987
71	0x3da6af50	0.08138907
72	0x3cb6bad8	0.02230589
73	0x3d0e5384	0.034747615
74	0xbdebeb5d	-0.11519501
75	0x3d24971e	0.04018318
76	0x3d829da6	0.06377725
77	0x3c2fa429	0.010720291
78	0x3dc94632	0.09827842
79	0x3d599f84	0.05313064
80	0x3e27c4a1	0.16383602
81	0x3d093c88	0.033504993
82	0xbd3a2504	-0.045445457
83	0x3df6355e	0.12021898
84	0x3dc64806	0.09681706
85	0xbe39ed05	-0.18156822
86	0x3cf1b018	0.029502913
87	0xbdf0802f	-0.11743199
88	0x3e175384	0.14777952
89	0xbda9fb0f	-0.08299839
90	0xbe08ae06	-0.13347635
91	0xbdaf3cd0	-0.08556521
92	0xbdb062f3	-0.08612623
93	0xbe1e31af	-0.1544864
94	0x3d3ef87e	0.0466237
95	0x3d0af408	0.033924133
96	0xbd9e3e13	-0.077266835
97	0x3c26114a	0.010135958
98	0xbcf4f56e	-0.029902186
99	0xbd0dbb40	-0.034602404
100	0x3d144238	0.036195964
101	0xbd4f8222	-0.050661214
102	0xbccee17e	-0.025254007
103	0x3cf210c1	0.029549005
104	0x3dfdf9cb	0.1240116
105	0xbe16c477	-0.14723383
106	0x3d247d50	0.04015857
107	0xbe30d899	-0.17270125
108	0x3e2e1e07	0.17003642
109	0xbc64b5d4	-0.013959367
110	0xbdcfce8e	-0.10146819
111	0x3cb0ef8d	0.021598602
112	0xbc66eb11	-0.01409413
113	0xbd325e5a	-0.043547012
114	0xbe16afb5	-0.14715464
115	0x3d0abd87	0.033872154
116	0x3dfbeb3a	0.12300725
117	0x3e37eb26	0.17960796
118	0xbe4289fe	-0.18997952
119	0xbd900936	-0.07033007
120	0x3e0ffe7a	0.14061919
121	0xbd216e20	-0.039411664
122	0x3e077de3	0.13231616
123	0x3decc0bc	0.11560199
124	0xbe22c1b2	-0.15894201
125	0x3e17d24f	0.1482632
126	0x3dc3f0e6	0.09567432
127	0xbdebe411	-0.115181096
128	0xbe25fb21	-0.1620908
129	0xbd0edb07	-0.03487685
130	0x3cd62b02	0.026143555
131	0xbdeb8be1	-0.11501289
132	0x3e293b93	0.16526632
133	0xbd8dd7e0	-0.069259405
134	0x3e103f50	0.14086652
135	0xbded27aa	-0.11579831
136	0xbe141e99	-0.14464797
137	0x3d8ffcf2	0.07030667
138	0x3e0a5fd5	0.1351312
139	0x3caa58ab	0.020794233
140	0xbe41df1f	-0.1893277
141	0x3dd446fa	0.103651
142	0x3d9cde20	0.076595545
143	0xbe3deb46	-0.18546781
144	0xbdef943d	-0.11698196
145	0x3ddb6838	0.107132375
146	0x3d74d30e	0.05977159
147	0xbdbbb9fa	-0.091663316
148	0x3db9cb09	0.09071929
149	0x3d60ec7e	0.054913037
150	0x3d2b605b	0.04183994
151	0xbdd05207	-0.101718955
152	0xbdc4d17c	-0.096102685
153	0xbe4b196d	-0.19833918
154	0xbe4f99f7	-0.20273577
155	0xbd462ef3	-0.048384618
156	0x3d580bbb	0.052745562
157	0x3df893eb	0.12137588
158	0x3e1ad6e1	0.15121032
159	0xbde13043	-0.10995533
160	0x3e14d8c1	0.1453581
161	0x3c4ff5dd	0.012692896
162	0x3d680e26	0.056654118
163	0xbb5c129b	-0.0033580426
164	0xbd5e1dd5	-0.05422767
165	0x3e401369	0.18757404
166	0x3dd9569f	0.10612225
167	0xbad617b3	-0.0016333967
168	0xbdefd048	-0.11709648
169	0xbe1c8a92	-0.15287235
170	0x3db69c11	0.08916486
171	0x3da245c1	0.07923461
172	0x3c1802e3	0.009278032
173	0xbcbd59b1	-0.023114057
174	0x3b10e295	0.002210771
175	0x3cd14f40	0.025550485
176	0x3d5c625b	0.053804737
177	0x3daea043	0.08526661
178	0xbe2634ec	-0.16231126
179	0xbdb848dc	-0.08998272
180	0x3e0c242a	0.1368567
181	0x3dfec569	0.12439997
182	0x3ded6943	0.11592343
183	0x3dc5dbc1	0.09661055
184	0x3dac069f	0.083997004
185	0xbe39eded	-0.18157168
186	0x3ddc4165	0.107546605
187	0xbe431550	-0.19051099
188	0x3c48b8e7	0.012251115
189	0xbd546109	-0.051850352
190	0x3e3b75b7	0.18306623
191	0x3e1aefc2	0.15130523
192	0x3e3ae1a1	0.18250133
193	0xbc67616e	-0.01412235
194	0x3cb862bb	0.022508016
195	0xbc9d9ab4	-0.019238807
196	0x3e2d9571	0.16951539
197	0x3e44e1eb	0.19226806
198	0xbd9cb5e3	-0.0765188
199	0x3e5e5b3f	0.21714495
200	0x3e22f9c6	0.15915594
201	0x3d6e9544	0.05824782
202	0x3e54f4e9	0.20796551
203	0xbd361ecd	-0.044462968
204	0x3db42808	0.08796698
205	0x3e32870c	0.17434329
206	0xbbd8c8b8	-0.0066157244
207	0xbd53217a	-0.051545598
208	0xbe047bc4	-0.12937838
209	0xbb99ae8f	-0.0046899985
210	0xbe4bf7a0	-0.1991868
211	0xbdb5f8b3	-0.08885326
212	0x3d26f8a1	0.040764455
213	0xbd7d4035	-0.06182881
214	0xbe1c0946	-0.15237913
215	0xbdc2c754	-0.09510675
216	0xbde9492d	-0.1139091
217	0xbe2a6e81	-0.16643716
218	0xbdb6c210	-0.08923733
219	0x3e2c2128	0.16809523
220	0x3d8ed179	0.069735475
221	0xbbb0c6b5	-0.0053947815
222	0xbdcf2914	-0.10115257
223	0x3cf3b1cf	0.029747872
224	0x3df10c34	0.11769906
225	0x3df142ab	0.11780294
226	0x3c591196	0.013248822
227	0xbe376139	-0.17908181
228	0xbe45849d	-0.19288869
229	0xbe28947d	-0.16462894
230	0xbe432794	-0.19058067
231	0xbc02263e	-0.007943688
232	0xbd2c4c63	-0.042065036
233	0x3e2b3b4d	0.1672184
234	0x3d06d674	0.032919362
235	0xbd61e05c	-0.055145606
236	0x3d9b4ff2	0.07583608
237	0xbcbbd158	-0.022926971
238	0xbd9a16fc	-0.07523915
239	0xbc07a950	-0.008280113
240	0xbda2f32a	-0.07956536
241	0xbd6720cc	-0.056427762
242	0xbe098ec6	-0.1343337
243	0x3e23b387	0.15986453
244	0x3e0fb25f	0.14032887
245	0xbda17a38	-0.078846395
246	0xbe3e1bf2	-0.18565348
247	0xbdbd3d7a	-0.09240241
248	0xbe403c9b	-0.18773119
249	0xbe293a7d	-0.16526218
250	0x3e4612e7	0.19343148
251	0xbe2e475e	-0.17019412
252	0xbb1a0000	-0.0023498535
253	0x3e227959	0.15866603
254	0xbcd38200	-0.025818825
255	0x3e29b813	0.16574125

network.0.bias f4 [256]
0	0xbdcaabdc	-0.09896061
1	0x3d697fd8	0.057006687
2	0xbe2c6a93	-0.1683753
3	0x3cdb1214	0.026742019
4	0xbd98e8a7	-0.0746625
5	0x3d7da1a1	0.06192172
6	0x3db7e651	0.08979476
7	0x3d8812d2	0.06644215
8	0x3e0529e9	0.13004269
9	0xbe26258d	-0.16225262
10	0x395d5c06	0.00021110484
11	0x3e475fb1	0.19470097
12	0xbdaeff5e	-0.08544801
13	0x3e21d6d4	0.15804607
14	0x3e4a456c	0.19753045
15	0x3db82f8a	0.08993442
16	0x3e2e6efa	0.17034522
17	0x3d86cd8a	0.06582172
18	0x3df7a8d5	0.12092749
19	0xbe09f4eb	-0.13472335
20	0x3c36a519	0.011147761
21	0x3cf96cb1	0.030447336
22	0x3e2c4d2d	0.16826315
23	0x3da24fbe	0.07925366
24	0x3e051037	0.12994467
25	0x3dc77de2	0.09740807
26	0x3dd56a59	0.10420675
27	0x3e35cdc6	0.17754278
28	0x3da7141a	0.08158131
29	0xbdd3c01a	-0.10339375
30	0xbdb086bd	-0.08619449
31	0x3e1e0c5a	0.15434399
32	0xbdefd4ca	-0.11710508
33	0xbd1ded20	-0.03855622
34	0xbdfb2247	-0.12262397
35	0xbbdef3e0	-0.0068039745
36	0x3dfaa490	0.12238419
37	0xbd02a128	-0.03189197
38	0xbd93df4c	-0.07220325
39	0x3df6fdfb	0.12060162
40	0x3e2b03f8	0.16700733
41	0xbe43040b	-0.19044511
42	0xbe40fff5	-0.1884764
43	0x3e468eac	0.19390363
44	0x3d7bd122	0.06147874
45	0xbd77048e	-0.060307078
46	0xbcc82c98	-0.024435326
47	0x3e0110f0	0.12604117
48	0xbd2b8430	-0.04187411
49	0x3d564831	0.05231494
50	0x3e112f75	0.1417826
51	0x3c6031af	0.0136837205
52	0xbe44e6c6	-0.19228658
53	0x3e16e9b4	0.14737588
54	0xbdc006b1	-0.09376276
55	0xbd87c303	-0.066289924
56	0xbc3388be	-0.010957895
57	0xbdf088fd	-0.117448784
58	0xbe48a877	-0.19595514
59	0xbdcdcce8	-0.100488484
60	0x3e2f713d	0.1713304
61	0xbe380e8d	-0.179743
62	0x3e5217b3	0.20516853
63	0xbdd8a19d	-0.105777
64	0xbe0a6d29	-0.13518204
65	0xbc9aa41f	-0.018877087
66	0x3c2421c3	0.010017815
67	0x3d59bbf8	0.053157777
68	0x3ddbf91f	0.107408755
69	0xbda9800b	-0.082763754
70	0xbe4b9812	-0.19882229
71	0xbcfd1cdf	-0.030897556
72	0xbd257b14	-0.04040058
73	0xbdc697fb	-0.09696957
74	0x3df5ea41	0.12007571
75	0x3cddca58	0.027074024
76	0xbd640168	-0.055665404
77	0xbe052f8b	-0.13006417
78	0x3d585f32	0.05282516
79	0x3dcefa35	0.10106317
80	0x3db3bb2e	0.08775936
81	0xbe3144ac	-0.17311352
82	0xbddffd51	-0.10936988
83	0xbe1a4314	-0.15064651
84	0xbc346e6d	-0.011012656
85	0x3b0c7b72	0.0021435884
86	0xbd699438	-0.057026118
87	0xbe06b153	-0.13153581
88	0x3e376a39	0.17911614
89	0x3d745f01	0.059660915
90	0x3e4bc1bd	0.19898124
91	0x3d3bce2d	0.04585092
92	0x3dfe313a	0.12411733
93	0x3e4cca37	0.19999014
94	0xbd406c28	-0.046978146
95	0xbd8d615a	-0.06903334
96	0xbb9914ae	-0.0046716547
97	0x3dc1fbee	0.0947188
98	0x3db8ce42	0.090237156
99	0x3e15025d	0.14551683
100	0xbe0c635f	-0.13709782
101	0x3d8b504a	0.06802423
102	0xbd625f1c	-0.055266485
103	0x3e30c5c2	0.17262939
104	0xbe451edb	-0.19250052
105	0xbe467ab3	-0.19382744
106	0xbe0684b9	-0.13136567
107	0x3df2dda7	0.11858683
108	0x3cec2c7e	0.02882981
109	0x3e289177	0.1646174
110	0xbe38bde8	-0.18041193
111	0xbc8c4d8e	-0.017126825
112	0x3c39f4f1	0.0113499025
113	0x3dcf50e0	0.101228476
114	0xbdc180ed	-0.09448419
115	0x3d973c64	0.073845655
116	0x3da7ec73	0.08199396
117	0x3d40b2f4	0.047045663
118	0xbe27162f	-0.16317056
119	0xbe026fcc	-0.1273796
120	0xbe1a7570	-0.15083861
121	0x3dba17be	0.0908656
122	0x3e1ca5e7	0.15297662
123	0xbdfc1eb8	-0.12310547
124	0x3d9f2fe7	0.077728085
125	0x3cd94a30	0.026524633
126	0x3df1bb87	0.11803346
127	0x3e25c2bf	0.16187571
128	0x3de58fe7	0.11209088
129	0xbe2401ae	-0.16016266
130	0xbcfaf7f6	-0.030635815
131	0xbd2e3254	-0.042528465
132	0x3e05099a	0.12991944
133	0xbdddcfe8	-0.108306706
134	0xbe371b5a	-0.17881528
135	0xbe41e6db	-0.1893572
136	0x3df29729	0.11845238
137	0x3de2e890	0.11079514
138	0x3e17b383	0.14814572
139	0x3d961d0d	0.0732976
140	0x3ddb8baf	0.10720002
141	0x3da8cdd4	0.082423836
142	0xbe1aa39d	-0.15101476
143	0x3cc60ad3	0.024175083
144	0xbe46c155	-0.19409688
145	0x3e05245b	0.1300215
146	0xbe0c215d	-0.13684602
147	0xbdf9ff77	-0.12206929
148	0x3d328029	0.043579254
149	0xbe05f7b0	-0.13082767
150	0x3d9246b4	0.07142392
151	0xbd7b2f0e	-0.06132417
152	0xbe2a6505	-0.16640098
153	0xbc1b0b10	-0.009463087
154	0x3c0039d0	0.007826284
155	0xbd0a2005	-0.033721942
156	0x3d75fadc	0.06005369
157	0x3d6b3f16	0.05743321
158	0x3e02c312	0.12769726
159	0x3cbdbb7c	0.023160689
160	0x3d79f241	0.061022047
161	0xbe126d3e	-0.14299485
162	0xbd41c27d	-0.04730462
163	0xbe099d87	-0.13438998
164	0xbd62400d	-0.055236865
165	0xbdc70b49	-0.09718949
166	0x3d01870d	0.031622935
167	0x3d2afc18	0.04174432
168	0xbbb9a8a4	-0.0056658555
169	0x3e16e7d5	0.14736874
170	0x3e43d8fb	0.1912574
171	0x3de73eb4	0.112912565
172	0xbd643431	-0.055713836
173	0x3e0f2415	0.13978608
174	0xbcfe1e1c	-0.031020217
175	0xbd9cb743	-0.07652142
176	0x3e143c64	0.14476162
177	0x3c69b586	0.01426447
178	0xbd6799cd	-0.05654316
179	0xbe2cfdfc	-0.16893762
180	0x3e3c3a2a	0.18381563
181	0x3e161ad8	0.14658678
182	0xbd7f5770	-0.062339246
183	0xbd3ec232	-0.046571918
184	0x3e2f9624	0.17147118
185	0x3d00d13c	0.03144954
186	0x3e4b179a	0.19833222
187	0xbe3aec29	-0.1825415
188	0xbe051f96	-0.1300033
189	0x3e18ca12	0.14920834
190	0xbdd1d494	-0.10245624
191	0xbdd42781	-0.10359097
192	0xbd776900	-0.06040287
193	0x3e3f4ae2	0.1868091
194	0x3de3aa79	0.111164995
195	0x3dae88da	0.08522196
196	0xbd5effa8	-0.05444303
197	0x3cb05ebb	0.021529546
198	0xbdf40947	-0.11915832
199	0x3d9d14bd	0.07669971
200	0x3e013e9d	0.12621541
201	0xbe2f7d71	-0.17137696
202	0xbdd52afa	-0.10408588
203	0xbdcf9220	-0.10135293
204	0x3d83f0b0	0.06442392
205	0xbe45165a	-0.19246808
206	0x3d24a49d	0.04019605
207	0x3e30bfe4	0.172607
208	0x3e479d89	0.19493689
209	0x3e0cacfc	0.13737863
210	0x3e2792d5	0.16364606
211	0xbe36f1fb	-0.17865746
212	0x3cf69076	0.030098181
213	0x3e1da3bb	0.1539449
214	0xbe27bde5	-0.16381033
215	0x3d8a6f3e	0.06759499
216	0xbc7fadcc	-0.015605401
217	0x3d41f7de	0.047355525
218	0xbddaf3e7	-0.10691052
219	0x3e20f2b9	0.15717591
220	0xbe23702a	-0.15960756
221	0xbe0a0b57	-0.13480888
222	0xbdd40778	-0.10352987
223	0x3e3ebe17	0.18627201
224	0xbd8190f8	-0.06326479
225	0xbdd2681e	-0.10273765
226	0xbddb0a8e	-0.106953725
227	0xbc55ec42	-0.0130568165
228	0x3e46fb73	0.19431858
229	0x3ac7c2e4	0.0015240577
230	0x3dc3050a	0.095224455
231	0xbe026cc2	-0.127368
232	0xbd411a95	-0.04714449
233	0x3dbe5ac4	0.09294656
234	0xbc473975	-0.012159695
235	0x3dd97d32	0.10619582
236	0x3c6a233a	0.014290625
237	0x3e1c966e	0.1529176
238	0xbd5e7b58	-0.05431685
239	0xbe355132	-0.17706755
240	0x3e10ada5	0.1412874
241	0x3e153fdf	0.14575146
242	0xbd9fef73	-0.07809343
243	0xbb1887ab	-0.0023274224
244	0xbddca69d	-0.107739665
245	0x3d1f6acb	0.038920205
246	0xbe0a79b0	-0.13522983
247	0x3d20d144	0.03926207
248	0xbe0e1821	-0.13876392
249	0x3d7a2a24	0.061075345
250	0x3dfc6aca	0.12325056
251	0xbdc92299	-0.09821052
252	0xbd78e889	-0.060768638
253	0xbd2ba82e	-0.041908436
254	0xbdaf74d9	-0.08567209
255	0x3c26978e	0.010167969

network.2.weight f4 [256, 256]
0	0xbc1f1a02	-0.009710791
1	0x3d2d69d9	0.042337272
2	0x3c4632f7	0.012097112
3	0x3d828cc4	0.06374505
4	0xbc80aaba	-0.015706409
5	0xbceae7fd	-0.028675074
6	0x3c351c35	0.011054088
7	0xbcd1d90a	-0.025616188
8	0x3d72f1ab	0.059312504
9	0x3cace6f8	0.021106228
10	0xbcd3b87b	-0.025844803
11	0xbcfd35b0	-0.03090939
12	0x3c128678	0.008943193
13	0x3cc1cfe7	0.023658706
14	0x3d2b746d	0.04185908
15	0x3d34db18	0.044154257
16	0xbd2a798d	-0.041619826
17	0xbd020940	-0.031747103
18	0xbba30fa6	-0.0049762307
19	0x3bce2120	0.00629057
20	0x3dad2dbd	0.084559895
21	0x3c65b534	0.014020253
22	0x3ca44f61	0.020057382
23	0xbccbf6ee	-0.024898019
24	0x3c988d5b	0.018622091
25	0x3d9ff29a	0.078099445
26	0xbd19eb86	-0.03757813
27	0x3c7c7b51	0.01541026
28	0xbc15660b	-0.009118567
29	0x3b3f1f6a	0.0029163011
30	0x3d834a91	0.06410707
31	0x3d840ae7	0.06447392
32	0x3da53ce1	0.08068252
33	0x3cb24688	0.021762148
34	0xbce9b834	-0.028530218
35	0xbcf1f990	-0.029537946
36	0x3d9d447d	0.07679079
37	0xbc6e3ebf	-0.014541327
38	0x3cda0dba	0.026617873
39	0xbd153c87	-0.036434676
40	0xbb59fb20	-0.0033261254
41	0x3cf325f9	0.029681193
42	0x3d119c99	0.035549734
43	0x3d0fcf96	0.03511008
44	0x3d2d8708	0.042365104
45	0xbc81c17e	-0.015839335
46	0x3d5008e8	0.050789744
47	0xbcc265ac	-0.023730122
48	0x3ca92c85	0.020651111
49	0x3d6d0b45	0.057872076
50	0xbaeb9923	-0.0017974715
51	0x3d604e8e	0.054762416
52	0x3d6750ea	0.05647365
53	0x3d164394	0.03668554
54	0xbd4760e4	-0.048676386
55	0xbd3ccf05	-0.046095867
56	0x3b1c5971	0.0023857022
57	0xbcea6da8	-0.028616741
58	0xbb834790	-0.0040063336
59	0xbc06b9e0	-0.008223027
60	0xbd02510f	-0.031815585
61	0xbc0b239c	-0.008492377
62	0xbd0713fb	-0.03297804
63	0x3cdf0214	0.02722267
64	0x3c73bfa6	0.0148772355
65	0x3d4076af	0.046988185
66	0x3d0bf775	0.03417154
67	0x3d306036	0.043060504
68	0x3d4a1acb	0.049341958
69	0xbd3eafde	-0.04655444
70	0x3c725aec	0.014792185
71	0xbcc0f2e0	-0.023553312
72	0xbd33fc58	-0.043941826
73	0x3c81f60c	0.015864395
74	0xbc2d6631	-0.010583446
75	0x3c464f74	0.012103904
76	0x3d85070c	0.06495485
77	0xbd20a6de	-0.039221637
78	0xbc985612	-0.018595729
79	0x3d720638	0.059087962
80	0x3d4061d6	0.046968304
81	0x3d5e58c6	0.05428388
82	0x3d5b4e4a	0.05354146
83	0x3d159f16	0.03652867
84	0xbcad5cfb	-0.0211625
85	0x3c440447	0.01196391
86	0x3cbd53bc	0.023111217
87	0xbca51133	-0.020149803
88	0x3d1dc52e	0.038518123
89	0x3bd17778	0.0063924156
90	0x3d1fa89d	0.03897916
91	0x3d61246d	0.05496638
92	0xbcafa74c	-0.021442078
93	0x3c4711bd	0.012150225
94	0x3d8f8238	0.07007259
95	0xbbcf1e20	-0.00632073
96	0x3d172649	0.036901746
97	0x3d5609b5	0.05225535
98	0x3daffa8f	0.08592712
99	0xbd19246f	-0.03738826
100	0x3d27912d	0.040909935
101	0x3d0a4824	0.033760205
102	0xbb1a1000	-0.0023508072
103	0x3c538dd7	0.012912235
104	0xbc09cb98	-0.008410357
105	0xbd3b1cb5	-0.045681674
106	0x3c0bd319	0.008534216
107	0x3d0b2ef1	0.033980314
108	0x3ccdebfb	0.025136938
109	0x3c9b18dd	0.018932754
110	0xbc8b5b00	-0.017011166
111	0xbbb8ef91	-0.005643793
112	0xbc13a85f	-0.009012311
113	0x3c3e28f2	0.011606442
114	0xbd50b1e0	-0.050950885
115	0xbb9c2009	-0.004764561
116	0xbc3ad2bc	-0.011402782
117	0x3cef8d76	0.029242259
118	0x3d895db2	0.06707324
119	0x3cac7a18	0.021054313
120	0xbcce001c	-0.025146537
121	0x3bf141b0	0.007362567
122	0xbcc0ce8c	-0.02353599
123	0xbd1259ad	-0.035730053
124	0xbcb2c767	-0.021823598
125	0x3d55a6ab	0.0521609
126	0x3d68e9b6	0.05686351
127	0xbd54d71a	-0.05196295
128	0xbcc78b41	-0.024358394
129	0xbd119b34	-0.035548404
130	0xbd1c9ae5	-0.038233656
131	0x3c1143e4	0.008866284
132	0x3d0e728c	0.03477721
133	0xbd3ea30e	-0.04654222
134	0xbd0c6c58	-0.034283012
135	0x3d448205	0.04797556
136	0x3d6d3441	0.05791116
137	0x3c339fc5	0.010963385
138	0xbb3a0fce	-0.0028390768
139	0x3bec4bf2	0.007211202
140	0x3d35bf7a	0.04437206
141	0xbc8f4362	-0.017488185
142	0xbd3c6170	-0.04599136
143	0x3cf2810c	0.02960255
144	0x3cb42448	0.021989956
145	0x3d585d1d	0.052823175
146	0xbd3be7b9	-0.045875285
147	0x3caf70e0	0.021416128
148	0x3c8c5b4e	0.017133381
149	0xbc862471	-0.016374798
150	0x3bc32640	0.0059554875
151	0xbc1fb4ac	-0.009747665
152	0xbd473d55	-0.048642475
153	0x3cf092e4	0.029366918
154	0x3d5d5d50	0.054044068
155	0x3cebb386	0.028772127
156	0xbd628402	-0.055301674
157	0xbd7d4468	-0.061832815
158	0x3d7dc66a	0.0619568
159	0xbb965760	-0.0045880526
160	0xbcf48250	-0.029847294
161	0xbcbeb687	-0.023280395
162	0x3cc5de71	0.02415392
163	0xbd220c28	-0.039562374
164	0xbd1a1fec	-0.0376281
165	0xbb6ad960	-0.0035835132
166	0xbd28b9c8	-0.0411928
167	0x3d130856	0.03589662
168	0xbcad5721	-0.02115971
169	0xbcebb530	-0.02877292
170	0x3c498b3d	0.012301263
171	0x3d01e9d7	0.031717148
172	0x3d09cec6	0.03364446
173	0x3d8375bc	0.064189404
174	0x3d55c24b	0.052187245
175	0x3d573c05	0.052547473
176	0xbc812575	-0.015764931
177	0x3c9f02cd	0.019410515
178	0x3d06bfdf	0.032897826
179	0x3ce3715d	0.027764017
180	0x3d8a3ba2	0.06749655
181	0xbb8b2784	-0.004246654
182	0x3daabdb9	0.08336968
183	0xbd321285	-0.043474693
184	0xbd23276e	-0.039832525
185	0x3bc55a24	0.0060227085
186	0x3d155b5d	0.036464084
187	0xbcc3d364	-0.02390451
188	0x3d1b7858	0.037956566
189	0x3c550f95	0.013004203
190	0xbcbb72bd	-0.02288186
191	0x3dacd9c9	0.08439977
192	0x3cb0932f	0.021554558
193	0x3d616201	0.055025104
194	0xbb44a79c	-0.003000713
195	0x3ca7bae5	0.02047486
196	0x3d4ada1a	0.049524404
197	0xbc37af35	-0.011211206
198	0x3c68870f	0.014192357
199	0x3d7803e5	0.06055059
200	0xbd0d1177	-0.034440484
201	0xbb63b5fc	-0.0034745922
202	0xbcb48a45	-0.022038588
203	0x3d25de9b	0.040495496
204	0x3bba4485	0.0056844377
205	0x399a891b	0.0002947532
206	0x3d9260d3	0.07147374
207	0xbbf6dc4b	-0.007533585
208	0x3c42ea1e	0.011896638
209	0x3d0ff219	0.03514299
210	0xbd2ef9e2	-0.042718776
211	0xbd186d9b	-0.037213903
212	0x3d10896a	0.0352873
213	0x3d60d34f	0.05488902
214	0x3cdb52e9	0.026772933
215	0xbd622c4c	-0.055218026
216	0xbd0175fe	-0.031606667
217	0x3d8b9c55	0.06816927
218	0x3be25470	0.0069070384
219	0xbcee9c08	-0.029127136
220	0x3d12d0c0	0.03584361
221	0x3cfe9a53	0.031079447
222	0xbc1a71eb	-0.009426574
223	0xbcd624d2	-0.026140604
224	0x3cf9e3cc	0.03050413
225	0x3d78ef00	0.060774803
226	0x3d0fba5c	0.035089836
227	0x3cbfb520	0.023401797
228	0xbd25f63a	-0.040518023
229	0xbcb4e534	-0.022081949
230	0x3db1064f	0.086437814
231	0x3c41e4e8	0.011834361
232	0x39fcc6da	0.00048213342
233	0x3d2d59aa	0.04232184
234	0xbc081445	-0.008305614
235	0x3d476e28	0.048689038
236	0x3d1e7dac	0.03869407
237	0x3d80884b	0.06275996
238	0xbcd2d308	-0.025735393
239	0x3c3b1b70	0.011420116
240	0xbcb25507	-0.02176906
241	0x3c8c05c0	0.017092586
242	0x3cfb1144	0.030647881
243	0x3d2de88f	0.042458113
244	0xbcb1b2d9	-0.021691727
245	0x3d8564c2	0.06513359
246	0xbc99d851	-0.018779906
247	0xbd68a276	-0.05679556
248	0xbbd48d1b	-0.0064865476
249	0x3d4addf0	0.049528062
250	0x3c861647	0.016368045
251	0xbca5a22f	-0.020218937
252	0x3d474b80	0.048655987
253	0xbcf4a6ed	-0.029864753
254	0x3d5149ee	0.051095895
255	0x3c771d93	0.015082735

network.2.bias f4 [256]
0	0x3d9e4a64	0.07729033
1	0x3d589772	0.052878805
2	0xbc2744c1	-0.010209263
3	0xbd8547b2	-0.065078154
4	0xbc037978	-0.008024566
5	0x3b74439b	0.0037271741
6	0xbc53a160	-0.012916893
7	0x3d35d69d	0.044394124
8	0xbc31d63d	-0.010854301
9	0x3d0396e7	0.032126334
10	0xbc3b7ac8	-0.011442848
11	0xbcd3e8a4	-0.025867768
12	0x3d6336ad	0.055472065
13	0xbd8077b8	-0.062728345
14	0xbcbdc246	-0.023163926
15	0xbcfd2d89	-0.030905502
16	0x3ace1bdd	0.0015724857
17	0xbd2bd8b4	-0.04195471
18	0x3c6bec38	0.014399581
19	0xbd84f36c	-0.064917415
20	0xbd066cb3	-0.032818507
21	0x3c8b0402	0.016969685
22	0x3cdcaf3f	0.026939033
23	0xbd0a1a44	-0.033716455
24	0xbd1acbdc	-0.03779207
25	0x3d4dc056	0.050232254
26	0x3d11949a	0.035542108
27	0x3d7e096d	0.062020708
28	0x3d2686c8	0.04065588
29	0xbd74ed16	-0.059796415
30	0xbc9f44a7	-0.019441916
31	0x3c471673	0.012151348
32	0x3b066fb5	0.002051336
33	0xbca0a382	-0.019609217
34	0xbcd54a58	-0.026036426
35	0xbbb5715f	-0.0055371965
36	0xbcf34fbe	-0.02970111
37	0xbc921fbc	-0.017837398
38	0x3d04da9e	0.032435052
39	0x3c3f79b3	0.01168673
40	0xbcc69706	-0.024241935
41	0xbc5cf957	-0.013487182
42	0x3cfe3ed8	0.031035826
43	0x3d8c2a61	0.06844021
44	0x3d6e0706	0.058112167
45	0x3c34ed80	0.011042953
46	0x3cc2d5d5	0.023783604
47	0x3d168310	0.036746085
48	0x3d0e4621	0.03473485
49	0x3ca233c3	0.019800073
50	0x3c9a56f4	0.01884029
51	0x3cd43f0a	0.025908966
52	0xbd6e04c4	-0.058110014
53	0xb86a0a9e	-5.5799836e-05
54	0xbd32d329	-0.04365841
55	0xbca93db1	-0.0206593
56	0xbc378103	-0.011200192
57	0xbc607751	-0.013700322
58	0x3d528a83	0.051401626
59	0xbcfc68bc	-0.03081166
60	0x3d8c0726	0.06837301
61	0xbb4b5347	-0.003102498
62	0x3cb825c0	0.022478938
63	0x3d2e9387	0.04262116
64	0x3d308ed3	0.043104958
65	0xbd0fe7ba	-0.0351331
66	0xbd4cdb41	-0.050013784
67	0xbd64da82	-0.055872448
68	0xbd10b6de	-0.035330646
69	0x3c1dd99a	0.0096344
70	0xbc82f025	-0.01598365
71	0xbd0128c3	-0.031533014
72	0x3d9f54e7	0.07779866
73	0xbcde629a	-0.027146626
74	0x3d0fae0e	0.0350781
75	0xbd0c2459	-0.03421435
76	0xbc5f76c7	-0.013639159
77	0xbcb43a5e	-0.022000488
78	0xbd71ab89	-0.05900148
79	0xbced73a4	-0.028985806
80	0xbd1dbae8	-0.038508326
81	0xbb716f52	-0.0036840034
82	0xbc8af733	-0.016963577
83	0x3cce4269	0.025178151
84	0x3c05c268	0.008164026
85	0xbd353376	-0.04423853
86	0x3d789517	0.06068906
87	0xbd499678	-0.049215764
88	0x3c909845	0.017650733
89	0x3d661683	0.056173813
90	0x3d681f9b	0.056670766
91	0x3d19b35a	0.03752456
92	0x3cf4034c	0.029786728
93	0xbb7ec406	-0.0038874163
94	0x3cf3dcaa	0.029768307
95	0xbd4ed3e5	-0.050495047
96	0x3b570ccd	0.0032814026
97	0xbd0d9185	-0.034562606
98	0xbcefef0b	-0.02928879
99	0xbd579aa8	-0.052637726
100	0xbd236bae	-0.039897613
101	0xbd4f18f7	-0.050560918
102	0xbb06634d	-0.0020505965
103	0x3bb917ce	0.0056485897
104	0x3b61062b	0.0034335952
105	0x3d162669	0.036657725
106	0xbcf01a99	-0.029309558
107	0xbd86097d	-0.065447785
108	0x3ce7dde7	0.028304053
109	0xbbfdeef1	-0.0077494313
110	0x3d8c7114	0.068575054
111	0xbc3a11f1	-0.011356817
112	0xbd5b055f	-0.05347192
113	0x3d762432	0.060093112
114	0x3cedae71	0.029013844
115	0xbd6b6abc	-0.057474837
116	0xbd2e4194	-0.04254301
117	0x3d8d2cbe	0.068932995
118	0xbd150488	-0.036381274
119	0x3ce52add	0.02797454
120	0x3d0a3e46	0.033750795
121	0xbcdf37ce	-0.02724829
122	0x3d397a35	0.04528256
123	0xbd40700a	-0.04698185
124	0xbb1d2f35	-0.0023984436
125	0xbc214608	-0.009843357
126	0x3cbdc2b7	0.023164136
127	0x3d7c94b3	0.061665248
128	0x3d849765	0.06474189
129	0xbd1927c0	-0.037391424
130	0x3d382dac	0.04496543
131	0x3d0ed712	0.034873076
132	0xbd57d5d1	-0.052694146
133	0xbd22d86d	-0.03975718
134	0xbd0f92eb	-0.03505222
135	0x3cdce621	0.026965203
136	0xbd7cd6fd	-0.061728466
137	0x3c27ef05	0.010249858
138	0xbd16fe7e	-0.036863796
139	0xbce9e46c	-0.028551303
140	0x3d223b49	0.03960732
141	0xbd19cc8c	-0.037548587
142	0x3d101e3d	0.035185087
143	0xbd2ef087	-0.042709854
144	0x3d62a05a	0.055328704
145	0x3cbb467c	0.022860758
146	0x3cd4b53a	0.025965322
147	0xbd39d403	-0.045368206
148	0xbd529a23	-0.051416527
149	0xbcf66278	-0.03007625
150	0xb7decbc8	-2.6559355e-05
151	0x3b1a5ec0	0.002355501
152	0x3cf2a4ee	0.02961966
153	0x3d01a3f5	0.031650502
154	0xbcafb494	-0.021448411
155	0x3c50b5e8	0.012738682
156	0x3d821665	0.06351928
157	0xbd0e797a	-0.034783818
158	0x3cd6a8e4	0.02620358
159	0xbbdafaa3	-0.0066827103
160	0x3d54e9c6	0.051980756
161	0x3b9345b0	0.0044943914
162	0xbca44a40	-0.020054936
163	0xbd14de38	-0.036344737
164	0x3d711baf	0.05886429
165	0xbd6c095a	-0.057626106
166	0xbc0fc1a0	-0.008774191
167	0xbd3fbdb9	-0.046811793
168	0x3d2735d2	0.04082281
169	0x3d3c4c68	0.045971304
170	0xbc509438	-0.012730651
171	0x3d661730	0.056174457
172	0xbd87c83b	-0.06629988
173	0x3cf217cc	0.029552363
174	0x3d2c9987	0.042138603
175	0xbd07e0f2	-0.03317351
176	0xbb9857a0	-0.0046491176
177	0x3c8ccfeb	0.017188987
178	0x3c3b9fc6	0.011451667
179	0xbc50c8b0	-0.01274316
180	0xbbd2a01d	-0.0064277784
181	0x3d5ee542	0.054417856
182	0xbd73c8df	-0.059517737
183	0x3d63310b	0.055466693
184	0x3d93a50a	0.07209213
185	0xbbb19d62	-0.005420373
186	0xbd7859c4	-0.060632482
187	0x3cd619b8	0.02613531
188	0x3cb2e88d	0.021839404
189	0xbce528a9	-0.02797349
190	0x3cb6cce0	0.022314489
191	0x3b1e61b4	0.0024167122
192	0x3cc12b14	0.023580112
193	0x3cc91dbc	0.024550311
194	0xbd7fb7fa	-0.062431313
195	0x3ce7325b	0.028222254
196	0xbd455fb6	-0.04818698
197	0x3cebdef2	0.028792832
198	0xbc6b39b0	-0.0143570155
199	0xbc3c50dd	-0.011493889
200	0x3d438121	0.04773057
201	0x3c326b30	0.010889813
202	0x3cfd28ac	0.030903183
203	0x3bc4cd15	0.006005893
204	0x3b1fa9ae	0.0024362612
205	0xbafc9c2f	-0.001927262
206	0x3d3d713a	0.04625056
207	0xbcc6bd7c	-0.024260275
208	0xbc9ff13e	-0.019524213
209	0x3d469556	0.04848226
210	0x3ce6e642	0.028185967
211	0xbcfe124f	-0.03101459
212	0xbc6a4e0c	-0.014300834
213	0x3d10b60b	0.03532986
214	0x3d62961d	0.05531894
215	0x3d3b5349	0.045733724
216	0x3d0b74be	0.03404688
217	0xbcc72c58	-0.024313137
218	0x3d3660a5	0.04452576
219	0xbc560694	-0.013063092
220	0x3d3c13b3	0.045917224
221	0xbd1709db	-0.036874633
222	0x3d185737	0.03719255
223	0xbd3de279	-0.04635856
224	0x3b456d15	0.0030124832
225	0x3c33dd50	0.010978058
226	0xbd6b44bf	-0.05743861
227	0xbd60f12d	-0.054917503
228	0xbcece3ab	-0.028917154
229	0xbcb896c4	-0.022532828
230	0x3c040a41	0.008059085
231	0x3d6666f8	0.056250542
232	0xbd772623	-0.060339104
233	0xbbb90670	-0.0056465194
234	0xbc8c550f	-0.017130403
235	0x3b13554b	0.0022481258
236	0xbd06f93c	-0.032952532
237	0xbb6bb840	-0.0035967976
238	0xbca7c1a4	-0.020478077
239	0xbd31a073	-0.043365907
240	0xbd6b9dac	-0.057523414
241	0xbccb91d8	-0.024849817
242	0x3d48e4ac	0.049046203
243	0x3d166a81	0.036722664
244	0xbd55ba34	-0.05217953
245	0x3d382524	0.044957295
246	0xbc84c30e	-0.01620629
247	0x3d87ea1b	0.06636449
248	0xbd691318	-0.056902975
249	0x3d1f51f1	0.038896505
250	0x3c8c6f24	0.01714284
251	0x3d233821	0.03984845
252	0x3d5a23be	0.053256743
253	0x3af1df83	0.0018453453
254	0x39394ee3	0.00017672362
255	0xbb4029c8	-0.0029321779

network.4.weight f4 [8, 256]
0	0xbb8432bf	-0.0040343697
1	0x3c221aeb	0.009894113
2	0x3d09c597	0.033635702
3	0x3c993228	0.018700674
4	0xbd425f18	-0.04745397
5	0x3d6feaf1	0.058573667
6	0x3c2417c0	0.010015428
7	0xbc197ebb	-0.009368594
8	0x3cbf1911	0.023327382
9	0xbd11de79	-0.035612557
10	0x3d50b5ce	0.050954632
11	0x3cc4b7c2	0.024013404
12	0x3ccc051c	0.02490478
13	0x3d676c80	0.056499958
14	0x3d268b6f	0.040660318
15	0xbd78b7eb	-0.060722273
16	0x3c30a2de	0.010781018
17	0x3c2651b1	0.010151313
18	0xbc9a940a	-0.018869419
19	0x3ccd80b8	0.025085792
20	0x3d11fe28	0.035642773
21	0xbb67adcc	-0.0035351394
22	0x3d623f82	0.055236347
23	0x3d24c320	0.04022515
24	0xbd1cc9c0	-0.03827834
25	0xbcccdade	-0.025006708
26	0x3b961590	0.004580207
27	0x3d64a531	0.0558216
28	0xbd49bf0b	-0.04925446
29	0xbd41fd92	-0.047360964
30	0x3a81f61c	0.0009915265
31	0x3d224eed	0.03962605
32	0xbcd33057	-0.025779886
33	0xbcf65aac	-0.030072533
34	0x3d4c347a	0.049854733
35	0x3c3b4e38	0.011432223
36	0xbcf5d350	-0.030007988
37	0xbd1c566e	-0.038168363
38	0x3c8968d8	0.016773626
39	0x3b644c06	0.0034835353
40	0xbd4a25ea	-0.049352564
41	0x3d4c0346	0.04980781
42	0x3d83db6b	0.06438335
43	0xbb0f83d9	-0.0021898656
44	0x3d48cb2d	0.04902189
45	0x3ad4a3c1	0.0016223119
46	0xbcec010d	-0.028809095
47	0xbc613e30	-0.013747737
48	0xbcdaf1a6	-0.026726555
49	0x3c9d6169	0.019211488
50	0xbcff3110	-0.031151325
51	0xbd0f3dd6	-0.03497108
52	0x3d21bd0e	0.039486937
53	0x3d08f4c7	0.033436563
54	0x3d5593a4	0.052142754
55	0xbd1e8af7	-0.038706746
56	0x3d32bb87	0.04363587
57	0x3d4bc749	0.0497506
58	0xbd192b7d	-0.03739499
59	0xbd27aebd	-0.040938128
60	0x3d2ba38f	0.04190403
61	0x3d288fc4	0.04115273
62	0xbd4c522e	-0.04988306
63	0x3c099782	0.008397939
64	0xbc983415	-0.018579522
65	0x3d2b44e0	0.04181373
66	0x3cd4d20e	0.025979068
67	0xbd6073bf	-0.054797884
68	0x3ccdccb3	0.025122022
69	0xbd6a78b2	-0.05724401
70	0x3cd823ae	0.0263842
71	0xbcfee344	-0.031114228
72	0xbd4ad94d	-0.04952364
73	0x3ce84d49	0.028357165
74	0xbbeb9c40	-0.0071902573
75	0x3cbfc5a6	0.023409676
76	0x3cca51b0	0.024697155
77	0x3c97b4b9	0.018518792
78	0x3d0daed2	0.03459055
79	0xbae59740	-0.001751639
80	0x3c065c0c	0.008200657
81	0x3c965a7e	0.018353697
82	0x3c59834c	0.0132759325
83	0x3cccf438	0.025018796
84	0xbbcb5880	-0.0062056184
85	0xbbf6e4c0	-0.0075345933
86	0xbd22a867	-0.039711382
87	0x3c57e04e	0.013176037
88	0xbd2792e1	-0.04091156
89	0x3d49c80b	0.04926304
90	0x3d247d3a	0.040158488
91	0xba619098	-0.0008604615
92	0x3cb7e58f	0.02244833
93	0x3d577249	0.052599225
94	0x3caccd02	0.02109385
95	0xbd582ed5	-0.052779038
96	0xbceab4de	-0.028650697
97	0x3d3c1f2a	0.045928158
98	0xbd4110f4	-0.04713531
99	0x3ca2a362	0.019853298
100	0x3cca7ae8	0.02471681
101	0xbcd761f3	-0.026291823
102	0xbd6073fa	-0.054798104
103	0x3d0a416b	0.033753794
104	0xbc67b51f	-0.014142304
105	0xbd3c0656	-0.04590448
106	0xbd1bdbfe	-0.038051598
107	0x3d2ceeb3	0.04221983
108	0xbd5ba4b8	-0.053623885
109	0x3c9e8e23	0.019354885
110	0x3cce8d82	0.02521396
111	0xbc2d7dcc	-0.010589074
112	0xbd5e2365	-0.054232974
113	0xbc4c2dcb	-0.01246209
114	0x3d3c8c40	0.04603219
115	0xbd545725	-0.05184092
116	0x3cd30f2c	0.02576407
117	0xbc9792b1	-0.018502565
118	0x3d04d4d3	0.032429527
119	0xbd2c4494	-0.04205759
120	0x3d304934	0.043038562
121	0xbd81aeb1	-0.06332148
122	0x3d2f6905	0.042824764
123	0xbd18654a	-0.03720597
124	0x3c46ae94	0.012126584
125	0x3c3a9a61	0.011389346
126	0x3d0b30b8	0.03398201
127	0x3d405e47	0.04696491
128	0x3bbe9a71	0.0058167507
129	0xbcf3358c	-0.02968862
130	0xbd274214	-0.0408345
131	0xbcc2c8ca	-0.023777384
132	0xbcd50d27	-0.026007248
133	0x3ce9fbbe	0.028562423
134	0xbcafd3a3	-0.021463221
135	0x3ccb835a	0.024842907
136	0xbb805a82	-0.0039170394
137	0x3d6ba53e	0.057530634
138	0x3cbebdec	0.023283921
139	0x3b926e58	0.0044687204
140	0x3c8d0a96	0.017216962
141	0xbd58ff36	-0.052977763
142	0xbcec9f5b	-0.02888458
143	0x3cc2921d	0.023751313
144	0xbbbf4094	-0.0058365557
145	0xbb0c833f	-0.0021440533
146	0x3d050943	0.032479536
147	0x3c2899ec	0.010290604
148	0x3c8d009d	0.017212206
149	0xbd584ff5	-0.052810628
150	0x3b3f2aee	0.0029169875
151	0x3d08de2c	0.033415005
152	0x3cccf554	0.025019325
153	0x3ce069d8	0.02739422
154	0xbcff8f44	-0.031196244
155	0xbd74492a	-0.059640087
156	0x3d10d625	0.035360474
157	0x3c5986a3	0.013276729
158	0xbd5285fd	-0.051397312
159	0x3ca897c9	0.02058019
160	0x3d5957f5	0.053062398
161	0xbcf9e788	-0.03050591
162	0xbc87bf48	-0.016570702
163	0x3c31f5fa	0.010861868
164	0x3bf6c1a7	0.0075304094
165	0x3c8cefa4	0.017204113
166	0xbc427508	-0.011868723
167	0xbce7dc5a	-0.028303314
168	0xbd66c660	-0.05634153
169	0x3cb7d01d	0.022438103
170	0x3d246cc6	0.040142797
171	0xbbee8870	-0.007279448
172	0x3d182e98	0.03715381
173	0x3ca5cfe4	0.020240732
174	0xbb04dc32	-0.0020272848
175	0xbd61093c	-0.054940447
176	0x3b44cd93	0.0030029758
177	0xbc2cb35b	-0.010540809
178	0xbc790647	-0.015199251
179	0x3d16ee06	0.03684809
180	0xbccfa470	-0.025346965
181	0x3c963c15	0.018339196
182	0xbd5372a1	-0.05162299
183	0xbab39bef	-0.0013703088
184	0x3d23eaf9	0.04001901
185	0x3ca727fe	0.020404812
186	0x3d766c6e	0.060162
187	0xbd635e34	-0.05550976
188	0x3d33b316	0.04387196
189	0xbd6866d5	-0.056738693
190	0x3ca0adfe	0.019614216
191	0x3cbc6f7e	0.023002382
192	0x3d7a919a	0.061174013
193	0x3d4bc6a6	0.049749993
194	0xbca37ca0	-0.019956887
195	0xbbdcee63	-0.006742285
196	0x3d2abbeb	0.04168312
197	0xbcf46750	-0.02983442
198	0x3c903570	0.017603606
199	0xbcd61110	-0.026131183
200	0x3d193924	0.03740801
201	0xbc9868c0	-0.018604636
202	0xbd26bd7c	-0.04070805
203	0xbd678862	-0.05652655
204	0x3c0e70e2	0.008693906
205	0x3d82fa8a	0.06395443
206	0x3d1feadc	0.03904234
207	0x3d3ab70c	0.045584723
208	0x3c7817ad	0.0151423635
209	0x3cbaf193	0.02282027
210	0x3d17fd6e	0.037106924
211	0xbcbd2804	-0.02309037
212	0x3c43a447	0.011941022
213	0x3d738ef6	0.05946251
214	0x3cf37c6c	0.029722415
215	0x3d0f3f3c	0.034972414
216	0xbd3b7666	-0.04576721
217	0x3d592cae	0.053021125
218	0x3d4b9cde	0.049710147
219	0xbd0e0008	-0.034668
220	0x3d643a46	0.055719636
221	0x3cffd57e	0.03122973
222	0x3d07342a	0.033008732
223	0xbafbd9df	-0.0019214711
224	0x3bb5e923	0.0055514737
225	0xbcb4cdb8	-0.02207075
226	0x3cfa6a40	0.030568242
227	0xbcc07f53	-0.023498213
228	0x3d258c1d	0.040416826
229	0xb9ee36c8	-0.00045435713
230	0x3d40767f	0.046988007
231	0x3d4f8bf9	0.050670598
232	0xbc98551b	-0.018595269
233	0x3d394020	0.04522717
234	0xbd08e4a8	-0.03342119
235	0xbced060f	-0.028933553
236	0x3d34ba00	0.044122696
237	0x3d0db01c	0.03459178
238	0x3d244ac0	0.04011035
239	0xbc123c76	-0.008925548
240	0xbc92c48f	-0.017915992
241	0x3bfe4186	0.007759276
242	0xbd204e68	-0.039137274
243	0xbd47c58f	-0.04877239
244	0x3d6d513e	0.057938807
245	0xbb57e42a	-0.0032942393
246	0x3d647488	0.055775195
247	0xbbf673ff	-0.007521152
248	0x3c0fffc8	0.00878901
249	0xba56af6c	-0.0008189592
250	0x3d4e70c5	0.050400514
251	0xbd4d6ebe	-0.05015444
252	0xbb5a0b1d	-0.0033270784
253	0x3bcee686	0.0063141016
254	0x3d522698	0.051306337
255	0xbd845faf	-0.06463563

network.4.bias f4 [8]
0	0x3c57f7a9	0.013181605
1	0xbcc2b511	-0.02376798
2	0xbb52f28d	-0.0032188029
3	0x3d81b512	0.063333645
4	0x3ce2b92c	0.027676187
5	0xbd4b2c91	-0.04960305
6	0xbc91df2f	-0.017806618
7	0xbd895ceb	-0.06707176

exp_avg f4 [256, 26]
0	0xba6fe136	-0.00091506855
1	0xbb3cbbd6	-0.0028798482
2	0xbb3ec38e	-0.002910826
3	0xbba7d8d3	-0.005122283
4	0xbbf2599f	-0.0073959376
5	0xba953e98	-0.0011386452
6	0x3c1619a1	0.009161384
7	0x3baa5596	0.005198191
8	0x3bae10de	0.0053120693
9	0x3b97f6b8	0.0046375655
10	0xbbc29d48	-0.0059391595
11	0x3c622003	0.0138015775
12	0xbb184e1c	-0.0023239916
13	0x3c20375a	0.009778822
14	0x3c85d75a	0.01633804
15	0x3c9e5ac9	0.0193304
16	0x3d01dc56	0.03170427
17	0x3c20e426	0.00982002
18	0xbb2a6b10	-0.0026003756
19	0xbb1a4b10	-0.0023543276
20	0x3c81e890	0.015857965
21	0x3bb8066e	0.005616001
22	0x3b6e0b64	0.0036322707
23	0x3a736e70	0.0009286171
24	0x3be63d46	0.0070263473
25	0x3be4118c	0.0069600996
26	0x00000000	0.0
27	0x00000000	0.0
28	0xb830b27d	-4.21279e-05
29	0x00000000	0.0
30	0x00000000	0.0
31	0xb8826fa5	-6.2196785e-05
32	0xb882d3f7	-6.2383646e-05
33	0xb9d4510e	-0.00040496181
34	0xb8829407	-6.226455e-05
35	0xb882906e	-6.225785e-05
36	0xb9ac6a37	-0.00032885533
37	0xb9c7cf95	-0.00038110898
38	0x00000000	0.0
39	0xb9dbc5e9	-0.0004191839
40	0xba0fedf1	-0.0005490473
41	0x3876794b	5.8763933e-05
42	0xb92136e3	-0.00015374603
43	0xba3cfde1	-0.0007209462
44	0xb999de39	-0.00029348003
45	0xb99f2b10	-0.00030358927
46	0xb99cf8dc	-0.00029940053
47	0xb99d758a	-0.00030032947
48	0xb99475d2	-0.00028316543
49	0xb9001cf4	-0.00012217817
50	0xb99d463a	-0.00029997696
51	0xb99d7072	-0.00030029152
52	0x00000000	0.0
53	0x00000000	0.0
54	0x362f39ac	2.6110602e-06
55	0x00000000	0.0
56	0x00000000	0.0
57	0x32acc360	2.0112282e-08
58	0x330665d2	3.129191e-08
59	0x37c8116f	2.3849976e-05
60	0x00000000	0.0
61	0x00000000	0.0
62	0x3864b8b1	5.4531443e-05
63	0x37d21853	2.5045278e-05
64	0x00000000	0.0
65	0x38347b01	4.30299e-05
66	0x38558714	5.090896e-05
67	0x371f38eb	9.490391e-06
68	0x386125c2	5.3679345e-05
69	0x37b78071	2.187511e-05
70	0x37af93f8	2.0930529e-05
71	0x38496a47	4.8021113e-05
72	0x3875d410	5.861005e-05
73	0x37fb2d4a	2.9942621e-05
74	0x37f9a4c1	2.9759833e-05
75	0x3767470c	1.3785215e-05
76	0x3800ea29	3.0735657e-05
77	0x3800ea29	3.0735657e-05
78	0x00000000	0.0
79	0x00000000	0.0
80	0x2fa82b18	3.0589642e-10
81	0x00000000	0.0
82	0x00000000	0.0
83	0x00000000	0.0
84	0x00000000	0.0
85	0x31095083	1.998189e-09
86	0x00000000	0.0
87	0x00000000	0.0
88	0x31f3f9fd	7.100651e-09
89	0x309f1760	1.1575416e-09
90	0x00000000	0.0
91	0x31daa78e	6.363684e-09
92	0x314474a2	2.8588052e-09
93	0xaf551bfe	-1.9382182e-10
94	0x31c61004	5.764379e-09
95	0x3217cc9f	8.835882e-09
96	0x322e3dd6	1.0142193e-08
97	0x31b7c428	5.3483014e-09
98	0x3178f730	3.622926e-09
99	0x319c2e88	4.5454875e-09
100	0x316197fb	3.28282e-09
101	0x30bbfea8	1.3678418e-09
102	0x319c2e88	4.5454875e-09
103	0x319c2e88	4.5454875e-09
104	0xb99d1103	-0.00029958048
105	0xb9435270	-0.0001862736
106	0x378a5e5e	1.6494825e-05
107	0xb9881dc4	-0.00025962119
108	0xb9def488	-0.0004252533
109	0xba0d3f81	-0.0005388186
110	0xb98e0166	-0.00027085393
111	0xba362583	-0.00069483387
112	0xb98e6fda	-0.00027167686
113	0xb9ed2d52	-0.0004523793
114	0x3b4acdec	0.0030945493
115	0x3b05cdea	0.0020416924
116	0xb9e4f73b	-0.0004367175
117	0x3aeafb8d	0.0017927751
118	0x39a3354a	0.00031129486
119	0x39977def	0.00028894792
120	0x3a84cf6a	0.0010132615
121	0x3bc48080	0.0059967637
122	0xbb23f984	-0.002502055
123	0x3bd4822e	0.006485245
124	0x395b77c3	0.00020930082
125	0x3ade5eb0	0.0016965475
126	0x3b01b973	0.0019794374
127	0x3a6766f1	0.000882729
128	0x3aa87968	0.0012853565
129	0x3aae07b4	0.0013277442
130	0x3981e066	0.00024771987
131	0x3952dc89	0.00020109316
132	0x39b6f700	0.00034897774
133	0x398d64ee	0.00026968814
134	0x39d180d0	0.0003995956
135	0x3a15b07a	0.0005710196
136	0x39e4e65e	0.00043659186
137	0x3a28fab0	0.0006446047
138	0x3a0e3709	0.0005425071
139	0x3a0b4106	0.00053121184
140	0x396e956d	0.00022753114
141	0x39f2fc8c	0.00046346
142	0x3a029144	0.0004980753
143	0x3a191012	0.00058388815
144	0x39ff9b05	0.0004875289
145	0x3a25af07	0.00063203316
146	0x3a1f8e3d	0.0006086564
147	0x3a191b48	0.0005840552
148	0x3a46d526	0.0007584862
149	0x3a2bbaeb	0.0006550985
150	0x3a190fb4	0.0005838827
151	0x39b90885	0.00035292297
152	0x3996d3bb	0.0002876798
153	0x38fb5e87	0.0001198622
154	0x39cc1c4c	0.00038930995
155	0x39c7d55a	0.00038115197
156	0xbc5d0746	-0.013490504
157	0xbc79b17e	-0.015240071
158	0xbc8d7012	-0.017265353
159	0xbc8dce4c	-0.017310284
160	0xbc9c1e84	-0.01905752
161	0xbcc5ab8e	-0.024129655
162	0xbc76daba	-0.015066797
163	0xbd36feeb	-0.044676702
164	0xbc80fc9d	-0.015745455
165	0xbca970b1	-0.020683618
166	0xbd50d774	-0.050986722
167	0xbcb7c078	-0.022430643
168	0xbc7202f2	-0.01477121
169	0xbd1ee3f0	-0.038791597
170	0xbd2b3c24	-0.0418054
171	0xbc12933c	-0.008946236
172	0xbd0ba28d	-0.034090567
173	0xbd504be7	-0.050853636
174	0xbd1d65f8	-0.038427323
175	0xbd5243e8	-0.05133429
176	0xbcc50e64	-0.024054714
177	0xbcebbd4c	-0.028776787
178	0xbcf10f95	-0.029426375
179	0xbc5606fb	-0.013063188
180	0xbce30129	-0.027710514
181	0xbce3c55a	-0.027804065
182	0xbc80af70	-0.015708655
183	0xbc860142	-0.016358022
184	0xbcb8f3bc	-0.02257716
185	0xbc966fa0	-0.018363774
186	0xbcab96e3	-0.020945972
187	0xbd1daed4	-0.038496807
188	0xbd01f8c6	-0.03173139
189	0xbda712fb	-0.08157917
190	0xbcf47bd0	-0.029844195
191	0xbd14e861	-0.036354426
192	0xbd8bab2d	-0.068197586
193	0xbd5f76b2	-0.054556556
194	0xbcc8edeb	-0.02452751
195	0xbd95e869	-0.07319719
196	0xbdc79a65	-0.09746245
197	0xbd310189	-0.043214355
198	0xbd9eb40c	-0.07749185
199	0xbd875364	-0.066077024
200	0xbd7f4544	-0.062321916
201	0xbd9a720f	-0.07541286
202	0xbd88dd3d	-0.06682823
203	0xbd50fc54	-0.05102189
204	0xbd44c70c	-0.04804139
205	0xbcaec535	-0.02133427
206	0xbd55bb4d	-0.052180577
207	0xbd55a853	-0.05216248
208	0x36eb3222	7.009382e-06
209	0x3709a3ed	8.204003e-06
210	0x388d98a0	6.7518326e-05
211	0xb54417f7	-7.3050563e-07
212	0xb5009cf8	-4.7912135e-07
213	0x382b6a99	4.0868854e-05
214	0x384966e1	4.8017948e-05
215	0x3a3c7e57	0.0007190457
216	0x373517bd	1.0793968e-05
217	0x373f923d	1.1418536e-05
218	0x3a3f8363	0.000730565
219	0x3a5e1460	0.0008471664
220	0x372f17fe	1.0436399e-05
221	0x3a5e1753	0.00084721035
222	0x3a2ca854	0.0006586362
223	0x39b39efb	0.0003425999
224	0x3a9c5344	0.001192667
225	0x3aab8c92	0.0013088158
226	0x3a84ba56	0.0010126333
227	0x3a302a3d	0.0006720161
228	0x3a119a5e	0.00055543135
229	0x3a1c6ed9	0.00059674453
230	0x3a0dc4dd	0.0005408058
231	0x39919864	0.00027770095
232	0x3a1fd53d	0.00060971436
233	0x3a1ef839	0.000606421
234	0x00000000	0.0
235	0x00000000	0.0
236	0x00000000	0.0
237	0x00000000	0.0
238	0x00000000	0.0
239	0x00000000	0.0
240	0x00000000	0.0
241	0x00000000	0.0
242	0x00000000	0.0
243	0x00000000	0.0
244	0x00000000	0.0
245	0x00000000	0.0
246	0x00000000	0.0
247	0x00000000	0.0
248	0x00000000	0.0
249	0x00000000	0.0
250	0x00000000	0.0
251	0x00000000	0.0
252	0x00000000	0.0
253	0x00000000	0.0
254	0x00000000	0.0
255	0x00000000	0.0

exp_avg_sq f4 [256, 26]
0	0x38954e30	7.119437e-05
1	0x388a88be	6.605823e-05
2	0x3896a9a4	7.1841554e-05
3	0x38a742a9	7.975597e-05
4	0x38aa98cb	8.1346916e-05
5	0x398c21a6	0.0002672795
6	0x399664d4	0.00028685352
7	0x39f75a68	0.0004717887
8	0x3983e195	0.0002515434
9	0x398889e6	0.00026042684
10	0x39b42db5	0.0003436633
11	0x39d9c0a4	0.00041532994
12	0x39165e50	0.00014340249
13	0x3a0e96ee	0.00054393604
14	0x3a454133	0.0007524669
15	0x3a1d3ca5	0.00059981114
16	0x3a5e3cd9	0.0008477695
17	0x3a4343b2	0.0007448747
18	0x3a5e0d10	0.00084705744
19	0x3a5b81b0	0.0008373512
20	0x3a4aa827	0.0007730745
21	0x39867359	0.00025644412
22	0x39572747	0.0002051863
23	0x3834f28f	4.3141245e-05
24	0x39906408	0.0002754035
25	0x39902135	0.00027490561
26	0x00000000	0.0
27	0x00000000	0.0
28	0x332c6eb1	4.0147544e-08
29	0x00000000	0.0
30	0x00000000	0.0
31	0x32e7d96e	2.6990815e-08
32	0x32e92d44	2.7145354e-08
33	0x35b419de	1.3418573e-06
34	0x3289108f	1.5956429e-08
35	0x32bd30d1	2.2024695e-08
36	0x35acbdbe	1.2870221e-06
37	0x352ba825	6.3947147e-07
38	0x00000000	0.0
39	0x3659a921	3.2433966e-06
40	0x366772fb	3.448861e-06
41	0x35669507	8.589854e-07
42	0x3625716b	2.4652934e-06
43	0x36e5cbc4	6.8484533e-06
44	0x364743cb	2.9692771e-06
45	0x36611e06	3.3545089e-06
46	0x35fa30b5	1.8640627e-06
47	0x357bc9d2	9.3798474e-07
48	0x3527e523	6.2545786e-07
49	0x33e92ca3	1.08580274e-07
50	0x35b16241	1.3216123e-06
51	0x35a30383	1.2145468e-06
52	0x00000000	0.0
53	0x00000000	0.0
54	0x32803fa4	1.4930102e-08
55	0x00000000	0.0
56	0x00000000	0.0
57	0x2c6bdb48	3.3517234e-12
58	0x2d0ec8db	8.116364e-12
59	0x3592c9b4	1.0936551e-06
60	0x00000000	0.0
61	0x00000000	0.0
62	0x36bcf7ea	5.6316976e-06
63	0x35b7d3ec	1.369624e-06
64	0x00000000	0.0
65	0x3670691b	3.5823966e-06
66	0x36a67002	4.960225e-06
67	0x344c0cb6	1.9003605e-07
68	0x370402e5	7.868487e-06
69	0x35992980	1.1411466e-06
70	0x35587740	8.06398e-07
71	0x36929658	4.3686414e-06
72	0x36e41f6b	6.798587e-06
73	0x35ef021c	1.7807502e-06
74	0x35f06dee	1.7913387e-06
75	0x34c5cb6c	3.6842118e-07
76	0x35f55127	1.8277541e-06
77	0x35f55127	1.8277541e-06
78	0x00000000	0.0
79	0x00000000	0.0
80	0x2c1dbc8f	2.2415713e-12
81	0x00000000	0.0
82	0x00000000	0.0
83	0x00000000	0.0
84	0x00000000	0.0
85	0x2ed2551b	9.564812e-11
86	0x00000000	0.0
87	0x00000000	0.0
88	0x30a60030	1.2078143e-09
89	0x2e0d2b0a	3.2097915e-11
90	0x00000000	0.0
91	0x308554ba	9.701104e-10
92	0x2f5743c6	1.9578214e-10
93	0x2b7d4ec0	8.9992944e-13
94	0x305accf5	7.95992e-10
95	0x31008614	1.8702666e-09
96	0x312955d4	2.4641524e-09
97	0x303c5ab6	6.852291e-10
98	0x2facdbf1	3.1442896e-10
99	0x30080d4d	4.9495413e-10
100	0x2f8ded90	2.581655e-10
101	0x2e451f44	4.4820384e-11
102	0x30080d4d	4.9495413e-10
103	0x30080d4d	4.9495413e-10
104	0x365c80f5	3.2857617e-06
105	0x353a444d	6.938979e-07
106	0x36954aa0	4.4492335e-06
107	0x3614a187	2.214774e-06
108	0x367aff1c	3.7401396e-06
109	0x37c8d0b4	2.3939043e-05
110	0x37efda18	2.8592578e-05
111	0x3935bac1	0.00017331076
112	0x37df5780	2.6624417e-05
113	0x37ecc541	2.8225246e-05
114	0x38d35b70	0.000100782956
115	0x397d638e	0.00024165047
116	0x377d42d4	1.5095535e-05
117	0x39927530	0.00027934602
118	0x3970e57f	0.00022973678
119	0x38aa4454	8.118959e-05
120	0x39eb8a79	0.00044925863
121	0x3998feb2	0.00029181462
122	0x39ed29bc	0.00045235257
123	0x3a037acc	0.00050155516
124	0x398dd381	0.00027051198
125	0x38f45bbd	0.00011651914
126	0x38bf3e90	9.119243e-05
127	0x3790ca6b	1.7260396e-05
128	0x390e7639	0.00013586217
129	0x39093700	0.00013085827
130	0x35d1801d	1.5608999e-06
131	0x35e642d9	1.7155791e-06
132	0x36512e5f	3.1170418e-06
133	0x361de9b4	2.3530856e-06
134	0x36870779	4.0241835e-06
135	0x369ade1b	4.615414e-06
136	0x36a2206f	4.831752e-06
137	0x371c0951	9.300494e-06
138	0x36c5e70b	5.8979545e-06
139	0x36d74f11	6.416704e-06
140	0x35deb942	1.6594206e-06
141	0x36b27ecb	5.319574e-06
142	0x3663e5de	3.3959436e-06
143	0x37387d40	1.0996417e-05
144	0x372e58d6	1.0391892e-05
145	0x36fa0328	7.450948e-06
146	0x37a0668d	1.912124e-05
147	0x3701b51a	7.731165e-06
148	0x3757a90b	1.2854357e-05
149	0x37ccd779	2.4419032e-05
150	0x371d55b5	9.377884e-06
151	0x363d07fc	2.8167842e-06
152	0x36142c31	2.2079441e-06
153	0x34d1f988	3.9110841e-07
154	0x366f12e2	3.5624766e-06
155	0x3659333f	3.236535e-06
156	0x392fc40d	0.00016762335
157	0x394c2039	0.0001946696
158	0x39386f2e	0.00017589025
159	0x39988c6b	0.0002909632
160	0x392cbd62	0.00016473749
161	0x3a1ccab6	0.0005981134
162	0x3a3bedf6	0.0007168943
163	0x3adeeab5	0.0017007204
164	0x3a184d27	0.00058098364
165	0x3a2e9717	0.00066600874
166	0x3ab0d410	0.0013490934
167	0x3a9d5ce0	0.0012005828
168	0x39a7e39b	0.00032022301
169	0x3aed280e	0.0018093602
170	0x3b269d44	0.0025423327
171	0x3aab5d35	0.0013074043
172	0x3b1bb11d	0.002375669
173	0x3b21bb55	0.002467831
174	0x3b0556e4	0.002034598
175	0x3b160316	0.0022890023
176	0x3b029f2e	0.0019931304
177	0x3a5c72e0	0.00084094517
178	0x3a3d3ee0	0.0007219147
179	0x3915cfff	0.00014287232
180	0x3a6cc6f7	0.00090323336
181	0x3a68989d	0.0008872839
182	0x393da1d3	0.00018084729
183	0x393fc44d	0.00018288307
184	0x39511af3	0.00019941833
185	0x397a1d91	0.00023852872
186	0x393845ec	0.00017573655
187	0x3a34d0db	0.0006897577
188	0x3a4644a4	0.0007563329
189	0x3aef5c9d	0.0018261854
190	0x3a35a0b2	0.00069285475
191	0x3a48a630	0.00076541584
192	0x3a9a65a0	0.0011779554
193	0x3ab93654	0.0014130571
194	0x39b63ddd	0.00034759837
195	0x3ae6aa58	0.0017598374
196	0x3b24cb31	0.0025145526
197	0x3a8d965b	0.0010802256
198	0x3b0bde91	0.0021342377
199	0x3b181156	0.0023203692
200	0x3b16fd2f	0.0023039093
201	0x3b19f2bc	0.0023490628
202	0x3ae9246b	0.0017787343
203	0x3a5bc980	0.0008384213
204	0x3a39783b	0.00070751057
205	0x39109577	0.0001378859
206	0x3a6850d9	0.0008862145
207	0x3a663b8a	0.0008782676
208	0x31edafb6	6.917584e-09
209	0x3216849a	8.761299e-09
210	0x33f5b9bc	1.14424864e-07
211	0x2fc43e87	3.569662e-10
212	0x2f440d32	1.7830784e-10
213	0x345ce9b3	2.0574116e-07
214	0x342a0570	1.5834462e-07
215	0x36cb73d1	6.0633542e-06
216	0x320cbb4e	8.191661e-09
217	0x31b450b4	5.2478644e-09
218	0x36f84f44	7.4002037e-06
219	0x37845729	1.5776213e-05
220	0x3412cfc4	1.3672894e-07
221	0x3796a3a4	1.7957595e-05
222	0x378411a0	1.5743834e-05
223	0x361b09c7	2.310249e-06
224	0x3812ac15	3.4969376e-05
225	0x38277367	3.992338e-05
226	0x37e75272	2.7575737e-05
227	0x3737d5d5	1.0957437e-05
228	0x371dc813	9.404513e-06
229	0x37056b5b	7.952413e-06
230	0x36cd2935	6.114273e-06
231	0x35a04e5d	1.1943736e-06
232	0x37173d93	9.014638e-06
233	0x37174be5	9.017972e-06
234	0x00000000	0.0
235	0x00000000	0.0
236	0x00000000	0.0
237	0x00000000	0.0
238	0x00000000	0.0
239	0x00000000	0.0
240	0x00000000	0.0
241	0x00000000	0.0
242	0x00000000	0.0
243	0x00000000	0.0
244	0x00000000	0.0
245	0x00000000	0.0
246	0x00000000	0.0
247	0x00000000	0.0
248	0x00000000	0.0
249	0x00000000	0.0
250	0x00000000	0.0
251	0x00000000	0.0
252	0x00000000	0.0
253	0x00000000	0.0
254	0x00000000	0.0
255	0x00000000	0.0
