models/reinforce/reinforce_large/checkpoint_ep600.pth (torch, 904778 bytes, 18 tensors)

network.0.weight f4 [256, 26]
-0.15495355 0.07890892 0.13561043 -0.09900362 -0.023235003 0.18751442 -0.03464626 0.009377398
0.14822623 -0.033260632 -0.15194617 -0.021078683 0.15537347 -0.13079277 -0.15619572 0.21342349
0.037926536 0.012554352 0.19753219 -0.024654448 0.19976102 0.18132536 0.18679781 0.19244616
-0.12515259 -0.14111266 -0.00566037 0.1586915 -0.037058532 -0.072268516 0.010174066 -0.09589536
-0.15366904 -0.09095429 -0.03491035 0.1972792 -0.08411449 0.04977618 -0.14338861 0.07494986
0.021802122 0.031724785 -0.12931222 0.13515714 -0.040450238 -0.06251905 -0.19620256 -0.0820144
-0.12092311 -0.19433895 0.10219799 0.051095724 -0.08258876 -0.03606145 -0.13546716 -0.08963015
-0.194435 -0.11734271 -0.15773845 -0.070864305 0.105450585 -0.15855132 0.15827475 -0.10742866
-0.055943444 -0.10979838 0.17368796 -0.1581834 0.032341037 -0.105443574 -0.14232086 0.08032168
0.02123767 0.033692036 -0.11621532 0.039241213 0.062734306 0.009677269 0.089484625 0.04433669
0.155044 0.024711335 -0.05423853 0.11142499 0.088023044 -0.1903434 0.020708904 -0.12622598
0.13938718 -0.091779806 -0.14226955 -0.093992196 -0.094869584 -0.16327214 0.0381847 0.025845079
-0.08455339 0.0014995487 -0.03848206 -0.043029238 0.027599325 -0.059322696 -0.033680838 0.021122163
0.1080008 -0.16286887 0.03205867 -0.18653274 0.15152197 -0.01837566 -0.10827564 0.03459513
-0.023839716 -0.053837333 -0.13630486 0.035759635 0.10629007 0.18856187 -0.18957692 -0.06372394
0.15395468 -0.03174927 0.13571732 0.12524752 -0.14873673 0.15713227 0.104328744 -0.10811908
-0.15297413 -0.025905076 0.026223725 -0.11570337 0.1632525 -0.06927965 0.14101094 -0.11803103
-0.1468736 0.0684312 0.13291362 0.019076603 -0.19059736 0.10527403 0.07543204 -0.18942258
-0.12444308 0.10036926 0.059438672 -0.09517584 0.09065367 0.05185955 0.043364253 -0.1032777
-0.09755586 -0.19979003 -0.20450792 -0.049855474 0.06719433 0.12863784 0.16192478 -0.09916462
0.16051082 0.03080135 0.07210814 0.00900368 -0.038291067 0.20932907 0.11747878 0.018242199
-0.103832476 -0.13694255 0.10438625 0.10753626 0.026816266 -0.010449134 0.016123036 0.03805219
0.062364485 0.10214986 -0.14587843 -0.07465027 0.15371083 0.14130177 0.12101712 0.09734619
0.08953385 -0.17824903 0.11226415 -0.18346547 0.017515471 -0.038274597 0.18925747 0.15896817
0.18671784 0.0017271981 0.02967792 -0.008013898 0.17920938 0.20246483 -0.060086135 0.22498049
0.16912638 0.06878948 0.21529104 -0.032818247 0.099142246 0.18362805 0.005394894 -0.039639693
-0.10673281 0.028462833 -0.16787887 -0.055941336 0.060891256 -0.0136574395 -0.09845617 -0.058854774
-0.07174349 -0.12149833 -0.074880645 0.18446158 0.09224165 0.019349033 -0.08709129 0.07884129
0.15172923 0.14000851 0.030227529 -0.1559307 -0.17580965 -0.14100614 -0.16917296 0.008862456
-0.017439282 0.19179504 0.032919362 -0.055145606 0.07583608 -0.022926971 -0.07523915 -0.008280113
-0.07956536 -0.056427762 -0.1343337 0.15986453 0.14032887 -0.078846395 -0.18565348 -0.09240241
-0.18773119 -0.16526218 0.19343148 -0.17019412 -0.0023498535 0.15866603 -0.025818825 0.16574125
00000000: 25ac 1ebe 009b a13d 76dd 0a3e 69c2 cabd
00000010: 5557 bebc c803 403e 3de9 0dbd a8a3 193c
00000020: 9ec8 173e 4d3c 08bd c797 1bbe 34ad acbc
00000030: 391a 1f3e 8aee 05be c5f1 1fbe b08b 5a3e
00000040: db58 1b3d c5b0 4d3c e145 4a3e 20f8 c9bc
00000050: 278e 4c3e 5bad 393e ed47 3f3e 9b10 453e
00000060: 0028 00be d67f 10be a07a b9bb 0680 223e
00000070: b0ca 17bd 8401 94bd 20b1 263c c964 c4bd
00000080: 6b5b 1dbe 3e46 babd 28fe 0ebd 8f03 4a3e
00000090: 3844 acbd 1ce2 4b3d 77d4 12be 507f 993d
000000a0: 5d9a b23c d9f1 013d 6c6a 04be a266 0a3e
000000b0: 26af 25bd fd09 80bd 53e9 48be 2af7 a7bd
000000c0: 89a6 f7bd ca00 47be 2e4d d13d c049 513d
000000d0: 4c24 a9bd 2cb5 13bd e7b7 0abe 0390 b7bd
000000e0: f819 47be 6051 f0bd 3086 21be 4e21 91bd
000000f0: 7af6 d73d 475b 22be c712 223e 8f03 dcbd
00000100: f424 65bd f9dd e0bd 42db 313e d4fa 21be
00000110: 0978 043d cdf2 d7bd 8fbc 11be b17f a43d
00000120: 9ffa ad3c a900 0a3d 4c02 eebd 65bb 203d
00000130: d87a 803d 688d 1e3c b743 b73d 649a 353d
00000140: dbc3 1e3e 6d6f ca3c 3929 5ebd c932 e43d
00000150: 6d45 b43d 61e9 42be b8a5 a93c 6241 01be
00000160: 83bb 0e3e 0df7 bbbd 1caf 11be fb7e c0bd
00000170: fc4a c2bd d030 27be 8f67 1c3d 0fb9 d33c
00000180: 542a adbd 818c c43a 5d9f 1dbd 6d3f 30bd
00000190: fb17 e23c 5bfc 72bd ebf4 09bd 6308 ad3c
000001a0: 862f dd3d 19c7 26be f44f 033d 7002 3fbe
000001b0: 9328 1b3e 8d88 96bc 9ebf ddbd 9fb3 0d3d
000001c0: 824b c3bc 8984 5cbd 8093 0bbe b278 123d
000001d0: 9cae d93d 5d16 413e 7420 42be b281 82bd
000001e0: 4ca6 1d3e 860b 02bd 7bf9 0a3e e340 003e
000001f0: 714e 18be 48e7 203e 4faa d53d 896d ddbd
00000200: 40a5 1cbe e236 d4bc 23d3 d63c e3f5 ecbd
00000210: aa2b 273e 7de2 8dbd 2c65 103e 41ba f1bd
00000220: 0866 16be a825 8c3d 821a 083e 8946 9c3c
00000230: f42b 43be e999 d73d 1d7c 9a3d fef7 41be
00000240: 03dc febd 668e cd3d f775 733d 8deb c2bd
00000250: a2a8 b93d ae6a 543d b79e 313d 4283 d3bd
00000260: 5ecb c7bd c295 4cbe 866a 51be 4135 4cbd
00000270: 2e9d 893d a3b9 033e 9ccf 253e d216 cbbd
00000280: f35c 243e 1d53 fc3c 6fad 933d 2c84 133c
00000290: 18d7 1cbd 5c5a 563e b798 f03d aa70 953c
000002a0: 1fa6 d4bd ab3a 0cbe 75c8 d53d f83b dc3d
000002b0: c9ad db3c d832 2bbc 7514 843c 9ddc 1b3d
000002c0: e771 7f3d f233 d13d 2861 15be 3ee2 98bd
000002d0: 5f66 1d3e 69b1 103e d3d7 f73d 705d c73d
000002e0: 865d b73d ea86 36be bfea e53d 5fde 3bbe
000002f0: 9b7c 8f3c d3c5 1cbd b6cc 413e 8dc8 223e
00000300: f632 3f3e 2763 e23a 1c1f f33c b94c 03bc
00000310: aa82 373e f152 4f3e e11c 76bd 4961 663e
00000320: 772f 2d3e 80e1 8c3d 4175 5c3e 6d6c 06bd
00000330: 170b cb3d fe08 3c3e a7c7 b03b 3b5d 22bd
00000340: bb96 dabd e32a e93c 70e8 2bbe be22 65bd
00000350: 1c69 793d 74c3 5fbc 63a3 c9bd b411 71bd
00000360: 40ee 92bd 1ed4 f8bd 065b 99bd 7fe3 3c3e
00000370: 31e9 bc3d dd81 9e3c eb5c b2bd 8b77 a13d
00000380: e85e 1b3e 645e 0f3e b99f f73c 4cac 1fbe
00000390: 7207 34be ea63 10be ad3b 2dbe d633 113c
000003a0: d3dc 8ebc eb65 443e 74d6 063d 5ce0 61bd
000003b0: f24f 9b3d 58d1 bbbc fc16 9abd 50a9 07bc
000003c0: 2af3 a2bd cc20 67bd c68e 09be 87b3 233e
000003d0: 5fb2 0f3e 387a a1bd f21b 3ebe 7a3d bdbd
000003e0: 9b3c 40be 7d3a 29be e712 463e 5e47 2ebe
000003f0: 0000 1abb 5979 223e 0082 d3bc 13b8 293e

network.0.bias f4 [256]
-0.09195489 0.050735176 -0.16941829 0.018314833 -0.0657084 0.057967138 0.10572448 0.077667095
0.1547865 -0.16225262 0.0032345385 0.19867851 -0.08917245 0.1706716 0.19415696 0.08071576
0.16767369 0.06582172 0.11904431 -0.13472335 0.010182094 0.033633433 0.1715095 0.076002724
0.13761047 0.09363499 0.11400706 0.1918706 0.08720543 -0.09738865 -0.07658438 0.14900759
-0.10643107 -0.03855622 -0.12525499 -0.0068039745 0.124760374 -0.03190583 -0.06795037 0.12857753
0.16930269 -0.17406091 -0.17943516 0.19976668 0.07415074 -0.052826658 -0.015143032 0.12995793
-0.03297408 0.04473703 0.13499494 0.02398809 -0.19228658 0.13795112 -0.09376276 -0.07019626
-0.010963519 -0.11265848 -0.19595514 -0.100488484 0.18064353 -0.15988399 0.21340667 -0.11410114
-0.13875744 -0.012432514 0.008352943 0.061232295 0.1049623 -0.082763754 -0.21188924 -0.018307403
-0.04040058 -0.099644184 0.10821778 0.028808707 -0.05343355 -0.098572455 0.048404027 0.10719607
0.09845895 -0.15887064 -0.10936988 -0.158935 0.006198986 0.012439252 -0.057026118 -0.12492444
0.18523167 0.06959266 0.21037315 0.04139073 0.114242435 0.20287111 -0.042551823 -0.06903334
0.00083016197 0.10417783 0.0929702 0.14831801 -0.13030587 0.07824381 -0.055266485 0.18658356
-0.19179597 -0.19981503 -0.13146102 0.11843077 0.038508624 0.16739227 -0.18041193 -0.009931383
0.008084241 0.10940471 -0.09448419 0.06373261 0.07712177 0.06139471 -0.16863929 -0.11426018
-0.1509478 0.0908656 0.15297662 -0.12738784 0.07540102 0.03141078 0.1309544 0.15952455
0.118489906 -0.16672981 -0.031241512 -0.055442985 0.13571225 -0.1148125 -0.18876441 -0.16855189
0.10963855 0.12505108 0.14500926 0.08412816 0.109792426 0.08281035 -0.15473226 0.018664913
-0.19409688 0.13054366 -0.11332635 -0.12005957 0.05528347 -0.13082752 0.0825436 -0.03339357
-0.15841961 -0.010187029 0.007826284 -0.023859084 0.06005369 0.05254523 0.1341336 0.038815144
0.07103572 -0.13260184 -0.03426691 -0.11369037 -0.067657344 -0.10032309 0.02759049 0.041747842
-0.003032064 0.15135299 0.20464203 0.12174446 -0.07018003 0.14846745 -0.035784893 -0.08310626
0.15101573 0.0075501087 -0.06190036 -0.16801505 0.17318158 0.1510919 -0.048659932 -0.055841822
0.18413328 0.040712982 0.19733267 -0.1825415 -0.09374486 0.1456771 -0.10095701 -0.09814366
-0.056289833 0.19674738 0.10855862 0.09048129 -0.046129726 0.035425924 -0.11868991 0.06894877
0.13181795 -0.17135058 -0.10992918 -0.11392423 0.06344263 -0.19547574 0.05678999 0.17513701
0.2079786 0.1387423 0.18117625 -0.17815152 0.0384669 0.16572374 -0.17910218 0.06759499
-0.016591562 0.042901307 -0.10691052 0.16009781 -0.15321924 -0.13634233 -0.112249345 0.19529568
-0.055272274 -0.095569566 -0.106953725 -0.00010444403 0.21074244 6.139911e-05 0.10419127 -0.127368
-0.046541102 0.09410938 -0.005157334 0.11920536 0.018503504 0.16079195 -0.05431685 -0.17890368
0.14186306 0.14596958 -0.07809343 0.0009092552 -0.10965757 0.0460554 -0.12915224 0.03524538
-0.13797101 0.05847609 0.12990393 -0.09543668 -0.04798464 -0.04029191 -0.090721056 0.022540066
00000000: d852 bcbd b0cf 4f3d fd7b 2dbe fd08 963c
00000010: 2092 86bd f36e 6d3d 1386 d83d ed0f 9f3d
00000020: 5a80 1e3e 8d25 26be 8dfa 533b 6172 4b3e
00000030: 0ca0 b6bd 89c4 2e3e 15d1 463e 4e4e a53d
00000040: a7b2 2b3e 8acd 863d 81cd f33d ebf4 09be
00000050: ccd2 263c 36c3 093d 30a0 2f3e 51a7 9b3d
00000060: c2e9 0c3e b4c3 bf3d 897c e93d ba79 443e
00000070: c398 b23d b373 c7bd 45d8 9cbd 7295 183e
00000080: 88f8 d9bd 20ed 1dbd d842 00be e0f3 debb
00000090: 5e82 ff3d b0af 02bd 9029 8bbd d4a9 033e
000000a0: af5d 2d3e 063d 32be dabd 37be a38f 4c3e
000000b0: 58dc 973d c460 58bd 7b1a 78bc b113 053e
000000c0: d40f 07bd 2d3e 373d 1d3c 0a3e ac82 c43c
000000d0: c6e6 44be 0f43 0d3e b106 c0bd 0fc3 8fbd
000000e0: 55a0 33bc 7db9 e6bd 77a8 48be e8cc cdbd
000000f0: 9efa 383e a1b8 23be 4787 5a3e dcad e9bd
00000100: 6e16 0ebe beb1 4bbc c8da 083c b7ce 7a3d
00000110: 79f6 d63d 0b80 a9bd 7ef9 58be 68f9 95bc
00000120: 147b 25bd 4012 ccbd 49a1 dd3d 3d00 ec3c
00000130: 23dd 5abd 5be0 c9bd 4d43 463d 9d89 db3d
00000140: d9a4 c93d fcae 22be 51fd dfbd dbbf 22be
00000150: dd20 cb3b 01ce 4b3c 3894 69bd 63d8 ffbd
00000160: 5fad 3d3e 9986 8e3d 0f6c 573e 5389 293d
00000170: f0f7 e93d 72bd 4f3e d24a 2ebd 5a61 8dbd
00000180: 3a9f 593a 305b d53d 2967 be3d ade0 173e
00000190: e76e 05be 4a3e a03d 1c5f 62bd c30f 3f3e
000001a0: 2a66 44be 509c 4cbe b89d 06be d58b f23d
000001b0: 38bb 1d3d e168 2b3e e8bd 38be 3db7 22bc
000001c0: c473 043c 940f e03d ed80 c1bd 3e86 823d
000001d0: 05f2 9d3d 0579 7b3d c7af 2cbe 3e01 eabd
000001e0: 0f92 1abe be17 ba3d e7a5 1c3e f571 02be
000001f0: da6b 9a3d 97a8 003d e918 063e 675a 233e
00000200: d6aa f23d 38bb 2abe 33ee ffbc 2f18 63bd
00000210: 27f8 0a3e d122 ebbd 754b 41be de98 2cbe
00000220: 2d8a e03d 640d 003e 4f7d 143e 624b ac3d
00000230: dada e03d 7998 a93d 2272 1ebe 29e7 983c
00000240: 55c1 46be 3dad 053e a517 e8bd cbe1 f5bd
00000250: eb70 623d a6f7 05be 9e0c a93d b2c7 08bd
00000260: c038 22be 7fe7 26bc d039 003c 2074 c3bc
00000270: dcfa 753d ab39 573d 525a 093e a1fc 1e3d
00000280: 2d7b 913d c7c8 07be 765b 0cbd 7fd6 e8bd
00000290: ef8f 8abd 3176 cdbd 7405 e23c c9ff 2a3d
000002a0: 98b5 46bb 47fc 1a3e ae8d 513e 2955 f93d
000002b0: 8cba 8fbd da07 183e 2e93 12bd 9d33 aabd
000002c0: dea3 1a3e e766 f73b 3b8b 7dbd 230c 2cbe
000002d0: 8356 313e d6b7 1a3e a34f 47bd 65ba 64bd
000002e0: 6f8d 3c3e a8c2 263d 9311 4a3e 29ec 3abe
000002f0: 4efd bfbd 612c 153e 8dc2 cebd 8bff c8bd
00000300: 2b90 66bd 2578 493e fb53 de3d 414e b93d
00000310: 86f2 3cbd c61a 113d b213 f3bd 0335 8d3d
00000320: 49fb 063e 8776 2fbe 8d22 e1bd 1b51 e9bd
00000330: 36ee 813d cb2a 48be 9f9c 683d 1e57 333e
00000340: 58f8 543e 7612 0e3e 4486 393e 5a6d 36be
00000350: 788f 1d3d 7cb3 293e 9066 37be 3e6f 8a3d
00000360: 07eb 87bc 48b9 2f3d e7f3 dabd aef0 233e
00000370: 81e5 1cbe 539d 0bbe fce2 e5bd 97fb 473e
00000380: 2e65 62bd fab9 c3bd 8e0a dbbd f608 dbb8
00000390: decc 573e 65c3 8038 3c62 d53d c26c 02be
000003a0: e2a1 3ebd 6bbc c03d dafe a8bb f121 f43d
000003b0: a994 973c a5a6 243e 587b 5ebd 8732 37be
000003c0: 8d44 113e 0d79 153e 73ef 9fbd 155b 6e3a
000003d0: 2694 e0bd 96a4 3c3d 7c40 04be 765d 103d
000003e0: 4648 0dbe a084 6f3d 8905 053e 4e74 c3bd
000003f0: 8b8b 44bd 2109 25bd f6cb b9bd f2a5 b83c

network.2.weight f4 [256, 256]
-0.0043342863 0.052075624 0.012134278 0.055427354 -0.00091074605 -0.030610366 0.009584988 -0.027694264
0.08104489 0.021106228 -0.023646362 -0.03385563 0.0066371094 0.02507534 0.041272096 0.035820127
-0.04624994 -0.031747103 -0.019032156 0.00629057 0.0828745 0.02200114 0.024109155 -0.026994731
0.019857125 0.07456819 -0.03811865 0.01275574 -0.012567303 -0.004527862 0.06473985 0.06107989
0.08003427 0.021762148 -0.036180172 -0.029537946 0.07170928 -0.009377069 0.021951925 -0.032140378
-0.0028212217 0.027412135 0.032617442 0.041745894 0.038574126 -0.015873965 0.04660606 -0.016953094
0.02672859 0.051658276 -0.0020507544 0.06059877 0.05647365 0.037865397 -0.048676386 -0.046923213
0.0023870224 -0.037335746 -0.0040063336 -0.008223027 -0.030922668 -0.0091216285 -0.024528865 0.016460733
0.010586922 0.05042928 0.04497646 0.045607112 0.03753749 -0.04655444 0.013636205 -0.02506836
-0.043941826 0.015699714 -0.0024842299 0.019508004 0.064793445 -0.017971026 -0.014116772 0.05057533
0.048069317 0.056375816 0.05354146 0.039232977 -0.039963044 0.009340362 0.023111217 -0.040478446
0.043583542 0.00644767 0.045752626 0.055362184 -0.011520972 0.004388957 0.072696164 -0.00632073
0.042001896 0.049546387 0.08643411 -0.022386061 0.04107746 0.029466804 -0.0023508072 0.011578467
-0.009912642 -0.049477123 0.010637425 0.029398326 0.023844602 0.018056018 -0.017011166 -0.0042202454
-0.016885102 0.01007995 -0.050950885 -0.013424229 -0.01627919 0.016573517 0.07601094 0.015718363
-0.019149993 0.007362567 -0.02353599 -0.046036128 -0.015473324 0.054216832 0.05673899 -0.026128491
-0.021949602 -0.0222521 -0.037818078 0.013724599 0.03696531 -0.05193768 -0.024334814 0.04746933
0.055025116 0.011516016 -0.0024439686 0.006502226 0.04744553 -0.019049706 -0.042997457 0.03518945
0.021989956 0.056643218 -0.058414187 0.020855298 0.02106019 -0.016374987 0.0078495685 -0.042815506
-0.049487237 0.03257413 0.054044068 0.030668406 -0.055301674 -0.050315205 0.061879687 -0.0067950594
-0.024005061 -0.023460131 0.021607196 -0.053485096 -0.043001138 -0.00035395482 -0.05138714 0.036101628
-0.026186563 -0.027472371 0.011740941 0.031501126 0.03015119 0.063307695 0.04059446 0.05335847
-0.0029664955 0.0044443454 0.038264964 0.0038072092 0.06152595 -0.004166711 0.07788877 -0.0430535
-0.041906144 0.0070358277 0.03449097 -0.02390451 6.997975e-05 0.021227881 -0.04117264 0.08256825
0.024132818 0.059327763 -0.001108722 0.023227278 0.046054117 -0.02017683 -0.000604644 0.06330751
-0.039534878 -0.00056242174 -0.02225626 0.041568063 0.0024879645 -0.0014817416 0.06998425 0.0072609186
0.012170405 0.02963595 -0.0392327 -0.035179887 0.024820905 0.057272613 0.02495464 -0.055218026
-0.021223374 0.07262191 0.0069070384 -0.033404674 0.03448281 0.02410336 -0.019651214 -0.02889798
0.033786368 0.061510313 0.035089836 0.02773958 -0.036192596 -0.015155089 0.08476195 0.011834361
-0.0015546599 0.039837778 -0.011604134 0.048354343 0.040793173 0.06649781 -0.025735393 -0.0024106358
-0.022198536 0.011695076 0.030647881 0.040981773 -0.036315322 0.0639979 -0.020957835 -0.055629075
-0.036684368 0.05218255 0.01623953 -0.020674136 0.052350756 -0.028104872 0.046021316 0.017040752
00000000: a106 8ebb 404d 553d dace 463c cb07 633d
00000010: 22bf 6eba 97c2 fabc 5a0a 1d3c 15df e2bc
00000020: ddfa a53d f8e6 ac3c 04b6 c1bc 33ac 0abd
00000030: 1c7c d93b cd6a cd3c ee0c 293d 20b8 123d
00000040: 9470 3dbd 4009 02bd 53e9 9bbc 2021 ce3b
00000050: 1bba a93d bc3b b43c 9080 c53c 0e24 ddbc
00000060: 69ab a23c 35b7 983d 4d22 1cbd 74fd 503c
00000070: 17e7 4dbc 765e 94bb 5496 843d e82e 7a3d
00000080: 02e9 a33d 8846 b23c a931 14bd 90f9 f1bc
00000090: 51dc 923d 47a2 19bc 86d4 b33c a1a5 03bd
000000a0: 3fe4 38bb 6a8f e03c de99 053d befd 2a3d
000000b0: e7ff 1d3d 1e0a 82bc ffe5 3e3d 37e1 8abc
000000c0: eaf5 da3c a197 533d f365 06bb 6a36 783d
000000d0: ea50 673d bf18 1b3d e460 47bd 8e32 40bd
000000e0: 976f 1c3b 5eed 18bd 9047 83bb e0b9 06bc
000000f0: 8951 fdbc e272 15bc c2f0 c8bc a9d8 863c
00000100: c574 2d3c ef8e 4e3d 3d39 383d 86ce 3a3d
00000110: e9c0 193d deaf 3ebd 646a 5f3c 295c cdbc
00000120: 58fc 33bd b09c 803c 76ce 22bb 40cf 9f3c
00000130: 6db2 843d f937 93bc 094a 67bc 1428 4f3d
00000140: 55e4 443d 54ea 663d 4a4e 5b3d c2b2 203d
00000150: 4ab0 23bd 5108 193c bc53 bd3c bacc 25bd
00000160: a884 323d fa46 d33b 1b67 3b3d 75c3 623d
00000170: 75c2 3cbc 3dd1 8f3b bae1 943d 201e cfbb
00000180: 2e0a 2c3d 27f1 4a3d 5e04 b13d f962 b7bc
00000190: d740 283d 5e64 f13c 0010 1abb 9cb3 3d3c
000001a0: a268 22bc 86a8 4abd 9848 2e3c c2d4 f03c
000001b0: c155 c33c 37ea 933c 005b 8bbc fc49 8abb
000001c0: a052 8abc 6026 253c e0b1 50bd 4cf1 5bbc
000001d0: f05b 85bc 2fc5 873c a0ab 9b3d ccc3 803c
000001e0: 72e0 9cbc b041 f13b 8cce c0bc 6190 3cbd
000001f0: d383 7dbc 7812 5e3d 2567 683d 6b0b d6bc
00000200: a7cf b3bc 094a b6bc 21e7 1abd 24dd 603c
00000210: f068 173d 9bbc 54bd ce59 c7bc 336f 423d
00000220: 0462 613d acad 3c3c fd2a 20bb a010 d53b
00000230: 3e56 423d 210e 9cbc 1a1e 30bd d022 103d
00000240: 4824 b43c b802 683d b743 6fbd bbd8 aa3c
00000250: 6b86 ac3c d624 86bc 7a9b 003c 505f 2fbd
00000260: 21b3 4abd 736c 053d 505d 5d3d 4f3c fb3c
00000270: 0284 62bd 5117 4ebd 8e75 7d3d 17a9 debb
00000280: 43a6 c4bc 762f c0bc 9301 b13c 3013 5bbd
00000290: f621 30bd 0393 b9b9 527b 52bd 4ddf 133d
000002a0: 3485 d6bc bd0d e1bc 135d 403c 5307 013d
000002b0: a1ff f63c 77a7 813d 6046 263d 698e 5a3d
000002c0: 8969 42bb dfa1 913b b9bb 1c3d 5f82 793b
000002d0: a202 7c3d e888 88bb 2684 9f3d de58 30bd
000002e0: c7a5 2bbd cd8c e63b 6746 0d3d 64d3 c3bc
000002f0: 18c2 9238 18e6 ad3c a4a4 28bd 8b19 a93d
00000300: 30b2 c53c ab01 733d 8952 91ba 2247 be3c
00000310: 3ea3 3c3d e149 a5bc f980 1eba 5ea7 813d
00000320: 53ef 21bd 7c6f 13ba c352 b6bc 4643 2a3d
00000330: 1e0d 233b ff36 c2ba e753 8f3d 00ed ed3b
00000340: 6166 473c 18c7 f23c 78b2 20bd c918 10bd
00000350: 3655 cb3c b096 6a3d ac6d cc3c 4c2c 62bd
00000360: a4dc adbc ccba 943d 7054 e23b 57d3 08bd
00000370: d93d 0d3d 6974 c53c 95fb a0bc 75bb ecbc
00000380: 9363 0a3d 3df2 7b3d 5cba 0f3d 1e3e e33c
00000390: b03e 14bd 0d4d 78bc ac97 ad3d e8e4 413c
000003a0: bbc5 cbba f02c 233d 441f 3ebc 340f 463d
000003b0: be16 273d 0130 883d 08d3 d2bc c2fb 1dbb
000003c0: b4d9 b5bc b49c 3f3c 4411 fb3c 81dc 273d
000003d0: 60bf 14bd 5511 833d c4af abbc 50db 63bd
000003e0: 5942 16bd 5fbd 553d c308 853c ce5c a9bc
000003f0: bf6d 563d 303c e6bc d980 3c3d 0c99 8b3c

network.2.bias f4 [256]
0.07911079 0.05562968 -0.018195001 -0.06507833 -0.008024566 0.013246308 -0.012916893 0.044393983
0.0042341114 0.032123957 -0.011442848 -0.02958671 0.05749515 -0.06529444 -0.018977907 -0.01870524
0.001572343 -0.041954923 0.017374644 -0.06599606 -0.027104832 0.016969515 0.025201645 -0.033716455
-0.018940598 0.066883825 0.035542108 0.076283425 0.040655382 -0.059796415 -0.0020403091 0.020680051
0.0020368714 -0.020683495 -0.026036426 -0.009833062 -0.029714923 -0.017837398 0.032435052 0.018718963
-0.025225958 -0.01710038 0.038107526 0.082325794 0.056422498 0.011042688 0.022847654 0.036746085
0.034310415 0.030208422 0.01884029 0.02353866 -0.058110014 0.006133828 -0.04864301 -0.023138838
-0.011547319 -0.01370058 0.05142394 -0.02393539 0.07456669 -0.008294194 0.019306526 0.03659111
0.043096 -0.044795528 -0.05002754 -0.05761324 -0.035331056 0.0100357095 -0.016054254 -0.031539354
0.086776085 -0.027151093 0.033769622 -0.034223124 -0.013643378 -0.022032423 -0.059001695 -0.028985806
-0.043344263 -0.0027448859 -0.018238064 0.025145277 0.008164026 -0.04423853 0.078252524 -0.049216133
0.017648147 0.06734615 0.061216023 0.04927932 0.027111454 -0.003887601 0.044806246 -0.05049998
0.019537278 -0.034565005 -0.029289031 -0.052638136 -0.039897613 -0.050561044 0.005817634 0.005596476
0.003430476 0.048812013 -0.02931011 -0.065451406 0.026746156 -0.007750081 0.08078649 -0.013844802
-0.05347246 0.07540846 0.021675244 -0.057475522 -0.04254301 0.06728238 -0.0392266 0.027974328
0.033750795 -0.026130863 0.04528097 -0.04698185 -0.00041336566 -0.021810746 0.01778431 0.061498486
0.063983925 -0.037391424 0.06444621 0.034872144 -0.05285511 -0.026692435 -0.027400434 0.017140828
-0.061728608 0.010235282 -0.03687328 -0.028551353 0.049210683 -0.03761813 0.03182943 -0.037121594
0.055328563 0.034052268 0.02596498 -0.045368277 -0.05145052 -0.033985194 -0.009709608 0.002355501
0.029619826 0.03164821 -0.022862548 0.012736975 0.06783933 -0.04085825 0.023267955 -0.008447978
0.05153594 0.0044943914 -0.026832398 -0.036346152 0.052228298 -0.057626106 -0.008774191 -0.0382548
0.040822454 0.04456418 -0.012730651 0.056174457 -0.06679998 0.029552363 0.042134825 -0.03371936
-0.011612119 0.015826207 0.018943038 -0.01274316 -0.0065747094 0.054386105 -0.059518185 0.05329602
0.0813384 -0.01615708 -0.060632482 0.02613531 0.031862807 -0.027973678 0.022314126 -0.00050663995
0.023580112 0.024550311 -0.062431313 0.037682395 -0.048188172 0.028426994 -0.0143570155 -0.015629105
0.052984953 0.010889813 0.030903183 0.00600568 -0.0058610123 -0.00047676294 0.046250213 -0.01773143
-0.022943778 0.04848212 0.028185375 -0.031015005 -0.0014464757 0.04839882 0.055318758 0.045733433
0.03404688 -0.024313137 0.04452547 -0.013063956 0.04507591 -0.03693042 0.03998479 -0.04699649
0.004286516 0.010978058 -0.05845982 -0.055356745 -0.038653027 -0.022845974 0.0068286806 0.055436175
-0.051074248 -0.0056465194 -0.0026745885 0.00076665333 -0.037438024 -0.0035967976 -0.020478077 -0.04529209
-0.06071976 -0.026852185 0.049046203 0.03537923 -0.05217953 0.044957083 -0.016305285 0.068038635
-0.056902975 0.03680516 0.011509481 0.03990898 0.047578935 0.0028282397 0.008358332 -0.00297336
00000000: d604 a23d f3db 633d af0d 95bc ca47 85bd
00000010: 7879 03bc 0b07 593c 60a1 53bc 77d6 353d
00000020: 4dbe 8a3b 6994 033d c87a 3bbc d45f f2bc
00000030: 0980 6b3d 17b9 85bd 8e77 9bbc bb3b 99bc
00000040: 1417 ce3a edd8 2bbd 4555 8e3c f128 87bd
00000050: f40a debc a703 8b3c ae73 ce3c 441a 0abd
00000060: 5029 9bbc 63fa 883d 9a94 113d 7c3a 9c3d
00000070: 4286 263d 16ed 74bd b5b6 05bb 3669 a93c
00000080: 087d 053b 6f70 a9bc 584a d5bc da1a 21bc
00000090: b66c f3bc bc1f 92bc 9eda 043d 8358 993c
000000a0: aba6 cebc 1916 8cbc a316 1c3d 6d9a a83d
000000b0: 471b 673d 64ec 343c 012b bb3c 1083 163d
000000c0: 1489 0c3d a777 f73c f456 9a3c 26d4 c03c
000000d0: c404 6ebd 47fe c83b e53d 47bd a98d bdbc
000000e0: f730 3dbc 6678 60bc e9a1 523d 2714 c4bc
000000f0: 6cb6 983d 5fe4 07bc b828 9e3c 8fe0 153d
00000100: 6e85 303d 847b 37bd aee9 4cbd dcfb 6bbd
00000110: 4cb7 10bd d16c 243c 3684 83bc 692f 01bd
00000120: a9b7 b13d f86b debc 0452 0a3d 8c2d 0cbd
00000130: 7a88 5fbc 577d b4bc c3ab 71bd a473 edbc
00000140: c189 31bd 8be3 33bb fe67 95bc 78fd cd3c
00000150: 68c2 053c 7633 35bd dc42 a03d db96 49bd
00000160: d992 903c c7ec 893d a7bd 7a3d 1dd9 493d
00000170: d718 de3c 1fc7 7ebb c186 373d 11d9 4ebd
00000180: a40c a03c 0994 0dbd 8def efbc 169b 57bd
00000190: ae6b 23bd 1919 4fbd daa1 be3b a562 b73b
000001a0: d6d1 603b 1bef 473d c11b f0bc 630b 86bd
000001b0: c11a db3c 64f4 fdbb 6373 a53d 4fd5 62bc
000001c0: f005 5bbd c06f 9a3d 4890 b13c 746b 6bbd
000001d0: 9441 2ebd 58cb 893d 12ac 20bd 6b2a e53c
000001e0: 463e 0a3d 6410 d6bc 8a78 393d 0a70 40bd
000001f0: 00b9 d8b9 73ac b2bc 67b0 913c d6e5 7b3d
00000200: 010a 833d c027 19bd 60fc 833d 18d6 0e3d
00000210: 9a7e 58bd 18aa dabc e076 e0bc ec6a 8c3c
00000220: 23d7 7cbd e2b1 273c 7008 17bd 87e4 e9bc
00000230: 2491 493d 7815 1abd 945f 023d d00c 18bd
00000240: 34a0 623d 647a 0b3d 82b4 d43c 16d4 39bd
00000250: c8bd 52bd 0f34 0bbd 0c15 1fbc c05e 1a3b
00000260: 47a5 f23c 8ea1 013d 3d4a bbbc bfae 503c
00000270: 59ef 8a3d fb5a 27bd 709c be3c 6369 0abc
00000280: 5a17 533d b045 933b 9ecf dbbc b4df 14bd
00000290: 57ed 553d 5a09 6cbd a0c1 0fbc 11b1 1cbd
000002a0: 7235 273d ee88 363d 3894 50bc 3017 663d
000002b0: 6ece 88bd cc17 f23c 9195 2c3d 501d 0abd
000002c0: c240 3ebc f6a5 813c 6e2e 9b3c b0c8 50bc
000002d0: a970 d7bb f7c3 5e3d 57c9 73bd ed4c 5a3d
000002e0: bf94 a63d da5b 84bc c459 78bd b819 d63c
000002f0: 9382 023d 0e29 e5bc 1dcc b63c 08d0 04ba
00000300: 142b c13c bc1d c93c fab7 7fbd db58 1a3d
00000310: f660 45bd badf e83c b039 6bbc 9c08 80bc
00000320: c006 593d 306b 323c ac28 fd3c 4ccb c43b
00000330: bc0d c0bb 0af6 f9b9 dd70 3d3d 8141 91bc
00000340: 97f4 bbbc 3095 463d 04e5 e63c 2e13 febc
00000350: ac97 bdba d73d 463d ec95 623d fb52 3b3d
00000360: be74 0b3d 582c c7bc 5760 363d 340a 56bc
00000370: 84a1 383d 5a44 17bd 17c7 233d 647f 40bd
00000380: e775 8c3b 50dd 333c 9073 6fbd c1bd 62bd
00000390: a352 1ebd 7b27 bbbc 20c3 df3b 0b11 633d
000003a0: 3b33 51bd 7006 b9bb 2648 2fbb 3cf9 483a
000003b0: 9d58 19bd 40b8 6bbb a4c1 a7bc 3384 39bd
000003c0: 48b5 78bd 1df9 dbbc ace4 483d d0e9 103d
000003d0: 34ba 55bd eb24 383d a992 85bc d757 8b3d
000003e0: 1813 69bd 02c1 163d 4392 3c3c 9977 233d
000003f0: 21e2 423d fd59 393b 63f1 083c b4dc 42bb

network.4.weight f4 [8, 256]
-0.009275444 0.005548117 0.030976856 0.01870084 -0.04745397 0.050534472 0.010015428 -0.009368439
0.014020031 -0.0356124 0.050954632 0.026913173 0.015968438 0.052103184 0.03717412 -0.06899874
0.010780878 0.010151367 -0.025909955 0.025013017 0.025734939 -0.0035349845 0.054543722 0.04022515
-0.050943214 -0.03663449 0.004580207 0.045893475 -0.049254198 -0.047360964 -0.007036343 0.026128776
-0.02577821 -0.029722663 0.049854733 0.011464452 -0.030009404 -0.038168363 0.016773626 -0.0058574183
-0.049034555 0.045323826 0.055079896 -0.008124084 0.049360953 0.0016220433 -0.029438468 -0.013747737
-0.026436625 -0.0058916886 -0.031151325 -0.03426733 0.039486937 0.023522992 0.049844634 -0.037286878
0.043613993 0.049750462 -0.03674111 -0.046943463 0.035650413 0.027723355 -0.05400761 0.0069584786
-0.018589795 0.05147386 0.025976423 -0.051402543 0.025122086 -0.06302978 0.026384193 -0.031112598
-0.056390733 0.028358841 -0.006557559 0.02340981 0.024700696 0.018518573 0.03459041 -0.001751639
0.007582947 0.0023852016 0.013184759 0.025000399 -0.0062056184 -0.0075345933 -0.052712075 0.013176037
-0.040911447 0.03774587 0.024203997 -0.008807087 0.016030014 0.052598972 0.01411985 -0.052780066
-0.042587634 0.045928158 -0.047135167 0.01985328 0.02471681 -0.026291689 -0.062728114 0.033753578
-0.014141256 -0.06731004 -0.03805112 0.042218275 -0.052618314 0.019355407 0.015075945 -0.011872707
-0.05423261 -0.0211416 0.04114633 -0.05184082 0.02576407 -0.019191124 0.03330829 -0.042057548
0.043038562 -0.056077253 0.04282474 -0.03720597 0.005689297 0.014604965 0.041328724 0.050127387
0.00087297946 -0.02968862 -0.05358229 -0.02377816 -0.026168205 0.016196532 -0.028793314 0.027589718
-0.0039171977 0.0575289 0.023274457 0.004468814 0.009840455 -0.053047292 -0.028359262 0.01659076
-0.0058366936 -0.010510191 0.03247932 0.010290544 0.01719795 -0.049742505 0.00062529685 0.033415005
0.02501932 0.027393268 -0.031048324 -0.059639454 0.034091275 0.009586571 -0.055068407 0.016153237
0.052925438 -0.03050591 -0.009832092 0.010860432 0.0133399535 0.017204113 -0.011868723 -0.034881074
-0.0563417 0.016436338 0.040142797 -0.007279448 0.037182286 0.020240732 -0.0020330637 -0.054691866
0.003996044 -0.0121309655 -0.020616395 0.03684809 -0.025300674 0.01833574 -0.051622543 -0.0005181609
0.031966053 0.023179201 0.060162 -0.05550976 0.022001175 -0.05673851 0.019614358 0.02022003
0.061174013 0.049749993 -0.019956887 -0.012874324 0.041682824 -0.02955662 0.017603606 -0.028202115
0.027720237 -0.018604636 -0.04070805 -0.05652641 0.008937724 0.047050487 0.03904226 0.038972694
0.0111748595 0.02282012 0.03710669 -0.023090191 0.0026389998 0.049601473 0.029722603 0.034972396
-0.04576721 0.053021125 0.049710322 -0.034667708 0.0556187 0.03126578 0.019445576 -0.0017950424
-0.0020968374 -0.02207075 0.030567449 -0.024553616 0.038940027 -0.00032563656 0.045673266 0.05070038
-0.032369524 0.04522717 -0.04800649 -0.029197913 0.03946262 0.03459178 0.04011035 -0.00927283
-0.017769784 0.00814021 -0.039137274 -0.049737927 0.057938807 -0.0032944663 0.05578215 -0.013265971
0.00878901 -0.0033943173 0.04650924 -0.052952893 -0.0020264022 -0.0013225332 0.045993917 -0.06467676
00000000: 08f8 17bc fbcc b53b 2dc3 fd3c 8132 993c
00000010: 185f 42bd 3cfd 4e3d c017 243c 157e 19bc
00000020: 46b4 653c 4fde 11bd ceb5 503d 0479 dc3c
00000030: 3ed0 823c 266a 553d e443 183d 364f 8dbd
00000040: 48a2 303c eb51 263c 1d41 d4bc 19e8 cc3c
00000050: 14d2 d23c 33ab 67bb 3d69 5f3d 20c3 243d
00000060: d5a9 50bd 0c0e 16bd 9015 963b ccfa 3b3d
00000070: c5be 49bd 92fd 41bd 2091 e6bb 040c d63c
00000080: d32c d3bc f17c f3bc 7a34 4c3d 66d5 3b3c
00000090: 48d6 f5bc 6e56 1cbd d868 893c 96ef bfbb
000000a0: 75d8 48bd 7aa5 393d 759b 613d e11a 05bc
000000b0: b62e 4a3d be9a d43a f128 f1bc 303e 61bc
000000c0: 9f91 d8bc 110f c1bb 1031 ffbc e65b 0cbd
000000d0: 0ebd 213d 4ab3 c03c e329 4c3d 20ba 18bd
000000e0: 96a4 323d 24c7 4b3d d97d 16bd ca47 40bd
000000f0: 2b06 123d 171c e33c 1537 5dbd f303 e43b
00000100: a049 98bc 41d6 523d 82cc d43c 798b 52bd
00000110: d5cc cd3c c215 81bd aa23 d83c d9df febc
00000120: f8f9 66bd cd50 e83c cbe0 d6bb eec5 bf3c
00000130: 1d59 ca3c 43b4 973c acae 0d3d 4097 e5ba
00000140: 5f7a f83b 0b51 1c3b e304 583c a3cd cc3c
00000150: 8058 cbbb c0e4 f6bb 9ee8 57bd 4ee0 573c
00000160: c392 27bd 6a9b 1a3d 7647 c63c 9a4b 10bc
00000170: 6051 833c 0572 573d f156 673c e92f 58bd
00000180: 5f70 2ebd 2a1f 3c3d ce10 41bd 59a3 a23c
00000190: e87a ca3c ab61 d7bc 9977 80bd 3141 0a3d
000001a0: bab0 67bc d9d9 89bd 7edb 1bbd 12ed 2c3d
000001b0: 4d86 57bd 3b8f 9e3c 1901 773c be85 42bc
000001c0: 0323 5ebd 2631 adbc 0e89 283d 0a57 54bd
000001d0: 2c0f d33c b436 9dbc 466e 083d 8944 2cbd
000001e0: 3449 303d 43b1 65bd ff68 2f3d 4a65 18bd
000001f0: 486d ba3b aa49 6f3c 4f48 293d 6052 4d3d
00000200: a9d8 643a 8c35 f3bc 1a79 5bbd 6aca c2bc
00000210: b45e d6bc 97ae 843c f5df ebbc d503 e23c
00000220: d65b 80bb 6da3 6b3d 13aa be3c 216f 923b
00000230: dc39 213c 1e48 59bd af51 e8bc 58e9 873c
00000240: bc41 bfbb f032 2cbc 0909 053d ab99 283c
00000250: b7e2 8c3c ccbe 4bbd f6ea 233a 2cde 083d
00000260: 51f5 cc3c d967 e03c 0e59 febc 8048 74bd
00000270: 4ba3 0b3d fe10 1d3c 698f 61bd cb53 843c
00000280: 58c8 583d 88e7 f9bc c816 21bc f4ef 313c
00000290: d28f 5a3c a4ef 8c3c 0875 42bc 75df 0ebd
000002a0: 8ec6 66bd 80a5 863c c66c 243d 7088 eebb
000002b0: 744c 183d e4cf a53c 263d 05bb 9404 60bd
000002c0: 3ff1 823b f5c0 46bc b7e3 a8bc 06ee 163d
000002d0: 5c43 cfbc d534 963c 2972 53bd 30d5 07ba
000002e0: d6ee 023d 4fe2 bd3c 6e6c 763d 345e 63bd
000002f0: cf3b b43c a466 68bd 4aae a03c 7aa4 a53c
00000300: 9a91 7a3d a6c6 4b3d a07c a3bc d4ee 52bc
00000310: 9cbb 2a3d ba20 f2bc 7035 903c 1f08 e7bc
00000320: 8d15 e33c c068 98bc 7cbd 26bd 3d88 67bd
00000330: 886f 123c 03b8 403d c7ea 1f3d d5a1 1f3d
00000340: c216 373c 43f1 ba3c 2ffd 173d a427 bdbc
00000350: 12f3 2c3b ea2a 4b3d d17c f33c 373f 0f3d
00000360: 6676 3bbd ae2c 593d 0d9d 4b3d baff 0dbd
00000370: 6fd0 633d 8c10 003d 544c 9f3c a147 ebba
00000380: 186b 09bb b8cd b4bc 9668 fa3c aa24 c9bc
00000390: 947f 1f3d 33ba aab9 e413 3b3d 34ab 4f3d
000003a0: e895 04bd 2040 393d 74a2 44bd 7630 efbc
000003b0: 8ea3 213d 1cb0 0d3d c04a 243d 11ed 17bc
000003c0: f091 91bc 845e 053c 684e 20bd ffb9 4bbd
000003d0: 3e51 6d3d f9e7 57bb d37b 643d 8459 59bc
000003e0: c8ff 0f3c 3273 5ebb 7980 3e3d 22e5 58bd
000003f0: 63cd 04bb da58 adba 1e64 3c3d 4075 84bd

network.4.bias f4 [8]
0.0057574525 -0.016017618 0.0065159346 0.06852671 0.02129031 -0.050679818 -0.031409465 -0.07452102
00000000: 03a9 bc3b 6137 83bc 9f83 d53b bb57 8c3d
00000010: 0469 ae3c a495 4fbd 36a7 00bd 7a9e 98bd

exp_avg f4 [256, 26]
-0.014516098 -0.012104548 -0.014931042 -0.017303158 -0.011557135 -0.034448497 -0.023683276 -0.06880734
-0.027212186 -0.027504697 -0.061105743 -0.0654535 -0.015830478 -0.07405123 -0.053094048 -0.055384498
-0.10152055 -0.06874951 -0.08000413 -0.050629355 -0.04344114 -0.051627822 -0.04788459 -0.021858787
-0.052855294 -0.05345012 0.0 2.8469578e-24 2.0570312e-06 0.0 0.0 2.9173595e-08
5.8727398e-08 1.6724245e-05 4.6300057e-09 1.5426663e-08 1.1240165e-05 1.3077577e-05 0.0 2.190925e-05
3.0960284e-05 9.844343e-06 1.9913505e-05 2.6662876e-05 8.975335e-06 1.6378657e-05 1.07067635e-05 1.3041779e-05
1.0433228e-05 4.347179e-06 1.5476968e-05 1.5667618e-05 0.0 0.0 1.2329076e-20 0.0
0.0 2.658989e-31 4.137016e-31 5.879108e-20 0.0 0.0 1.7517826e-19 5.3928977e-20
0.0 1.337283e-19 1.814884e-19 6.495377e-20 2.2832147e-19 5.7312126e-20 7.547992e-20 1.5126131e-19
1.8897529e-19 9.5520206e-20 9.2477345e-20 3.8532206e-20 9.5520206e-20 9.5520206e-20 1.7931738e-15 2.368763e-15
1.5331272e-15 1.4749056e-15 8.538552e-16 2.6577901e-15 2.9508493e-15 3.1256236e-15 2.6071683e-15 2.523154e-15
2.3461754e-15 2.223829e-15 9.313422e-16 2.2064175e-15 2.7359897e-15 5.304683e-16 2.0343288e-15 2.1261493e-15
1.5529803e-15 2.8802352e-15 1.6672199e-15 1.5760139e-15 1.5760139e-15 8.0814365e-16 1.5760139e-15 1.5760139e-15
-0.00038470366 -0.00037243214 0.0022904782 -0.0008118101 -0.00053367036 0.0012951584 0.0038561577 0.01211942
0.0044436064 0.0001269752 0.03715656 0.013354689 0.0013816878 0.024915487 0.027099816 0.00777478
0.02956773 0.03248641 0.046076115 0.017928982 0.020478118 0.017310314 0.018224156 0.008943317
0.01707957 0.016845012 1.7780662e-09 2.8280467e-09 2.5232145e-08 7.4398665e-10 8.431298e-10 9.590166e-09
1.5723087e-08 4.17021e-07 5.294748e-09 6.3450716e-09 -3.3657017e-09 2.0902198e-07 1.6636023e-09 2.8588192e-07
1.5770107e-07 1.0887332e-07 1.7926764e-07 1.5490313e-07 2.4706625e-07 4.202828e-07 2.4259373e-07 1.0554831e-07
8.393939e-08 3.4967407e-08 1.4122037e-07 1.2630353e-07 -0.0101551255 -0.009953679 -0.01316392 -0.013771046
-0.01124054 -0.026439095 -0.020678405 -0.0454541 -0.018576711 -0.023409054 -0.049374 -0.0379865
-0.012642348 -0.056165792 -0.03986011 -0.03703819 -0.074694745 -0.06262782 -0.06812386 -0.037524022
-0.041129835 -0.03689961 -0.033406563 -0.015080712 -0.039747484 -0.03943775 -0.006468233 -0.006995783
-0.007873457 -0.009365141 -0.0066984394 -0.01774915 -0.015092206 -0.02516238 -0.013100167 -0.015869563
-0.024559945 -0.017971467 -0.009589312 -0.029445546 -0.022792054 -0.020569436 -0.04030851 -0.030635068
-0.03452395 -0.018612549 -0.023684978 -0.018963832 -0.016418507 -0.0073107462 -0.020839095 -0.020650355
0.0005417384 0.00091167144 -0.003546882 -0.0011855406 -0.0011220402 -0.0030376904 0.0020483686 -0.037778094
-0.0005996497 -0.0032884108 -0.014406624 -0.030590478 -0.0014564033 -0.0299339 -0.012502831 -0.008230384
-0.032732725 -0.024445226 -0.012492515 -0.040434647 -0.016395858 -0.02128399 -0.01845421 -0.007330643
-0.022020925 -0.022266809 0.0 0.0 0.0 0.0 0.0 0.0
0.0 0.0 0.0 0.0 0.0 0.0 0.0 0.0
0.0 0.0 0.0 0.0 0.0 0.0 0.0 0.0
00000000: eed4 6dbc 2752 46bc 54a1 74bc 5abf 8dbc
00000010: 235a 3dbc de19 0dbd 6e03 c2bc ddea 8cbd
00000020: 17ec debc 8851 e1bc 044a 7abd 7c0c 86bd
00000030: ebae 81bc 2ca8 97bd 2579 59bd dbda 62bd
00000040: 02ea cfbd 8bcc 8cbd 35d9 a3bd ba60 4fbd
00000050: 56ef 31bd b277 53bd a222 44bd 3311 b3bc
00000060: cb7e 58bd 83ee 5abd 0000 0000 cf45 5c18
00000070: 870b 0a36 0000 0000 0000 0000 6a99 fa32
00000080: 753b 7c33 0b4b 8c37 f615 9f31 9783 8432
00000090: 2494 3c37 c467 5b37 0000 0000 c2c9 b737
000000a0: 5adb 0138 2229 2537 ed0b a737 17aa df37
000000b0: c594 1637 e664 8937 33a1 3337 04ce 5a37
000000c0: 600a 2f37 fcdd 9136 89d4 8137 f46d 8337
000000d0: 0000 0000 0000 0000 c1e3 681e 0000 0000
000000e0: 0000 0000 0894 ac0c fc40 060d 07d1 8a1f
000000f0: 0000 0000 0000 0000 61d0 4e20 22ac 7e1f
00000100: 0000 0000 e6e0 1d20 8143 5620 255e 991f
00000110: f7c6 8620 0e53 871f d038 b21f ed93 3220
00000120: 471a 5f20 6c8a e11f 205b da1f 94f6 351f
00000130: 6c8a e11f 6c8a e11f 3836 0127 f7af 2a27
00000140: 69f2 dc26 6a8e d426 651b 7626 9383 3f27
00000150: 90a1 5427 9439 6127 c4dd 3b27 facf 3527
00000160: 4c0f 2927 683e 2027 7638 8626 38fd 1e27
00000170: 1a26 4527 a7e5 1826 be96 1227 8834 1927
00000180: dcce df26 f68a 4f27 8f45 f026 a620 e326
00000190: a620 e326 7aee 6826 a620 e326 a620 e326
000001a0: 0db2 c9b9 ff42 c3b9 d91b 163b a7cf 54ba
000001b0: 03e6 0bba 4ec2 a93a 97b7 7c3b 8890 463c
000001c0: ac9b 913b a524 0539 7a31 183d a0cd 5a3c
000001d0: c019 b53a 901b cc3c 6f00 de3c 95c3 fe3b
000001e0: 0638 f23c 7810 053d 4fba 3c3d cddf 923c
000001f0: bac1 a73c 5cce 8d3c d34a 953c fe86 123c
00000200: 74ea 8b3c 8dfe 893c 2560 f430 8657 4231
00000210: 13be d832 6881 4c30 fcc1 6730 ffc1 2432
00000220: 6f0f 8732 eee2 df34 19ed b531 d703 da31
00000230: 0d4a 67b1 866f 6034 cda4 e430 507b 9934
00000240: 8a54 2934 becd e933 b77c 4034 7353 2634
00000250: 87a4 8434 3aa3 e134 d43d 8234 cca9 e233
00000260: 2b42 b433 122f 1633 5ca2 1734 0d9e 0734
00000270: af61 26bc c114 23bc 7bad 57bc f49f 61bc
00000280: 3e2a 38bc cd96 d8bc c265 a9bc 142e 3abd
00000290: 302e 98bc 58c4 bfbc 643c 4abd bb97 1bbd
000002a0: da21 4fbc 1a0e 66bd 5b44 23bd 5bb5 17bd
000002b0: 8ff9 98bd 0443 80bd 8684 8bbd cab2 19bd
000002c0: c277 28bd 0c24 17bd 52d5 08bd 1715 77bc
000002d0: 42ce 22bd 7a89 21bd 79f3 d3bb e23c e5bb
000002e0: acff 00bc 4070 19bc 957e dbbb aa66 91bc
000002f0: 4d45 77bc 5621 cebc 15a2 56bc e300 82bc
00000300: f031 c9bc e638 93bc 7d1c 1dbc c937 f1bc
00000310: 67b6 babc 3c81 a8bc 891a 25bd 65f6 fabc
00000320: fc68 0dbd 5879 98bc 0007 c2bc 0a5a 9bbc
00000330: 1b80 86bc fc8e efbb c0b6 aabc ef2a a9bc
00000340: 7303 0e3a 3cfd 6e3a ce72 68bb 2464 9bba
00000350: 6c11 93ba fd13 47bb ec3d 063b 34bd 1abd
00000360: cf31 1dba 6182 57bb c309 6cbc e298 fabc
00000370: c9e4 beba f037 f5bc add8 4cbc bcd8 06bc
00000380: c012 06bd 5b41 c8bc 68ad 4cbc cd9e 25bd
00000390: 9b50 86bc c35b aebc 492d 97bc e435 f0bb
000003a0: 3a65 b4bc e268 b6bc 0000 0000 0000 0000
000003b0: 0000 0000 0000 0000 0000 0000 0000 0000
000003c0: 0000 0000 0000 0000 0000 0000 0000 0000
000003d0: 0000 0000 0000 0000 0000 0000 0000 0000
000003e0: 0000 0000 0000 0000 0000 0000 0000 0000
000003f0: 0000 0000 0000 0000 0000 0000 0000 0000

exp_avg_sq f4 [256, 26]
0.0014391418 0.0012317433 0.0013891001 0.001288649 0.0011861931 0.0052920193 0.0055303425 0.013571345
0.005092346 0.004990181 0.006653857 0.0076306323 0.0019331715 0.011085592 0.012056271 0.0061511304
0.014198024 0.015111079 0.015249155 0.013707216 0.015332888 0.0048785214 0.003980152 0.000802069
0.0054139267 0.005294073 0.0 7.7881385e-10 1.8962808e-07 0.0 0.0 1.7806315e-08
3.099684e-08 1.3767955e-05 1.03716795e-08 1.4251712e-08 3.3288316e-06 4.1105914e-06 0.0 1.1961815e-05
1.2628537e-05 2.9799521e-06 6.832947e-06 2.6626789e-05 1.0090716e-05 7.115213e-06 4.3622886e-06 3.5951105e-06
2.519282e-06 4.3484425e-07 5.1943675e-06 4.615581e-06 0.0 0.0 9.379595e-09 0.0
0.0 2.0324278e-12 4.921626e-12 6.7059193e-07 0.0 0.0 3.4808306e-06 8.36758e-07
0.0 2.2106854e-06 3.0784902e-06 1.2428974e-07 4.8832035e-06 6.990212e-07 5.012132e-07 2.6981747e-06
4.199193e-06 1.099399e-06 1.1045913e-06 2.265909e-07 1.1279013e-06 1.1279013e-06 4.36315e-09 7.61376e-09
3.190776e-09 2.9517813e-09 9.89292e-10 9.585107e-09 1.1815444e-08 1.3314501e-08 9.2234576e-09 8.638606e-09
8.201637e-09 6.7300183e-09 1.1769926e-09 7.1941426e-09 1.0276152e-08 3.8237935e-10 6.098297e-09 7.268073e-09
4.766777e-09 1.1672209e-08 3.9624015e-09 3.670481e-09 3.5268979e-09 9.133803e-10 3.670481e-09 3.670481e-09
0.00013819887 8.4725085e-05 0.00014754265 0.00010124068 0.00015982718 0.00052852125 0.0005494325 0.0034836438
0.00050427 0.0004992963 0.0016285996 0.0020210636 0.00028392984 0.002887349 0.002818688 0.0010681427
0.004258174 0.0035301836 0.0041313455 0.0042895735 0.0030639805 0.0012398638 0.001018937 0.00019897704
0.0013956388 0.0013555475 1.2666428e-06 1.1875303e-06 2.3762111e-06 1.5253726e-06 2.5976226e-06 3.2679893e-06
3.8928447e-06 3.773762e-05 4.0428467e-06 4.4809653e-06 1.4031057e-06 1.3634081e-05 2.456356e-06 2.4856849e-05
1.465899e-05 1.077406e-05 3.5802517e-05 1.8216491e-05 4.3824864e-05 4.238533e-05 3.8265596e-05 4.8877832e-06
3.39067e-06 5.934408e-07 7.423473e-06 6.462654e-06 0.0012885745 0.0010615317 0.0011796468 0.0011928431
0.0009612998 0.0049341787 0.005290776 0.01474004 0.0047637117 0.0047635296 0.0073708673 0.007998684
0.0018679579 0.011822069 0.013736465 0.006464953 0.015004774 0.015216719 0.014516817 0.015173907
0.014921695 0.005154476 0.004196913 0.0008475137 0.005764779 0.0056267614 0.00079590274 0.0006797565
0.0007209315 0.00081012724 0.0006282884 0.0031105021 0.0033595804 0.008000172 0.002981849 0.0030044229
0.0040867096 0.004449753 0.0012625643 0.006484198 0.007927951 0.004063018 0.008047403 0.0083223665
0.007892252 0.008060468 0.008003439 0.0028938847 0.0023740723 0.00046991804 0.0031866592 0.0031227244
1.6901597e-05 5.2985873e-05 3.74634e-05 1.1979243e-05 1.658488e-05 0.00022149131 0.00032722735 0.0039877244
0.00023754041 0.00022677045 0.002187885 0.0028061988 7.7886325e-05 0.0036121483 0.0036053204 0.0010081227
0.005059045 0.005402686 0.004942372 0.004406238 0.0037196386 0.0015686584 0.0012988858 0.00027325738
0.0017525296 0.0017074748 0.0 0.0 0.0 0.0 0.0 0.0
0.0 0.0 0.0 0.0 0.0 0.0 0.0 0.0
0.0 0.0 0.0 0.0 0.0 0.0 0.0 0.0
00000000: 96a1 bc3a 7272 a13a 7712 b63a e3e7 a83a
00000010: 097a 9b3a ad68 ad3b e037 b53b 595a 5e3c
00000020: b2dd a63b ac84 a33b 9908 da3b 620a fa3b
00000030: 7962 fd3a 58a0 353c aa87 453c 6c8f c93b
00000040: d49e 683c 7694 773c 98d7 793c 3b94 603c
00000050: cb36 7b3c 01dc 9f3b ef6b 823b f041 523a
00000060: 4f67 b13b e779 ad3b 0000 0000 2714 5630
00000070: 929c 4b34 0000 0000 0000 0000 80f4 9832
00000080: 6321 0533 ebfc 6637 212f 3232 b1d7 7432
00000090: e464 5f36 b6ed 8936 0000 0000 9baf 4837
000000a0: 27df 5337 30fb 4736 9146 e536 985c df37
000000b0: 4c4b 2937 37bf ee36 c65f 9236 8743 7136
000000c0: ef10 2936 8a74 e934 474b ae36 8adf 9a36
000000d0: 0000 0000 0000 0000 e523 2132 0000 0000
000000e0: 0000 0000 f704 0f2c 112a ad2c ba02 3435
000000f0: 0000 0000 0000 0000 3798 6936 929d 6035
00000100: 0000 0000 495b 1436 0f98 4e36 8174 0534
00000110: 66da a336 5fa4 3b35 1c8b 0635 4a12 3536
00000120: cbe6 8c36 108f 9335 7841 9435 d54c 7334
00000130: 6562 9735 6562 9735 acea 9531 accd 0232
00000140: ba44 5b31 49d8 4a31 9ef7 8730 bfab 2432
00000150: dffc 4a32 cbbd 6432 3275 1e32 fe68 1432
00000160: 2ee7 0c32 de3d e731 bfc3 a130 5930 f731
00000170: ff8a 3032 1c37 d22f 3089 d131 a5ba f931
00000180: 04c9 a331 eb86 4832 a725 8831 c93b 7c31
00000190: d85d 7231 6d11 7b30 c93b 7c31 c93b 7c31
000001a0: 7ae9 1039 6fae b138 aeb5 1a39 2d51 d438
000001b0: 4897 2739 768c 0a3a ca07 103a d84d 643b
000001c0: fd30 043a 35e3 023a bc76 d53a d273 043b
000001d0: 6bdc 9439 ae39 3d3b bdb9 383b ec00 8c3a
000001e0: 2788 8b3b a75a 673b 3d60 873b 8d8f 8c3b
000001f0: 10cd 483b ed82 a23a da8d 853a 7ea4 5039
00000200: deed b63a a0ac b13a 8401 aa35 3b63 9f35
00000210: ff76 1f36 67bb cc35 d152 2e36 a14f 5b36
00000220: 489f 8236 7648 1e38 caa7 8736 335b 9636
00000230: 5852 bc35 efbd 6437 e0d7 2436 ad83 d037
00000240: e2ef 7537 3cc2 3437 a92a 1638 9ecf 9837
00000250: 97d0 3738 e7c6 3138 5f7f 2038 bd01 a436
00000260: 448b 6336 f14c 1f35 2617 f936 c6d9 d836
00000270: 63e5 a83a 1823 8b3a 619e 9a3a 2c59 9c3a
00000280: bdff 7b3a e4ae a13b 3f5e ad3b 3580 713c
00000290: e918 9c3b 6217 9c3b 5187 f13b ea0c 033c
000002a0: 44d6 f43a 5ab1 413c e90e 613c f5d7 d33b
000002b0: 95d6 753c 8c4f 793c f2d7 6d3c fb9b 783c
000002c0: 207a 743c e1e6 a83b 4286 893b ae2b 5e3a
000002d0: 79e6 bc3b b260 b83b 21a4 503a b031 323a
000002e0: e5fc 3c3a b85e 543a b9b3 243a 91d9 4b3b
000002f0: 682c 5c3b 2713 033c 206b 433b dae5 443b
00000300: cee9 853b 3ccf 913b a17c a53a 6579 d43b
00000310: 3de4 013c 1123 853b 41d9 033c 895a 083c
00000320: 814e 013c 0e10 043c db20 033c 54a7 3d3b
00000330: 5396 1b3b 555f f639 45d7 503b 9fa6 4c3b
00000340: e7c7 8d37 263d 5e38 0522 1d38 75fa 4837
00000350: c21f 8b37 1f40 6839 b68f ab39 75ab 823b
00000360: 4514 7939 3bc9 6d39 9f62 0f3b 34e8 373b
00000370: e756 a338 cbb9 6c3b 3d47 6c3b fc22 843a
00000380: 58c6 a53b 0409 b13b 9ff3 a13b 3462 903b
00000390: 2ec5 733b 719b cd3a 603f aa3a fc43 8f39
000003a0: 23b5 e53a 59cd df3a 0000 0000 0000 0000
000003b0: 0000 0000 0000 0000 0000 0000 0000 0000
000003c0: 0000 0000 0000 0000 0000 0000 0000 0000
000003d0: 0000 0000 0000 0000 0000 0000 0000 0000
000003e0: 0000 0000 0000 0000 0000 0000 0000 0000
000003f0: 0000 0000 0000 0000 0000 0000 0000 0000
