models/reinforce/reinforce_large/checkpoint_ep500.pth (torch, 904778 bytes, 18 tensors)

network.0.weight f4 [256, 26]
000000 be 0e 23 be 00 09 a6 3d c6 3a 05 3e 81 e2 d0 bd
       -0.15923592 0.08107185 0.13010702 -0.10199452
000010 bc 8b d4 bc 03 82 3c 3e e4 c0 0e bd d3 72 51 3c
       -0.025945537 0.1840897 -0.034851924 0.012783724
000020 62 2b 16 3e d7 81 14 bd 7c 54 1b be db 02 d5 bc
       0.14664987 -0.036256637 -0.15168947 -0.026002338
000030 e5 99 1d 3e 4a a0 07 be 9f 51 22 be 68 c0 51 3e
       0.15390737 -0.13244739 -0.15851448 0.20483553
000040 f3 55 0e 3d 3d 8d 2a 3c e2 f5 47 3e a6 02 bf bc
       0.034749936 0.01040965 0.1952739 -0.023316693
000050 23 f1 49 3e 0f 3e 37 3e 02 08 3d 3e ee 9e 42 3e
       0.19720893 0.17894767 0.18460086 0.1900594
000060 fa fa 01 be 96 77 12 be a0 7a b9 bb 06 80 22 3e
       -0.12693396 -0.14303431 -0.00566037 0.1586915
000070 9b fb f4 bc 84 01 94 bd 20 b1 26 3c ab f2 c1 bd
       -0.029905131 -0.072268516 0.010174066 -0.09470113
000080 0f 85 1b be 53 66 a9 bd 18 00 0e bd f4 bb 4a 3e
       -0.15187477 -0.0827147 -0.03466806 0.19798261
000090 84 48 a5 bd c7 50 6e 3d 77 d4 12 be ba 99 a7 3d
       -0.08070472 0.058182504 -0.14338861 0.08183618
0000a0 40 27 ee 3c 4b 96 14 3d 10 ce f7 bd 04 03 11 3e
       0.02907145 0.036276143 -0.1209985 0.14161307
0000b0 3b 47 0c bd db 46 63 bd f2 d6 41 be 88 f2 9a bd
       -0.03424762 -0.055487495 -0.18929651 -0.075657904
0000c0 71 3c eb bd 26 c7 40 be 6f cb df 3d 7f 44 6d 3d
       -0.11486138 -0.18825969 0.10927474 0.05792665
0000d0 4c 24 a9 bd 2c b5 13 bd e7 b7 0a be 03 90 b7 bd
       -0.08258876 -0.03606145 -0.13546716 -0.08963015
0000e0 f8 19 47 be 60 51 f0 bd 30 86 21 be 4e 21 91 bd
       -0.194435 -0.11734271 -0.15773845 -0.070864305
0000f0 7a f6 d7 3d 47 5b 22 be c7 12 22 3e 8f 03 dc bd
       0.105450585 -0.15855132 0.15827475 -0.10742866
000100 f4 24 65 bd f9 dd e0 bd 42 db 31 3e d4 fa 21 be
       -0.055943444 -0.10979838 0.17368796 -0.1581834
000110 09 78 04 3d cd f2 d7 bd 8f bc 11 be b1 7f a4 3d
       0.032341037 -0.105443574 -0.14232086 0.08032168
000120 9f fa ad 3c a9 00 0a 3d 4c 02 ee bd 65 bb 20 3d
       0.02123767 0.033692036 -0.11621532 0.039241213
000130 d8 7a 80 3d 68 8d 1e 3c b7 43 b7 3d 64 9a 35 3d
       0.062734306 0.009677269 0.089484625 0.04433669
000140 db c3 1e 3e 6d 6f ca 3c 39 29 5e bd c9 32 e4 3d
       0.155044 0.024711335 -0.05423853 0.11142499
000150 6d 45 b4 3d 61 e9 42 be b8 a5 a9 3c 62 41 01 be
       0.088023044 -0.1903434 0.020708904 -0.12622598
000160 83 bb 0e 3e 0d f7 bb bd 1c af 11 be fb 7e c0 bd
       0.13938718 -0.091779806 -0.14226955 -0.093992196
000170 fc 4a c2 bd d0 30 27 be 8f 67 1c 3d 0f b9 d3 3c
       -0.094869584 -0.16327214 0.0381847 0.025845079
000180 54 2a ad bd 95 8c c4 3a 5d 9f 1d bd 6d 3f 30 bd
       -0.08455339 0.001499551 -0.03848206 -0.043029238
000190 fb 17 e2 3c 5b fc 72 bd eb f4 09 bd 63 08 ad 3c
       0.027599325 -0.059322696 -0.033680838 0.021122163
0001a0 3b f5 da 3d b9 a6 27 be da 74 fe 3c 60 da 3f be
       0.10691305 -0.16372193 0.031061579 -0.18735647
0001b0 41 19 1a 3e 6f 0e ab bc 5b f2 e2 bd c8 75 f5 3c
       0.15048696 -0.020880906 -0.11081382 0.029963389
0001c0 6a 7c cb bc 2c b8 68 bd 6a 2b 0d be e7 55 09 3d
       -0.024839599 -0.056816265 -0.13786092 0.03352919
0001d0 e7 19 db 3d 0a c1 3d 3e 6d a6 43 be fb 37 8c bd
       0.106983 0.1853067 -0.19106455 -0.06846615
0001e0 ca a1 1a 3e b8 9e 03 bd 97 48 06 3e e9 95 fa 3d
       0.1510078 -0.032133788 0.13113628 0.12235624
0001f0 4a a9 1c be de ec 1c 3e cb d8 ce 3d 48 92 e1 bd
       -0.15298954 0.15324733 0.10099944 -0.11014229
000200 eb 6c 20 be dd 14 f3 bc 54 26 d8 3c 99 6a ec bd
       -0.15666549 -0.029673034 0.026385464 -0.115437694
000210 c9 4c 28 3e 2b c2 8d bd 31 73 10 3e 7c d0 f0 bd
       0.16435541 -0.069218 0.14106442 -0.11758515
000220 44 b1 15 be f2 38 95 3d 90 56 08 3e 1b 54 9e 3c
       -0.14618403 0.07286252 0.13314271 0.019327214
000230 8a 4f 43 be e4 ff dd 3d 16 b5 9a 3d f2 39 3e be
       -0.1907331 0.10839823 0.07554071 -0.18576792
000240 47 17 f9 bd cc cd d1 3d 23 3b 7b 3d 17 ff bd bd
       -0.12162643 0.10244331 0.061335694 -0.0927717
000250 29 d1 be 3d 98 42 64 3d 06 fe 3b 3d fd a9 cd bd
       0.09317238 0.05572757 0.045896553 -0.10042188
000260 e9 3b c2 bd 2e d1 49 be bd 3b 4e be a7 0f 40 bd
       -0.09484083 -0.19708702 -0.20139976 -0.046889927
000270 27 60 85 3d c5 e0 04 3e b7 1b 22 3e 27 cc cd bd
       0.0651248 0.12976368 0.15830885 -0.100487046
000280 b4 24 22 3e f2 33 ed 3c fb 4e 94 3d ec 3a e2 3b
       0.15834314 0.028955434 0.07241627 0.0069039967
000290 74 10 20 bd 06 72 55 3e 67 36 eb 3d 57 3b 59 3c
       -0.03907819 0.20844278 0.11484986 0.013258777
0002a0 22 9c d7 bd 37 15 11 be 79 5f cb 3d 61 d0 d0 3d
       -0.10527827 -0.14168249 0.09930319 0.10195995
0002b0 cb 3a b2 3c e2 f5 68 bc 69 de 33 3c f9 a3 14 3d
       0.02175655 -0.014218779 0.01097832 0.03628919
0002c0 94 6e 70 3d bb 17 c7 3d cc c5 19 be a3 89 a0 bd
       0.058699206 0.09721323 -0.1501686 -0.07838752
0002d0 2b 51 18 3e 9c 83 0b 3e bf ad f2 3d 84 1a c8 3d
       0.14874713 0.13624424 0.11849546 0.097706825
0002e0 24 12 af 3d 1f 3b 38 be 6e 35 e1 3d f4 0f 3e be
       0.08548382 -0.17991303 0.10996519 -0.18560773
0002f0 02 a9 89 3c 3e 66 2d bd f1 9f 40 3e e5 86 21 3e
       0.016804222 -0.042333834 0.18811013 0.15774114
000300 56 19 3d 3e 31 cb 14 bb 9d 26 e7 3c c3 41 4b bc
       0.18466696 -0.002270412 0.028216654 -0.0124058155
000310 df 2f 33 3e 6f 3f 4b 3e 14 92 84 bd 9b 6f 63 3e
       0.1749873 0.19848417 -0.06473175 0.22210543
000320 be 07 28 3e bc cd 87 3d 0e f1 58 3e 9a 62 18 bd
       0.16409203 0.066310376 0.21185705 -0.03720341
000330 45 aa c3 3d ec 10 39 3e 65 40 4f 3a ec 60 35 bd
       0.09553961 0.18072861 0.0007906019 -0.044281885
000340 ce 12 dd bd b3 84 e4 3c 62 85 30 be 6a 35 6f bd
       -0.10794602 0.027895307 -0.17238382 -0.05840055
000350 ea 22 63 3d d2 7a b2 bc dd ae d0 bd 1e 5e 73 bd
       0.05545322 -0.02178708 -0.101896025 -0.05941593
000360 21 4d a0 bd b8 16 02 be e3 1b 9a bd d7 85 3a 3e
       -0.07827211 -0.12703979 -0.0752485 0.18215118
000370 f5 3b bd 3d ed 1e 95 3c 6d 79 b1 bd 23 01 94 3d
       0.092399515 0.018203223 -0.08665738 0.07226779
000380 94 4e 1a 3e 82 d9 12 3e 0c d1 e0 3c d8 52 20 be
       0.15069038 0.14340785 0.027443431 -0.15656602
000390 46 fb 30 be 71 7f 13 be 56 d5 2f be d7 38 f9 3b
       -0.17283353 -0.14404084 -0.17171225 0.007605653
0003a0 3c b5 a0 bc 5c bb 41 3e 74 d6 06 3d 5c e0 61 bd
       -0.01961767 0.18919128 0.032919362 -0.055145606
0003b0 f2 4f 9b 3d 58 d1 bb bc fc 16 9a bd 50 a9 07 bc
       0.07583608 -0.022926971 -0.07523915 -0.008280113
0003c0 2a f3 a2 bd cc 20 67 bd c6 8e 09 be 87 b3 23 3e
       -0.07956536 -0.056427762 -0.1343337 0.15986453
0003d0 5f b2 0f 3e 38 7a a1 bd f2 1b 3e be 7a 3d bd bd
       0.14032887 -0.078846395 -0.18565348 -0.09240241
0003e0 9b 3c 40 be 7d 3a 29 be e7 12 46 3e 5e 47 2e be
       -0.18773119 -0.16526218 0.19343148 -0.17019412
0003f0 00 00 1a bb 59 79 22 3e 00 82 d3 bc 13 b8 29 3e
       -0.0023498535 0.15866603 -0.025818825 0.16574125

network.0.bias f4 [256]
000000 60 b6 bf bd 8b 04 6c 3d fd 7b 2d be fd 08 96 3c
       -0.09360957 0.05762152 -0.16941829 0.018314833
000010 c5 3c 8d bd 13 67 7c 3d 04 d1 ce 3d 4a 11 96 3d
       -0.068963565 0.061621737 0.1009846 0.073275164
000020 fc 53 1d 3e 8d 25 26 be 10 60 03 3b 60 4c 49 3e
       0.15364069 -0.16225262 0.0020046271 0.19658041
000030 0c a0 b6 bd 3b 97 29 3e 03 ac 46 3e be 42 a6 3d
       -0.08917245 0.16561596 0.19401555 0.08118199
000040 c4 44 27 3e 8a cd 86 3d 48 19 f7 3d eb f4 09 be
       0.16334826 0.06582172 0.12065369 -0.13472335
000050 a7 3d 25 3c ca 17 fc 3c 6c af 2c 3e 0f 90 99 3d
       0.0100855 0.030773062 0.16863793 0.0749818
000060 28 e7 07 3e 4d db bf 3d 84 e6 df 3d 17 fe 3f 3e
       0.13271773 0.09368 0.10932639 0.18749271
000070 e7 02 ac 3d d2 4d cd bd 22 0e a6 bd c9 e7 18 3e
       0.08398991 -0.10024609 -0.08108164 0.14932169
000080 dc fa e2 bd 20 ed 1d bd d8 42 00 be e0 f3 de bb
       -0.11083004 -0.03855622 -0.12525499 -0.0068039745
000090 be b2 fe 3d 48 fb 06 bd 6a d1 95 bd e7 dc ff 3d
       0.12436436 -0.032954484 -0.07315333 0.12493306
0000a0 35 ac 2c 3e a9 67 33 be ca 5c 3c be 41 8c 4a 3e
       0.16862567 -0.17520012 -0.18394771 0.19780065
0000b0 64 6c 8e 3d 83 85 68 bd c1 f5 93 bc 48 7f 04 3e
       0.069542676 -0.05676795 -0.01806152 0.12939179
0000c0 2f c1 0b bd aa 7b 38 3d f2 21 0a 3e a4 60 a8 3c
       -0.03411978 0.04503981 0.13489512 0.020553894
0000d0 c6 e6 44 be 5c f8 0e 3e b1 06 c0 bd d3 e0 8d bd
       -0.19228658 0.13961929 -0.09376276 -0.069276474
0000e0 55 a0 33 bc 71 4e e4 bd 77 a8 48 be e8 cc cd bd
       -0.010963519 -0.11147774 -0.19595514 -0.100488484
0000f0 2d 09 35 3e 80 22 29 be 52 05 57 3e 2a 4e e8 bd
       0.17679282 -0.16517067 0.20998123 -0.113430336
000100 6e 16 0e be fd d7 87 bc 97 94 df 3b 4f 11 6e 3d
       -0.13875744 -0.016582483 0.006823133 0.058121976
000110 7e b5 d0 3d 0b 80 a9 bd 84 84 58 be dc 7f 95 bc
       0.10190867 -0.082763754 -0.211443 -0.018249445
000120 14 7b 25 bd 40 12 cc bd a9 90 df 3d 4c e4 ec 3c
       -0.04040058 -0.099644184 0.109162636 0.028917454
000130 da 7f 5e bd 7f 19 dd bd f8 7b 4b 3d f5 41 d0 3d
       -0.054321148 -0.107958786 0.049678773 0.1016883
000140 15 c9 c0 3d 88 60 21 be 51 fd df bd f2 b6 20 be
       0.09413353 -0.1575948 -0.10936988 -0.15694788
000150 26 e4 d3 3b 26 b2 fc 3b 38 94 69 bd 11 e3 ec bd
       0.0064664064 0.0077116666 -0.057026118 -0.11566747
000160 fa fd 3a 3e e7 76 87 3d ed 8c 53 3e 53 89 29 3d
       0.18260947 0.06614476 0.20659228 0.04139073
000170 34 36 ee 3d 41 71 4e 3e 96 b9 3b bd 5a 61 8d bd
       0.11631432 0.2016039 -0.045831285 -0.06903334
000180 ce bf 07 bb 2c af ce 3d 01 bf bb 3d 4c 4a 17 3e
       -0.002071369 0.10092005 0.091672905 0.14774436
000190 1d f9 08 be fd ae 96 3d 1c 5f 62 bd ca 78 3a 3e
       -0.13376279 0.07357595 -0.055266485 0.1821014
0001a0 2a 66 44 be f4 2c 4d be 75 b3 08 be a5 4a f0 3d
       -0.19179597 -0.2003668 -0.13349707 0.11732987
0001b0 29 74 09 3d 99 20 32 3e e8 bd 38 be e1 1f 5f bc
       0.033558045 0.17395248 -0.18041193 -0.01361844
0001c0 a1 57 e1 3b 00 1a db 3d ed 80 c1 bd 79 36 87 3d
       0.0068769013 0.106983185 -0.09448419 0.06602187
0001d0 92 34 9f 3d f3 35 82 3d 93 c6 2c be 2f a4 ee bd
       0.07773699 0.06357946 -0.16872625 -0.11652409
0001e0 69 ed 18 be be 17 ba 3d e7 a5 1c 3e 1b 31 02 be
       -0.14934315 0.0908656 0.15297662 -0.12714045
0001f0 6f 30 a1 3d 8a 92 f3 3c 46 62 01 3e 19 27 29 3e
       0.07870566 0.029732961 0.12635145 0.16518821
000200 17 96 f0 3d a2 b1 2a be 34 c1 04 bd 33 70 45 bd
       0.11747377 -0.16669324 -0.032410815 -0.048202705
000210 a4 91 08 3e 29 bc e7 bd 9a 5f 3e be ea 2b 29 be
       0.13336807 -0.113151856 -0.18591157 -0.16520658
000220 2f 8a e0 3d 7d 76 f7 3d d0 e1 13 3e 9b 21 a2 3d
       0.109638564 0.12083147 0.1444161 0.07916566
000230 9f 1b dd 3d 79 89 a4 3d 8d dc 1b be bb 9d a0 3c
       0.10796284 0.08034033 -0.15220852 0.019606462
000240 55 c1 46 be 21 6b 04 3e 6b ff f1 bd d1 34 fa bd
       -0.19409688 0.12931491 -0.11816295 -0.12217105
000250 73 ca 55 3d a6 f7 05 be 3b ce 9f 3d 9d b4 10 bd
       0.052195024 -0.13082752 0.07803007 -0.035328496
000260 b0 80 26 be 60 db 01 bc d0 39 00 3c e9 4a dd bc
       -0.16260028 -0.007925838 0.007826284 -0.027013259
000270 dc fa 75 3d 71 25 5b 3d b6 4e 04 3e e4 9d 0c 3d
       0.06005369 0.053502504 0.12920651 0.034330264
000280 84 21 80 3d 50 b1 0c be e1 e1 1a bd e4 28 f6 bd
       0.062563926 -0.13739514 -0.03781307 -0.12019518
000290 f5 cc 86 bd bc 6d cb bd 21 51 e0 3c 6f ff 1a 3d
       -0.06582061 -0.099330395 0.027382435 0.037841257
0002a0 79 49 06 bc 3d 28 18 3e c3 8d 4c 3e 7b 7e f1 3d
       -0.008196228 0.148591 0.19975953 0.11791702
0002b0 93 54 8d bd 3a 18 14 3e 2e 93 12 bd 79 6a a5 bd
       -0.06900897 0.14462367 -0.035784893 -0.08076949
0002c0 24 21 1f 3e f5 60 d1 3b 1b 8b 7d bd 81 22 29 be
       0.15539986 0.006389732 -0.06190024 -0.16517068
0002d0 86 1d 32 3e a6 6b 17 3e 06 d0 5a bd f5 57 6d bd
       0.17394075 0.14787158 -0.053421043 -0.05794521
0002e0 42 60 37 3e 8f 8b 19 3d de f7 49 3e 29 ec 3a be
       0.17907813 0.03748661 0.1972346 -0.1825415
0002f0 85 3a c8 bd 6a 58 15 3e 9e d1 c9 bd 1a b8 d1 bd
       -0.09776787 0.14584509 -0.098544344 -0.10240193
000300 43 1d 6b bd 66 cd 44 3e fb 53 de 3d 52 a2 b1 3d
       -0.057400953 0.19218978 0.10855862 0.08673538
000310 83 03 4b bd 02 19 f5 3c b9 d3 d6 bd 50 b1 8d 3d
       -0.049563896 0.029919151 -0.10489602 0.06918585
000320 a0 c9 04 3e 87 76 2f be b4 9a dd bd 47 54 e9 bd
       0.12967539 -0.17135058 -0.10820523 -0.11393028
000330 9c 53 75 3d 19 fe 46 be 53 45 5e 3d 52 2b 31 3e
       0.05989419 -0.19432868 0.05426533 0.17301682
000340 3f 21 51 3e 16 41 0d 3e a0 5b 35 3e fb c6 37 be
       0.20422839 0.1379436 0.17710733 -0.17946999
000350 b6 24 0e 3d 68 98 25 3e 5f 2f 36 be 3e 6f 8a 3d
       0.03470298 0.1617142 -0.17791508 0.06759499
000360 66 a5 88 bc 22 f4 2e 3d e7 f3 da bd 59 67 22 3e
       -0.01668043 0.042713292 -0.10691052 0.15859737
000370 7b 1e 1f be 7a 23 0c be 14 61 e5 bd 7c c1 44 3e
       -0.15538971 -0.13685408 -0.11200157 0.19214433
000380 c7 b0 73 bd 0c a7 cb bd 8e 0a db bd 6a c4 6c bb
       -0.05949476 -0.09943971 -0.106953725 -0.0036127814
000390 e9 6a 54 3e 65 c3 80 38 f2 1f d1 3d c2 6c 02 be
       0.20743908 6.139911e-05 0.10211171 -0.127368
0003a0 44 b1 3e bd 48 9e be 3d 8d f7 18 bc 29 e7 ea 3d
       -0.046555772 0.093075335 -0.009336364 0.114698716
0003b0 5e c7 86 3c eb 94 22 3e 58 7b 5e bd 84 32 37 be
       0.016452488 0.1587712 -0.05431685 -0.17890364
0003c0 a1 29 0f 3e 6e 21 12 3e 73 ef 9f bd a1 20 3d bb
       0.13980724 0.14270565 -0.07809343 -0.002885856
0003d0 f3 92 d6 bd d6 e8 28 3d 6c d2 08 be 2d de 14 3d
       -0.10477247 0.041237675 -0.1336152 0.036344696
0003e0 bb ca 07 be 51 1a 77 3d 32 0d 02 3e e5 2e cc bd
       -0.1326093 0.06032783 0.12700346 -0.09969882
0003f0 60 06 4a bd 21 31 31 bd 52 ca b9 bd b8 66 93 3c
       -0.049322486 -0.043259744 -0.09071793 0.017993316

network.2.weight f4 [256, 256]
000000 1a fb f4 bb 07 42 50 3d da ce 46 3c cb 07 63 3d
       -0.0074762227 0.05084422 0.012134278 0.055427354
000010 7f 5b f4 bb 6b 5d fd bc 16 ac 16 3c 94 f0 e1 bc
       -0.0074571962 -0.030928334 0.009196302 -0.027580537
000020 4f 40 a5 3d f8 e6 ac 3c b4 d1 c4 bc 90 03 0c bd
       0.080689065 0.021106228 -0.024025775 -0.034183085
000030 1c 7c d9 3b 5f 13 c5 3c 99 96 2b 3d b1 41 18 3d
       0.0066371094 0.024057088 0.041891668 0.037172023
000040 6e 4b 35 bd 40 09 02 bd fe ee 50 bc 20 21 ce 3b
       -0.04426139 -0.031747103 -0.012752293 0.00629057
000050 3d 98 a9 3d a7 a4 af 3c e7 f5 bb 3c bc b3 d1 bc
       0.0828099 0.021440817 0.022944404 -0.0255984
000060 94 e0 9a 3c 53 a2 9b 3d eb 9a 1a bd 19 60 58 3c
       0.018905915 0.0759932 -0.037745398 0.013206505
000070 b4 62 51 bc ec d6 35 bb 78 87 84 3d a1 0e 79 3d
       -0.01277988 -0.0027746512 0.06471151 0.060804967
000080 f7 6a a3 3d 88 46 b2 3c a9 31 14 bd 90 f9 f1 bc
       0.07979386 0.021762148 -0.036180172 -0.029537946
000090 b7 b1 95 3d a6 8f 0d bc 78 6d b4 3c 6a 4e 0a bd
       0.07309287 -0.0086402055 0.022024855 -0.033766188
0000a0 73 8f fd ba 37 df da 3c c7 34 27 3d 56 5b 26 3d
       -0.0019345119 0.026717765 0.040821817 0.04061445
0000b0 02 85 21 3d 0c b6 74 bc 70 58 3d 3d 9f 59 8d bc
       0.039433487 -0.0149359815 0.04622692 -0.017254649
0000c0 63 55 d1 3c 72 d5 55 3d af 35 12 bb a9 27 77 3d
       0.02555341 0.05220551 -0.002230983 0.060340557
0000d0 ea 50 67 3d 01 48 18 3d e4 60 47 bd 5b 91 42 bd
       0.05647365 0.037178043 -0.048676386 -0.047501903
0000e0 97 6f 1c 3b 61 25 1b bd 90 47 83 bb e0 b9 06 bc
       0.0023870224 -0.037877444 -0.0040063336 -0.008223027
0000f0 46 ed 00 bd 4a a6 20 bc 19 84 cc bc 5e a7 8b 3c
       -0.03147628 -0.009805271 -0.024965333 0.01704758
000100 c5 74 2d 3c 10 ff 51 3d b5 be 33 3d ed 37 3b 3d
       0.010586922 0.051268637 0.043883044 0.04570763
000110 21 c0 22 3d de af 3e bd 2c fd 5f 3c 49 8f cf bc
       0.03973401 -0.04655444 0.013671201 -0.025336878
000120 58 fc 33 bd b0 9c 80 3c 8e a0 58 bb 23 d9 9f 3c
       -0.043941826 0.015699714 -0.0033054682 0.019512719
000130 91 66 83 3d c5 23 c6 bc 02 e1 8b bc e0 f2 58 3d
       0.06416047 -0.024186978 -0.017075066 0.052966
000140 be ba 43 3d 42 3d 6d 3d 4a 4e 5b 3d 21 a7 22 3d
       0.047785513 0.057919748 0.05354146 0.039710168
000150 ae d3 22 bd 1a 7a 1c 3c bc 53 bd 3c db ce 31 bd
       -0.039752655 0.009550596 0.023111217 -0.043410163
000160 ce 53 29 3d d4 c1 be 3b 55 5a 38 3d 75 c3 62 3d
       0.041339688 0.005821446 0.045008022 0.055362184
000170 06 de 5e bc 87 b2 d3 3b 28 9e 93 3d 20 1e cf bb
       -0.013602739 0.006460491 0.072079 -0.00632073
000180 3b 09 2a 3d 89 19 4d 3d 1f 8b b0 3d f4 c4 bf bc
       0.04151271 0.05007318 0.08620285 -0.023409344
000190 83 20 27 3d bc 82 fe 3c 00 10 1a bb dd 71 4d 3c
       0.04080249 0.031068198 -0.0023508072 0.012539354
0001a0 a2 68 22 bc 64 ea 47 bd c2 c2 1b 3c dc a5 f2 3c
       -0.009912642 -0.048807517 0.009506883 0.029620104
0001b0 39 61 c5 3c 43 ad ba 3c 00 5b 8b bc 1a 24 c9 bb
       0.024094211 0.022787696 -0.017011166 -0.006138337
0001c0 44 bd 63 bc 29 ad 25 3c e0 b1 50 bd 40 31 46 bc
       -0.013900105 0.010112085 -0.050950885 -0.012096703
0001d0 c4 8b 8e bc b4 89 9f 3c 0b 84 98 3d 06 38 83 3c
       -0.01740063 0.019474842 0.0744706 0.016017925
0001e0 77 d8 a7 bc b0 41 f1 3b 8c ce c0 bc 10 c4 38 bd
       -0.02048896 0.007362567 -0.02353599 -0.045108855
0001f0 72 ee b1 bc 65 a2 65 3d d6 e5 69 3d 16 da db bc
       -0.021720145 0.056063075 0.057103954 -0.02683739
000200 16 45 b0 bc c9 e1 b5 bc 98 5f 1a bd ce 48 6b 3c
       -0.021517318 -0.02220239 -0.03768882 0.01436062
000210 79 93 16 3d 78 7e 4a bd fa b7 de bc 48 2f 41 3d
       0.036761735 -0.049437016 -0.027187336 0.04716423
000220 04 62 61 3d 76 0b 36 3c 6d 34 34 bb 7d 45 d1 3b
       0.055025116 0.011111131 -0.0027497069 0.0063864575
000230 7f 3e 3d 3d fb f3 9d bc 5e b3 27 bd e2 44 11 3d
       0.04620218 -0.019281378 -0.040942542 0.035466082
000240 48 24 b4 3c e4 77 62 3d 20 b0 59 bd 7d 63 bc 3c
       0.021989956 0.055290118 -0.05314648 0.022996658
000250 b8 f8 c1 3c d6 24 86 bc 14 1b 04 3c a8 b0 22 bd
       0.023678169 -0.016374987 0.008063097 -0.039719254
000260 56 c1 46 bd 60 8e 05 3d 50 5d 5d 3d a2 da f5 3c
       -0.048524223 0.032606483 0.054044068 0.030011479
000270 02 84 62 bd 90 80 4d bd 9d f7 7e 3d 0f 9d c9 bb
       -0.055301674 -0.050171435 0.06224786 -0.006152756
000280 9a 36 99 bc ee 00 c2 bc 62 82 b7 3c 19 8f 28 bd
       -0.018702794 -0.023682084 0.022401039 -0.041152094
000290 d6 79 2a bd 2a e9 b0 ba b6 a4 51 bd a1 fc 11 3d
       -0.041620098 -0.0013497223 -0.05118247 0.035641316
0002a0 e5 34 d4 bc 57 24 e3 bc 74 14 41 3c 1b cc f7 3c
       -0.025904128 -0.02772729 0.011784662 0.030248692
0002b0 b2 0d 02 3d 40 37 7f 3d 60 46 26 3d 0f c6 4c 3d
       0.031751342 0.06230855 0.04059446 0.04999357
0002c0 6f 93 9a bb d1 86 db 3b 98 bb 1c 3d 20 b1 07 3c
       -0.0047172825 0.006699421 0.03826484 0.008281976
0002d0 f9 c3 80 3d 82 30 73 bb 59 66 a1 3d a9 54 43 bd
       0.06287379 -0.003710777 0.078808494 -0.04768816
0002e0 54 cf 27 bd 28 92 ed 3b 25 26 0d 3d 64 d3 c3 bc
       -0.040969208 0.007250089 0.034460206 -0.02390451
0002f0 45 2d be 3b c7 71 63 3c d1 54 23 bd ae 7b a9 3d
       0.0058037364 0.013882107 -0.03987581 0.08275543
000300 33 2e d7 3c 26 8e 70 3d 89 52 91 ba 86 bb bb 3c
       0.026267147 0.058729313 -0.001108722 0.022916567
000310 19 f5 3b 3d bd fe b6 bc ef 2f 06 bc f9 c5 81 3d
       0.04588804 -0.022338266 -0.008190139 0.063365884
000320 28 25 1b bd 7c 6f 13 ba af 3e ba bc 67 6b 2b 3d
       -0.03787723 -0.00056242174 -0.022734968 0.041850474
000330 cf 26 17 3c 40 da b2 ba 80 13 90 3d 1d e0 df 3b
       0.009225561 -0.0013645366 0.07034969 0.0068321363
000340 94 ad 64 3c 61 28 04 3d 06 ff 26 bd b5 0d 0d bd
       0.0139574 0.03226507 -0.040770553 -0.0344369
000350 93 1f c9 3c 27 74 6d 3d 13 2c ca 3c 4c 2c 62 bd
       0.024551189 0.0579721 0.02467922 -0.055218026
000360 12 97 ab bc 40 9b 94 3d 70 54 e2 3b 8e 59 07 bd
       -0.02094606 0.07256174 0.0069070384 -0.03304439
000370 f7 b1 0f 3d 27 a1 d8 3c 2b b9 92 bc 7f c2 e8 bc
       0.03508183 0.02644403 -0.01791056 -0.028413055
000380 44 c3 0d 3d 8e 3f 7b 3d 5c ba 0f 3d 7a e5 d0 3c
       0.034610048 0.061339907 0.035089836 0.025500048
000390 63 58 18 bd 0d 4d 78 bc b9 f3 ab 3d e8 e4 41 3c
       -0.037193667 -0.015155089 0.08396096 0.011834361
0003a0 a6 2b ca ba 5e 65 22 3d 36 e2 38 bc 90 0f 46 3d
       -0.0015424385 0.039647453 -0.011284402 0.048354685
0003b0 58 99 24 3d 4e dc 86 3d 08 d3 d2 bc d5 fc 1d bb
       0.040185302 0.065849885 -0.025735393 -0.0024106998
0003c0 72 ba b9 bc ea 29 5c 3c 44 11 fb 3c d4 a0 26 3d
       -0.022671912 0.0134377275 0.030647881 0.04068072
0003d0 e0 23 07 bd be 66 83 3d e7 58 a5 bc 17 25 65 bd
       -0.032993197 0.06416081 -0.020183994 -0.055943575
0003e0 16 7d 03 bd 8f 1a 5a 3d c3 28 87 3c e6 8b af bc
       -0.032101713 0.053247984 0.016498929 -0.021429013
0003f0 69 7f 57 3d 42 47 ef bc 7a 82 3c 3d fc be 80 3c
       0.052611742 -0.029208783 0.04602287 0.015716068

network.2.bias f4 [256]
000000 2f 71 a1 3d 35 cf 5d 3d 98 20 95 bc ca 47 85 bd
       0.07882916 0.054152686 -0.018204018 -0.06507833
000010 78 79 03 bc 96 f4 35 3c 60 a1 53 bc 77 d6 35 3d
       -0.008024566 0.011105677 -0.012916893 0.044393983
000020 6b 05 11 ba 69 94 03 3d c8 7a 3b bc 44 25 f2 bc
       -0.00055321184 0.032123957 -0.011442848 -0.029558785
000030 85 07 60 3d 17 b9 85 bd 36 8a 97 bc 1b e0 9d bc
       0.05469467 -0.06529444 -0.018498521 -0.0192719
000040 14 17 ce 3a ed d8 2b bd 2d c8 7c 3c f1 28 87 bd
       0.001572343 -0.041954923 0.015428585 -0.06599606
000050 79 74 e8 bc a7 03 8b 3c ae 73 ce 3c 44 1a 0a bd
       -0.028375851 0.016969515 0.025201645 -0.033716455
000060 51 7f b7 bc c8 69 83 3d 9a 94 11 3d c5 e6 92 3d
       -0.022399576 0.064166605 0.035542108 0.07172922
000070 42 86 26 3d 16 ed 74 bd de 4a 96 bb 3b 45 95 3c
       0.040655382 -0.059796415 -0.0045865616 0.018221488
000080 08 7d 05 3b 86 9c a8 bc 58 4a d5 bc da 1a 21 bc
       0.0020368714 -0.020582449 -0.026036426 -0.009833062
000090 b6 6c f3 bc bc 1f 92 bc 9e da 04 3d e9 9c 8b 3c
       -0.029714923 -0.017837398 0.032435052 0.017042594
0000a0 ab a6 ce bc 94 65 83 bc 78 4e 0c 3d cb 97 a5 3d
       -0.025225958 -0.016039647 0.03425452 0.08085593
0000b0 47 1b 67 3d 64 ec 34 3c 01 2b bb 3c 10 83 16 3d
       0.056422498 0.011042688 0.022847654 0.036746085
0000c0 6a e5 0e 3d 08 81 e5 3c f4 56 9a 3c 26 d4 c0 3c
       0.034886755 0.028015628 0.01884029 0.02353866
0000d0 c4 04 6e bd 21 f5 bd 3b 53 af 41 bd f2 20 bb bc
       -0.058110014 0.005797044 -0.047286343 -0.022842858
0000e0 f7 30 3d bc 66 78 60 bc a9 b3 53 3d 8c 0f d2 bc
       -0.011547319 -0.01370058 0.05168501 -0.025642179
0000f0 7b 0c 95 3d 77 91 0e bc b8 28 9e 3c f3 81 18 3d
       0.07277771 -0.008701674 0.019306526 0.037233304
000100 6e 85 30 3d ea 36 37 bd ae e9 4c bd dc fb 6b bd
       0.043096 -0.044730105 -0.05002754 -0.05761324
000110 4c b7 10 bd a3 17 41 3c 26 84 83 bc 69 2f 01 bd
       -0.035331056 0.011785421 -0.016054224 -0.031539354
000120 7b 18 ad 3d f8 6b de bc 8d 82 0b 3d 8c 2d 0c bd
       0.08451935 -0.027151093 0.03406005 -0.034223124
000130 7a 88 5f bc 57 7d b4 bc c3 ab 71 bd a4 73 ed bc
       -0.013643378 -0.022032423 -0.059001695 -0.028985806
000140 8b bf 29 bd 94 26 a2 bb fe 67 95 bc 78 fd cd 3c
       -0.041442435 -0.0049484465 -0.018238064 0.025145277
000150 68 c2 05 3c 76 33 35 bd 90 ef 98 3d db 96 49 bd
       0.008164026 -0.04423853 0.07467568 -0.049216133
000160 d9 92 90 3c 78 17 81 3d aa 19 71 3d d6 bf 3d 3d
       0.017648147 0.063033044 0.058862366 0.046325527
000170 ec 48 de 3c 1f c7 7e bb 41 15 29 3d 11 d9 4e bd
       0.027134381 -0.003887601 0.041280035 -0.05049998
000180 c3 c3 7e 3c 09 94 0d bd 8d ef ef bc 16 9b 57 bd
       0.015549603 -0.034565005 -0.029289031 -0.052638136
000190 ae 6b 23 bd 19 19 4f bd c8 c7 bd 3b a5 62 b7 3b
       -0.039897613 -0.050561044 0.005791638 0.005596476
0001a0 d6 d1 60 3b c3 04 41 3d c1 1b f0 bc 63 0b 86 bd
       0.003430476 0.04712368 -0.02931011 -0.065451406
0001b0 bb 22 f0 3c 64 f4 fd bb 20 65 9d 3d 4f d5 62 bc
       0.029313436 -0.007750081 0.07685304 -0.013844802
0001c0 f0 05 5b bd 35 60 94 3d 05 de a2 3c 74 6b 6b bd
       -0.05347246 0.072449125 0.019881258 -0.057475522
0001d0 94 41 2e bd 28 fe 88 3d f3 cf 1b bd 6b 2a e5 3c
       -0.04254301 0.066891015 -0.038040113 0.027974328
0001e0 46 3e 0a 3d 8e 52 d5 bc 8a 78 39 3d 0a 70 40 bd
       0.033750795 -0.026040342 0.04528097 -0.04698185
0001f0 40 13 f0 b8 50 e7 9c bc 95 c2 92 3c c1 27 83 3d
       -0.000114476774 -0.019153267 0.01791505 0.06404067
000200 42 bd 7d 3d c0 27 19 bd dc b8 7a 3d 18 d6 0e 3d
       0.06194807 -0.037391424 0.061211452 0.034872144
000210 9a 7e 58 bd 67 61 00 bd aa 06 f3 bc 90 4a 8c 3c
       -0.05285511 -0.03134289 -0.029666264 0.017125398
000220 23 d7 7c bd e2 b1 27 3c 70 08 17 bd 87 e4 e9 bc
       -0.061728608 0.010235282 -0.03687328 -0.028551353
000230 db b0 47 3d 78 15 1a bd 94 5f 02 3d 38 71 1a bd
       0.048752647 -0.03761813 0.03182943 -0.03770563
000240 34 a0 62 3d c9 d8 fe 3c 82 b4 d4 3c 16 d4 39 bd
       0.055328563 0.03110923 0.02596498 -0.045368277
000250 c8 bd 52 bd 93 33 0b bd 80 bd 08 bc c0 5e 1a 3b
       -0.05145052 -0.033984732 -0.008345962 0.002355501
000260 47 a5 f2 3c 8e a1 01 3d 3d 4a bb bc bf ae 50 3c
       0.029619826 0.03164821 -0.022862548 0.012736975
000270 fd f1 8a 3d 6d 30 1d bd 28 e6 c4 3c d7 35 03 bc
       0.06784437 -0.03837626 0.024035528 -0.008008442
000280 5a 17 53 3d b0 45 93 3b 9e cf db bc b4 df 14 bd
       0.05153594 0.0044943914 -0.026832398 -0.036346152
000290 87 bf 5b 3d 5a 09 6c bd a0 c1 0f bc 23 de 26 bd
       0.05364945 -0.057626106 -0.008774191 -0.04073919
0002a0 72 35 27 3d f1 fe 34 3d 38 94 50 bc 30 17 66 3d
       0.040822454 0.044188444 -0.012730651 0.056174457
0002b0 6e ce 88 bd cc 17 f2 3c 91 95 2c 3d 50 1d 0a bd
       -0.06679998 0.029552363 0.042134825 -0.03371936
0002c0 4b 84 3c bc 45 f9 81 3c 91 be 9d 3c b0 c8 50 bc
       -0.0115061505 0.015865931 0.019255908 -0.01274316
0002d0 a9 70 d7 bb f7 c3 5e 3d 57 c9 73 bd af b5 63 3d
       -0.0065747094 0.054386105 -0.059518185 0.05559319
0002e0 5d fb a3 3d 59 b3 6e bc c4 59 78 bd b8 19 d6 3c
       0.08006928 -0.014569127 -0.060632482 0.02613531
0002f0 ab f9 e0 3c 0e 29 e5 bc 1d cc b6 3c 4a 52 b9 39
       0.027462801 -0.027973678 0.022314126 0.0003534726
000300 14 2b c1 3c bc 1d c9 3c fa b7 7f bd d0 18 0d 3d
       0.023580112 0.024550311 -0.062431313 0.03444749
000310 f6 60 45 bd d9 df e8 3c b0 39 6b bc 82 68 57 bc
       -0.048188172 0.028427051 -0.0143570155 -0.013147475
000320 da e8 4c 3d 30 6b 32 3c ac 28 fd 3c 4c cb c4 3b
       0.050026752 0.010889813 0.030903183 0.00600568
000330 16 ca 8c bb e3 c9 2b bb dd 70 3d 3d 97 fe aa bc
       -0.0042965515 -0.0026212863 0.046250213 -0.020873351
000340 e7 b0 ab bc 30 95 46 3d 04 e5 e6 3c 2e 13 fe bc
       -0.020958377 0.04848212 0.028185375 -0.031015005
000350 38 ff 56 bb 69 0b 39 3d ec 95 62 3d fb 52 3b 3d
       -0.003280593 0.045176897 0.055318758 0.045733433
000360 be 74 0b 3d 58 2c c7 bc 57 60 36 3d 34 0a 56 bc
       0.03404688 -0.024313137 0.04452547 -0.013063956
000370 84 a1 38 3d 5a 44 17 bd 4a 5c 17 3d 48 81 40 bd
       0.04507591 -0.03693042 0.036953248 -0.046998292
000380 e1 b3 0f 3b 50 dd 33 3c 78 2c 6f bd 17 81 63 bd
       0.0021927285 0.010978058 -0.058392018 -0.05554303
000390 d5 06 1c bd 7b 27 bb bc 20 c3 df 3b 0b 11 63 3d
       -0.038092453 -0.022845974 0.0068286806 0.055436175
0003a0 e2 3d 61 bd 70 06 b9 bb 39 d8 b9 bb e9 00 49 3a
       -0.054990657 -0.0056465194 -0.0056715277 0.0007667677
0003b0 47 32 1a bd 40 b8 6b bb a4 c1 a7 bc 33 84 39 bd
       -0.037645604 -0.0035967976 -0.020478077 -0.04529209
0003c0 f2 ca 77 bd d9 a6 d4 bc ac e4 48 3d 6d d3 1a 3d
       -0.060496278 -0.025958465 0.049046203 0.037799288
0003d0 34 ba 55 bd eb 24 38 3d a9 92 85 bc 5d 1b 88 3d
       -0.05217953 0.044957083 -0.016305285 0.06645844
0003e0 18 13 69 bd 02 c1 16 3d 34 83 5d 3c a6 03 28 3d
       -0.056902975 0.03680516 0.013520051 0.041019104
0003f0 f9 f0 42 3d cb d3 12 3b e0 e3 a6 3b b4 dc 42 bb
       0.04759309 0.002240407 0.005093083 -0.00297336

network.4.weight f4 [8, 256]
000000 b6 f8 17 bc a1 0c b6 3b 62 d8 fd 3c 81 32 99 3c
       -0.009275606 0.0055557047 0.030986968 0.01870084
000010 18 5f 42 bd c6 b9 4f 3d c0 17 24 3c 15 7e 19 bc
       -0.04745397 0.050714277 0.010015428 -0.009368439
000020 6b 66 61 3c 4f de 11 bd ce b5 50 3d 30 4b dc 3c
       0.0137573285 -0.0356124 0.050954632 0.026891321
000030 de 6c 81 3c 26 6a 55 3d 5b 05 19 3d 9b b1 8d bd
       0.015798982 0.052103184 0.037358623 -0.06918641
000040 48 a2 30 3c eb 51 26 3c 71 a8 d5 bc 19 e8 cc 3c
       0.010780878 0.010151367 -0.026081296 0.025013017
000050 43 8a d3 3c 33 ab 67 bb 3d 69 5f 3d 20 c3 24 3d
       0.025822764 -0.0035349845 0.054543722 0.04022515
000060 ab 3d 51 bd 79 ff 16 bd 90 15 96 3b 22 b7 3c 3d
       -0.0510842 -0.03686473 0.004580207 0.046073087
000070 c5 be 49 bd 92 fd 41 bd 3e ab e9 bb 18 f9 d6 3c
       -0.049254198 -0.047360964 -0.0071310094 0.026241824
000080 d3 2c d3 bc 9e 7e f3 bc 7a 34 4c 3d 66 d5 3b 3c
       -0.02577821 -0.029723462 0.049854733 0.011464452
000090 48 d6 f5 bc 6e 56 1c bd d8 68 89 3c 0b 80 c2 bb
       -0.030009404 -0.038168363 0.016773626 -0.005935674
0000a0 75 d8 48 bd e5 0f 3a 3d c1 4a 62 3d fc 32 06 bc
       -0.049034555 0.045425314 0.055247072 -0.008190867
0000b0 b6 2e 4a 3d be 9a d4 3a f1 28 f1 bc 30 3e 61 bc
       0.049360953 0.0016220433 -0.029438468 -0.013747737
0000c0 4e e9 d9 bc 37 70 c0 bb 10 31 ff bc e6 5b 0c bd
       -0.026600506 -0.005872752 -0.031151325 -0.03426733
0000d0 0e bd 21 3d 0b 08 c3 3c df 46 52 3d c0 11 16 bd
       0.039486937 0.023807546 0.05133712 -0.03663802
0000e0 96 a4 32 3d 24 c7 4b 3d 43 95 16 bd f3 9e 40 bd
       0.043613993 0.049750462 -0.03676344 -0.047026586
0000f0 aa d1 12 3d 41 12 e3 3c 15 37 5d bd 47 9e e2 3b
       0.035844482 0.027718665 -0.05400761 0.006915841
000100 a0 49 98 bc aa 91 52 3d 82 cc d4 3c 79 8b 52 bd
       -0.018589795 0.051408447 0.025976423 -0.051402543
000110 d5 cc cd 3c 2c 7f 81 bd aa 23 d8 3c d9 df fe bc
       0.025122086 -0.06323084 0.026384193 -0.031112598
000120 70 0f 67 bd cd 50 e8 3c 53 00 d7 bb ee c5 bf 3c
       -0.056411207 0.028358841 -0.006561318 0.02340981
000130 1d 59 ca 3c 43 b4 97 3c ac ae 0d 3d 40 97 e5 ba
       0.024700696 0.018518573 0.03459041 -0.001751639
000140 a6 2b fd 3b 58 c3 04 3b e3 04 58 3c a3 cd cc 3c
       0.0077261506 0.0020258036 0.013184759 0.025000399
000150 80 58 cb bb c0 e4 f6 bb 4c 56 58 bd 4e e0 57 3c
       -0.0062056184 -0.0075345933 -0.052816674 0.013176037
000160 c3 92 27 bd c6 37 1b 3d 10 2d c6 3c 84 39 12 bc
       -0.040911447 0.037894987 0.02419141 -0.008924846
000170 65 6b 83 3c 05 72 57 3d 80 94 68 3c e9 2f 58 bd
       0.01604242 0.052598972 0.014195561 -0.052780066
000180 ee e5 2e bd 2a 1f 3c 3d ce 10 41 bd 59 a3 a2 3c
       -0.042699747 0.045928158 -0.047135167 0.01985328
000190 e8 7a ca 3c ab 61 d7 bc 7f 8b 80 bd 31 41 0a 3d
       0.02471681 -0.026291689 -0.06276607 0.033753578
0001a0 ba b0 67 bc 59 54 8a bd 7e db 1b bd 12 ed 2c 3d
       -0.014141256 -0.06754369 -0.03805112 0.042218275
0001b0 04 c3 57 bd 3b 8f 9e 3c f0 c1 75 3c be 85 42 bc
       -0.052676216 0.019355407 0.014999852 -0.011872707
0001c0 03 23 5e bd 20 01 ad bc a7 fa 26 3d 0a 57 54 bd
       -0.05423261 -0.0211187 0.040766384 -0.05184082
0001d0 2c 0f d3 3c 40 da 9d bc 4e 63 0a 3d 89 44 2c bd
       0.02576407 -0.019269109 0.03378611 -0.042057548
0001e0 34 49 30 3d 7d e7 66 bd ff 68 2f 3d 4a 65 18 bd
       0.043038562 -0.05637311 0.04282474 -0.03720597
0001f0 60 23 c4 3b 8f 55 6a 3c d4 2d 29 3d c8 43 51 3d
       0.0059856623 0.014302625 0.04130347 0.05109003
000200 ab 7c 0c 3a 8c 35 f3 bc bf 09 5c bd 6a ca c2 bc
       0.0005359153 -0.02968862 -0.053720232 -0.02377816
000210 b4 5e d6 bc a8 df 84 3c b2 9c ec bc 03 eb e1 3c
       -0.026168205 0.016219929 -0.028883312 0.027577883
000220 d6 5b 80 bb 6d a3 6b 3d 13 aa be 3c 21 6f 92 3b
       -0.0039171977 0.0575289 0.023274457 0.004468814
000230 8f 44 21 3c 1e 48 59 bd af 51 e8 bc c0 ed 87 3c
       0.009843006 -0.053047292 -0.028359262 0.01659286
000240 bc 41 bf bb 15 21 2d bc 09 09 05 3d ab 99 28 3c
       -0.0058366936 -0.010566969 0.03247932 0.010290544
000250 b7 e2 8c 3c cc be 4b bd 29 bc 24 3a 2c de 08 3d
       0.01719795 -0.049742505 0.00062841416 0.033415005
000260 51 f5 cc 3c d9 67 e0 3c 0e 59 fe bc 80 48 74 bd
       0.02501932 0.027393268 -0.031048324 -0.059639454
000270 51 58 0d 3d e8 44 1f 3c 14 30 62 bd f0 86 84 3c
       0.034508053 0.009721018 -0.055221632 0.016177624
000280 58 c8 58 3d 88 e7 f9 bc c8 16 21 bc f4 ef 31 3c
       0.052925438 -0.03050591 -0.009832092 0.010860432
000290 ee b2 5a 3c a4 ef 8c 3c 08 75 42 bc b9 70 0f bd
       0.013348324 0.017204113 -0.011868723 -0.03501961
0002a0 8e c6 66 bd 13 7e 87 3c c6 6c 24 3d 70 88 ee bb
       -0.0563417 0.016539609 0.040142797 -0.007279448
0002b0 74 4c 18 3d e4 cf a5 3c 26 3d 05 bb 94 04 60 bd
       0.037182286 0.020240732 -0.0020330637 -0.054691866
0002c0 3a a1 82 3b 62 a1 46 bc 26 57 a8 bc 06 ee 16 3d
       0.003986505 -0.012123438 -0.020549368 0.03684809
0002d0 5c 43 cf bc d5 34 96 3c 29 72 53 bd 20 9d e4 39
       -0.025300674 0.01833574 -0.051622543 0.00043604616
0002e0 3a e9 03 3d 77 22 bd 3c 6e 6c 76 3d 34 5e 63 bd
       0.032204844 0.023087723 0.060162 -0.05550976
0002f0 3e 7a b2 3c a4 66 68 bd 4a ae a0 3c 1d e8 a5 3c
       0.021786805 -0.05673851 0.019614358 0.020252282
000300 9a 91 7a 3d a6 c6 4b 3d a0 7c a3 bc 48 e2 56 bc
       0.061174013 0.049749993 -0.019956887 -0.013115473
000310 9c bb 2a 3d f3 20 f2 bc 70 35 90 3c 29 c0 e5 bc
       0.041682824 -0.029556727 0.017603606 -0.02804573
000320 57 cb e0 3c c0 68 98 bc 7c bd 26 bd 3d 88 67 bd
       0.02744071 -0.018604636 -0.04070805 -0.05652641
000330 f0 a6 13 3c de 7c 43 3d c7 ea 1f 3d 1b a0 1f 3d
       0.009011969 0.047726505 0.03904226 0.038971048
000340 06 df 36 3c 43 f1 ba 3c 2f fd 17 3d a4 27 bd bc
       0.011161571 0.02282012 0.03710669 -0.023090191
000350 64 89 35 3b c3 71 4c 3d d1 7c f3 3c 37 3f 0f 3d
       0.00277003 0.04991318 0.029722603 0.034972396
000360 66 76 3b bd ae 2c 59 3d 0d 9d 4b 3d ba ff 0d bd
       -0.04576721 0.053021125 0.049710322 -0.034667708
000370 6f d0 63 3d 8c 10 00 3d 5c 99 9e 3c 65 94 eb ba
       0.0556187 0.03126578 0.019360237 -0.0017973302
000380 da cf 08 bb b8 cd b4 bc 96 68 fa 3c 3f 78 d0 bc
       -0.0020875842 -0.02207075 0.030567449 -0.025447963
000390 fb d4 1f 3d 33 ba aa b9 e4 13 3b 3d 34 ab 4f 3d
       0.039021473 -0.00032563656 0.045673266 0.05070038
0003a0 b2 f1 06 bd 20 40 39 3d 96 1b 45 bd ca 30 ef bc
       -0.032945342 0.04522717 -0.04812201 -0.02919807
0003b0 94 b2 21 3d 1c b0 0d 3d c0 4a 24 3d 11 ed 17 bc
       0.039476946 0.03459178 0.04011035 -0.00927283
0003c0 07 8a 91 bc 8e 01 00 3c 68 4e 20 bd c2 c6 4b bd
       -0.017766012 0.007812871 -0.039137274 -0.049750097
0003d0 3e 51 6d 3d f9 e7 57 bb d3 7b 64 3d 20 7c 58 bc
       0.057938807 -0.0032944663 0.05578215 -0.013213187
0003e0 c8 ff 0f 3c 32 73 5e bb 4c 29 3f 3d 93 6a 5a bd
       0.00878901 -0.0033943173 0.046670243 -0.053324293
0003f0 ce e7 04 bb 16 2b cc ba e4 99 3c 3d 40 75 84 bd
       -0.0020279768 -0.0015576805 0.0460452 -0.06467676

network.4.bias f4 [8]
000000 4a 19 c5 3b c0 b7 94 bc e3 e2 8f 3b 88 2f 8f 3d
       0.0060149776 -0.018154025 0.0043910607 0.06991488
000010 3e dd c1 3c be ff 4b bd 92 07 e6 bc c2 25 9a bd
       0.023665067 -0.04980444 -0.028079782 -0.07526733

exp_avg f4 [256, 26]
000000 05 21 24 3c 12 07 fd 3b 71 ab b5 3b 5c 78 e0 3b
       0.010017638 0.00772179 0.005544119 0.0068502855
000010 b7 80 23 3c 70 f1 88 ba 5c bc 77 bb 40 18 9c 39
       0.0099794185 -0.001044793 -0.003780148 0.00029772706
000020 60 83 b8 39 90 d6 07 3a a8 90 d7 ba 22 4b 81 bb
       0.00035193097 0.00051818136 -0.0016446309 -0.003945724
000030 48 99 fe 3b 9d 4b 08 bc e8 87 ab bb 48 14 88 bc
       0.0077697374 -0.008318809 -0.005234707 -0.016611233
000040 f0 4d f6 bc 48 72 e6 bb 30 f3 4f ba b0 d3 b4 bc
       -0.03006646 -0.0070326664 -0.0007932661 -0.022073597
000050 94 d5 aa bc 58 a4 6f bb 3c 80 63 bb 0e a5 9c ba
       -0.020853795 -0.0036566462 -0.0034713885 -0.0011951046
000060 f6 3c b5 bb 56 b1 a0 bb 00 00 00 00 c7 14 fd 1f
       -0.0055309488 -0.0049039526 0.0 1.0718404e-19
000070 04 e3 a2 b7 00 00 00 00 00 00 00 00 15 86 79 b0
       -1.9417617e-05 0.0 0.0 -9.0776214e-10
000080 23 f2 d5 b0 b5 2d 63 b9 b3 56 20 b0 ab a7 10 b0
       -1.5566609e-09 -0.00021665434 -5.833087e-10 -5.2625165e-10
000090 8b f3 77 b9 43 e3 e0 b8 00 00 00 00 e4 27 77 b9
       -0.00023646482 -0.00010723483 0.0 -0.00023570616
0000a0 f0 f3 3b b9 ab 9d f0 b8 2e 67 e4 b8 a6 c2 c9 b9
       -0.00017924584 -0.0001147346 -0.00010891106 -0.00038482732
0000b0 6c cd 4d b9 13 06 1f b9 b9 88 0e b9 08 8d 30 b9
       -0.00019626849 -0.00015165684 -0.00013593108 -0.00016837206
0000c0 83 e0 14 b9 04 21 78 b8 63 8a 30 b9 ec 8a 30 b9
       -0.00014198017 -5.9158556e-05 -0.00016836221 -0.0001683642
0000d0 00 00 00 00 00 00 00 00 ea c9 05 26 00 00 00 00
       0.0 0.0 4.641729e-16 0.0
0000e0 00 00 00 00 6b 48 46 14 10 40 9a 14 10 7e 1f 27
       0.0 1.0010727e-26 1.5575294e-26 2.2134021e-15
0000f0 00 00 00 00 00 00 00 00 24 9e ed 27 60 4d 12 27
       0.0 0.0 6.595217e-15 2.0303515e-15
000100 00 00 00 00 ca 64 b5 27 5b 2d f6 27 08 36 30 27
       0.0 5.0346868e-15 6.832789e-15 2.4454197e-15
000110 ff d9 1a 28 f7 7a 1b 27 62 c4 4c 27 10 2d cd 27
       8.595988e-15 2.157723e-15 2.8417146e-15 5.6947787e-15
000120 94 2a 00 28 22 91 81 27 fe e0 7a 27 d0 10 d1 26
       7.11466e-15 3.5962046e-15 3.4816438e-15 1.4506845e-15
000130 22 91 81 27 22 91 81 27 07 75 94 2e 3b 1c c4 2e
       3.5962046e-15 3.5962046e-15 6.751049e-11 8.918063e-11
000140 0c db 7d 2e 29 37 74 2e b8 61 0d 2e fd 09 dc 2e
       5.7720093e-11 5.552817e-11 3.214648e-11 1.0006216e-10
000150 2f 4d f4 2e b0 62 01 2f 14 d9 d7 2e 78 e4 d0 2e
       1.1109546e-10 1.1767542e-10 9.815629e-11 9.499329e-11
000160 82 3d c2 2e 7a 1c b8 2e 42 36 1a 2e 75 ab b6 2e
       8.8330246e-11 8.37241e-11 3.5063737e-11 8.306859e-11
000170 56 83 e2 2e 99 ab af 2d 28 6c a8 2e 31 06 b0 2e
       1.030062e-10 1.9971401e-11 7.658968e-11 8.004653e-11
000180 51 92 80 2e 88 74 ee 2e 88 07 8a 2e 7d 7a 82 2e
       5.846757e-11 1.0843687e-10 6.276851e-11 5.933474e-11
000190 7d 7a 82 2e 10 d0 05 2e 7d 7a 82 2e 7d 7a 82 2e
       5.933474e-11 3.0425495e-11 5.933474e-11 5.933474e-11
0001a0 41 53 e0 b9 3e a1 d4 b9 35 a4 0c bb 66 01 0d b8
       -0.00042786638 -0.00040555926 -0.002146018 -3.3618322e-05
0001b0 fc b1 1b ba 2c ac 93 ba 80 02 b1 37 76 d6 74 bc
       -0.00059393025 -0.0011266521 2.1101208e-05 -0.01494371
0001c0 87 d2 43 b9 80 b2 c2 ba 22 b6 79 bc ee 06 a1 bc
       -0.00018675077 -0.0014854223 -0.015241178 -0.019656625
0001d0 51 04 f0 b8 af 84 55 bc d8 96 30 bb 74 2c 35 bc
       -0.00011444896 -0.0130321225 -0.0026945379 -0.011057962
0001e0 6e 20 36 bc b4 a7 66 bc 38 0a 8c bc d5 b1 30 bc
       -0.01111613 -0.0140780695 -0.017094716 -0.010784586
0001f0 2a ff 9f bc e8 38 4f bc 0c 7e 4a bc c1 7c b3 bb
       -0.019530851 -0.012647845 -0.0123591535 -0.0054775183
000200 c8 c7 46 bc b4 95 48 bc 11 63 8c 38 ba 49 df 38
       -0.0121325925 -0.012242723 6.694173e-05 0.00010647201
000210 e1 5d 1c 39 21 f7 ea 37 6f 23 05 38 66 90 53 39
       0.00014912292 2.8010052e-05 3.174267e-05 0.0002017632
000220 97 e4 bf 39 02 85 cc 3a ce b1 03 39 12 47 09 39
       0.00036600672 0.0015603604 0.00012559371 0.00013091814
000230 e0 ca 26 38 40 54 81 ba 7a 59 83 38 57 6a 3a 3a
       3.9766426e-05 -0.0009867027 6.263233e-05 0.0007111183
000240 94 69 8a 3a 6e 2b 2c 39 f3 70 d0 39 71 51 43 3a
       0.0010560029 0.00016419377 0.00039757005 0.00074507954
000250 d4 b0 bf 3a 90 d8 a7 b9 a0 46 52 3a f3 7b c2 b8
       0.0014624842 -0.00032014074 0.0008021388 -9.273728e-05
000260 1f 01 c3 b8 51 aa 23 b8 1c ae dc b8 0e ae 02 b9
       -9.2985334e-05 -3.9020848e-05 -0.00010522848 -0.00012462607
000270 a8 43 83 3c 40 a6 3c 3c 6f e7 33 3c 91 e3 13 3c
       0.016023472 0.011514246 0.010980471 0.009026424
000280 7c 3c 47 3c 44 dc dc 3b 21 4c 2a 3c 25 e4 8b 3c
       0.012160417 0.006740125 0.010394127 0.017076561
000290 de d2 2d 3c ec 87 87 3c 15 3b 88 3c a8 a1 69 3b
       0.010609357 0.016544305 0.016629735 0.0035649333
0002a0 72 66 64 3c 3c 51 d8 3b e4 ca 40 3c 4a cc f5 3b
       0.0139404405 0.0066014808 0.011767123 0.00750116
0002b0 60 20 28 bb 9c 10 d1 3b da 30 86 3c 38 65 18 bc
       -0.0025654063 0.006380154 0.016380716 -0.009301476
0002c0 6e 7b 26 3c ce b8 01 3c 92 8f f1 3b 68 bc 52 3b
       0.010161264 0.007917596 0.0073718512 0.0032155756
0002d0 36 93 cf 3b 2e 51 da 3b dd 9d 38 3c 56 7a 09 3c
       0.0063346876 0.0066625094 0.011268106 0.008390984
0002e0 9e bd 01 3c 99 cb da 3b 74 98 09 3c 14 a7 fa 3b
       0.007918743 0.0066771028 0.008398164 0.007649312
0002f0 26 23 27 3c 0b 0c 22 3c 75 f3 39 3c 86 a8 75 3c
       0.010201251 0.009890567 0.011349549 0.014993792
000300 7d 5c 91 3c 8c 49 1a 3c 3e ef 4b 3c 49 a5 22 3c
       0.017744297 0.009416949 0.0124471765 0.009927102
000310 9e df a3 3c f3 56 45 3c fe b4 03 3c 30 5e 2d 3c
       0.02000409 0.012044656 0.008038757 0.010581538
000320 3e 4b 95 3c 44 8e ef 3b d2 49 5b 3c 5d fe 20 3c
       0.018224355 0.0073106606 0.013384299 0.00982627
000330 2a a9 24 3c 81 59 96 3b be 40 09 3c 4a 79 0f 3c
       0.0100500975 0.0045883064 0.008377252 0.008756945
000340 26 de 3a ba 5a 50 e4 b9 7b 73 45 bb d2 5e b3 b9
       -0.00071284396 -0.00043547415 -0.0030128646 -0.00034212187
000350 15 32 72 39 61 df f4 ba 82 74 01 3b 1c be 2b bc
       0.00023097575 -0.0018682295 0.0019753282 -0.010482337
000360 fb 1a b1 bb 89 ca 99 bb 90 42 bb bc bd 6a 1d bd
       -0.0054048277 -0.0046933335 -0.022858888 -0.03843187
000370 3a f5 53 ba ac 15 6f bc 60 db 7a 3b c0 d3 c0 bc
       -0.0008085553 -0.014592569 0.003827773 -0.02353847
000380 74 cd cd bc c6 a3 a4 bc 8c 04 76 bc a6 02 c7 bc
       -0.025122382 -0.020097625 -0.0150157325 -0.024293255
000390 3e 3e 94 bc b1 21 ae bc ba 06 af bc 83 db 16 bc
       -0.018096086 -0.0212563 -0.021365512 -0.009207609
0003a0 fa a1 93 bc ac 89 9d bc 00 00 00 00 00 00 00 00
       -0.018021572 -0.019230686 0.0 0.0
0003b0 00 00 00 00 00 00 00 00 00 00 00 00 00 00 00 00
       0.0 0.0 0.0 0.0
0003c0 00 00 00 00 00 00 00 00 00 00 00 00 00 00 00 00
       0.0 0.0 0.0 0.0
0003d0 00 00 00 00 00 00 00 00 00 00 00 00 00 00 00 00
       0.0 0.0 0.0 0.0
0003e0 00 00 00 00 00 00 00 00 00 00 00 00 00 00 00 00
       0.0 0.0 0.0 0.0
0003f0 00 00 00 00 00 00 00 00 00 00 00 00 00 00 00 00
       0.0 0.0 0.0 0.0

exp_avg_sq f4 [256, 26]
000000 c6 bb 8d 3a 76 09 70 3a 34 59 81 3a 6f ef 75 3a
       0.0010813407 0.0009156683 0.0009868504 0.00093816867
000010 95 50 5d 3a 83 b6 80 3b 28 ea 86 3b da c2 20 3c
       0.00084424886 0.003928007 0.004117269 0.009812081
000020 da 5c 7e 3b a7 dd 74 3b c7 68 a8 3b 11 76 b1 3b
       0.0038812668 0.003736356 0.0051394436 0.005415686
000030 17 52 c4 3a 72 a9 03 3c 88 45 13 3c 77 2b 99 3b
       0.0014978078 0.008036004 0.0089887455 0.004674371
000040 74 5a 29 3c 4d 46 2f 3c 9e cf 45 3c 17 5d 25 3c
       0.010336507 0.010697913 0.012073426 0.010092995
000050 b7 02 40 3c 2e cc 68 3b b0 ed 42 3b 0f 4d 1d 3a
       0.011719397 0.0035522091 0.0029743724 0.00060005573
000060 ba f6 80 3b c4 5c 7c 3b 00 00 00 00 e9 9a 6c 30
       0.003935662 0.003850744 0.0 8.607644e-10
000070 28 aa 12 34 00 00 00 00 00 00 00 00 e0 47 a7 32
       1.3659212e-07 0.0 0.0 1.9474044e-08
000080 47 6e 10 33 82 44 11 37 cf df 44 32 31 d7 86 32
       3.362791e-08 8.658624e-06 1.145959e-08 1.569751e-08
000090 d5 d4 59 36 fb 18 42 36 00 00 00 00 f7 80 1f 37
       3.2459404e-06 2.8922793e-06 0.0 9.5071655e-06
0000a0 81 d5 1a 37 4d 67 42 36 e8 de 8c 36 5e 92 bb 37
       9.228826e-06 2.8968382e-06 4.198275e-06 2.2360295e-05
0000b0 fe 1b 0c 37 2c 91 ac 36 e7 e1 7c 36 11 d1 45 36
       8.351168e-06 5.1428997e-06 3.7682419e-06 2.947698e-06
0000c0 65 cd 0e 36 b1 d5 c4 34 d6 83 87 36 0d 8b 74 36
       2.1279204e-06 3.6663326e-07 4.0386612e-06 3.6439772e-06
0000d0 00 00 00 00 00 00 00 00 a6 18 32 32 00 00 00 00
       0.0 0.0 1.0366568e-08 0.0
0000e0 00 00 00 00 95 11 1e 2c ac 62 bf 2c c2 f3 46 35
       0.0 2.246291e-12 5.4395013e-12 7.411546e-07
0000f0 00 00 00 00 00 00 00 00 5a 16 81 36 2d 40 78 35
       0.0 0.0 3.8471017e-06 9.248059e-07
000100 00 00 00 00 a6 f7 23 36 30 55 64 36 75 7f 13 34
       0.0 2.4433043e-06 3.4024233e-06 1.373681e-07
000110 30 18 b5 36 fe 62 4f 35 66 b3 14 35 ea 1f 48 36
       5.397036e-06 7.725756e-07 5.5395356e-07 2.9820899e-06
000120 57 ba 9b 36 f2 15 a3 35 1c db a3 35 62 73 86 34
       4.641053e-06 1.2150833e-06 1.2208216e-06 2.5043397e-07
000130 51 50 a7 35 51 50 a7 35 0e b1 a5 31 30 91 10 32
       1.2465845e-06 1.2465845e-06 4.822261e-09 8.414915e-09
000140 49 57 72 31 6c 30 60 31 37 46 96 30 92 ff 35 32
       3.526525e-09 3.2623815e-09 1.0933893e-09 1.0593697e-08
000150 db 58 60 32 87 cf 7c 32 a8 21 2f 32 ca 06 24 32
       1.3058719e-08 1.4715517e-08 1.0193993e-08 9.5476e-09
000160 c8 ba 1b 32 f5 92 ff 31 49 c9 b2 30 81 99 08 32
       9.064657e-09 7.438184e-09 1.3008413e-09 7.951145e-09
000170 9e 1e 43 32 c7 55 e8 2f 98 95 e7 31 de 00 0a 32
       1.1357455e-08 4.2261503e-10 6.7399917e-09 8.032854e-09
000180 00 05 b5 31 a2 a0 5d 32 19 79 96 31 2c 63 8b 31
       5.2683617e-09 1.2900417e-08 4.379342e-09 4.056707e-09
000190 4b ef 85 31 4b be 8a 30 2c 63 8b 31 2c 63 8b 31
       3.898014e-09 1.0094906e-09 4.056707e-09 4.056707e-09
0001a0 b5 88 07 39 4f 91 aa 38 cd 20 14 39 9f fb d2 38
       0.0001292553 8.1332975e-05 0.00014126599 0.000100604484
0001b0 71 fb 24 39 60 13 01 3a d9 cd 06 3a 9a ca 31 3b
       0.00015733928 0.00049238466 0.0005142368 0.0027128817
0001c0 3f 4d f8 39 9d 3d f3 39 68 b8 ae 3a be ab de 3a
       0.000473598 0.00046394477 0.0013330104 0.0016988439
0001d0 a0 f8 8d 39 4f b2 1a 3b 8a 06 1c 3b d7 1a 84 3a
       0.00027078856 0.0023604815 0.0023807609 0.00100788
0001e0 43 27 68 3b 08 5d 3f 3b a8 68 62 3b a2 6e 72 3b
       0.0035423792 0.0029199738 0.0034547243 0.0036992212
0001f0 d7 38 19 3b 96 ca 84 3a 92 8e 5d 3a 2c 7f 2e 39
       0.0023379826 0.0010131176 0.00084517256 0.00016641308
000200 d7 41 95 3a e6 df 90 3a 14 e5 bb 35 be 28 b0 35
       0.001138742 0.0011053055 1.3999256e-06 1.3124879e-06
000210 8b 05 2f 36 60 46 e2 35 aa aa 40 36 f4 56 72 36
       2.6080259e-06 1.6858794e-06 2.870957e-06 3.6111423e-06
000220 78 51 90 36 7b 1c 17 38 b6 ec 95 36 95 2a a6 36
       4.3010186e-06 3.602773e-05 4.468103e-06 4.9521427e-06
000230 37 08 d0 35 9c 6c 57 37 56 30 36 36 5b 5f ce 37
       1.5499598e-06 1.2840286e-05 2.7148249e-06 2.4601517e-05
000240 9e 3a 82 37 16 66 40 37 fd 28 21 38 21 b9 a2 37
       1.5524503e-05 1.14678605e-05 3.8423565e-05 1.9398112e-05
000250 45 d5 43 38 3e 6d 25 38 45 1d 29 38 ba 7f a5 36
       4.6690246e-05 3.9440805e-05 4.032e-05 4.9322525e-06
000260 b9 4e 67 36 96 0c 22 35 01 46 f7 36 6f f7 d8 36
       3.4467505e-06 6.036802e-07 7.369323e-06 6.4661067e-06
000270 41 83 a8 3a 36 80 86 3a 61 70 94 3a f8 f1 98 3a
       0.00128565 0.0010261599 0.0011324995 0.0011668792
000280 a3 3b 73 3a 1f 5f 98 3b be 7b a2 3b aa 63 50 3c
       0.0009278601 0.004650011 0.004958599 0.012719074
000290 bc a5 92 3b 9c ed 92 3b 6c 78 db 3b 23 16 e7 3b
       0.0044753235 0.0044838917 0.006697705 0.0070521994
0002a0 f0 d0 f1 3a 6d 11 2a 3c 9b b5 49 3c 76 8a cb 3b
       0.0018449109 0.010380131 0.0123113645 0.006211574
0002b0 c2 9b 59 3c 3d 22 5f 3c 1f 8d 5d 3c e6 fa 5a 3c
       0.013281764 0.013619003 0.013522415 0.013365483
0002c0 ce 5e 59 3c 2b a0 95 3b 26 70 77 3b fd f4 49 3a
       0.013267232 0.0045662127 0.0037756055 0.00077040476
0002d0 a5 fa a5 3b 5e 58 a2 3b 53 99 55 3a fe c1 32 3a
       0.0050652795 0.004954382 0.0008148152 0.0006819068
0002e0 b2 de 3d 3a 35 e9 57 3a 0d 35 26 3a fe f7 47 3b
       0.0007242962 0.00082363497 0.00063403026 0.0030512805
0002f0 df 36 58 3b ac ed f6 3b 1b 35 3f 3b 69 b3 40 3b
       0.003299169 0.007535657 0.002917594 0.0029403812
000300 fa 51 83 3b 02 38 88 3b 17 f1 a8 3a c6 44 ca 3b
       0.004007575 0.0041570673 0.0012889233 0.006172749
000310 fe 9e fa 3b 8a cd 85 3b 23 5e fd 3b 10 8c 05 3c
       0.007648348 0.00408334 0.0077321692 0.008151069
000320 79 f4 fa 3b 12 29 fc 3b df 7a f9 3b 46 b8 34 3b
       0.007658538 0.0076953257 0.0076135243 0.0027575656
000330 8a 71 15 3b b5 02 ef 39 6d 8e 46 3b 6f bf 42 3b
       0.002280327 0.0004558765 0.0030297295 0.0029716154
000340 6a d7 e7 35 5b 56 3e 36 e1 e7 b6 37 24 9a 07 36
       1.7273535e-06 2.8362472e-06 2.1804068e-05 2.020629e-06
000350 8b c4 ff 35 14 75 93 38 b1 82 12 39 09 93 25 3b
       1.9056182e-06 7.031314e-05 0.00013972331 0.0025264642
000360 73 7c 87 38 96 10 94 38 74 1c dc 3a fe 1f ff 3a
       6.460482e-05 7.060279e-05 0.0016793148 0.001946449
000370 cc 40 a8 37 ac db 25 3b a3 4f 0f 3b 07 61 45 3a
       2.0057334e-05 0.0025307937 0.0021867536 0.0007529412
000380 16 16 6d 3b fd 02 72 3b a3 d4 71 3b cb f3 50 3b
       0.0036176494 0.003692805 0.0036900423 0.0031883593
000390 fc 8b 23 3b d2 7c 90 3a 0b f0 77 3a ba 6d 58 39
       0.0024955263 0.0011023527 0.00094580714 0.00020640242
0003a0 9f 19 9f 3a 5f 62 9b 3a 00 00 00 00 00 00 00 00
       0.0012138373 0.0011854878 0.0 0.0
0003b0 00 00 00 00 00 00 00 00 00 00 00 00 00 00 00 00
       0.0 0.0 0.0 0.0
0003c0 00 00 00 00 00 00 00 00 00 00 00 00 00 00 00 00
       0.0 0.0 0.0 0.0
0003d0 00 00 00 00 00 00 00 00 00 00 00 00 00 00 00 00
       0.0 0.0 0.0 0.0
0003e0 00 00 00 00 00 00 00 00 00 00 00 00 00 00 00 00
       0.0 0.0 0.0 0.0
0003f0 00 00 00 00 00 00 00 00 00 00 00 00 00 00 00 00
       0.0 0.0 0.0 0.0
