models/reinforce/reinforce_large/checkpoint_ep700.pth (torch, 904778 bytes, 18 tensors)

network.0.weight f4 [256, 26]
0	0xbe23a944	-0.15982538
1	0x3d99ec27	0.075157456
2	0x3e057260	0.13031912
3	0xbdd34d34	-0.1031746
4	0xbcfbe43b	-0.030748477
5	0x3e3ea01d	0.18615766
6	0xbd185872	-0.037193723
7	0x3aa88d78	0.0012859544
8	0x3e151fd9	0.1456293
9	0xbd10278c	-0.035193965
10	0xbe1ed1da	-0.1550974
11	0xbcf650e9	-0.030067878
12	0x3e1c48b9	0.15262116
13	0xbe0cdb03	-0.13755421
14	0xbe266b93	-0.16251974
15	0x3e5a1a28	0.2129904
16	0x3cf4dc25	0.02989013
17	0x3b7211d9	0.0036936908
18	0x3e418b27	0.18900739
19	0xbd06ce93	-0.03291185
20	0x3e485fe6	0.19567832
21	0x3e33e0b1	0.17566182
22	0x3e38df0b	0.18053834
23	0x3e3e3c21	0.18577625
24	0xbe05ca7b	-0.13065521
25	0xbe16078c	-0.14651316
26	0xbbb97aa0	-0.00566037
27	0x3e228006	0.1586915
28	0xbd180b9c	-0.037120447
29	0xbd940184	-0.072268516
30	0x3c26b120	0.010174066
31	0xbdc426db	-0.095777236
32	0xbe1d29fc	-0.15348047
33	0xbdba8113	-0.0910665
34	0xbd0efe4a	-0.034910478
35	0x3e4a0378	0.19727886
36	0xbdac9be0	-0.08428168
37	0x3d4ad1c0	0.04951644
38	0xbe12d477	-0.14338861
39	0x3d9937fd	0.07481382
40	0x3cb10e41	0.021613242
41	0x3d0094b4	0.031391814
42	0xbe046ebb	-0.12932865
43	0x3e0a4cf2	0.13505915
44	0xbd254e9a	-0.040358163
45	0xbd8040f8	-0.06262392
46	0xbe48dc96	-0.19615397
47	0xbda86aad	-0.08223472
48	0xbdf814ea	-0.12113364
49	0xbe473824	-0.1945501
50	0x3dd0fff8	0.10205072
51	0x3d50a105	0.05093481
52	0xbda9244c	-0.08258876
53	0xbd13b52c	-0.03606145
54	0xbe0ab7e7	-0.13546716
55	0xbdb79003	-0.08963015
56	0xbe4719f8	-0.194435
57	0xbdf05160	-0.11734271
58	0xbe218630	-0.15773845
59	0xbd91214e	-0.070864305
60	0x3dd7f67a	0.105450585
61	0xbe225b47	-0.15855132
62	0x3e2212c7	0.15827475
63	0xbddc038f	-0.10742866
64	0xbd6524f4	-0.055943444
65	0xbde0ddf9	-0.10979838
66	0x3e31db42	0.17368796
67	0xbe21fad4	-0.1581834
68	0x3d047809	0.032341037
69	0xbdd7f2cd	-0.105443574
70	0xbe11bc8f	-0.14232086
71	0x3da47fb1	0.08032168
72	0x3cadfa9f	0.02123767
73	0x3d0a00a9	0.033692036
74	0xbdee024c	-0.11621532
75	0x3d20bb65	0.039241213
76	0x3d807ad8	0.062734306
77	0x3c1e8d68	0.009677269
78	0x3db743b7	0.089484625
79	0x3d359a64	0.04433669
80	0x3e1ec3db	0.155044
81	0x3cca6f6d	0.024711335
82	0xbd5e2939	-0.05423853
83	0x3de432c9	0.11142499
84	0x3db4456d	0.088023044
85	0xbe42e961	-0.1903434
86	0x3ca9a5b8	0.020708904
87	0xbe014162	-0.12622598
88	0x3e0ebb83	0.13938718
89	0xbdbbf70d	-0.091779806
90	0xbe11af1c	-0.14226955
91	0xbdc07efb	-0.093992196
92	0xbdc24afc	-0.094869584
93	0xbe2730d0	-0.16327214
94	0x3d1c678f	0.0381847
95	0x3cd3b90f	0.025845079
96	0xbdad2a54	-0.08455339
97	0x3ac48c81	0.0014995487
98	0xbd1d9f5d	-0.03848206
99	0xbd303f6d	-0.043029238
100	0x3ce217fb	0.027599325
101	0xbd72fc5b	-0.059322696
102	0xbd09f4eb	-0.033680838
103	0x3cad0863	0.021122163
104	0x3de0d9ac	0.109790176
105	0xbe20c355	-0.15699513
106	0x3d105913	0.035241198
107	0xbe3a2004	-0.18176275
108	0x3e19b861	0.15011741
109	0xbbd08281	-0.0063632135
110	0xbdc1f8a3	-0.09471252
111	0x3d4b6852	0.049660034
112	0xbc3676e4	-0.011136744
113	0xbd23ff1f	-0.040038224
114	0xbe0534bb	-0.13008396
115	0x3d4a5cb2	0.049404807
116	0x3dddcb11	0.108297475
117	0x3e4d1f44	0.20031458
118	0xbe3f86b4	-0.18703729
119	0xbd5cf356	-0.053943
120	0x3e28eeac	0.16497296
121	0xbc9e8a5b	-0.019353082
122	0x3e184319	0.14869346
123	0x3e0b5ce9	0.13609661
124	0xbe0f8483	-0.14015393
125	0x3e2cc656	0.16872534
126	0x3dec245b	0.11530372
127	0xbdc7f291	-0.09763063
128	0xbe10e5b8	-0.14150131
129	0xbc6a2f2f	-0.014293476
130	0x3cd6d323	0.026223725
131	0xbdecf5e3	-0.11570337
132	0x3e267145	0.16254146
133	0xbd8de27d	-0.06927965
134	0x3e10652c	0.14101094
135	0xbdf19ff5	-0.117980875
136	0xbe166485	-0.14686783
137	0x3d86b54d	0.06577549
138	0x3e081a71	0.13291337
139	0x3c9c3f35	0.019073108
140	0xbe443823	-0.1916204
141	0x3dd20b94	0.102561146
142	0x3d9a7c1d	0.07543204
143	0xbe449d6f	-0.19200681
144	0xbdffb916	-0.12486474
145	0x3dc81ffd	0.09771726
146	0x3d6e08ca	0.05811385
147	0xbdc7c2ec	-0.09753975
148	0x3db5a52d	0.088693954
149	0x3d4a1f34	0.049346164
150	0x3d27589c	0.04085599
151	0xbdd88e17	-0.105739765
152	0xbdcca3d1	-0.09992183
153	0xbe4eff84	-0.20214659
154	0xbe541ba5	-0.2071367
155	0xbd56ba05	-0.052423496
156	0x3d838ec1	0.064237125
157	0x3e02571d	0.12728544
158	0x3e2283a5	0.15870531
159	0xbdce2b5a	-0.100668624
160	0x3e21639a	0.15760651
161	0x3cf5a2a2	0.029984776
162	0x3d90329e	0.070409045
163	0x3b53dec6	0.0032328828
164	0xbd257765	-0.040397067
165	0x3e559d25	0.20860727
166	0x3decd501	0.11564065
167	0x3c2e9a48	0.010656901
168	0xbdd73a3a	-0.10509153
169	0xbe10cf5e	-0.14141604
170	0x3dd54e08	0.10415274
171	0x3ddc0fea	0.10745223
172	0x3ca8c8fc	0.02060365
173	0xbc7e4526	-0.015519416
174	0x3c2adb9d	0.010428336
175	0x3d054aae	0.032541923
176	0x3d78831a	0.060671903
177	0x3dc8aa1b	0.0979807
178	0xbe1a33e0	-0.15058851
179	0xbda31b23	-0.0796416
180	0x3e198bbe	0.14994714
181	0x3e0cca25	0.13748987
182	0x3df20a48	0.11818367
183	0x3dc4c8ab	0.09608587
184	0x3db18115	0.086671986
185	0xbe3815a7	-0.1797701
186	0x3dde638b	0.1085883
187	0xbe3b0b49	-0.18266024
188	0x3c945bc3	0.018110162
189	0xbd2256c9	-0.039633546
190	0x3e41a869	0.189119
191	0x3e239c65	0.15977629
192	0x3e3f37bb	0.18673603
193	0xbb2d974f	-0.0026487892
194	0x3ceb9149	0.0287558
195	0xbc12fc29	-0.0089712525
196	0x3e394d4e	0.18095896
197	0x3e5105ae	0.20412323
198	0xbd7fb121	-0.062424783
199	0x3e64cce7	0.22343789
200	0x3e2b1771	0.16708161
201	0x3d884e8b	0.06655606
202	0x3e5c6849	0.21524157
203	0xbd0b3e6c	-0.033995077
204	0x3dc76acc	0.09737167
205	0x3e39c14c	0.18140143
206	0x3b9cee03	0.0047891154
207	0xbd25476d	-0.04035132
208	0xbdd58f30	-0.104277015
209	0x3cd195a3	0.025584048
210	0xbe248e4b	-0.16069905
211	0xbd6cc902	-0.057808883
212	0x3d835a8d	0.064137556
213	0xbbc11c73	-0.005893284
214	0xbdb670a4	-0.08908203
215	0xbd47b5f0	-0.048757493
216	0xbd7db718	-0.06194219
217	0xbde35b9a	-0.11101456
218	0xbd8b4075	-0.067994036
219	0x3e456930	0.19278407
220	0x3dc9b72a	0.09849389
221	0x3cec419c	0.028839879
222	0xbdac8166	-0.08423118
223	0x3dbfffb6	0.09374945
224	0x3e244fa8	0.16046011
225	0x3e15b2ac	0.14618939
226	0x3d18a8e9	0.03727046
227	0xbe13f88a	-0.14450279
228	0xbe28e611	-0.16494013
229	0xbe061659	-0.13094462
230	0xbe243ebc	-0.16039556
231	0x3c83fb13	0.016110932
232	0xbbe049ee	-0.0068447506
233	0x3e4f586a	0.20248571
234	0x3d06d674	0.032919362
235	0xbd61e05c	-0.055145606
236	0x3d9b4ff2	0.07583608
237	0xbcbbd158	-0.022926971
238	0xbd9a16fc	-0.07523915
239	0xbc07a950	-0.008280113
240	0xbda2f32a	-0.07956536
241	0xbd6720cc	-0.056427762
242	0xbe098ec6	-0.1343337
243	0x3e23b387	0.15986453
244	0x3e0fb25f	0.14032887
245	0xbda17a38	-0.078846395
246	0xbe3e1bf2	-0.18565348
247	0xbdbd3d7a	-0.09240241
248	0xbe403c9b	-0.18773119
249	0xbe293a7d	-0.16526218
250	0x3e4612e7	0.19343148
251	0xbe2e475e	-0.17019412
252	0xbb1a0000	-0.0023498535
253	0x3e227959	0.15866603
254	0xbcd38200	-0.025818825
255	0x3e29b813	0.16574125

network.0.bias f4 [256]
0	0xbdca2bcd	-0.098716356
1	0x3d4f4101	0.050599102
2	0xbe2d7bfd	-0.16941829
3	0x3c9608fd	0.018314833
4	0xbd5d00bd	-0.053955782
5	0x3d62d93b	0.05538295
6	0x3dcf5ca3	0.10125091
7	0x3d9d19ff	0.07670974
8	0x3e283854	0.16427737
9	0xbe26258d	-0.16225262
10	0x3b41727f	0.0029517708
11	0x3e4d7f85	0.20068176
12	0xbdb6a00c	-0.08917245
13	0x3e2a72c3	0.1664534
14	0x3e4ac5af	0.19801973
15	0x3da4f068	0.08053666
16	0x3e2bd294	0.16779548
17	0x3d86cd8a	0.06582172
18	0x3dee3ae7	0.116323285
19	0xbe09f4eb	-0.13472335
20	0x3c40985d	0.011755076
21	0x3d26da61	0.040735606
22	0x3e31e9a1	0.17374279
23	0x3da27cdc	0.07933971
24	0x3e07d8c9	0.1326629
25	0x3dc9e41b	0.09857961
26	0x3de3d143	0.11123898
27	0x3e40a1fd	0.18811794
28	0x3daa3394	0.08310619
29	0xbdcf1943	-0.1011224
30	0xbda3c45c	-0.07996437
31	0x3e1bfbd9	0.15232791
32	0xbde15eb9	-0.11004395
33	0xbd1ded20	-0.03855622
34	0xbe0042d8	-0.12525499
35	0xbbdef3e0	-0.0068039745
36	0x3e006c5b	0.12541334
37	0xbcf363f2	-0.029710744
38	0xbd99d248	-0.07510811
39	0x3e013de3	0.12621264
40	0x3e305327	0.1721922
41	0xbe350d88	-0.17680943
42	0xbe32a801	-0.17446901
43	0x3e4d42c5	0.20045002
44	0x3d926a7d	0.07149217
45	0xbd6d66d8	-0.057959408
46	0xbc994c30	-0.018713087
47	0x3e0c0f86	0.13677797
48	0xbd141779	-0.036155198
49	0x3d3048c6	0.043038152
50	0x3e0b2412	0.13587978
51	0x3cbab21f	0.022790013
52	0xbe44e6c6	-0.19228658
53	0x3e0e4c2f	0.13896249
54	0xbdc006b1	-0.09376276
55	0xbd9a07d1	-0.07521022
56	0xbc33a055	-0.010963519
57	0xbddc40e6	-0.10754566
58	0xbe48a877	-0.19595514
59	0xbdcdcce8	-0.100488484
60	0x3e38f6e5	0.18062933
61	0xbe2630e1	-0.16229583
62	0x3e5cf8c3	0.2157927
63	0xbde631c3	-0.1123996
64	0xbe0ee4f5	-0.13954528
65	0xbc805970	-0.015667647
66	0x3ca2c373	0.019868588
67	0x3d7901df	0.0607928
68	0x3dd42ead	0.10360465
69	0xbda9800b	-0.082763754
70	0xbe58fa1e	-0.21189162
71	0xbcd8d108	-0.026466861
72	0xbd257b14	-0.04040058
73	0xbdcc1240	-0.099644184
74	0x3de02330	0.109442115
75	0x3ce8a66d	0.02839967
76	0xbd76f7fb	-0.060295086
77	0xbdcf529e	-0.1012318
78	0x3d453904	0.048150077
79	0x3dd71b18	0.105032146
80	0x3dc2c9cd	0.09511147
81	0xbe1a51cc	-0.15070266
82	0xbddffd51	-0.10936988
83	0xbe23f4a6	-0.16011295
84	0x3b454f2d	0.0030107007
85	0x3c11a0c1	0.008888424
86	0xbd699438	-0.057026118
87	0xbdfb1609	-0.12260062
88	0x3e3cad8a	0.18425575
89	0x3d8aa8fd	0.06770513
90	0x3e562e81	0.20916177
91	0x3d06cd35	0.032910544
92	0x3dfb9f7a	0.12286277
93	0x3e4f43b0	0.20240664
94	0xbd38a083	-0.04507495
95	0xbd8d615a	-0.06903334
96	0xb96803be	-0.00022126638
97	0x3dd5bab9	0.10436005
98	0x3dbd44eb	0.09241661
99	0x3e2073b3	0.15669136
100	0xbe068c68	-0.13139498
101	0x3d982df2	0.074306384
102	0xbd625f1c	-0.055266485
103	0x3e3c6632	0.1839836
104	0xbe44662a	-0.19179597
105	0xbe4c5a6c	-0.19956368
106	0xbe0c97a1	-0.13729717
107	0x3df11d40	0.11773157
108	0x3d123f57	0.035704937
109	0x3e275b45	0.1634341
110	0xbe38bde8	-0.18041193
111	0xbc3eb8e9	-0.011640766
112	0x3bf170c2	0.007368178
113	0x3de43c4b	0.111443125
114	0xbdc180ed	-0.09448419
115	0x3d8285f3	0.06373205
116	0x3da83cc0	0.08214712
117	0x3d838dc3	0.06423523
118	0xbe2a2571	-0.16615845
119	0xbdf1e1ed	-0.1181067
120	0xbe1b47a4	-0.15164047
121	0x3dba17be	0.0908656
122	0x3e1ca5e7	0.15297662
123	0xbe03789f	-0.12838982
124	0x3d9a6eec	0.07540688
125	0x3d0ecb82	0.03486205
126	0x3e0317ef	0.12802099
127	0x3e2488dd	0.16067834
128	0x3dfc50f0	0.12320125
129	0xbe291d07	-0.1651498
130	0xbcf72ebd	-0.030173654
131	0xbd65ac3e	-0.056072466
132	0x3e0d22f0	0.13782859
133	0xbde9da68	-0.11418611
134	0xbe414b77	-0.18876444
135	0xbe2c9fa4	-0.16857773
136	0x3de08a2d	0.10963855
137	0x3dfb8142	0.12280513
138	0x3e1604c4	0.14650255
139	0x3da6fb1c	0.08153364
140	0x3de3ec9e	0.111291155
141	0x3dab1396	0.08353345
142	0xbe1d947c	-0.15388674
143	0x3c8f6f61	0.017509164
144	0xbe46c155	-0.19409688
145	0x3e080b4a	0.13285556
146	0xbdea906c	-0.114533275
147	0xbdf5b06c	-0.119965404
148	0x3d7db53e	0.061940424
149	0xbe05f7a6	-0.13082752
150	0x3da8da2a	0.082447365
151	0xbd1bc579	-0.03803012
152	0xbe261afe	-0.16221234
153	0xbc26f373	-0.010189879
154	0x3c0039d0	0.007826284
155	0xbcca5ba7	-0.024701906
156	0x3d75fadc	0.06005369
157	0x3d4f9b66	0.05068531
158	0x3e04d67b	0.12972443
159	0x3d114d79	0.035474274
160	0x3d7f0346	0.06225898
161	0xbe0d1382	-0.13776973
162	0xbd14ca2d	-0.036325622
163	0xbded2b28	-0.11580497
164	0xbd8997d4	-0.06718412
165	0xbdcd7631	-0.10032309
166	0x3ce7b64a	0.028285164
167	0x3d1cae4a	0.038252153
168	0xb8f66c76	-0.000117503965
169	0x3e1a62df	0.15076779
170	0x3e4f21de	0.20227763
171	0x3df10f2a	0.117704704
172	0xbd924555	-0.0714213
173	0x3e16f378	0.14741313
174	0xbd0e84c9	-0.034794603
175	0xbd9fe62a	-0.07807572
176	0x3e1a077f	0.15041922
177	0x3afd3994	0.0019319528
178	0xbd7d8b3b	-0.06190036
179	0xbe2caf50	-0.16863751
180	0x3e311fa0	0.1729722
181	0x3e1d0a46	0.1533595
182	0xbd54fb72	-0.05199761
183	0xbd5830b0	-0.052780807
184	0x3e35eca2	0.1776605
185	0x3d2aa63b	0.041662436
186	0x3e4cb286	0.19989976
187	0xbe3aec29	-0.1825415
188	0xbdc7ced2	-0.09756245
189	0x3e143d78	0.14476573
190	0xbdd1c2ec	-0.102422565
191	0xbdcbe7fd	-0.09956358
192	0xbd638764	-0.05554904
193	0x3e4689af	0.1938846
194	0x3dde53fb	0.10855862
195	0x3db5b5ab	0.08872541
196	0xbd3c6931	-0.045998756
197	0x3cf83217	0.030297322
198	0xbdf40c5a	-0.119164184
199	0x3d90efd2	0.07076992
200	0x3e06ad9b	0.13152163
201	0xbe2f7687	-0.17135058
202	0xbdd59603	-0.10429003
203	0xbdec1c19	-0.11528797
204	0x3d8e858f	0.06959068
205	0xbe4911b5	-0.19635661
206	0x3d52c493	0.051457
207	0x3e2ab9ea	0.16672483
208	0x3e542a24	0.207192
209	0x3e0f74cf	0.14009403
210	0x3e3634fb	0.17793648
211	0xbe2d27f2	-0.16909769
212	0x3d0d047b	0.0344281
213	0x3e2835b7	0.1642674
214	0xbe3569a9	-0.17716087
215	0x3d8a6f3e	0.06759499
216	0xbbd79d8f	-0.0065800617
217	0x3d2fb997	0.0429016
218	0xbddaf3e7	-0.10691052
219	0x3e24c2ef	0.16089986
220	0xbe1b2ed2	-0.1515458
221	0xbe0c6b67	-0.13712846
222	0xbde5e965	-0.11226157
223	0x3e487de0	0.19579268
224	0xbd629d6a	-0.055325903
225	0xbdc937ce	-0.09825097
226	0xbddb0a8e	-0.106953725
227	0x3b6d3caa	0.0036199489
228	0x3e588425	0.21144159
229	0x3880c365	6.139911e-05
230	0x3dd86625	0.105663575
231	0xbe026cc2	-0.127368
232	0xbd3ea1e2	-0.046541102
233	0x3dc19809	0.094528265
234	0xbbd24a2f	-0.006417535
235	0x3dee9f69	0.11651499
236	0x3c9e41bb	0.019318452
237	0x3e2780d3	0.16357736
238	0xbd5e7b58	-0.05431685
239	0xbe373287	-0.17890368
240	0x3e125068	0.14288485
241	0x3e1611f8	0.14655292
242	0xbd9fef73	-0.07809343
243	0xbae9dc22	-0.0017842094
244	0xbddc5321	-0.10758043
245	0x3d321d1b	0.04348479
246	0xbe0526af	-0.13003038
247	0x3cf9fcc5	0.030516038
248	0xbe06fad6	-0.13181624
249	0x3d70a55d	0.058751453
250	0x3e0492ae	0.12946579
251	0xbdc0d980	-0.09416485
252	0xbd120287	-0.03564694
253	0xbd2f7898	-0.042839617
254	0xbdab95be	-0.083781704
255	0x3c9df15b	0.019280126

network.2.weight f4 [256, 256]
0	0xbb031324	-0.0020000422
1	0x3d52cf70	0.05146736
2	0x3c46ceda	0.012134278
3	0x3d6307cb	0.055427354
4	0x3bb7b93f	0.0056068
5	0xbcfe4159	-0.03103702
6	0x3c311e14	0.010810394
7	0xbcd3a810	-0.025836974
8	0x3db421d7	0.08795517
9	0x3cace6f8	0.021106228
10	0xbceb4e47	-0.028723849
11	0xbd057c6a	-0.032589354
12	0x3bd97c1c	0.0066371094
13	0x3cdd172a	0.026988585
14	0x3d3540a9	0.044251118
15	0x3d18f902	0.037346847
16	0xbd393f72	-0.04522652
17	0xbd020940	-0.031747103
18	0xbc84f16e	-0.016228404
19	0x3bce2120	0.00629057
20	0x3db57c41	0.0886159
21	0x3ce365f5	0.027758578
22	0x3ce3cd3a	0.02780782
23	0xbccb8bcd	-0.024846936
24	0x3cc66155	0.024216333
25	0x3da03371	0.07822312
26	0xbd129da2	-0.03579486
27	0x3c4660d0	0.012108043
28	0xbc5bd35c	-0.013417091
29	0xbaf8ad81	-0.0018972607
30	0x3d8b8630	0.068127036
31	0x3d894767	0.06703072
32	0x3da6e79d	0.081496455
33	0x3cb24688	0.021762148
34	0xbd1431a9	-0.036180172
35	0xbcf1f990	-0.029537946
36	0x3d9ddb0d	0.07707796
37	0xbba724c2	-0.0051008174
38	0x3cac73ef	0.021051375
39	0xbcea5eac	-0.028609596
40	0x3ac8fbab	0.0015333792
41	0x3ceea917	0.029133363
42	0x3ce8c011	0.028411897
43	0x3d3dad96	0.046308123
44	0x3d268c90	0.040661395
45	0xbc759b8a	-0.014990697
46	0x3d421349	0.047381673
47	0xbc3a8e4b	-0.011386464
48	0x3cec7537	0.028864486
49	0x3d5ec419	0.054386232
50	0xbb1df12e	-0.0024100053
51	0x3d880dd7	0.06643265
52	0x3d6750ea	0.05647365
53	0x3d187eb0	0.037230194
54	0xbd4760e4	-0.048676386
55	0xbd30e0db	-0.04318319
56	0x3b1c6f97	0.0023870224
57	0xbd15883a	-0.03650687
58	0xbb834790	-0.0040063336
59	0xbc06b9e0	-0.008223027
60	0xbce15c20	-0.027509749
61	0xbc0d01a0	-0.008606344
62	0xbcb56725	-0.02214391
63	0x3c8a20c6	0.01686133
64	0x3c12039a	0.0089119915
65	0x3d4f994b	0.0506833
66	0x3d511e96	0.05105456
67	0x3d4f97de	0.05068194
68	0x3d210257	0.039308872
69	0xbd3eafde	-0.04655444
70	0x3c5f6a42	0.013636174
71	0xbcd44e16	-0.02591614
72	0xbd33fc58	-0.043941826
73	0x3c809cb0	0.015699714
74	0x3aa4adb8	0.0012563979
75	0x3ca2f937	0.019894226
76	0x3d8699ed	0.06572328
77	0xbbfa9c0b	-0.0076479963
78	0xbc69e001	-0.014274598
79	0x3d4ecc34	0.050487712
80	0x3d4c5158	0.049882263
81	0x3d6aacfa	0.05729387
82	0x3d5b4e4a	0.05354146
83	0x3d1f6a48	0.038919717
84	0xbd258e44	-0.04041888
85	0x3c0d6993	0.008631128
86	0x3cbd53bc	0.023111217
87	0xbd265759	-0.040610645
88	0x3d3e3409	0.046436343
89	0x3c1414ce	0.009038163
90	0x3d51e739	0.0512459
91	0x3d5fd018	0.054641813
92	0xbc3a911d	-0.011387137
93	0x3bac64f5	0.0052610585
94	0x3d9c8966	0.07643394
95	0xbbcf1e20	-0.00632073
96	0x3d401a32	0.04689998
97	0x3d5327c6	0.051551603
98	0x3db62bb3	0.08895054
99	0xbc41e051	-0.011833266
100	0x3d38917f	0.04506063
101	0x3d05a86f	0.032631334
102	0xbb1a1000	-0.0023508072
103	0x3c3cf15d	0.011532155
104	0xbc2268a2	-0.009912642
105	0xbd4ab1d3	-0.049485993
106	0x3baeaf46	0.005330953
107	0x3d01ec49	0.03171948
108	0x3ccd3c6a	0.025053222
109	0x3c916068	0.017746165
110	0xbc8b5b00	-0.017011166
111	0xbaca9e9f	-0.001545865
112	0xbc8c4dd8	-0.017126963
113	0x3c5e0fb0	0.013553545
114	0xbd50b1e0	-0.050950885
115	0xbc5bf2ac	-0.013424557
116	0xbc8b77b5	-0.017024854
117	0x3c650c0b	0.013979922
118	0x3d9ae442	0.07563068
119	0x3c8ab12f	0.01693019
120	0xbca02f13	-0.019553697
121	0x3bf141b0	0.007362567
122	0xbcc0ce8c	-0.02353599
123	0xbd37ffb4	-0.044921592
124	0xbc845ae3	-0.01615662
125	0x3d739370	0.05946678
126	0x3d751286	0.05983212
127	0xbcc201f4	-0.023682572
128	0xbc96b0e1	-0.01839489
129	0xbcbac321	-0.022798123
130	0xbd04b238	-0.032396525
131	0x3c71d8d6	0.01476117
132	0x3d26041f	0.040531274
133	0xbd5fbf4a	-0.054625787
134	0xbcc759a3	-0.024334734
135	0x3d1eeadb	0.038798194
136	0x3d616204	0.055025116
137	0x3c5bd35b	0.01341709
138	0x39acbf05	0.00032948717
139	0x3c0ac715	0.008470316
140	0x3d546d41	0.051862005
141	0xbc83d2c2	-0.016091708
142	0xbd3bc5de	-0.045842998
143	0x3d094ada	0.03351865
144	0x3cb42448	0.021989956
145	0x3d7c3c7a	0.061581112
146	0xbd71ea35	-0.059061248
147	0x3c8d3020	0.017234862
148	0x3cd373e9	0.025812106
149	0xbc8624d6	-0.016374987
150	0x3c3e6e1e	0.011622934
151	0xbd12bd99	-0.035825346
152	0xbd471333	-0.048602294
153	0x3d056c64	0.032574072
154	0x3d5d5d50	0.054044068
155	0x3d09ff32	0.03369064
156	0xbd628402	-0.055301674
157	0xbd525787	-0.051353004
158	0x3d83c8bc	0.064347714
159	0xbbb75c7a	-0.005595741
160	0xbd0fc831	-0.035103027
161	0xbcb56773	-0.022144055
162	0x3cc2bb49	0.023770945
163	0xbd841ccc	-0.06450805
164	0xbd304d4e	-0.043042473
165	0xb9b98f0b	-0.00035392525
166	0xbd577677	-0.05260321
167	0x3d1b3465	0.037891764
168	0xbc902337	-0.017594917
169	0xbcca1d92	-0.024672303
170	0x3c7de559	0.015496575
171	0x3d0f3173	0.034959268
172	0x3d01a026	0.03164687
173	0x3d8744a7	0.06604891
174	0x3d290114	0.041260794
175	0x3d55645f	0.052097674
176	0xbc39dc8a	-0.0113440845
177	0x3c0856d0	0.008321479
178	0x3d1cbbb9	0.038264964
179	0x3b1733a7	0.0023071559
180	0x3d7bec8b	0.06150488
181	0xbafb4a5e	-0.0019171943
182	0x3d9fa971	0.0779599
183	0xbd2e3928	-0.042534977
184	0xbd2e42a2	-0.042544015
185	0x3c23a5cd	0.00998826
186	0x3d198f87	0.037490394
187	0xbcc3d364	-0.02390451
188	0x3a45dfeb	0.000754832
189	0x3c9fbb80	0.019498587
190	0xbd2559a8	-0.040368706
191	0x3dac8c87	0.08425241
192	0x3cceafad	0.025230253
193	0x3d81d922	0.06340243
194	0xba915289	-0.001108722
195	0x3ce36e4a	0.02776255
196	0x3d3d58eb	0.046227377
197	0xbc1136d1	-0.008863167
198	0xb8d956cd	-0.00010363534
199	0x3d8213c4	0.06351426
200	0xbd104146	-0.0352185
201	0xba136f7c	-0.00056242174
202	0xbc9e5d94	-0.01933173
203	0x3d247321	0.040148858
204	0xba7eb1a8	-0.0009715804
205	0xbadebd40	-0.0016993657
206	0x3d93abb5	0.07210485
207	0x3c41b8f1	0.011823879
208	0x3c6f1f90	0.014594927
209	0x3d06b5ca	0.03288821
210	0xbd1d2bc1	-0.038371805
211	0xbcf5119d	-0.029915625
212	0x3cca5e4f	0.024703173
213	0x3d80340b	0.062599264
214	0x3cd2da3a	0.025738824
215	0xbd622c4c	-0.055218026
216	0xbd108c78	-0.03529021
217	0x3d94bad4	0.07262197
218	0x3be25470	0.0069070384
219	0xbcfd4547	-0.030916823
220	0x3d178dcd	0.037000466
221	0x3cb15d51	0.021650942
222	0xbca0fd98	-0.019652173
223	0xbcd7fd0b	-0.026365777
224	0x3d1aaab3	0.037760448
225	0x3d82274d	0.06355152
226	0x3d0fba5c	0.035089836
227	0x3d0095e3	0.031392943
228	0xbcf96265	-0.030442426
229	0xbc784d0d	-0.015155089
230	0x3db17360	0.08664584
231	0x3c41e4e8	0.011834361
232	0xbacbc5bb	-0.0015546599
233	0x3d17a312	0.03702075
234	0xbc24670c	-0.010034334
235	0x3d50dd00	0.050992012
236	0x3d2f80cb	0.042847436
237	0x3d9257cb	0.071456514
238	0xbcd2d308	-0.025735393
239	0xbb1dfbc2	-0.0024106358
240	0xbca81371	-0.020517083
241	0x3c5d601f	0.013511687
242	0x3cfb1144	0.030647881
243	0x3d324ed5	0.04353221
244	0xbd1366c6	-0.035986684
245	0x3d87ef14	0.066373974
246	0xbc9ff66c	-0.019526683
247	0xbd5b6278	-0.053560704
248	0xbd1c9557	-0.03822836
249	0x3d577fe9	0.05261222
250	0x3ca17b9a	0.019712258
251	0xbccfc3b3	-0.025361871
252	0x3d31fda9	0.0434548
253	0xbcde9059	-0.02716844
254	0x3d0799a4	0.033105507
255	0x3c9f4d0e	0.019445922

network.2.bias f4 [256]
0	0x3da8a8d0	0.082353234
1	0x3d644012	0.055725165
2	0xbc94b7b2	-0.018153999
3	0xbd8547ca	-0.06507833
4	0xbc037978	-0.008024566
5	0x3c5fd910	0.013662592
6	0xbc53a160	-0.012916893
7	0x3d35d677	0.044393983
8	0x3aa41535	0.0012518527
9	0x3d039469	0.032123957
10	0xbc3b7ac8	-0.011442848
11	0xbcf25fd4	-0.02958671
12	0x3d5cad0d	0.05387597
13	0xbd85b917	-0.06529444
14	0xbc5ac41c	-0.01335242
15	0xbc9b3b49	-0.018949168
16	0x3ace1714	0.001572343
17	0xbd2bd8ed	-0.041954923
18	0x3c82208d	0.015884662
19	0xbd8728f1	-0.06599606
20	0xbce8b359	-0.028405832
21	0x3c8b03a7	0.016969515
22	0x3cce73ae	0.025201645
23	0xbd0a1a44	-0.033716455
24	0xbca8f737	-0.020625694
25	0x3d85a97f	0.065264694
26	0x3d11949a	0.035542108
27	0x3d99dfea	0.07513411
28	0x3d268642	0.040655382
29	0xbd90d571	-0.07071961
30	0xbaec693b	-0.0018036732
31	0x3ca38e3f	0.01996529
32	0x3b057d08	0.0020368714
33	0xbca8a4a9	-0.020586329
34	0xbcd54a58	-0.026036426
35	0xbc211ada	-0.009833062
36	0xbcf36cb6	-0.029714923
37	0xbc921fbc	-0.017837398
38	0x3d04da9e	0.032435052
39	0x3c6ec3cc	0.014573049
40	0xbccea6ab	-0.025225958
41	0xbc504bb9	-0.012713366
42	0x3d0faf0b	0.035079043
43	0x3dacaa33	0.084309004
44	0x3d671b47	0.056422498
45	0x3c34ec64	0.011042688
46	0x3cbb2b01	0.022847654
47	0x3d168310	0.036746085
48	0x3d0c890b	0.03431038
49	0x3cdf9419	0.027292298
50	0x3c9a56f4	0.01884029
51	0x3cc0d426	0.02353866
52	0xbd6e04c4	-0.058110014
53	0x3bea99d5	0.0071594515
54	0xbd33a63e	-0.043859713
55	0xbca35378	-0.019937262
56	0xbc3d30f7	-0.011547319
57	0xbc607866	-0.01370058
58	0x3d52b451	0.051441494
59	0xbcca9809	-0.0247307
60	0x3da00f7d	0.07815454
61	0xbc09ac72	-0.008402931
62	0x3c9e28b8	0.019306526
63	0x3d19a554	0.037511185
64	0x3d30856e	0.043096
65	0xbd377b84	-0.044795528
66	0xbd4ce9ae	-0.05002754
67	0xbd6bfbdc	-0.05761324
68	0xbd10b74c	-0.035331056
69	0x3c348b58	0.01101955
70	0xbc838436	-0.016054254
71	0xbd012f69	-0.031539354
72	0x3db1be0f	0.08678829
73	0xbcde6bf8	-0.027151093
74	0x3d0a51fa	0.033769585
75	0xbd0c2d8c	-0.034223124
76	0xbc5f887a	-0.013643378
77	0xbcb47d57	-0.022032423
78	0xbd71abc3	-0.059001695
79	0xbced73a4	-0.028985806
80	0xbd2158f3	-0.03939147
81	0xbba759ce	-0.005107141
82	0xbc9567fe	-0.018238064
83	0x3ccdfd78	0.025145277
84	0x3c05c268	0.008164026
85	0xbd353376	-0.04423853
86	0x3d97b133	0.07406845
87	0xbd4996db	-0.049216133
88	0x3c9092d9	0.017648147
89	0x3d855b38	0.06511539
90	0x3d70269e	0.05863058
91	0x3d4584a9	0.048222218
92	0x3cde18d7	0.027111454
93	0xbb7ec71f	-0.003887601
94	0x3d3fbf56	0.04681333
95	0xbd4ed911	-0.05049998
96	0x3c71bf12	0.014755027
97	0xbd0d9409	-0.034565005
98	0xbcefef8d	-0.029289031
99	0xbd579b16	-0.052638136
100	0xbd236bae	-0.039897613
101	0xbd4f1919	-0.050561044
102	0x3be6568c	0.00702936
103	0x3bb762a5	0.005596476
104	0x3b60d1d6	0.003430476
105	0x3d38a5aa	0.045079865
106	0xbcf01bc1	-0.02931011
107	0xbd860b63	-0.065451406
108	0x3cef5173	0.029213643
109	0xbbfdf464	-0.007750081
110	0x3d9d9ce4	0.0769594
111	0xbc62d54f	-0.013844802
112	0xbd5b05f0	-0.05347246
113	0x3d9ad14d	0.07559452
114	0x3c9da2d7	0.019242687
115	0xbd6b6b74	-0.057475522
116	0xbd2e4194	-0.04254301
117	0x3d8d0d45	0.068872966
118	0xbd03c643	-0.0321715
119	0x3ce52a6b	0.027974328
120	0x3d0a3e46	0.033750795
121	0xbccd8004	-0.025085457
122	0x3d39788a	0.04528097
123	0xbd40700a	-0.04698185
124	0x3b83f28c	0.0040267166
125	0xbcacb1e0	-0.021080911
126	0x3c960ffa	0.018318165
127	0x3d8a7711	0.06760991
128	0x3d7fddeb	0.062467497
129	0xbd1927c0	-0.037391424
130	0x3d80c44c	0.06287441
131	0x3d0ed618	0.034872144
132	0xbd587e9a	-0.05285511
133	0xbcf8eefd	-0.030387396
134	0xbce00981	-0.027348282
135	0x3c8b4057	0.016998453
136	0xbd7cd723	-0.061728608
137	0x3c27b1e2	0.010235282
138	0xbd170870	-0.03687328
139	0xbce9e487	-0.028551353
140	0x3d53a442	0.05167032
141	0xbd1a1578	-0.03761813
142	0x3d018fd2	0.0316313
143	0xbd0fb2dd	-0.035082687
144	0x3d62a034	0.055328563
145	0x3cf37755	0.029719988
146	0x3cd4b482	0.02596498
147	0xbd39d416	-0.045368277
148	0xbd52bdc8	-0.05145052
149	0xbd0d9118	-0.0345622
150	0xbc1f154f	-0.00970967
151	0x3b1a5ec0	0.002355501
152	0x3cf2a547	0.029619826
153	0x3d01a18e	0.03164821
154	0xbcbb4a3d	-0.022862548
155	0x3c50aebf	0.012736975
156	0x3d93f675	0.07224742
157	0xbd169dff	-0.03677177
158	0x3cb54987	0.022129787
159	0xbba8ec14	-0.005155096
160	0x3d53175a	0.05153594
161	0x3b9345b0	0.0044943914
162	0xbcdbcf9e	-0.026832398
163	0xbd14dfb4	-0.036346152
164	0x3d5482d7	0.05188259
165	0xbd6c095a	-0.057626106
166	0xbc0fc1a0	-0.008774191
167	0xbd21757f	-0.039418694
168	0x3d273572	0.040822454
169	0x3d38496b	0.04499189
170	0xbc509438	-0.012730651
171	0x3d661730	0.056174457
172	0xbd88ce6e	-0.06679998
173	0x3cf217cc	0.029552363
174	0x3d2c9591	0.042134825
175	0xbd0a19ac	-0.03371589
176	0xbc4322b2	-0.0119101275
177	0x3c7e844d	0.015534473
178	0x3cb7530f	0.022378473
179	0xbc50c8b0	-0.01274316
180	0xbbd770a9	-0.0065747094
181	0x3d5ec3f7	0.054386105
182	0xbd73c957	-0.059518185
183	0x3d6c656c	0.05771391
184	0x3dabacc6	0.08382563
185	0xbc8182cd	-0.015809441
186	0xbd7859c4	-0.060632482
187	0x3cd619b8	0.02613531
188	0x3ce172f6	0.027520638
189	0xbce5290e	-0.027973678
190	0x3cb6cc1d	0.022314126
191	0x3ae29292	0.0017286113
192	0x3cc12b14	0.023580112
193	0x3cc91dbc	0.024550311
194	0xbd7fb7fa	-0.062431313
195	0x3d128593	0.035771918
196	0xbd42df57	-0.047576275
197	0x3ce8dfba	0.028426994
198	0xbc6b39b0	-0.0143570155
199	0xbc4a7cee	-0.012358887
200	0x3d4935b5	0.049123485
201	0x3c326b30	0.010889813
202	0x3cfd28ac	0.030903183
203	0x3bc4cb4c	0.00600568
204	0xbb89b810	-0.00420285
205	0xbac59abb	-0.001507602
206	0x3d3d70dd	0.046250213
207	0xbc9719e2	-0.01844496
208	0xbca92f17	-0.020652337
209	0x3d469530	0.04848212
210	0x3ce6e504	0.028185375
211	0xbcfe132e	-0.031015005
212	0x39b57853	0.0003461266
213	0x3d421f10	0.047392905
214	0x3d6295ec	0.055318758
215	0x3d3b52fb	0.045733433
216	0x3d0b74be	0.03404688
217	0xbcc72c58	-0.024313137
218	0x3d366057	0.04452547
219	0xbc560a34	-0.013063956
220	0x3d38a184	0.04507591
221	0xbd17445a	-0.03693042
222	0x3d1df3fa	0.038562752
223	0xbd407f64	-0.04699649
224	0x3b45756a	0.0030129799
225	0x3c33dd50	0.010978058
226	0xbd6f7390	-0.05845982
227	0xbd633ae4	-0.055476084
228	0xbd1b9a1f	-0.03798878
229	0xbcbb277b	-0.022845974
230	0x3bdfc320	0.0068286806
231	0x3d63110b	0.055436175
232	0xbd600aec	-0.054697916
233	0xbbb90670	-0.0056465194
234	0xbbd2d042	-0.0064335177
235	0x3a48f93c	0.00076665333
236	0xbd14e749	-0.036353383
237	0xbb6bb840	-0.0035967976
238	0xbca7c1a4	-0.020478077
239	0xbd398433	-0.04529209
240	0xbd7884ef	-0.06067365
241	0xbcd3fb1c	-0.025876574
242	0x3d48e4ac	0.049046203
243	0x3d2131b0	0.039354026
244	0xbd55ba34	-0.05217953
245	0x3d3824eb	0.044957083
246	0xbc8592a9	-0.016305285
247	0x3d8b745a	0.06809302
248	0xbd691318	-0.056902975
249	0x3d16c102	0.03680516
250	0x3c8bd364	0.017068572
251	0x3d26733d	0.040637244
252	0x3d43c59e	0.047795884
253	0x3aae99fd	0.0013321039
254	0x3bc5fa8f	0.006041832
255	0xbb42dcb4	-0.00297336

network.4.weight f4 [8, 256]
0	0xbc067c73	-0.008208382
1	0x3bdb8fc0	0.006700486
2	0x3cfdef7e	0.030997988
3	0x3c993281	0.01870084
4	0xbd425f18	-0.04745397
5	0x3d54fab0	0.051996887
6	0x3c2417c0	0.010015428
7	0xbc197e15	-0.009368439
8	0x3c819374	0.015817381
9	0xbd11de4f	-0.0356124
10	0x3d50b5ce	0.050954632
11	0x3cdc7904	0.026913173
12	0x3c8c2cba	0.017111171
13	0x3d556a26	0.052103184
14	0x3d1de69e	0.03855001
15	0xbd89f2b0	-0.06735742
16	0x3c30a248	0.010780878
17	0x3c2651eb	0.010151367
18	0xbcc9f5ae	-0.024653282
19	0x3ccce819	0.025013017
20	0x3cdbcf43	0.026832229
21	0xbb67ab33	-0.0035349845
22	0x3d5f693d	0.054543722
23	0x3d24c320	0.04022515
24	0xbd48f489	-0.049061332
25	0xbd0efafd	-0.03490733
26	0x3b961590	0.004580207
27	0x3d42590b	0.0474482
28	0xbd49bec5	-0.049254198
29	0xbd6e40f1	-0.0581674
30	0xbbaeb608	-0.0053317584
31	0x3ce4500c	0.0278702
32	0xbcd32cd3	-0.02577821
33	0xbcf3840a	-0.029726047
34	0x3d4c347a	0.049854733
35	0x3c3bd566	0.011464452
36	0xbcf5d648	-0.030009404
37	0xbd1c566e	-0.038168363
38	0x3c8968d8	0.016773626
39	0xbb8d5580	-0.004313171
40	0xbd48d875	-0.049034555
41	0x3d3d75ec	0.046255037
42	0x3d66b237	0.056322303
43	0xbbd46de8	-0.0064828284
44	0x3d4a2eb6	0.049360953
45	0x3ad49abe	0.0016220433
46	0xbcf128f1	-0.029438468
47	0xbc613e30	-0.013747737
48	0xbcd8919f	-0.026436625
49	0xbb85cfac	-0.0040835943
50	0xbcff3110	-0.031151325
51	0xbd0c5be6	-0.03426733
52	0x3d21bd0e	0.039486937
53	0x3cca479e	0.024692353
54	0x3d54fd48	0.05199936
55	0xbd152632	-0.03641338
56	0x3d32a496	0.043613993
57	0x3d4bc724	0.049750462
58	0xbd164e34	-0.036695674
59	0xbd3ae2f9	-0.045626614
60	0x3d1807a0	0.037116647
61	0x3ce30e94	0.027716912
62	0xbd5d3715	-0.05400761
63	0x3bf48ffd	0.007463454
64	0xbc9849a0	-0.018589795
65	0x3d52d641	0.05147386
66	0x3cd4cc82	0.025976423
67	0xbd528b79	-0.051402543
68	0x3ccdccd5	0.025122086
69	0xbd7e27be	-0.06204962
70	0x3cd823aa	0.026384193
71	0xbcfedfd9	-0.031112598
72	0xbd61e286	-0.05514767
73	0x3ce850cd	0.028358841
74	0xbbd6e0cb	-0.006557559
75	0x3cbfc5ee	0.02340981
76	0x3cca591d	0.024700696
77	0x3c97b443	0.018518573
78	0x3d0daeac	0.03459041
79	0xbae59740	-0.001751639
80	0x3c07ee50	0.008296564
81	0x3b7238d1	0.0036960135
82	0x3c5804e3	0.013184759
83	0x3ccccda3	0.025000399
84	0xbbcb5880	-0.0062056184
85	0xbbf6e4c0	-0.0075345933
86	0xbd4f908e	-0.050674967
87	0x3c57e04e	0.013176037
88	0xbd2792c3	-0.040911447
89	0x3d20cf9d	0.039260495
90	0x3cce038d	0.025148178
91	0xbbef29ee	-0.0072986996
92	0x3c835160	0.016030014
93	0x3d577205	0.052598972
94	0x3c7f24a5	0.015572702
95	0xbd582fe9	-0.052780066
96	0xbd280952	-0.041024514
97	0x3d3c1f2a	0.045928158
98	0xbd4110ce	-0.047135167
99	0x3ca2a359	0.01985328
100	0x3cca7ae8	0.02471681
101	0xbcd761ab	-0.026291689
102	0xbd7a4953	-0.061105084
103	0x3d0a4131	0.033753578
104	0xbc67b0ba	-0.014141256
105	0xbd860695	-0.06544224
106	0xbd1bdb7e	-0.03805112
107	0x3d2ced12	0.042218275
108	0xbd53e3fe	-0.051731102
109	0x3c9e8f3b	0.019355407
110	0x3c86caa7	0.016454054
111	0xbc4285be	-0.011872707
112	0xbd5e2303	-0.05423261
113	0xbca0ec72	-0.019643996
114	0x3d2ab628	0.041677624
115	0xbd54570a	-0.05184082
116	0x3cd30f2c	0.02576407
117	0xbc935bd8	-0.01798813
118	0x3d0bd396	0.03413733
119	0xbd2c4489	-0.042057548
120	0x3d304934	0.043038562
121	0xbd5d3a08	-0.05401042
122	0x3d2f68ff	0.04282474
123	0xbd18654a	-0.03720597
124	0x3be29496	0.0069146855
125	0x3c7392d6	0.014866551
126	0x3d299195	0.041398603
127	0x3d53db1d	0.051722635
128	0x3b0aa9c6	0.0021158322
129	0xbcf3358c	-0.02968862
130	0xbd54c1d5	-0.051942665
131	0xbcc2ca6a	-0.02377816
132	0xbcd65eb4	-0.026168205
133	0x3c9515b1	0.01819882
134	0xbcdfd6bd	-0.027324075
135	0x3ce1a482	0.027544264
136	0xbb805bd6	-0.0039171977
137	0x3d6ba36d	0.0575289
138	0x3cbeaa13	0.023274457
139	0x3b926f21	0.004468814
140	0x3c37c9da	0.011217559
141	0xbd59481e	-0.053047292
142	0xbce846ee	-0.028354134
143	0x3c915632	0.017741296
144	0xbbbf41bc	-0.0058366936
145	0xbc1056cb	-0.008809756
146	0x3d050909	0.03247932
147	0x3c2899ab	0.010290544
148	0x3c8ce2b7	0.01719795
149	0xbd4bbb14	-0.04973896
150	0x3a23eaf6	0.00062529685
151	0x3d08de2c	0.033415005
152	0x3cccf551	0.02501932
153	0x3ce067d9	0.027393268
154	0xbcfe590e	-0.031048324
155	0xbd744880	-0.059639454
156	0x3d1123ce	0.035434537
157	0x3c2bc270	0.010483369
158	0xbd5d6a2c	-0.05405633
159	0x3c8d0376	0.017213564
160	0x3d58c858	0.052925438
161	0xbcf9e788	-0.03050591
162	0xbc2116c8	-0.009832092
163	0x3c31eff4	0.010860432
164	0x3c5aff39	0.013366514
165	0x3c8cefa4	0.017204113
166	0xbc427508	-0.011868723
167	0xbd087a6d	-0.03331988
168	0xbd66c68e	-0.0563417
169	0x3c8e4f08	0.01737167
170	0x3d246cc6	0.040142797
171	0xbbee8870	-0.007279448
172	0x3d184c74	0.037182286
173	0x3ca5cfe4	0.020240732
174	0xbb053d26	-0.0020330637
175	0xbd60046e	-0.054691724
176	0x3b81f146	0.0039655296
177	0xbc46324f	-0.012096955
178	0xbc9df458	-0.019281551
179	0x3d16ee06	0.03684809
180	0xbccf435c	-0.025300674
181	0x3c9634d5	0.01833574
182	0xbd537229	-0.051622543
183	0x3a785eb5	0.00094745617
184	0x3d08cfee	0.033401422
185	0x3cbdeb88	0.0231836
186	0x3d766c6e	0.060162
187	0xbd635e34	-0.05550976
188	0x3cc0cf03	0.02353621
189	0xbd6866a4	-0.05673851
190	0x3ca0ae4a	0.019614358
191	0x3cacb1cd	0.021080876
192	0x3d7a919a	0.061174013
193	0x3d4bc6a6	0.049749993
194	0xbca37ca0	-0.019956887
195	0xbc3a4349	-0.011368581
196	0x3d0eaebb	0.034834605
197	0xbcf220ba	-0.02955662
198	0x3c903570	0.017603606
199	0xbce1c9f6	-0.027562123
200	0x3cef4db9	0.029211866
201	0xbc9868c0	-0.018604636
202	0xbd26bd7c	-0.04070805
203	0xbd67883d	-0.05652641
204	0x3c1eb94a	0.009687731
205	0x3d420dc3	0.047376405
206	0x3d1feac7	0.03904226
207	0x3d2558c3	0.040367853
208	0x3c456bab	0.012049596
209	0x3cbaf143	0.02282012
210	0x3d17fd2f	0.03710669
211	0xbcbd27a4	-0.023090191
212	0x3b9034a7	0.004400808
213	0x3d523820	0.051323056
214	0x3cf37cd1	0.029722603
215	0x3d0f3f37	0.034972396
216	0xbd3b7666	-0.04576721
217	0x3d592cae	0.053021125
218	0x3d4b9d0d	0.049710322
219	0xbd0dffba	-0.034667708
220	0x3d63d06f	0.0556187
221	0x3d00108c	0.03126578
222	0x3caab4e4	0.020838208
223	0xbaeb47a1	-0.0017950424
224	0xba8e1c50	-0.0010842178
225	0xbcb4cdb8	-0.02207075
226	0x3cfa6896	0.030567449
227	0xbcbfdbcc	-0.023420237
228	0x3d2076e6	0.03917589
229	0xb9aaba33	-0.00032563656
230	0x3d3b13e4	0.045673266
231	0x3d4fab34	0.05070038
232	0xbcf9128f	-0.030404357
233	0x3d394020	0.04522717
234	0xbd3e05b7	-0.04639217
235	0xbcef3076	-0.029197913
236	0x3d255f4e	0.040374093
237	0x3d0db01c	0.03459178
238	0x3d244ac0	0.04011035
239	0xbc17ed11	-0.00927283
240	0xbc9192e9	-0.017770248
241	0x3c18fb68	0.009337284
242	0xbd204e68	-0.039137274
243	0xbd468cf3	-0.048474263
244	0x3d6d513e	0.057938807
245	0xbb57e7f9	-0.0032944663
246	0x3d647bd3	0.05578215
247	0xbc456720	-0.012048513
248	0x3c0fffc8	0.00878901
249	0xbb5e7332	-0.0033943173
250	0x3d42786a	0.047478117
251	0xbd54dfdb	-0.051971298
252	0xbb0478cc	-0.0020213602
253	0xb9602178	-0.00021374773
254	0x3d42c7a4	0.047553673
255	0xbd847540	-0.06467676

network.4.bias f4 [8]
0	0x3be3057b	0.0069281436
1	0xbc895ace	-0.016766932
2	0x3b80a0d4	0.003925422
3	0x3d946d8c	0.07247457
4	0x3c888b66	0.016668033
5	0xbd539511	-0.051655833
6	0xbced841f	-0.028993664
7	0xbd9b4a0d	-0.075824834

exp_avg f4 [256, 26]
0	0xba9ad410	-0.0011812467
1	0x3bccd1cf	0.006250597
2	0xba727af8	-0.0009249891
3	0x3c02fe70	0.007995233
4	0xbc2a7b40	-0.010405362
5	0x3c2daf87	0.010600931
6	0x3c6ba5f9	0.014382833
7	0x3d90632a	0.07050164
8	0x3cb5d453	0.02219597
9	0x3c31ad16	0.01084449
10	0x3cd02ad4	0.025411047
11	0x3cbf1b16	0.023328345
12	0xbb645444	-0.0034840265
13	0x3d244495	0.040104467
14	0xbb1dc944	-0.0024076262
15	0x3cac8ff7	0.021064742
16	0x3d473e3e	0.048643343
17	0x3d003fa9	0.03131071
18	0x3d85d93f	0.06535577
19	0x3d9541de	0.07287954
20	0x3c89ed97	0.016836924
21	0x3cd1a600	0.02559185
22	0x3ca84e16	0.020545047
23	0x3c0902ba	0.0083624665
24	0x3cde6df4	0.02715204
25	0x3cd9d895	0.026592532
26	0x00000000	0.0
27	0x10bfb7ad	7.5619214e-29
28	0x34580c58	2.0121058e-07
29	0x00000000	0.0
30	0x00000000	0.0
31	0xb425a0fc	-1.5425388e-07
32	0xb4ae6b8d	-3.248828e-07
33	0x366e810e	3.5539883e-06
34	0x2a0a7669	1.2297944e-13
35	0x2ae6abbe	4.0975377e-13
36	0x3630cab4	2.6344032e-06
37	0x369ef2df	4.737041e-06
38	0x00000000	0.0
39	0x3683d1da	3.928534e-06
40	0x36bc5052	5.612187e-06
41	0x36b1f14a	5.303101e-06
42	0xb4393709	-1.724949e-07
43	0x368aa813	4.132287e-06
44	0xb650e791	-3.1129205e-06
45	0x36160f8e	2.2360796e-06
46	0xb5af5bfd	-1.3065288e-06
47	0x3676cfa8	3.6777728e-06
48	0x364572f4	2.94222e-06
49	0x35a48a72	1.2259245e-06
50	0x363c5052	2.8060936e-06
51	0x364282f5	2.898448e-06
52	0x00000000	0.0
53	0x00000000	0.0
54	0x16cab2e4	3.2747756e-25
55	0x00000000	0.0
56	0x00000000	0.0
57	0x051634b4	7.062646e-36
58	0x0569b312	1.09884974e-35
59	0x17f1a44c	1.5615734e-24
60	0x00000000	0.0
61	0x00000000	0.0
62	0x18b400dd	4.652978e-24
63	0x17dda85c	1.432429e-24
64	0x00000000	0.0
65	0x1889696a	3.552011e-24
66	0x18ba7cc5	4.820586e-24
67	0x18057c59	1.7252627e-24
68	0x18ea9c47	6.0645382e-24
69	0x17eb9026	1.5222907e-24
70	0x181b1e2e	2.0048517e-24
71	0x189b6d81	4.017713e-24
72	0x18c22e34	5.0194478e-24
73	0x18444d75	2.5371512e-24
74	0x183e0c93	2.4563273e-24
75	0x179e5fcf	1.0234696e-24
76	0x18444d75	2.5371512e-24
77	0x18444d75	2.5371512e-24
78	0x1f60ec2e	4.7629208e-20
79	0x1f948f65	6.2917664e-20
80	0x1f404de3	4.0722008e-20
81	0x1f390057	3.9175555e-20
82	0x1ed633dc	2.267958e-20
83	0x1fa6afd4	7.059462e-20
84	0x1fb91104	7.83787e-20
85	0x1fc40716	8.302095e-20
86	0x1fa38316	6.925005e-20
87	0x1f9e3e30	6.7018483e-20
88	0x1f9324b8	6.231767e-20
89	0x1f8b786e	5.9068024e-20
90	0x1ee9a439	2.4737755e-20
91	0x1f8a60de	5.8605527e-20
92	0x1fab975e	7.267173e-20
93	0x1e85137c	1.4089981e-20
94	0x1f7f2bd9	5.403462e-20
95	0x1f855825	5.6473514e-20
96	0x1f42cb5f	4.1249323e-20
97	0x1fb4a346	7.650308e-20
98	0x1f511fb7	4.4283705e-20
99	0x1f45aefc	4.1861116e-20
100	0x1f45aefc	4.1861116e-20
101	0x1ecabc37	2.1465426e-20
102	0x1f45aefc	4.1861116e-20
103	0x1f45aefc	4.1861116e-20
104	0x3c187392	0.009304898
105	0x3c26f6c0	0.010190666
106	0x3c4e737f	0.012600779
107	0x3c0b79b6	0.008512905
108	0x3c88dfa6	0.016708206
109	0x3d2a4e0c	0.041578338
110	0x3d1769e1	0.03696621
111	0x3d4bd67f	0.049765106
112	0x3d06b8e6	0.032891177
113	0x3cdc02d0	0.02685681
114	0x3d069067	0.032852557
115	0x3d245d8c	0.040128276
116	0x3c90dca1	0.017683329
117	0x3d444800	0.047920227
118	0x3dba7cce	0.09105836
119	0x3ce3ed5d	0.027823145
120	0x3d014555	0.03156026
121	0x3d627389	0.055285964
122	0x3c9c728c	0.019097589
123	0x3d3e14d4	0.046406582
124	0x3d9b4caf	0.075829856
125	0x3cf8cc72	0.030370925
126	0x3cd4eef4	0.025992848
127	0x3c45d6a8	0.012075104
128	0x3d10683c	0.035255656
129	0x3d0ea0cd	0.03482132
130	0x2954b215	4.7227918e-14
131	0x29a925ef	7.511688e-14
132	0x381bb529	3.71236e-05
133	0x28b1fe86	1.976133e-14
134	0x28c9b6ae	2.2394707e-14
135	0x36dd0f4a	6.588093e-06
136	0x372bcb1a	1.02396825e-05
137	0x39d91888	0.00041407743
138	0x367be81f	3.7537027e-06
139	0x36a696fb	4.964762e-06
140	0x378c7c55	1.6747197e-05
141	0x3989266d	0.00026159306
142	0x294700d6	4.41876e-14
143	0x39c13955	0.00036854544
144	0x3923ec74	0.00015632977
145	0x39f97f06	0.0004758762
146	0x39e994c2	0.00044552056
147	0x392d8472	0.00016547905
148	0x39e47b0e	0.00043579232
149	0x396077e2	0.00021406965
150	0x39732816	0.00023189219
151	0x3919b34a	0.00014658007
152	0x38f5ebaf	0.0001172641
153	0x384cef0f	4.886003e-05
154	0x394c79e7	0.00019500368
155	0x393870c1	0.00017589612
156	0xba4de6c8	-0.00078545185
157	0x3c376a2a	0.011194745
158	0x3b5c8244	0.003364698
159	0x3c2d5b63	0.01058087
160	0xbb70c170	-0.0036736391
161	0x3b3d24d6	0.0028861067
162	0x3a8a3ec8	0.0010547275
163	0x3bc55ad2	0.0060227895
164	0x3c44ddea	0.012015799
165	0x3b0f0fbe	0.0021829451
166	0xbc5b7f53	-0.013397056
167	0x3a8f4273	0.0010929838
168	0x396bcba0	0.00022487203
169	0xbb60f4c9	-0.003432559
170	0xbd07d86b	-0.033165377
171	0xbbe70db4	-0.007051194
172	0x3c3f32ff	0.011669873
173	0x3a86ee04	0.0010294323
174	0x3c8e4101	0.01736498
175	0x3c85027d	0.016236538
176	0xbcc9e032	-0.024643037
177	0xbb3d48a6	-0.0028882413
178	0xbb92ec4f	-0.0044837366
179	0xbb11aa44	-0.002222673
180	0xbb432be8	-0.002978081
181	0xbb494237	-0.0030709633
182	0xbacae80c	-0.0015480532
183	0x3b8b9be3	0.0042605265
184	0x3ab5f050	0.0013880823
185	0x3b8d9e0e	0.00432182
186	0xbaec67f8	-0.0018036356
187	0xbb4caea2	-0.003123202
188	0xbbcb1058	-0.0061970167
189	0xbc1f7d18	-0.0097344145
190	0x3a58f99c	0.0008276941
191	0xbb83adcf	-0.0040185223
192	0xbc647372	-0.01394354
193	0xbac2d6c2	-0.0014865028
194	0xba52e284	-0.0008044618
195	0xbc1bcea8	-0.00950972
196	0xbc794e65	-0.015216445
197	0xbc5c999f	-0.0134643605
198	0xbbf34f09	-0.007425193
199	0xbb89c35b	-0.0042041964
200	0xbadb9cce	-0.0016755105
201	0xb99889a7	-0.00029094258
202	0xbc90724d	-0.017632628
203	0xbbc528c1	-0.006016821
204	0xbbd1e4e8	-0.0064054616
205	0xbb390f3c	-0.002823784
206	0xbbd4750a	-0.0064836787
207	0xbbcce572	-0.006252938
208	0x3b06ca80	0.0020567477
209	0x3b86c034	0.004112268
210	0x3a20f554	0.00061400724
211	0x3a0cadd4	0.00053664786
212	0x3c187268	0.00930462
213	0x3cee2049	0.02906813
214	0x3cb4a701	0.02205229
215	0x3d0d2fc2	0.034469374
216	0x3cc815aa	0.024424393
217	0x3ca2e2f4	0.01988361
218	0x3bdda1f3	0.0067636906
219	0x3d0d8b9f	0.03455698
220	0x3c408b24	0.011751924
221	0x3cb47c2a	0.022031862
222	0x3cb7b62a	0.02242573
223	0x3b987db5	0.0046536573
224	0x3cacc0a4	0.021087952
225	0x3cf96658	0.03044431
226	0x3ba86620	0.0051391274
227	0x3cf11c84	0.029432543
228	0x3c9f1a42	0.0194217
229	0x3c551b72	0.013007032
230	0x3c4f7214	0.012661476
231	0x3bd42926	0.006474632
232	0x3c813462	0.015772048
233	0x3c778245	0.015106742
234	0x00000000	0.0
235	0x00000000	0.0
236	0x00000000	0.0
237	0x00000000	0.0
238	0x00000000	0.0
239	0x00000000	0.0
240	0x00000000	0.0
241	0x00000000	0.0
242	0x00000000	0.0
243	0x00000000	0.0
244	0x00000000	0.0
245	0x00000000	0.0
246	0x00000000	0.0
247	0x00000000	0.0
248	0x00000000	0.0
249	0x00000000	0.0
250	0x00000000	0.0
251	0x00000000	0.0
252	0x00000000	0.0
253	0x00000000	0.0
254	0x00000000	0.0
255	0x00000000	0.0

exp_avg_sq f4 [256, 26]
0	0x3af1e9fd	0.0018456575
1	0x3ac73732	0.0015198945
2	0x3ae80356	0.001770119
3	0x3adf3178	0.0017028293
4	0x3ac90a45	0.0015338144
5	0x3be08fd4	0.006853083
6	0x3be62c0a	0.007024293
7	0x3c973c50	0.018461376
8	0x3bcd7164	0.0062696207
9	0x3bd1bbe7	0.0064005735
10	0x3c17004f	0.009216382
11	0x3c2238d9	0.009901249
12	0x3b288e1f	0.0025719476
13	0x3c741b35	0.014899065
14	0x3c833781	0.016017677
15	0x3c06765f	0.008206933
16	0x3c991c5c	0.01869028
17	0x3c9ad725	0.018901417
18	0x3cab07cd	0.020877743
19	0x3c9baddf	0.019003807
20	0x3ca84135	0.020538906
21	0x3bd57662	0.0065143565
22	0x3baece67	0.0053346637
23	0x3a8d5c4b	0.0010784952
24	0x3bec7a59	0.0072167334
25	0x3be6e425	0.00704624
26	0x00000000	0.0
27	0x3041b26d	7.046655e-10
28	0x34383ae1	1.7157755e-07
29	0x00000000	0.0
30	0x00000000	0.0
31	0x328a68d7	1.611299e-08
32	0x32f0fc48	2.8054401e-08
33	0x37510387	1.2458192e-05
34	0x32213847	9.384229e-09
35	0x325d8828	1.2894851e-08
36	0x364a29e8	3.0124738e-06
37	0x3679b7a2	3.721078e-06
38	0x00000000	0.0
39	0x373599c2	1.082424e-05
40	0x373fbe53	1.14288005e-05
41	0x363518bc	2.69855e-06
42	0x36cf7277	6.182406e-06
43	0x37ca1ba3	2.4093146e-05
44	0x37193088	9.13081e-06
45	0x36d807c6	6.4382066e-06
46	0x36847169	3.9471092e-06
47	0x365a5e4e	3.2539424e-06
48	0x36190484	2.2801405e-06
49	0x34d34b83	3.9356755e-07
50	0x369db8c7	4.7004755e-06
51	0x368c26c2	4.176837e-06
52	0x00000000	0.0
53	0x00000000	0.0
54	0x3211cc72	8.486596e-09
55	0x00000000	0.0
56	0x00000000	0.0
57	0x2c01672d	1.8389277e-12
58	0x2c9cad8d	4.4530547e-12
59	0x3522df5a	6.067472e-07
60	0x00000000	0.0
61	0x00000000	0.0
62	0x36535ad5	3.1494321e-06
63	0x354b3b0c	7.570932e-07
64	0x00000000	0.0
65	0x36063b66	2.000213e-06
66	0x363aecc4	2.7853976e-06
67	0x33f17fa3	1.1245654e-07
68	0x369440d1	4.4182893e-06
69	0x3529c6fd	6.324697e-07
70	0x34f377ca	4.5349435e-07
71	0x3623d50b	2.44129e-06
72	0x367ef93c	3.7994023e-06
73	0x358582a3	9.947292e-07
74	0x35862407	9.994263e-07
75	0x345c22e2	2.0501787e-07
76	0x3588f8bb	1.020518e-06
77	0x3588f8bb	1.020518e-06
78	0x3187a4c5	3.9477492e-09
79	0x31ecb33a	6.8888797e-09
80	0x31466483	2.8869926e-09
81	0x31378860	2.6707525e-09
82	0x30760b66	8.9510477e-10
83	0x3214fe37	8.672536e-09
84	0x3237a97b	1.0690537e-08
85	0x324ef6b0	1.2046868e-08
86	0x320f5f24	8.345328e-09
87	0x320647cf	7.816154e-09
88	0x31fef9f1	7.420788e-09
89	0x31d139d2	6.089274e-09
90	0x30925d11	1.0649349e-09
91	0x31dfa7a4	6.5092127e-09
92	0x321fbc22	9.2977945e-09
93	0x2fbe338d	3.4597428e-10
94	0x31bd9631	5.5176987e-09
95	0x31e1f402	6.5761023e-09
96	0x31943115	4.312947e-09
97	0x32356f7f	1.0560938e-08
98	0x31765eb0	3.5851535e-09
99	0x31643821	3.3210272e-09
100	0x315b4aad	3.1911143e-09
101	0x30632a2c	8.264205e-10
102	0x31643821	3.3210272e-09
103	0x31643821	3.3210272e-09
104	0x39abc2b1	0.00032760718
105	0x395a4c17	0.00020818446
106	0x39ad78ef	0.00033087234
107	0x3972df61	0.00023162134
108	0x39aeaacd	0.00033315123
109	0x3ac8dba4	0.0015324247
110	0x3abee558	0.0014564199
111	0x3bddcb41	0.0067686145
112	0x3a9d39ce	0.0011995377
113	0x3aa9292f	0.001290595
114	0x3b717459	0.003684303
115	0x3b822553	0.0039717345
116	0x3a15d716	0.0005715949
117	0x3bbcbc3a	0.005759743
118	0x3bc822b4	0.0061076526
119	0x3b0bd77e	0.002133816
120	0x3bfe23b6	0.007755722
121	0x3bda2db0	0.0066582784
122	0x3bfb2842	0.007664711
123	0x3c07bffb	0.008285518
124	0x3bc4b10b	0.0060025505
125	0x3b2511c4	0.002518759
126	0x3b0788db	0.0020680937
127	0x39da3db8	0.00041626184
128	0x3b38c4b8	0.0028193425
129	0x3b342856	0.0027489862
130	0x3599d1fb	1.1460501e-06
131	0x3590367c	1.0744693e-06
132	0x361080cf	2.1532649e-06
133	0x35b93d7c	1.3801468e-06
134	0x361dba11	2.3503128e-06
135	0x36467c80	2.9576768e-06
136	0x366c9c52	3.525773e-06
137	0x3811d7a3	3.477152e-05
138	0x36757ce9	3.6580552e-06
139	0x36880c64	4.0545583e-06
140	0x35ad3e94	1.2907717e-06
141	0x375315b9	1.2581638e-05
142	0x3615262e	2.2224954e-06
143	0x37c00dd0	2.2894616e-05
144	0x3761b282	1.3452607e-05
145	0x372989a2	1.010523e-05
146	0x380bd085	3.333438e-05
147	0x378bc123	1.6660028e-05
148	0x382b3913	4.082273e-05
149	0x382359e3	3.8945942e-05
150	0x3812edab	3.5030458e-05
151	0x36972446	4.5043735e-06
152	0x3651664e	3.1202976e-06
153	0x351293fa	5.460457e-07
154	0x36e6293e	6.8593354e-06
155	0x36c82a0f	5.9653607e-06
156	0x3ab59876	0.0013854641
157	0x3a9673c3	0.0011478591
158	0x3aa9dc09	0.0012959252
159	0x3aa7a5c2	0.0012790489
160	0x3a893766	0.001046878
161	0x3bb0d084	0.0053959507
162	0x3bbb9545	0.0057245814
163	0x3c882598	0.016619489
164	0x3ba7d1a7	0.005121428
165	0x3ba792ec	0.00511395
166	0x3c061d0a	0.008185634
167	0x3c157e20	0.009124309
168	0x3b044cbf	0.0020187346
169	0x3c5ba65f	0.013406365
170	0x3c7809bf	0.015139042
171	0x3be2f45c	0.0069261026
172	0x3c8c8738	0.017154321
173	0x3c86b183	0.016442066
174	0x3c88cbac	0.01669868
175	0x3c90342d	0.017603004
176	0x3c8984c6	0.016786944
177	0x3bbe1ac2	0.0058015296
178	0x3b9b038f	0.004730649
179	0x3a7c7900	0.00096310675
180	0x3bd4a440	0.0064893067
181	0x3bcf72f9	0.0063308445
182	0x3a5272d6	0.0008027976
183	0x3a33139f	0.0006831232
184	0x3a404988	0.0007335176
185	0x3a54a73a	0.0008112077
186	0x3a27df25	0.00064037956
187	0x3b4d05b6	0.0031283922
188	0x3b5d3b6d	0.0033757344
189	0x3c0aca9e	0.008471159
190	0x3b442a15	0.002993231
191	0x3b45a657	0.003015896
192	0x3b8b2524	0.004246371
193	0x3b98fe1b	0.0046689636
194	0x3aa76672	0.001277162
195	0x3be148ea	0.006875147
196	0x3c042af3	0.0080668805
197	0x3b871ada	0.004123074
198	0x3c0d541d	0.008626011
199	0x3c0c1a00	0.008551121
200	0x3c09662e	0.008386178
201	0x3c0cf6ac	0.008603733
202	0x3c08a2f3	0.008339631
203	0x3b46b317	0.0030319148
204	0x3b22d6dd	0.0024847307
205	0x3a015e25	0.0004934988
206	0x3b5bd8f7	0.003354607
207	0x3b56fb47	0.0032803582
208	0x3884b98c	6.328811e-05
209	0x38a8ee0e	8.0552054e-05
210	0x3889805f	6.55658e-05
211	0x3823345e	3.8911e-05
212	0x38999b4c	7.324535e-05
213	0x3a66b6b2	0.00088010274
214	0x3a6f6c13	0.0009133231
215	0x3bed2190	0.007236667
216	0x3a3bb204	0.000716001
217	0x3a51296d	0.000797889
218	0x3b7f59e5	0.0038963493
219	0x3b98695a	0.0046512308
220	0x39a7b8b0	0.00031990325
221	0x3bcbf12e	0.006223819
222	0x3bcc888a	0.0062418627
223	0x3afbfdbf	0.0019225403
224	0x3c03b8a6	0.008039629
225	0x3c0ddf9d	0.008659271
226	0x3c06ca25	0.008226906
227	0x3bfca62d	0.0077102394
228	0x3bda4fb0	0.0066623315
229	0x3b32569b	0.0027212265
230	0x3b1270c4	0.0022345046
231	0x39f13435	0.00046006
232	0x3b467dbc	0.0030287346
233	0x3b419d71	0.0029543305
234	0x00000000	0.0
235	0x00000000	0.0
236	0x00000000	0.0
237	0x00000000	0.0
238	0x00000000	0.0
239	0x00000000	0.0
240	0x00000000	0.0
241	0x00000000	0.0
242	0x00000000	0.0
243	0x00000000	0.0
244	0x00000000	0.0
245	0x00000000	0.0
246	0x00000000	0.0
247	0x00000000	0.0
248	0x00000000	0.0
249	0x00000000	0.0
250	0x00000000	0.0
251	0x00000000	0.0
252	0x00000000	0.0
253	0x00000000	0.0
254	0x00000000	0.0
255	0x00000000	0.0
