models/reinforce/reinforce_large/final_model.pth (torch, 904574 bytes, 18 tensors)

network.0.weight f4 [256, 26]
000000 fd 10 21 be cb e7 a1 3d de 5a 09 3e 4d 76 d1 bd
       -0.15729137 0.07905539 0.1341357 -0.10227642
000010 34 24 c8 bc eb db 4f 3e 4f 2b 95 bc b3 30 63 3c
       -0.024431325 0.20298736 -0.018209128 0.013866591
000020 69 e2 2b 3e 22 1e 7e bc 4d 49 0e be 43 5c 7b bc
       0.16785587 -0.015510114 -0.1389515 -0.015341821
000030 e9 45 3a 3e 37 90 fa bd 24 3f 18 be c9 83 82 3e
       0.18190731 -0.12234538 -0.14867836 0.2549117
000040 2e 06 2b 3d dd 8e 9e 3c 11 30 52 3e af cd 96 bc
       0.04175394 0.019355232 0.20526148 -0.018408624
000050 b8 7c 59 3e a0 e3 44 3e 03 ec 49 3e 3d 22 4e 3e
       0.21238983 0.19227457 0.19718938 0.20130248
000060 f4 f5 ec bd 06 20 06 be a0 7a b9 bb 06 80 22 3e
       -0.11570349 -0.13098153 -0.00566037 0.1586915
000070 1b ee 1a bd 84 01 94 bd 20 b1 26 3c 7a 5b c8 bd
       -0.03782473 -0.072268516 0.010174066 -0.09783073
000080 cb b6 1f be 66 20 bd bd a0 74 11 bd c3 f4 48 3e
       -0.15597074 -0.09234695 -0.035511613 0.19624619
000090 05 ad ad bd f2 51 3c 3d 77 d4 12 be 92 33 95 3d
       -0.084802665 0.045976587 -0.14338861 0.07285227
0000a0 7d 89 98 3c 0e 58 ea 3c 13 4a 07 be 99 21 08 3e
       0.018620247 0.02860644 -0.13211851 0.13294066
0000b0 5c 80 2d bd ef dd 87 bd 56 31 4a be 40 3d ac bd
       -0.04235874 -0.06634127 -0.19745383 -0.0841012
0000c0 14 1b fc bd a9 3c 49 be 36 1d cd 3d 2f 06 49 3d
       -0.12309852 -0.19652046 0.10015337 0.049078163
0000d0 4c 24 a9 bd 2c b5 13 bd 50 1c 14 be 03 90 b7 bd
       -0.08258876 -0.03606145 -0.14463925 -0.08963015
0000e0 f8 19 47 be 60 51 f0 bd 30 86 21 be 6a ff 9f bd
       -0.194435 -0.11734271 -0.15773845 -0.07812388
0000f0 7a f6 d7 3d 47 5b 22 be 80 03 1b 3e 2f 67 e6 bd
       0.105450585 -0.15855132 0.15138054 -0.112501495
000100 f4 24 65 bd 8e b2 ed bd e8 70 2a 3e 0d 84 2a be
       -0.055943444 -0.11606322 0.16644633 -0.16651936
000110 6b 5a e4 3c 8d 12 e7 bd c6 e3 17 be 98 06 93 3d
       0.027875146 -0.11282835 -0.14832982 0.07178992
000120 d9 80 69 3c 44 1e e0 3c 5f f4 fa bd ac 17 07 3d
       0.014251911 0.027358182 -0.12253641 0.03298156
000130 92 4c 67 3d b2 a3 5f 3b b7 43 b7 3d 64 9a 35 3d
       0.056469508 0.003412467 0.089484625 0.04433669
000140 db c3 1e 3e 6d 6f ca 3c 39 29 5e bd c9 32 e4 3d
       0.155044 0.024711335 -0.05423853 0.11142499
000150 6d 45 b4 3d 61 e9 42 be b8 a5 a9 3c 62 41 01 be
       0.088023044 -0.1903434 0.020708904 -0.12622598
000160 83 bb 0e 3e 0d f7 bb bd 1c af 11 be fb 7e c0 bd
       0.13938718 -0.091779806 -0.14226955 -0.093992196
000170 fc 4a c2 bd d0 30 27 be 8f 67 1c 3d 0f b9 d3 3c
       -0.094869584 -0.16327214 0.0381847 0.025845079
000180 54 2a ad bd 81 8c c4 3a 5d 9f 1d bd 6d 3f 30 bd
       -0.08455339 0.0014995487 -0.03848206 -0.043029238
000190 fb 17 e2 3c 5b fc 72 bd eb f4 09 bd 63 08 ad 3c
       0.027599325 -0.059322696 -0.033680838 0.021122163
0001a0 94 0d c7 3d c3 21 2b be 00 e7 15 3d d6 bc 40 be
       0.09719387 -0.16712098 0.036597252 -0.18822035
0001b0 42 b9 12 3e 04 fe b4 bc 07 ab de bd 92 66 4d 3d
       0.14328483 -0.02209378 -0.108724646 0.050146647
0001c0 0b d1 e6 bc 51 87 5f bd 2d d6 08 be e7 dc 30 3d
       -0.028175851 -0.054572407 -0.13362952 0.04317942
0001d0 f8 92 c1 3d d9 f1 49 3e 97 62 45 be bb 31 8d bd
       0.0945186 0.19721164 -0.1927589 -0.06894251
0001e0 16 3d 26 3e 94 2f 92 bc 35 ea 13 3e 13 87 09 3e
       0.1623424 -0.017844953 0.14444812 0.13430433
0001f0 cd 02 17 be 99 89 28 3e 50 95 e3 3d 45 e2 d1 bd
       -0.14747162 0.1645874 0.111124635 -0.102482356
000200 6b d2 13 be 32 34 8f bc 23 d3 d6 3c e3 f5 ec bd
       -0.14435737 -0.017480943 0.026223725 -0.11570337
000210 4a 51 27 3e 7d e2 8d bd 2c 65 10 3e 04 90 f2 bd
       0.16339603 -0.06927965 0.14101094 -0.11843875
000220 9c d2 17 be 5d e7 86 3d ff cd 07 3e 43 9b 99 3c
       -0.14826435 0.06587098 0.13262175 0.018750792
000230 8e 62 45 be 23 84 d4 3d 1d 7c 9a 3d 42 60 44 be
       -0.19275877 0.103767656 0.07543204 -0.19177344
000240 60 02 00 be bd b3 c6 3d 8a 5c 68 3d de 73 c6 bd
       -0.12500906 0.09702251 0.056728877 -0.09690069
000250 92 1a b6 3d e0 4d 4a 3d a8 1c 33 3d c0 e8 d7 bd
       0.08891787 0.049390674 0.0437285 -0.105424404
000260 43 0e cc bd 85 b5 4e be f6 b6 53 be 69 4a 55 bd
       -0.09963658 -0.20186432 -0.20675263 -0.052072916
000270 19 12 85 3d 53 5a ff 3d ce ef 20 3e 08 46 cd bd
       0.064975925 0.124684 0.15716478 -0.10023123
000280 c2 55 23 3e 58 18 25 3d ac 5d a5 3d 89 7d 01 3b
       0.15950683 0.04030642 0.08074507 0.0019758663
000290 7d 0d e9 bc 18 de 61 3e 77 9b ed 3d ab 6c 39 3c
       -0.028448815 0.22057378 0.11601918 0.011317412
0002a0 40 84 b6 bd fc 41 10 be af e4 d2 3d f9 36 01 3e
       -0.089119434 -0.14087671 0.10297524 0.12618627
0002b0 33 2c 98 3c b7 bf 75 bc ae 8a 6b 3c 07 42 09 3d
       0.018575763 -0.014999322 0.0143763255 0.033510234
0002c0 ad 7c 85 3d 0d 80 cb 3d 53 01 19 be 19 9b a2 bd
       0.06517921 0.09936533 -0.14941911 -0.07939739
0002d0 95 40 1a 3e 8c c5 0d 3e 83 8d f1 3d 4e 75 bb 3d
       0.15063699 0.1384489 0.11794569 0.091532335
0002e0 cb 8c ab 3d 6e 9b 37 be 20 24 df 3d bd 15 37 be
       0.083764635 -0.17930385 0.10895562 -0.17879386
0002f0 04 de ae 3c a1 75 27 bd 04 8b 45 3e c9 19 29 3e
       0.0213461 -0.040883664 0.19291312 0.16513743
000300 70 22 3d 3e 60 18 af bb 00 74 15 3d 4d 53 21 bc
       0.18470168 -0.005343482 0.03648758 -0.009846521
000310 6a bb 36 3e eb 7d 58 3e bc a8 85 bd 7c 08 65 3e
       0.1784493 0.21141784 -0.06526324 0.22366518
000320 0e 2d 2b 3e 6f 58 86 3d 1e 52 5f 3e a9 f9 0d bd
       0.16716406 0.06559836 0.21808669 -0.034661923
000330 e7 9a c4 3d 4a 35 37 3e ef 1f 87 3b fc 6d 27 bd
       0.09599858 0.17891422 0.00412368 -0.040876374
000340 0a c7 c6 bd e5 94 f8 3c c1 8a 22 be f3 92 13 bd
       -0.097059324 0.030344436 -0.15873243 -0.036028814
000350 32 28 9d 3d b9 36 ef 3b cc cd 8f bd 6b 6d 3e bd
       0.07673682 0.0073002246 -0.070216745 -0.046491068
000360 02 7f 26 bd 75 6f b4 bd 83 be 88 bd 0f 87 44 3e
       -0.040648468 -0.08810321 -0.06676962 0.19192146
000370 2f 2c 05 3e f9 61 fa 3c 70 30 bc bd 64 0b fb 3d
       0.13005136 0.030564295 -0.09188926 0.12258032
000380 90 f8 23 3e a7 6a 1f 3e 1b 8c 32 3d de cd 10 be
       0.16012788 0.15568028 0.043590646 -0.14141032
000390 8d 7b 23 be 1f 9f 03 be ea fb 21 be 86 ac 85 3c
       -0.159651 -0.12853669 -0.15818754 0.016317617
0003a0 b9 6f 9a bb d1 de 51 3e 74 d6 06 3d 5c e0 61 bd
       -0.0047130254 0.20495154 0.032919362 -0.055145606
0003b0 f2 4f 9b 3d 58 d1 bb bc fc 16 9a bd 50 a9 07 bc
       0.07583608 -0.022926971 -0.07523915 -0.008280113
0003c0 2a f3 a2 bd cc 20 67 bd c6 8e 09 be 87 b3 23 3e
       -0.07956536 -0.056427762 -0.1343337 0.15986453
0003d0 5f b2 0f 3e 38 7a a1 bd f2 1b 3e be 7a 3d bd bd
       0.14032887 -0.078846395 -0.18565348 -0.09240241
0003e0 9b 3c 40 be 7d 3a 29 be e7 12 46 3e 5e 47 2e be
       -0.18773119 -0.16526218 0.19343148 -0.17019412
0003f0 00 00 1a bb 59 79 22 3e 00 82 d3 bc 13 b8 29 3e
       -0.0023498535 0.15866603 -0.025818825 0.16574125

network.0.bias f4 [256]
000000 e7 05 ab bd 2c 38 47 3d 45 e6 33 be fd 08 96 3c
       -0.08350735 0.048637554 -0.1756831 0.018314833
000010 64 b6 69 bd eb cd 63 3d 72 77 d0 3d 14 4f 9b 3d
       -0.057058707 0.0556163 0.101790324 0.07583442
000020 62 fc 29 3e 8d 25 26 be 1d c4 2d 3a 4a 84 4e 3e
       0.16600183 -0.16225262 0.00066286494 0.20167652
000030 cb d8 96 bd e9 47 2b 3e d8 79 4b 3e c3 c5 a4 3d
       -0.07365569 0.1672665 0.19870698 0.080455326
000040 2f 71 2a 3e 8a cd 86 3d 05 1d fc 3d eb f4 09 be
       0.16644739 0.06582172 0.123102225 -0.13472335
000050 67 66 47 3c 7a bc 1f 3d c2 8f 33 3e 9a df 9f 3d
       0.012170411 0.038998105 0.17535308 0.078063205
000060 68 33 06 3e 0a c0 ca 3d d9 b0 e2 3d cf eb 3e 3e
       0.13105547 0.0989991 0.11068887 0.18644641
000070 95 5f a2 3d 83 05 db bd a4 66 a4 bd ba 0f 1d 3e
       0.07928387 -0.10694411 -0.0802739 0.1533803
000080 73 fd e2 bd 20 ed 1d bd ea f6 f4 bd e0 f3 de bb
       -0.11083498 -0.03855622 -0.119611576 -0.0068039745
000090 31 26 03 3e fe 61 f3 bc 30 56 a2 bd 40 a0 04 3e
       0.12807538 -0.029709812 -0.07926595 0.12951756
0000a0 4e 53 32 3e ae 73 25 be 64 3a 2f be 73 14 53 3e
       0.1741459 -0.1615741 -0.17112118 0.2061327
0000b0 7a 93 8f 3d 76 de 76 bd b2 6d b9 bc 94 36 10 3e
       0.07010551 -0.06027075 -0.022635315 0.1408332
0000c0 5e 6b 09 bd 54 fc 16 3d b6 48 09 3e 18 7b d1 3c
       -0.03354966 0.036861733 0.13406643 0.025571391
0000d0 c6 e6 44 be e0 14 0a 3e b1 06 c0 bd fb 3d 9c bd
       -0.19228658 0.13484526 -0.09376276 -0.07629009
0000e0 55 a0 33 bc 1d 81 cc bd 77 a8 48 be e8 cc cd bd
       -0.010963519 -0.09985564 -0.19595514 -0.100488484
0000f0 47 2d 3a 3e d1 9d 24 be 32 69 68 3e e3 de d9 bd
       0.18181334 -0.16075827 0.22696379 -0.106382154
000100 9e 99 12 be 0d ff ad bc 1b 03 a1 3c be b7 80 3d
       -0.14316413 -0.021239782 0.019654801 0.06285046
000110 cc de d4 3d 0b 80 a9 bd 05 08 59 be 2f 96 5c bc
       0.10394058 -0.082763754 -0.21194465 -0.013463541
000120 14 7b 25 bd 40 12 cc bd 22 9f d0 3d 26 79 d4 3c
       -0.04040058 -0.099644184 0.10186602 0.025936674
000130 71 9d 67 bd 86 40 b3 bd 04 39 45 3d 1a 8c ce 3d
       -0.056546632 -0.08752541 0.048150077 0.10085316
000140 d6 36 c2 3d b9 b2 1c be 51 fd df bd 99 2a 2a be
       0.094831154 -0.15302552 -0.10936988 -0.16617812
000150 c5 4e 6e 3b 3d 9c d8 3b 38 94 69 bd 86 6c 06 be
       0.0036362868 0.006610422 -0.057026118 -0.13127336
000160 d3 cd 3e 3e 74 f0 8b 3d 53 fc 58 3e d5 a7 05 3d
       0.18633203 0.06832972 0.21190004 0.03263076
000170 98 78 07 3e 53 a5 4b 3e b5 7d 33 bd 5a 61 8d bd
       0.13229597 0.19887285 -0.043821055 -0.06903334
000180 9a af e9 3a b4 8d d6 3d 7c b4 be 3d 5c 97 21 3e
       0.0017828823 0.104762465 0.093117684 0.15780395
000190 a8 4c 04 be af cb 92 3d 1c 5f 62 bd 2f f8 37 3e
       -0.12919867 0.07167756 -0.055266485 0.17965768
0001a0 2a 66 44 be ef ef 50 be 83 df 03 be 1a 3d f0 3d
       -0.19179597 -0.20404027 -0.12878232 0.11730404
0001b0 52 4a 10 3d 79 51 2a 3e e8 bd 38 be fc f0 42 bc
       0.035227127 0.16632642 -0.18041193 -0.011898275
0001c0 5c ca 41 3b 44 d8 e5 3d ed 80 c1 bd 67 72 b6 3d
       0.0029570078 0.1122289 -0.09448419 0.08908539
0001d0 24 d4 af 3d c9 a3 81 3d fb b9 2f be c0 ef f6 bd
       0.085853845 0.06330068 -0.1716079 -0.120574474
0001e0 4d 26 20 be be 17 ba 3d e7 a5 1c 3e f8 4a 06 be
       -0.1563961 0.0908656 0.15297662 -0.13114536
0001f0 09 18 90 3d 62 b4 0e 3d 00 fb 03 3e 8e c8 20 3e
       0.07035834 0.034839995 0.12888718 0.15701506
000200 67 75 02 3e 21 0a 29 be ac 0d d0 bc d6 b1 4c bd
       0.12740098 -0.1650777 -0.025397144 -0.049974285
000210 7f f7 0e 3e 61 2a e9 bd 77 4b 41 be 48 00 27 be
       0.139616 -0.11385036 -0.18876444 -0.16308701
000220 2d 8a e0 3d c6 d6 fc 3d a1 ad 18 3e b9 d7 a4 3d
       0.10963855 0.12345652 0.14909984 0.08048958
000230 ac 46 e7 3d 54 90 ab 3d 93 04 21 be 75 7f 94 3c
       0.112927765 0.08377138 -0.15724401 0.018127182
000240 55 c1 46 be d5 2b 06 3e 31 51 07 be d7 f8 cd bd
       -0.19409688 0.13102658 -0.13214566 -0.10057228
000250 df 3f 80 3d a6 f7 05 be 81 e3 a7 3d 89 44 1f bd
       0.062621824 -0.13082752 0.0819769 -0.03888372
000260 fe f9 2b be 73 f3 26 bc d0 39 00 3c 95 1a ba bc
       -0.16794583 -0.010189879 0.007826284 -0.022717753
000270 dc fa 75 3d 5f 10 3f 3d 28 74 04 3e c3 f3 14 3d
       0.06005369 0.046646472 0.12934935 0.03636528
000280 6a a5 8c 3d 39 e4 0f be 3e 0c 17 bd 2d 1d df bd
       0.06867488 -0.14051904 -0.03687691 -0.10894237
000290 57 c3 82 bd 31 76 cd bd 71 51 8d 3c 65 87 0b 3d
       -0.06384914 -0.10032309 0.017250748 0.03406467
0002a0 70 cd 9a bb 0c 5e 19 3e 38 fb 50 3e 33 2b ed 3d
       -0.004724197 0.14977282 0.20408332 0.11580505
0002b0 c1 d7 86 bd 39 70 18 3e 2e 02 0e bd af 8e 9f bd
       -0.065841205 0.1488656 -0.034670047 -0.077908866
0002c0 e9 96 15 3e 6f 75 cc 37 3b 8b 7d bd 49 80 30 be
       0.14608349 2.437338e-05 -0.06190036 -0.17236437
0002d0 7c 8b 32 3e b0 09 1d 3e 4e c5 54 bd 4d 5c 46 bd
       0.17436022 0.15335727 -0.051945977 -0.04842787
0002e0 60 06 34 3e 2e 4f 26 3d c2 74 4e 3e 29 ec 3a be
       0.17580557 0.040602855 0.20161727 -0.1825415
0002f0 53 f0 bb bd e0 c4 12 3e 4d 06 cd bd 38 f6 d0 bd
       -0.091766976 0.14332914 -0.100109674 -0.102032125
000300 c8 65 dd bc 0f e6 47 3e fb 53 de 3d e9 67 bb 3d
       -0.027026072 0.19521354 0.10855862 0.09150679
000310 f4 37 2a bd 4a d1 18 3d 38 fb f8 bd 29 c4 9e 3d
       -0.041557267 0.03730897 -0.12157291 0.07752258
000320 eb 8c 04 3e 58 86 33 be 19 7d c7 bd 9d 0f ef bd
       0.12944381 -0.17531717 -0.09740657 -0.116729
000330 66 85 90 3d 20 cc 49 be 12 ad 6e 3d e5 22 35 3e
       0.07056694 -0.19706774 0.05827052 0.17689092
000340 f5 f0 53 3e a2 95 0c 3e cd b3 36 3e 61 df 29 be
       0.20697387 0.13728955 0.17842026 -0.16589119
000350 97 6e fa 3c da 23 2b 3e 91 06 1b be 3e 6f 8a 3d
       0.030570311 0.16712895 -0.15139224 0.06759499
000360 bc 79 bc bb 53 aa 2e 3d e7 f3 da bd 25 fb 22 3e
       -0.0057518166 0.042642903 -0.10691052 0.15916117
000370 79 38 1a be 18 97 0e be dd 39 eb bd 28 bc 48 3e
       -0.15060605 -0.13924825 -0.11485646 0.19603026
000380 2e 21 60 bd c9 4f c7 bd 8e 0a db bd 39 04 5f 3c
       -0.054719143 -0.09732015 -0.106953725 0.013611847
000390 8f 0d 5d 3e 00 a4 05 3b 43 9a df 3d c2 6c 02 be
       0.21587203 0.002039194 0.10918095 -0.127368
0003a0 13 17 33 bd 18 33 b7 3d c7 e7 0e bc 3e d6 f0 3d
       -0.043723177 0.08945292 -0.008722252 0.117596135
0003b0 d7 db 90 3c 58 28 29 3e 58 7b 5e bd 00 78 37 be
       0.017682953 0.16519296 -0.05431685 -0.1791687
0003c0 95 4d 11 3e 15 78 0e 3e 73 ef 9f bd 8f 7b 7f bb
       0.14189751 0.13912995 -0.07809343 -0.0038983559
0003d0 27 42 ca bd 27 6a 2a 3d f9 68 06 be 92 07 f3 3c
       -0.09875899 0.04160514 -0.13125981 0.029666696
0003e0 8f 73 01 be 5b 1e 64 3d 46 29 07 3e 4a 2f c2 bd
       -0.12641738 0.05569301 0.13199338 -0.09481676
0003f0 b1 22 0b bd c9 c7 37 bd 24 ac a4 bd a1 5f a3 3c
       -0.03396863 -0.044868264 -0.08040646 0.01994306

network.2.weight f4 [256, 256]
000000 d5 52 0a 3c ee 5f 4f 3d 5b 03 4a 3c cb 07 63 3d
       0.0084426 0.050628595 0.012329902 0.055427354
000010 b4 86 1f 3c d2 7f 07 bd 46 81 6b 3c f6 e9 a3 bc
       0.009736706 -0.033080883 0.014374083 -0.020009022
000020 d8 1b c4 3d f8 e6 ac 3c b5 e8 d4 bc d5 4d f1 bc
       0.09575623 0.021106228 -0.02598987 -0.029456059
000030 9c dc 33 3c 52 a2 04 3d d6 18 3f 3d e6 e2 15 3d
       0.01097789 0.032381363 0.046654545 0.03659334
000040 e2 85 3c bd 40 09 02 bd b0 71 6f bc 20 21 ce 3b
       -0.046026118 -0.031747103 -0.014614508 0.00629057
000050 ef a3 bf 3d dd 45 02 3d 6c 06 02 3d 89 8e a3 bc
       0.0935744 0.031804908 0.031744406 -0.019965427
000060 12 85 ea 3c 95 bb a8 3d df ad fc bc 43 84 47 3c
       0.028627906 0.082389034 -0.030844627 0.01217753
000070 4c 0c 50 bc 76 5c 6c 3b fa 31 9b 3d 76 11 94 3d
       -0.012698244 0.0036065853 0.07577892 0.07229893
000080 1a 15 b2 3d 88 46 b2 3c e9 b5 d1 bc 90 f9 f1 bc
       0.08695431 0.021762148 -0.025599437 -0.029537946
000090 25 36 a8 3d f1 de 53 bb c3 dd b6 3c 08 32 bf bc
       0.08213452 -0.0032328928 0.022322541 -0.023339286
0000a0 2a 77 1c 3c 00 ff 08 3d b9 93 a2 3c ae 6e 75 3d
       0.009549895 0.033446312 0.01984583 0.059920006
0000b0 5f 40 36 3d 91 87 17 bc 89 da 4a 3d de 54 a2 bb
       0.044494983 -0.00924863 0.049524818 -0.0049539646
0000c0 dd 02 e8 3c d9 9e 6c 3d e2 0b ae 39 f1 f6 97 3d
       0.028321678 0.057768676 0.0003319672 0.07420147
0000d0 ea 50 67 3d 93 f7 24 3d e4 60 47 bd b1 12 2d bd
       0.05647365 0.040275168 -0.048676386 -0.042254154
0000e0 97 6f 1c 3b 7c ec 13 bd 90 47 83 bb e0 b9 06 bc
       0.0023870224 -0.0361142 -0.0040063336 -0.008223027
0000f0 d0 0e ca bc 82 0a 1d bb 41 30 eb bc ef ad 4f 3c
       -0.024665266 -0.0023962562 -0.028709533 0.012675746
000100 d0 8a 1c 3c 92 ea 55 3d b5 92 57 3d 99 24 70 3d
       0.00955458 0.052225657 0.052630145 0.058628652
000110 c8 ba 2c 3d de af 3e bd d9 8a 52 3c 1c e4 ad bc
       0.042170316 -0.04655444 0.012850487 -0.021226935
000120 58 fc 33 bd b0 9c 80 3c e5 6e 17 b9 4c dc 88 3c
       -0.043941826 0.015699714 -0.00014441794 0.016706608
000130 85 2f 8e 3d 37 08 ca 3b 01 e0 69 bc de f1 4e 3d
       0.069426574 0.00616553 -0.014274598 0.05052363
000140 ff 1f 61 3d 92 87 72 3d 4a 4e 5b 3d 8e 5c 1a 3d
       0.054962154 0.05921132 0.05354146 0.037685923
000150 bb 3a 2b bd da 20 38 3c bc 53 bd 3c 2f a2 23 bd
       -0.041804057 0.011238301 0.023111217 -0.039949592
000160 48 3e 55 3d f0 7a 58 3c db df 6e 3d 2d b7 5f 3d
       0.05206135 0.013212904 0.058318954 0.05461805
000170 d2 ec bb bc d5 dd a0 3b 06 31 a9 3d 20 1e cf bb
       -0.022940073 0.004909257 0.082613036 -0.00632073
000180 01 36 5e 3d d8 72 64 3d 1d a3 bd 3d 91 73 2d bc
       0.05425072 0.055773586 0.09259627 -0.010586635
000190 c5 f6 4b 3d 58 75 1b 3d 00 10 1a bb 3f 41 30 3c
       0.049795885 0.037953705 -0.0023508072 0.010757743
0001a0 a2 68 22 bc 56 be 50 bd 9c 13 53 3b 7c 64 1d 3d
       -0.009912642 -0.05096277 0.0032207733 0.038425907
0001b0 64 7e e6 3c 75 27 a2 3c 00 5b 8b bc d0 92 e2 39
       0.02813644 0.019794205 -0.017011166 0.00043215463
0001c0 42 25 71 bc 43 1e 82 3c e0 b1 50 bd 54 8a 90 ba
       -0.014718356 0.01588357 -0.050950885 -0.0011027553
0001d0 46 35 8f bc bb a2 66 3c 07 73 93 3d 1e 13 ab 3c
       -0.017481457 0.014076884 0.07199674 0.02088314
0001e0 11 b3 a8 bc b0 41 f1 3b 8c ce c0 bc 8e 13 36 bd
       -0.020593198 0.007362567 -0.02353599 -0.044452243
0001f0 d9 7c b3 bc c0 ac 79 3d 79 23 83 3d a8 33 df bc
       -0.021910118 0.060955763 0.0640325 -0.027246311
000200 d5 27 73 bc 69 f7 ba bc 06 8b da bc 91 5d 9b 3c
       -0.01484104 -0.022823052 -0.02667762 0.018965514
000210 a7 70 3d 3d 69 c7 63 bd a3 59 c7 bc 8a b0 15 3d
       0.04625001 -0.055610094 -0.024334734 0.036545314
000220 04 62 61 3d fd 2d 8d 3c 76 00 ac 3b 2f a8 36 3c
       0.055025116 0.017233843 0.0052490784 0.0111484965
000230 e7 f7 6f 3d 3e 9a 26 bc 17 10 41 bd fe 25 07 3d
       0.058586027 -0.01016861 -0.047134485 0.032995217
000240 48 24 b4 3c d9 3d 85 3d 4b 6c 70 bd c7 87 f9 3c
       0.021989956 0.06505937 -0.058697026 0.030460251
000250 61 09 ee 3c d6 24 86 bc b8 e5 79 3c dd a2 c0 bc
       0.029057207 -0.016374987 0.015252523 -0.02351516
000260 ba dc 41 bd 64 6c 05 3d 50 5d 5d 3d c2 73 1d 3d
       -0.047329642 0.032574072 0.054044068 0.038440473
000270 02 84 62 bd 75 97 75 bd 34 7f 91 3d ac 3f e0 ba
       -0.055301674 -0.059958894 0.0710434 -0.001710882
000280 af 6b 2b bd 71 40 8a bc 53 b0 e6 3c b3 9b 60 bd
       -0.041850742 -0.016876431 0.02816025 -0.054835986
000290 30 29 36 bd 0b 8f b9 b9 2b 72 7c bd 68 b6 20 3d
       -0.044472873 -0.00035392525 -0.061632317 0.039236456
0002a0 a3 99 a0 bc e6 66 9f bc 4b 25 a3 3c 4b 4a 2d 3d
       -0.01960451 -0.019458245 0.019915244 0.04230718
0002b0 92 ac 1c 3d f2 dd 90 3d f1 58 29 3d 03 5a 61 3d
       0.038250513 0.07073583 0.041344587 0.055017482
0002c0 00 22 14 bc b3 a3 05 3c b9 bb 1c 3d b5 e4 48 3c
       -0.009041309 0.008156705 0.038264964 0.012261559
0002d0 b2 1f 7c 3d cf 68 4f bb 9a 4a a5 3d 35 77 35 bd
       0.061553665 -0.0031648164 0.0807087 -0.044303138
0002e0 2a 82 2c bd 71 0f 6e 3c 10 f0 2f 3d 64 d3 c3 bc
       -0.04211632 0.014530049 0.04295355 -0.02390451
0002f0 b5 09 da 3b 27 c4 36 3c 4a 7f 1f bd 2c 31 b0 3d
       0.006653989 0.011155165 -0.03893975 0.08603129
000300 ac 28 63 3d f7 6a 8b 3d 89 52 91 ba 78 95 0d 3d
       0.05545871 0.06807511 -0.001108722 0.034566373
000310 1c 7a 4b 3d f2 3a ff 3a c9 8a 91 ba 33 51 7a 3d
       0.049677 0.0019472523 -0.0011103983 0.061112594
000320 93 c6 06 bd 7a 46 2d 3c 18 2e 8d bc 7b 75 25 3d
       -0.03290422 0.010575885 -0.017233893 0.04039524
000330 9a 98 f0 b9 ef 69 23 3b 46 fd a2 3d f0 22 a7 3b
       -0.00045890064 0.0024934968 0.07958464 0.0051006004
000340 4b bf 8b 3c 79 e3 0e 3d 21 30 0a bd 3d c1 dc bc
       0.017058989 0.034884904 -0.033737306 -0.026947612
000350 22 76 b6 3c b3 6c 90 3d f9 3b fe 3c 4c 2c 62 bd
       0.022273127 0.07051983 0.031034457 -0.055218026
000360 63 e6 e1 bc 23 37 94 3d 70 54 e2 3b dc 5c de bc
       -0.027575677 0.07237079 0.0069070384 -0.027143888
000370 06 c3 24 3d 40 23 cd 3c a4 b1 a5 bc 51 5e c0 bc
       0.04022505 0.025041223 -0.020226307 -0.023482474
000380 21 37 35 3d 85 4b 89 3d 5c ba 0f 3d de 0c d9 3c
       0.04424203 0.06703857 0.035089836 0.026495393
000390 68 84 bc bc 7a 1d f4 bb b9 f0 b6 3d e8 e4 41 3c
       -0.023012355 -0.007449803 0.08932633 0.011834361
0003a0 bf bc c3 bc 78 a5 08 3d cb 39 fc bb d7 7a 65 3d
       -0.023893712 0.03336093 -0.007697319 0.056025352
0003b0 b7 cf 3f 3d 26 09 9c 3d 08 d3 d2 bc 1c c0 22 bb
       0.04682895 0.076189324 -0.025735393 -0.0024833744
0003c0 9c df 84 bc 45 c9 99 3c 44 11 fb 3c 77 9f 44 3d
       -0.016219907 0.01877273 0.030647881 0.04800364
0003d0 30 fe e8 bc df af 92 3d ae 69 89 bc 87 d6 59 bd
       -0.028441519 0.07162451 -0.016774025 -0.053183105
0003e0 88 2b 1d bd 2c 4a 6e 3d d1 d2 d0 3c fd d0 a9 bc
       -0.038371593 0.058176205 0.02549115 -0.020729536
0003f0 20 e9 2a 3d b3 06 be bc d4 4e 9b 3c 7a f4 c2 3c
       0.04172623 -0.023196554 0.018958487 0.023798216

network.2.bias f4 [256]
000000 cf c6 af 3d bb bc 62 3d 61 d3 98 bc ca 47 85 bd
       0.085828416 0.05535577 -0.01865548 -0.06507833
000010 78 79 03 bc 88 27 9f 3c 60 a1 53 bc 77 d6 35 3d
       -0.008024566 0.01942803 -0.012916893 0.044393983
000020 1f c8 3c 3b 69 94 03 3d c8 7a 3b bc d4 5f f2 bc
       0.0028805805 0.032123957 -0.011442848 -0.02958671
000030 33 a6 57 3d 17 b9 85 bd fd cf 45 bc 76 85 68 bc
       0.052648734 -0.06529444 -0.012073514 -0.014191976
000040 14 17 ce 3a ed d8 2b bd 25 2b 60 3c f1 28 87 bd
       0.001572343 -0.041954923 0.013682161 -0.06599606
000050 ae 6f c5 bc a7 03 8b 3c ae 73 ce 3c 44 1a 0a bd
       -0.024101105 0.016969515 0.025201645 -0.033716455
000060 73 d8 8d bc d9 43 95 3d 9a 94 11 3d 4d a0 9b 3d
       -0.017315125 0.072883315 0.035542108 0.07598934
000070 42 86 26 3d 2c da 90 bd 01 b1 ac 3b 3d ff 98 3c
       0.040655382 -0.07072863 0.005270124 0.018676395
000080 08 7d 05 3b 14 66 a8 bc 58 4a d5 bc da 1a 21 bc
       0.0020368714 -0.020556487 -0.026036426 -0.009833062
000090 b6 6c f3 bc bc 1f 92 bc 9e da 04 3d f5 33 45 3c
       -0.029714923 -0.017837398 0.032435052 0.012036313
0000a0 ab a6 ce bc a4 88 22 bc a9 51 07 3d 66 2a b7 3d
       -0.025225958 -0.009920273 0.03303686 0.08943634
0000b0 47 1b 67 3d 64 ec 34 3c 01 2b bb 3c 10 83 16 3d
       0.056422498 0.011042688 0.022847654 0.036746085
0000c0 4f 88 0c 3d fe bc ea 3c f4 56 9a 3c 26 d4 c0 3c
       0.03430968 0.028654572 0.01884029 0.02353866
0000d0 c4 04 6e bd 6d 53 06 3c 6d 8d 39 bd fa 80 83 bc
       -0.058110014 0.008198601 -0.04530089 -0.016052712
0000e0 f7 30 3d bc 66 78 60 bc 5b c7 51 3d fd a3 ba bc
       -0.011547319 -0.01370058 0.05121551 -0.022783274
0000f0 e8 19 a9 3d b8 df 05 bc b8 28 9e 3c 71 20 20 3d
       0.08256894 -0.0081710145 0.019306526 0.03909344
000100 6e 85 30 3d 84 7b 37 bd ae e9 4c bd dc fb 6b bd
       0.043096 -0.044795528 -0.05002754 -0.05761324
000110 4c b7 10 bd ed ea 31 3c 36 84 83 bc 69 2f 01 bd
       -0.035331056 0.010859233 -0.016054254 -0.031539354
000120 77 44 b8 3d f8 6b de bc fa 51 0a 3d 8c 2d 0c bd
       0.08997434 -0.027151093 0.033769585 -0.034223124
000130 7a 88 5f bc 57 7d b4 bc c3 ab 71 bd a4 73 ed bc
       -0.013643378 -0.022032423 -0.059001695 -0.028985806
000140 3c e7 25 bd 53 a3 0b bb fe 67 95 bc 78 fd cd 3c
       -0.040503725 -0.0021307066 -0.018238064 0.025145277
000150 68 c2 05 3c 76 33 35 bd 8d bc 9e 3d db 96 49 bd
       0.008164026 -0.04423853 0.07750807 -0.049216133
000160 d9 92 90 3c e5 07 86 3d 0e 5e 7a 3d d5 59 51 3d
       0.017648147 0.065444745 0.061124854 0.05111106
000170 d7 18 de 3c 1f c7 7e bb 1f 27 4e 3d 11 d9 4e bd
       0.027111454 -0.003887601 0.050330278 -0.05049998
000180 cb de 6d 3c 09 94 0d bd 8d ef ef bc 16 9b 57 bd
       0.01451845 -0.034565005 -0.029289031 -0.052638136
000190 ae 6b 23 bd 19 19 4f bd 4b bd 1c 3c a5 62 b7 3b
       -0.039897613 -0.050561044 0.009566615 0.005596476
0001a0 d6 d1 60 3b df d7 3b 3d c1 1b f0 bc 63 0b 86 bd
       0.003430476 0.045860168 -0.02931011 -0.065451406
0001b0 50 88 fd 3c 64 f4 fd bb 0e 19 9c 3d 4f d5 62 bc
       0.030948788 -0.007750081 0.07621966 -0.013844802
0001c0 f0 05 5b bd 0b 1a a8 3d ed df 9c 3c 5a 8d 76 bd
       -0.05347246 0.08208092 0.019149745 -0.060193397
0001d0 94 41 2e bd 5e 52 8f 3d 64 46 05 bd 6b 2a e5 3c
       -0.04254301 0.06998132 -0.032537833 0.027974328
0001e0 46 3e 0a 3d 50 be a2 bc 8a 78 39 3d 0a 70 40 bd
       0.033750795 -0.019866139 0.04528097 -0.04698185
0001f0 4e a3 e7 3b 2b a0 b6 bc bc 0e 8b 3c 22 08 8f 3d
       0.007069028 -0.02229317 0.0169748 0.06983973
000200 e0 24 7b 3d c0 27 19 bd f5 6f 90 3d 18 d6 0e 3d
       0.061314464 -0.037391424 0.07052604 0.034872144
000210 9a 7e 58 bd c9 09 fd bc 4d 96 be bc 7a d6 84 3c
       -0.05285511 -0.030888455 -0.023265028 0.016215552
000220 23 d7 7c bd e2 b1 27 3c 70 08 17 bd 87 e4 e9 bc
       -0.061728608 0.010235282 -0.03687328 -0.028551353
000230 20 fd 5c 3d 78 15 1a bd ec 8d 01 3d 09 7f ef bc
       0.053952336 -0.03761813 0.031629488 -0.02923538
000240 34 a0 62 3d 4f a5 dc 3c 82 b4 d4 3c 54 ef 61 bd
       0.055328563 0.026934294 0.02596498 -0.05515988
000250 c8 bd 52 bd 6a 92 0d bd 4f 15 1f bc c0 5e 1a 3b
       -0.05145052 -0.03456346 -0.00970967 0.002355501
000260 47 a5 f2 3c 8e a1 01 3d 3d 4a bb bc bf ae 50 3c
       0.029619826 0.03164821 -0.022862548 0.012736975
000270 b4 2c a0 3d 40 40 1b bd 91 4e c3 3c a0 8b 07 bb
       0.078210264 -0.03790307 0.023841174 -0.0020682588
000280 5a 17 53 3d b0 45 93 3b 9e cf db bc b4 df 14 bd
       0.05153594 0.0044943914 -0.026832398 -0.036346152
000290 eb d8 53 3d 5a 09 6c bd a0 c1 0f bc 7b 4c 29 bd
       0.05172054 -0.057626106 -0.008774191 -0.041332703
0002a0 72 35 27 3d 42 41 20 3d 38 94 50 bc 30 17 66 3d
       0.040822454 0.039124735 -0.012730651 0.056174457
0002b0 6e ce 88 bd cc 17 f2 3c 91 95 2c 3d 91 8a 0d bd
       -0.06679998 0.029552363 0.042134825 -0.034555975
0002c0 6a 5b 43 bc 75 19 79 3c e6 e6 d1 3c b0 c8 50 bc
       -0.01192365 0.015203823 0.025622796 -0.01274316
0002d0 a9 70 d7 bb f7 c3 5e 3d 57 c9 73 bd 72 d2 76 3d
       -0.0065747094 0.054386105 -0.059518185 0.06025929
0002e0 3a 4e b9 3d 28 24 8a bc c4 59 78 bd b8 19 d6 3c
       0.09048124 -0.016862944 -0.060632482 0.02613531
0002f0 c0 1f fc 3c 0e 29 e5 bc 1d cc b6 3c 70 59 c5 3b
       0.030776858 -0.027973678 0.022314126 0.0060226247
000300 14 2b c1 3c bc 1d c9 3c fa b7 7f bd 16 74 14 3d
       0.023580112 0.024550311 -0.062431313 0.03624352
000310 ff 1e 50 bd ba df e8 3c b0 39 6b bc 3e 6d 38 bc
       -0.05081081 0.028426994 -0.0143570155 -0.011256514
000320 d9 2a 4b 3d 30 6b 32 3c ac 28 fd 3c 4c cb c4 3b
       0.04960141 0.010889813 0.030903183 0.00600568
000330 0f f2 c7 bb f0 2b 3a bb dd 70 3d 3d 46 9d ba bc
       -0.0061018537 -0.0028407536 0.046250213 -0.022780072
000340 d2 5c 8a bc 30 95 46 3d 04 e5 e6 3c 2e 13 fe bc
       -0.016889963 0.04848212 0.028185375 -0.031015005
000350 de d9 53 3b 55 d2 43 3d ec 95 62 3d fb 52 3b 3d
       0.0032325904 0.04780801 0.055318758 0.045733433
000360 be 74 0b 3d 58 2c c7 bc 57 60 36 3d 34 0a 56 bc
       0.03404688 -0.024313137 0.04452547 -0.013063956
000370 0d c4 24 3d 5a 44 17 bd 4c 78 24 3d 9f 4b 45 bd
       0.04022603 -0.03693042 0.040153787 -0.04816782
000380 e1 05 23 bb 50 dd 33 3c 90 73 6f bd e1 44 70 bd
       -0.002487533 0.010978058 -0.05845982 -0.058659438
000390 b0 0b 1d bd 7b 27 bb bc 20 c3 df 3b 0b 11 63 3d
       -0.038341224 -0.022845974 0.0068286806 0.055436175
0003a0 16 d7 6a bd 70 06 b9 bb 0e a3 ca bb 3c f9 48 3a
       -0.05733403 -0.0056465194 -0.0061839884 0.00076665333
0003b0 63 59 26 bd 40 b8 6b bb a4 c1 a7 bc 33 84 39 bd
       -0.04061259 -0.0035967976 -0.020478077 -0.04529209
0003c0 2c 74 78 bd aa 0c ba bc ac e4 48 3d 37 e0 28 3d
       -0.060657665 -0.022711117 0.049046203 0.041229453
0003d0 34 ba 55 bd eb 24 38 3d 27 82 87 bc 74 fa 88 3d
       -0.05217953 0.044957083 -0.016541554 0.06688395
0003e0 18 13 69 bd 02 c1 16 3d 33 e0 a0 3c 4c 57 37 3d
       -0.056902975 0.03680516 0.019638157 0.044760987
0003f0 7f 0c 44 3d 47 ec a3 3b 8c 0c 7d 3b b4 dc 42 bb
       0.04786348 0.0050025317 0.0038612215 -0.00297336

network.4.weight f4 [8, 256]
000000 2b 5c 67 bc 7c 33 f3 3a 52 b3 fc 3c 81 32 99 3c
       -0.014121096 0.0018554772 0.030847225 0.01870084
000010 18 5f 42 bd e4 c6 38 3d c0 17 24 3c 15 7e 19 bc
       -0.04745397 0.045111552 0.010015428 -0.009368439
000020 58 c3 25 3c 4f de 11 bd ce b5 50 3d 04 79 dc 3c
       0.010117374 -0.0356124 0.050954632 0.026913173
000030 48 08 5d 3c 26 6a 55 3d d4 d0 07 3d 71 72 95 bd
       0.013490744 0.052103184 0.03315814 -0.072972186
000040 48 a2 30 3c eb 51 26 3c 87 41 e6 bc 19 e8 cc 3c
       0.010780878 0.010151367 -0.028107418 0.025013017
000050 93 c4 94 3c 33 ab 67 bb 3d 69 5f 3d 20 c3 24 3d
       0.01816014 -0.0035349845 0.054543722 0.04022515
000060 64 30 61 bd 21 c2 2f bd 90 15 96 3b 58 b8 2a 3d
       -0.05497779 -0.042909745 0.004580207 0.04167971
000070 c5 be 49 bd 52 4a 6e bd a0 b2 44 bc ed b0 b9 3c
       -0.049254198 -0.058176346 -0.012005478 0.022667373
000080 d3 2c d3 bc 85 85 f3 bc 7a 34 4c 3d 66 d5 3b 3c
       -0.02577821 -0.029726753 0.049854733 0.011464452
000090 48 d6 f5 bc 6e 56 1c bd d8 68 89 3c 96 c3 f7 bb
       -0.030009404 -0.038168363 0.016773626 -0.0075611575
0000a0 75 d8 48 bd ea b5 28 3d 38 78 55 3d ab 32 4b bc
       -0.049034555 0.04118911 0.052116603 -0.012402217
0000b0 b6 2e 4a 3d be 9a d4 3a f1 28 f1 bc 30 3e 61 bc
       0.049360953 0.0016220433 -0.029438468 -0.013747737
0000c0 ad 91 d8 bc 66 0d 1a bc 10 31 ff bc e6 5b 0c bd
       -0.026436651 -0.0094026085 -0.031151325 -0.03426733
0000d0 0e bd 21 3d 7e 0e 9d 3c 4c ac 30 3d 8f 83 2c bd
       0.039486937 0.01917195 0.043133065 -0.04211765
0000e0 96 a4 32 3d 24 c7 4b 3d 6d 2a 16 bd e9 f6 4f bd
       0.043613993 0.049750462 -0.036661554 -0.05077258
0000f0 10 1c f9 3c b1 1f e3 3c 15 37 5d bd bd 28 67 3b
       0.030408889 0.027725073 -0.05400761 0.0035272085
000100 a0 49 98 bc 41 d6 52 3d 82 cc d4 3c 79 8b 52 bd
       -0.018589795 0.05147386 0.025976423 -0.051402543
000110 d5 cc cd 3c 10 5f 87 bd aa 23 d8 3c d9 df fe bc
       0.025122086 -0.066099286 0.026384193 -0.031112598
000120 15 8a 79 bd cd 50 e8 3c cb e0 d6 bb ee c5 bf 3c
       -0.0609227 0.028358841 -0.006557559 0.02340981
000130 1d 59 ca 3c 43 b4 97 3c ac ae 0d 3d 40 97 e5 ba
       0.024700696 0.018518573 0.03459041 -0.001751639
000140 14 b3 4c 3b 02 57 01 bb e3 04 58 3c a3 cd cc 3c
       0.0031234669 -0.0019735699 0.013184759 0.025000399
000150 80 58 cb bb c0 e4 f6 bb fb e4 67 bd 4e e0 57 3c
       -0.0062056184 -0.0075345933 -0.056614857 0.013176037
000160 c3 92 27 bd 8a 6c 0a 3d a6 dd 9b 3c 7f c3 54 bc
       -0.040911447 0.033794917 0.019026589 -0.012986063
000170 60 51 83 3c 05 72 57 3d d0 cd 20 3c e9 2f 58 bd
       0.016030014 0.052598972 0.0098146945 -0.052780066
000180 34 e0 3b bd 2a 1f 3c 3d ce 10 41 bd 59 a3 a2 3c
       -0.045868114 0.045928158 -0.047135167 0.01985328
000190 e8 7a ca 3c ab 61 d7 bc 88 1a 89 bd 31 41 0a 3d
       0.02471681 -0.026291689 -0.066945136 0.033753578
0001a0 ba b0 67 bc ea b0 8e bd 7e db 1b bd 12 ed 2c 3d
       -0.014141256 -0.069673374 -0.03805112 0.042218275
0001b0 a9 16 64 bd 3b 8f 9e 3c 49 39 42 3c be 85 42 bc
       -0.055685673 0.019355407 0.011854478 -0.011872707
0001c0 03 23 5e bd 82 93 d7 bc 84 d5 1f 3d 5a 96 54 bd
       -0.05423261 -0.026315454 0.039021984 -0.0519012
0001d0 2c 0f d3 3c 38 8d bf bc 20 03 e2 3c 89 44 2c bd
       0.02576407 -0.023382768 0.02758938 -0.042057548
0001e0 34 49 30 3d d0 75 77 bd ff 68 2f 3d 4a 65 18 bd
       0.043038562 -0.06041509 0.04282474 -0.03720597
0001f0 91 6a 3b 3a 11 1f 69 3c ca c4 28 3d 9d eb 35 3d
       0.00071493635 0.014228598 0.041203298 0.04441415
000200 f5 5d a0 ba 8c 35 f3 bc e3 34 71 bd 6a ca c2 bc
       -0.0012235033 -0.02968862 -0.058888327 -0.02377816
000210 b4 5e d6 bc 85 db 59 3c ce 47 0b bd 4d 7f e1 3c
       -0.026168205 0.013296966 -0.034004025 0.027526522
000220 d6 5b 80 bb 6d a3 6b 3d 13 aa be 3c 21 6f 92 3b
       -0.0039171977 0.0575289 0.023274457 0.004468814
000230 43 a6 bb 3b 1e 48 59 bd d8 46 e8 bc 05 b0 2a 3c
       0.005726607 -0.053047292 -0.028354093 0.010417943
000240 bc 41 bf bb a7 d8 4c bc 09 09 05 3d 9b a3 94 bc
       -0.0058366936 -0.012502826 0.03247932 -0.01814442
000250 b7 e2 8c 3c 14 bb 4b bd f6 ea 23 3a 2c de 08 3d
       0.01719795 -0.04973896 0.00062529685 0.033415005
000260 51 f5 cc 3c d9 67 e0 3c 0e 59 fe bc 80 48 74 bd
       0.02501932 0.027393268 -0.031048324 -0.059639454
000270 1a 67 e3 3c ad 7b e9 3b 3b e3 6c bd c7 99 2e 3c
       0.027759124 0.007125339 -0.05783389 0.010656781
000280 58 c8 58 3d 88 e7 f9 bc c8 16 21 bc f4 ef 31 3c
       0.052925438 -0.03050591 -0.009832092 0.010860432
000290 71 28 5b 3c a4 ef 8c 3c 08 75 42 bc 34 aa 1b bd
       0.013376341 0.017204113 -0.011868723 -0.038004115
0002a0 8e c6 66 bd 38 39 6e 3c c6 6c 24 3d 70 88 ee bb
       -0.0563417 0.014540009 0.040142797 -0.007279448
0002b0 74 4c 18 3d e4 cf a5 3c 26 3d 05 bb 53 0a 60 bd
       0.037182286 0.020240732 -0.0020330637 -0.054697346
0002c0 73 c2 81 3b 81 bb 45 bc 8a cb d6 bc 06 ee 16 3d
       0.0039599477 -0.01206863 -0.026220102 0.03684809
0002d0 5c 43 cf bc d5 34 96 3c 29 72 53 bd 91 57 dc bb
       -0.025300674 0.01833574 -0.051622543 -0.006724306
0002e0 a4 af d9 3c 3d 11 be 3c 6e 6c 76 3d 34 5e 63 bd
       0.02657301 0.02320158 0.060162 -0.05550976
0002f0 7c 2d 90 3c a4 66 68 bd 4a ae a0 3c 84 9e 78 3c
       0.017599814 -0.05673851 0.019614358 0.015174512
000300 9a 91 7a 3d a6 c6 4b 3d a0 7c a3 bc 9a ff 84 bc
       0.061174013 0.049749993 -0.019956887 -0.016235162
000310 6b 2c f5 3c ba 20 f2 bc 70 35 90 3c e5 67 03 bd
       0.029928407 -0.02955662 0.017603606 -0.032081503
000320 67 85 c4 3c c0 68 98 bc 7c bd 26 bd 3d 88 67 bd
       0.023989392 -0.018604636 -0.04070805 -0.05652641
000330 5a d6 d3 3b a7 56 2f 3d c7 ea 1f 3d b1 f9 13 3d
       0.0064647617 0.042807247 0.03904226 0.036126796
000340 1d 60 d3 3b 43 f1 ba 3c 2f fd 17 3d a4 27 bd bc
       0.0064506666 0.02282012 0.03710669 -0.023090191
000350 36 2e 02 bb e2 94 3b 3d d1 7c f3 3c 37 3f 0f 3d
       -0.001986397 0.045796283 0.029722603 0.034972396
000360 66 76 3b bd ae 2c 59 3d 0d 9d 4b 3d ba ff 0d bd
       -0.04576721 0.053021125 0.049710322 -0.034667708
000370 bd d8 37 3d 8c 10 00 3d 16 c0 61 3c ad 9a fa ba
       0.044884432 0.03126578 0.013778707 -0.0019119583
000380 d7 b1 76 bb b8 cd b4 bc 96 68 fa 3c f3 06 b6 bc
       -0.0037642622 -0.02207075 0.030567449 -0.02222011
000390 d1 e2 17 3d 33 ba aa b9 e4 13 3b 3d 34 ab 4f 3d
       0.037081543 -0.00032563656 0.045673266 0.05070038
0003a0 d7 02 0e bd 20 40 39 3d e0 f7 50 bd 76 30 ef bc
       -0.034670677 0.04522717 -0.051017642 -0.029197913
0003b0 9b b9 15 3d 1c b0 0d 3d c0 4a 24 3d 11 ed 17 bc
       0.03655396 0.03459178 0.04011035 -0.00927283
0003c0 3d 93 91 bc 92 f4 b1 3a 68 4e 20 bd f7 44 5e bd
       -0.017770404 0.0013576916 -0.039137274 -0.05426499
0003d0 3e 51 6d 3d f9 e7 57 bb 28 7b 64 3d ad bb 86 bc
       0.057938807 -0.0032944663 0.055781513 -0.016446913
0003e0 c8 ff 0f 3c 32 73 5e bb a4 72 2d 3d 7a a7 6f bd
       0.00878901 -0.0033943173 0.042345658 -0.058509327
0003f0 e2 7c 04 bb 8c fb c7 bb 17 58 2f 3d 40 75 84 bd
       -0.0020216038 -0.006102985 0.04280862 -0.06467676

network.4.bias f4 [8]
000000 ea ee 57 3b 48 87 68 bc 62 0c 65 3a 29 33 a0 3d
       0.00329488 -0.01419241 0.0008737502 0.07822258
000010 bf 06 74 3c 5b d6 57 bd b9 7f 0f bd 86 a1 99 bd
       0.0148941865 -0.05269466 -0.035033915 -0.07501511

exp_avg f4 [256, 26]
000000 ac ac c7 3c aa 55 57 3c 64 17 18 3c 0e 09 c8 3c
       0.024374329 0.0131429825 0.0092829205 0.02441838
000010 e8 7f c3 3c d0 13 06 3d 76 0f d6 3c 9b 60 ad 3d
       0.023864701 0.03273374 0.02613042 0.08465692
000020 df 6a 1d 3d 2b 75 9e 3c 40 98 91 3d 4a 63 77 3c
       0.038432 0.01934298 0.071091175 0.015099356
000030 38 3b bf 3c 3c 6d a9 3d ce 0b ef 3d 12 28 04 3c
       0.023343667 0.08272788 0.116721734 0.008066194
000040 8a e9 ea 3d 19 5f d0 3d f2 18 eb 3d 2c 0d a1 3d
       0.11470325 0.101743884 0.11479367 0.078638405
000050 05 9e 74 3d 64 28 35 3d 29 32 1c 3d 04 8b 93 3c
       0.05972101 0.044227973 0.038133774 0.018010624
000060 1b 47 45 3d a0 ba 3f 3d 00 00 00 00 f3 03 00 00
       0.048163515 0.04680884 0.0 1.417e-42
000070 a6 32 74 30 00 00 00 00 00 00 00 00 6b 9d f5 2a
       8.883866e-10 0.0 0.0 4.3629973e-13
000080 67 a5 31 af c8 df c7 31 2d 4c be 29 de ac 4a 2a
       -1.6156819e-10 5.8171032e-09 8.4509094e-14 1.800118e-13
000090 70 e6 ae 31 ae 83 54 32 00 00 00 00 17 f4 20 32
       5.090264e-09 1.2369965e-08 0.0 9.368725e-09
0000a0 e0 f5 65 32 85 36 5c 32 e6 2a 8a 31 62 f8 25 32
       1.338546e-08 1.2818082e-08 4.0212056e-09 9.66074e-09
0000b0 4c f3 eb 31 34 bc 21 32 f0 f8 89 31 d1 d9 e5 31
       6.86706e-09 9.414226e-09 4.0155257e-09 6.68954e-09
0000c0 cf 31 e7 31 7a a9 40 31 fc e7 e5 31 df e1 e5 31
       6.7286474e-09 2.8036014e-09 6.6911507e-09 6.6904557e-09
0000d0 00 00 00 00 00 00 00 00 5b 9b 61 36 00 00 00 00
       0.0 0.0 3.3618041e-06 0.0
0000e0 00 00 00 00 04 00 00 00 04 00 00 00 24 8f a6 37
       0.0 6e-45 6e-45 1.9855397e-05
0000f0 00 00 00 00 00 00 00 00 41 90 35 38 c4 7d 79 37
       0.0 0.0 4.328811e-05 1.4870839e-05
000100 00 00 00 00 c3 35 01 38 9f e2 35 38 b5 10 2f 37
       0.0 3.0806066e-05 4.336482e-05 1.0434703e-05
000110 68 12 06 38 d9 53 b5 37 34 32 6b 37 6c c3 50 38
       3.196523e-05 2.1615926e-05 1.401878e-05 4.9773065e-05
000120 43 fb 4a 38 f3 95 b8 37 f3 95 b8 37 3c 03 25 37
       4.839456e-05 2.2004335e-05 2.2004335e-05 9.835519e-06
000130 f3 95 b8 37 f3 95 b8 37 54 4c 94 08 6f e6 c3 08
       2.2004335e-05 2.2004335e-05 8.925371e-34 1.179031e-33
000140 6e 95 7d 08 27 f4 73 08 e5 3a 0d 08 94 cd db 08
       7.631007e-34 7.341215e-34 4.2499874e-34 1.3228914e-33
000150 27 0a f4 08 2d 3f 01 09 ee 9d d7 08 21 ab d0 08
       1.4687603e-33 1.5557515e-33 1.2976971e-33 1.2558777e-33
000160 37 08 c2 08 01 ea b7 08 fa 0b 1a 08 55 79 b6 08
       1.1677882e-33 1.1068926e-33 4.6356768e-34 1.0982252e-33
000170 42 45 e2 08 71 7b af 07 f4 3d a8 08 ed d5 af 08
       1.3618163e-33 2.6403626e-34 1.0125697e-33 1.0582723e-33
000180 06 6f 80 08 21 33 ee 08 b6 e1 89 08 b0 56 82 08
       7.729821e-34 1.4336124e-33 8.298452e-34 7.8444705e-34
000190 b0 56 82 08 5e ab 05 08 b0 56 82 08 b0 56 82 08
       7.8444705e-34 4.0224673e-34 7.8444705e-34 7.8444705e-34
0001a0 15 18 9f bc 53 12 67 bc 33 ed 94 bc c4 da 4d bc
       -0.019420663 -0.01410349 -0.018179512 -0.012564365
0001b0 9e cb 71 bc 88 cf c8 bc 4d 19 ab bc 02 be 59 bd
       -0.014758019 -0.024513021 -0.020886088 -0.05315972
0001c0 ea 83 ac bc 92 7a b4 bc 46 e3 13 bd a0 72 eb ba
       -0.021058995 -0.022031102 -0.036105417 -0.0017963238
0001d0 cd 2f 93 bc 41 34 54 bd fe ff 8f bd cb 7b c8 bc
       -0.01796713 -0.051807646 -0.070312485 -0.024473092
0001e0 d7 31 8a bd 0c 23 6b bd 48 6c 8c bd 5f 00 57 bd
       -0.067477874 -0.05740647 -0.068565905 -0.05249059
0001f0 d2 48 3b bd e8 2d d5 bc e8 79 a6 bc ab 5b 06 bc
       -0.045723744 -0.026022866 -0.020321801 -0.008200566
000200 96 6a e7 bc c0 22 dd bc 8c 3c 8c 12 8e 0c df 12
       -0.028249066 -0.02699411 8.850168e-28 1.4076374e-27
000210 28 2b 3e 37 bc b6 ea 11 e9 fe 04 12 40 ef 96 35
       1.1334931e-05 3.703131e-28 4.1966057e-28 1.1245502e-06
000220 9b 29 14 36 73 47 37 39 86 7e 61 34 61 92 1a 35
       2.2077936e-06 0.00017478857 2.1000787e-07 5.758248e-07
000230 48 ad 94 36 18 e7 cf 38 73 35 83 12 18 70 02 39
       4.4309163e-06 9.913574e-05 8.280439e-28 0.00012439524
000240 d7 9a 3e 39 0d e4 7b 38 e9 5d 3a 39 5e 3c a5 38
       0.00018177494 6.0055452e-05 0.00017773327 7.8790574e-05
000250 40 16 5e 39 df e6 57 39 73 8c e8 38 13 e8 57 38
       0.00021179859 0.00020590004 0.00011088783 5.147613e-05
000260 aa b9 2c 38 0d f0 8f 37 0d f0 8f 38 40 8b 81 38
       4.118091e-05 1.715871e-05 6.863484e-05 6.177137e-05
000270 84 f9 e3 3b 0b bc 13 3b 28 06 e5 3a 32 67 e4 3b
       0.006957235 0.0022542502 0.0017473148 0.0069703097
000280 51 da d0 3b f8 48 f4 3b 84 cf 95 3b dc cd a2 3c
       0.0063736816 0.0074549876 0.004571857 0.019873552
000290 20 d6 0e 3c a8 fe a2 3a d8 03 bc 3c 50 3e 15 3b
       0.008718044 0.0012435513 0.022951052 0.0022772737
0002a0 d2 d1 c0 3b 2b e8 c9 3c d0 dc 09 3d 98 67 b4 3a
       0.0058843875 0.02464684 0.03365785 0.0013763783
0002b0 92 ac 17 3d 0a f4 de 3c b2 54 1a 3d 65 44 b2 3c
       0.03702981 0.027215976 0.037678428 0.021761129
0002c0 62 50 d7 3c 5c 51 57 3c ee 8f 39 3c e7 cd b0 3b
       0.026283447 0.013141956 0.011325819 0.005395639
0002d0 4c 47 67 3c d0 34 61 3c de 4b ab 3b 18 af 93 39
       0.01411612 0.013745502 0.00522755 0.0002816848
0002e0 91 70 53 3b 06 f3 d2 3b 38 a5 8f 3b fa d9 c0 3b
       0.003226314 0.006437662 0.0043837093 0.00588536
0002f0 3a a3 c0 3b 14 94 3f 3c 22 64 dc 3b c4 09 95 3a
       0.005878833 0.011693019 0.006725804 0.0011370708
000300 e4 6f 6b 3c ec ae 19 3c 20 14 c5 3b 26 cd 76 3c
       0.0143699385 0.0093800835 0.006014362 0.01506356
000310 86 f8 a2 3c 46 dc a7 3b e6 df a5 3c 6c 89 74 3c
       0.019893896 0.005122694 0.020248365 0.014925342
000320 ee 73 8d 3c 25 f6 32 3c 30 7d ab 3c 70 27 24 3c
       0.017267194 0.010922943 0.020933717 0.010019168
000330 e7 e9 16 3c 61 ce 8b 3b e4 22 2d 3c e0 51 2b 3c
       0.00921104 0.0042665456 0.010567401 0.010456532
000340 d4 90 93 3b b4 c9 86 bb 31 6d e1 3a 96 18 82 3c
       0.004503349 -0.0041134004 0.0017198679 0.015880864
000350 72 92 6f 3b 4d 6f 2c 3c 6f 97 67 3c 8a b4 08 3c
       0.0036555794 0.010524583 0.014135226 0.008343825
000360 1a e3 74 3c 78 56 12 3a 7c fe d1 3c 36 68 8c 3c
       0.014946723 0.0005582343 0.025634043 0.017139535
000370 4c 5e 65 3c 85 25 73 3c e7 7a 8c 3c ca 3a 03 3c
       0.013999533 0.014840488 0.017148448 0.008009622
000380 79 85 64 3c d3 2f e3 3c 6c 7e 0b 3c 62 d5 2a 3c
       0.013947838 0.027732765 0.008514028 0.010426851
000390 84 f9 87 3c 92 9f 64 3c 5b 79 68 3c 74 a1 e1 3b
       0.01659847 0.01395406 0.01418909 0.006885702
0003a0 27 c0 6b 3c 15 41 70 3c 00 00 00 00 00 00 00 00
       0.014389074 0.014663954 0.0 0.0
0003b0 00 00 00 00 00 00 00 00 00 00 00 00 00 00 00 00
       0.0 0.0 0.0 0.0
0003c0 00 00 00 00 00 00 00 00 00 00 00 00 00 00 00 00
       0.0 0.0 0.0 0.0
0003d0 00 00 00 00 00 00 00 00 00 00 00 00 00 00 00 00
       0.0 0.0 0.0 0.0
0003e0 00 00 00 00 00 00 00 00 00 00 00 00 00 00 00 00
       0.0 0.0 0.0 0.0
0003f0 00 00 00 00 00 00 00 00 00 00 00 00 00 00 00 00
       0.0 0.0 0.0 0.0

exp_avg_sq f4 [256, 26]
000000 32 f5 b1 3b 4e 55 bd 3b ee bf ce 3b 16 53 c3 3b
       0.005430841 0.0057779914 0.006309501 0.0059608323
000010 7d 18 cb 3b 38 f9 ba 3c f8 a1 c6 3c 6e 25 6b 3d
       0.0061979876 0.022823915 0.024247155 0.057408743
000020 b7 58 b4 3c e7 b7 b2 3c 73 29 09 3d 43 22 0b 3d
       0.022014959 0.021816207 0.033486795 0.03396822
000030 b4 17 ff 3b bc bb 49 3d cb db 99 3d ce 83 da 3c
       0.007784808 0.049251303 0.07512625 0.026674177
000040 20 c0 84 3d af a6 7b 3d 44 59 87 3d cb ec 82 3d
       0.064819574 0.06143826 0.06608823 0.06392821
000050 03 a0 8b 3d 11 4b b7 3c b6 fe 99 3c 0f 7a 7b 3b
       0.06817629 0.022374662 0.018798213 0.0038372313
000060 d7 93 c6 3c 5e be c2 3c 00 00 00 00 2d 79 0f 30
       0.024240417 0.023772415 0.0 5.21953e-10
000070 c9 3b 0a 34 00 00 00 00 00 00 00 00 eb 44 55 32
       1.2874001e-07 0.0 0.0 1.2413902e-08
000080 de 3f bf 32 ed 85 1f 37 62 71 ef 31 cf 79 25 32
       2.226437e-08 9.5083205e-06 6.9687056e-09 9.63196e-09
000090 bd 27 16 36 3b d0 53 36 00 00 00 00 f0 7c 0c 37
       2.2374873e-06 3.1562656e-06 0.0 8.37374e-06
0000a0 7c 4c 1c 37 05 9f 0c 36 85 ef a4 36 08 2d 9e 37
       9.3161325e-06 2.0954187e-06 4.9154646e-06 1.8856037e-05
0000b0 6f 25 ee 36 9f ea ba 36 62 a0 49 36 ad 93 27 36
       7.0973106e-06 5.5705455e-06 3.004469e-06 2.4970898e-06
0000c0 7b 94 ea 35 f2 fd a1 34 c4 d0 73 36 40 db 57 36
       1.7477572e-06 3.0173356e-07 3.633134e-06 3.2165117e-06
0000d0 00 00 00 00 00 00 00 00 fa 3d 24 32 00 00 00 00
       0.0 0.0 9.560148e-09 0.0
0000e0 00 00 00 00 3e b3 bf 2b 11 1b 68 2c 95 dd 12 35
       0.0 1.3621116e-12 3.2984208e-12 5.471168e-07
0000f0 00 00 00 00 00 00 00 00 dd 04 3e 36 8f fd 25 35
       0.0 0.0 2.8315037e-06 6.1836266e-07
000100 00 00 00 00 77 cc e8 35 84 81 2c 36 0a d6 f1 33
       0.0 1.7344854e-06 2.5705385e-06 1.12613705e-07
000110 f9 b1 70 36 85 a4 22 35 b8 e9 d0 34 df 01 25 36
       3.586638e-06 6.058911e-07 3.8913072e-07 2.4588005e-06
000120 10 04 67 36 16 6c 68 35 2e 5b 69 35 5a 7c 3e 34
       3.4424047e-06 8.658402e-07 8.693195e-07 1.7740368e-07
000130 d1 8c 6d 35 d1 8c 6d 35 ee f1 48 31 7f 53 af 31
       8.8494295e-07 8.8494295e-07 2.9241352e-09 5.1026627e-09
000140 8b f3 12 31 c9 f1 07 31 5c 3f 36 30 a4 b8 dc 31
       2.1384234e-09 1.9782525e-09 6.6301253e-10 6.423834e-09
000150 51 0a 08 32 d1 4c 19 32 cb 64 d4 31 fe ec c6 31
       7.918588e-09 8.923238e-09 6.181471e-09 5.7895013e-09
000160 11 dd bc 31 c5 f9 9a 31 6d d3 58 30 da a9 a5 31
       5.4966525e-09 4.5103854e-09 7.8880796e-10 4.821442e-09
000170 6b a2 ec 31 51 e2 8c 2f c6 6d 8c 31 a6 5d a7 31
       6.8869688e-09 2.562666e-10 4.087016e-09 4.8709863e-09
000180 ba 88 5b 31 17 64 06 32 14 7d 36 31 4a 0b 29 31
       3.1946414e-09 7.822584e-09 2.6555584e-09 2.4599154e-09
000190 80 6e 22 31 61 43 28 30 4a 0b 29 31 4a 0b 29 31
       2.3636915e-09 6.1213795e-10 2.4599154e-09 2.4599154e-09
0001a0 13 e4 93 3a cb a1 8d 3a e2 03 b8 3a 73 ca 93 3a
       0.0011283181 0.0010805664 0.0014039243 0.0011275545
0001b0 07 4c b6 3a ae 15 a6 3b 2b 06 b7 3b 2c a2 ac 3c
       0.0013908156 0.0050685024 0.005585452 0.021073423
0001c0 1e b8 98 3b 6d 05 9f 3b 4f 42 43 3c 30 5a 49 3c
       0.0046606204 0.0048529417 0.011917665 0.012289569
0001d0 74 e9 01 3b bf 58 95 3c 9a 0d da 3c e2 9b 0b 3c
       0.0019822987 0.018230794 0.026617814 0.008521052
0001e0 0d 77 d0 3c d4 e9 af 3c aa b4 c3 3c 62 c2 cb 3c
       0.025447393 0.021473803 0.023889858 0.024872962
0001f0 4f 9d ab 3c 99 a8 04 3c cb e7 d9 3b 9b 27 af 3a
       0.020949034 0.008096837 0.0066499463 0.0013363244
000200 8c f3 12 3c 04 dc 0f 3c 5d df 63 35 b9 a3 55 35
       0.008969199 0.008780483 8.4889126e-07 7.958693e-07
000210 8d bd d9 35 94 35 89 35 d8 a8 e9 35 66 ac 13 36
       1.6222926e-06 1.0222889e-06 1.7408993e-06 2.2005056e-06
000220 dc 6b 33 36 ae 77 19 38 f7 2d 36 36 62 fd 49 36
       2.673586e-06 3.6589503e-05 2.7146868e-06 3.0098822e-06
000230 e8 b7 83 35 15 1a 37 37 cf f3 dc 35 3b 46 bd 37
       9.813784e-07 1.0913723e-05 1.6462235e-06 2.256326e-05
000240 c5 9c 5f 37 71 ee 0e 37 bf d5 14 38 11 d0 69 37
       1.33283365e-05 8.519376e-06 3.5485016e-05 1.39363265e-05
000250 1f 0d 26 38 4d 1b 16 38 a4 74 fc 37 db d9 87 36
       3.9589704e-05 3.5788213e-05 3.0095056e-05 4.0486752e-06
000260 f6 b1 39 36 c0 d0 01 35 45 f8 d4 36 a3 ad b6 36
       2.7670735e-06 4.8360016e-07 6.3469947e-06 5.4442366e-06
000270 e8 54 e9 3a c7 34 e1 3a 4d f0 fd 3a 5f e9 e3 3a
       0.0017801793 0.0017181867 0.0019373983 0.0017388276
000280 8e a0 e1 3a 1b ec e9 3b 80 19 00 3c dd 07 bf 3c
       0.0017213987 0.0071387417 0.00781858 0.02331918
000290 d0 71 e3 3b 48 b8 df 3b 70 74 48 3c de 52 52 3c
       0.0069410577 0.006827388 0.012234792 0.01283714
0002a0 78 b5 2a 3b 7c 05 9d 3c a0 b8 d1 3c b3 08 15 3c
       0.0026048105 0.019167654 0.025600731 0.009096312
0002b0 18 8a cc 3c d7 89 b9 3c 47 f6 c5 3c af 81 ca 3c
       0.024968192 0.022648735 0.024165286 0.024720041
0002c0 fa 0a c9 3c 02 10 0a 3c ba b8 e2 3b e3 39 b7 3a
       0.024541367 0.008426668 0.006918994 0.0013979044
0002d0 78 22 19 3c b2 9d 15 3c c0 aa 5c 3a c3 52 54 3a
       0.009346597 0.009131836 0.0008417778 0.00080994907
0002e0 84 19 65 3a 88 40 5d 3a 84 c6 4f 3a 99 c2 4e 3b
       0.0008739459 0.0008440097 0.00079260045 0.0031549095
0002f0 b3 5a 64 3b 56 36 14 3c 28 ae 4c 3b aa 73 46 3b
       0.00348441 0.009046158 0.0031231735 0.0030281343
000300 8f 5a 9c 3b 7e b7 a0 3b bd 3c a7 3a fb 71 f1 3b
       0.0047715376 0.0049046865 0.001275919 0.007368324
000310 13 e9 17 3c 18 ab 88 3b 64 23 17 3c f8 46 0f 3c
       0.009271878 0.0041707866 0.009224746 0.008744948
000320 6a ef 15 3c bd 58 18 3c 6f cb 17 3c 8c 10 56 3b
       0.009151319 0.009298501 0.009264811 0.0032663671
000330 64 1c 30 3b d2 31 0d 3a cb 06 6c 3b 37 ed 66 3b
       0.002687239 0.0005386147 0.003601479 0.0035236606
000340 02 f7 96 3a c6 bb cf 3a 5b 1a bf 3a 74 87 b1 3a
       0.0011517706 0.0015848808 0.0014579998 0.0013544396
000350 dd d6 d5 3a 12 bd b8 3b 74 b0 cf 3b 2b 5e 89 3c
       0.0016314645 0.0056377733 0.0063381735 0.016768536
000360 bc 62 b0 3b f9 b9 ac 3b 17 5b 22 3c 9d dd 24 3c
       0.005382864 0.005271193 0.009909413 0.010062602
000370 00 8b 19 3b b0 30 6a 3c e1 02 98 3c 29 12 fc 3b
       0.0023428798 0.014293835 0.01855606 0.0076925945
000380 c8 ab 9b 3c fe f6 95 3c 56 36 97 3c f0 35 93 3c
       0.01900281 0.018306252 0.018458527 0.017970055
000390 86 2b 8e 3c 8a e6 d4 3b 5e 63 b2 3b cd 86 92 3a
       0.017354738 0.006497209 0.0054439744 0.001117909
0003a0 1d 5d e7 3b d8 ed e2 3b 00 00 00 00 00 00 00 00
       0.0070606605 0.006925326 0.0 0.0
0003b0 00 00 00 00 00 00 00 00 00 00 00 00 00 00 00 00
       0.0 0.0 0.0 0.0
0003c0 00 00 00 00 00 00 00 00 00 00 00 00 00 00 00 00
       0.0 0.0 0.0 0.0
0003d0 00 00 00 00 00 00 00 00 00 00 00 00 00 00 00 00
       0.0 0.0 0.0 0.0
0003e0 00 00 00 00 00 00 00 00 00 00 00 00 00 00 00 00
       0.0 0.0 0.0 0.0
0003f0 00 00 00 00 00 00 00 00 00 00 00 00 00 00 00 00
       0.0 0.0 0.0 0.0
